AutoBalance/results/tvarit_wheel/New_Experiments/test/dyly_LA_init/1/epoch_200.pth (torch, 236623 bytes, 8 tensors)

weight f4 [256, 64]
0	0xbc420803	-0.01184273
1	0x3d958f2c	0.073026985
2	0x3dd8b19a	0.1058075
3	0x39fc8054	0.00048160797
4	0xbd02af08	-0.031905204
5	0x3b4782c7	0.003044294
6	0x3da898f0	0.082322955
7	0x3bbde636	0.0057952655
8	0xbc00844a	-0.00784404
9	0x3dc1415a	0.09436293
10	0x3da5085d	0.08058236
11	0x3dcc31d8	0.099704444
12	0x3dbaa0cc	0.09112701
13	0x3d904ef2	0.070463076
14	0xbdad08f3	-0.084489726
15	0x3b1a176d	0.0023512498
16	0xbdc36b2f	-0.09541928
17	0xbde57f95	-0.11205975
18	0x3dee71ec	0.116428226
19	0x3d4d1cfd	0.050076474
20	0xbd8c73df	-0.06858038
21	0xbc1a4331	-0.009415434
22	0x3a57ec9f	0.00082368584
23	0x3de3fa77	0.11131757
24	0x3c4b66aa	0.012414614
25	0xbcb8f54b	-0.022577902
26	0x3d73f677	0.05956122
27	0x3b618cb7	0.0034416148
28	0xbdac7aa7	-0.084218316
29	0x3cbac2c1	0.022797944
30	0x3de50ba2	0.111838594
31	0xbdd79b87	-0.10527711
32	0xbd2da2ee	-0.04239171
33	0x3dc728cc	0.09724578
34	0xbdb3df82	-0.08782865
35	0xbd3adac7	-0.0456188
36	0x3cffb15b	0.0312125
37	0xbb9ec909	-0.0048457426
38	0x3d6f3d91	0.058408324
39	0x3dcc040d	0.0996171
40	0x3da4d444	0.08048299
41	0xbdda49a4	-0.10658577
42	0x3cf6ef99	0.030143546
43	0x3d04fa60	0.03246534
44	0xbde301b9	-0.11084313
45	0xbb93d4cc	-0.0045114513
46	0xbd1a6cc3	-0.03770138
47	0xbd14638e	-0.036227755
48	0x3d424ed4	0.047438458
49	0x3d7c0882	0.06153155
50	0x3dae8a08	0.08522421
51	0xbdc14c9d	-0.09438441
52	0xbe010056	-0.12597784
53	0xbde40ebb	-0.11135622
54	0xbda13646	-0.0787168
55	0x3d1ad9c4	0.037805334
56	0xbbe3b814	-0.006949434
57	0xbd3df1d8	-0.04637322
58	0xbd7e85da	-0.06213937
59	0xbdef87a0	-0.1169579
60	0x3d65d827	0.056114342
61	0xbdf87f5c	-0.12133667
62	0xbde2ed54	-0.11080423
63	0xbdcfbcba	-0.101434186
64	0xbdc2aa3d	-0.095051266
65	0xbd59121d	-0.05299579
66	0xbc8d45fc	-0.017245285
67	0x3dda5186	0.106600806
68	0xbd4f0a6a	-0.05054704
69	0x3da1cf99	0.07900924
70	0xbd8a0618	-0.067394435
71	0x3ba5551c	0.005045546
72	0x3db2c1ab	0.087283455
73	0xbdf40a10	-0.11915982
74	0x3dd8bf31	0.10583342
75	0x3cafd485	0.021463642
76	0x3da20a0f	0.07912075
77	0xbdf1ef78	-0.11813253
78	0x3a802ea0	0.000977952
79	0x3dcce230	0.10004079
80	0xbd9fee4f	-0.07809126
81	0xb97c8bac	-0.00024084625
82	0xbdf4349e	-0.119240984
83	0xbc2b79db	-0.010466064
84	0xbd8a210d	-0.06744585
85	0xbc6c9e3e	-0.014442025
86	0xbda6c050	-0.081421494
87	0xbd9847b0	-0.07435548
88	0xbdafbd07	-0.08580976
89	0xbc889dfb	-0.016676893
90	0x3cf3023b	0.02966415
91	0xbddd8bf4	-0.108177096
92	0xbd40f3ff	-0.047107693
93	0x3da76781	0.08174039
94	0xbdc1812e	-0.09448467
95	0x3dd471fa	0.10373302
96	0x3d2b52e8	0.041827112
97	0x3d6531bf	0.055955645
98	0x3cdaf11d	0.0267263
99	0xbdd69e05	-0.104793586
100	0xbdf630b4	-0.12021008
101	0x3d8c3b82	0.06847288
102	0xbdaf15de	-0.08549093
103	0xbdb55612	-0.08854307
104	0x3dcf81b6	0.10132162
105	0x3d436092	0.04769952
106	0xbdb282cb	-0.08716353
107	0xbbca62c6	-0.0061763255
108	0x3df732fc	0.120702714
109	0x3db9dc6a	0.09075244
110	0xbd51aff6	-0.0511932
111	0x3dc0edac	0.09420332
112	0x3c012b28	0.007883824
113	0x3cf6db6e	0.03013393
114	0xbce17d56	-0.027525585
115	0x3d912932	0.070879355
116	0xbdc21ef4	-0.0947856
117	0xbdb3b3c9	-0.08774526
118	0xbc7faf45	-0.015605752
119	0x3d8afa9b	0.067860804
120	0x3c2c25a6	0.010507023
121	0x3dd09c4e	0.10186063
122	0x3da1ce80	0.07900715
123	0x3ca6074c	0.020267151
124	0x3dfa81f6	0.12231819
125	0x3d278bfb	0.04090498
126	0xbde8567b	-0.1134462
127	0x3d2ec989	0.042672668
128	0x3d46c351	0.048526112
129	0xbd0a0e79	-0.03370521
130	0x3dc8e534	0.09809342
131	0xbd30e7e9	-0.043189917
132	0xbd3b720c	-0.04576306
133	0xbda5fba1	-0.08104635
134	0x3c5404d5	0.012940605
135	0xbd1defbc	-0.038558707
136	0xbd58f29e	-0.052965753
137	0x3d34a7a8	0.044105202
138	0x3c4dd0e7	0.012562013
139	0x3dffe678	0.1249513
140	0xbd8b5591	-0.0680343
141	0xbda4e3c3	-0.080512546
142	0xbd9c41d8	-0.07629746
143	0xbdb908f0	-0.09034908
144	0x3d9c037c	0.07617852
145	0x3d653820	0.055961728
146	0xbce37418	-0.027765319
147	0x3b71edd5	0.003691544
148	0x3d447a0b	0.04796795
149	0xbd45af50	-0.048262894
150	0x3d21306f	0.03935283
151	0x3de5be69	0.112179585
152	0xbbf779b6	-0.007552351
153	0xbd68eaa3	-0.056864392
154	0xbd1ea9b4	-0.03873606
155	0xbd0922c8	-0.033480436
156	0x3d90647c	0.07050416
157	0xbd3e2de9	-0.046430502
158	0x3ddbe2e3	0.107366346
159	0xbcc05b30	-0.023480982
160	0xbd8a2c71	-0.06746758
161	0xbde4d300	-0.111730576
162	0xbcbb4ea8	-0.022864655
163	0x3dd24062	0.10266186
164	0x3da070a8	0.078339875
165	0xbd7be522	-0.061497815
166	0x3d6c1e99	0.057646368
167	0x3d7466b7	0.05966827
168	0xbc77a233	-0.015114355
169	0xbd4e6116	-0.050385557
170	0x3db4133c	0.08792731
171	0xbbd8fd49	-0.006621991
172	0xbd7d38be	-0.06182169
173	0xbc4f0112	-0.0126345325
174	0x3c1655ad	0.0091757
175	0xbd678640	-0.056524515
176	0x3deca5e6	0.1155508
177	0x3d2ed999	0.042687986
178	0xbc16b2bc	-0.009197887
179	0xbdb4d3c8	-0.088294566
180	0xbde45f89	-0.111510344
181	0xbcda0af9	-0.02661656
182	0x3ddee0fa	0.108827546
183	0xbd238a87	-0.03992703
184	0xbcf59083	-0.029976135
185	0x3d87b7bc	0.066268414
186	0xbcfcff11	-0.030883344
187	0x3d1f2bba	0.03886006
188	0x3d981ef6	0.0742778
189	0x3df5163c	0.119671315
190	0x3d55229a	0.05203495
191	0x3da47ee9	0.08032019
192	0x3db7fc44	0.08983663
193	0xbd9bcfad	-0.076079704
194	0xbdadc86c	-0.08485493
195	0x3d5faaa2	0.054606088
196	0xbdeaa4c1	-0.114572056
197	0x3dec893f	0.11549615
198	0xbd7e5356	-0.062091194
199	0x3ddab9bb	0.106799565
200	0xba0e5625	-0.00054297067
201	0xbdac3634	-0.08408776
202	0x3c6f1600	0.014592648
203	0xbd98c463	-0.07459333
204	0xbdc7ca29	-0.09755356
205	0x3ddb33aa	0.107032135
206	0xbca60e86	-0.020270597
207	0x3dc7d522	0.09757449
208	0x3dca5ad1	0.09880603
209	0x3c304832	0.0107594
210	0xbdefb1e1	-0.117038496
211	0x3d899470	0.06717765
212	0x3cde547e	0.027139898
213	0x3d807d82	0.06273939
214	0x3c876362	0.016526882
215	0x3d2dc1b4	0.042421058
216	0xbc11a989	-0.008890518
217	0x3cacf512	0.021112952
218	0x3c574ee6	0.013141369
219	0x3d0cc08c	0.034363315
220	0x3d5f0b19	0.054453943
221	0xbde198e5	-0.110154904
222	0xbdecbff8	-0.11560053
223	0xbdd3edb3	-0.10348072
224	0x3dc473e0	0.09592414
225	0x3d44f0f6	0.04808136
226	0xbc95ab8f	-0.018270282
227	0x3d61bd89	0.055112395
228	0xbdc9bb33	-0.098501585
229	0xbdc3625e	-0.095402464
230	0x3ca72a54	0.020405926
231	0xbd9bd536	-0.07609026
232	0x3dbf0868	0.09327775
233	0xbdaa49a0	-0.08314824
234	0x3d34a831	0.044105712
235	0x3d92dbb0	0.07170808
236	0x3d60f391	0.054919783
237	0x3d65392e	0.055962734
238	0xbdcbbba1	-0.09947897
239	0xbdb8a3b8	-0.09015602
240	0x3dd32df2	0.10311498
241	0x3bd2d986	0.006434622
242	0x3d850752	0.06495537
243	0x3dd00269	0.1015671
244	0xbd998171	-0.07495392
245	0xbd599cc6	-0.053128026
246	0x3b85b840	0.004080802
247	0x3d9b6646	0.075878665
248	0x3cd11b9d	0.025525862
249	0x3defebae	0.11714874
250	0x3de09296	0.10965459
251	0xbdd41549	-0.10355622
252	0x3dcaa788	0.09895235
253	0xbd8a2ef7	-0.06747239
254	0xbcf2b985	-0.029629478
255	0xbdedb032	-0.11605872

bias f4 [256]
0	0x3c126aca	0.008936593
1	0x3dd4b8d2	0.10386814
2	0x3d9b90a9	0.07595951
3	0x3db5c1a6	0.08874826
4	0xbdbeef5d	-0.09322999
5	0xbdccc01c	-0.099975795
6	0x3d85b72f	0.0652908
7	0x3d2010a8	0.039078385
8	0xbd9476a2	-0.0724919
9	0xbda2b2aa	-0.07944234
10	0x3dbe57eb	0.09294113
11	0xbc242c21	-0.010020287
12	0x3cd71d0f	0.026258973
13	0xbdbf0f0d	-0.093290426
14	0x3e07d269	0.13263859
15	0x3d6e2457	0.058140125
16	0xbd127ca1	-0.035763387
17	0x3b0bfd4f	0.00213607
18	0xbd4d3038	-0.050094813
19	0x3d9a86dc	0.07545254
20	0x3d4f0422	0.05054105
21	0xbd9fcc48	-0.078026354
22	0xbcf381de	-0.029725011
23	0xbdb1ac74	-0.08675471
24	0x3c4ce280	0.012505174
25	0x3d67fbd4	0.056636646
26	0xbd3dbe53	-0.046324085
27	0x3d84a6ef	0.064771526
28	0xbd4a0c59	-0.049328182
29	0xbd678336	-0.056521617
30	0x3dc74726	0.09730367
31	0x3bf8e118	0.0075951926
32	0xbb94a666	-0.004536438
33	0x3d995580	0.07487011
34	0x3dd973ae	0.10617767
35	0x3d64ad83	0.055829536
36	0xbdb06ca4	-0.086144716
37	0x3dc0a30b	0.09406098
38	0x3d31e5d8	0.043432087
39	0x3d79fbbd	0.061031092
40	0x3d85a420	0.06525445
41	0xbdb8d31e	-0.090246424
42	0xbdc04c2f	-0.09389531
43	0xbde9197c	-0.11381814
44	0xbd64d42a	-0.055866398
45	0x3de653b4	0.11246434
46	0x3d407195	0.04698332
47	0xbdd175d1	-0.1022755
48	0xbd8a9344	-0.0676637
49	0x3dd71dae	0.10503708
50	0xbd047218	-0.03233537
51	0x3d2f3a7c	0.042780384
52	0xbd9cf8de	-0.07664655
53	0xbd9fa24c	-0.077946275
54	0xbd1f2f5c	-0.038863525
55	0xbd71e926	-0.05906024
56	0x3d363449	0.044483457
57	0x3dbacb8e	0.09120856
58	0x3dc8f2d9	0.098119445
59	0x3c55bd72	0.013045656
60	0x3dc80b3a	0.09767766
61	0x3de1236e	0.10993086
62	0xbcdc7b72	-0.026914332
63	0xbdc95606	-0.09830861
64	0x3ddfd8e5	0.10930041
65	0xbd1bc6a8	-0.03803125
66	0xbdc61916	-0.096727535
67	0xbceb078d	-0.028690124
68	0x3e0ad575	0.1355799
69	0x3d0f3dec	0.034971163
70	0xbcb070e8	-0.021538213
71	0x3d7e6464	0.06210746
72	0xbd249c34	-0.04018803
73	0x3cbd0d7f	0.023077725
74	0x3deaa491	0.1145717
75	0xbdbc7148	-0.09201294
76	0x3ccb4ef1	0.024817916
77	0x3da42ee8	0.08016759
78	0xbcd1c244	-0.025605328
79	0x3e0e3570	0.13887572
80	0x3db544be	0.08851002
81	0xbbab9715	-0.0052365162
82	0x3cceb907	0.025234712
83	0xbc6eb912	-0.014570491
84	0xbd599f1a	-0.053130247
85	0x3dcdf0ad	0.10055671
86	0xbd8bb81d	-0.06822226
87	0xbb6dcbb1	-0.003628474
88	0x3ac1a9e1	0.0014775359
89	0xbd3498d0	-0.044091046
90	0xbd973584	-0.07383254
91	0xbb43ff3a	-0.0029906766
92	0x3d09ddd3	0.033658814
93	0x3df792a0	0.120885134
94	0xbdd19dd8	-0.102351844
95	0xbd6a9688	-0.057272464
96	0x3c08a7c5	0.008340781
97	0x3e23fa77	0.16013514
98	0x3d3d75ce	0.046254925
99	0xbc202cbc	-0.0097762905
100	0xbd8c94c4	-0.06864312
101	0x3ddff794	0.10935894
102	0xbdc5d380	-0.09659481
103	0x3ccdf2da	0.025140215
104	0x3d4d1074	0.05006452
105	0xbd950350	-0.072760224
106	0xbd2b5550	-0.041829407
107	0xbcbb85f4	-0.022891022
108	0xbd97c580	-0.07410717
109	0x3deb70fa	0.11496158
110	0xbcf68112	-0.030090842
111	0xbaaa418c	-0.0012989505
112	0xbb9841b4	-0.0046465043
113	0x3c380655	0.011231978
114	0x3d5b9700	0.0536108
115	0x3b215334	0.0024616243
116	0x3d0757e7	0.033042815
117	0xbd9e190f	-0.07719623
118	0xbd36b1d4	-0.044603184
119	0x3bdce70c	0.00674141
120	0xbdfd07f5	-0.12355033
121	0x3d85f28c	0.06540403
122	0x3d49d69d	0.049276937
123	0x3caa9174	0.02082131
124	0x3ccf71ca	0.025322814
125	0xbdaaa91a	-0.08333035
126	0x3e14ddc2	0.14537719
127	0xbdef61fe	-0.116886124
128	0xbda7c608	-0.08192068
129	0xbcde277f	-0.027118443
130	0x3dacaec8	0.084317744
131	0xbc3c1dd6	-0.011481723
132	0x3dd4dd28	0.10393745
133	0x3d046640	0.032324076
134	0xbd061a5e	-0.03273999
135	0xbd822dd1	-0.06356395
136	0xbd5eff4a	-0.05444268
137	0xbdc5dd7c	-0.096613854
138	0xbda4e3ca	-0.0805126
139	0xbb9089ac	-0.004410943
140	0x3dfc7b3f	0.12328195
141	0x3dd1400d	0.10217295
142	0xbdb2829e	-0.087163195
143	0x3dd2965c	0.10282585
144	0xbdaf5f41	-0.0856309
145	0xbcc22486	-0.023699056
146	0x3d400f91	0.046889845
147	0x3cbf1894	0.02332715
148	0xbb00a04c	-0.0019626794
149	0xbc8bd647	-0.017069949
150	0x3ab4802e	0.0013771111
151	0xbdba9075	-0.09109584
152	0x3dc4eed5	0.09615866
153	0x3b72d9f8	0.003705619
154	0xbdb1d441	-0.08683062
155	0x3a907776	0.001102193
156	0x3d50c8fd	0.050972927
157	0x3c0aff6c	0.008483749
158	0x3d7c9aab	0.06167094
159	0xbdbe7c28	-0.09301025
160	0xbd2d130f	-0.042254504
161	0xbcd87e2a	-0.026427347
162	0xbd53bc4a	-0.05169324
163	0x3bac0b85	0.0052503967
164	0xbd881cc6	-0.06646113
165	0x3b2e61f4	0.0026608678
166	0x3d3ef340	0.0466187
167	0xbc34038c	-0.010987174
168	0xbd496902	-0.04917241
169	0x3de8d424	0.113685876
170	0xbdd7e853	-0.10542359
171	0xbd807b53	-0.06273522
172	0x3dce869d	0.10084269
173	0xbe020dbf	-0.12700556
174	0xbd1e9041	-0.03871179
175	0xbd901445	-0.07035116
176	0xbd044e7b	-0.032301407
177	0x3dedbd84	0.11608413
178	0xbd71e014	-0.05905159
179	0x3c8b2eb9	0.016990053
180	0xbd9dcb72	-0.0770482
181	0x3e1338ed	0.14377184
182	0xbda53eaa	-0.08068593
183	0xbdd15c2c	-0.102226585
184	0xbdf2f089	-0.11862285
185	0x3ca8b9f0	0.020596474
186	0xbdce11ec	-0.10062012
187	0x3ddaf92f	0.10692059
188	0x3dd979ae	0.10618912
189	0xbdcc59d9	-0.099780746
190	0x3db1b2e7	0.08676701
191	0xbd2c0ccd	-0.042004395
192	0xbde34656	-0.110974
193	0x3c8ee85a	0.017444778
194	0xbc0ad499	-0.008473539
195	0xbcf13cb2	-0.029447887
196	0xbd437916	-0.0477229
197	0x3d8965dc	0.06708881
198	0x3d5d28ed	0.053994108
199	0x3d18e0a6	0.037323616
200	0x3dedca0c	0.11610803
201	0xbc3e3a7f	-0.011610626
202	0x3cbf235a	0.023332287
203	0x3d874950	0.0660578
204	0xbd8275c4	-0.06370118
205	0xbdef9641	-0.116985805
206	0x3db0e4bc	0.086373776
207	0x3e0fc381	0.14039423
208	0x3afd5475	0.0019327538
209	0x3de90ebb	0.11379763
210	0xbc585491	-0.013203756
211	0x3de968a8	0.11396915
212	0x3d991ef9	0.07476611
213	0x3da7a515	0.08185784
214	0x3df3ba68	0.119007885
215	0xbdcb0a90	-0.09914124
216	0xbc8cb50c	-0.017176174
217	0xbded49c6	-0.11586337
218	0x3cfdf291	0.030999454
219	0xbc46eebd	-0.012141881
220	0x3dd563b1	0.10419405
221	0xbde0d6d4	-0.10978475
222	0xbdaaa936	-0.08333056
223	0xbde5a856	-0.11213748
224	0xbd80362b	-0.06260332
225	0xbdd4c1b1	-0.10388506
226	0x3e02eff3	0.12786846
227	0x3cd90c9c	0.02649527
228	0x3d9c2394	0.076239735
229	0xbd93f346	-0.07224135
230	0x3d0e6416	0.03476342
231	0xbdbe36ee	-0.09287821
232	0xbd55785c	-0.052116737
233	0x3d7d0b3e	0.0617783
234	0x3cb5e644	0.022204526
235	0x3de13251	0.10995925
236	0x3d7c0c8f	0.061535414
237	0x3d958dfa	0.073024705
238	0xbb434df9	-0.0029801114
239	0x3d3949b3	0.0452363
240	0xbc3f31e2	-0.011669608
241	0x3d8dd81f	0.069259875
242	0x3cc60945	0.024174342
243	0x3d8643df	0.06555914
244	0xba1ae2e3	-0.00059084425
245	0x3d8d8e22	0.06911875
246	0xbd435e9b	-0.047697645
247	0xbbffea93	-0.007809946
248	0x3dff9628	0.12479812
249	0xbdb55885	-0.088547744
250	0xbd739e7e	-0.05947732
251	0x3d1d221b	0.038362604
252	0x3c202443	0.0097742705
253	0xbdb41373	-0.08792772
254	0xbe01cef8	-0.12676609
255	0xbddbf51c	-0.1074011

weight f4 [128, 256]
0	0xbd28c30f	-0.041201647
1	0xbc19c6c4	-0.009385768
2	0x3c00277b	0.007821913
3	0x3c8c2db1	0.017111631
4	0x3c4b1352	0.012394743
5	0x3d020aea	0.03174869
6	0x3c0158d6	0.007894715
7	0xbd49996c	-0.04921858
8	0x3b8f1c9c	0.004367424
9	0x3d5783ea	0.052616037
10	0x3d587874	0.052849248
11	0xbc918b12	-0.01776651
12	0xbd343e55	-0.044004757
13	0x3d0206e1	0.03174484
14	0x3ced2d35	0.02895222
15	0xbcb41b5d	-0.021985704
16	0x3d0769bc	0.03305982
17	0xbd45c190	-0.0482803
18	0x3cc33a19	0.023831414
19	0xbc190774	-0.009340156
20	0x3b6b7e48	0.0035933424
21	0xbd53a7ba	-0.05167363
22	0x3c4a58d5	0.012350281
23	0x3d4769cc	0.04868488
24	0x3c1788bc	0.009248909
25	0x3d39ff3a	0.04540942
26	0xbd028908	-0.031868964
27	0x3ce6a25a	0.028153587
28	0xbce8077e	-0.028323885
29	0xbb8e4e19	-0.004342806
30	0xba006f05	-0.00048993557
31	0x3c1cbecf	0.009566977
32	0x3d24799b	0.040155035
33	0xbc82bc00	-0.015958786
34	0xbd380646	-0.044927858
35	0x3ab18b9d	0.0013545636
36	0xbcb36182	-0.021897081
37	0xbbc69e36	-0.0060613407
38	0x3d602842	0.054725893
39	0xbd38a7ce	-0.045081906
40	0x3d26864d	0.040655423
41	0xbd1542e0	-0.03644073
42	0x3c667c3a	0.014067704
43	0x3d738922	0.059456952
44	0x3cc1c0a6	0.023651432
45	0xbd14616a	-0.036225714
46	0x3ce0a1c3	0.027420884
47	0x3d806f2f	0.062712066
48	0xbb2a6a6c	-0.0026003374
49	0xbce641cc	-0.028107546
50	0xbd0a4072	-0.033752866
51	0xbc4def02	-0.012569191
52	0x3ce0e166	0.027451228
53	0xbd4cb114	-0.049973562
54	0xbbfb5e90	-0.007671185
55	0xbd228486	-0.039677165
56	0x3d7157a6	0.05892148
57	0x3ab9218c	0.0014124378
58	0xbd2de15b	-0.042451244
59	0xbc70f292	-0.014706271
60	0x3d39aafe	0.045329086
61	0xbd37c84d	-0.044868756
62	0xbb6f0716	-0.003647273
63	0x3d6bca90	0.057566226
64	0x3d79e9e0	0.061014056
65	0xbd537302	-0.051623352
66	0x3d1e5378	0.03865382
67	0x3d4b6ee1	0.04966629
68	0xbd3f1675	-0.046652276
69	0xbcc3aa1a	-0.023884822
70	0xbc45ccdc	-0.012072768
71	0x3d01212b	0.031525772
72	0xbcd143f2	-0.025545094
73	0x3d628e3b	0.055311423
74	0x3d8520ff	0.06500434
75	0x3bf287ca	0.007401441
76	0xbc4c6a03	-0.012476447
77	0xbd38098a	-0.044930972
78	0x3c34b692	0.011029856
79	0x3d34aa99	0.044108007
80	0xbd1963d4	-0.03744872
81	0x3bd62304	0.006534936
82	0xbcdd2bd4	-0.026998438
83	0xbd342762	-0.04398287
84	0xbd03f47c	-0.03221558
85	0xbc6f2530	-0.014596269
86	0x3b9f0c1e	0.0048537394
87	0xbc9d4ade	-0.019200739
88	0x3d704554	0.058659866
89	0xbcf2fa8a	-0.029660482
90	0xbd16225a	-0.036653854
91	0xbd784252	-0.060610123
92	0x3d809c40	0.06279802
93	0x3d16d7cd	0.036826897
94	0x3c6c01aa	0.014404694
95	0x3d059db3	0.032621097
96	0xbd71cc4d	-0.059032727
97	0x3b8e990a	0.00435174
98	0xbd40a53d	-0.047032584
99	0x3d0e6f30	0.034774005
100	0x3d1093b6	0.035297118
101	0xbd62ed6b	-0.0554022
102	0xbd4c8b1c	-0.049937353
103	0xbd2f6c5e	-0.042827956
104	0xbd3c7b01	-0.046015743
105	0x3d7b07b8	0.061286658
106	0x3c9cbc08	0.019132629
107	0x3c2d49bc	0.010576662
108	0xbcb69adf	-0.022290645
109	0x3d5d9d56	0.054105125
110	0x3d42b090	0.047531664
111	0x3c77a272	0.015114414
112	0xbd654650	-0.05597526
113	0xbd36bba3	-0.044612538
114	0xbcc7c046	-0.024383675
115	0x3d2aa3b5	0.04166003
116	0xbcd67bf2	-0.026182149
117	0x3d7f2701	0.062293056
118	0x3c75008a	0.014953742
119	0xbcdf2eb6	-0.027243953
120	0x3d2c0e88	0.042006046
121	0xbc8b55dc	-0.017008714
122	0x3caddeff	0.021224497
123	0x3bfc6392	0.0077022994
124	0xbc8bcd64	-0.017065711
125	0xbd4976b2	-0.049185462
126	0x3b89bb2e	0.0042032218
127	0xbd026cd8	-0.031842083
128	0x3d1aa2f4	0.03775306
129	0x3d5bdbd2	0.053676434
130	0x3cc28614	0.023745574
131	0x36e80adb	6.9154025e-06
132	0x3d059469	0.032612238
133	0xbd6b02be	-0.057375662
134	0xbae891ce	-0.0017743648
135	0x3a389814	0.00070417044
136	0xbd50e286	-0.05099728
137	0xbcca84e8	-0.024721578
138	0x3c379564	0.011205051
139	0xbb7241d2	-0.0036965501
140	0x3d464656	0.04840692
141	0xbc172108	-0.009224184
142	0x3d56c928	0.05243793
143	0xbc8d6f2a	-0.017264921
144	0x3d47cb68	0.048777968
145	0x3d14a7ea	0.036292948
146	0x3d48380e	0.048881583
147	0x3d219e3a	0.039457537
148	0xbd41a8b6	-0.047280036
149	0x3d6afeec	0.05737202
150	0x3cae1869	0.021251874
151	0xbd6a6f63	-0.057235133
152	0x3d302e56	0.04301294
153	0xbd5f092e	-0.054452114
154	0xbca6d3c4	-0.02036465
155	0x3bb97d3f	0.0056606825
156	0x3c941ffb	0.018081656
157	0xbd033db6	-0.032041274
158	0xbd4e77a6	-0.050407074
159	0x3cab4698	0.020907685
160	0x3d5ab54b	0.05339555
161	0x3d7f7cd8	0.06237492
162	0xbcbb8c34	-0.022894002
163	0x3d5027e0	0.050819278
164	0x3d4965e5	0.04916944
165	0xbd37f3f7	-0.044910397
166	0x3a34877e	0.0006886645
167	0x3c8cf984	0.017208822
168	0xbc185904	-0.009298567
169	0x3d650d7b	0.05592106
170	0xbc32f604	-0.0109229125
171	0x3d662774	0.05618997
172	0xbd21451c	-0.03937255
173	0x3c802abe	0.015645381
174	0x3d4e8be5	0.050426383
175	0xbd27ce0c	-0.040967986
176	0x3cd7a370	0.02632305
177	0x3bb433ed	0.005499354
178	0x3d7fc363	0.062442195
179	0xbd0a919f	-0.03383028
180	0x3d8181a2	0.063235536
181	0xbd06971f	-0.032858964
182	0xbd1a72dc	-0.037707195
183	0xbd4503de	-0.04809939
184	0xbd3cad53	-0.046063732
185	0xbce2b06d	-0.027672017
186	0xbd4739ab	-0.04863898
187	0xbca392ac	-0.0199674
188	0x3d370160	0.044679046
189	0xbd030471	-0.031986658
190	0x3cbffb72	0.023435328
191	0x3cadd05b	0.021217516
192	0x3cbbb088	0.022911325
193	0x3d661e1b	0.056181055
194	0xbca46bbd	-0.020070905
195	0xbac73408	-0.0015198002
196	0x3d36b086	0.04460194
197	0x3d6b3747	0.057425763
198	0x3d839493	0.06424823
199	0x3cf146b1	0.029452654
200	0xbc8849e6	-0.0166368
201	0xbb530974	-0.003220168
202	0xbd70aa3a	-0.05875609
203	0xbc37f72b	-0.011228363
204	0x3d1b78e0	0.037957072
205	0xbd240946	-0.040047906
206	0x3d468e57	0.04847559
207	0xbcd05b8b	-0.025434276
208	0x3d362015	0.04446419
209	0xbc7bda04	-0.015371803
210	0xbcf7af30	-0.030234903
211	0x3d617311	0.055041377
212	0x3c90495c	0.017613105
213	0x3d2c44b1	0.042057697
214	0x3d4607a4	0.04834713
215	0xbd3682d7	-0.044558372
216	0x3d723356	0.05913099
217	0xbd771744	-0.060324922
218	0xbd1037f5	-0.035209615
219	0x3d58299e	0.052774064
220	0x3a9990ac	0.0011716089
221	0x3d358622	0.044317372
222	0xbcac76c0	-0.021052718
223	0xbb853edc	-0.0040663313
224	0xbccf1b66	-0.02528162
225	0xbcaba4bd	-0.020952577
226	0xbc6212c0	-0.013798416
227	0x3d53108f	0.051529463
228	0xbc603831	-0.013685272
229	0x3cb1b3c4	0.021692164
230	0xbd464871	-0.04840893
231	0x3d7a1994	0.06105955
232	0xbd70f764	-0.05882968
233	0xbd4f0a24	-0.05054678
234	0x3d6972dc	0.056994304
235	0x3c9f8e71	0.019477101
236	0x3bd58c52	0.0065169716
237	0xbc56240f	-0.0130701205
238	0x3d31049c	0.043217286
239	0xbd2a7a4a	-0.04162053
240	0xbd6b94be	-0.0575149
241	0xbd56c30f	-0.052432116
242	0xbd63174d	-0.055442143
243	0x3cfbee41	0.030753257
244	0x3d18338c	0.037158534
245	0xbd1170d4	-0.035507992
246	0x3d0d7d1a	0.034543134
247	0x3d462fa8	0.048385292
248	0x3d084341	0.033267263
249	0x3d24603a	0.04013083
250	0x3cea49a0	0.02859956
251	0x3c1c7fac	0.009551924
252	0x3d11970a	0.035544433
253	0xbd48768a	-0.048941173
254	0x3c4bbf4f	0.012435748
255	0x3d1a42be	0.037661307

bias f4 [128]
0	0x3c5b0463	0.013367745
1	0x3c88d453	0.016702807
2	0xbc569f9b	-0.013099576
3	0xbd1ecc1c	-0.038768873
4	0x3d63ec31	0.05564517
5	0x3bc72a99	0.006078076
6	0x3c7707de	0.015077559
7	0xbd2ffe4a	-0.04296712
8	0xbcb00b35	-0.021489719
9	0xbd09c7a2	-0.03363765
10	0xbbe0a9ee	-0.0068561947
11	0x3d4f7f06	0.05065825
12	0xbd08959d	-0.033345807
13	0xbcbe43ec	-0.023225747
14	0xbd56da4c	-0.052454278
15	0x3d5a6d09	0.05332664
16	0xbc84e794	-0.016223706
17	0xbca42d75	-0.020041207
18	0x3dc69528	0.09696418
19	0xbc19bb05	-0.009382968
20	0x3d866214	0.06561676
21	0x3bd56ada	0.006512982
22	0x3cb06b1c	0.021535449
23	0xbd5b2f4b	-0.0535119
24	0x3cc71f1a	0.024306823
25	0xbd32e86d	-0.04367869
26	0x3d2b8f51	0.041884724
27	0x3df8a3c3	0.1214061
28	0x3dcc3c65	0.09972457
29	0x3db7be61	0.08971859
30	0x3d4412a7	0.04786935
31	0x3d2a7717	0.04161748
32	0x3bcf5434	0.0063271765
33	0xbd50fd06	-0.051022552
34	0xbc939107	-0.01801349
35	0xbc8d1ea3	-0.017226523
36	0x3d8d6eaf	0.06905877
37	0x3c95f073	0.018303132
38	0xbcb9e137	-0.022690399
39	0x3d9068c9	0.07051236
40	0x3de811c3	0.11331513
41	0x3d5bba1f	0.053644296
42	0xbd8b6d61	-0.06807972
43	0x3d8109a1	0.06300665
44	0xbd011f18	-0.031523794
45	0x3dbcb48b	0.09214123
46	0x3b3caf9e	0.00287912
47	0x3d19ff21	0.037596826
48	0xbc424d01	-0.0118591795
49	0xbc9f90be	-0.019478198
50	0x3db5ec48	0.08882958
51	0xbc17d520	-0.009267122
52	0x3d16961c	0.03676425
53	0x3dbfe433	0.093696974
54	0xbc8269a6	-0.015919518
55	0x3cde28d5	0.02711908
56	0x3d5b32a6	0.0535151
57	0xbbdb0b2c	-0.0066846814
58	0xbd670771	-0.05640358
59	0x3d13328e	0.035936885
60	0x3dfd0cd8	0.123559654
61	0xbcc02183	-0.02345348
62	0x3d4e7afb	0.050410252
63	0xbd753672	-0.059866376
64	0xbb16bc09	-0.0023000261
65	0xbca8f165	-0.020622918
66	0x3901dcee	0.00012384701
67	0x3bd71189	0.0065633697
68	0x3d85b7b2	0.06529178
69	0x3d11ba83	0.035578262
70	0x3c2e3cd2	0.010634618
71	0xbc94fa96	-0.018185895
72	0xbca782bf	-0.020448087
73	0xbcd6a0a7	-0.026199652
74	0x3d627875	0.055290658
75	0x3d31e8c5	0.043434877
76	0x3c67ed7c	0.014155742
77	0xba40860a	-0.0007344192
78	0xbd00ce32	-0.031446643
79	0x3a989f4f	0.0011644157
80	0xbd1c1987	-0.038110282
81	0x3ca01fb5	0.01954637
82	0xbd4fa7ed	-0.050697256
83	0x3b217637	0.0024637112
84	0xbd457e41	-0.04821611
85	0x3db686fe	0.089124665
86	0xbbe07f05	-0.0068510794
87	0x3a54148a	0.0008090219
88	0x3d5ccd33	0.05390663
89	0xbcb1d4ce	-0.021707918
90	0x3d817f68	0.06323129
91	0xbd323174	-0.043504193
92	0xbd8a664a	-0.06757791
93	0xbd826da9	-0.06368572
94	0x3b5754e7	0.0032857002
95	0x3d33ee80	0.043928623
96	0x3d4b3901	0.04961491
97	0xbd2bdb37	-0.041957106
98	0xbc628bd5	-0.013827284
99	0x3d555bda	0.05208955
100	0xbcf57c46	-0.029966485
101	0x3b827405	0.0039811158
102	0x3d678f85	0.056533355
103	0x3cceb3bd	0.02523219
104	0xbcbb569a	-0.022868443
105	0xbb775295	-0.0037738432
106	0xbc5389c5	-0.012911265
107	0x3d4e5ce5	0.05038156
108	0x3d3bda06	0.04586222
109	0xbcc0be35	-0.023528198
110	0xbd301c3f	-0.042995688
111	0xbd0fb5fd	-0.035085667
112	0x3cb198c8	0.021679297
113	0x3dbbf983	0.0917845
114	0xbd063f75	-0.03277536
115	0xbc9e4122	-0.019318167
116	0x3c149677	0.009069077
117	0x3a418b4b	0.0007383122
118	0xbd1bbddf	-0.038022872
119	0xbd1fb66d	-0.038992334
120	0x3e0ce820	0.13760424
121	0xbccd3a9c	-0.025052361
122	0xbd0603c4	-0.032718435
123	0x3d44e1f9	0.048067067
124	0xbca272df	-0.019830165
125	0xbb4289fe	-0.00296843
126	0x3cf8e862	0.030384246
127	0xbd504673	-0.050848436

weight f4 [64, 128]
0	0xbc67568b	-0.014119755
1	0x3ce6c96e	0.028172221
2	0xbda69307	-0.08133512
3	0x3c5498af	0.012975856
4	0xbce7c602	-0.02829266
5	0xbd05458d	-0.032537032
6	0xbd10e50f	-0.035374697
7	0xbd42fb91	-0.047603194
8	0x3c8ca7b0	0.017169803
9	0x3ce9c6e1	0.028537216
10	0xbda334ff	-0.079690926
11	0xbd5ca099	-0.053864095
12	0x3d84b4fc	0.064798325
13	0xbda8d95d	-0.08244584
14	0x3c393b3e	0.011305628
15	0x3c95c7e5	0.018283794
16	0x3cd76ca4	0.026296921
17	0xbd405a05	-0.04696085
18	0x3dab7a8e	0.08372985
19	0xbd73ff0c	-0.059569404
20	0x3db3c661	0.08778072
21	0x3c9d811e	0.019226607
22	0x3da2ab95	0.07942883
23	0xbce3e489	-0.027818935
24	0xbcff614f	-0.03117433
25	0xbcae55fa	-0.021281231
26	0x3c119439	0.008885437
27	0xbd67b0eb	-0.056565206
28	0x3b85e110	0.0040856674
29	0x3d1f3810	0.038871825
30	0x3c0e4475	0.008683314
31	0x3d36e696	0.044653498
32	0x3d7f5ddf	0.06234538
33	0xbdb08cc1	-0.08620597
34	0xbcfa7a96	-0.030576032
35	0xbcdb6238	-0.026780233
36	0xbc934aba	-0.017979968
37	0xbca47c22	-0.020078722
38	0xbd5aa369	-0.053378496
39	0x3d3fabb0	0.046794593
40	0xbd037f70	-0.032103956
41	0xbcd93252	-0.026513252
42	0xbd945735	-0.07243196
43	0x3cd33f6e	0.025787082
44	0x3d976f73	0.07394304
45	0x3dd26941	0.10273982
46	0x3dad3870	0.0845803
47	0x3da4cc39	0.08046765
48	0xbca5df12	-0.02024797
49	0x3da9196f	0.08256804
50	0x3d9eed73	0.077601336
51	0xbd1accd5	-0.037793
52	0xbbcc6f17	-0.006238829
53	0xbb03be54	-0.0020102458
54	0xbd422b7e	-0.04740476
55	0x3ca4a7f7	0.020099623
56	0xbcc06d9f	-0.023489771
57	0x3d74295a	0.05960975
58	0xbcdaa6b4	-0.026690818
59	0xbc64cda2	-0.013965042
60	0x3d7c7ac1	0.061640505
61	0xbd8b7ee0	-0.06811309
62	0x3cab2e12	0.020895991
63	0xbcaabd2e	-0.020842161
64	0xb7989c23	-1.8192519e-05
65	0xbd490e88	-0.049086124
66	0xbd321188	-0.04347375
67	0x3cfc6172	0.030808184
68	0xbd682b71	-0.056682054
69	0x3d0d3628	0.034475476
70	0x3d8d3d40	0.06896448
71	0x3d94886e	0.072525844
72	0xbd49ce44	-0.049268976
73	0x3daa159e	0.083049044
74	0xbd7ee100	-0.062226295
75	0xbb95a073	-0.004566246
76	0xbd613775	-0.05498453
77	0x3c18e2f5	0.0093314545
78	0xbd547e61	-0.051878337
79	0x3c9db8a7	0.019253088
80	0x3db2cf12	0.08730902
81	0x3d86dda2	0.06585242
82	0xbd8e1d06	-0.069391295
83	0xbd8d473f	-0.06898355
84	0xbaf53c5d	-0.0018710006
85	0xbd000bce	-0.031261258
86	0x3b592c44	0.0033137957
87	0xbd9c358c	-0.07627401
88	0x3d67a9ac	0.056558296
89	0x3d7286ba	0.059210517
90	0x3dad1483	0.08451178
91	0xbd247188	-0.040147334
92	0xbd32798c	-0.043572947
93	0xbda09a87	-0.07841974
94	0xbdb119d4	-0.086475044
95	0x3cc29de2	0.023756925
96	0x3d86249f	0.06549954
97	0xbda2d70e	-0.07951175
98	0x3d57f8b9	0.052727435
99	0x3d85e45f	0.06537699
100	0xbc1f1786	-0.009710198
101	0x3d420839	0.047371123
102	0xbcaef97b	-0.021359196
103	0xbd8ed142	-0.069735065
104	0x3d0dea7a	0.034647442
105	0x3d613684	0.05498363
106	0x3ba180af	0.0049286704
107	0x3d79c6ae	0.06098049
108	0x3ce7dccc	0.028303526
109	0x3d72a91c	0.059243307
110	0x3d5966c2	0.053076513
111	0xbb24af2a	-0.002512882
112	0x3da9e54e	0.082956895
113	0x3b970f70	0.0046099946
114	0xbd0f3dca	-0.034971036
115	0x3d8419db	0.06450244
116	0x3c444354	0.011978943
117	0xbd6c41f4	-0.057680085
118	0xbd86456c	-0.0655621
119	0xbd48510b	-0.048905414
120	0x3dc913f1	0.09818257
121	0x3cb6e1b8	0.022324428
122	0xbcd50984	-0.026005514
123	0x3d68ce82	0.056837566
124	0x3d67d4ba	0.056599356
125	0x3cf11fd9	0.029434131
126	0x3c871d9e	0.016493615
127	0xbd97b3b2	-0.07407321
128	0xbd5a06af	-0.05322903
129	0x3d403162	0.046922095
130	0xbd549563	-0.05190028
131	0x3c135311	0.008991973
132	0xbd938380	-0.07202816
133	0xbc2bc9bd	-0.01048511
134	0x3da6c2fb	0.08142658
135	0x3c8cb19f	0.01717454
136	0xbbe528c0	-0.006993383
137	0x3d52510e	0.05134683
138	0xbd3202b9	-0.043459628
139	0x3d9941b1	0.07483233
140	0x3da52740	0.08064127
141	0x3d785c68	0.060635
142	0xbc7a44dc	-0.015275206
143	0x3d816819	0.06318683
144	0x3c71e1a8	0.014763273
145	0x3d77ce42	0.060499437
146	0x3d808a88	0.06276423
147	0x3d6a0273	0.057131242
148	0x3db1c455	0.086800255
149	0xbd639473	-0.055561494
150	0x3c7e9a9b	0.0155397905
151	0xbd5d8d48	-0.054089814
152	0xbcf0b2f3	-0.029382205
153	0x3db0b2a4	0.08627823
154	0x3bc806ee	0.0061043417
155	0x3dc3f165	0.09567527
156	0x3da2d341	0.0795045
157	0x3d7b8092	0.06140191
158	0x3d9d5d99	0.07683868
159	0x3d77b253	0.060472798
160	0xbcb4f592	-0.022089753
161	0x3d65be44	0.056089655
162	0x3d21e139	0.03952143
163	0x3d623be3	0.055232894
164	0x3d227db4	0.03967066
165	0xbb91eea0	-0.004453495
166	0xbd948392	-0.072516575
167	0xbd6a4ec9	-0.05720404
168	0x3bb79572	0.005602532
169	0x3c15f917	0.009153626
170	0x3b5e9202	0.003396154
171	0x3dabeb81	0.08394528
172	0xbda3d225	-0.07999066
173	0x3d225af4	0.03963752
174	0x3bbfd13e	0.005853801
175	0xbcdbfb41	-0.026853206
176	0x3d412c5a	0.047161438
177	0xbd3deee5	-0.046370406
178	0x3c649ead	0.013953847
179	0xbd7b4856	-0.06134828
180	0xbcd6f9a2	-0.026242081
181	0x3d7653b8	0.060138434
182	0x3dae9f4e	0.08526479
183	0x3c0617e2	0.008184405
184	0x3ce4afb4	0.027915813
185	0x3d49466e	0.049139433
186	0x3da069e1	0.07832695
187	0xbd917d16	-0.071039364
188	0x3d88521e	0.066562876
189	0x3c891e09	0.016737955
190	0x3b93e599	0.004513454
191	0xbd8661e7	-0.06561642
192	0x3d9bf3d3	0.07614865
193	0xbd0f472b	-0.03497998
194	0xbda5e1e7	-0.08099728
195	0x3d783e33	0.060606193
196	0x3d5c65c0	0.053807974
197	0x3c0603a6	0.008179581
198	0x3d166648	0.036718637
199	0xbd062e98	-0.03275928
200	0x3d496bba	0.049175
201	0x3ca34e35	0.019934753
202	0x3d6c42ac	0.05768077
203	0x3be50f4e	0.00699035
204	0x3d5625bb	0.052282076
205	0xbd2785e9	-0.04089919
206	0xbcf4f23b	-0.02990066
207	0xba3b0540	-0.0007134266
208	0xbd05a4fc	-0.032628044
209	0xbcbac72c	-0.02280005
210	0xbd6cf40b	-0.057849925
211	0xbd8ff6fc	-0.070295304
212	0xbd780d6d	-0.06055968
213	0xbd155401	-0.036457065
214	0xb9873ae3	-0.0002579308
215	0x3d8e908b	0.06961163
216	0x3d8f091e	0.06984161
217	0x3c84485c	0.016147785
218	0xbd5ec650	-0.054388344
219	0x3aa51d75	0.001259728
220	0xbd29ed3c	-0.04148601
221	0xbd0f0d9e	-0.034925096
222	0x3d2d9a09	0.042383227
223	0x3b9efa69	0.0048516286
224	0x3c7a10d6	0.015262803
225	0x3d39ffbd	0.045409907
226	0xbcaa93b5	-0.020822385
227	0x3d0765d4	0.033056095
228	0xbdada59c	-0.08478853
229	0xbda2529d	-0.079259135
230	0x3c5eb660	0.013593286
231	0xbd8d0ae5	-0.068868436
232	0x3d6cd22a	0.057817616
233	0xbd00a057	-0.031402912
234	0xbd31180d	-0.043235827
235	0xbd701b49	-0.05861977
236	0xbd72adae	-0.059247665
237	0x3c7a6ec2	0.015285196
238	0xbdab75b5	-0.0837206
239	0x3cc3f1cf	0.023919014
240	0x3da0a062	0.078430906
241	0xbbb9c091	-0.0056687077
242	0x3cddd632	0.027079675
243	0x3cba890a	0.022770423
244	0x3d8a6fc1	0.067595966
245	0x3d2054f3	0.039143514
246	0x3d81a6e6	0.063306615
247	0x3da1f212	0.079074994
248	0x3d738512	0.059453078
249	0xbd8ded0e	-0.0692998
250	0xbdb1056b	-0.086436115
251	0x3c78f8c0	0.015196025
252	0xbd9eb2c6	-0.07748942
253	0x3dab31bb	0.08359095
254	0xbd2a30ca	-0.041550435
255	0x3d6b7749	0.057486806

bias f4 [64]
0	0x3cac2da7	0.021017862
1	0x3e09eb1a	0.1346859
2	0xbcc54924	-0.024082728
3	0x3ddd73ec	0.10813126
4	0xbd6070bb	-0.05479501
5	0xbd8cb669	-0.068707295
6	0x3d6ed947	0.05831268
7	0xbdaea1e5	-0.08526973
8	0x3e134071	0.14380051
9	0xbdbdbb6f	-0.09264266
10	0xbda2b6e4	-0.0794504
11	0xbd54f650	-0.051992714
12	0xbd9a230f	-0.07526218
13	0x3e199e13	0.15001707
14	0xbd5e1cac	-0.054226562
15	0x3de5d5a0	0.11222386
16	0xbc9afd0e	-0.018919494
17	0xbd7bc8e7	-0.061470892
18	0x3d288e98	0.041151613
19	0x3dc192db	0.094518386
20	0xbcb43c93	-0.02200154
21	0xbcd18ba4	-0.025579281
22	0x3e164a03	0.1467667
23	0x3d90a384	0.07062438
24	0xbc82a840	-0.015949368
25	0xbd897686	-0.0671206
26	0xbc4f3cff	-0.01264882
27	0xbd63a725	-0.055579323
28	0xbc40b8e5	-0.011762832
29	0xbd5ad7ba	-0.05342839
30	0x3ddb9930	0.107225776
31	0x3e182752	0.1485875
32	0xbbbf1ba9	-0.005832155
33	0xbc9cbceb	-0.019133052
34	0x3de2cecc	0.110745996
35	0x3e37308a	0.1788961
36	0x3d8cce1b	0.06875249
37	0x3e5f4b5a	0.21806088
38	0xbce9ec7a	-0.028555144
39	0xbd8a7803	-0.06761172
40	0xbd2c8fd9	-0.04212937
41	0x3c94b7a2	0.01815397
42	0xbc9fc5f4	-0.019503571
43	0x3e32fdff	0.17479704
44	0x3c582ad7	0.013193808
45	0x3d38d2aa	0.04512278
46	0x3de22544	0.11042264
47	0xbda60227	-0.08105879
48	0x3cc15ee8	0.023604825
49	0x3cd73501	0.026270391
50	0x3d6b162e	0.0573942
51	0xbcb666c1	-0.022265794
52	0x3b72be64	0.0037039751
53	0x3cc2281e	0.02370077
54	0x3e81490f	0.25251052
55	0x3dad9717	0.08476084
56	0xbcac5b49	-0.021039622
57	0x3e23240a	0.15931717
58	0x3ddfacf5	0.10921661
59	0x3dfaf841	0.12254382
60	0xbcac5d71	-0.02104065
61	0x3e33ae67	0.17546998
62	0xbbb44a6f	-0.0055020372
63	0xbd659812	-0.05605323

weight f4 [2, 64]
0	0x3dcfe34b	0.101507746
1	0x3e476f0b	0.19475953
2	0xbd5e94b8	-0.054341048
3	0x3df558c0	0.11979818
4	0xbd96b0e6	-0.073579594
5	0x3d8a8b6d	0.067648746
6	0x3df395ef	0.11893832
7	0x3df9ea99	0.12202949
8	0x3e1a5dd4	0.15074855
9	0x3cd04cbd	0.025427217
10	0xbd6f06cd	-0.058356095
11	0x3d9268d7	0.07148903
12	0xbdabeff3	-0.08395376
13	0x3e1813d8	0.1485132
14	0x3e00caf9	0.12577428
15	0x3da47793	0.080306195
16	0xbc53c531	-0.012925432
17	0xbcc93007	-0.024559034
18	0x3e2f8b4f	0.17142986
19	0x3e31648c	0.17323512
20	0x3d0de917	0.03464612
21	0xbdcd90d5	-0.1003739
22	0x3e2f471d	0.17116971
23	0x3e00a9bc	0.12564749
24	0xbcec3dd8	-0.028838083
25	0x3d0fd616	0.035116278
26	0xbd2d2863	-0.042274844
27	0x3d396f36	0.045272075
28	0x3d8ec859	0.06971807
29	0xbda34745	-0.07972578
30	0x3e490b02	0.19633105
31	0x3e4ecf27	0.2019621
32	0xbdddded6	-0.10833518
33	0xbd9ced59	-0.07662458
34	0xbcb17240	-0.021660924
35	0x3e390789	0.1806928
36	0x3dbd00ad	0.092286445
37	0x3e700c61	0.23442222
38	0x3d42c637	0.047552314
39	0xbdaf7b66	-0.08568458
40	0xbd963da9	-0.073359795
41	0x3cede8bb	0.029041639
42	0xbd369486	-0.044575237
43	0x3e06868c	0.13137263
44	0x3da7b8c8	0.08189541
45	0xbbebd660	-0.0071971864
46	0x3e25c581	0.16188623
47	0xbb1b829a	-0.0023728968
48	0x3c3c4259	0.011490428
49	0x3dfcdb8b	0.12346562
50	0x3d814d95	0.06313626
51	0x3dd93561	0.10605884
52	0xbdb2d0dc	-0.08731243
53	0xbd80cd60	-0.06289172
54	0x3e6af6f6	0.2294577
55	0x3e06cc80	0.13163948
56	0xbda53473	-0.080666445
57	0x3e59f75a	0.21285763
58	0x3dfb9e94	0.12286106
59	0x3e441ff0	0.19152808
60	0xbd85dc76	-0.0653619
61	0x3e32a69d	0.1744637
62	0x3d859d01	0.06524087
63	0xbd018463	-0.031620394
64	0xbdcb867a	-0.09937759
65	0xbd784a5e	-0.060617797
66	0xbcad4122	-0.021149222
67	0x3c3dd827	0.011587179
68	0x3dfcf3f7	0.1235122
69	0xbd1e70b6	-0.03868171
70	0x3dcb9618	0.099407375
71	0x3dc7a2a3	0.09747817
72	0xbe6ff31c	-0.23432583
73	0x3de34a7d	0.11098192
74	0x3bec9fdf	0.0072212066
75	0x3c1afcd1	0.00945969
76	0xbd644dcf	-0.055738267
77	0xbe44c261	-0.19214775
78	0x3cacce2f	0.02109441
79	0xbe240771	-0.16018464
80	0xbccfa563	-0.025347417
81	0x3d80b0dd	0.06283734
82	0xbe1f281f	-0.15542649
83	0xbe528351	-0.20557906
84	0xbde1261c	-0.10993597
85	0x3cab4cbc	0.020910613
86	0xbdda7ab9	-0.10667939
87	0x3d6988fe	0.05701541
88	0x3dcb2a4f	0.09920179
89	0xbcce4cad	-0.025183046
90	0x3d67f5ca	0.056630887
91	0x3defd07a	0.117096856
92	0x3db05e72	0.08611764
93	0xbcbc1bc6	-0.022962462
94	0xbe2572e4	-0.16157109
95	0xbdf620c4	-0.12017968
96	0xbcdefb9a	-0.027219582
97	0xbdb16d0a	-0.08663376
98	0xbe1979d0	-0.14987874
99	0xbdc4b22c	-0.09604296
100	0xbd40a6ec	-0.04703419
101	0xbe5bc324	-0.21461159
102	0x3db9d9bb	0.09074732
103	0x3de73789	0.11289889
104	0x3d300d97	0.04298171
105	0xbd539679	-0.051657174
106	0xbc1829d5	-0.009287317
107	0xbe66f3bb	-0.22553913
108	0x3da895a0	0.08231664
109	0x3bafe099	0.0053673503
110	0xbc2dc11d	-0.010605124
111	0xbd90e7aa	-0.070754364
112	0x3da0c222	0.07849528
113	0xbdd61ea3	-0.10455062
114	0xbcbd65ea	-0.023119885
115	0x3db524bc	0.08844897
116	0xbe12bafd	-0.14329143
117	0xbae810d9	-0.0017705216
118	0xbe638fda	-0.22222844
119	0xbd8c7e10	-0.06859982
120	0xbd6072e7	-0.05479708
121	0xbe3168b4	-0.17325097
122	0xbd8fadf1	-0.070155986
123	0xbdad03a7	-0.08447962
124	0xbcf3b793	-0.029750621
125	0xbd87cc16	-0.06630723
126	0x3dc60b62	0.0967014
127	0xbd1246b2	-0.03571195

bias f4 [2]
0	0x3f1f31fd	0.6218565
1	0xbf143c19	-0.579042
