AutoBalance/results/tvarit_wheel/New_Experiments/test/dyly_LA_init/1/epoch_110.pth (torch, 236623 bytes, 8 tensors)

weight f4 [256, 64]
00000000: 4cbe 41bc 528e 953d 9ab1 d83d 0486 fc39
00000010: 08af 02bd 64f0 473b f098 a83d 95e6 bd3b
00000020: 9594 00bc 5643 c13d 5d08 a53d d831 cc3d
00000030: f2a0 ba3d 4c52 903d 4409 adbd a62b 1a3b
00000040: 2f6b c3bd a37f e5bd ec71 ee3d fd1c 4d3d
00000050: 9f6a 8cbd 6243 1abc b1f0 573a 8dfa e33d
00000060: 0468 4b3c 4bf5 b8bc 77f6 733d a072 613b
00000070: a77a acbd 8ec2 ba3c 600c e53d 8ea7 d7bd
00000080: eea2 2dbd cc28 c73d 82df b3bd 80e3 3abd
00000090: 9db1 ff3c 36cf 9ebb ee43 6f3d 0d04 cc3d
000000a0: 84d5 a43d a449 dabd 99ef f63c 6bf8 043d
000000b0: b901 e3bd ccd4 93bb c36c 1abd ab63 14bd
000000c0: d44e 423d 0113 7c3d 088a ae3d c44c c1bd
000000d0: e8fe 00be bb0e e4bd 4636 a1bd 8ed2 1a3d
000000e0: bfb2 e3bb d8f1 3dbd 048c 7ebd 1688 efbd
000000f0: 27d8 653d 5c7f f8bd 3aee e2bd e2bc cfbd
00000100: 27c5 c2bd ca12 59bd fc45 8dbc 8651 da3d
00000110: 6a0a 4fbd 60cd a13d 1806 8abd f154 a53b
00000120: c1ab b23d 6f22 f4bd 31bf d83d 05dd af3c
00000130: 3032 a23d 01c4 f1bd b886 803a 4ce1 cc3d
00000140: 21ee 9fbd 77bc 79b9 9e34 f4bd eb79 2bbc
00000150: a12c 8abd d0a1 6cbc 50c0 a6bd 3742 98bd
00000160: 5ebd afbd a89f 88bc 3b02 f33c ac83 ddbd
00000170: f1f4 40bd da71 a73d 74cb c1bd fa92 d43d
00000180: e852 2b3d bf31 653d 44f2 da3c 6904 d6bd
00000190: 0231 f6bd cc38 8c3d 3627 afbd 1256 b5bd
000001a0: 37d6 ce3d 9260 433d cb82 b2bd 9883 c7bb
000001b0: 1333 f73d 6adc b93d ecb3 51bd 89dc c03d
000001c0: 282b 013c 1702 f63c 567d e1bc c02b 913d
000001d0: e124 c2bd 69b4 b3bd 45af 7fbc 07f5 8a3d
000001e0: 607c 2c3c 4e9c d03d c6df a13d ecbd a53c
000001f0: f681 fa3d 788e 273d a65e e8bd 0ed3 2e3d
00000200: b4ae 463d 5c0f 0abd 34e5 c83d e9e7 30bd
00000210: 0c72 3bbd 3202 a6bd d504 543c bcef 1dbd
00000220: eee5 58bd f7aa 343d e7d0 4d3c bde6 ff3d
00000230: a85c 8bbd 1cf2 a4bd 9a46 9cbd 4909 b9bd
00000240: 7c03 9c3d 6238 653d 1874 e3bc e7ed 713b
00000250: 725a 443d 50af 45bd 6f30 213d bdbe e53d
00000260: c87a f7bb a5ea 68bd b4a9 1ebd f924 09bd
00000270: 7c64 903d e32f 3ebd 7fec db3d 4b2c c0bc
00000280: 712c 8abd 00d3 e4bd a84e bbbc 2435 d23d
00000290: a870 a03d 50e5 7bbd a120 6c3d b766 743d
000002a0: 99a2 76bc 1661 4ebd 3c13 b43d 433c d9bb
000002b0: c638 7dbd 1201 4fbc fb5a 163c ee84 67bd
000002c0: e6a5 ec3d 3bde 2e3d bcb2 16bc dcd3 b4bd
000002d0: d169 e4bd 430b dabc fae0 de3d 8d79 23bd
000002e0: 839c f5bc bcb7 873d 1ff8 fcbc 6330 1f3d
000002f0: f61e 983d 3c16 f53d 092c 553d 777f a43d
00000300: 9f00 b83d f1cf 9bbd 6cc8 adbd a2aa 5f3d
00000310: c1a4 eabd 2f8c ec3d 5653 7ebd bbb9 da3d
00000320: 7860 0dba 0035 acbd 0016 6f3c 7ac4 98bd
00000330: 76d0 c7bd c931 db3d bf0c a6bc 27d5 c73d
00000340: d15a ca3d d748 303c e1b1 efbd 7094 893d
00000350: 735b de3c 827d 803d 6263 873c e5c1 2d3d
00000360: 8aa9 11bc 14f5 ac3c e64e 573c ffbe 0c3d
00000370: 1c0b 5f3d 0499 e1bd 60bc ecbd e2f2 d3bd
00000380: e073 c43d f6f0 443d 8fab 95bc e6a3 613d
00000390: 33bb c9bd 5e62 c3bd 5930 a73c 36d5 9bbd
000003a0: 2d1b bf3d a049 aabd 31a8 343d 49d9 923d
000003b0: 91f3 603d 2e39 653d a1bb cbbd a8a3 b8bd
000003c0: f22d d33d 6133 d33b 5207 853d 6902 d03d
000003d0: 6381 99bd de9c 59bd 40b8 853b 5268 9b3d
000003e0: 321b d13c aeeb ef3d f292 e03d d914 d4bd
000003f0: 88a7 ca3d f72e 8abd 70b8 f2bc 99b0 edbd
-0.0118251555 0.07302536 0.1058075 0.00048165035 -0.031905204 0.0030508274 0.082322955 0.00579531
-0.007847925 0.094366714 0.08058236 0.099704444 0.09112729 0.07046947 -0.08449033 0.0023524552
-0.09541928 -0.112059854 0.116428226 0.050076474 -0.06856274 -0.009415479 0.0008237465 0.11131773
0.012414936 -0.022577902 0.05956122 0.0034400597 -0.084218316 0.022797849 0.11184001 -0.105300054
-0.04239171 0.09724578 -0.08782865 -0.045627117 0.031212622 -0.004846479 0.058414392 0.0996171
0.080485374 -0.10658577 0.030143546 0.032463472 -0.11084313 -0.0045114513 -0.03770138 -0.036227863
0.047438458 0.06154156 0.08522421 -0.0943847 -0.12597239 -0.11135622 -0.0787168 0.037798457
-0.0069487984 -0.04637322 -0.062145248 -0.11695878 0.056114342 -0.12133667 -0.11080594 -0.101434484
-0.0951026 -0.052996434 -0.017245285 0.106600806 -0.05054704 0.079005 -0.067394435 0.005045526
0.08724166 -0.1192063 0.10583342 0.021467695 0.07919729 -0.11804963 0.0009805774 0.100039095
-0.07809091 -0.00023816699 -0.119240984 -0.010466079 -0.067467935 -0.014442876 -0.081421494 -0.074345045
-0.08581041 -0.016677693 0.02966415 -0.1081613 -0.047108594 0.08176012 -0.09462634 0.10379596
0.041827112 0.055955645 0.02672685 -0.1045006 -0.12021066 0.06846771 -0.08552401 -0.08854307
0.10099452 0.04769952 -0.08716353 -0.0060886852 0.120702885 0.09075244 -0.051196977 0.09417064
0.007883824 0.030030293 -0.027525585 0.07088423 -0.0947969 -0.08774645 -0.015605752 0.067850165
0.0105277 0.10186063 0.079040095 0.020232163 0.12231819 0.040907353 -0.11346178 0.042681746
0.048506454 -0.033706054 0.09809342 -0.043189917 -0.04576306 -0.081058875 0.012940605 -0.038558707
-0.052953653 0.044108357 0.012562013 0.12495182 -0.06804782 -0.08053991 -0.07630654 -0.09034974
0.07617852 0.055961974 -0.027765319 0.0036915482 0.047937818 -0.048262894 0.03935283 0.11218021
-0.0075524785 -0.0568644 -0.03873606 -0.033482525 0.07050416 -0.046432387 0.107384674 -0.02345862
-0.06746758 -0.111730576 -0.022864655 0.10264042 0.078339875 -0.061497986 0.057648305 0.05966827
-0.015053415 -0.050385557 0.08792731 -0.006629498 -0.06182172 -0.0126345325 0.009176965 -0.056523256
0.1155508 0.042692404 -0.009197887 -0.088294715 -0.111529954 -0.026616698 0.108827546 -0.03991084
-0.029981857 0.066268414 -0.030880032 0.038864505 0.0742778 0.119671315 0.05204395 0.080321245
0.089844935 -0.07608021 -0.08485493 0.054606088 -0.114572056 0.115501754 -0.062091194 0.106799565
-0.0005393098 -0.084085464 0.014592648 -0.0745935 -0.09756558 0.10702855 -0.02026975 0.097574525
0.09880603 0.010759554 -0.117038496 0.06717765 0.027143216 0.06273939 0.016526882 0.04242124
-0.008890519 0.021112956 0.013141369 0.034361836 0.054453954 -0.110155135 -0.11559367 -0.103490606
0.09592414 0.04808136 -0.018270282 0.055087946 -0.098501585 -0.095402464 0.020408796 -0.07609026
0.09331355 -0.08314824 0.044105712 0.0717035 0.054919783 0.055962734 -0.09947897 -0.0901559
0.10311498 0.006445334 0.06495537 0.1015671 -0.07495382 -0.053128116 0.004080802 0.07588257
0.025525663 0.11714874 0.109655276 -0.10355539 0.09895235 -0.06747239 -0.029628962 -0.11605949

bias f4 [256]
00000000: 8f0b 123c 87d7 d43d c3a1 9b3d 1fc0 b53d
00000010: f317 bfbd 51c4 ccbd 16bf 853d a810 203d
00000020: a276 94bd aab2 a2bd 314b be3d cf45 24bc
00000030: 1570 d73c 791e bfbd 64e8 073e 7a61 6e3d
00000040: 885e 12bd e8ab 0c3b 1c30 4dbd dc86 9a3d
00000050: f8e4 4e3d 48cc 9fbd f1f4 f3bc 23b5 b1bd
00000060: 13e4 4c3c 99e1 673d 50bd 3dbd 608f 843d
00000070: 05c1 4abd 7b89 67bd 284f c73d 8d32 f83b
00000080: 48df 92bb 7470 993d b9a7 d93d c7d7 643d
00000090: 0f8b b0bd 97b7 c03d 3b96 323d af02 7a3d
000000a0: 2aa6 853d 1ed3 b8bd 2d67 c0bd 7c19 e9bd
000000b0: 2ad4 64bd 805f e63d 5596 403d fb7e d1bd
000000c0: 4493 8abd 8a27 d73d 1872 04bd 7c3a 2f3d
000000d0: 0ae4 9cbd 4ca2 9fbd 1eda 1ebd 26e9 71bd
000000e0: 660b 363d 41e4 ba3d b0d4 c83d 72bd 553c
000000f0: 2ccc c73d d729 e13d 2077 dcbc 0656 c9bd
00000100: deb6 df3d a8c6 1bbd 1619 c6bd 1b2e ebbc
00000110: 9be8 0a3e ec3d 0f3d 4341 b0bc eda1 7e3d
00000120: 349c 24bd 020d bd3c 758e ea3d 7d74 bcbd
00000130: 633d cb3c e82e a43d cc71 d1bc 1d49 0e3e
00000140: be44 b53d 6884 aabb 1ce3 ce3c 12b9 6ebc
00000150: b5ba 59bd 5ce5 cd3d 43ac 8bbd c126 71bb
00000160: 3b1b bd3a d098 34bd 8435 97bd 1a3e 51bb
00000170: f7ca 093d 99c0 f73d d89d d1bd 649c 6bbd
00000180: 6de3 083c 5e16 243e bf69 3d3d 2917 21bc
00000190: 0994 8cbd 8104 e03d 80d4 c5bd daf2 cd3c
000001a0: 2a28 4d3d 5003 95bd 5055 2bbd f485 bbbc
000001b0: 77c6 97bd 9a78 eb3d 1281 f6bc 8c41 aaba
000001c0: b0a4 96bb 4fe5 373c aafb 5b3d a891 293b
000001d0: 334f 073d 6eb2 9dbd d4b1 36bd 7f19 df3b
000001e0: 7411 fdbd 8cf2 853d 63dc 493d 7491 aa3c
000001f0: ca71 cf3c 3ae2 aabd 8ce9 143e fe61 efbd
00000200: 08c6 a7bd 6edc dcbc 58b0 ac3d bcd5 3cbc
00000210: 8403 d53d 4066 043d 983d 06bd 362e 82bd
00000220: 4aff 5ebd 99c0 c5bd cae3 a4bd ac89 90bb
00000230: 9d77 fc3d 815a d13d 9e82 b2bd 468f d23d
00000240: 3487 afbd ad19 c2bc 99b6 3f3d 6697 bf3c
00000250: 4ca0 00bb e49d 8dbc c88e b53a 029e babd
00000260: 3321 c53d 874b 743b fbe1 b1bd d10a 8f3a
00000270: f4b5 503d 6cff 0a3c 05d0 7c3d 287c bebd
00000280: bc20 2dbd 2a7e d8bc 4abc 53bd 9590 ad3b
00000290: 0935 88bd 3739 2e3b ad35 3f3d 8c03 34bc
000002a0: 0269 49bd 31f7 e83d d1ea d7bd 6baa 80bd
000002b0: 6089 ce3d 2d2f 02be 2ca3 1ebd 5bf1 8fbd
000002c0: eb12 04bd 50c1 ed3d aae2 71bd 016d 8d3c
000002d0: 16ac 9dbd cc3f 133e aa3e a5bd 2c5c d1bd
000002e0: 3a26 f3bd 047c aa3c 666f cebd a4e5 da3d
000002f0: fbb0 d93d 8336 ccbd 369c b13d 900f 2cbd
00000300: 5646 e3bd 68eb 8e3c 4728 0bbc 3832 f1bc
00000310: 1679 43bd 876f 893d e29d 5d3d 33f7 183d
00000320: 9dcf ed3d 5ff0 3ebc 5a23 bf3c 7162 873d
00000330: 437c 82bd a292 efbd 20d4 b03d c1ba 0f3e
00000340: fe31 dc3a 8f1d e93d afc1 58bc 40ad e93d
00000350: 6532 993d 1281 a73d 56c6 f33d b0f4 cabd
00000360: 0cb5 8cbc f91e edbd 29da fd3c e3c3 46bc
00000370: b1e3 d43d d4d6 e0bd 36a9 aabd 56a8 e5bd
00000380: b729 80bd acc8 d4bd 59f3 023e 7b94 d83c
00000390: 9e1c 9c3d 46f3 93bd 3b76 0e3d ee36 bebd
000003a0: 17b6 55bd 3e0b 7d3d 44e6 b53c f72d e13d
000003b0: d82d 7c3d 6965 953d 39d0 42bb a01b 393d
000003c0: e231 3fbc a7e0 8d3d a45b c53c 0c41 863d
000003d0: a20e 19ba 0c18 8d3d 6b60 43bd 9f8f 01bc
000003e0: afa7 ff3d 2873 b5bd c843 73bd 7b93 1c3d
000003f0: 8aea 203c 6739 b4bd bde5 01be 1cf5 dbbd
0.008913889 0.10392671 0.07599213 0.08874535 -0.0933074 -0.09998382 0.065305874 0.039078385
-0.0724919 -0.07944234 0.092916854 -0.010026409 0.026298562 -0.09331984 0.13272244 0.05819843
-0.035734683 0.0021464769 -0.05009471 0.07545254 0.05051133 -0.078026354 -0.029779883 -0.08677127
0.012505549 0.05661163 -0.04632312 0.06472659 -0.049500484 -0.056527596 0.09731895 0.0075743855
-0.0044821836 0.07492152 0.10627694 0.055869844 -0.08620273 0.09410017 0.043600302 0.061037716
0.06525834 -0.090246424 -0.09394679 -0.11381814 -0.055866398 0.11248684 0.047018368 -0.10229298
-0.0676637 0.10505588 -0.03233537 0.042780384 -0.076606825 -0.077946275 -0.03878223 -0.05906024
0.044444464 0.09125567 0.09806192 0.013045656 0.097557396 0.109943084 -0.026912272 -0.09830861
0.10923551 -0.03803125 -0.096727535 -0.028708508 0.13565294 0.034971163 -0.021515494 0.062166143
-0.04018803 0.023077492 0.11452953 -0.09201906 0.024809545 0.08016759 -0.025566958 0.13895078
0.08851002 -0.0052037723 0.025254779 -0.014570491 -0.053156573 0.100535125 -0.06819966 -0.003679678
0.0014427671 -0.044091046 -0.07383254 -0.0031927885 0.033640828 0.12097282 -0.102351844 -0.057522193
0.008355004 0.16024157 0.046243425 -0.009832182 -0.06864173 0.10938359 -0.09659672 0.025140215
0.05008713 -0.072760224 -0.041829407 -0.022891022 -0.07410901 0.11497612 -0.030090842 -0.0012989505
-0.004597269 0.011224105 0.053706802 0.0025874171 0.033034515 -0.077000484 -0.044603184 0.0068084593
-0.123568445 0.06540403 0.049282443 0.02082131 0.025322814 -0.083439305 0.14542216 -0.116886124
-0.08192068 -0.026960578 0.084320724 -0.011525568 0.10401061 0.032324076 -0.032773584 -0.0635647
-0.05444268 -0.09655876 -0.0805126 -0.004410943 0.12327502 0.102223404 -0.087163195 0.102812335
-0.0857071 -0.023693884 0.046804998 0.023387622 -0.0019626794 -0.017287202 0.0013851756 -0.09112169
0.09625473 0.0037276463 -0.086856805 0.0010913258 0.050954774 0.008483749 0.06172182 -0.09301025
-0.042267546 -0.026427347 -0.05169324 0.0052967765 -0.06650741 0.0026584396 0.04668205 -0.010987174
-0.04917241 0.11375273 -0.105428346 -0.06282505 0.10084796 -0.12713309 -0.03872983 -0.07028457
-0.032244604 0.11609137 -0.059054054 0.017263891 -0.076988384 0.14379805 -0.08068593 -0.102226585
-0.118725255 0.020811088 -0.10079841 0.10688332 0.106294595 -0.09971335 0.08672373 -0.04200703
-0.110974 0.017446235 -0.00849349 -0.029442891 -0.0477229 0.06710725 0.054105647 0.037345123
0.11611865 -0.011653989 0.023332287 0.06610573 -0.06371357 -0.1169789 0.0863421 0.14036085
0.0016799567 0.11382591 -0.0132297715 0.11409998 0.07480315 0.08178915 0.11903064 -0.09909952
-0.017176174 -0.11578173 0.030987816 -0.012131664 0.10394991 -0.10978475 -0.08333056 -0.11213748
-0.062579565 -0.103898376 0.12788142 0.026437989 0.07622646 -0.07224135 0.034780722 -0.09287821
-0.052175608 0.0617783 0.022204526 0.10995095 0.061567158 0.07294733 -0.002972616 0.04519236
-0.011669608 0.06927615 0.02409155 0.065553755 -0.0005838667 0.06889352 -0.047699373 -0.007907777
0.12483155 -0.08859855 -0.059390813 0.038226586 0.0098215435 -0.08800011 -0.12685294 -0.1074011

weight f4 [128, 256]
00000000: 1cce 28bd a81f 1bbc 2b08 003c 7934 8c3c
00000010: 6fe3 4a3c 811e 023d 91d7 013c 6c99 49bd
00000020: 9c1c 8f3b ea83 573d 2584 583d 1885 91bc
00000030: da8c 34bd 8504 023d 64ad ec3c ac0f b4bc
00000040: 634e 073d 2cd8 45bd 193a c33c 7407 19bc
00000050: cdeb 693b baa7 53bd 0f26 4a3c fa69 473d
00000060: 847a 173c 72d0 393d a888 02bd 0f2f e63c
00000070: 98dc e7bc 6958 8ebb ab5d 08ba e2f9 1c3c
00000080: df9c 243d 9872 82bc ce5b 38bd 6a33 af3a
00000090: 8f6c b3bc 4cbb c6bb 1431 603d 39c1 38bd
000000a0: 9f8e 263d e042 15bd d882 663c 2289 733d
000000b0: a6c0 c13c a875 14bd e3a6 e03c 356c 803d
000000c0: 6c6a 2abb 0147 e6bc 7240 0abd 02ef 4dbc
000000d0: 68e1 e03c 14b1 4cbd 686d fbbb 8684 22bd
000000e0: 7b3f 713d 2c0d b93a 59de 2dbd 92f2 70bc
000000f0: e77d 393d 62d4 37bd 78f8 6dbb 90ca 6b3d
00000100: b0b4 793d 0273 53bd 7853 1e3d 8272 4b3d
00000110: 4c16 3fbd 1aaa c3bc 7f13 46bc 93ef 003d
00000120: f243 d1bc 7b8a 623d 2f09 853d ab66 f23b
00000130: ef71 4cbc 8a09 38bd e493 343c ab81 343d
00000140: d463 19bd 39a3 d63b c42b ddbc 6227 34bd
00000150: 78f4 03bd ad53 6fbc 1c72 9e3b 2a8e 9dbc
00000160: 7221 703d 8afa f2bc 5a22 16bd 8131 78bd
00000170: 62a5 803d 6bbc 163d aa01 6c3c e2ad 053d
00000180: 2cd8 71bd 3b52 8c3b c1b4 40bd bd69 0e3d
00000190: f18b 103d 4fec 62bd 678c 4cbd 5e6c 2fbd
000001a0: 95a6 3cbd b807 7b3d 08bc 9c3c bc49 2d3c
000001b0: ba9a b6bc 63a9 5d3d 90b0 423d 72a2 773c
000001c0: bd57 65bd a3bb 36bd e36c c8bc 46af 2a3d
000001d0: e57b d6bc 9e1b 7f3d 8a00 753c 3e57 dfbc
000001e0: ee0e 2c3d dc55 8bbc dac3 ad3c 9263 fc3b
000001f0: 64cd 8bbc ff69 49bd a830 893b d86c 02bd
00000200: f4a2 1a3d eedd 5b3d a8b0 c23c 76cb 47b6
00000210: d989 053d be02 6bbd 9858 e9ba 08c4 3a3a
00000220: 86e2 50bd b2cb cabc 6495 373c d241 72bb
00000230: 4450 463d b62c 17bc 28c9 563d 41a6 8dbc
00000240: ffcc 473d f3a6 143d 6e5d 483d 85ad 213d
00000250: b6a8 41bd 021a 6b3d 6b18 ae3c e46e 6abd
00000260: fd11 303d 9b1b 5fbd 43cf a6bc 2380 b93b
00000270: f44d 943c b63d 03bd cd8e 4ebd 9846 ab3c
00000280: 47b9 5a3d d87c 7f3d 348c bbbc 232a 503d
00000290: ef65 493d f4f3 37bd 7ffb 3b3a 84f9 8c3c
000002a0: 0459 18bc 7711 653d 6ef5 32bc 6d34 663d
000002b0: 1345 21bd 7159 803c 1b64 4e3d f1da 27bd
000002c0: 04da d73c 7419 b33b 65c3 7f3d 416f 0abd
000002d0: 2181 813d f47d 06bd dc72 1abd de03 45bd
000002e0: 4ac5 3cbd 9dc5 e2bc ff37 47bd 10aa a3bc
000002f0: 23e1 363d b3e7 02bd 4106 c03c 5dd0 ad3c
00000300: 88b0 bb3c 401f 663d bc69 a4bc bf7f c7ba
00000310: 86b0 363d 5a53 6b3d a17c 833d 9131 f13c
00000320: 6a8a 88bc d5d6 52bb 3aaa 70bd 85f2 37bc
00000330: cb9a 1b3d 4609 24bd c965 463d 2fbe d0bc
00000340: 5c0b 363d 5375 7bbc ddbd f7bc 6041 613d
00000350: a53b 903c 342a 2c3d e1e7 453d d782 36bd
00000360: 5633 723d 391f 77bd b939 10bd c526 583d
00000370: a372 913a 2286 353d c076 acbc dc3e 85bb
00000380: fb1c cfbc aaa9 abbc 83c1 61bc 7402 533d
00000390: 655f 60bc c4b3 b13c 8458 46bd 9419 7a3d
000003a0: 60f2 70bd 240a 4fbd dc72 693d 178a 9f3c
000003b0: ee7a d53b cb0c 56bc 6be0 303d 3468 2abd
000003c0: be94 6bbd 84c1 56bd c85f 63bd 62ee fb3c
000003d0: 8f33 183d 2c7c 11bd 547b 0d3d 2d25 463d
000003e0: 2444 083d 546e 243d 7a47 ea3c 8fad 1c3c
000003f0: 809d 113d 7a76 48bd 6a2b 4c3c be42 1a3d
-0.041212186 -0.009467997 0.007814447 0.017114865 0.012383326 0.031767372 0.00792493 -0.04921858
0.004367424 0.052616037 0.052860398 -0.01776366 -0.04407964 0.03174259 0.028891273 -0.02198013
0.03303374 -0.04830186 0.023831414 -0.009340156 0.0035693527 -0.05167363 0.012338175 0.04868505
0.009245519 0.045364805 -0.031868607 0.028098611 -0.02830343 -0.0043440354 -0.0005201946 0.009581061
0.040188666 -0.015923783 -0.045009427 0.0013366763 -0.02190235 -0.006064808 0.054734305 -0.045106146
0.040663358 -0.03644073 0.0140692815 0.059456952 0.023651432 -0.03624502 0.027423328 0.06270639
-0.0026003374 -0.02811003 -0.033752866 -0.012569191 0.027451232 -0.049973562 -0.0076729544 -0.039677165
0.05889843 0.0014118305 -0.042448375 -0.014706271 0.045286085 -0.04488028 -0.003631143 0.057566226
0.060963333 -0.051623352 0.03865382 0.04966975 -0.046652123 -0.023884822 -0.012089609 0.031478476
-0.025545094 0.055307847 0.06495892 0.007397493 -0.012478336 -0.044930972 0.011021588 0.044068974
-0.03744872 0.0065502194 -0.026998408 -0.04398287 -0.032215565 -0.014607352 0.0048353802 -0.019232828
0.058625646 -0.029660482 -0.036653854 -0.060594086 0.06281544 0.036800783 0.014404694 0.03263653
-0.05904405 0.0042822636 -0.04704738 0.03476881 0.03528971 -0.055401143 -0.049938586 -0.042827956
-0.046057303 0.061286658 0.019132629 0.010576662 -0.022290576 0.054116618 0.047531664 0.015114414
-0.055991877 -0.044612538 -0.024465984 0.04167106 -0.026182124 0.062282197 0.014953742 -0.02726328
0.042006426 -0.017008714 0.021211553 0.0077022994 -0.017065711 -0.04917335 0.0041867085 -0.031842083
0.03775306 0.053678446 0.023765877 -2.977174e-06 0.032602165 -0.057375662 -0.0017802892 0.0007124548
-0.05099728 -0.024755333 0.011205051 -0.0036965501 0.04841639 -0.0092269685 0.05243793 -0.01729119
0.048779484 0.036292028 0.048917226 0.03947212 -0.047280036 0.05739785 0.021251878 -0.05723466
0.042985905 -0.054469686 -0.020362502 0.005661027 0.018103577 -0.032041274 -0.050429154 0.020907685
0.05339935 0.06237492 -0.022894002 0.050821435 0.049169477 -0.044910386 0.000717096 0.017208822
-0.009298567 0.05592486 -0.010922773 0.05620234 -0.039372515 0.015667649 0.050388437 -0.040980283
0.026349075 0.0054656807 0.062442202 -0.033797506 0.063234575 -0.032834962 -0.037707195 -0.04809939
-0.046086587 -0.02768212 -0.048637386 -0.019978553 0.0446483 -0.031959247 0.023440482 0.02121752
0.022911325 0.056182146 -0.02006995 -0.0015220566 0.04460194 0.057452537 0.064202555 0.02944258
-0.016667563 -0.0032171507 -0.05875609 -0.011227255 0.03798942 -0.040047906 0.048436914 -0.025481312
0.044444427 -0.0153477965 -0.030241901 0.054993987 0.017606566 0.042032436 0.04831684 -0.044558372
0.05913099 -0.06033251 -0.0352113 0.05277135 0.0011096786 0.044317372 -0.021052718 -0.0040663313
-0.025282374 -0.020954926 -0.013779047 0.05151601 -0.013694619 0.021692164 -0.04842426 0.06105955
-0.058824897 -0.05054678 0.056994304 0.019475026 0.0065148985 -0.0130645735 0.04318277 -0.041603282
-0.0575149 -0.052430645 -0.055511266 0.030753318 0.037158545 -0.03551881 0.034541443 0.048375297
0.03326811 0.04014428 0.028598536 0.009562864 0.035550594 -0.048941113 0.012461523 0.037661307

bias f4 [128]
00000000: 7656 593c f557 883c f3ad 55bc 50ce 1ebd
00000010: 83e5 633d 3d39 c73b 62c4 743c 6cfe 2fbd
00000020: 420b b0bc f9d4 09bd ef4b dfbb 7bb4 4f3d
00000030: a1ee 08bd d145 bebc 42ce 56bd 28e7 593d
00000040: cd3b 85bc ef26 a4bc 8e38 c73d 0d24 1bbc
00000050: cc5a 863d f6a2 d43b 006b b03c 651d 5bbd
00000060: 2df7 c63c 57d4 32bd e2a4 2b3d 41c5 f83d
00000070: 796d cc3d d568 b73d be09 443d 7b14 2a3d
00000080: 7b79 cf3b cb00 51bd 0f8f 93bc cfb5 8dbc
00000090: fa64 8d3d b313 963c 5207 b9bc 8569 903d
000000a0: 660b e83d d7af 5b3d 2a5a 8bbd cc7e 803d
000000b0: bc6f 01bd 3818 bd3d 83e3 383b f3a7 193d
000000c0: bc3a 42bc 77ed 9fbc edba b53d db8e 17bc
000000d0: 149b 163d 85c9 bf3d e67f 82bc 3f32 dd3c
000000e0: c834 5b3d 5bdd dcbb 2908 67bd 9d37 133d
000000f0: eb1f fd3d 5746 bfbc 91e4 4d3d 923f 75bd
00000100: a081 15bb 9cbb a8bc 065a 1639 8a9b d03b
00000110: 3ac1 853d 2a32 113d 40cb 2b3c b206 95bc
00000120: 42cc a7bc 3186 d6bc 0582 623d 26a6 313d
00000130: ae1b 683c f23b 5aba 0ff3 00bd 2a7c a23a
00000140: 9f1f 1cbd 119d a03c b4ae 4fbd b92c 213b
00000150: a67f 45bd 3b7b b63d 6477 e0bb 3de5 5c3a
00000160: d2e4 5c3d 92ca b1bc 1ca5 813d 9760 32bd
00000170: f450 8abd 9072 82bd 6a32 573b 9776 333d
00000180: 6ddd 4a3d 7cce 2bbd b0be 63bc fb30 553d
00000190: 8fea f4bc 474d 833b 0be5 673d 7d2d cf3c
000001a0: 9b4e bbbc 155e 75bb 570f 54bc bdd3 4d3d
000001b0: 5cde 3b3d 1ba1 c0bc 491c 30bd adba 0fbd
000001c0: 13bb b13c 9ede bb3d 763f 06bd f340 9ebc
000001d0: 143a 153c 75e3 3d3a f38a 1bbd 7ab6 1fbd
000001e0: 908d 0d3e e148 cdbc 9db7 05bd b792 443d
000001f0: 8016 a3bc 9be8 45bb 80a1 f63c 6444 50bd
0.013265243 0.016643504 -0.013041961 -0.038770974 0.0556388 0.0060798214 0.014939399 -0.042967245
-0.021489743 -0.033650372 -0.006814472 0.05070923 -0.0334307 -0.02322665 -0.052442797 0.053198963
-0.016263867 -0.020038096 0.09727584 -0.009469044 0.06560287 0.006489153 0.021535397 -0.05349483
0.024287784 -0.043659534 0.04190529 0.12146998 0.09981818 0.08955542 0.047860853 0.041523438
0.0063316203 -0.051026147 -0.018012552 -0.017298607 0.069040254 0.01831994 -0.022586498 0.07051376
0.11330299 0.05363449 -0.06804307 0.062741846 -0.0316007 0.09233135 0.002821178 0.037513684
-0.011854824 -0.019522412 0.08873544 -0.009250368 0.036768988 0.09364609 -0.015930127 0.027001498
0.053517133 -0.006740255 -0.056404267 0.03594171 0.123596035 -0.02334897 0.050266806 -0.05987508
-0.0022812858 -0.020597272 0.00014338651 0.006366198 0.06530996 0.03544823 0.01048547 -0.01819167
-0.02048314 -0.026187034 0.055299778 0.043371342 0.014166756 -0.00083249726 -0.0314818 0.0012396623
-0.038116094 0.019606145 -0.05070372 0.0024593307 -0.04821744 0.08910223 -0.00685017 0.0008426493
0.053929158 -0.021703038 0.0633032 -0.043549147 -0.06753722 -0.06369507 0.0032836446 0.043814268
0.049527574 -0.041944966 -0.013900444 0.052048665 -0.029897003 0.004007015 0.056614917 0.025290245
-0.02286463 -0.003744011 -0.01294311 0.050250757 0.045866355 -0.023514321 -0.042995725 -0.035090137
0.02169565 0.0917332 -0.032775365 -0.01931808 0.009108085 0.00072436716 -0.03797431 -0.038992383
0.13823533 -0.025059165 -0.03264581 0.04799148 -0.01990819 -0.0030198458 0.030106306 -0.050846472

weight f4 [64, 128]
00000000: 7637 68bc d794 e63c 9492 a6bd 0b99 543c
00000010: ef29 e8bc 6545 05bd f438 11bd 8ffb 42bd
00000020: b0a7 8c3c 2acb e93c 2534 a3bd 7fa7 5cbd
00000030: 8b98 843d 5bd9 a8bd df33 393c cb9b 953c
00000040: 8554 d73c ed59 40bd b960 ab3d 800b 74bd
00000050: 2fa9 b33d e182 9d3c 95ab a23d 5efb e3bc
00000060: 2368 ffbc 7355 aebc 5651 103c 4bec 67bd
00000070: 0faf 853b 7ac1 1e3d 3344 0e3c 6e99 363d
00000080: 0e25 7f3d c18c b0bd 7b7a fabc f0de dbbc
00000090: bdce 93bc e970 a4bc 61b4 5abd eeac 3f3d
000000a0: ddbf 03bd e247 d9bc 3960 94bd 65a6 d23c
000000b0: de63 973d e36c d23d 5530 ad3d cfb5 a43d
000000c0: 85de a5bc 1503 a93d 93dd 9e3d 56cc 1abd
000000d0: a960 cdbb d0b2 05bb eb3b 42bd 3365 a43c
000000e0: 5573 c0bc 8d30 743d aca6 dabc 32ce 64bc
000000f0: 175a 7c3d 3a8b 8bbd b978 aa3c ebc0 aabc
00000100: 884c 94b7 e217 49bd c717 32bd fa70 fc3c
00000110: 016e 68bd 6f04 0d3d e91c 8d3d a388 943d
00000120: acc8 49bd 651a aa3d 9d27 7fbd 1b85 95bb
00000130: 184e 61bd 730c 183c 8f7d 54bd 06b3 9d3c
00000140: c5cb b23d 47db 863d 5e1d 8ebd 2447 8dbd
00000150: 983e f5ba 8c6a 00bd 55cf 583b 9735 9cbd
00000160: 5c57 673d 2587 723d 9f1b ad3d 8491 24bd
00000170: b98c 32bd 84a2 a0bd ba19 b1bd 6803 c23c
00000180: b6fe 853d 58d6 a2bd 16c7 573d c5d4 853d
00000190: 551f 1fbc 2e08 423d 4219 afbc 11d1 8ebd
000001a0: 36eb 0d3d fa32 613d b81d a13b 6d7c 793d
000001b0: ebde e73c 4a9f 723d c266 593d 4ba8 24bb
000001c0: 8dd9 a93d 8e4e 943b ca3d 0fbd db19 843d
000001d0: 2f4e 443c da43 6cbd f144 86bd 0351 48bd
000001e0: 2709 c93d 27e4 b63c cf12 d5bc 16ac 683d
000001f0: aeb7 673d 3c28 f13c 42b4 863c 5eb5 97bd
00000200: b225 5abd 8419 403d b899 54bd 0353 133c
00000210: b59a 93bd 52c8 2bbc b799 a63d b2b1 8c3c
00000220: d928 e5bb d855 523d 02f6 31bd d641 993d
00000230: 4c0b a53d 865c 783d 6450 7abc b860 813d
00000240: 93c7 713c a6ce 773d ebab 803d 94fa 693d
00000250: 33be b13d fc95 63bd 9b9a 7e3c 529b 5dbd
00000260: 4ebb f0bc b5b4 b03d 3084 c63b 8ffd c33d
00000270: bdd8 a23d 6c2b 7b3d 2c5e 9d3d 6c8b 773d
00000280: 4168 b5bc 74be 653d 52e1 213d 4c0c 623d
00000290: f444 223d beb4 91bb a88d 94bd c347 6abd
000002a0: b1f4 b63b 86d5 153c 015c 5d3b 71ce ab3d
000002b0: fbdc a3bd 4079 223d 881b bf3b 6b67 dcbc
000002c0: d22c 413d e72a 3ebd 4abf 643c 1a49 7bbd
000002d0: 722c d7bc d25c 763d bb9e ae3d 9f98 053c
000002e0: 14bc e43c 4f4d 493d e269 a03d 0b7d 91bd
000002f0: 2464 883d d5e5 883c b378 903b f461 86bd
00000300: 0bf4 9b3d 9750 0fbd 15e4 a5bd 5a51 783d
00000310: 443f 5c3d 9d89 053c 5725 163d c72d 06bd
00000320: 4a7a 493d 5573 a33c af03 6c3d a328 e63b
00000330: 5310 563d 80bb 27bd 43f0 f4bc 54e5 3bba
00000340: 12af 05bd 32c7 babc b6f5 6cbd d1f6 8fbd
00000350: 670d 78bd 79b4 15bd 1606 8bb9 fb90 8e3d
00000360: 5aef 8e3d 0149 843c b7b0 5ebd 60b4 a13a
00000370: 6902 2abd 6719 0fbd 8e9a 2d3d f6ff 9c3b
00000380: 2dda 783c ff02 3a3d 94f8 aabc 1749 073d
00000390: 7ba5 adbd c053 a2bd 7167 5e3c 9f0a 8dbd
000003a0: 7ed3 6c3d 1aa7 00bd 3a27 31bd cc5d 70bd
000003b0: 15ad 72bd c841 7a3c b575 abbd 05f5 c33c
000003c0: 689b a03d 482d bbbb 32d6 dd3c 0a89 ba3c
000003d0: 0073 8a3d 2a5b 203d 24a8 813d 12f2 a13d
000003e0: a0d4 733d aaec 8dbd 9f08 b1bd f16d 783c
000003f0: 23c7 9ebd e036 ab3d 8d69 2abd f974 6b3d
-0.014173379 0.028147144 -0.08133426 0.012975941 -0.028340308 -0.032536883 -0.035454705 -0.047603186
0.017169803 0.028539259 -0.0796893 -0.053870674 0.06474408 -0.08244582 0.011303871 0.018262764
0.02628542 -0.04696076 0.08368058 -0.05958128 0.087725036 0.019227447 0.07942883 -0.027829822
-0.031177586 -0.02128098 0.0088084545 -0.05662183 0.0040797065 0.038758732 0.008683252 0.044579916
0.062291197 -0.08620597 -0.030575981 -0.026839703 -0.018042916 -0.020073371 -0.05339468 0.046795778
-0.032165397 -0.026523534 -0.072449155 0.025714109 0.07392095 0.10274675 0.08456484 0.0804249
-0.020247707 0.08252541 0.07757106 -0.037792526 -0.0062676263 -0.002040077 -0.047420423 0.020067787
-0.023492495 0.059616614 -0.026690803 -0.013965176 0.061609354 -0.06813665 0.020809518 -0.020843944
-1.7678612e-05 -0.049095042 -0.043479707 0.03081559 -0.056745533 0.034428056 0.0689028 0.07252624
-0.04926364 0.083058156 -0.062293638 -0.0045629865 -0.055006117 0.009280312 -0.051877555 0.019250404
0.08730272 0.065847926 -0.06939195 -0.068983346 -0.0018710671 -0.03135161 0.0033082564 -0.07627409
0.056479797 0.059210915 0.08452534 -0.040177837 -0.043591235 -0.078434974 -0.08647485 0.023683265
0.06542723 -0.07951039 0.052680098 0.06534723 -0.00971206 0.047371082 -0.021374349 -0.0697347
0.034648143 0.054980256 0.004916873 0.060909677 0.028304538 0.05923394 0.053076513 -0.0025124724
0.08293448 0.004525966 -0.034971036 0.06450244 0.011981531 -0.057681896 -0.06556118 -0.048905384
0.09816199 0.022325588 -0.026009945 0.05680474 0.056571655 0.02943813 0.016443375 -0.0740764
-0.053258605 0.046899334 -0.05190441 0.0089919595 -0.072072424 -0.010484772 0.081347875 0.017174575
-0.006993395 0.0513514 -0.043447502 0.0748326 0.08058795 0.060635112 -0.015277956 0.06317276
0.014757055 0.06049981 0.06282791 0.057123736 0.08678856 -0.055562958 0.0155397905 -0.054103203
-0.029386189 0.08628217 0.0060582384 0.09569847 0.07951496 0.061320707 0.076839775 0.060435697
-0.022144439 0.056089833 0.039521523 0.05518751 0.03961654 -0.004446595 -0.07253581 -0.057197344
0.0055833687 0.009145146 0.0033776762 0.08388985 -0.08001133 0.039666414 0.0058321394 -0.026904782
0.047161885 -0.046427634 0.0139616225 -0.061349012 -0.02626631 0.060147114 0.08526369 0.0081540635
0.027921714 0.049145993 0.078326955 -0.07103928 0.06659725 0.016711155 0.0044089197 -0.06561652
0.07614907 -0.034988966 -0.08100144 0.060624458 0.053771272 0.008150485 0.036656704 -0.0327585
0.04918889 0.019952456 0.0576207 0.0070238872 0.05226166 -0.0409503 -0.029899722 -0.00071676564
-0.032637663 -0.022800062 -0.057851516 -0.07029498 -0.060559656 -0.036549065 -0.0002651668 0.069612466
0.069792464 0.016148092 -0.054367747 0.0012337081 -0.041506205 -0.034936335 0.042383723 0.004791255
0.015188736 0.045413014 -0.020870484 0.03302869 -0.084788285 -0.0792613 0.013574467 -0.068867914
0.057818882 -0.03140936 -0.0432503 -0.0586832 -0.059247095 0.015274473 -0.0837206 0.023920545
0.078421414 -0.005712185 0.027079675 0.022770423 0.06760216 0.03914944 0.063308984 0.079074994
0.059528947 -0.06929906 -0.086442225 0.015162931 -0.07752826 0.08360076 -0.041604567 0.0574846

bias f4 [64]
00000000: 970d a93c 2598 093e 37e1 c4bc 92f9 dc3d
00000010: c84f 60bd 8b06 8dbd facc 6e3d edb0 aebd
00000020: 420d 133e d7b7 bdbd 2bb2 a2bd c37b 55bd
00000030: 1524 9abd e454 193e b1ef 5ebd 5719 e53d
00000040: 2617 9bbc 1fca 7bbd 3bcc 263d 8cf9 c03d
00000050: c17f b6bc 50f8 d0bc 42db 153e 8467 903d
00000060: a376 82bc 1cb0 89bd a52d 4dbc 575d 63bd
00000070: ca5f 40bc 36cb 5abd 22ea da3d aec0 173e
00000080: 76ae bdbb a5c6 9cbc e63e e23d 29c9 363e
00000090: be27 8c3d 5b76 5f3e 3ed6 e9bc e042 8abd
000000a0: 4669 2cbd 188a 933c c887 9fbc 67a9 323e
000000b0: 1e2d 583c 6ddc 383d 3469 e13d 1a0c a6bd
000000c0: eb7a c13c 6df1 d33c e86a 6a3d afa7 b6bc
000000d0: 5da6 6c3b cea4 c23c a147 813e 59c9 ac3d
000000e0: cb09 acbc c9fc 223e 24f1 de3d 1d1c fa3d
000000f0: 9f56 acbc ce28 333e 261d b3bb f69d 65bd
0.020636363 0.13436945 -0.024033172 0.10789789 -0.054763585 -0.068860136 0.05830095 -0.0852984
0.14360526 -0.0926358 -0.07944139 -0.05211998 -0.07526413 0.1497379 -0.054427806 0.11186474
-0.018931936 -0.061472055 0.040722113 0.09422597 -0.022277715 -0.02550903 0.14634421 0.07050994
-0.015925711 -0.06723043 -0.01252309 -0.055508938 -0.011741588 -0.053416453 0.106891885 0.14819595
-0.0057886196 -0.01913769 0.11047153 0.17850174 0.06843518 0.21822493 -0.028544541 -0.06751037
-0.042092584 0.018010184 -0.019473925 0.17447434 0.0131943505 0.04513209 0.11006394 -0.08107777
0.023618182 0.025871957 0.05723086 -0.022296755 0.0036109902 0.023760226 0.2524996 0.084368415
-0.021000763 0.15916742 0.10885838 0.122123934 -0.021037398 0.17496035 -0.0054661212 -0.056058846

weight f4 [2, 64]
00000000: d94b cf3d b13f 473e 5a0f 5fbd 60cd f43d
00000010: a5b5 96bd 5b6c 8a3d c883 f33d dcbd f93d
00000020: e377 1a3e 5e61 d03c 1211 6fbd c60c 923d
00000030: 2ef0 abbd b1ff 173e 988f 003e ffd7 a33d
00000040: fcf3 54bc 7731 c9bc db55 2f3e 1f67 313e
00000050: e565 0d3d 6ba1 cdbd 25cf 2e3e b889 003e
00000060: 7d53 ecbc 9f39 0f3d f290 2dbd e12a 393d
00000070: 95a1 8e3d 904e a3bd 1427 493e 879c 4e3e
00000080: 92ec ddbd 80f6 9cbd 2539 b5bc b5c5 383e
00000090: db73 bc3d 80e2 703e 61be 423d a388 afbd
000000a0: f543 96bd 5c8a ec3c 4dc4 36bd fc8a 063e
000000b0: f59a a73d 9acb ecbb 7f6c 253e 980a 1cbb
000000c0: e636 3c3c 3049 fc3d 011c 813d c3f2 d83d
000000d0: dc2b b3bd 1bf3 80bd 9243 6b3e 4a84 063e
000000e0: 997b a5bd 4248 5a3e f8ea fa3d d0dc 433e
000000f0: a7de 85bd 6b27 323e 6379 853d 3dc6 01bd
00000100: feee cabd d786 77bd de52 acbc 9b48 423c
00000110: b9f9 fc3d d130 1ebd e8ac cb3d c2d3 c73d
00000120: 0a0e 70be 2348 e33d 95ee ec3b f7eb 1d3c
00000130: 444e 64bd 9fae 44be bfb4 ae3c 6eb8 23be
00000140: 1411 cfbc bbb0 803d 7ff2 1ebe 3e86 52be
00000150: 3be6 e0bd 698c ab3c a689 d9bd 2913 6a3d
00000160: 5e31 cb3d ef12 cdbc f25e 683d e4f3 ef3d
00000170: 9188 b03d 0c03 bcbc 988e 25be a3b9 f5bd
00000180: fcc7 debc ff66 b1bd a802 19be 8d2c c4bd
00000190: 4d8b 3fbd 0799 5cbe 79e0 b93d 5045 e73d
000001a0: 131b 303d 54e8 52bd 0175 17bc 36f9 66be
000001b0: 1fb7 a83d 36d5 b03b 0913 28bc 8ce5 90bd
000001c0: 4bc5 a03d e68b d5bd 9c9b bcbc 716b b53d
000001d0: fd8f 12be 1ec5 deba 66dc 63be 30ec 8bbd
000001e0: 55ea 5fbd 38b9 31be 27f9 8ebd 8a7b acbd
000001f0: 91b8 f3bc a6cb 86bd d232 c63d c807 12bd
0.10121889 0.1945789 -0.054458 0.11953235 -0.07358865 0.067589484 0.1189037 0.12194416
0.15084796 0.025437053 -0.05836589 0.071313426 -0.0839542 0.14843632 0.12554777 0.08000182
-0.0129976235 -0.02455972 0.17122595 0.17324494 0.034521002 -0.10040554 0.17071207 0.12552536
-0.028848404 0.03496706 -0.04237456 0.045206908 0.06964413 -0.07973969 0.19643813 0.20176898
-0.10836138 -0.07664204 -0.022121975 0.18044169 0.09201785 0.23523903 0.04754484 -0.08570983
-0.073371805 0.028874569 -0.0446208 0.13138956 0.081838526 -0.0072264196 0.16154669 -0.0023810025
0.011487698 0.12318647 0.063041694 0.10593178 -0.087486 -0.06296369 0.22974995 0.13136402
-0.08080215 0.21316627 0.12251848 0.19127202 -0.06536608 0.1739785 0.06517293 -0.031683195
-0.099088654 -0.060431328 -0.021035608 0.011858131 0.12352318 -0.038620774 0.099450886 0.097571865
-0.23442855 0.11097743 0.0072305896 0.009638778 -0.055738702 -0.19207238 0.02132642 -0.15988323
-0.025276698 0.06283709 -0.15522192 -0.20559022 -0.10981413 0.020940976 -0.106219575 0.05714718
0.099215254 -0.025033442 0.056731172 0.1171644 0.08619798 -0.022950672 -0.16167676 -0.11998298
-0.02719497 -0.08662223 -0.1494242 -0.0957881 -0.046763707 -0.2154275 0.09076018 0.11292517
0.04299457 -0.051491097 -0.0092442045 -0.22556004 0.082380526 0.0053965105 -0.010258445 -0.070750326
0.07850131 -0.10427074 -0.02302342 0.088583834 -0.1431274 -0.0016996001 -0.22252044 -0.068321586
-0.054666836 -0.17355812 -0.06981116 -0.08422001 -0.029751094 -0.065818116 0.09677662 -0.035651952

bias f4 [2]
00000000: 368b 1e3f 3c95 13bf
0.6193117 -0.5764959
