CE_naive/checkpoints/CE_NAIVE_BIG_DATA/model_epoch_130.pt (torch, 234127 bytes, 8 tensors)

fc1_lin.weight f4 [256, 64]
2.3382714e-05 1.0623085e-05 9.889136e-06 -3.4743854e-05 -7.301006e-05 -4.569457e-06 4.5051074e-05 6.1289174e-05
2.7978576e-06 -4.650189e-05 3.4665027e-06 1.587614e-05 3.2787226e-05 7.033626e-05 -3.1809795e-05 -5.8859903e-05
2.0562697e-05 -5.533165e-05 6.37927e-05 2.9967676e-05 4.7276503e-06 -2.0724869e-05 -3.906737e-05 3.2238066e-05
-2.0812247e-05 -3.8355865e-05 -1.7747248e-05 -4.8468737e-05 -5.7772188e-05 6.0712777e-05 -4.7309128e-05 2.2963273e-05
4.329697e-05 -2.4254943e-05 -5.0772687e-05 -5.2246738e-05 3.5604335e-05 -3.0357136e-05 -4.6889796e-05 -5.124856e-05
2.7474993e-05 -7.214302e-05 1.2524742e-06 1.4855758e-05 9.16344e-06 -7.792892e-06 -1.9559435e-05 2.3785085e-05
2.6250646e-05 3.4181096e-05 2.8353832e-05 -6.2412415e-05 -5.1803945e-05 5.3065596e-06 -4.7482034e-05 6.2520835e-06
8.385025e-06 3.188515e-05 -6.804977e-05 4.0084313e-05 3.7248126e-05 -2.6084117e-05 1.2787773e-05 -9.181575e-06
-5.6742432e-05 0.0012657649 -0.001965469 0.003358798 8.30214e-05 0.0023589002 -0.0015250735 -0.01818748
-4.3806504e-05 -0.0047453716 -0.055673495 0.025921537 0.015908144 0.0010486614 7.053184e-05 1.5946473e-05
0.013051301 2.8058459e-05 -1.2429145e-06 0.06134395 -3.6666574e-05 0.0016016912 0.005312659 0.00080558454
6.9997833e-07 -2.0023626e-05 0.0010755776 0.01644903 -5.284544e-05 0.0007423863 9.030785e-05 -0.0009435619
-0.00086398923 0.016919684 -1.3883653e-05 -0.024514737 6.6501576e-05 -0.0011026597 -8.464632e-06 -0.011090354
-0.0021748182 0.026128652 -1.30988665e-05 7.781487e-05 3.209638e-05 -0.029541463 7.5348325e-05 -0.010731455
0.034508858 0.018718028 -8.341377e-05 -0.042093307 0.04273077 8.964462e-05 -0.00023569685 1.655853e-05
-7.7784105e-05 -0.00010128956 6.2195446e-05 -0.0081641 0.09453967 0.00036181364 0.005695537 1.3510831e-06
-1.5403544e-05 -0.00047919547 0.002057307 -0.013387142 -0.00011771179 -0.095996216 0.016252613 0.1206539
3.2670607e-05 0.0076027797 0.05650577 -0.011266928 -0.009674837 -0.00032587504 7.6244332e-06 8.527269e-05
-0.0066325297 1.1517399e-05 5.4703345e-05 -0.046797406 -5.2913925e-05 -0.00019452997 0.004519235 -0.0011941066
2.8527433e-05 3.5755707e-05 -0.0028004101 -0.061069854 1.0253034e-05 -0.00040578196 7.842114e-05 0.000828111
0.0074091316 -0.014791637 4.6588862e-05 0.047498513 -1.8311293e-05 -0.0025341748 -2.1750237e-05 0.016272819
0.013446486 -0.0072961184 0.0003302582 7.712419e-05 2.1489719e-05 0.008860529 8.738927e-06 0.010388588
-0.11936992 -0.047137305 -0.00034002258 0.064586334 -0.121927485 0.00010025693 0.00026342046 -6.286716e-05
-4.1794337e-06 0.03456792 0.00023674074 0.0036939604 -0.06896395 -0.0003682106 -0.013787911 -6.615771e-05
3.404619e-06 -0.00026375838 0.0009226204 -0.006713899 -0.0001313107 -0.041207876 0.008056783 0.060085136
-5.9686074e-05 0.0037999558 0.027904302 -0.0056078276 -0.007341956 -0.00020883756 -3.788944e-06 2.4828865e-05
-0.0034665954 -1.461257e-06 -7.5921225e-06 -0.023143485 2.0854905e-05 -9.1882175e-06 0.002681312 -0.0004434039
2.062581e-07 3.5556826e-05 -0.0013543139 -0.035747547 5.0167822e-05 -0.00016178637 5.681563e-05 0.0003409585
0.0034057302 -0.0072889584 -8.233974e-06 0.021429297 1.511406e-05 -0.001560663 6.623285e-05 0.007930983
0.0070348284 -0.0033930833 0.00010002311 -3.6270427e-05 2.8612492e-05 0.0037952224 3.2801715e-06 0.004952356
-0.06261812 -0.024279363 -0.0001642978 0.032306317 -0.06379521 3.1391926e-05 0.00018775373 -1.3336667e-05
4.028665e-05 0.0346565 0.00012073351 0.0018893207 -0.033941176 -0.00020613668 -0.006410238 -2.7075976e-05
00000000: ff25 c437 cd39 3237 84e9 2537 eeb9 11b8
00000010: fa1c 99b8 5653 99b6 39f5 3c38 6088 8038
00000020: d4c2 3b36 060b 43b8 10a2 6836 c02d 8537
00000030: 0485 0938 7e81 9338 826b 05b8 57e0 76b8
00000040: 0e7e ac37 e813 68b8 72c8 8538 1863 fb37
00000050: 35a2 9e36 51da adb7 45dc 23b8 5c37 0738
00000060: f695 aeb7 4ce0 20b8 eddf 94b7 e94a 4bb8
00000070: 6a50 72b8 d9a5 7e38 ca6d 46b8 41a1 c037
00000080: c499 3538 1877 cbb7 c2f4 54b8 8223 5bb8
00000090: dd55 1538 74a7 feb7 89ab 44b8 b9f3 56b8
000000a0: 197a e637 7d4b 97b8 b01a a835 ff3c 7937
000000b0: adbc 1937 37be 02b7 9113 a4b7 1586 c737
000000c0: d534 dc37 ac5d 0f38 64d9 ed37 69e3 82b8
000000d0: 1048 59b8 000f b236 7227 47b8 fdc8 d136
000000e0: 68ad 0c37 6bbc 0538 f1b5 8eb8 3420 2838
000000f0: df3a 1c38 37cf dab7 118b 5637 900a 1ab7
00000100: b9fe 6db8 06e8 a53a 19cf 00bb 481f 5c3b
00000110: c61b ae38 c797 1a3b fae4 c7ba e9fd 94bc
00000120: e0bc 37b8 107f 9bbb e409 64bd 6759 d43c
00000130: cc51 823c 3d73 893a 7eea 9338 cac4 8537
00000140: 20d5 553c 155f eb37 38d2 a6b5 cb43 7b3d
00000150: 6fca 19b8 d7ef d13a d015 ae3b dd2d 533a
00000160: 25e6 3b35 69f8 a7b7 65fa 8c3a 1ec0 863c
00000170: 5ca6 5db8 b49c 423a a863 bd38 5e59 77ba
00000180: 567d 62ba 269b 8a3c d6ed 68b7 21d3 c8bc
00000190: c376 8b38 1f87 90ba 5103 0eb7 51b4 35bc
000001a0: 6587 0ebb c10b d63c 34c3 5bb7 8a30 a338
000001b0: 3a9f 0638 f000 f2bc 5304 9e38 fcd2 2fbc
000001c0: 2959 0d3d 8d56 993c 6dee aeb8 086a 2cbd
000001d0: 7606 2f3d 97ff bb38 6425 77b9 2ce7 8a37
000001e0: 0620 a3b8 6b6b d4b8 ed6e 8238 b8c2 05bc
000001f0: 049e c13d ceb1 bd39 a1a1 ba3b dd56 b535
00000200: dc36 81b7 873c fbb9 e2d3 063b be55 5bbc
00000210: 09dc f6b8 aa99 c4bd 3324 853c 6419 f73d
00000220: cc07 0938 bd20 f93b 9872 673d ec98 38bc
00000230: 3583 1ebc 35da aab9 62d5 ff36 6dd4 b238
00000240: b155 d9bb da3a 4137 4571 6538 a3ae 3fbd
00000250: e5ef 5db8 befa 4bb9 1716 943b 9283 9cba
00000260: 324e ef37 66f8 1538 1687 37bb 6224 7abd
00000270: 7204 2c37 22bf d4b9 0776 a438 9715 593a
00000280: 4dc8 f23b 9f58 72bc 6968 4338 cd8d 423d
00000290: 349b 99b7 6614 26bb 4774 b6b7 934e 853c
000002a0: a64e 5c3c 4714 efbb 8126 ad39 bcbd a138
000002b0: d244 b437 c12b 113c 689d 1237 e534 2a3c
000002c0: 3778 f4bd 0c13 41bd 0f45 b2b9 d745 843d
000002d0: 1eb5 f9bd 0841 d238 b21b 8a39 8dd7 83b8
000002e0: 103d 8cb6 1797 0d3d 9c3d 7839 5f16 723b
000002f0: f93c 8dbd 640c c1b9 b1e6 61bc 26be 8ab8
00000300: e97a 6436 0d49 8ab9 02dc 713a 4400 dcbb
00000310: 73b0 09b9 97c9 28bd 9900 043c d51b 763d
00000320: 6f57 7ab8 ae08 793b 9097 e43c dec1 b7bb
00000330: ca94 f0bb 68fb 5ab9 9045 7eb6 9547 d037
00000340: d22f 63bb 6920 c4b5 d6bf feb6 6897 bdbc
00000350: 91f1 ae37 1827 1ab7 f3b8 2f3b aa78 e8b9
00000360: cb77 5d34 da22 1538 3c83 b1ba 056c 12bd
00000370: 4a6b 5238 33a5 29b9 514d 6e38 adc2 b239
00000380: ac32 5f3b 37d8 eebb a624 0ab7 7e8c af3c
00000390: 6592 7d37 298f ccba 7ee6 8a38 f4f0 013c
000003a0: 6b84 e63b 7e5e 5ebb 80c3 d138 1321 18b8
000003b0: dc04 f037 44b9 783b eb20 5c36 6047 a23b
000003c0: ee3d 80bd 84e5 c6bc 5b47 2cb9 a153 043d
000003d0: 10a7 82bd d3aa 0338 c2df 4439 8cc0 5fb7
000003e0: 76f9 2838 f9f3 0d3d 4f32 fd38 15a3 f73a
000003f0: e705 0bbd 6526 58b9 f90c d2bb 3721 e3b7

fc1_lin.bias f4 [256]
-5.9279e-05 -0.011847986 0.077187516 0.028483534 0.040041696 2.8199096e-05 2.6727474e-05 0.00028288423
-0.0023076318 -5.330661e-05 0.011933886 0.026022386 -0.009170708 9.909517e-05 1.6076745e-05 -6.871034e-05
-0.050976377 0.056195542 -4.351971e-05 -3.0028108e-05 -0.003864189 0.050621 0.07505895 -4.169233e-05
0.012656475 0.06464514 -3.356345e-05 -3.773622e-05 0.06355985 -0.004434147 -0.0022436439 0.03412927
0.038355242 0.00043939057 0.008714895 -6.5651795e-05 -0.021976588 0.0014756136 0.055972267 0.037711512
0.0001129217 -5.7447927e-05 -0.017162055 -9.24523e-06 -0.05143605 -8.223027e-06 0.02884534 3.2322353e-06
-0.008767105 -0.021373585 3.535084e-05 0.0047107185 0.05937343 0.019980395 0.0005397893 0.038946174
-4.2148564e-05 -0.031161597 0.028004538 0.023074308 -0.006535307 -2.9254476e-05 -3.9195198e-05 0.072628565
-5.2680556e-05 -2.4401788e-05 -6.388966e-05 -0.0063296766 -0.017029086 0.022079842 0.014725089 -5.1003182e-05
0.024848606 -5.367767e-05 -0.009735523 0.030572195 0.05073525 0.0030968431 0.04017573 -3.868284e-05
0.0009475506 0.048173048 0.030197825 -2.4597208e-05 -1.5690268e-05 0.060378302 -2.819555e-05 0.0018482943
-5.0603216e-05 -5.4155134e-05 -0.11380525 -4.6472487e-05 0.071620844 -6.4945154e-05 -1.3966288e-05 -0.0062894057
0.06977552 0.037206814 -6.781183e-05 -5.2401065e-05 0.000818823 0.039415013 -3.313835e-05 0.050247688
0.01825125 -6.419797e-05 -2.8230283e-05 -1.1148969e-05 0.043842394 0.020680526 -7.001895e-05 0.012329206
-0.015284935 -0.00017591791 -0.003642036 -5.9816168e-05 -0.04904001 0.009749501 0.013921514 -4.9420734e-05
-6.897785e-05 0.076766714 0.039174933 -6.675593e-05 -0.007268834 -0.009299568 -5.8319576e-05 -0.00092503923
0.0065938076 -0.004708364 0.006603123 -0.0078147575 0.014465107 1.505311e-05 0.08713812 -0.003076924
-2.0271107e-05 -0.04673346 0.0016310377 0.00083425577 -5.1131945e-05 -0.05608559 -6.540207e-05 -0.0114614405
0.009516388 -0.0059897755 0.029318694 0.031652004 -7.205892e-05 0.010226656 0.06866614 -0.006054732
0.05840563 0.0021944484 0.0027692725 -6.609221e-05 -7.260394e-05 0.07576164 -1.7729486e-05 -0.008182354
-2.0591754e-06 0.0037475557 2.2116852e-05 0.0023640417 -5.6045035e-05 0.082718186 0.10499333 -2.0701647e-05
0.04631915 -0.009426671 0.008659506 -0.002537149 -4.2340278e-05 3.081873e-05 0.0061936807 0.0032107949
-4.3046217e-05 -0.017359918 8.361368e-06 -7.0552356e-05 -5.5025408e-05 -2.2459377e-05 -6.6130524e-05 -0.007997047
0.06747817 0.03375764 0.045459304 -4.2116983e-05 0.04561966 4.883992e-06 -0.036688905 0.0857707
0.069801144 0.008806284 0.018673228 -3.6666246e-05 0.031839434 0.025669837 0.06279391 -2.2615319e-05
0.10549812 0.0697109 6.945542e-05 -5.3987947e-05 -0.03409365 -5.7630485e-05 0.023154516 -0.0024706142
-3.1916123e-05 0.0010397997 0.01474613 -1.2391937e-05 0.06366437 -1.3627416e-05 -0.013615333 0.043264546
-3.7631256e-05 0.011279328 0.00015977047 0.002404194 0.038658146 0.059395768 -1.057895e-05 -6.5259876e-05
-5.8165362e-05 -2.9262963e-05 -0.024018148 -0.030195272 -5.982478e-05 -3.7697646e-05 -0.021676678 -0.046480946
-7.961199e-05 0.031693805 0.05561832 0.030433077 0.016011847 -0.04320626 0.0026664597 -0.0015808155
2.9016492e-06 -4.0881918e-05 -1.4669421e-06 0.040733002 0.0019269106 0.016269198 -0.019920606 0.030365847
-0.0060036704 0.0022832272 -4.794004e-05 -0.0003869753 -6.6464745e-05 -0.004375888 -0.043687813 -0.0418456
00000000: 57a2 78b8 0e1e 42bc 7d14 9e3d 4d56 e93c
00000010: c302 243d 198d ec37 d034 e037 1450 9439
00000020: a33b 17bb 8995 5fb8 5986 433c e62c d53c
00000030: bd40 16bc 50d1 cf38 8cdc 8637 9518 90b8
00000040: 9bcc 50bd 4c2d 663d ef88 36b8 dfe4 fbb7
00000050: 553e 7dbb f757 4f3d 82b8 993d ccde 2eb8
00000060: 1b5d 4f3c ac64 843d 7bc6 0cb8 f546 1eb8
00000070: ab2b 823d 524c 91bb 190a 13bb 22cb 0b3d
00000080: 631a 1d3d 015e e639 ebc8 0e3c 8aae 89b8
00000090: 3f08 b4bc 6069 c13a 2d43 653d 6377 1a3d
000000a0: 60d0 ec38 3ef4 70b8 7097 8cbc f61b 1bb7
000000b0: 9cae 52bd a2f5 09b7 104d ec3c 61e9 5836
000000c0: e7a3 0fbc a817 afbc ad45 1438 5f5c 9a3b
000000d0: 8e31 733d edad a33c a680 0d3a 0686 1f3d
000000e0: adc8 30b8 9b46 ffbc c669 e53c 5506 bd3c
000000f0: 2126 d6bb 8267 f5b7 8665 24b8 49be 943d
00000100: 51f5 5cb8 71b2 ccb7 80fc 85b8 2d69 cfbb
00000110: 9580 8bbc c9e0 b43c 8041 713c 40ec 55b8
00000120: 4e8f cb3c f623 61b8 be81 1fbc 8a72 fa3c
00000130: c4cf 4f3d 68f4 4a3b 4e8f 243d 623f 22b8
00000140: 0b65 783a 1a51 453d 6e61 f73c 1a56 ceb7
00000150: 989e 83b7 3d4f 773d 7c85 ecb7 7742 f23a
00000160: ca3e 54b8 a224 63b8 ba12 e9bd 74eb 42b8
00000170: f3ad 923d 2a33 88b8 c050 6ab7 5c17 cebb
00000180: 78e6 8e3d 2c66 183d 3336 8eb8 37c9 5bb8
00000190: 48a6 563a a371 213d 08fe 0ab8 85d0 4d3d
000001a0: a583 953c 06a2 86b8 12d0 ecb7 750c 3bb7
000001b0: 1594 333d 356a a93c 23d7 92b8 7000 4a3c
000001c0: aa6d 7abc 9b76 38b9 3aaf 6ebb 1fe3 7ab8
000001d0: 2dde 48bd 5fbc 1f3c 1017 643c 1c49 4fb8
000001e0: 34a8 90b8 de37 9d3d e575 203d 51ff 8bb8
000001f0: 662f eebb 375d 18bc 2b9c 74b8 557e 72ba
00000200: de10 d83b 9f48 9abb 035f d83b 7809 00bc
00000210: 0eff 6c3c 9d8c 7c37 7875 b23d 38a6 49bb
00000220: df0b aab7 966b 3fbd 8bc8 d53a f5b1 5a3a
00000230: 8276 56b8 01ba 65bd 7828 89b8 c4c8 3bbc
00000240: a0ea 1b3c e145 c4bb c22d f03c 88a5 013d
00000250: 571e 97b8 b48d 273c d5a0 8c3d c666 c6bb
00000260: be3a 6f3d bcd0 0f3b af7c 353b fc9a 8ab8
00000270: f242 98b8 eb28 9b3d c8b9 94b7 480f 06bc
00000280: 5d30 0ab6 8d99 753b 9487 b937 0aee 1a3b
00000290: e611 6bb8 2768 a93d be06 d73d 73a8 adb7
000002a0: 26b9 3d3d 5372 1abc 9ae0 0d3c 4c46 26bb
000002b0: 8796 31b8 5c43 0138 5cf4 ca3b 336c 523b
000002c0: 868c 34b8 6336 8ebc cd47 0c37 82f5 93b8
000002d0: 15cb 66b8 2567 bcb7 8eaf 8ab8 0c06 03bc
000002e0: ff31 8a3d 7345 0a3d 8933 3a3d c4a6 30b8
000002f0: aedb 3a3d 2ce1 a336 1b47 16bd 8ca8 af3d
00000300: e7f3 8e3d 3b48 103c 99f8 983c 15ca 19b8
00000310: 116a 023d 8d49 d23c 189a 803d 07b6 bdb7
00000320: 660f d83d 97c4 8e3d 98a8 9138 1e71 62b8
00000330: c8a5 0bbd 43b8 71b8 8aae bd3c 07ea 21bb
00000340: addd 05b8 e349 883a c199 713c f7e6 4fb7
00000350: 7762 823d 4ea1 64b7 d812 5fbc 2a36 313d
00000360: 41d6 1db8 eecc 383c 0f88 2739 af8f 1d3b
00000370: 0158 1e3d fa48 733d 3f7c 31b7 21dc 88b8
00000380: 95f6 73b8 bc79 f5b7 b5c1 c4bc 135c f7bc
00000390: 5eec 7ab8 8a1d 1eb8 4a93 b1bc ce62 3ebd
000003a0: 5df5 a6b8 5dd1 013d 09d0 633d ca4e f93c
000003b0: 472b 833c 0cf9 30bd c5bf 2e3b 5e33 cfba
000003c0: f4b9 4236 a078 2bb8 bfe3 c4b5 a6d7 263d
000003d0: 6490 fc3a fb46 853c 8a30 a3bc ccc1 f83c
000003e0: 70ba c4bb 32a2 153b 3a13 49b8 f2e2 cab9
000003f0: fd62 8bb8 9c63 8fbb fef1 32bd 4b66 2bbd

fc2_lin.weight f4 [128, 256]
1.7614635e-05 -0.0048405523 0.017002404 0.00867825 0.009649236 2.9870802e-05 1.1989303e-05 -0.00014452127
-0.015582276 -5.282329e-06 0.0022550472 0.005282242 -0.009451747 2.678429e-05 3.05535e-05 -2.4705825e-05
-0.008934959 0.01812315 9.100325e-06 3.7179158e-05 -0.00042239015 0.012106683 0.028629106 -5.165678e-07
0.009185278 0.014894506 2.6669295e-05 -9.547698e-06 0.020748079 -0.005626067 0.0029894281 0.012454614
0.009149519 9.015361e-05 0.0029390184 3.647555e-05 -0.0125875445 0.00040374993 0.022150215 0.01457571
4.1244886e-05 2.1127213e-05 -0.005246218 -1.5082109e-05 -0.014083887 8.630363e-06 0.008414676 0.00010184062
-0.006921707 -0.0016330549 -6.031297e-06 0.0013557107 0.018803395 0.0057971035 0.00012818942 0.0080301
-6.4460687e-07 -0.008100948 0.011587044 0.0089540575 -0.0048903814 -1.073176e-05 -3.1307613e-05 0.023725124
-3.292606e-08 -2.2637532e-05 -3.7590637e-06 0.00017595156 -0.0050885626 0.0058780364 0.00769627 2.0144791e-05
0.009933454 -2.9821784e-05 -0.013105629 0.009728393 0.014537755 0.0008829929 0.01564292 -2.5287587e-05
0.0003093734 0.018750388 0.015925312 -3.5101155e-05 -2.587518e-05 0.01684851 4.2302026e-06 -0.006261433
5.736974e-06 -7.8238545e-06 -0.021952055 2.289991e-05 0.026222754 -4.7088093e-07 1.1990782e-06 -0.004429905
0.016231949 0.017876025 -2.9765048e-05 -9.0292315e-06 -0.001120261 0.0081081735 -2.6731664e-07 0.01331407
0.004880651 -5.1508287e-06 1.0572379e-05 0.0001825363 0.017429333 -0.007304453 -8.950774e-06 0.009227337
-0.010878488 -9.5010735e-05 -0.0057075205 2.1513371e-05 -0.0060730157 0.0033762213 0.0033128231 -2.9327459e-05
2.6760164e-05 0.024653208 0.011612286 -2.3993318e-06 -0.0015846059 -0.008175523 3.487848e-05 -0.0067423815
0.0023600995 -0.010013756 0.0017667147 -0.0037874866 0.0045354255 1.0728619e-05 0.016825566 -0.0010965172
-2.5927257e-05 -0.0021568998 -0.0039129956 0.00023021693 1.1213821e-05 -0.004204534 -1.5357771e-05 -0.003187467
0.0017749766 -0.010003137 0.010190994 0.01847626 3.7138612e-05 -0.0068696374 0.011851177 -0.0012963403
0.017993236 0.0005703463 -0.0019636597 2.05149e-05 -2.7069007e-05 0.022751573 -1.3773047e-05 -0.011493397
1.1307874e-05 0.0011342509 2.7851565e-05 -0.008876245 6.340921e-07 0.01792289 0.010995353 1.4751822e-05
0.018345602 -0.009640477 6.0799808e-05 -0.004616434 -2.180505e-05 -7.5927255e-06 -0.0055540293 0.0013919142
1.241296e-05 -0.0074666087 -3.075972e-05 3.5506906e-05 -3.292851e-06 2.1741287e-05 -3.488188e-06 -0.016296303
0.018471155 0.007837265 0.01864819 3.5019104e-05 0.016828883 2.4528561e-05 -0.0072349925 0.020635976
0.019454645 -0.0018942028 0.008638292 -2.2364133e-05 0.014013995 0.0071491976 0.014834504 3.2385517e-05
0.02579724 0.00865644 0.000109581655 2.4895528e-06 -0.0034443748 -1.4338016e-05 0.0051724752 -0.004167662
-1.9290626e-05 0.0007324026 0.009882011 3.2463495e-06 0.009682015 -9.466657e-06 -0.009392713 0.012237592
-2.6675469e-05 0.0016196924 8.489442e-05 0.0007574559 0.017354393 0.011776192 -1.5173638e-05 -1.7798839e-06
-8.825994e-06 -7.1497675e-06 -0.005348392 -0.0099526355 -3.665677e-05 -2.3089167e-05 -0.017638072 -0.010742286
-7.867547e-06 0.008250295 0.017550506 0.0045177615 0.003291599 -0.010923628 0.0007273288 0.0041565434
3.452311e-05 3.102185e-05 -2.1227195e-05 0.014215525 -0.0005717373 0.0039116354 -0.016099531 0.0024774128
-0.0033347898 -0.0010044123 2.791554e-05 -0.0006069502 1.720234e-05 -0.0023899544 -0.008208357 -0.012670526
00000000: 24c3 9337 7f9d 9ebb a048 8b3c 382f 0e3c
00000010: d417 1e3c 0f93 fa37 aa25 4937 a28a 17b9
00000020: cd4c 7fbc dc3e b1b6 6ac9 133b a816 ad3b
00000030: 80db 1abc d3ae e037 9226 0038 5b3f cfb7
00000040: ef63 12bc 0077 943c 99ad 1837 d1f0 1b38
00000050: 3f74 ddb9 1c5b 463c 9687 ea3c 45aa 0ab5
00000060: d97d 163c 1608 743c e0b7 df37 0d2f 20b7
00000070: e0f7 a93c df5a b8bb 48ea 433b 700e 4c3c
00000080: dde7 153c da10 bd38 8c9c 403b 53fd 1838
00000090: fd3b 4ebc 66ae d339 5e74 b53c f5ce 6e3c
000000a0: 5cfe 2c38 583a b137 77e8 abbb 2a09 7db7
000000b0: 1bc0 66bc 20cb 1037 b6dd 093c 4493 d538
000000c0: 7dcf e2bb 3b0c d6ba 7260 cab6 1ab2 b13a
000000d0: 9409 9a3c a1f5 bd3b 966a 0639 ae90 033c
000000e0: 0c09 2db5 d7b9 04bc 96d7 3d3c 0ab4 123c
000000f0: 7e3f a0bb 8f0c 34b7 4b50 03b8 315b c23c
00000100: 966a 0db3 bbe5 bdb7 3944 7cb6 a37f 3839
00000110: f5bd a6bb 8b9c c03b fe30 fc3b 9cfc a837
00000120: edbf 223c cb29 fab7 feb8 56bc d663 1f3c
00000130: c42f 6e3c a778 673a 9525 803c ae20 d4b7
00000140: 6533 a239 6a9a 993c cd75 823c 9439 13b8
00000150: 870e d9b7 e305 8a3c 2af1 8d36 b52c cdbb
00000160: 3b80 c036 3343 03b7 ccd4 b3bc 2f19 c037
00000170: 1ad1 d63c 62cd fcb4 03f0 a035 bd28 91bb
00000180: ddf8 843c be70 923c f4af f9b7 417c 17b7
00000190: b9d5 92ba 25d8 043c b883 8fb4 4223 5a3c
000001a0: deed 9f3b 48d5 acb6 0660 3137 3767 3f39
000001b0: f6c7 8e3c 315a efbb 482b 16b7 422e 173c
000001c0: b03b 32bc 8040 c7b8 2706 bbbb 9d77 b437
000001d0: 2600 c7bb 9843 5d3b f31b 593b 3d04 f6b7
000001e0: 047b e037 86f5 c93c 7541 3e3c 3504 21b6
000001f0: 8db2 cfba a1f2 05bc 7c4a 1238 32ef dcbb
00000200: e6ab 1a3b bd10 24bc 1c91 e73a 7b37 78bb
00000210: e89d 943b 11ff 3337 c5d5 893c 03b9 8fba
00000220: 5c7e d9b7 c65a 0dbb 9638 80bb 6366 7139
00000230: ff22 3c37 30c6 89bb 90d4 80b7 d3e4 50bb
00000240: 55a6 e83a 33e4 23bc 20f8 263c 875b 973c
00000250: 48c5 1b38 b21a e1bb 702b 423c f6e9 a9ba
00000260: 8d66 933c 4b83 153a beb0 00bb 6a17 ac37
00000270: 4012 e3b7 8261 ba3c c912 67b7 cd4e 3cbc
00000280: f3b6 3d37 25ab 943a c8a2 e937 ab6d 11bc
00000290: 7a36 2a35 06d3 923c da25 343c 987e 7737
000002a0: 8449 963c 17f3 1dbc 4c03 7f38 7545 97bb
000002b0: fde9 b6b7 04c5 feb6 93fe b5bb e470 b63a
000002c0: 4241 5037 74aa f4bb ff03 01b8 40ed 1438
000002d0: c0fa 5cb6 0f61 b637 9d16 6ab6 d37f 85bc
000002e0: d250 973c df67 003c 17c4 983c 7ae1 1238
000002f0: badc 893c afc2 cd37 8413 edbb c70c a93c
00000300: 595f 9f3c e646 f8ba 9f87 0d3c 9c9a bbb7
00000310: f59a 653c d143 ea3b 6b0c 733c afd5 0738
00000320: bc54 d33c bed3 0d3c 34cf e538 3112 2736
00000330: 05bb 61bb 4f8d 70b7 de7d a93b e290 88bb
00000340: 4ed2 a1b7 b5fe 3f3a 29e8 213c dcdb 5936
00000350: 50a1 1e3c fbd2 1eb7 e5e3 19bc 2e80 483c
00000360: 22c5 dfb7 dc4b d43a 5809 b238 0190 463a
00000370: cd2a 8e3c eef0 403c 4792 7eb7 58e4 eeb5
00000380: 5b13 14b7 09e8 efb6 9041 afbb 6110 23bc
00000390: e8bf 19b8 9caf c1b7 b87d 90bc 6a00 30bc
000003a0: dbfe 03b7 3f2c 073c 14c6 8f3c bb09 943b
000003b0: deb7 573b 04f9 32bc 36aa 3e3a 9d33 883b
000003c0: e8cc 1038 751d 0238 0e11 b2b7 3ce8 683c
000003d0: a4e0 15ba 2d2d 803b 2ae3 83bc 175c 223b
000003e0: 7d8c 5abb 7ca6 83ba 2a2c ea37 bd1b 1fba
000003f0: be4d 9037 c8a0 1cbb 587c 06bc 0a98 4fbc

fc2_lin.bias f4 [128]
0.02622692 -9.246134e-06 -4.465603e-05 0.0035626162 -0.039170545 -3.730504e-05 -5.0539125e-05 -3.0267109e-05
-0.096953854 -0.007735932 -4.6546043e-05 -3.9642324e-05 -2.9137553e-05 0.057239592 0.037806492 0.0074237147
0.008512017 0.011052915 -0.06880695 -1.7616385e-05 -0.02522672 -0.08154906 0.03595136 -0.00037190557
0.008261228 -2.921041e-05 0.01809223 -3.156025e-05 -0.004342024 0.012476443 -2.6918433e-05 0.005343855
-0.13911007 -3.6597037e-05 -0.06797557 0.00047539966 -1.9537816e-05 -1.5871188e-05 0.0061897174 -0.07387229
0.006684976 -0.003956968 2.5389822e-05 -0.0034713715 0.0073748482 -1.9987901e-05 -3.76487e-05 -0.030523404
-0.0035167355 -1.5443467e-05 0.000106028965 0.0049524265 0.0006205416 -5.0101822e-05 0.003869614 0.024730146
0.035150923 0.00010285582 -0.0013630342 0.00022773555 -0.001603383 0.014414892 0.018032396 0.03146725
-0.09789842 0.049199067 -0.0007333145 -0.0793492 -0.019575233 -4.784204e-05 -0.013257062 -4.4735614e-05
0.04200705 -2.6298974e-05 -0.02556639 0.0043194294 -0.09754702 -3.301509e-05 -4.3018863e-05 0.005419726
-0.040770408 -0.0028893058 -3.149715e-05 -0.079274856 -0.079459086 0.054027636 -0.012044547 -4.112721e-06
-3.4540557e-05 -0.038017392 -0.003499537 -5.0095157e-05 -4.295383e-05 -1.9201909e-05 -0.006184618 -0.07983436
-6.192071e-05 0.021217572 -0.018824479 -0.003309659 -0.0041752835 -3.4536926e-05 -4.216789e-05 0.0018158286
0.0090256 -4.5463683e-05 -2.0302892e-05 -0.05600038 -0.08167963 -3.6401623e-05 0.0087735 -0.0015571913
0.008954985 0.027403533 -1.9817115e-05 0.06239449 -0.014767741 -4.5474655e-05 -4.059594e-05 -4.15277e-05
-0.11304779 -5.165865e-05 0.015755845 0.017899295 0.054703295 -3.0834977e-05 0.0076041925 -1.7220967e-05
00000000: d6d9 d63c d81f 1bb7 0c4d 3bb8 c87a 693b
00000010: 4b71 20bd fb77 1cb8 f9f9 53b8 1fe6 fdb7
00000020: be8f c6bd b37d fdbb 6f3a 43b8 9f45 26b8
00000030: 6b6c f4b7 1074 6a3d fbda 1a3d a242 f33b
00000040: fd75 0b3c 4917 353c a8ea 8cbd e6c6 93b7
00000050: 44a8 cebc 3203 a7bd bc41 133d 52fc c2b9
00000060: 1a5a 073c e108 f5b7 2836 943c 8f5f 04b8
00000070: 8a47 8ebb ff69 4c3c e5ce e1b7 811b af3b
00000080: df72 0ebe c57f 19b8 c736 8bbd 103f f939
00000090: 24e5 a3b7 1e23 85b7 1dd3 ca3b 5b4a 97bd
000000a0: a50d db3b 74a9 81bb 3afc d437 f37f 63bb
000000b0: b6a8 f13b b1ab a7b7 fce8 1db8 380c fabc
000000c0: 0879 66bb 988c 81b7 de5b de38 f747 a23b
000000d0: d8ab 223a 6c24 52b8 5a99 7d3b e096 ca3c
000000e0: 6afa 0f3d 4cb4 d738 d7a7 b2ba 4ccc 6e39
000000f0: 9b28 d2ba 702c 6c3c adb8 933c cee3 003d
00000100: f87e c8bd f684 493d e73b 40ba d581 a2bd
00000110: 3d5c a0bc 00aa 48b8 2634 59bc 80a2 3bb8
00000120: 960f 2c3d 9e9c dcb7 9b70 d1bc 008a 8d3b
00000130: bbc6 c7bd af79 0ab8 276f 34b8 f597 b13b
00000140: dffe 26bd 825a 3dbb cf1b 04b8 db5a a2bd
00000150: 72bb a2bd 154c 5d3d 7e56 45bc 0100 8ab6
00000160: a4df 10b8 20b8 1bbd 7d58 65bb 441d 52b8
00000170: 5329 34b8 c913 a1b7 56a8 cabb 3280 a3bd
00000180: 6edb 81b8 79d0 ad3c cb35 9abc dde6 58bb
00000190: d1d0 88bb bedb 10b8 6ddd 30b8 1901 ee3a
000001a0: 1ce0 133c 42b0 3eb8 2150 aab7 a860 65bd
000001b0: a647 a7bd f2ad 18b8 babe 0f3c ab1a ccba
000001c0: eeb7 123c 607d e03c ee3c a6b7 5d91 7f3d
000001d0: 65f4 71bc 0abc 3eb8 8f45 2ab8 072e 2eb8
000001e0: 9a85 e7bd 0eac 58b8 6712 813c 8ba1 923c
000001f0: 9010 603d ce54 01b8 972c f93b bf75 90b7

fc3_lin.weight f4 [64, 128]
0.025394756 -1.039127e-05 -1.5251811e-05 0.052957293 -0.0021646598 -8.492434e-06 -3.7619593e-05 4.16498e-05
-0.028578484 0.037061557 -2.350638e-05 -2.586435e-07 1.1243658e-05 0.054611314 0.03589207 0.040483475
0.022106228 0.051299177 -0.017668456 1.0521383e-05 -0.026112122 -0.025982067 0.042615127 -0.000569606
0.043794554 2.7827387e-05 0.021831783 3.3902343e-05 0.03451309 -0.020548668 -1.4976494e-07 -0.001199981
-0.007993367 1.7278095e-05 -0.03302403 0.01945427 -9.487597e-06 -4.296883e-05 0.047198158 0.0044532763
0.02950929 -0.004936635 -4.5409382e-05 0.019673886 0.06282825 3.4477267e-05 5.27537e-05 -0.005513706
0.047592495 -4.4753528e-05 3.4130844e-05 0.013747192 0.040959843 -4.9427526e-05 0.018510796 0.019912893
0.07957969 -0.00021225204 0.0339762 0.00030263403 0.047024075 -0.029132335 -0.039163318 0.030883096
-0.0077903303 0.01293383 0.029417465 -0.012220422 0.033921767 -6.697401e-06 -0.0072105234 -3.9067214e-05
0.019956542 1.7133338e-05 0.040500563 -0.004644627 -0.040986612 2.073945e-05 -4.1536023e-05 0.024875773
-0.013969305 0.021487955 -4.934435e-06 -0.04457452 -0.010487006 0.031547613 -0.0435976 -5.086895e-05
5.1756426e-05 -0.024203433 0.009350203 -3.2710416e-06 1.9183974e-05 2.7037438e-05 0.017916229 -0.0033808844
2.950537e-05 0.009265543 -0.03613034 0.031616714 0.03815425 4.7100282e-05 -2.9114684e-05 -0.019920915
0.018235777 -4.6291325e-06 4.4914654e-05 -0.03447297 -0.022434257 1.29931095e-05 0.05210496 0.038183324
0.0255356 0.04284816 4.9954673e-05 0.044101674 0.04800587 -2.8861878e-05 3.2165285e-06 -3.1235773e-05
-0.003963519 -9.3273775e-06 -0.003761126 0.05048911 0.026418675 3.9591323e-05 0.036525574 -3.3677716e-05
-0.0072902124 -2.712997e-06 1.6547577e-06 -8.321547e-05 0.1148967 -4.8043647e-05 -2.3846418e-05 4.9275135e-05
0.05904671 0.0069838874 -2.3919054e-05 1.8860143e-05 3.7448695e-05 0.00031878173 -0.007587765 -0.009427969
-0.0054124105 -0.0019938739 0.032848407 2.1063495e-05 0.018061664 0.05774586 -0.010894694 0.0041799126
-0.0099769 4.6424288e-05 -0.02125706 -3.1048858e-05 -0.0056386925 0.013897213 -1.6806513e-05 0.0032085667
0.060353626 1.750962e-05 0.02769798 -0.008780385 2.1552194e-05 -1.6466825e-05 -0.01088112 0.07085264
-0.0135055585 0.015959317 4.2310054e-05 -0.0061248513 -0.0036139947 -2.943103e-05 4.0526727e-05 0.039881535
-0.011533159 -4.5829966e-05 -1.6538464e-05 -0.009170776 -0.01638615 -3.8818318e-05 -0.0030806556 -0.0072877845
-0.013970991 0.00023362783 -0.007529542 -0.00043213787 0.004274489 0.027623236 0.01326298 -0.011106099
0.078630485 -0.0077328314 -0.0067313327 0.025902802 -0.00934573 1.2800917e-06 0.009125942 -4.4833496e-06
-0.023343422 -4.0551997e-05 -0.012201081 0.004040934 0.04521343 -3.745801e-05 4.8365753e-05 -0.009470614
0.03227567 -0.0062411726 6.099725e-06 0.021303812 0.05252404 0.0047199307 -0.0025065714 3.1055806e-06
1.6802347e-05 0.05342043 -0.006956877 -1.2725733e-05 3.9190734e-05 -1.3921247e-05 -0.009319225 0.030647945
-4.0819654e-05 -0.004264048 0.041453224 -0.0043934076 -0.009584473 -2.7115557e-05 2.2977509e-05 0.017413871
-0.0056685186 4.066677e-05 8.612533e-06 0.100927144 0.03249089 6.3163448e-06 -0.009969112 -0.010600411
-0.00668034 -0.012023389 -3.4802197e-06 -0.024590114 -0.0035619005 -2.918468e-05 -4.6696554e-05 -4.6495337e-05
0.01940285 4.1810395e-05 0.021344362 -0.010529149 -0.012479817 3.0366686e-05 -0.007838777 4.4040775e-05
00000000: aa08 d03c 2a56 2eb7 08e2 7fb7 bfe9 583d
00000010: f7dc 0dbb ba7a 0eb7 bbc9 1db8 22b1 2e38
00000020: 6d1d eabc dccd 173d 912f c5b7 b1db 8ab4
00000030: 25a3 3c37 1db0 5f3d 9003 133d 00d2 253d
00000040: 1f18 b53c 161f 523d 70bd 90bc ff84 3037
00000050: 17e9 d5bc 58d8 d4bc 338d 2e3d 9d51 15ba
00000060: eb61 333d dc6e e937 91d8 b23c 5d32 0e38
00000070: 995d 0d3d ae55 a8bc 13cf 20b4 ae48 9dba
00000080: 9cf6 02bc 6df0 9037 3544 07bd 905e 9f3c
00000090: eb2c 1fb7 6e39 34b8 db52 413d caec 913b
000000a0: 77bd f13c 7fc3 a1bb f475 3eb8 212b a13c
000000b0: 19ac 803d af9b 1038 db43 5d38 51ac b4bb
000000c0: 59f0 423d bcb5 3bb8 b727 0f38 e73b 613c
000000d0: 82c5 273d 6750 4fb8 f4a3 973c 5d20 a33c
000000e0: adfa a23d f98f 5eb9 a12a 0b3d daaa 9e39
000000f0: 519c 403d efa6 eebc b769 20bd 8cfe fc3c
00000100: 0746 ffbb 6ae8 533c e5fc f03c 2a38 48bc
00000110: 8df1 0a3d 3dba e0b6 4146 ecbb 1adc 23b8
00000120: e77b a33c 90b9 8f37 ebe3 253d f531 98bb
00000130: 94e1 27bd a1f9 ad37 f736 2eb8 47c8 cb3c
00000140: 83df 64bc 8207 b03c 7992 a5b6 c693 36bd
00000150: b1d1 2bbc 1238 013d 6693 32bd 1f5c 55b8
00000160: 0a15 5938 4746 c6bc 9831 193c 1184 5bb6
00000170: 45ed a037 75ce e237 0ec5 923c d491 5dbb
00000180: 4d82 f737 81ce 173c 68fd 13bd 8780 013d
00000190: a147 1c3d 8b8d 4538 4f3b f4b7 3031 a3bc
000001a0: 3263 953c f253 9bb6 be62 3c38 8733 0dbd
000001b0: 0cc8 b7bc fbfc 5937 036c 553d 1e66 1c3d
000001c0: 0930 d13c 8d81 2f3d 6c86 5138 f5a3 343d
000001d0: cea1 443d 691c f2b7 8adb 5736 2803 03b8
000001e0: 68e0 81bb c87c 1cb7 397d 76bb abcd 4e3d
000001f0: fa6b d83c dc0e 2638 d79b 153d 2c41 0db8
00000200: bce2 eebb ef10 36b6 0b19 de35 f783 aeb8
00000210: f64e eb3d 7982 49b8 cb09 c8b7 c6ac 4e38
00000220: f7da 713d 18d9 e43b c7a5 c8b7 d935 9e37
00000230: 3b12 1d38 2922 a739 c9a2 f8bb c577 1abc
00000240: 975a b1bb a7ab 02bb 0d8c 063d 83b1 b037
00000250: 0ef6 933c ec86 6c3d a97f 32bc a6f7 883b
00000260: 2776 23bc b3b7 4238 4923 aebc 753a 02b8
00000270: c8c4 b8bb 23b1 633c b6fb 8cb7 d146 523b
00000280: 5d35 773d 9fe1 9237 e0e6 e23c 9bdb 0fbc
00000290: fcca b437 3d22 8ab7 ba46 32bc 301b 913d
000002a0: 6b46 5dbc 1dbd 823c 1376 3138 fab2 c8bb
000002b0: c5d8 6cbb a8e2 f6b7 3efb 2938 d25a 233d
000002c0: 93f5 3cbc 8d39 40b8 15bc 8ab7 0641 16bc
000002d0: 3f3c 86bc dad0 22b8 d3e4 49bb 5ece eebb
000002e0: 95e6 64bc fef9 7439 60ba f6bb 9090 e2b9
000002f0: 0311 8c3b 204a e23c f84c 593c 5bf6 35bc
00000300: 0509 a13d b163 fdbb 8392 dcbb 1d32 d43c
00000310: d51e 19bc 9ecf ab35 fa84 153c ae6f 96b6
00000320: b43a bfbc 6016 2ab8 0be7 47bc d069 843b
00000330: b831 393d 3b1c 1db8 55dc 4a38 a22a 1bbc
00000340: 7e33 043d c082 ccbb 3dac cc36 5585 ae3c
00000350: 7323 573d a6a9 9a3b 4a45 24bb 7869 5036
00000360: c4f2 8c37 61cf 5a3d 84f6 e3bb 9b80 55b7
00000370: bb60 2438 4d8f 69b7 aaaf 18bc 6611 fb3c
00000380: c535 2bb8 6db9 8bbb dbca 293d 93f6 8fbb
00000390: 3208 1dbc 3776 e3b7 d3bf c037 89a7 8e3c
000003a0: fbbe b9bb 9d91 2a38 8c7e 1037 e4b2 ce3d
000003b0: 2b15 053d fdf0 d336 7d55 23bc 59ad 2dbc
000003c0: c1e6 dabb c0fd 44bc b88d 69b6 3571 c9bc
000003d0: c66e 69bb a0d1 f4b7 0bdc 43b8 fd03 43b8
000003e0: baf2 9e3c 925d 2f38 5fda ae3c 7482 2cbc
000003f0: 2578 4cbc f6bb fe37 376e 00bc 6cb8 3838

fc3_lin.bias f4 [64]
0.06514892 -0.016425684 0.0010133171 0.06473828 -0.058757767 -0.0032647012 0.018099727 0.1253546
0.10783521 0.09444809 -0.028452365 0.10810986 -0.062816165 -5.1175175e-05 0.08004721 0.08730253
0.019275645 -0.07074736 0.06374975 0.021741902 -0.06650673 0.0543826 -0.00011981017 0.049618002
0.014363633 0.05770755 0.060096215 0.092424996 -0.07780751 -5.9133155e-05 0.10453272 0.13116339
0.035400797 0.070789285 0.022516789 0.04369372 0.03919336 0.0014802705 0.08135093 0.09043822
0.0013043768 -0.019962702 -0.0007730517 0.0014427662 0.069867186 0.0003483303 -0.029122911 0.044234205
0.0046443823 0.07690867 0.11972379 -0.067415155 0.08274337 1.6834789e-05 -0.003472999 -0.043847207
-0.06966829 0.007254383 0.038327638 0.008005789 -0.01784503 0.06290732 -0.062534116 0.04895352
00000000: cc6c 853d 288f 86bc 48d1 843a 8195 843d
00000010: fcab 70bd 99f4 55bb e145 943c f55c 003e
00000020: b5d8 dc3d 006e c13d ef14 e9bc b468 dd3d
00000030: c3a5 80bd eda4 56b8 cbef a33d abcb b23d
00000040: f5e7 9d3c fee3 90bd 3b8f 823d 131c b23c
00000050: ae34 88bd 4ac0 5e3d 9842 fbb8 3f3c 4b3d
00000060: 7155 6b3c c05e 6c3d 7327 763d 5149 bd3d
00000070: 8b59 9fbd be05 78b8 4015 d63d b24f 063e
00000080: 6d00 113d f9f9 903d 2175 b83c 30f8 323d
00000090: 3789 203d a305 c23a 519b a63d ac37 b93d
000000a0: 9ff7 aa3a d288 a3bc 9fa6 4aba 331b bd3a
000000b0: 8716 8f3d 1aa0 b639 2c93 eebc ed2e 353d
000000c0: e72f 983b 4b82 9d3d bf31 f53d f510 8abd
000000d0: 5b75 a93d 6f38 8d37 419b 63bb 2199 33bd
000000e0: 40ae 8ebd 2db6 ed3b 71fd 1c3d b62a 033c
000000f0: be2f 92bc 8ed5 803d e311 80bd 7c83 483d

fc4.weight f4 [2, 64]
0.16907357 -0.13591516 0.0013339778 0.16857833 -0.05859986 -0.17840232 0.16821727 0.111142
0.15324889 0.15596205 -0.107117504 0.16552866 -0.18943283 -2.2043445e-05 0.15113346 0.12512368
-0.08785536 -0.088499345 0.15457864 -0.16321716 -0.18094423 0.12517548 6.277477e-06 0.14497362
0.100816905 0.13124964 0.09278393 0.14184879 -0.12775607 4.9415543e-05 0.15274183 0.15834555
-0.13444942 0.14418684 0.092755266 0.15174535 0.17706963 0.08428393 0.1399091 0.110551976
0.122198924 -0.13328865 0.1307678 -0.00662862 0.13340233 -0.00095619494 -0.056545008 0.1389849
0.16880697 0.12617019 0.105240904 -0.09296336 0.12673083 6.69621e-05 0.08054909 -0.14503586
-0.16747747 -0.11241103 0.13476032 0.07869362 -0.14962697 0.16482794 -0.1270541 0.13273747
-0.16904871 0.13587072 -0.0012507706 -0.16856673 0.058549743 0.17828418 -0.16815995 -0.11110515
-0.1532796 -0.1559176 0.10711559 -0.1655378 0.18942577 -8.458185e-06 -0.15114403 -0.12506698
0.08777892 0.0885227 -0.15457796 0.16311058 0.18092094 -0.12522376 -5.2623986e-05 -0.144911
-0.10072621 -0.13129604 -0.09278205 -0.14192751 0.127712 -1.6478518e-05 -0.15276822 -0.15834953
0.13441713 -0.14424807 -0.09276393 -0.15181227 -0.17712766 -0.084320255 -0.13991842 -0.11055403
-0.12206194 0.13329333 -0.1306989 0.0066520176 -0.13341604 0.00094599917 0.05659564 -0.13893718
-0.16886902 -0.1262325 -0.10514088 0.09301922 -0.12665895 -0.0001234026 -0.08050734 0.14505643
0.1675075 0.11242541 -0.1346548 -0.0787779 0.14972177 -0.16469492 0.12700431 -0.13270967
00000000: 9f21 2d3e 582d 0bbe ded8 ae3a cc9f 2c3e
00000010: 6806 70bd 19af 36be 2641 2c3e 6b9e e33d
00000020: 47ed 1c3e 84b4 1f3e 6c60 dbbd 5880 293e
00000030: aefa 41be f0e9 b8b7 bbc2 1a3e 6c20 003e
00000040: 83ed b3bd 253f b5bd dd49 1e3e 6622 27be
00000050: 7249 39be 002e 003e 1ea3 d236 f773 143e
00000060: 1879 ce3d 4e66 063e 8005 be3d cf40 113e
00000070: 7dd2 02be 8943 4f38 5b68 1c3e 5625 223e
00000080: 1cad 09be b7a5 133e 79f6 bd3d 2263 1b3e
00000090: be51 353e 0e9d ac3d 5544 0f3e 1369 e23d
000000a0: 6e43 fa3d d27c 08be ffe7 053e e534 d9bb
000000b0: 9f9a 083e 28a9 7aba bd9b 67bd 0f52 0e3e
000000c0: bcdb 2c3e c232 013e 8b88 d73d 9363 bebd
000000d0: bac5 013e 016e 8c38 ecf6 a43d 4884 14be
000000e0: 377f 2bbe c137 e6bd 9cfe 093e 1f2a a13d
000000f0: d037 19be a8c8 283e 781a 02be 55ec 073e
00000100: 1b1b 2dbe b221 0b3e e6f0 a3ba c29c 2cbe
00000110: dbd1 6f3d 2190 363e 1f32 2cbe 198b e3bd
00000120: 54f5 1cbe dda8 1fbe 6b5f db3d be82 29be
00000130: d4f8 413e a1e7 0db7 80c5 1abe 8f11 00be
00000140: 6fc5 b33d 644b b53d af49 1ebe 7606 273e
00000150: 5743 393e a83a 00be 93b8 5cb8 8d63 14be
00000160: 8b49 cebd 7872 06be 8404 bebd 7255 11be
00000170: efc6 023e 593b 8ab7 466f 1cbe 6126 22be
00000180: a5a4 093e c4b5 13be 04fb bdbd ad74 1bbe
00000190: f460 35be 19b0 acbd c646 0fbe 276a e2bd
000001a0: 9cfb f9bd 0c7e 083e efd5 05be 2bf9 d93b
000001b0: 379e 08be eefc 773a d4d0 673d 8c45 0ebe
000001c0: 00ec 2cbe 1843 01be 1a54 d7bd dc80 be3d
000001d0: e2b2 01be a265 01b9 08e1 a4bd ac89 143e
000001e0: 1687 2b3e 4b3f e63d f3e2 09be 4f56 a1bd
000001f0: aa50 193e c9a5 28be 6b0d 023e 0be5 07be

fc4.bias f4 [2]
1.1004978 -1.100447
00000000: 1ddd 8c3f 73db 8cbf
