CE_naive/checkpoints/CE_NAIVE_BIG_DATA/model_epoch_60.pt (torch, 234127 bytes, 8 tensors)

fc1_lin.weight f4 [256, 64]
00000000: 0467 1339 fe65 8638 98f7 7838 16f4 5ab9
00000010: 7427 e6b9 52aa 07b8 da2e 8e39 1f3b c139
00000020: 281f 8d37 e3c7 92b9 d7ce 9f37 e0c6 c838
00000030: 38be 4e39 f3ba dd39 d08b 48b9 488b b9b9
00000040: e96e 0339 f96c aeb9 e816 c939 5742 3f39
00000050: 8973 ee37 332f 02b9 f25d 76b9 3041 4b39
00000060: 5a36 03b9 46d3 71b9 6bbe dfb8 a75e 98b9
00000070: 521e b6b9 7966 bf39 ee14 95b9 e7ae 1039
00000080: a872 8839 8e4b 18b9 2d0d a0b9 75cf a4b9
00000090: 7479 6039 b174 3fb9 29d1 93b9 969c a1b9
000000a0: bb4c 2d39 bd95 e2b9 24a3 fc36 2b51 bb38
000000b0: d319 6738 fbd7 50b8 d1a1 f6b8 bab2 1539
000000c0: f387 2539 aab1 5739 6dc2 3239 b004 c7b9
000000d0: 2432 a2b9 36ca 0538 b1af 95b9 64ab 1d38
000000e0: 9775 5338 9562 4939 b782 d6b9 2f55 7c39
000000f0: 73fb 6f39 736e 24b9 5461 a138 e58c 67b8
00000100: c8e0 8b39 fa3a 1a3a e7fc b9ba ef03 cc3a
00000110: 0e5b ebb8 ac68 a0bb 2a4b b4ba 6112 bcbc
00000120: f554 88b9 f474 59bb ec08 21bd 42b8 943c
00000130: cd4f 0e3c dc77 a33a d975 d339 57bb 49b6
00000140: 92f1 083c 34c9 3139 505b 8e37 7097 293d
00000150: f6ce 55b9 eceb d73a f373 743b 1e7a d139
00000160: 7089 0435 7d9f b4b8 6218 503a f097 a53c
00000170: a58e a6b9 e4c9 a739 0c36 95b9 1ffa 1dba
00000180: 23aa 023b 007a 353c 0001 9bb8 b994 82bc
00000190: a812 d139 bb92 aaba 1ab5 52b8 dc10 0abc
000001a0: 1a88 83ba 2f0a 983c a676 8439 ca36 e739
000001b0: 64ee 9839 7db2 c8bc 0970 8739 68e3 04bc
000001c0: ec9a 233d e31c 4e3c d1e3 eeb9 081a 0ebd
000001d0: 8219 e43c 7523 be39 1dfc 1fba b6ff 85b7
000001e0: 9f98 e1b9 ae85 e6bb e3b8 b939 7967 a7bb
000001f0: 8d61 843d 5510 1d3a 6b0b ca3a c8f9 ff35
00000200: fb33 e138 33eb 03ba 1730 393b 6e1c 69bc
00000210: b8a8 bcb8 bc38 d8bd 904f 923c 1879 2c3e
00000220: fe52 4939 c1b8 143c 0308 923d a53a 69bc
00000230: 8f2e a3bc 2c1e e8b9 d26a 1d39 e489 8239
00000240: 1289 21bc f323 8f38 caa0 9539 15a9 81bd
00000250: 4e60 b1b9 a1e9 65b8 dde3 b73a b607 e1ba
00000260: f9cc 3639 f1d4 5a39 bdfa 62bb 58f5 40bd
00000270: 99c1 9438 1e7f 0cba 3aeb bb38 ee9a a53a
00000280: f9d8 953b ef76 a0bc 2d79 9539 6251 683d
00000290: f21d e6b8 c316 27bb 1117 0ab9 8808 a13c
000002a0: 8ae4 713c 4dac 27bc c087 193a 7cbc ea39
000002b0: 141b 01b9 a332 873c 065a f937 a409 533c
000002c0: cb94 31be c2a4 58bd f09f ff35 eac4 9a3d
000002d0: c4a1 08be 70b2 90b9 fb91 8639 5372 6b37
000002e0: e2eb 31b9 2bb2 793d 6e65 c839 11d2 af3b
000002f0: fc9e c3bd 780a 2dba 2c68 62bc 8755 cdb9
00000300: 97f2 b538 604a b6b9 1554 783a 0596 ccbb
00000310: b540 02ba 7cc7 41bd 81b4 053c ce0a 8f3d
00000320: e129 bdb9 ec41 753b c345 e73c 4565 c0bb
00000330: b43b 0bbc d87f b4b9 f061 1b38 458f e437
00000340: e3d8 51bb 9f5e 1bb7 fc02 8bb8 b7c5 c1bc
00000350: 0854 f438 c997 d6b9 6c64 f73a 3130 d2b9
00000360: e992 2e36 9a83 6539 1e76 7dba 81f1 22bd
00000370: f0a9 a139 e70b b337 4c7b 3b39 7991 7839
00000380: 44cd 3e3b 02e0 f0bb c0d2 43b8 ff64 ac3c
00000390: 9dfc be38 9d3b e8ba 2990 d039 c88b 0a3c
000003a0: 13e9 e23b 7abd 80bb 44ec aab8 959f 6db9
000003b0: d6d4 1738 5d08 953b 6045 b5b7 4d8d b63b
000003c0: 519d 87bd 28e4 b8bc d535 2ab9 ec1b 033d
000003d0: b0aa 79bd 0004 a8b9 2501 bd39 cbf6 ec38
000003e0: fcb1 2d39 eab8 d33c 4f61 9a39 cd16 013b
000003f0: 7edb 0bbd 5e1b b3b9 940a b9bb 76ab 27b9
0.00014057389 6.4086154e-05 5.9358397e-05 -0.00020881029 -0.00043898413 -3.234513e-05 0.00027119258 0.00036855877
1.6823018e-05 -0.00027996217 1.9050594e-05 9.5737865e-05 0.00019716553 0.00042291693 -0.0001912557 -0.00035389722
0.00012534451 -0.00033269057 0.00038354774 0.00018239893 2.8425611e-05 -0.00012415349 -0.00023495386 0.00019383873
-0.00012513381 -0.00023062257 -0.00010668937 -0.0002906222 -0.00034736336 0.00036506707 -0.00028435088 0.00013798066
0.00026025367 -0.00014523996 -0.00030527395 -0.00031435085 0.0002140755 -0.0001825865 -0.0002819386 -0.0003082498
0.0001652715 -0.00043217643 7.5291773e-06 8.9319736e-05 5.5098742e-05 -4.9792212e-05 -0.00011760335 0.00014276328
0.00015786271 0.00020570183 0.00017047832 -0.0003795973 -0.00030936406 3.1897995e-05 -0.00028550395 3.7591337e-05
5.0415834e-05 0.00019205578 -0.0004091465 0.00024064326 0.00022886488 -0.00015681404 7.695207e-05 -5.520591e-05
0.0002667962 0.0005883422 -0.0014189751 0.0015565137 -0.000112226335 -0.0048952904 -0.0013755311 -0.022957982
-0.0002600324 -0.0033181282 -0.03931515 0.018154267 0.008686018 0.0012471634 0.0004033286 -3.006038e-06
0.008358376 0.0001695499 1.697024e-05 0.041404188 -0.00020390362 0.0016473508 0.0037300556 0.0003995457
4.937383e-07 -8.612776e-05 0.00079382036 0.020214051 -0.00031768266 0.00032003142 -0.00028459763 -0.00060263457
0.0019937835 0.01107645 -7.391162e-05 -0.015940057 0.00039877486 -0.00130137 -5.0236566e-05 -0.008426871
-0.0010035068 0.018559543 0.00025265402 0.00044100574 0.00029169314 -0.024499172 0.0002583268 -0.0081108585
0.039942667 0.012580129 -0.00045564634 -0.034692794 0.027844194 0.00036266042 -0.00061029365 -1.597391e-05
-0.00043029056 -0.007034979 0.000354237 -0.0051087704 0.06463919 0.00059915084 0.001541478 1.9071676e-06
0.00010738518 -0.0005032301 0.0028257424 -0.01422797 -8.995965e-05 -0.10557696 0.017860204 0.16843069
0.00019199771 0.009077252 0.07130434 -0.014235173 -0.019919662 -0.00044272968 0.0001501248 0.0002489827
-0.00985934 6.8254674e-05 0.00028539292 -0.06331078 -0.00033831823 -5.481544e-05 0.00140297 -0.0017168436
0.00017433231 0.00020869427 -0.0034634315 -0.047108978 7.09325e-05 -0.0005359518 8.960669e-05 0.0012634674
0.0045729843 -0.019587962 0.00028509778 0.056718238 -0.000109728324 -0.0025495745 -0.00013169298 0.019657388
0.014763961 -0.010233951 0.0005856715 0.0004477239 -0.00012312486 0.016503638 2.9725034e-05 0.0128807165
-0.17341916 -0.0528915 1.9045528e-06 0.075570896 -0.13342959 -0.00027598767 0.00025667236 1.403371e-05
-0.00016967909 0.06096093 0.00038222544 0.005365618 -0.09551808 -0.0006600986 -0.013818782 -0.0003916437
8.6759384e-05 -0.0003476916 0.00094729784 -0.0062434697 -0.00049687485 -0.047309384 0.008160711 0.06984483
-0.0003608009 0.0037423326 0.028231507 -0.0058714473 -0.008498121 -0.00034427526 3.704609e-05 2.7246433e-05
-0.0032020144 -9.260751e-06 -6.6285924e-05 -0.023653848 0.00011650479 -0.0004093035 0.0018874533 -0.00040090227
2.6013533e-06 0.00021888167 -0.0009668785 -0.039781097 0.00030834926 2.1344005e-05 0.00017879641 0.00023705316
0.0029114047 -0.0073509226 -4.66879e-05 0.021044252 9.106959e-05 -0.0017717961 0.0003978026 0.008456178
0.0069247573 -0.0039288374 -8.1502396e-05 -0.0002266153 3.6199424e-05 0.004548116 -2.1609187e-05 0.0055710436
-0.066218026 -0.02256973 -0.00016232517 0.03200905 -0.060953796 -0.00032046437 0.00036049742 0.00011299326
0.0001656487 0.02584501 0.0002944567 0.0019697428 -0.03414487 -0.0003416193 -0.005647013 -0.00015990235

fc1_lin.bias f4 [256]
00000000: efb6 b7b9 430f 31bb d4f2 c83d d916 123d
00000010: 2584 513c d9c9 3139 4b0c f638 b884 e539
00000020: 1362 c6bc 000b a8b9 bdae 763b 05a0 7a3c
00000030: 1521 4ebd 9201 9c39 0014 da38 1b9a d8b9
00000040: 2d92 2bbc 14dd be3d bf30 89b9 5452 3db9
00000050: ba17 d4ba 2155 603d 44dc c33d 929d 83b9
00000060: 5e0d d43c c0f1 cf3d 099c 53b9 3866 6ab9
00000070: 7864 933d 8c7e c1bc 92b9 163c f077 763d
00000080: 6f75 a83c 3480 563a 9185 183c 6df5 ceb9
00000090: b3a5 723c d32e 213a 8c24 943d aeeb 223d
000000a0: 3a2d d739 bd18 b5b9 1c18 833a 95a5 67b8
000000b0: dad8 b53c 8381 2cb8 bef1 113d 6203 9ab9
000000c0: e6b0 c1bc 9a05 1bbc e8df 5e39 c545 513b
000000d0: a39e 963d 3bd0 5aba 1c22 623a 8673 e43c
000000e0: 22d0 80b9 0022 95bc b818 af3d d41c 213d
000000f0: e583 0cbd 9e6d 87b9 be6d 77b9 46d8 a53d
00000100: b815 a6b9 6bd8 19b9 ab65 c9b9 e573 29bc
00000110: 4aa9 af3c 8baf ae3b e13b cc3c d6c7 a0b9
00000120: 0267 253c 2636 a9b9 9e67 5dbd 867a 443d
00000130: 9fc8 0f3d a4b8 aa3b ff7a b73d 17e2 73b9
00000140: 14c5 beb9 502b 103d ba7d df3c 7814 1bb9
00000150: 49d8 c5b8 1c3f d83d ab8b 2bb9 11b8 ffbc
00000160: dd97 9fb9 64ff aab9 cd4d 60bd 9d72 92b9
00000170: fc47 cc3d ecba ccb9 5b65 a4b8 1269 64bd
00000180: 9af5 1d3d bb72 1e3d 9449 d6b9 dc2f a5b9
00000190: eee0 c5bc 2260 043d 5733 51b9 fe69 483d
000001a0: ca91 683c e25f cab9 34fc 31b9 6d4b cc39
000001b0: 00d3 0b3d 434f 69bb e0b9 dcb9 c687 db3a
000001c0: 749e 6bbd 6161 8ab9 8f70 8cbb 3b8f bcb9
000001d0: cc3d 2fbc 7135 453c 63c8 033d 22ca 9bb9
000001e0: 8372 d9b9 f998 813d 259a 293d 326f d2b9
000001f0: 5f48 b6bb 3bf4 5ebd 9fc5 b7b9 7ea6 03bb
00000200: 660f 453b a1ae 84bc 2a54 b1ba 8aac 76bc
00000210: d1aa 1c3c 646b c938 a323 0b3d 9875 8cbb
00000220: f203 00b9 afa5 8cbc d400 883b 10ab de3a
00000230: a40b 9eb9 620c a8bd c42a ceb9 5b8c eebc
00000240: 8980 593b 7528 16bd ddc2 de3c 909c 3f3d
00000250: 0a24 f1b9 c43c 41bd 41ea 9b3d d517 3fba
00000260: 99d5 8c3d 4eaa a03b f192 913a 6d5a d0b9
00000270: 82df e4b9 abd5 443d 2a87 e4b8 ad26 573b
00000280: b1dc 28b7 5d00 e13b 1f61 0c39 27c7 bbbc
00000290: f635 b1b9 4b6b a4bc c6b4 aa3d f11b feb8
000002a0: 3bd9 1f3d f1bf 73bc f5c4 193b b4fb 55bc
000002b0: e077 85b9 855e 4739 f124 9f3b 4158 563b
000002c0: 84b1 87b9 4162 89bb c4dc 5238 1669 deb9
000002d0: 744c bcb9 f999 0db9 7f79 d0b9 b45e 55bc
000002e0: 74e5 c83d d6b6 f23c 763b 4f3d 8bd8 85b9
000002f0: 305a 983c cfb4 0c38 cbf5 27bd 7660 9d3d
00000300: 4b74 a53d 197b c0bb 9afa 11bc ed2b 67b9
00000310: 3cd9 583d 500c c73c ab49 b83d de94 0eb9
00000320: 14ce ae3d f334 2e3d f51a 0639 a030 aab9
00000330: dd85 5cbc 2f53 b5b9 8a7e 833c 5ef9 52bd
00000340: 1ad7 46b9 2065 053b c332 c53c 6841 9cb8
00000350: e19a 9c3d 9dd5 abb8 7356 2dba 10fc 703d
00000360: 6a41 6db9 8603 f23b bae3 4839 5a97 7d3b
00000370: 7afa 943d 19f1 913c fa1e 79b8 519f ccb9
00000380: d35b b7b9 157f 38b9 b5c7 92bd 8f4d c7bc
00000390: 2096 bcb9 a1ac 6db9 0373 a1bc 14bd f9bc
000003a0: 0424 fbb9 26fd 913d 577a 8a3d a562 363d
000003b0: 3551 6f3c 40fa 03bd ac3d 863b f8a6 65bb
000003c0: 2a0c a036 eb26 81b9 4ec4 0db7 f753 983d
000003d0: 97d7 683b 6934 b23c 0baf 023d 74d3 ef3c
000003e0: ae89 6cbd a161 ebbb 6ecf 96b9 4ac2 08ba
000003f0: ef83 d1b9 a5d3 02bd b936 73bd 522f c4bc
-0.00035040776 -0.0027017153 0.09811941 0.03566632 0.012787853 0.0001695523 0.00011732484 0.00043777167
-0.024216687 -0.00032051653 0.0037640773 0.015296941 -0.05032452 0.0002975581 0.00010398775 -0.00041313548
-0.010471863 0.09319511 -0.00026166995 -0.00018055114 -0.0016181387 0.054768685 0.09563497 -0.00025103666
0.02588528 0.10153532 -0.00020180656 -0.00022354058 0.07196897 -0.023619913 0.009199517 0.060172975
0.02056381 0.0008182556 0.009309188 -0.00039474238 0.014810014 0.000614864 0.07233533 0.039775543
0.00041041692 -0.00034541442 0.0010001692 -5.5228902e-05 0.02219813 -4.1128613e-05 0.035630934 -0.0002937569
-0.023643922 -0.009461785 0.00021254981 0.0031932455 0.07354476 -0.0008347069 0.00086262985 0.027887117
-0.00024569134 -0.018204689 0.085496366 0.039334133 -0.034305472 -0.00025830878 -0.00023596638 0.080978915
-0.0003167817 -0.00014671839 -0.00038413456 -0.010342573 0.021443028 0.005330985 0.024930896 -0.00030666468
0.01009536 -0.00032274536 -0.054053895 0.04796841 0.035103437 0.005209999 0.089590065 -0.00023258511
-0.0003638646 0.035197556 0.02728163 -0.00014789577 -9.433978e-05 0.10558912 -0.00016359861 -0.0312157
-0.0003043999 -0.00032615208 -0.054761697 -0.00027932684 0.099746674 -0.0003904918 -7.839008e-05 -0.055764265
0.038564302 0.038683634 -0.0004087208 -0.0003150691 -0.024155106 0.032318242 -0.00019950919 0.048929207
0.014194915 -0.0003859988 -0.00016973988 0.0003896611 0.034136772 -0.0035600222 -0.00042100158 0.0016748838
-0.05752416 -0.00026393964 -0.004285879 -0.0003596487 -0.010695886 0.012036667 0.032173526 -0.00029714504
-0.00041474783 0.06328005 0.04140677 -0.00040137168 -0.0055628265 -0.054432135 -0.0003505172 -0.002008825
0.0030068993 -0.01619655 -0.0013529111 -0.015055785 0.00956221 9.60443e-05 0.033969533 -0.004286479
-0.00012208501 -0.017168848 0.0041504893 0.0016988236 -0.0003014478 -0.08205487 -0.00039323245 -0.029119661
0.0033188185 -0.036659677 0.027192527 0.04678017 -0.00045993953 -0.04717709 0.0761304 -0.0007289623
0.06876678 0.0049031144 0.0011106414 -0.00039740224 -0.00043654075 0.048055332 -0.000108970635 0.003282945
-1.0064964e-05 0.0068664984 0.00013387621 -0.022922112 -0.00033800275 -0.020070693 0.08335261 -0.00012116868
0.039025526 -0.014877305 0.0023463343 -0.013060499 -0.0002545705 0.0001901333 0.0048566987 0.0032706412
-0.00025881466 -0.004192621 5.0273506e-05 -0.00042421435 -0.00035915116 -0.00013504167 -0.00039763373 -0.013023067
0.0980939 0.029628199 0.050593816 -0.00025529074 0.018597692 3.3546992e-05 -0.04100589 0.07684414
0.08078822 -0.0058740494 -0.008909846 -0.0002204624 0.052941546 0.024297863 0.08998426 -0.00013597633
0.085354 0.042530965 0.00012789278 -0.00032461155 -0.01345965 -0.00034584987 0.01605155 -0.051507346
-0.00018962883 0.0020354465 0.024072057 -7.4508425e-05 0.07646728 -8.193704e-05 -0.0006612308 0.058834136
-0.0002262645 0.007385674 0.00019158321 0.003869495 0.07274337 0.01781516 -5.9395075e-05 -0.00039028612
-0.00034972894 -0.00017594949 -0.07166997 -0.024328975 -0.00035970006 -0.0002266639 -0.019708162 -0.030485667
-0.00047901284 0.07128362 0.06761616 0.04452767 0.014606764 -0.03222108 0.0040967073 -0.0035042148
4.7697877e-06 -0.00024633794 -8.449961e-06 0.0743789 0.0035528892 0.021753507 0.031905215 0.029275633
-0.05774849 -0.007183269 -0.00028764777 -0.00052169396 -0.00039961885 -0.03194012 -0.05937836 -0.023948345

fc2_lin.weight f4 [128, 256]
00000000: 4d1d de38 bc3c 58bc a1bf 083c 8d64 413c
00000010: fd7a 093b 4952 3c39 b6ba 8f38 f9b8 feb9
00000020: 74f1 50bd 5636 05b8 f2ef 913a 64e7 643c
00000030: 88a5 0dbd bd40 0839 947d 3f39 cac2 1bb9
00000040: f322 f9bc 6b29 e33c 1880 6538 aa67 6a39
00000050: 25dc 64b9 7988 e13c 0d07 023d 6d02 51b6
00000060: 7f80 6f3c 0f36 953c bc24 2839 faf6 70b8
00000070: ffce e13c 0ad4 a0bc f9d1 153b 57d9 aa3c
00000080: 2201 593c 01e5 ae38 5fca 1e3b 1ff8 6539
00000090: 20c4 0dbd ff74 ee39 6473 e83c 01ee 893c
000000a0: 2a81 1a39 e932 0539 bd61 4fbc d833 beb8
000000b0: 59e6 0bbd 73dd 5838 46bf 8f3b 1743 4f39
000000c0: 6b35 a1bb a4c2 38bc be1a 18b8 d812 c13a
000000d0: 6a2d db3c 24a4 a13b 57e9 4638 a83a 523c
000000e0: 2f86 8fb6 c5d5 83bc 38de 523c f8c7 093c
000000f0: 50e1 eebb 0f51 f2b8 fe70 45b9 eda1 423d
00000100: e628 57b4 16b9 0eb9 ba99 bdb7 c285 e2ba
00000110: 0d76 d6bc 1e00 083c 9572 0d3c 5b03 fe38
00000120: 4492 553c 8402 3cb9 0b9f 14bd 8f65 603c
00000130: 2fd2 e73c 74c5 e43a be05 0c3d 256f 1fb9
00000140: 7061 b239 52f6 183c b1be 213c 004e 5db9
00000150: eb22 23b9 0b64 b03c c743 cf37 a5a0 06bc
00000160: 75a5 1038 74b2 45b8 0812 45bd f44a 1039
00000170: 1507 473d 5e00 3eb6 a141 e636 635a bcbc
00000180: 8f4d 133d 88a7 c03c 34c1 3bb9 f8b4 63b8
00000190: 8f57 e0bb 72b2 2c3c 5621 d8b5 e4d0 833c
000001a0: 5c75 903b 8fe6 01b8 244f 8538 c566 033a
000001b0: a55c b93c bb24 36bc ccba 61b8 b949 a93c
000001c0: 7e60 b7bc 463b 73b9 2ebd 1fbb e5a1 0739
000001d0: 1947 c7bc 5116 b23b f898 013c 59e7 38b9
000001e0: 18b7 2839 3b58 a93c 05b2 2e3c 0309 72b7
000001f0: e2df 8cbb 75d5 0dbd 7d88 5b39 af3e 89bc
00000200: 1b7f 463b 330f 50bb ae8a 853b 1c15 d2bb
00000210: 6808 d73a ebf5 8638 893e ad3c 720b faba
00000220: 1a79 23b9 db99 8dbb fd64 27bc 926e ff39
00000230: 924e 8c38 e7d5 d0bb 93a7 c1b8 bb75 e1bb
00000240: b81c a73a c765 69bc cc6c 5e3c 9839 8a3c
00000250: 02d3 6739 0e88 a1bc ccd4 cb3c ca52 f4ba
00000260: 30ed da3c 64ed bf3a b94c 47bb 6657 0139
00000270: e9a9 2ab9 2df6 f33c f966 aeb8 060f 2dbc
00000280: c5e4 8d38 f3ca 723a 237e 2f39 621e 24bd
00000290: 0d57 6f36 69da c33c 0c76 f43c d4e5 b938
000002a0: 6f2d 8a3c 3f5f dcbc c494 deba 92a1 6abb
000002b0: 2e79 09b9 04b0 3fb8 c67b c2bc 1413 f13a
000002c0: 8c85 9c38 4407 d4bc 91ef 41b9 13dc 5f39
000002d0: d38a b9b7 ed12 0939 f1ef afb7 4b59 a0bc
000002e0: 4a53 b33c 9cff 2d3c 6e52 c23c 2592 5c39
000002f0: 64e7 943c bc9e 1a39 ff85 bbbc baee e63c
00000300: df6c 033d 0138 dcbb ea1a 8b3c f000 0db9
00000310: 220d 933c bcdc 7a3c 38a0 243d ad30 4c39
00000320: e6ee d6b8 515f 893c c84e c039 5d23 7b37
00000330: 0acf 90bc 90d5 b4b8 1c7e c63b 05b9 b1bc
00000340: 8fde f3b8 13f7 543a 27a4 303c a5bd a337
00000350: 8d0d f13c ebbc 6eb8 292e 99bc 7f3e 8f3c
00000360: b42e 28b9 35aa 113a b4e5 9e39 fe85 033a
00000370: 7da9 bb3c 0838 613c 4c78 bfb8 23df 33b7
00000380: b495 5eb8 814f 34b8 ead7 71bc 5cdf b6bc
00000390: 881c 67b9 2d93 11b9 54a9 d9bc 5e95 67bc
000003a0: eed2 46b8 3be6 273c cbf4 0c3d 2c56 6a3a
000003b0: 9e6e 833b c76e 53bc b363 db3a 85cf fb3b
000003c0: 9da8 5939 fe95 4339 f7d8 05b9 d3da 053d
000003d0: c50c aaba df20 063b 53ee 06bd b797 0a3c
000003e0: 257e 11bc 97ab 07bb 44f7 2f39 e0ce 9eba
000003f0: 4dea d838 f566 f2bb 2238 b1bc 9659 d3bc
0.000105912426 -0.013198074 0.008346469 0.011803758 0.0020977848 0.00017959731 6.853549e-05 -0.0004858447
-0.051011518 -3.1760275e-05 0.0011134131 0.013971183 -0.03458169 0.00012994088 0.00018261961 -0.00014854516
-0.030412173 0.02772971 5.471715e-05 0.00022354597 -0.00021825785 0.027530896 0.031745005 -3.114484e-06
0.014618038 0.018214254 0.00016035413 -5.7450474e-05 0.027564524 -0.019632358 0.002286075 0.020855589
0.013244899 8.339622e-05 0.002422951 0.00021931574 -0.034610868 0.00045482066 0.028375335 0.016837122
0.00014734702 0.00012702834 -0.01265758 -9.069563e-05 -0.034155224 5.1704654e-05 0.0043868152 0.00019766051
-0.004919698 -0.011276875 -3.626453e-05 0.0014730347 0.026755054 0.004932897 4.7424193e-05 0.012831368
-4.277353e-06 -0.016093144 0.012870364 0.008409493 -0.007290043 -0.000115545576 -0.00018829477 0.047517706
-2.0038314e-07 -0.00013611125 -2.260214e-05 -0.0017282295 -0.026179338 0.008300809 0.0086332755 0.00012112289
0.013035361 -0.00017930014 -0.036284488 0.013696088 0.028298466 0.0017453865 0.034185164 -0.00015204826
0.00034023402 0.009336071 0.0098721245 -0.0002110526 -0.000155579 0.02153208 2.4707884e-05 -0.008217012
3.448637e-05 -4.7134658e-05 -0.0481129 0.00013760832 0.04859074 -2.831242e-06 6.8621744e-06 -0.022992318
0.035962638 0.023517385 -0.00017905683 -5.4289558e-05 -0.0068463753 0.010540592 -1.6102956e-06 0.016090818
0.0044085216 -3.097072e-05 6.356675e-05 0.0005012567 0.022627184 -0.011117156 -5.381815e-05 0.020665037
-0.022384878 -0.00023196367 -0.0024374234 0.00012934914 -0.024325894 0.005434789 0.007910006 -0.00017633791
0.00016089936 0.020671954 0.01066256 -1.4426422e-05 -0.00429915 -0.034627397 0.00020936313 -0.016753523
0.0030288163 -0.003174734 0.00407537 -0.006411208 0.0016405703 6.435424e-05 0.021147983 -0.0019076897
-0.00015590005 -0.0043213195 -0.010216949 0.0004871977 6.690355e-05 -0.0063731554 -9.23417e-05 -0.0068804896
0.0012749648 -0.014245457 0.013575744 0.016873166 0.00022108483 -0.019718196 0.024881743 -0.0018640396
0.026724428 0.0014642891 -0.003041072 0.00012334957 -0.0001627576 0.029780472 -8.316147e-05 -0.010562664
6.7660156e-05 0.0009261809 0.0001673629 -0.040068038 3.5664445e-06 0.023907857 0.029841445 8.864296e-05
0.016867368 -0.026900886 -0.0016981591 -0.003580187 -0.00013110481 -4.5701876e-05 -0.02374066 0.0018392527
7.463535e-05 -0.02588237 -0.0001849516 0.00021348921 -2.2118364e-05 0.00013072389 -2.0973357e-05 -0.019573828
0.021890301 0.010620024 0.023720946 0.00021035278 0.018176742 0.00014745718 -0.022891043 0.028190006
0.03208625 -0.0067205434 0.016980607 -0.00013447157 0.017950598 0.015311416 0.04019186 0.00019473089
-0.000102488135 0.016769083 0.0003667979 1.49689995e-05 -0.017676849 -8.622848e-05 0.006057514 -0.02169467
-0.00011628598 0.0008123975 0.0107813245 1.9519424e-05 0.029425407 -5.6919565e-05 -0.018698769 0.017485855
-0.00016039127 0.0005556674 0.0003030725 0.000501722 0.022907967 0.013746269 -9.129997e-05 -1.07211845e-05
-5.3068346e-05 -4.2989388e-05 -0.014760951 -0.022323303 -0.00022040505 -0.00013883105 -0.02657 -0.014134733
-4.7403322e-05 0.010247762 0.03441314 0.0008939232 0.0040109893 -0.012904829 0.0016738087 0.0076846504
0.00020757546 0.00018652526 -0.00012764694 0.03267939 -0.0012973776 0.002046637 -0.032942127 0.008459023
-0.008880173 -0.002070164 0.00016781414 -0.0012116097 0.000103433245 -0.0073975273 -0.021633212 -0.025799554

fc2_lin.bias f4 [128]
00000000: 7dbf fabc dae3 69b8 470e 6ab9 296c 9bbc
00000010: b6aa a6bd d265 63b9 1152 9fb9 b11b 2cb9
00000020: 09ec 36be d9a8 92bc 45bd 8ab9 002a 71b9
00000030: d8b4 0bb9 6fc1 44bd 5964 113d b953 733d
00000040: f579 78bc 16a2 bf3d 760d eebd 45dc deb8
00000050: e462 d3bd fbe4 87bd 8dc4 58bd 4347 a2ba
00000060: ab93 bdb9 528c 44b9 26b8 0b3d 1c7c 1db9
00000070: ca42 f23d 19e4 05bd 0ca3 28b9 0082 fe3b
00000080: e9fd a1bc fc64 49b9 ec18 85bd e1a1 c23c
00000090: 87d3 f5b8 8cce c4b8 2230 03bc d302 48bd
000000a0: 9401 153d 40d8 0dbc 1949 35b9 bfaf 9a3d
000000b0: 1a46 1dbd de3a f4b8 2dd6 76b9 5275 5cbc
000000c0: aa2c b63d 74e4 a0b8 50a8 bc38 3011 823b
000000d0: d328 963d fcc6 99b9 5069 013e f7a8 c93b
000000e0: 5dbc 5e3d 044b 8cb9 54c7 84bb 97c3 5a39
000000f0: e58e 163c 73c3 373b 182b 93bd 4065 76bd
00000100: 9efe 90bd fcf2 09bd 6253 d43c e628 2abe
00000110: d0c4 403d b0cc 93b9 aaa2 89ba 59fb 8fb9
00000120: 57a8 563d 3d65 23b9 87ab 8a3c 1503 703a
00000130: c1d2 96bd 43a3 59b9 f4ce 87b9 5306 0d3d
00000140: 35e8 cfbc 9c57 4cbd d270 3cb9 126c c0bd
00000150: c351 16be 9537 16bb c5f5 c4bd d0e6 f0b6
00000160: f2be 37b9 5dae a93d f0c4 b13c 9a2f a2b9
00000170: 41b9 87b9 7f6c f0b8 ce3c 00bd 1165 cdbd
00000180: 7e34 c3b9 425b 15bc ce44 aabc 6333 c43c
00000190: e10e 743c e5d5 5cb9 0987 85b9 ad57 4bbd
000001a0: 16ab b03c 0974 51b9 f7c5 f9b8 66db b0bd
000001b0: 02d1 a8bd 728e 70b9 f02f babc 825f 8d3d
000001c0: 820b e7bc 24e7 7abc ebf3 12b9 b51e aabd
000001d0: 11dc c3bb a5ba 9ab9 f470 7ab9 6c04 83b9
000001e0: 8a61 debd c63a a0b9 820c aabc 10c1 343d
000001f0: 280b af3d c769 42b9 8270 bc3c 3c30 13b5
-0.030608887 -5.5763732e-05 -0.00022321298 -0.018972473 -0.08138029 -0.00021686338 -0.00030387987 -0.00016413514
-0.17863478 -0.017902778 -0.00026462428 -0.00022999197 -0.00013323443 -0.048036035 0.03549609 0.059406016
-0.015165796 0.09357087 -0.11623661 -0.00010626813 -0.10321596 -0.066354714 -0.05292182 -0.0012380857
-0.0003615891 -0.0001874429 0.034111165 -0.00015018921 0.11829145 -0.032688234 -0.00016082468 0.007766962
-0.019774394 -0.00019206473 -0.06498894 0.02375883 -0.000117219104 -9.384481e-05 -0.008007081 -0.04883082
0.03637846 -0.008657515 -0.00017288736 0.07553052 -0.038396932 -0.000116457915 -0.00023540175 -0.013455706
0.08895238 -7.671947e-05 8.995889e-05 0.003969334 0.07332005 -0.0002933069 0.1263783 0.0061541754
0.054378856 -0.00026758772 -0.004052082 0.00020862963 0.009189342 0.002804008 -0.07185954 -0.060155153
-0.070798144 -0.033678994 0.025918666 -0.16617164 0.047062695 -0.0002819053 -0.0010500748 -0.00027462354
0.052406635 -0.00015582606 0.016927494 0.00091557327 -0.07364417 -0.00020755552 -0.000259034 0.03442986
-0.02537928 -0.04988824 -0.00017971106 -0.09395613 -0.14679627 -0.0022921313 -0.09617189 -7.1794275e-06
-0.00017523373 0.0828521 0.021700352 -0.00030934514 -0.00025887231 -0.00011464301 -0.031307988 -0.100290425
-0.00037232408 -0.009115996 -0.020784762 0.023950284 0.0148961255 -0.00021060517 -0.00025468346 -0.04964416
0.021565955 -0.0001997502 -0.00011910119 -0.08635597 -0.0824299 -0.00022941249 -0.022727937 0.06902982
-0.02820373 -0.015313897 -0.00014014512 -0.08306638 -0.0059771617 -0.0002951223 -0.00023883936 -0.00024989562
-0.10858448 -0.00030561368 -0.020757917 0.04412943 0.0854705 -0.00018540687 0.023002867 -5.483196e-07

fc3_lin.weight f4 [64, 128]
00000000: cbc9 113d 1015 83b8 f302 c1b8 57ea 153d
00000010: 8834 5abc 343d 59b8 9e2e 6db9 1766 8339
00000020: 70aa 86bc 4808 a13c 2b39 14b9 0ebc d0b5
00000030: 3f29 8a38 3d03 033d 324b c23c 2c5f 053d
00000040: aa67 0f3c 494a e53c e566 b5bb 29ab 8438
00000050: 416a 2abc fc3f e2bb 4871 243d 15e5 9db8
00000060: a702 5d3c 6c40 2f39 3618 be3c 98a1 5539
00000070: 2290 523d 922d 8fbb cc6e 78b5 5d3e 9eba
00000080: 5d96 4ebc f8c6 d838 f4e2 acbc e354 993c
00000090: 798d 72b8 267b 87b9 5b71 ac3c 108d f03a
000000a0: b2c1 6e3c 55ad 4bbb d590 86b9 6eec 6b3d
000000b0: d8b1 b13c e94e 5939 153d a639 1146 e5bb
000000c0: e012 8b3d 4263 8db9 5770 e437 d72d f33c
000000d0: a7f8 bb3c 28d9 9bb9 ead8 743d d634 663d
000000e0: dd94 7a3d 5df5 84b7 3cc5 233d 8f91 0139
000000f0: 33ca d43c c8fb 0ebd 68a4 04bc 1820 143d
00000100: 155a d1bc a997 c53c be3d 2d3d 89f9 93bb
00000110: 7f81 843d 3868 29b8 c00c 99ba e9a3 76b9
00000120: ab97 173d 596d d738 1119 a13c a0c7 40b8
00000130: 3335 bdbc 146f 0339 73f4 82b9 428f 273d
00000140: d4aa 88bc 6e3d 363d 872f f2b7 fe32 8ebc
00000150: b123 febb 07d4 fe3c 6faf 92bc 47a1 a0b9
00000160: 0b0e a339 1943 14bc d514 fa3c f7cd a3b7
00000170: 39df f138 5072 2a39 30e2 663c 2036 94ba
00000180: ca05 3a39 4ab7 813c 0de7 c5bc 288d 8e3c
00000190: b2fe 143d 2e71 9439 5ba8 37b9 17de a5bb
000001a0: 6e40 ab3c 81c6 07b8 7366 8d39 3b88 d8bc
000001b0: 3379 4fbb 14a7 a138 0d72 c23b 47c2 3b3d
000001c0: d574 fcbb df69 0a3d 5f0a 9e39 deb2 c53c
000001d0: 705d 4b3d 4af7 35b9 b0e1 a137 1900 45b9
000001e0: 8b7e e8bc 14d9 6bb8 af91 35bc 182c 003d
000001f0: 9662 d0bb 909c 7939 cc64 863c c5d3 5ab9
00000200: 5459 babc f8d6 88b7 3828 e836 71b2 48bc
00000210: a2a3 123d e072 97b9 4459 16b9 80b6 9b39
00000220: e21e 503d 461f e3bb 6606 17b9 d7dd ec38
00000230: 483e 6c39 0198 0cbc 6aaf 50bb 2664 3fbc
00000240: fc55 86bb 4cf1 25bc 701b b73c f578 0439
00000250: 3dda 7b3d be17 193d 4ff3 a1bb bae8 34b9
00000260: 8730 3bbc 7258 9239 041d ca3b 2c71 44b9
00000270: 6292 4bbc 88cf b03c 4aec d3b8 983b 333b
00000280: 4e8a 873d 732f db38 e740 3a3c 5123 d8bb
00000290: e4cb 0439 0ca4 cfb8 c53c c3bb da3d 3b3d
000002a0: 2d8f d5bc ad27 353c b017 6d39 4da0 9f3a
000002b0: 4b53 c33a 278e 39b9 9d8d 7f39 201f 5b3d
000002c0: a078 e4bb db6a 90b9 c8dc 1ab8 4a14 dabb
000002d0: 74d5 c1bb 622c 75b9 9e34 20bc e8d9 0cba
000002e0: e21e 55bc a658 b6b7 e3ed 37bc 0ede 73b9
000002f0: b927 92bb 69f7 a73c 1c1f 973c 9fc0 31bc
00000300: 9193 153d 9067 d6bb 2015 e1bb a216 b83d
00000310: 8c65 2abc a100 0137 0b8a de3b d17c e2b7
00000320: f434 12bc 168b 7fb9 35ef 9abc d12a 533a
00000330: 90c9 cd3c 7906 6db9 6478 9839 7a5c a7bc
00000340: 11b2 cb3c 15de ecbb c632 2038 9693 873d
00000350: d9fc 8d3d 7612 34bb 41fd 913c 9e05 9f37
00000360: 05db d238 ad59 363d 64a2 20ba c398 a2b8
00000370: 7316 7739 278a afb8 43fb 80bc 9b77 0c3d
00000380: 47ad 80b9 e67a 4c3b 163d 033d 0c84 ab38
00000390: da61 58bc 718a 2cb9 90dd 1039 7675 e33b
000003a0: 8d35 a1bb 4b9b 8039 fe62 5a38 5819 a33d
000003b0: c306 4d3c 1e37 1338 dd0a 39bc b3ca 17bc
000003c0: 37b6 efbb 2d5a 67bc ef32 a4b7 615b 59bb
000003d0: 4816 0cbc a9f4 36b9 01f1 93b9 a891 92b9
000003e0: 094a 8f3c f9cd 8339 46e6 923b db69 c3bb
000003f0: 0ab0 98bc fc72 3f39 f1ed 36bb cae5 8439
0.035592835 -6.25049e-05 -9.2035065e-05 0.036600437 -0.0133181885 -5.179383e-05 -0.00022619448 0.0002506233
-0.016438693 0.01965727 -0.00014135677 -1.5551939e-06 6.5880355e-05 0.03198551 0.023717497 0.032561466
0.008752743 0.027989523 -0.0055359476 6.3261316e-05 -0.0104013095 -0.0069046 0.040147096 -7.529013e-05
0.013489402 0.000167133 0.023204904 0.00020373461 0.051406987 -0.004369446 -9.254843e-07 -0.0012073029
-0.012609092 0.000103367434 -0.021104313 0.018717235 -5.7829053e-05 -0.0002584096 0.021050146 0.0018352587
0.014572548 -0.0031078656 -0.0002566638 0.057598524 0.021691248 0.00020724129 0.00031707497 -0.006996878
0.067907095 -0.0002696757 2.723203e-05 0.029684944 0.022945715 -0.00029725698 0.059777178 0.056202732
0.061177123 -1.5849882e-05 0.03998302 0.00012356623 0.025975322 -0.034908086 -0.008095838 0.03616342
-0.02555565 0.024120169 0.04229521 -0.004515831 0.06470012 -4.03898e-05 -0.0011676773 -0.0002352145
0.037009876 0.000102723665 0.019665273 -4.5962282e-05 -0.023096656 0.00012534513 -0.0002497766 0.040908106
-0.01668302 0.044492178 -2.887078e-05 -0.0173583 -0.0077557196 0.031106962 -0.017905919 -0.0003063774
0.00031100246 -0.0090492 0.030527512 -1.9527024e-05 0.00011533354 0.00016255048 0.014092013 -0.0011307634
0.00017740499 0.01583447 -0.024158025 0.017401293 0.03637571 0.00028313085 -0.00017514957 -0.0050618756
0.020904746 -3.237138e-05 0.00026969946 -0.026432147 -0.0031657934 7.708199e-05 0.005934006 0.045839574
-0.007704357 0.033792373 0.00030143835 0.024133142 0.049649656 -0.00017353627 1.929779e-05 -0.0001878742
-0.028380653 -5.6230536e-05 -0.011082097 0.03129205 -0.0063594086 0.00023804815 0.016405486 -0.0002086899
-0.022747673 -1.6312566e-05 6.918821e-06 -0.012249575 0.035800584 -0.00028886553 -0.00014338369 0.00029699877
0.050810702 -0.0069312183 -0.00014402866 0.00011294678 0.00022529915 -0.008581162 -0.0031842836 -0.011681592
-0.0040996056 -0.01012833 0.02235195 0.00012633561 0.061487425 0.037376158 -0.0049423347 -0.00017252835
-0.011425144 0.00027913187 0.0061680097 -0.00018734176 -0.012425037 0.021583334 -0.00010105276 0.0027348753
0.066181764 0.00010451572 0.011368013 -0.006596007 0.00012664456 -9.901085e-05 -0.005958172 0.045713283
-0.026069248 0.011056823 0.00022610906 0.0012178511 0.0014902143 -0.00017695931 0.0002437145 0.05349648
-0.0069723874 -0.00027545434 -3.692208e-05 -0.0066552507 -0.005915338 -0.00023381555 -0.00977817 -0.0005373047
-0.013007851 -2.173737e-05 -0.01122615 -0.00023257008 -0.0044603017 0.020503717 0.018447451 -0.010849147
0.036517683 -0.0065431073 -0.0068689734 0.08988692 -0.010400187 7.689146e-06 0.0067913583 -2.6999422e-05
-0.008923758 -0.00024370509 -0.01891289 0.00080553914 0.025120527 -0.00022604493 0.00029081397 -0.020429838
0.024865182 -0.0072286227 3.819426e-05 0.06619947 0.069329925 -0.0027476824 0.017820956 1.8956893e-05
0.00010054376 0.044519115 -0.0006127714 -7.753216e-05 0.00023564119 -8.370383e-05 -0.01574481 0.034293752
-0.00024543164 0.0031201183 0.032040678 8.178511e-05 -0.013206923 -0.00016454772 0.00013815449 0.0069414927
-0.004919714 0.00024529765 5.2067444e-05 0.07963818 0.012513819 3.5098863e-05 -0.011294094 -0.009264636
-0.007315423 -0.014120621 -1.9574041e-05 -0.0033166038 -0.008550234 -0.00017448016 -0.00028217587 -0.00027955812
0.017491357 0.0002513973 0.004483017 -0.0059635467 -0.01863863 0.00018258014 -0.002791282 0.00025348208

fc3_lin.bias f4 [64]
00000000: 71ee 143d 62e5 c0bc ff77 2fb9 72f2 113d
00000010: fa65 32bd cb81 56bd 0100 4f3c 33b0 cf3d
00000020: 547c c43c 2cd6 0d3d 53fd 9b3c c451 013d
00000030: 78f1 29bd f597 9bb9 9f72 963d 0941 fa3d
00000040: c51e 233b 78fe e3bd 6033 093d 7007 8abc
00000050: d134 eabd 4d2e 753d 3a9b 34ba 9e59 0abd
00000060: b4d2 8a3d a1f4 9f3d 29f8 0c3e 836b 2d3d
00000070: 8731 8fbd 22fa bab9 3bf0 913c e7f1 b73b
00000080: 6dd3 47bb a961 6a3c 5293 e43d 23a7 c23d
00000090: 0828 923d d70e 803b a26f e8bb e8c7 fb3d
000000a0: 4a40 d13d cab8 4b3d 60fa ab3c c05a 7a39
000000b0: cd11 513d b7d1 42b9 08fe 03bd 06b8 023d
000000c0: d9bb 9f3d e50c e4bc e3c5 323d b373 3cbe
000000d0: aa64 533d d0cf 4cb9 2015 c43c 8229 81bc
000000e0: a4a6 47bd ca81 f3bd 24b3 e93c ccf4 583a
000000f0: 6c9f 8bbd ce26 803c 851e 43bd ca99 253d
0.036360208 -0.023546878 -0.00016734003 0.035631604 -0.043554284 -0.052369874 0.012634278 0.10141029
0.023985066 0.03462808 0.019041693 0.03157212 -0.04149005 -0.0002967712 0.07346081 0.12219436
0.0024890166 -0.111325204 0.03349626 -0.01684925 -0.11435855 0.05985861 -0.00068895856 -0.03377687
0.0677847 0.07810331 0.1376654 0.04233886 -0.069918685 -0.00035663048 0.017814746 0.005613554
-0.003049101 0.014305511 0.111609116 0.09504535 0.071365416 0.003908019 -0.007093386 0.122939885
0.1021734 0.049736775 0.020993412 0.00023875665 0.051042367 -0.00018579407 -0.032224685 0.03191378
0.07799501 -0.02783818 0.04364575 -0.18403511 0.051609673 -0.00019532372 0.023935854 -0.015766863
-0.048742905 -0.1188999 0.028527804 0.00082762237 -0.06817517 0.015643504 -0.047636528 0.040429868

fc4.weight f4 [2, 64]
00000000: 5c2b 0a3e 93dc d8bd e20f cb39 0e38 a13d
00000010: ffa5 83bd 032b bebd 30dc d33d 120b 003e
00000020: 7bf9 293e c406 143d 9b05 dabd 9def 213e
00000030: 4c77 0bbe 37be 17b9 3cd1 1a3e 544f d53d
00000040: df26 dbbc 0ca9 00be eb0d 223d be33 24bd
00000050: aaa3 53be 3560 263e 65b8 4338 181d 833d
00000060: a1a4 a43d 7460 023e b463 3b3e 1472 743d
00000070: 2138 0cbe edb3 9a39 6161 a73d 5ceb 3a3d
00000080: 872e 1cbe 0253 053e a5c2 0e3e 6064 193e
00000090: db4f 2e3e 37b6 f83d 19e2 003e 862d 1f3e
000000a0: d7cf 2b3e 34ed 05be cb8d ac3d 14e7 a3ba
000000b0: b1bd 9c3d f361 96b9 8454 0abe 4d2c a23d
000000c0: e81a d83d 214c 953d c8ad 843d e1e4 fabd
000000d0: 11a9 8f3d 7d7e fdb8 313a 373e 282a 79bd
000000e0: 12e8 86bd 7e81 fabd 6508 bb3d 323d 4e3e
000000f0: a487 d9bd 1b3e 493d 395a 20be 264d d73d
00000100: 64ff 09be 8651 d83d a6f4 ec38 2c0c a1bd
00000110: 7008 833d 11b7 bc3d 861b d3bd 6f9a ffbd
00000120: fe23 2abe c2e1 12bd 95ff d93d 92f9 21be
00000130: 9e6c 0b3e 9940 22b8 e4dc 1abe 8797 d4bd
00000140: e966 d73c 5fce 003e 0bfa 21bd 8191 213d
00000150: e77e 533e bfa8 26be 1b91 aab9 4b52 82bd
00000160: c080 a3bd cba5 02be e45d 3bbe 644e 76bd
00000170: a8f2 0b3e c27f cbb8 f8ad a7bd a4f5 3abd
00000180: c0fb 1b3e e6af 05be b4cd 0ebe f8c9 19be
00000190: 42a7 2ebe f521 f9bd 52eb 00be f42c 1fbe
000001a0: d9f3 2abe a5f4 053e c9ab abbd 1354 b63a
000001b0: bbdb 9cbd 707b 6c39 5ba4 0a3e 2c8e a1bd
000001c0: dfd4 d8bd 3c0a 96bd 586c 83bd 6a96 fb3d
000001d0: 1cbf 8ebd ec16 65b9 7bf3 36be b3ad 793d
000001e0: e246 873d 6caf fa3d 88b2 b9bd b3be 4ebe
000001f0: 56b2 da3d 76e9 45bd 5a0b 203e 02ee d6bd
0.13493103 -0.10588946 0.0003873101 0.0787202 -0.064281456 -0.092855476 0.10344732 0.12504223
0.16599075 0.036139265 -0.106456004 0.15814061 -0.13619727 -0.00014471343 0.15118879 0.10415521
-0.026751934 -0.12564486 0.039564054 -0.040088408 -0.20667902 0.16247638 4.6663354e-05 0.064020336
0.08039213 0.12732106 0.18299752 0.059679106 -0.13693286 0.00029507224 0.081728704 0.045634612
-0.15252124 0.13019946 0.13941438 0.14979696 0.1702265 0.1214413 0.1258625 0.1554471
0.16778503 -0.13078767 0.08425482 -0.001250478 0.07653368 -0.00028683207 -0.13508803 0.07918606
0.10552007 0.07289911 0.06478459 -0.122506864 0.07014669 -0.000120875404 0.17893292 -0.06083122
-0.06587233 -0.1223173 0.091324605 0.20140532 -0.106215745 0.049131494 -0.15659417 0.10512762
-0.1347633 0.10562424 0.00011298926 -0.0786365 0.06398094 0.09214605 -0.10307984 -0.12480628
-0.16615292 -0.03585983 0.106444515 -0.1581786 0.13615653 -3.868397e-05 -0.15123326 -0.10380464
0.026294189 0.12578724 -0.0395451 0.039445404 0.20653878 -0.16275309 -0.0003253304 -0.063633524
-0.079835415 -0.12758557 -0.18297535 -0.060133353 0.13666785 -9.703591e-05 -0.08187479 -0.045644417
0.15232754 -0.13055381 -0.13945657 -0.15018451 -0.17055991 -0.1216468 -0.12589768 -0.15544492
-0.16694583 0.13081606 -0.08382375 0.0013910554 -0.07659098 0.00022552698 0.13539259 -0.07888445
-0.10587477 -0.07326171 -0.06417149 0.122845486 -0.06970045 -0.00021847681 -0.17866318 0.060956668
0.06605317 0.1224049 -0.09067255 -0.20189933 0.10678546 -0.04831835 0.1562933 -0.10494615

fc4.bias f4 [2]
00000000: b54d 8f3f f541 8fbf
1.1195589 -1.1192003
