MWNet/old_data_results/checkpoints/model_epoch_120.pt (torch, 234127 bytes, 8 tensors)

fc1_lin.weight f4 [256, 64]
0	0x3c8a2a75	0.016865948
1	0xbc724505	-0.014786963
2	0x3c0a4d1f	0.008441239
3	0xbca67ac3	-0.02032221
4	0xbba839ca	-0.005133842
5	0x3c28bd70	0.010299072
6	0x3c2b0143	0.010437313
7	0xbbdbb65d	-0.006705089
8	0xbb04e117	-0.0020275766
9	0x38b50f03	8.633549e-05
10	0xb899f2c5	-7.340828e-05
11	0x3b2b3bb4	0.0026128115
12	0x3b282301	0.002565563
13	0xbc8b98e3	-0.017040676
14	0x3c5edde5	0.0136027085
15	0xb8c81e50	-9.542389e-05
16	0xbb6ae6f1	-0.0035843218
17	0xbbf7cff7	-0.007562633
18	0xbc17a499	-0.009255552
19	0x3b3064eb	0.002691562
20	0x3ca523fe	0.020158764
21	0xbc1c44a6	-0.009537851
22	0x3c436a30	0.011927173
23	0x3c49834c	0.01229937
24	0x3b19b135	0.002345157
25	0xbc45d664	-0.0120750405
26	0x3c5ac163	0.013351771
27	0xbb611bd1	-0.0034348855
28	0xbc808c9b	-0.015692046
29	0x3b480ef7	0.0030526498
30	0xbbd0fb0f	-0.0063775848
31	0x3a8f6b64	0.0010942039
32	0x3b5f82b3	0.0034105002
33	0x3c3b82f4	0.011444796
34	0xbcac0ca2	-0.021002118
35	0x3ca2404e	0.019806053
36	0x3ba56a81	0.0050480966
37	0xbc52599a	-0.0128387455
38	0x3b9e690b	0.0048342994
39	0x3c8027f7	0.015644057
40	0x3b95a098	0.0045662634
41	0xb9877ad9	-0.00025840735
42	0x3c9ba532	0.01899967
43	0xbc5d9be0	-0.013525933
44	0xbc27da8f	-0.0102449795
45	0x3ca5b2a6	0.020226788
46	0xbc9a79cb	-0.018856904
47	0x3bc39a54	0.005969325
48	0x3bf784ed	0.007553688
49	0x3b818bbd	0.0039534257
50	0x3c8b7966	0.01702566
51	0x3b848206	0.0040438203
52	0xba8b9a92	-0.0010650924
53	0x3c901a69	0.017590718
54	0xbbee8a89	-0.0072796983
55	0x3b50696f	0.0031801125
56	0xbb0a90bf	-0.0021143404
57	0x3c7e6773	0.015527594
58	0xbbc4eac9	-0.006009434
59	0x3ba0d761	0.0049084877
60	0x3c88aff9	0.016685473
61	0xbc5a7b09	-0.013334998
62	0x3c55dae4	0.013052676
63	0x3c8c798e	0.017147806
64	0xbbfa8702	-0.0076454887
65	0x3d11d5f9	0.03560445
66	0xbbe5a47c	-0.0070081335
67	0x3b3460a6	0.0027523427
68	0x3b99b7e2	0.00469111
69	0xbc25adc5	-0.010112231
70	0x3c2e1595	0.010625263
71	0x3c910c11	0.017705949
72	0x3d16f3ec	0.036853716
73	0x3cf8cf48	0.030372277
74	0x3c80b06b	0.015709123
75	0x3ca3a9af	0.019978372
76	0x3cf30e41	0.029669883
77	0xbc434a1b	-0.011919524
78	0x3c29ae14	0.010356445
79	0x3ba67c6b	0.0050807497
80	0xbc04351d	-0.008069304
81	0x39a3c1ba	0.0003123412
82	0x3c7d9bba	0.015479023
83	0xbb5fcc17	-0.0034148747
84	0xbc7a4d54	-0.0152772255
85	0xbbdf1070	-0.0068073794
86	0xbabac67c	-0.0014249827
87	0xbacb055a	-0.0015489266
88	0xbca24747	-0.019809378
89	0xbc7fef7c	-0.015621062
90	0xbc479cc0	-0.012183368
91	0xbc98e731	-0.018664928
92	0x3c81adca	0.01582994
93	0xbc35e4e7	-0.011101938
94	0x3d80c339	0.06287236
95	0xbc433860	-0.011915296
96	0x3c19bf18	0.009383939
97	0x3c4c4763	0.012468192
98	0x3c471f59	0.01215347
99	0xbdedb358	-0.11606473
100	0x3c291ee7	0.010322309
101	0x3ca0df4a	0.019637723
102	0x3977c0ca	0.00023627575
103	0xbc41dbc1	-0.011832179
104	0x3d0284bd	0.03186487
105	0x3c9eaca4	0.01936943
106	0xbc6cfaa5	-0.014464055
107	0xbd411ed7	-0.04714855
108	0xbc4d17ab	-0.01251785
109	0xbbd239a6	-0.0064155636
110	0xbc90ab51	-0.017659815
111	0x3b3557dd	0.0027670779
112	0x3c892648	0.016741887
113	0x3d4f9288	0.050676852
114	0xbc43100b	-0.01190568
115	0x3bd04790	0.006356187
116	0xbbed2cb6	-0.007237996
117	0x3b1b9c25	0.0023744192
118	0x3ca6018e	0.020264413
119	0xbb122e2e	-0.0022305357
120	0x3c86242b	0.016374668
121	0xbbb8e5b5	-0.0056426176
122	0xbc38a969	-0.011270859
123	0xbc89f43b	-0.016840091
124	0x3abda4be	0.0014468653
125	0x3b985b5e	0.0046495637
126	0x3a9e36a7	0.0012070731
127	0xbc9e86d7	-0.019351406
128	0xbbd80eb3	-0.006593549
129	0xbb216391	-0.0024625997
130	0x3b5690b8	0.0032740068
131	0xbc460dd1	-0.012088255
132	0xbc1327ab	-0.008981626
133	0x37b24225	2.1250054e-05
134	0xbc42e8e3	-0.011896345
135	0xbc202542	-0.009774508
136	0x3c46fe44	0.012145583
137	0x3bf7a9a9	0.007558067
138	0x3ca3b6e0	0.019984663
139	0xbc411be1	-0.011786432
140	0xbc33100d	-0.01092912
141	0xbcf6e08d	-0.030136371
142	0xbc98ea87	-0.018666519
143	0x3c8621bb	0.016373506
144	0x3c27db09	0.010245093
145	0xbc80c6da	-0.01571982
146	0xbaab753b	-0.0013081202
147	0x3c2a8706	0.010408169
148	0xbc55583a	-0.013021523
149	0xbc25d8ac	-0.010122459
150	0x3c2253e3	0.009907695
151	0xbc4b7444	-0.012417857
152	0x3c894409	0.016756075
153	0xbc3e9a8a	-0.011633525
154	0x3cab1b51	0.020887049
155	0xbc652f98	-0.013988398
156	0xbc97e8eb	-0.018543681
157	0xbbfcbd56	-0.0077130003
158	0x3c3f803f	0.011688291
159	0x3ae5a392	0.0017520061
160	0x3a8d749a	0.0010792196
161	0x3c237fed	0.00997923
162	0x3c74aff3	0.014934528
163	0xbc4cee8d	-0.012508047
164	0xbc51f2ef	-0.012814268
165	0xbc9375f1	-0.018000575
166	0xbc1b52fd	-0.009480235
167	0xbc96149b	-0.018320372
168	0x3dbb468f	0.09144317
169	0xbc81a016	-0.015823405
170	0x3c6eb0bd	0.014568505
171	0x3c4044bf	0.01173514
172	0xbbad2928	-0.005284447
173	0x3acc2bc7	0.0015577012
174	0xbc427667	-0.01186905
175	0xbc7eed21	-0.015559466
176	0xbc27df2c	-0.010246079
177	0xbbfdcfe6	-0.0077457307
178	0x3c6db41e	0.014508275
179	0xbb160c30	-0.0022895448
180	0xbaf9df76	-0.0019063789
181	0x3b57cefe	0.0032929773
182	0x3b7e29df	0.0038782281
183	0xbca6d776	-0.020366412
184	0x3bfdce68	0.007745553
185	0x3b953e29	0.004554529
186	0x3c1eb4e5	0.009686683
187	0x3c8824ad	0.01661905
188	0xbaf876d5	-0.0018956313
189	0xbc93bfb2	-0.018035743
190	0xbcc8e1ee	-0.024521794
191	0xbc0e737e	-0.008694528
192	0x3d84eab0	0.064900756
193	0xbbec96d9	-0.007220131
194	0xbc8fa2ec	-0.017533742
195	0xbba55cd5	-0.005046467
196	0x3b231581	0.0024884643
197	0x3c9f8607	0.019473089
198	0xbc2a2e3e	-0.010387002
199	0xbc87fa58	-0.016598865
200	0xbd87928f	-0.06619751
201	0xbcaddf39	-0.021224605
202	0xbca901db	-0.020630768
203	0x3badadd0	0.005300261
204	0x3c57ea2d	0.01317839
205	0x3d90de21	0.07073618
206	0x3d077c8b	0.033077758
207	0x3c8ee508	0.017443195
208	0xbb2690d6	-0.0025415919
209	0x3c9b8c9d	0.018987948
210	0x3c04d1d7	0.00810667
211	0xbc90f68a	-0.017695684
212	0x3d911394	0.07083812
213	0x3bad12c6	0.005281779
214	0xbacacb30	-0.0015471932
215	0x3ce4d73d	0.027934665
216	0xbc791e5e	-0.015204994
217	0xbc8d1e46	-0.01722635
218	0xbca0f7d4	-0.019649424
219	0x3b975878	0.0046187006
220	0xbb88b3ec	-0.004171839
221	0x3ca28a9d	0.019841487
222	0xbded88b8	-0.11598343
223	0xbd58bb65	-0.05291309
224	0x3bd5751c	0.0065142047
225	0xbc5393c3	-0.012913647
226	0xbb8b1959	-0.004244965
227	0x3e1ca45f	0.15297078
228	0xbc1b6789	-0.009485134
229	0xbcb244cd	-0.021761322
230	0xbce637a2	-0.0281027
231	0x3bfece73	0.0077760755
232	0x3d75c04c	0.05999784
233	0x3c298744	0.010347191
234	0xbc8634c5	-0.016382584
235	0x3d2c0e1b	0.04200564
236	0x3c4d9a03	0.012548926
237	0x3ca9467e	0.020663496
238	0xbcad30a8	-0.021141365
239	0xbc873224	-0.016503401
240	0x3bddd6ce	0.0067699915
241	0xbd398017	-0.04528817
242	0x3c1e8484	0.009675149
243	0xbc9339d5	-0.017971912
244	0x3ceff604	0.029292114
245	0xbbecf69b	-0.007231546
246	0x3c7827b0	0.015146181
247	0xbd8e15b4	-0.06937733
248	0x3c87ea65	0.01659126
249	0x3c0e71b1	0.008694098
250	0x3cd1fb3c	0.025632493
251	0xbcad699b	-0.02116852
252	0xbbf2779f	-0.007399514
253	0x3c93395b	0.017971685
254	0xbc5c3b51	-0.0134418765
255	0xbc48d678	-0.012258165

fc1_lin.bias f4 [256]
0	0xbb4cbd62	-0.003124081
1	0x3b95450f	0.0045553516
2	0xbba71129	-0.005098481
3	0xbd45dd86	-0.048306964
4	0x3c097ce5	0.008391594
5	0x3bd844b1	0.0065999855
6	0xbca41cfb	-0.02003335
7	0xbca21f34	-0.01979027
8	0xbc241063	-0.0100136725
9	0xbce24aac	-0.027623497
10	0xbba80a9c	-0.005128218
11	0xbc48ba25	-0.012251412
12	0xbc1d9935	-0.009619047
13	0x3c84a9a5	0.016194174
14	0xbd2893d5	-0.04115661
15	0xbbe686cd	-0.0070351125
16	0x3c115767	0.008870936
17	0xbc1ef11b	-0.009701039
18	0xbc1909cf	-0.009340717
19	0xbc85d5a7	-0.016337229
20	0xbbe36712	-0.006939777
21	0xbaa0554d	-0.0012232453
22	0x3c97e662	0.018542472
23	0xbc886a72	-0.01665232
24	0xbaa3c512	-0.0012494645
25	0xbccc91d3	-0.024971878
26	0xbc222e15	-0.009898682
27	0x3c5dc992	0.013536828
28	0x3c0f5bcc	0.008749913
29	0xbb9bf716	-0.0047596795
30	0x38cda75b	9.806334e-05
31	0xbcacff57	-0.02111785
32	0xbcf222d5	-0.029557625
33	0x3c4a8940	0.0123618245
34	0xbc9c4ca2	-0.01907951
35	0xbac1aa47	-0.0014775478
36	0xbc87fb05	-0.016599188
37	0xbd68b442	-0.056812532
38	0x3d772a67	0.060343172
39	0xbd013c43	-0.03155161
40	0x3be39def	0.0069463174
41	0xbad69123	-0.0016370158
42	0xbc3a8c0b	-0.011385928
43	0xbbfcee6a	-0.007718851
44	0x3ce015bb	0.027354112
45	0xbc1faaa3	-0.009745273
46	0x3d97f367	0.07419472
47	0x3d3bedb9	0.045881007
48	0xbd1b8cca	-0.037976064
49	0xbbe0da51	-0.006861963
50	0xbc835072	-0.01602957
51	0xbacba528	-0.0015536891
52	0x3c62088c	0.013795983
53	0xbc85d5bc	-0.016337268
54	0x3b9538a8	0.004553873
55	0x3d3fd32a	0.04683224
56	0xbb9912c9	-0.004671429
57	0xbc877006	-0.01653291
58	0xbcaab3fd	-0.020837778
59	0xbc8b3994	-0.016995229
60	0xbbe16b01	-0.006879211
61	0xbc7a44e1	-0.015275211
62	0xbbc02658	-0.005863946
63	0x3c1a259f	0.009408384
64	0x39dc4a51	0.0004201704
65	0xbca85b26	-0.020551275
66	0xbca6dc9c	-0.020368867
67	0xbc7185fc	-0.014741417
68	0xbc133315	-0.008984347
69	0x3cb3a695	0.021930018
70	0x3d2aef5b	0.041732173
71	0x3d76538b	0.060138267
72	0xbabc1e0d	-0.0014352218
73	0xbc86dbc7	-0.01646222
74	0xbc1ba9bc	-0.009500917
75	0x3b052630	0.002031695
76	0xbc243702	-0.0100228805
77	0xbc83aad6	-0.016072672
78	0x3b168d6e	0.0022972482
79	0x3ad49c46	0.001622089
80	0xbc51cfa5	-0.012805854
81	0xbc6eeb93	-0.014582532
82	0x3c9a89fd	0.018864626
83	0xbc94ecf1	-0.018179389
84	0x3b87ef2f	0.004148386
85	0x3c1e1994	0.009649653
86	0x3c243912	0.010023372
87	0xbc17e5cd	-0.009271097
88	0xbd2f40a9	-0.042786274
89	0xbca6979c	-0.020335965
90	0xbc139835	-0.009008457
91	0xbb8f32d5	-0.0043700733
92	0xbcbba9c0	-0.022908092
93	0x3c625073	0.013813126
94	0xbc6a8e7c	-0.0143161975
95	0xbcba0fe4	-0.022712655
96	0x3d3a5d3b	0.045499068
97	0xbca77826	-0.020443033
98	0x3b19b0a5	0.0023451236
99	0xbc4fb0da	-0.012676442
100	0xb98825ef	-0.00025968204
101	0xbc9e791f	-0.019344864
102	0xbc97ee55	-0.018546263
103	0xbaaccbc9	-0.0013183291
104	0xbc2fbc5d	-0.010726062
105	0x3d339039	0.043838713
106	0xbcae3201	-0.021264078
107	0x3d673584	0.05644752
108	0xbb51a3d0	-0.003198851
109	0xbbc32df2	-0.005956405
110	0xbc9576f9	-0.018245207
111	0xbcb3be36	-0.021941286
112	0xbc3e9df7	-0.011634341
113	0xbcb87333	-0.022515869
114	0xbc9f2992	-0.019429002
115	0xbabb7360	-0.0014301352
116	0x3c45949a	0.012059355
117	0xbc8e2ad2	-0.017354403
118	0xbc66741b	-0.014065768
119	0xbc7973e3	-0.015225383
120	0x3afe01b7	0.0019379173
121	0xba5c81e5	-0.000841169
122	0x3b9067f6	0.0044069244
123	0x3ad0b734	0.0015923739
124	0xbb93ce3b	-0.0045106686
125	0xbca786b6	-0.020449977
126	0xbc93d820	-0.018047392
127	0x3ae3c6d0	0.0017377976
128	0xbcc643f4	-0.024202324
129	0x3ab3ada7	0.0013708369
130	0x3ce6f5ee	0.02819344
131	0x3c616c37	0.013758711
132	0x3bbaf08a	0.005704944
133	0xbc4624c1	-0.012093724
134	0xbc6f29d6	-0.014597377
135	0x3c2cc350	0.010544613
136	0x3a6137aa	0.00085913634
137	0xbb23fbb3	-0.002502185
138	0x3c8508a6	0.016239475
139	0xbc99669f	-0.018725691
140	0xbc8a4bd7	-0.016881866
141	0x39affe80	0.00033568218
142	0xbbf6a0d4	-0.0075264964
143	0xbcd284b8	-0.02569805
144	0xbbc7dfc8	-0.006099675
145	0xbab7e4db	-0.0014029996
146	0x3cd1bbc6	0.025602233
147	0xbc3649f8	-0.011126034
148	0x3cceb538	0.025232896
149	0x3cb10b5a	0.021611858
150	0xbb8eefd5	-0.0043620863
151	0xbbdcd139	-0.0067388085
152	0x3b1412ae	0.0022594142
153	0x3c5c63aa	0.013451496
154	0xbbc59b25	-0.0060304576
155	0x3aac45ab	0.0013143321
156	0x3c843cf2	0.016142342
157	0x3c9380b1	0.0180057
158	0xbc73ad51	-0.014872865
159	0xbccf3a90	-0.02529648
160	0x3d40326e	0.046923093
161	0xbc4c7ea9	-0.01248137
162	0xbc6a7bfb	-0.014311786
163	0xbce444de	-0.02786487
164	0x3c9903ef	0.018678633
165	0x3cc73390	0.02431658
166	0x3cd6be0e	0.026213672
167	0x3b8d4f47	0.004312429
168	0xbc15e28e	-0.009148253
169	0xbbc19846	-0.005908045
170	0xbce54db1	-0.027991148
171	0xbc8cf45e	-0.017206367
172	0x3d75399f	0.059869405
173	0xbc3e79fe	-0.011625765
174	0x3acafcc9	0.0015486713
175	0xba68c72c	-0.00088797766
176	0x3b16566d	0.0022939697
177	0x3bca17b0	0.0061673746
178	0xbc867941	-0.01641524
179	0x3d1bcfe4	0.038040057
180	0xbc414140	-0.011795342
181	0xbd69142b	-0.056904
182	0xbc5eccc7	-0.013598627
183	0x3a8f0d4d	0.0010913998
184	0xbb2da367	-0.00264951
185	0xbb259d2a	-0.002527068
186	0xbc21faba	-0.009886438
187	0x3c25ac6a	0.0101119075
188	0x3a9da956	0.0012028615
189	0xbc6cd9b9	-0.014456206
190	0xbbe2ce63	-0.006921576
191	0x3c470d83	0.012149218
192	0xbb81a4d1	-0.003956415
193	0xbc8c94b7	-0.017160757
194	0xbc4d92c1	-0.012547196
195	0x3d6b8afc	0.057505593
196	0x3d81c5d1	0.063365586
197	0xbc9721f5	-0.01844881
198	0xbd19c27a	-0.037538983
199	0xbc415115	-0.011799117
200	0xbbec0a40	-0.0072033703
201	0x3d375c7e	0.04476594
202	0xbb23f801	-0.0025019648
203	0x3bed5c7d	0.0072436915
204	0xbb80584a	-0.003916775
205	0x3ba52644	0.005039962
206	0x3d83f7f4	0.06443778
207	0xbc17b174	-0.009258617
208	0xbd116c25	-0.035503525
209	0x3c6d5235	0.014484932
210	0xbc1ce2b0	-0.009575531
211	0xbc5b8f18	-0.013400815
212	0x3c8c5756	0.017131489
213	0xbc9c2234	-0.019059278
214	0x3cb121cf	0.021622567
215	0x3cb317fa	0.021862019
216	0x3cc7c1d1	0.024384411
217	0xbc1da833	-0.009622621
218	0xbc91d3bd	-0.01780116
219	0xbc0b0770	-0.00848566
220	0x3d8f22f9	0.069890924
221	0xbc7b43ab	-0.0153359575
222	0xbbcdb236	-0.006277348
223	0xbaa54186	-0.0012608028
224	0xbb88a186	-0.0041696457
225	0xbb7255cd	-0.003697741
226	0xbce9b614	-0.028529204
227	0x3cb59aa5	0.022168467
228	0x3bf6eab1	0.0075353016
229	0xb9f3df0d	-0.00046514758
230	0xbbc0c218	-0.005882513
231	0x3cdd24f0	0.026995152
232	0x3a5dd775	0.00084625866
233	0x3c6d8436	0.014496854
234	0xbbf3ca7f	-0.007439911
235	0x3d938468	0.07202989
236	0xbd7cfa82	-0.06176234
237	0x3af77aba	0.001888118
238	0xbc8cebe0	-0.017202318
239	0x3c162fe1	0.009166689
240	0xbc53b716	-0.012922069
241	0xbc7f7032	-0.015590714
242	0xbc966c8d	-0.018362308
243	0xbd16aebf	-0.036787745
244	0xbc36ada5	-0.0111497985
245	0x3bd5019c	0.006500436
246	0xbc7b74c0	-0.01534766
247	0x3c898b1d	0.016789967
248	0xbca9600f	-0.020675687
249	0xbce40615	-0.027834931
250	0xbd91a3ba	-0.071113065
251	0x3c20f7fa	0.009824747
252	0xbd0cdbcf	-0.034389313
253	0xbc065396	-0.008198639
254	0xbcb64f12	-0.0222545
255	0xbcb7b177	-0.022423489

fc2_lin.weight f4 [128, 256]
0	0xbb06f711	-0.002059404
1	0xba35b235	-0.0006931157
2	0xbb2dbd90	-0.0026510693
3	0x3d1460d2	0.036225148
4	0xbb9b3ff1	-0.004737847
5	0x3b0cc719	0.0021480976
6	0xbc2d05ea	-0.010560492
7	0x3c1eab1b	0.009684349
8	0x3af43db4	0.0018634112
9	0x3c356abd	0.011072812
10	0x3a3d51aa	0.0007221947
11	0xbb3df71a	-0.0028986395
12	0xbb2a0f32	-0.0025948999
13	0xbd0098cf	-0.03139573
14	0x3dab2817	0.08357256
15	0x3c18da53	0.009329396
16	0x3a3e215d	0.00072528963
17	0x3b860af9	0.0040906635
18	0xbbf530e8	-0.0074826367
19	0x3be69f74	0.0070380513
20	0x3c1f5250	0.009724215
21	0xbc0c049b	-0.00854602
22	0xbae12cd4	-0.0017179498
23	0xb9e9c8c7	-0.00044590814
24	0xbb84098d	-0.004029459
25	0x3de88410	0.11353314
26	0x39d179cd	0.00039954335
27	0xbba61441	-0.0050683324
28	0xbb54bb4e	-0.0032460275
29	0x3c10accc	0.0088302605
30	0xbb845418	-0.004038345
31	0x3c1420fc	0.009041067
32	0x3d3237a7	0.043510105
33	0xbd83a30b	-0.06427582
34	0x3cfe1e56	0.031020325
35	0x3b60f340	0.0034324676
36	0xbaec6cb0	-0.0018037762
37	0x3d191a6f	0.037378725
38	0xbc390a0d	-0.0112939
39	0x3c88ff3b	0.016723266
40	0x38cce274	9.769658e-05
41	0xbb4bb0a4	-0.0031080628
42	0xbbad0c75	-0.005281026
43	0x3c1183c9	0.008881518
44	0xbc2df540	-0.010617554
45	0xbbc737c4	-0.006079646
46	0xbd0a9853	-0.033836674
47	0xbcc1bf1a	-0.023650695
48	0x3d43e9d4	0.047830418
49	0xbb9fa517	-0.004871975
50	0xbbede35b	-0.007259769
51	0xbbae1ec1	-0.0053137247
52	0x3c13f6f3	0.009031045
53	0xbbabb5bf	-0.0052401717
54	0x3bba8f9a	0.005693388
55	0xbca48f96	-0.020087998
56	0xb9ad109a	-0.000330095
57	0x3bda1f3a	0.0066565545
58	0x3d93fbf9	0.07225794
59	0x3c2ca50e	0.010537399
60	0xbb09a841	-0.0021004828
61	0xbb9be8ec	-0.004757991
62	0x3b6e393f	0.003635004
63	0xbb402b89	-0.0029322824
64	0x3d53ee39	0.05174086
65	0x3b184fc9	0.0023240915
66	0xba19488a	-0.0005847296
67	0xbc21f35a	-0.00988468
68	0xbc45247c	-0.012032624
69	0xbb217662	-0.0024637212
70	0xbcadd4af	-0.02121958
71	0xbce8718f	-0.028374461
72	0xbc2df6fc	-0.010617968
73	0xbb4a3cc6	-0.0030858978
74	0x3c7c4bec	0.015398961
75	0xbc33ae05	-0.010966782
76	0x3c22805b	0.009918298
77	0x3b43ab2b	0.0029856663
78	0x3bc550f1	0.006021612
79	0x3be6c317	0.0070422995
80	0x3ba0214c	0.004886782
81	0x3c043737	0.008069805
82	0xbc46eff1	-0.012142167
83	0xbbafcda2	-0.0053650895
84	0x3c1791ea	0.009251097
85	0x3bff5604	0.0077922363
86	0xbc151d5a	-0.009101236
87	0x3bf50896	0.00747783
88	0x3dd83b43	0.10558178
89	0x3af2b987	0.0018518426
90	0xbbb2596b	-0.0054427884
91	0x3c2ad949	0.010427781
92	0x3da746bf	0.081677906
93	0x3c14a835	0.009073307
94	0xbbabf5d9	-0.005247813
95	0xbbbdd335	-0.005793
96	0xbdbb02aa	-0.091313675
97	0xbaf2489c	-0.0018484774
98	0xbbae3638	-0.005316522
99	0x3b3bf96b	0.00286826
100	0x3b8c5acd	0.0042832852
101	0x3bbaf9bd	0.0057060407
102	0x3c2b1047	0.010440893
103	0xbbfa3eda	-0.007636887
104	0xbc1d1986	-0.009588605
105	0xbc7ab74f	-0.015302493
106	0xbc14e978	-0.009088866
107	0x3b95777e	0.0045613637
108	0x3c13ff2d	0.009033007
109	0x3b2961de	0.0025845687
110	0x3d594238	0.053041667
111	0x3d8abffd	0.067749
112	0x3c0940f0	0.008377299
113	0x3c27aa57	0.010233483
114	0xbb1a71d7	-0.002356639
115	0xbc0a56ba	-0.008443529
116	0xb97840b2	-0.00023675224
117	0x3c222f4c	0.009898972
118	0x393d3623	0.00018044612
119	0xba88d0b1	-0.0010438171
120	0xbbd76294	-0.0065730307
121	0x393fc467	0.00018288345
122	0xbb98a3c6	-0.004658195
123	0x3bef222c	0.007297775
124	0xbbb977f5	-0.005660052
125	0x3bd3bcd7	0.0064617204
126	0x3c0cd136	0.008594802
127	0xba52c2bf	-0.00080398837
128	0x3dfeebf8	0.12447351
129	0xbca24ad6	-0.019811075
130	0x3b34de0b	0.0027598168
131	0x3a72728c	0.0009248636
132	0xba9f17a0	-0.0012137778
133	0xbc1a1aee	-0.009405835
134	0x3a1419b0	0.00056495797
135	0xbb08d5d5	-0.0020879407
136	0xbb107953	-0.002204497
137	0xbb2654d1	-0.0025380144
138	0x3b1a1db0	0.002351623
139	0x3b6680f4	0.0035172077
140	0xbb60a159	-0.0034275858
141	0xbb156937	-0.0022798309
142	0x3da9a6ad	0.08283744
143	0x3d50dddf	0.050992843
144	0xbc2a5533	-0.01039629
145	0x3bab4341	0.005226523
146	0x3b79c2e6	0.0038110553
147	0x3b54f86b	0.0032496701
148	0xbd3541c9	-0.04425219
149	0xbc2a12d0	-0.010380462
150	0xbb48bdde	-0.0030630748
151	0xbc130791	-0.008973972
152	0xbc0f5c0a	-0.008749971
153	0xbb993432	-0.0046754116
154	0x3c015493	0.007893699
155	0xbc08fa16	-0.008360406
156	0x3c0f909b	0.008762504
157	0xbb8f1e23	-0.0043676062
158	0x3d9a492d	0.075334884
159	0x3d77f25a	0.06053386
160	0xbd36e86d	-0.044655252
161	0x3c2b4880	0.010454297
162	0xbb2902f2	-0.002578911
163	0x3d77a4dc	0.060459957
164	0xbd46af3d	-0.048506964
165	0xbcce7502	-0.025202278
166	0xbceece0a	-0.029150981
167	0xbb39d2b6	-0.0028354353
168	0xbc11ceb3	-0.008899379
169	0xba78b730	-0.0009487746
170	0x3cc69314	0.024240054
171	0xbb6f557f	-0.0036519466
172	0xbd926efb	-0.07150074
173	0x3d91d1b6	0.07120077
174	0xbbbcf3f7	-0.0057663876
175	0xbb892873	-0.00418573
176	0xb99f3b7d	-0.00030371165
177	0xbbe38637	-0.00694349
178	0x3c18a49a	0.009316588
179	0xbce0a8bd	-0.02742421
180	0x3c0665b1	0.008202956
181	0x3d8c0c0f	0.068382375
182	0x3c7e7476	0.015530696
183	0xbc382a8e	-0.011240615
184	0xbba72f90	-0.0051021054
185	0xbc0ba7d2	-0.008523898
186	0xbbe1ac74	-0.006887013
187	0xbc40b5f2	-0.011762129
188	0xbade18f1	-0.0016944689
189	0xbb2e2805	-0.0026574146
190	0xbb4969c1	-0.00307332
191	0xbac09dc7	-0.0014695459
192	0xbc252684	-0.010079984
193	0x3b9490a3	0.0045338436
194	0x3b856bbd	0.0040716813
195	0xbd69731c	-0.056994542
196	0xbd655774	-0.055991605
197	0x3bfad694	0.0076549742
198	0x3c1420bc	0.009041008
199	0x3c04a5d9	0.008096182
200	0x3be6cf48	0.007043753
201	0xbca46bb1	-0.020070883
202	0xbb9fd7e7	-0.0048780325
203	0xbbe81ebf	-0.0070837433
204	0xbb091898	-0.00209192
205	0xbc112ef6	-0.008861294
206	0xbd9611c2	-0.07327606
207	0x3d84d093	0.06485095
208	0x3dcfb72b	0.101423584
209	0xbc186b4e	-0.009302927
210	0xbb158bc8	-0.0022818912
211	0x3cd00eb3	0.025397634
212	0xbc82b670	-0.015956134
213	0x397e96d1	0.00024279511
214	0x3c0c53ee	0.008564932
215	0xbbde12e1	-0.006777153
216	0xbd614e64	-0.0550064
217	0x3ab9fa00	0.0014188886
218	0x38fc87ce	0.00012041592
219	0xb88944c9	-6.545481e-05
220	0xbd85ec93	-0.065392636
221	0xbb91452d	-0.004433295
222	0xba40bd2e	-0.0007352409
223	0x3c04978b	0.008092771
224	0xbc1a1de3	-0.00940654
225	0x3c1b1512	0.009465473
226	0x3df3bf34	0.119017035
227	0xbd89e2a6	-0.06732683
228	0x3b4b8a3c	0.0031057736
229	0xbc038c1c	-0.00802901
230	0x3d03c6a1	0.03217185
231	0xbbaff41a	-0.0053696753
232	0xbbeac472	-0.0071645314
233	0xbb59da5b	-0.0033241722
234	0x3d8ee2e1	0.069768675
235	0xbd097e77	-0.033567872
236	0x3cbf8893	0.023380553
237	0xbba8b460	-0.0051484555
238	0x39054fd2	0.00012713604
239	0xba834dfd	-0.0010017749
240	0xbc02db68	-0.007986881
241	0x3b2b27da	0.0026116283
242	0x3c259c97	0.010108135
243	0x3c87a332	0.01655731
244	0x3b32d17e	0.0027285512
245	0xbc1856b1	-0.009298013
246	0xbbdc15b3	-0.006716454
247	0x3baa7812	0.005202302
248	0xbc1d3fb6	-0.009597709
249	0x3d9f69d4	0.07783857
250	0x3db03c8b	0.08605298
251	0x3b2ff8be	0.0026851143
252	0x3dd07558	0.101786315
253	0xba0a2b3f	-0.00052707264
254	0xbbfbe42c	-0.0076871123
255	0xbbb4f557	-0.005522411

fc2_lin.bias f4 [128]
0	0x3983a39f	0.00025108174
1	0x3e01bea0	0.12670374
2	0x3d3e255b	0.046422344
3	0x3b9acf5a	0.0047244253
4	0xbc83bb30	-0.016080469
5	0xbc926a63	-0.017872995
6	0xbc8e2779	-0.017352806
7	0xbb146973	-0.002264586
8	0xbd229c36	-0.039699756
9	0xbbc8bdc7	-0.006126139
10	0xbcb5de7c	-0.022200815
11	0x3dd1a8ab	0.10237249
12	0xbc90c80c	-0.017673515
13	0xbcdf4435	-0.027254203
14	0x3bdd0da5	0.0067460113
15	0x3ba4b47a	0.0050263973
16	0x396d0e6b	0.00022607452
17	0xbbdce3ba	-0.0067410143
18	0x3c15031d	0.009094981
19	0x3d9e16ae	0.077191696
20	0xbc04c370	-0.008103237
21	0xbc91d177	-0.017800076
22	0xbc63ee75	-0.013911833
23	0xbbd4cedd	-0.0064943866
24	0x3baf8a64	0.0053570736
25	0xbc29877d	-0.010347244
26	0xbc200df3	-0.009768951
27	0x3d10a530	0.035313785
28	0x3c9bbb13	0.019010102
29	0x3d631f12	0.055449553
30	0xbc3e0e54	-0.011600096
31	0x3d8dc99c	0.069232196
32	0x3d815b4e	0.06316243
33	0xbc4b158c	-0.012395274
34	0x3a71bbf8	0.000922143
35	0x3dbc64c1	0.09198905
36	0xbc21b3f9	-0.009869569
37	0x3d95aabc	0.073079556
38	0xbc2cb08f	-0.010540142
39	0x3b004cda	0.0019577057
40	0x3d3204bb	0.043461543
41	0xbc6f6511	-0.014611498
42	0x3a64423a	0.00087073783
43	0x3d35f1bc	0.04441999
44	0xbc850a8e	-0.016240384
45	0xbc26cabc	-0.010180172
46	0x3d15a0d3	0.036530327
47	0xbc45ca42	-0.012072148
48	0xbcef04d6	-0.02917711
49	0x3d2e40e2	0.042542346
50	0x3b98590c	0.004649287
51	0x3dad2a59	0.08455343
52	0xbc177bce	-0.009245826
53	0xbc435a5d	-0.0119234
54	0xbcd20296	-0.025635999
55	0xbcd0185f	-0.025402246
56	0xbbdbd92a	-0.0067092376
57	0xbd3fd831	-0.046837036
58	0xbc59ee45	-0.013301437
59	0xbd2dae82	-0.04240275
60	0x3d075062	0.033035643
61	0x3c2fd3f6	0.010731688
62	0xbc94d91f	-0.018169938
63	0xbc6374f5	-0.013882865
64	0x3ad59c96	0.0016297277
65	0xbc3d3a57	-0.011549554
66	0x3cebca13	0.02878288
67	0x3dd9ae4c	0.106289476
68	0x3c7780fd	0.015106437
69	0xba2558b9	-0.0006307471
70	0x3c6dd312	0.014515655
71	0x3da432fd	0.08017538
72	0x3dcc9e8c	0.09991178
73	0x3db82fc3	0.08993485
74	0xbc397cf1	-0.011321292
75	0xbc20a719	-0.009805464
76	0xbb913c1b	-0.004432214
77	0x3d839660	0.06425166
78	0xbcf33279	-0.029687153
79	0xbb11fa4b	-0.002227443
80	0xbc8a0088	-0.016845956
81	0xbc3a8f75	-0.011386742
82	0xbbd5b1cf	-0.0065214406
83	0xbbe6bcd9	-0.0070415554
84	0xbbcf381c	-0.0063238274
85	0x3e0162da	0.12635365
86	0xbc0a896a	-0.008455614
87	0xbb97a8da	-0.004628283
88	0xbbb0f25c	-0.0053999852
89	0xbc6d5016	-0.014484426
90	0xbc6125eb	-0.0137419505
91	0x3d7ce4bc	0.061741576
92	0xbc01c516	-0.007920524
93	0xbcd5c51d	-0.026094967
94	0xbc2776aa	-0.010221163
95	0xbd7843e8	-0.060611635
96	0x3d6bd74e	0.057578377
97	0x3c7e6b77	0.015528551
98	0x3c120f91	0.008914844
99	0xbc33584b	-0.010946344
100	0xbccca2f3	-0.024980044
101	0xbc280ef4	-0.010257471
102	0x3d2612a6	0.04054513
103	0x3c95580b	0.018230459
104	0xbd0c1a64	-0.034204856
105	0x3cb90c6c	0.022588931
106	0xbb91f120	-0.004453793
107	0xbc6eb097	-0.0145684695
108	0xbc6c2d4f	-0.014415099
109	0x3d138ee6	0.03602495
110	0xbb2589b1	-0.0025259072
111	0xbbe26342	-0.006908805
112	0xbc308885	-0.010774736
113	0xbc4fc4a7	-0.012681163
114	0xbbec7481	-0.007216037
115	0xbc12e10d	-0.008964789
116	0xbbce0211	-0.0062868674
117	0x3da6e7f3	0.081497096
118	0x3de3d6c5	0.111249484
119	0xbce82d6c	-0.028341971
120	0xbc27db31	-0.01024513
121	0x3cd657c9	0.026164906
122	0xbc2e0ceb	-0.010623197
123	0xbbca37d8	-0.006171208
124	0xbb97c89f	-0.00463207
125	0xbb7bdb05	-0.0038430106
126	0x3d87b8e9	0.06627066
127	0xbd9f9a6e	-0.07793127

fc3_lin.weight f4 [64, 128]
0	0xbd6ac7a2	-0.05731929
1	0x3c8045c1	0.015658261
2	0xbc20bdf1	-0.009810911
3	0xbc8fa779	-0.017535912
4	0x3c8bf3c3	0.017084008
5	0x3d08a2f6	0.033358537
6	0xbc26cb5a	-0.010180319
7	0x3b9eac72	0.0048423344
8	0xbd5e4777	-0.054267373
9	0xb8aed5ee	-8.336814e-05
10	0x3bb316e3	0.005465375
11	0xba63eadc	-0.00086943596
12	0x3b990a59	0.004670423
13	0xbb0dee70	-0.0021657012
14	0xbc32a77a	-0.010904187
15	0xbc236b7e	-0.009974359
16	0x3c76aebf	0.015056311
17	0x3b5b2a4b	0.0033441957
18	0x3bc7c60a	0.006096606
19	0x3b3246be	0.002720281
20	0xbc2a4224	-0.010391746
21	0x3cacced5	0.021094719
22	0x3c455577	0.012044302
23	0xbc1a98e5	-0.009435867
24	0xbb275620	-0.0025533512
25	0xbb889ebf	-0.0041693146
26	0x3b889750	0.0041684285
27	0xbd5416c8	-0.05177954
28	0xbbf04111	-0.0073319753
29	0x3c581fd1	0.013191179
30	0x3b0241d1	0.0019875655
31	0x3cc509dc	0.024052553
32	0x3ce51250	0.027962834
33	0xbc630544	-0.013856236
34	0xbb85bfc3	-0.0040816977
35	0xbc97d6fc	-0.01853513
36	0xb9c05c04	-0.0003668965
37	0x3b2fb7d8	0.002681246
38	0xbbf78a55	-0.0075543323
39	0xbc4caab8	-0.012491874
40	0x3c878c88	0.016546503
41	0x3bfad82c	0.007655164
42	0xbb90c655	-0.0044181743
43	0x3bc35c88	0.0059619583
44	0xbbc03f26	-0.005866903
45	0x3bbf735c	0.0058426093
46	0xbc1cc857	-0.009569249
47	0xbb06e4d4	-0.002058317
48	0xbcc8bb95	-0.024503509
49	0xba18bb1e	-0.00058262225
50	0xbbb15826	-0.0054121194
51	0xbc68003f	-0.014160215
52	0xbc3155d8	-0.010823689
53	0xbd959b24	-0.07304981
54	0xbba57d78	-0.0050503574
55	0x3bdd3c01	0.006751538
56	0xbc56e7c0	-0.013116777
57	0xbd42536b	-0.047442835
58	0xbcd72718	-0.026263759
59	0xbcd6556e	-0.026163783
60	0x3c39d30c	0.011341821
61	0x3bbfdaa2	0.0058549205
62	0x3c5600c2	0.013061704
63	0x3d099859	0.033592556
64	0x3cecde30	0.028914541
65	0x39694021	0.00022244501
66	0x3c4f05fd	0.012635705
67	0x3c871037	0.016487224
68	0xbc50202a	-0.012702981
69	0xbc5aecc4	-0.013362113
70	0x3b877fc4	0.004135104
71	0x3cb2a50f	0.021807222
72	0x3ade7bd5	0.0016974161
73	0xba0cdd69	-0.0005373569
74	0xbc87bfc4	-0.016570933
75	0x3bc675e3	0.0060565337
76	0xbc6e8f8e	-0.014560593
77	0xbb1aa46d	-0.002359654
78	0x3c559143	0.013035121
79	0x3bc7076b	0.0060738823
80	0x3d9b8a6a	0.0759476
81	0xbc42c018	-0.011886619
82	0x3c328442	0.0108957905
83	0x3c566772	0.013086187
84	0xbc0c4951	-0.008562402
85	0x3c66a13b	0.014076526
86	0x3c36d322	0.011158736
87	0x3c42af06	0.011882549
88	0xbc11ed3c	-0.008906659
89	0x3b36b757	0.0027880275
90	0xbc679bb2	-0.014136242
91	0xbc7572ae	-0.014980955
92	0xbc4ca7e0	-0.012491196
93	0xbd781157	-0.06056341
94	0xbb8fa15e	-0.00438325
95	0xbd0ad97f	-0.033898827
96	0xbcbe3815	-0.023220101
97	0x3ccb52af	0.0248197
98	0x3c775c00	0.015097618
99	0xbc108ce0	-0.00882265
100	0x3c30d4b6	0.010792902
101	0xbb23c822	-0.0024991115
102	0xbbb94e43	-0.0056550815
103	0xbc7e4b1a	-0.015520835
104	0x3c03eb02	0.008051636
105	0x3b7e4f09	0.0038804433
106	0xbc05fd65	-0.00817809
107	0xbbf74889	-0.0075464887
108	0xbc0bf180	-0.008541465
109	0x3c1ed928	0.009695329
110	0xbae2a927	-0.0017292843
111	0x3bfdde83	0.0077474727
112	0xbb6a3f24	-0.00357432
113	0x3bed0e02	0.007234336
114	0xbc6e5eba	-0.014548952
115	0xbbd39ede	-0.0064581474
116	0xbba74b86	-0.0051054386
117	0x3c1653d6	0.0091752615
118	0xbcbe5fc2	-0.02323902
119	0xbc94558c	-0.018107198
120	0xbc5ec24f	-0.0135961315
121	0x3c512f49	0.012767621
122	0x3c994c74	0.018713214
123	0x3ba51515	0.0050379136
124	0x3c03b7bb	0.00803941
125	0xbbe4c079	-0.0069809523
126	0x3af17c9c	0.0018423977
127	0xbd354627	-0.044256356
128	0xbd665d28	-0.056241184
129	0x3d694171	0.056947175
130	0x3c1a5d78	0.009421699
131	0x3c4e458e	0.012589825
132	0x3b376509	0.0027983806
133	0x3cc5a711	0.024127515
134	0x3b5f28b8	0.003405137
135	0x3c4e6267	0.012596703
136	0xbdc8c2cd	-0.0980278
137	0x3c2b8e05	0.010470872
138	0x3c3e9d71	0.011634217
139	0x3ca2505f	0.019813715
140	0xbc182268	-0.009285547
141	0xbb553b64	-0.003253662
142	0xbcea6443	-0.028612262
143	0x3b934360	0.0044941157
144	0x3b6a03ba	0.0035707788
145	0xbac7a774	-0.00152324
146	0x3c4e36b8	0.012586288
147	0x3be8d858	0.0071058683
148	0xbc5f094b	-0.013613055
149	0x3ca653ae	0.020303573
150	0xbc0f0772	-0.008729802
151	0xbadffd76	-0.0017089087
152	0x3c444e98	0.011981629
153	0x3bf216a6	0.007387954
154	0xbbcd399c	-0.006262971
155	0xbda9d897	-0.08293264
156	0x3b8f143f	0.004366427
157	0xbcc5c634	-0.024142362
158	0xbd078987	-0.03309014
159	0xba5bc83a	-0.0008384023
160	0x3d95e01f	0.07318138
161	0xba5e6424	-0.000848355
162	0x3c5e3695	0.013562818
163	0x3d203cb6	0.0391204
164	0xbb94ded3	-0.0045431643
165	0x3c9a37a2	0.018825356
166	0x3bc1127e	0.005892097
167	0x3a78c6e7	0.0009490088
168	0xbced91aa	-0.029000122
169	0x3a43938a	0.00074606447
170	0x3afd2b58	0.0019315286
171	0xbd032717	-0.0320197
172	0x3bb33a91	0.005469628
173	0x3c27f11c	0.010250356
174	0x3a0d071f	0.0005379784
175	0x3c2a2192	0.01038398
176	0xbd54cf93	-0.05195577
177	0x3d1f3704	0.038870826
178	0x3c6805d7	0.014161549
179	0xbd6e9387	-0.05824616
180	0xbc80e13d	-0.015732402
181	0xbd98cd55	-0.07461039
182	0xbbad1df5	-0.005283112
183	0x3c4a28ed	0.012338859
184	0x3baf0d85	0.005342188
185	0xbd6f0752	-0.05835659
186	0xbd721896	-0.05910548
187	0xbdd9530a	-0.106115416
188	0xbc8b090c	-0.016972087
189	0xbc58fb71	-0.013243542
190	0x3b371ca8	0.0027940664
191	0x3c7f1713	0.015569466
192	0xbbbd18e3	-0.005770789
193	0x3c2dd5bb	0.010610039
194	0x3bde811e	0.0067902943
195	0x3afc90e3	0.0019269254
196	0xbb92288f	-0.0044604014
197	0x3c086f08	0.008327253
198	0x3cd5b1c0	0.026085734
199	0x3d7951af	0.060868915
200	0x3cc3a584	0.023882635
201	0x3c1e4e9d	0.009662298
202	0xbd8a52c3	-0.06754067
203	0x39575e49	0.00020539122
204	0x3c4a4c27	0.012347258
205	0x3d2ed342	0.04268194
206	0x3c27f5da	0.010251487
207	0x3c4771b9	0.01217311
208	0x3d236f96	0.03990134
209	0x3a385ef3	0.00070331915
210	0xbc3bf4f8	-0.011471979
211	0x3bc971c0	0.0061475933
212	0xbb390042	-0.0028228913
213	0x3d2ff668	0.0429596
214	0xbb909842	-0.004412682
215	0xba23c4ff	-0.0006247311
216	0x3c23e96b	0.010004382
217	0x3c6bb92e	0.014387412
218	0x3ac1387d	0.0014741566
219	0xbcaa33aa	-0.020776588
220	0xbc38fe24	-0.011291061
221	0xbd8ff466	-0.07029037
222	0xbba343f8	-0.0049824677
223	0xbd8bd043	-0.06826832
224	0xbd088fb7	-0.033340182
225	0x3d0df926	0.034661435
226	0x3cb2a2ab	0.021806082
227	0xbb9fc203	-0.004875423
228	0x3d089664	0.03334655
229	0xbc17e611	-0.009271161
230	0xbc6fd207	-0.014637477
231	0xbd321718	-0.043479055
232	0x3c859cc1	0.016310098
233	0xbcc506de	-0.024051126
234	0x3be67bf8	0.007033821
235	0x3b894f43	0.004190357
236	0xbc496294	-0.012291569
237	0xbca1f33c	-0.019769304
238	0x3b0b808b	0.0021286334
239	0xbc4ebd6e	-0.012618406
240	0x3c263dab	0.010146539
241	0xbcd60177	-0.026123745
242	0xbc389bcd	-0.011267615
243	0x3c55062f	0.013001963
244	0x3c57f8ce	0.013181878
245	0xbb02c4bf	-0.0019953696
246	0x3d2febcb	0.04294948
247	0xbd330655	-0.04370721
248	0xbbb875c5	-0.0056292736
249	0xbc4ecd20	-0.012622148
250	0x3cec05e9	0.028811412
251	0x3bb4044a	0.0054936754
252	0xbbbcf638	-0.0057666562
253	0xbc319932	-0.010839747
254	0x3d105744	0.035239473
255	0xbd9f3fb2	-0.07775821

fc3_lin.bias f4 [64]
0	0x3d290d45	0.04127242
1	0x3e0261af	0.12732576
2	0x3aafd701	0.0013415517
3	0xbcb07c1a	-0.021543551
4	0x3df54fac	0.11978087
5	0xbba73733	-0.005103016
6	0x3e02d361	0.12775947
7	0x3e05a356	0.13050589
8	0xbc66800d	-0.014068616
9	0x3e004ea6	0.12530002
10	0x3e13d6d6	0.14437422
11	0x3dcb8839	0.09938092
12	0xbcb04b45	-0.021520266
13	0x3e29af26	0.1657072
14	0xbc923dae	-0.017851677
15	0x3e1ca6fa	0.15298072
16	0x3d329d9a	0.04360733
17	0x3db7612b	0.0895408
18	0xbbf194ea	-0.0073724883
19	0x3d630f5f	0.05543458
20	0xbc723d77	-0.014785162
21	0x3e1ca905	0.15298851
22	0x3e1d70ef	0.15375112
23	0x3dc29f8f	0.0950309
24	0x3e0fd4e4	0.14046055
25	0x3e031785	0.1280194
26	0x3e004f12	0.12530163
27	0x3e2a8bb2	0.16654852
28	0xbc714a1d	-0.014727143
29	0x3e2b5fa8	0.16735709
30	0xbc8b52df	-0.01700729
31	0xbc241bb4	-0.010016371
32	0xbc0c27f2	-0.008554446
33	0x3dc3a298	0.09552497
34	0x3de0ba9c	0.10973093
35	0x3dd84f0c	0.10561952
36	0x3dfac017	0.122436695
37	0x3d69a9c1	0.057046656
38	0xbca3d1d5	-0.019997517
39	0x3d8e15b9	0.06937737
40	0xbceeea39	-0.02916442
41	0x3de760ba	0.11297746
42	0x3d4eec44	0.05051829
43	0x3d880909	0.06642348
44	0x3defa6aa	0.117017105
45	0xbc2b67bd	-0.010461745
46	0x3dc884b4	0.09790936
47	0xbc8fec65	-0.017568776
48	0x3e3b27cc	0.182769
49	0xbcb8d17d	-0.02256083
50	0xbc6ad89f	-0.014333873
51	0xbc7b0d51	-0.015322999
52	0x3d98b953	0.07457223
53	0x3c0b9629	0.008519688
54	0x3e1f8235	0.15577014
55	0x3dcc5d71	0.0997876
56	0x3dbb675a	0.09150572
57	0x3e012374	0.1261118
58	0x3df619e8	0.1201666
59	0xbca31bd8	-0.019910738
60	0x3e0957d5	0.13412412
61	0x3e072655	0.13198216
62	0xbcad49f2	-0.021153424
63	0xbc962ed3	-0.018332874

fc4.weight f4 [2, 64]
0	0x3c8e3f60	0.017364204
1	0x3e0e796f	0.1391351
2	0xbcd4d185	-0.025978813
3	0xbb67363a	-0.0035280124
4	0x3dbc5e41	0.09197665
5	0xbc88d0c6	-0.016701113
6	0x3e1454d6	0.14485487
7	0x3e1c0eac	0.15239972
8	0x3b5a0f04	0.003327311
9	0x3e04bebd	0.12963386
10	0x3e360a66	0.17777404
11	0x3e108f69	0.14117207
12	0xbb3662c5	-0.0027829867
13	0x3e17c98e	0.14822981
14	0x3caff99b	0.021481326
15	0x3e168239	0.14698114
16	0xbda85169	-0.08218653
17	0x3d9a14f1	0.075235255
18	0xbb8e15b7	-0.0043360847
19	0x3e09ba8c	0.13450068
20	0x3b267670	0.0025400184
21	0x3e0499dc	0.12949318
22	0x3e51a36b	0.20472495
23	0x3dd64665	0.104626454
24	0x3e0f7202	0.14008334
25	0xbe22f4b7	-0.15913664
26	0x3e06a9cf	0.13150714
27	0x3e4e6fa6	0.20159778
28	0x3c1b5dc6	0.009482807
29	0x3e446d44	0.19182307
30	0xbc841e41	-0.016127707
31	0x3c984d84	0.01859165
32	0xbc47da6a	-0.01219807
33	0x3e0b52c2	0.13605788
34	0x3df707ee	0.12062059
35	0xbdef4d71	-0.11684693
36	0x3dba25b6	0.09089224
37	0xbe186f02	-0.14886096
38	0xbb9baf61	-0.0047511314
39	0xbe2d10c0	-0.16900921
40	0xbb91b23b	-0.0044462956
41	0xbdef8145	-0.11694578
42	0xbdaf9d98	-0.085749805
43	0xbe1bf831	-0.15231396
44	0x3ded7dfc	0.11596295
45	0x3b01c643	0.001980201
46	0x3da37abf	0.07982396
47	0xbbfb9cd4	-0.0076786075
48	0x3e3cdea6	0.18444309
49	0x3b4e787c	0.003150492
50	0x3ac2a181	0.0014849157
51	0x3c376a50	0.0111947805
52	0xbe067c0e	-0.1313326
53	0xbd3852c5	-0.04500081
54	0x3e071b72	0.13194063
55	0x3de01b75	0.10942737
56	0x3e17d9fb	0.14829247
57	0x3dfd1696	0.123578236
58	0xbe1aa36a	-0.151014
59	0x3c83d185	0.016091118
60	0xbe3ef133	-0.18646698
61	0x3e1b9341	0.15192892
62	0x3abad111	0.001425298
63	0xbc865e67	-0.016402436
64	0xbd23d912	-0.040001936
65	0xbdd601b9	-0.10449547
66	0xbc080aa2	-0.008303316
67	0x3c1ac0ae	0.0094453525
68	0xbe014129	-0.12622513
69	0xbc2b3e7f	-0.010451912
70	0xbe32ff95	-0.1748031
71	0xbe08c070	-0.13354659
72	0xbbcf96e3	-0.006335126
73	0xbdf26b23	-0.11836841
74	0xbe2a575e	-0.1663489
75	0xbdfaa091	-0.12237657
76	0x3c41cc22	0.011828454
77	0xbe02eb68	-0.12785113
78	0xbb0bbee7	-0.0021323503
79	0xbe37553b	-0.17903607
80	0x3d8e10d5	0.06936804
81	0xbd8a02df	-0.06738829
82	0xbc4bc3f9	-0.01243686
83	0xbe0afb08	-0.13572323
84	0xbbb6bf56	-0.0055770082
85	0xbe19552b	-0.14973895
86	0xbe6fd8c7	-0.23422538
87	0xbdb8c794	-0.090224415
88	0xbe1fa79a	-0.15591279
89	0x3e1089ee	0.14115116
90	0xbe1ae72f	-0.15127252
91	0xbe4e4806	-0.20144662
92	0x3c201d9d	0.009772685
93	0xbe528775	-0.20559485
94	0xbc3d0922	-0.011537822
95	0x3c8c2e03	0.017111784
96	0x3bbd2dab	0.0057732663
97	0xbdd1c9c9	-0.102435656
98	0xbe09b636	-0.13448414
99	0x3de7826a	0.113041714
100	0xbdcc4baa	-0.09975369
101	0x3e2bdee5	0.16784246
102	0xbc4827d4	-0.012216527
103	0x3e2a8fac	0.16656369
104	0x3befb4ae	0.00731524
105	0x3e02d2b8	0.12775695
106	0x3d841fb3	0.06451359
107	0x3e05d77e	0.13070485
108	0xbdfddd7e	-0.12395762
109	0xbabd321b	-0.0014434488
110	0xbdc7acab	-0.09749731
111	0xba4269c9	-0.0007416276
112	0xbe31b0a0	-0.17352533
113	0x3c88f9f6	0.016720753
114	0x3c1e6b74	0.0096691735
115	0xbb1daff7	-0.0024061182
116	0x3e1a452d	0.15065451
117	0x3cdc276b	0.026874265
118	0xbe1f42da	-0.15552846
119	0xbdf83f81	-0.121214874
120	0xbdfd6a72	-0.123738185
121	0xbe0d61de	-0.13806865
122	0x3e144fa4	0.14483505
123	0x3c298750	0.010347202
124	0x3e3e1131	0.18561246
125	0xbe0fe8c4	-0.14053637
126	0x3bce792b	0.0063010654
127	0xba8d1693	-0.0010764174

fc4.bias f4 [2]
0	0x3f7cb18e	0.98708427
1	0xbf7f3423	-0.9968893
