MWNet/old_data_results/checkpoints/model_epoch_470.pt (torch, 234127 bytes, 8 tensors)

fc1_lin.weight f4 [256, 64]
0.015616318 -0.013690939 0.007815872 -0.018815897 -0.0047533894 0.009535883 0.009663789 -0.006208089
-0.0018773985 7.993838e-05 -6.7969464e-05 0.0024191819 0.0023754353 -0.015777543 0.0125944 -8.8352885e-05
-0.0033186607 -0.0070021576 -0.008569807 0.0024920055 0.018664824 -0.008830757 0.011043119 0.0113878315
0.0021713495 -0.011180196 0.012362189 -0.003180309 -0.01452915 0.0028264467 -0.005904964 0.0010130515
0.0031577505 0.0105968835 -0.019445965 0.01833815 0.0046739886 -0.011887217 0.0044760406 0.014484588
0.0042277076 -0.00023926592 0.017591445 -0.01252361 -0.009485724 0.018727807 -0.017459873 0.0055268505
0.0069938744 0.0036605967 0.015763836 0.0037442623 -0.0009861423 0.016286954 -0.0067401174 0.0029444403
-0.0019577302 0.01437692 -0.005564172 0.004544759 0.01544912 -0.012346813 0.012085321 0.015876396
-0.007115899 0.03296763 -0.006488718 0.0025483398 0.004343448 -0.009373893 0.0098377755 0.016394762
0.03412403 0.028121158 0.014544994 0.018480364 0.027449312 -0.0110419 0.009587526 0.004700884
-0.007471158 0.00028816075 0.014332125 -0.003161825 -0.014195463 -0.006302813 -0.0013193642 -0.0014403795
-0.018341228 -0.014464528 -0.011280376 -0.017280644 0.014653127 -0.010279595 0.05821334 -0.010984879
0.00868851 0.011544172 0.011252653 -0.107463 0.009560368 0.018182585 0.00021742753 -0.010956128
0.02951194 0.01793392 -0.013392231 -0.043653753 -0.011591167 -0.005940065 -0.016350435 0.002562105
0.015501178 0.046922226 -0.011023307 0.0058853514 -0.006706501 0.0021955722 0.018762654 -0.0020263328
0.015160609 -0.0052245595 -0.010419052 -0.015595785 0.0013395987 0.0042961054 0.0011420322 -0.017918792
-0.005818218 -0.0023460179 0.0030313842 -0.01119162 -0.00831525 0.00011685437 -0.011014546 -0.009048224
0.011368136 0.0069851573 0.01850478 -0.010951712 -0.010466897 -0.028052919 -0.0169562 0.015238858
0.0094592655 -0.01455452 -0.0012190691 0.009637135 -0.011821942 -0.00935662 0.009174082 -0.011494384
0.015518776 -0.010770877 0.01933846 -0.01306449 -0.017169142 -0.007170969 0.010949566 0.0013072519
0.0010003052 0.009238944 0.013826251 -0.011597702 -0.011873927 -0.0166838 -0.008764254 -0.01695398
0.09145168 -0.014651451 0.013491266 0.0108279865 -0.004888216 0.0014420521 -0.010986102 -0.014349598
-0.009488694 -0.0070422855 0.013433042 -0.0021246115 -0.0017355379 0.0030840703 0.0035910378 -0.019067049
0.0072091473 0.0042169415 0.008615957 0.015552482 -0.0017551542 -0.016713306 -0.023100972 -0.008046576
0.060093604 -0.006685132 -0.016233616 -0.00467248 0.0023040173 0.0180296 -0.0096170725 -0.0153692495
-0.061294217 -0.019651448 -0.019102015 0.0049073854 0.012201464 0.065497294 0.030627545 0.016150108
-0.0023532077 0.017580641 0.007506248 -0.016385192 0.065591544 0.0048902 -0.0014325215 0.025863903
-0.01407806 -0.015949817 -0.018193342 0.0042765546 -0.003862714 0.01837091 -0.10738796 -0.04899133
0.0060313935 -0.011956694 -0.003930504 0.1416302 -0.008782174 -0.02014909 -0.026020363 0.0071998504
0.055551313 0.009580337 -0.015168278 0.03889323 0.011618884 0.019132365 -0.019574052 -0.015280713
0.0062682526 -0.04193162 0.008958127 -0.016639803 0.027121438 -0.006695669 0.014023681 -0.06423864
0.015362282 0.008049894 0.023732698 -0.0195993 -0.00685112 0.016639588 -0.012445675 -0.011349749
00000000: 96db 7f3c f64f 60bc 250e 003c cc23 9abc
00000010: 52c2 9bbb 643c 1c3c de54 1e3c 3a6d cbbb
00000020: 0a13 f6ba 97a4 a738 d48a 8eb8 238b 1e3b
00000030: 31ad 1b3b e83f 81bc be58 4e3c 184a b9b8
00000040: e37d 59bb 5b72 e5bb 6068 0cbc ea50 233b
00000050: f9e6 983c e1ae 10bc 33ee 343c 0794 3a3c
00000060: 334d 0e3b 242d 37bc c78a 4a3c bb6c 50bb
00000070: ac0b 6ebc e83b 393b 6e7e c1bb 5ec8 843a
00000080: 43f2 4e3b 8d9e 2d3c 254d 9fbc e339 963c
00000090: 4228 993b 9ac2 42bc c0ab 923b c450 6d3c
000000a0: 9588 8a3b 75e3 7ab9 ef1b 903c d42f 4dbc
000000b0: 036a 1bbc 0f6b 993c 0208 8fbc 951a b53b
000000c0: df2c e53b 9fe6 6f3b 2923 813c 4c62 753b
000000d0: 7241 81ba 386c 853c 34dc dcbb 83f7 403b
000000e0: 434d 00bb 2c8d 6b3c a853 b6bb 34ec 943b
000000f0: 4e1e 7d3c 4a4a 4abc 8301 463c 370f 823c
00000100: 7d2c e9bb 1109 073d 509f d4bb 0c02 273b
00000110: 7c53 8e3b f594 19bc 9f2e 213c 4f4e 863c
00000120: a4c5 0b3d 585e e63c 204e 6e3c 2264 973c
00000130: 61dd e03c 16e9 34bc 0015 1d3c e009 9a3b
00000140: 9ed0 f4bb 4814 9739 4ad1 6a3c 9f36 4fbb
00000150: 1694 68bc d487 cebb 84ee acba 1ecb bcba
00000160: 5840 96bc a1fc 6cbc 54d1 38bc 2390 8dbc
00000170: ab13 703c bf6b 28bc 1c71 6e3d ecf9 33bc
00000180: 415a 0e3c c423 3d3c 0c5d 383c 9015 dcbd
00000190: 17a3 1c3c a5f3 943c 42fd 6339 5581 33bc
000001a0: 06c3 f13c 28ea 923c 176b 5bbc 47ce 32bd
000001b0: e1e8 3dbc e0a4 c2bb 59f1 85bc fde8 273b
000001c0: a7f8 7d3c 8531 403d 1a9b 34bc e8d9 c03b
000001d0: 35c2 dbbb 97e3 0f3b 23b4 993c 39cc 04bb
000001e0: 3464 783c c832 abbb acb4 2abc 7785 7fbc
000001f0: 7995 af3a 58c6 8c3b 3eb0 953a 6eca 92bc
00000200: c0a6 bebb a6bf 19bb 30aa 463b 0e5d 37bc
00000210: b03c 08bc b60f f538 5b76 34bc 013f 14bc
00000220: 6b41 3a3c bfe3 e43b 5697 973c cf6e 33bc
00000230: 597d 2bbc 3ccf e5bc bbe7 8abc 67ac 793c
00000240: 09fb 1a3c 1576 6ebc 2cc9 9fba 13e5 1d3c
00000250: d2b0 41bc 824c 19bc e44e 163c f152 3cbc
00000260: 7742 7e3c 5578 30bc b16b 9e3c 710c 56bc
00000270: 4da6 8cbc 73fa eabb cf65 333c 1858 ab3a
00000280: ac1c 833a f15e 173c 8087 623c 4a04 3ebc
00000290: dc8a 42bc 77ac 88bc f297 0fbc 13e3 8abc
000002a0: 054b bb3d a40c 70bc 790a 5d3c de67 313c
000002b0: 542d a0bb 3d03 bd3a 0dff 33bc 941a 6bbc
000002c0: 7876 1bbc f9c2 e6bb 4316 5c3c 113d 0bbb
000002d0: fd7a e3ba 1d1e 4a3b 9e57 6b3b 8032 9cbc
000002e0: b63a ec3b 452e 8a3b f129 0d3c d6cf 7e3c
000002f0: 340d e6ba 58ea 88bc 403e bdbc c9d5 03bc
00000300: b624 763d f40e dbbb 5cfc 84bc 9a1b 99bb
00000310: fffe 163b d0b2 933c ed90 1dbc 4ecf 7bbc
00000320: a50f 7bbd 13fc a0bc d47b 9cbc 22ce a03b
00000330: a6e8 473c 7223 863d 9ee6 fa3c 3b4d 843c
00000340: 4638 1abb 4705 903c f9f6 f53b 3d3a 86bc
00000350: dc54 863d f93d a03b 72c3 bbba 89e0 d33c
00000360: aaa7 66bc 31a9 82bc 340a 95bc 5722 8c3b
00000370: 9625 7dbb 977e 963c 38ee dbbd 22ab 48bd
00000380: ffa2 c53b 02e6 43bc 75cb 80bb 8207 113e
00000390: 1ce3 0fbc b40f a5bc a828 d5bc b9ec eb3b
000003a0: c689 633d d9f6 1c3c 5e84 78bc 824e 1f3d
000003b0: 225d 3e3c 7abb 9c3c c359 a0bc f55b 7abc
000003c0: ea65 cd3b 7ec0 2bbd 1cc5 123c 3250 88bc
000003d0: c72d de3c 5867 dbbb 95c3 653c 8c8f 83bd
000003e0: 15b2 7b3c b4e3 033c 136b c23c b68e a0bc
000003f0: 5c7f e0bb bf4f 883c f2e8 4bbc 4cf4 39bc

fc1_lin.bias f4 [256]
-0.002892552 0.0042714323 -0.0049220175 -0.04472706 0.0077328812 0.006397612 -0.018548701 -0.018323556
-0.00927157 -0.025576029 -0.005884842 -0.011306497 -0.00894293 0.016275454 -0.04093569 -0.0065138508
0.008205151 -0.008982026 -0.008605005 -0.015126528 -0.006425598 -0.0010243455 0.018226597 -0.015418544
-0.0011568678 -0.026948752 -0.009165004 0.012502896 0.013218584 -0.004406858 -0.00024235088 -0.019552274
-0.029523898 0.009719688 -0.012572217 -0.0011563678 -0.015376384 -0.052601557 0.05051565 -0.029213851
0.006431615 -0.0015157087 -0.010459196 -0.007146763 0.012441139 -0.009022857 0.060427327 0.045583483
-0.039910946 -0.0063534435 -0.014841504 -0.0014645817 0.0127733145 -0.0151265655 0.0041157734 0.041110344
-0.0043250644 -0.015173919 -0.019248802 -0.015736049 -0.0063821166 -0.01414314 -0.005429299 0.0081537
-0.00035978731 -0.019028304 -0.018859163 -0.013648837 -0.00824161 0.019817885 0.036669537 0.059920195
-0.0010967719 -0.015242338 -0.00922708 0.0014810563 -0.009280096 -0.014874471 0.002098278 0.0015018478
-0.01185671 -0.013501591 0.01780694 -0.01683216 0.0038410902 0.008934593 0.0082201 -0.008584109
-0.0460092 -0.018828653 -0.008363696 -0.0040460117 -0.022665942 0.012789299 -0.013255196 -0.021052156
0.041402 -0.018927936 0.0021823319 -0.01173699 -0.00023402112 -0.017911239 -0.017171958 -0.0012206156
-0.009931238 0.038339242 -0.019688152 0.051064935 -0.0030025903 -0.0054218005 -0.016845554 -0.021253506
-0.0107723735 -0.020847779 -0.017988905 -0.0013241766 0.010909726 -0.016068872 -0.013023596 -0.014096958
0.001794302 -0.00077883346 0.004080393 0.0014743673 0.005326883 -0.018934375 -0.016710564 0.0016090246
-0.02667627 0.001269197 0.025330668 0.012743158 0.005282133 -0.011197441 -0.013515456 0.009763082
0.00075103616 -0.002386256 0.015337539 -0.017337365 -0.015638757 0.00031080146 -0.005659355 -0.031052409
-0.005647692 -0.0012990269 0.023227453 -0.0103014335 0.024851823 0.018936416 -0.0040387046 -0.006239467
0.0020920725 0.012482791 -0.0055835783 0.001251165 0.014946409 0.017137656 -0.025561858 -0.025113285
0.04287214 -0.011556369 -0.013251128 -0.029057017 0.018670047 0.02323397 0.022185864 0.003992915
-0.0086676525 -0.005470276 -0.025916249 -0.015931139 0.05413709 -0.012697898 0.0014339044 0.011722843
0.0019192826 0.005750311 -0.015198561 0.033692624 -0.010921122 -0.055940438 -0.011212716 4.655655e-05
-0.0024531158 -0.0023397903 -0.009153739 0.008951907 0.0011137363 -0.013384982 -0.0064086486 0.011248667
-0.003663408 -0.015888501 -0.011617282 0.05484434 0.059098262 -0.017082304 -0.034757078 -0.010924656
-0.006669492 0.041223686 -0.0023165466 0.006713808 -0.0036264965 0.0050584674 0.06070141 -0.0041606524
-0.03149812 0.013459035 -0.008865871 -0.012812522 0.016096592 -0.017646378 0.0142378695 0.012100987
0.019580225 -0.008909641 -0.016481878 -0.007857109 0.059531476 -0.014199442 -0.0058607506 -0.0011673664
-0.0038374034 -0.0034236717 -0.035368495 0.02029088 0.006976851 -0.0004306752 -0.0061907475 0.023929859
0.00078354054 0.013420758 -0.016806956 0.06698241 -0.057184797 0.0017481872 -0.015927352 0.008487058
-0.011964506 -0.01501979 -0.017001275 -0.034061816 -0.010323218 0.0053688153 -0.014210287 0.015545487
-0.019143648 -0.025630763 -0.06673299 0.009096703 -0.035861034 -0.008861136 -0.020605095 -0.020761557
00000000: f890 3dbb 5ff7 8b3b e048 a1bb b933 37bd
00000010: 1c64 fd3b 0fa3 d13b 72f3 97bc 481b 96bc
00000020: c8e7 17bc d284 d1bc a2d5 c0bb e33e 39bc
00000030: 5e85 12bc 1a54 853c 2fac 27bd 2472 d5bb
00000040: e66e 063c 5929 13bc 02fc 0cbc 42d5 77bc
00000050: d38d d2bb 5543 86ba f24f 953c 109e 7cbc
00000060: 0ba2 97ba a1c3 dcbc d028 16bc f2d8 4c3c
00000070: c292 583c 6767 90bb 921f 7eb9 172c a0bc
00000080: 1adc f1bc 543f 1f3c b3fb 4dbc 4491 97ba
00000090: 3bed 7bbc bb74 57bd 80e9 4e3d e351 efbc
000000a0: 4cc0 d23b bfaa c6ba 0c5d 2bbc 652f eabb
000000b0: ebd5 4b3c 9bd4 13bc a582 773d bfb5 3a3d
000000c0: a979 23bd 8c30 d0bb c829 73bc 35f7 bfba
000000d0: 2a47 513c 6ad5 77bc 9cdd 863b 5263 283d
000000e0: 45b9 8dbb 079c 78bc aaaf 9dbc e3e8 80bc
000000f0: 1321 d1bb a1b8 67bc 43e8 b1bb 1997 053c
00000100: d6a1 bcb9 3fe1 9bbc 887e 9abc 5f9f 5fbc
00000110: d107 07bc 1e59 a23c cc32 163d e16e 753d
00000120: 8fc1 8fba 00bb 79bc 2e2d 17bc 0120 c23a
00000130: 8b0b 18bc 0eb4 73bc 4383 093b a6d9 c43a
00000140: a542 42bc c735 5dbc dcdf 913c 99e3 89bc
00000150: cdba 7b3b 6662 123c 99ad 063c 5da4 0cbc
00000160: 2574 3cbd 8c3e 9abc e207 09bc 6894 84bb
00000170: edad b9bc 358a 513c 522c 59bc 9275 acbc
00000180: 2595 293d c20e 9bbc 7405 0f3b 814c 40bc
00000190: 9163 75b9 97ba 92bc 35ac 8cbc 10fd 9fba
000001a0: a2b6 22bc 9c09 1d3d 0c49 a1bc 7729 513d
000001b0: 1bc7 44bb 5ca9 b1bb b0ff 89bc d51b aebc
000001c0: 9c7e 30bc f6c8 aabc 785d 93bc fe8f adba
000001d0: b5be 323c dea2 83bc ec60 55bc edf6 66bc
000001e0: c92e eb3a a12a 4cba d1b4 853b 8f3f c13a
000001f0: 228d ae3b 431c 9bbc 98e4 88bc e8e5 d23a
00000200: 3188 dabc 2f5b a63a 4382 cf3c aec8 503c
00000210: be15 ad3b 7975 37bc ee6f 5dbc 55f5 1f3c
00000220: 2fe1 443a bb62 1cbb 4d4a 7b3c 1707 8ebc
00000230: da1c 80bc 11f3 a239 1c72 b9bb 9f61 febc
00000240: 4610 b9bb 1c44 aaba 8047 be3c 58c7 28bc
00000250: 0d96 cb3c 8b20 9b3c 1c57 84bb 7174 ccbb
00000260: 271b 093b 9f84 4c3c 73f6 b6bb 22fe a33a
00000270: c8e1 743c 4564 8c3c 1a67 d1bc 60ba cdbc
00000280: b29a 2f3d ed56 3dbc 421b 59bc fb08 eebc
00000290: edf1 983c 2b55 be3c 21bf b53c 00d7 823b
000002a0: c502 0ebc 0040 b3bb 504e d4bc 0582 82bc
000002b0: dabe 5d3d d80a 50bc d9f1 bb3a 2b11 403c
000002c0: 7090 fb3a 1b6d bc3b 6303 79bc 4701 0a3d
000002d0: 81ee 32bc cd21 65bd 8ab5 37bc b745 4338
000002e0: 74c4 20bb 2b57 19bb 90f9 15bc 05ab 123c
000002f0: cafa 913a af4c 5bbc a4ff d1bb 544c 383c
00000300: ca15 70bb 9a28 82bc 6a56 3ebc 75a4 603d
00000310: 0511 723d 30f0 8bbc 705d 0ebd 54fd 32bc
00000320: c18b dabb 2bda 283d 34d1 17bb 81ff db3b
00000330: 84aa 6dbb 80c1 a53b 0ba2 783d 1556 88bb
00000340: 2c04 01bd 4983 5c3c 2842 11bc 9deb 51bc
00000350: 00dd 833c 238f 90bc f445 693c 3843 463c
00000360: b566 a03c bef9 11bc 0105 87bc 1bbb 00bc
00000370: 47d7 733d c7a4 68bc 8a0b c0bb 5102 99ba
00000380: f27c 7bbb ae5f 60bb 8ede 10bd 0f39 a63c
00000390: 119e e43b 3fcc e1b9 c1db cabb 8d08 c43c
000003a0: 8466 4d3a bde2 5b3c beae 89bc 132e 893d
000003b0: 9b3a 6abd 6e23 e53a 147a 82bc 4d0d 0b3c
000003c0: c606 44bc 9115 76bc 4246 8bbc 6784 0bbd
000003d0: b722 29bc e3ec af3b 43d2 68bc 80b2 7e3c
000003e0: 24d3 9cbc 9bf7 d1bc 4eab 88bd 560a 153c
000003f0: 05e3 12bd 4c2e 11bc 04cc a8bc 2414 aabc

fc2_lin.weight f4 [128, 256]
-0.0019068079 -0.0006417665 -0.0019381602 0.033541597 -0.0043867375 0.00198887 -0.009777567 0.00896662
0.00172531 0.010252499 0.0010961179 -0.0026837892 -0.0024025496 -0.029069103 0.07732048 0.008637744
0.0006715364 0.0037874829 -0.006928058 0.0065165577 0.0090034185 -0.00791222 -0.0020816377 -0.0004128666
-0.003730903 0.10596152 0.00036992898 -0.004177709 -0.0032026132 0.008176151 -0.0029058524 0.008371422
0.041063648 -0.06111491 0.029134337 0.003178087 -0.0016701162 0.034607224 -0.0096744215 0.0154839745
9.045613e-05 -0.0028777288 -0.0048895003 0.008223467 -0.007993593 -0.0056289826 -0.032835413 -0.023634378
0.046737175 -0.004510818 -0.006721721 -0.00493651 0.008362172 -0.004851873 0.0052713337 -0.020273149
-0.00030562247 0.0061633475 0.067705214 0.0097565 -0.0019447964 -0.0044053015 0.003365586 -0.001490228
0.048647273 0.002151839 -0.0005413713 -0.0091521125 -0.009674961 -0.0009705123 -0.021287838 -0.027727503
-0.009540647 -0.0028571761 0.015919305 -0.009440234 0.009183194 0.0027643505 0.0055754134 0.0065204706
0.0045246477 0.0074719335 -0.010891392 -0.004967501 0.00856571 0.007214666 -0.008161895 0.0069236117
0.09680774 0.0017146091 -0.002863156 0.009654939 0.07874186 0.00840103 -0.004858969 -0.0053635756
-0.08776922 -0.0017114676 -0.004922505 0.0026557501 0.003965672 0.0052831573 0.0096671125 -0.007070904
-0.008878175 -0.015535816 -0.008415319 0.0030332457 0.008364011 0.0023930543 0.049667805 0.06549832
0.0077564344 0.0094750635 -0.0021820473 -0.007818011 0.0006507885 0.009165326 0.00016706908 -0.0009664692
-0.00608592 0.0001693297 -0.004312889 0.0067568724 -0.0053165494 0.0059828875 0.007957734 -0.00074440433
0.11411401 -0.018342793 0.0018941724 0.0008563192 -0.0011238129 -0.008709093 0.000523114 -0.0019332209
-0.0020411655 -0.0023499215 0.002282159 0.0032566045 -0.0031736013 -0.0021108224 0.07673553 0.047734503
-0.009625697 0.004839199 0.0043499195 0.0030087957 -0.042194318 -0.008880214 -0.002836082 -0.008308667
-0.0081010135 -0.0043287287 0.0073088454 -0.0077408557 0.008112718 -0.0032458266 0.07067267 0.05915899
-0.044723358 0.00967956 -0.0023878121 0.056065843 -0.044935886 -0.02407139 -0.028002013 -0.002625247
-0.0074708518 -0.00087845966 0.022443444 -0.0033812993 -0.07088014 0.06593885 -0.0053389594 -0.004300725
-0.00024115416 -0.006429014 0.00862596 -0.02665366 0.0075949347 0.06744447 0.015303131 -0.010184663
-0.0047239605 -0.007892023 -0.0063764625 -0.010117267 -0.0015688721 -0.0024604658 -0.002845551 -0.0013606017
-0.009332969 0.004197934 0.0037700103 -0.05547671 -0.053625427 0.0070876675 0.008371367 0.0074964697
0.0065218094 -0.016908836 -0.0045164097 -0.0065586427 -0.0019368908 -0.008204928 -0.069871925 0.060100093
0.09404585 -0.008613393 -0.0021127146 0.024273895 -0.014102268 0.00022480308 0.009184375 -0.005736686
-0.05381736 0.0013136985 0.00011149086 -6.060375e-05 -0.06604529 -0.004104892 -0.00068073167 0.0074932976
-0.008709745 0.008764056 0.11093836 -0.066202156 0.0028756103 -0.0074339844 0.030750044 -0.0038323961
-0.006633529 -0.0030778577 0.06410226 -0.03272919 0.021647938 -0.004766939 0.00011771711 -0.0009275259
-0.0073949057 0.0023525932 0.009359035 0.015330946 0.002526372 -0.0071867434 -0.006218665 0.004816708
-0.008886645 0.071959674 0.08014089 0.0024860983 0.09507289 6.425064e-05 -0.0071174093 -0.005113204
00000000: dbed f9ba 393c 28ba dd09 feba ea62 093d
00000010: 9fbe 8fbb b457 023b 1732 20bc bbe8 123c
00000020: cc23 e23a 19fa 273c 9dab 8f3a 83e2 2fbb
00000030: 1874 1dbb 5422 eebc 335a 9e3d 5385 0d3c
00000040: 0c0a 303a 6b37 783b c304 e3bb d988 d53b
00000050: 1383 133c 42a2 01bc 166c 08bb 0476 d8b9
00000060: 2a82 74bb 5a02 d93d 07f3 c139 2ae5 88bb
00000070: efe2 51bb 43f5 053c 1d70 3ebb 4a28 093c
00000080: 5b32 283d a153 7abd 22ab ee3c 7447 503b
00000090: cde7 daba 4ec0 0d3d 7781 1ebc 7fb0 7d3c
000000a0: 44b3 bd38 4798 3cbb 1a38 a0bb b8bb 063c
000000b0: 8ff7 02bc 5473 b8bb 6d7e 06bd e29c c1bc
000000c0: 7b6f 3f3d 7ccf 93bb e241 dcbb 73c2 a1bb
000000d0: 7e01 093c 76fc 9ebb 27bb ac3b e013 a6bc
000000e0: f43b a0b9 e8f5 c93b 08a9 8a3d bad9 1f3c
000000f0: 8ae8 feba 595a 90bb 2a91 5c3b c153 c3ba
00000100: 5d42 473d de05 0d3b d0ea 0dba bef2 15bc
00000110: ba83 1ebc fa69 7eba d563 aebc ca24 e3bc
00000120: 6050 1cbc 763f 3bbb 3469 823c 36ab 1abc
00000130: 1b75 163c 1b2a 353b f5b1 b63b aca9 d53b
00000140: 7f43 943b 1fd7 f43b cf71 32bc 6bc6 a2bb
00000150: 3157 0c3c 0169 ec3b 78b9 05bc 77df e23b
00000160: 2343 c63d bcbc e03a c9a3 3bbb c02f 1e3c
00000170: 6a43 a13d 79a4 093c fc37 9fbb efc0 afbb
00000180: 59c0 b3bd 5353 e0ba f74c a1bb 180c 2e3b
00000190: 78f2 813b 561e ad3b cf62 1e3c 0bb3 e7bb
000001a0: c475 11bc ef89 7ebc 68e0 09bc 6bc9 463b
000001b0: 3409 093c cad4 1c3b 7870 4b3d fc23 863d
000001c0: b029 fe3b 4c3d 1b3c ae00 0fbb 1d17 00bc
000001d0: ad99 2a3a 2a2a 163c 442f 2f39 a65a 7dba
000001e0: 666c c7bb 188e 3139 2353 8dbb c168 dd3b
000001f0: 7336 aebb 190c c43b 2861 023c 2124 43ba
00000200: 9bb4 e93d a043 96bc e145 f83a 9c7a 603a
00000210: e74c 93ba 95b0 0ebc 9621 093a 2164 fdba
00000220: 13c5 05bb 2401 1abb 4690 153b c26c 553b
00000230: 32fc 4fbb b955 0abb 8427 9d3d 4185 433d
00000240: 19b5 1dbc 2592 9e3b c589 8e3b 372f 453b
00000250: f3d3 2cbd 517e 11bc 8fdd 39bb 1321 08bc
00000260: 1dba 04bc 02d8 8dbb 0a7f ef3b 01a7 fdbb
00000270: 35eb 043c efb7 54bb d5bc 903d b250 723d
00000280: d72f 37bd 0497 1e3c d77c 1cbb 4ca5 653d
00000290: b10e 38bd 5d31 c5bc 7a64 e5bc 560c 2cbb
000002a0: 0cce f4bb 6e48 66ba 50db b73c ca98 5dbb
000002b0: 9b29 91bd f30a 873d 70f2 aebb 19ed 8cbb
000002c0: 54de 7cb9 7aaa d2bb e653 0d3c c758 dabc
000002d0: eede f83b 5420 8a3d fcb9 7a3c 93dd 26bc
000002e0: 74cb 9abb 8b4d 01bc a5f1 d0bb e5c2 25bc
000002f0: 9da2 cdba c43f 21bb 6c7c 3abb 3856 b2ba
00000300: 4fe9 18bc d38e 893b 4712 773b 8c3b 63bd
00000310: 56a6 5bbd aa3f e83b 0f28 093c f2a4 f53b
00000320: e7b4 d53b 6684 8abc 64fe 93bb e2e9 d6bb
00000330: 45df fdba f66d 06bc 0319 8fbd 842b 763d
00000340: 1c9b c03d 301f 0dbc 7875 0abb 0cda c63c
00000350: 330d 67bc 1eb9 6b39 107a 163c cffa bbbb
00000360: 986f 5cbd 6830 ac3a 33d0 e938 c830 7eb8
00000370: c142 87bd 5482 86bb 2173 32ba 568a f53b
00000380: 51b3 0ebc 1d97 0f3c a733 e33d ff94 87bd
00000390: bc74 3c3b c898 f3bb 84e7 fb3c f028 7bbb
000003a0: 135e d9bb e2b5 49bb 0c48 833d 0b0f 06bd
000003b0: 0457 b13c fc33 9cbb e4de f638 3625 73ba
000003c0: f750 f2bb f72d 1a3b a356 193c a62e 7b3c
000003d0: 7d91 253b c67e ebbb f1c5 cbbb 7ad5 9d3b
000003e0: 4a99 11bc 985f 933d e820 a43d cfed 223b
000003f0: 93b5 c23d 4dbe 8638 2839 e9bb aa8c a7bb

fc2_lin.bias f4 [128]
-0.010398844 0.0552008 0.04704041 0.013777631 0.005246819 0.007086846 -0.01606741 -0.00092837185
-0.007723706 0.0035175954 -0.020438947 0.07891377 -0.016369019 -0.025234245 0.032407477 0.011240221
0.0073145493 -0.0062503777 0.007942361 0.067911334 -0.0075033787 0.014960031 -0.012880893 -0.0060173925
0.0065770256 -0.009580386 -0.009045588 0.0018074188 0.028404873 0.05121435 0.007832464 0.060323432
0.0690124 -0.011478624 0.0013115898 0.05324657 -0.009138142 0.058028977 -0.009793769 0.004550324
0.04938882 -0.013533491 0.0030056278 0.04428905 0.011135266 -0.009426491 0.0182554 -0.011177526
-0.013117969 0.04257784 0.004600123 0.07446508 -0.008558306 -0.01833473 -0.02373595 -0.023616163
-0.0062293094 -0.021935089 0.005877547 -0.016528271 0.037047897 0.009524439 -0.01682348 0.011802067
0.0291299 -0.010686236 0.051612362 0.067915864 0.01594416 -0.0006052524 0.040777016 0.050460935
0.05280002 0.082254976 0.0055510662 -0.008811572 -0.0040259706 0.055248007 -0.027487092 0.004715984
0.010676063 -0.010541774 -0.0060230363 -0.006504878 -0.0058708144 0.07525669 -0.007827336 -0.0042839404
-0.0049624084 -0.013407576 -0.0127172 0.048663836 -0.0073069716 -0.01797376 -0.009463703 -0.013039293
0.060730796 0.030949943 0.014092478 -0.010134904 -0.013251134 -0.009516043 0.048208877 0.019439649
-0.031667598 0.024881754 -0.0043236245 -0.013480817 -0.013326086 0.0379971 -0.002332007 -0.00639674
-0.009998813 0.012222346 -0.006690844 0.006258942 -0.0058293883 0.06292835 0.07727455 -0.024394209
-0.009485864 0.054494884 0.0057863593 -0.0057024597 -0.0042940225 -0.003095935 0.06417004 -0.01636905
00000000: ea5f 2abc 3c1a 623d 72ad 403d 93bb 613c
00000010: 82ed ab3b c638 e83b cd9f 83bc fb5d 73ba
00000020: 2417 fdbb 7587 663b 946f a7bc 8b9d a13d
00000030: 5218 86bc 0cb8 cebc b4bd 043d e728 383c
00000040: e3ae ef3b f8cf ccbb ad20 023c 1915 8b3d
00000050: e7de f5bb eb1a 753c 620a 53bc 8c2d c5bb
00000060: 1784 d73b 0df7 1cbc f233 14bc e9e6 ec3a
00000070: 56b1 e83c 23c6 513d bc53 003c b415 773d
00000080: 6056 8d3d d710 3cbc a7e9 ab3a 1319 5a3d
00000090: 25b8 15bc cbaf 6d3d 0b76 20bc e21a 953b
000000a0: ee4b 4a3d 93bb 5dbc 11fa 443b 6f68 353d
000000b0: b170 363c 9271 1abc 598c 953c f121 37bc
000000c0: c0ec 56bc 1a66 2e3d a1bc 963b 2681 983d
000000d0: 2338 0cbc b732 96bc e571 c2bc af76 c1bc
000000e0: 3c1f ccbb 37b1 b3bc 7098 c03b 4c66 87bc
000000f0: 89bf 173d 650c 1c3c 65d1 89bc 755d 413c
00000100: d4a1 ee3c 5315 2fbc 7c67 533d 7917 8b3d
00000110: 549d 823c cda9 1eba cd05 273d 20b0 4e3d
00000120: d544 583d 4c75 a83d b8e5 b53b 695e 10bc
00000130: 4aec 83bb bc4b 623d 9c2c e1bc 8b88 9a3b
00000140: a7ea 2e3c 68b7 2cbc e45c c5bb df26 d5bb
00000150: f65f c0bb 2e20 9a3d 3a3e 00bc 4c60 8cbb
00000160: b39b a2bb 73ab 5bbc ce5b 50bc bb53 473d
00000170: 526f efbb b53d 93bc a60d 1bbc c2a2 55bc
00000180: dbc0 783d bc8a fd3c 23e4 663c de0c 26bc
00000190: 491b 59bc 2de9 1bbc ac76 453d e63f 9f3c
000001a0: e2b5 01bd d2d4 cb3c 31ad 8dbb a5de 5cbc
000001b0: a855 5abc d9a2 1b3d 96d4 18bb bf9b d1bb
000001c0: 10d2 23bc 3c40 483c de3e dbbb d017 cd3b
000001d0: 7404 bfbb 94e0 803d 1f42 9e3d 5dd6 c7bc
000001e0: 996a 1bbc 0736 5f3d 809b bd3b b3db babb
000001f0: dfb4 8cbb 2ce5 4abb 956b 833d 6318 86bc

fc3_lin.weight f4 [64, 128]
-0.052865505 0.017329918 -0.007560842 -0.016320972 0.017344203 0.033010192 -0.009425766 0.0045251693
-0.050512724 0.00062723097 0.0050590592 0.0021542406 0.0043241386 -0.002005316 -0.008386106 -0.009257266
0.015005197 0.0030962962 0.0066239145 0.0053344322 -0.009621443 0.021940282 0.011151822 -0.008736771
-0.0023739778 -0.003860386 0.0038594876 -0.047334433 -0.0052577863 0.015389536 0.0016085311 0.025757011
0.029010812 -0.0128294965 -0.003756957 -0.014779901 -0.00033969933 0.0050573577 -0.0069944714 -0.01159971
0.017657487 0.0070878435 -0.0038634008 0.007285321 -0.003788062 0.005409656 -0.008360015 -0.0019057948
-0.023097692 0.0022638342 -0.0050113276 -0.009942399 -0.010021442 -0.06742671 -0.004676082 0.0062511815
-0.012144844 -0.043934107 -0.022128606 -0.024626805 0.012132223 0.00576425 0.012093706 0.032491963
0.02936914 0.0002058841 0.014153004 0.017712401 -0.011190418 -0.012371544 0.0062746364 0.023817895
0.003906674 0.0031817986 -0.015435481 0.0056093032 -0.013481348 1.9700197e-05 0.01206902 0.006921783
0.071772635 -0.011005735 0.010089018 0.0121164415 -0.007927447 0.015992483 0.010331414 0.011001983
-0.008246511 0.002581334 -0.0130885 -0.011907169 -0.011565593 -0.05598883 -0.0040582297 -0.03201528
-0.019265892 0.026597828 0.01512782 -0.008169025 0.010371692 -0.0023134367 -0.002672774 -0.014417434
0.0074550323 0.0047988105 -0.0075674662 -0.0069868416 -0.007908062 0.01139502 -0.0016011272 0.0071733156
-0.003309473 0.007835735 -0.013470591 -0.0047703274 -0.0047271447 0.011527063 -0.019084157 -0.01719219
-0.012588273 0.014428921 0.018255474 0.0046645515 0.0074436595 -0.006462927 0.0042403815 -0.041363236
-0.05701725 0.057953827 0.011106112 0.009155714 0.0068726316 0.026850143 0.0031527544 0.011772951
-0.09391958 0.011632184 0.010779715 0.022805769 -0.008597403 -0.0030125026 -0.021912852 0.0036044104
0.0064716693 -0.0014102806 0.0134831155 0.012027651 -0.012603989 0.024811957 -0.00808256 -0.0015824576
0.010808515 0.0068403543 -0.00579895 -0.07906278 0.0075957794 -0.016534226 -0.03349867 0.007124343
0.07473912 -0.0007854616 0.012601747 0.041457698 -0.004206494 0.023738852 0.0054553463 0.00038094117
-0.021468362 0.0006904506 0.0024092023 -0.025496062 0.00989135 0.00949071 -0.0010436049 0.009614266
-0.052733265 0.042314485 0.013086399 -0.04695971 -0.014566513 -0.07271724 -0.00489144 0.011421094
0.004946372 -0.058638997 -0.048221488 -0.10149475 -0.01177204 -0.012014177 0.0025869163 0.018691974
0.0015986362 0.009822323 0.012820884 0.007078641 -0.0031883281 0.007710553 0.030084047 0.062981494
0.027845828 0.017521536 -0.06628111 0.00018540023 0.011432472 0.043294046 0.009491758 0.014606837
0.04121935 0.0006512115 -0.010621581 0.0056918855 -0.002613709 0.044029195 -0.0040857405 -0.000578428
0.00926294 0.013320911 0.0013649395 -0.014159182 -0.010452674 -0.069352075 -0.004613221 -0.067434914
-0.026030995 0.039282404 0.022986252 -0.004514001 0.03193494 -0.008583343 -0.0065314993 -0.045000616
0.015101556 -0.01920006 0.006500321 0.0038796216 -0.011380793 -0.012376955 0.0019708744 -0.011683219
0.009394606 -0.021083253 -0.010432875 0.015404317 0.012203607 0.0039195945 0.045682225 -0.04619498
-0.0052122306 -0.0059712874 0.029433612 0.0050864164 -0.0053392057 -0.01003454 0.03847283 -0.0765053
00000000: 8089 58bd 79f7 8d3c f1c0 f7bb 8fb3 85bc
00000010: 6e15 8e3c b235 073d 876e 1abc df47 943b
00000020: 6ee6 4ebd c26c 243a 77c6 a53b 292e 0d3b
00000030: 81b1 8d3b 9f6b 03bb e165 09bc caab 17bc
00000040: 5cd8 753c 3beb 4a3b 6c0d d93b 76cc ae3b
00000050: 42a3 1dbc 1bbc b33c 22b6 363c ac24 0fbc
00000060: bd94 1bbb 88fe 7cbb 75ef 7c3b c0e1 41bd
00000070: 8249 acbb 6424 7c3c 59d5 d23a 5e00 d33c
00000080: 15a8 ed3c cf32 52bc 4737 76bb 6627 72bc
00000090: ac19 b2b9 31b8 a53b e131 e5bb b60c 3ebc
000000a0: 6fa6 903c 2441 e83b 1c31 7dbb b4b9 ee3b
000000b0: 2241 78bb 7c43 b13b 72f8 08bc ddcb f9ba
000000c0: 5f37 bdbc d65c 143b 1036 a4bb 72e5 22bc
000000d0: f930 24bc 0417 8abd d239 99bb b6d6 cc3b
000000e0: 2bfb 46bc 40f4 33bd 0d47 b5bc 27be c9bc
000000f0: 3bc6 463c 09e2 bc3b ae24 463c 4b16 053d
00000100: 8d97 f03c 98e2 5739 00e2 673c 9919 913c
00000110: 0458 37bc 04b2 4abc 779b cd3b bf1d c33c
00000120: 8f03 803b b985 503b 1ae5 7cbc 3fce b73b
00000130: dfe0 5cbc da41 a537 24bd 453c 20d0 e23b
00000140: 88fd 923d 6651 34bc 694c 253c 0a84 463c
00000150: 1fe2 01bc ab02 833c 1745 293c a941 343c
00000160: 601c 07bc 992b 293b 2671 56bc 4916 43bc
00000170: 9d7d 3dbc 8b54 65bd e6fa 84bb 7422 03bd
00000180: 81d3 9dbc b0e3 d93c adda 773c 60d7 05bc
00000190: 07ee 293c 079d 17bb b529 2fbb 1a37 6cbc
000001a0: 5849 f43b 573f 9d3b 82f8 f7bb e0f1 e4bb
000001b0: d190 01bc 2eb2 3a3c eadc d1ba 220e eb3b
000001c0: bee3 58bb 7461 003c c1b3 5cbc 6850 9cbb
000001d0: 2ae6 9abb 02dc 3c3c 6156 9cbc a3d6 8cbc
000001e0: 0b3f 4ebc 4867 6c3c 818c 953c 18d9 983b
000001f0: f1e9 f33b f6c6 d3bb e6f2 8a3b 7f6c 29bd
00000200: ec8a 69bd fe60 6d3d 69f6 353c d901 163c
00000210: d033 e13b d5f4 db3c 719e 4e3b 56e3 403c
00000220: e958 c0bd ea94 3e3c 679d 303c 2ad3 ba3c
00000230: 1fdc 0cbc 686d 45bb 9582 b3bc f937 6c3b
00000240: 4c10 d43b 2ad9 b8ba 49e8 5c3c a00f 453c
00000250: f680 4ebc 7242 cb3c b76c 04bc 776a cfba
00000260: 3316 313c 0d25 e03b 1e05 bebb abeb a1bd
00000270: 04e6 f83b c972 87bc e735 09bd 5273 e93b
00000280: d310 993d 70e7 4dba 8f77 4e3c 8ccf 293d
00000290: a1d6 89bb fb77 c23c c3c2 b23b 0fb9 c739
000002a0: 6bde afbc 5bff 343a b5e3 1d3b 1edd d0bc
000002b0: 540f 223c ec7e 1b3c 92c9 88ba 2885 1d3c
000002c0: d6fe 57bd f451 2d3d 5668 563c d358 40bd
000002d0: 62a8 6ebc c7ec 94bd 5f48 a0bb 8a1f 3b3c
000002e0: 2d15 a23b 722f 70bd e583 45bd 7bdc cfbd
000002f0: 84df 40bc 1cd7 44bc 4189 293b e91f 993c
00000300: 5489 d13a cfed 203c af0e 523c f2f3 e73b
00000310: 45f3 50bb cea8 fc3b d272 f63c 71fc 803d
00000320: ef1c e43c 5389 8f3c 64be 87bd ff67 4239
00000330: 434f 3b3c 1955 313d 5283 1b3c 8451 6f3c
00000340: 9fd5 283d 10b6 2a3a 2406 2ebc ff82 ba3b
00000350: c34a 2bbb f557 343d ade1 85bb a5a1 17ba
00000360: 96c3 173c f33f 5a3c c5e7 b23a eafb 67bc
00000370: b141 2bbc 7608 8ebd 812a 97bb 511b 8abd
00000380: f43e d5bc 96e6 203d aa4d bc3c 2fea 93bb
00000390: 36ce 023d 26a1 0cbc 3006 d6bb 9152 38bd
000003a0: 846c 773c 7249 9dbc a500 d53b 4041 7e3b
000003b0: 8176 3abc b6c8 4abc c929 013b f96a 3fbc
000003c0: d5eb 193c c9b6 acbc a6ee 2abc 6362 7c3c
000003d0: a3f1 473c f16f 803b 491d 3b3d f336 3dbd
000003e0: 5ccb aabb caaa c3bb c21e f13c f4ab a63b
000003f0: 81f4 aebb e967 24bc b095 1d3d d0ae 9cbd

fc3_lin.bias f4 [64]
0.063329354 0.13600734 0.0050246404 -0.019944284 0.13849005 -0.0047277077 0.13595258 0.11459602
-0.012535463 0.11330195 0.12326079 0.112403564 -0.019908486 0.1407636 -0.016592683 0.1346813
0.0744698 0.12888719 -0.0069018505 0.095814005 -0.013571584 0.15160601 0.117709644 0.11161619
0.115552366 0.12640126 0.13242058 0.118812054 -0.0136399735 0.11750797 -0.015685292 -0.009363694
-0.007776637 0.123827636 0.11954458 0.11492361 0.11023374 0.093869954 -0.018682456 0.08654336
-0.02703792 0.12411886 0.066704996 0.10640051 0.116723835 -0.009671894 0.11043018 -0.016223608
0.14367113 -0.020912176 -0.013306491 -0.014401192 0.07612635 0.023176981 0.13734718 0.101302065
0.09342891 0.11399677 0.13252148 -0.018364342 0.13402064 0.117410764 -0.019570699 -0.016973099
00000000: d2b2 813d 8245 0b3e bda5 a43b 3262 a3bc
00000010: 56d0 0d3e e3ea 9abb 2737 0b3e 51b1 ea3d
00000020: 8b61 4dbc da0a e83d 2770 fc3d d733 e63d
00000030: 1f17 a3bc 5524 103e 61ed 87bc e5e9 093e
00000040: 9f83 983d 01fb 033e eb28 e2bb 223a c43d
00000050: 595b 5ebc 9b3e 1b3e c111 f13d 0797 e43d
00000060: b8a6 ec3d 556f 013e 4399 073e bc53 f33d
00000070: 327a 5fbc 05a8 f03d 717e 80bc 2e6a 19bc
00000080: 29d3 febb 5899 fd3d cad3 f43d 125d eb3d
00000090: 3ac2 e13d e43e c03d f30b 99bc a53d b13d
000000a0: a17e ddbc 0732 fe3d a19c 883d 83e8 d93d
000000b0: e80c ef3d dd76 1ebc 3829 e23d 5fe7 84bc
000000c0: 861e 133e 0350 abbc 7803 5abc faf2 6bbc
000000d0: 22e8 9b3d a7dd bd3c bda4 0c3e 7577 cf3d
000000e0: a857 bf3d 2377 e93d b6b3 073e d170 96bc
000000f0: b53c 093e 0e75 f03d bb52 a0bc 2b0b 8bbc

fc4.weight f4 [2, 64]
0.043199625 0.16109087 -0.026876166 -0.003265828 0.13083908 -0.015469915 0.16803278 0.17533304
0.0033209363 0.14703223 0.18512575 0.1593286 -0.0025813417 0.16718705 0.01988746 0.15910722
-0.10496213 0.11973442 -0.004017682 0.1573736 0.0023525993 0.15632944 0.19140737 0.13893412
0.15175499 -0.15307184 0.15153497 0.19639122 0.009000829 0.18156321 -0.01494857 0.017044447
-0.011301552 0.16574207 0.14851473 -0.13317913 0.11314193 -0.15155704 -0.0041442816 -0.16085526
-0.0041045183 -0.13520993 -0.10010545 -0.16287786 0.1393566 0.0018747442 0.11508567 -0.0071540875
0.18281884 0.0029175885 0.001385098 0.010288558 -0.13266103 -0.057092965 0.15474916 0.13887133
0.16671532 0.147722 -0.1526975 0.015001511 -0.17438133 0.1724897 0.0012804467 -0.01518611
-0.06415955 -0.12901881 -0.0048651737 0.008744607 -0.16255 -0.009670719 -0.19576223 -0.15787768
-0.0061058514 -0.13660285 -0.17454642 -0.14192563 0.010956556 -0.14831804 -0.0019722239 -0.18878634
0.09309365 -0.11246928 -0.011512204 -0.15850565 -0.005164516 -0.17507488 -0.21872045 -0.12559915
-0.16641034 0.13641906 -0.16983624 -0.19625142 0.008827486 -0.19431353 -0.01066648 0.016012827
0.00535258 -0.13461135 -0.16135082 0.12965578 -0.121346764 0.16913073 -0.011565873 0.15859167
0.0067608436 0.14521992 0.08044309 0.14286919 -0.14675821 -0.0013777742 -0.13145004 -0.00064212317
-0.17271051 0.015480928 0.008942313 -0.0021512264 0.15055078 0.040309846 -0.17658876 -0.14978544
-0.14398183 -0.16113712 0.14697611 0.009477416 0.17359067 -0.16194181 0.0058733113 -0.0009972472
00000000: 17f2 303d 01f5 243e 682b dcbc 8007 56bb
00000010: aefa 053e 8775 7dbc c910 2c3e 818a 333e
00000020: 11a4 593b 9e8f 163e 9b91 3d3e 0927 233e
00000030: ba2b 29bb 1533 2b3e 07eb a23c 01ed 223e
00000040: 63f6 d6bd 5237 f53d c2a6 83bb 8c26 213e
00000050: 112e 1a3b d314 203e 4b00 443e bf44 0e3e
00000060: a965 1b3e ddbe 1cbe fc2b 1b3e c81a 493e
00000070: 3778 133c b5eb 393e d9ea 74bc cca0 8b3c
00000080: 252a 39bc 4ab8 293e 3f14 183e 1c60 08be
00000090: f5b6 e73d c531 1bbe c1cc 87bb 3eb7 24be
000000a0: 327f 86bb 7974 0abe 1604 cdbd 74c9 26be
000000b0: 7fb3 0e3e fab9 f53a 09b2 eb3d d66c eabb
000000c0: dd34 3b3e 0335 3f3b 2d8c b53a 5791 283c
000000d0: 4bd8 07be 50da 69bd 9076 1e3e 4934 0e3e
000000e0: 6cb7 2a3e 7044 173e bc5c 1cbe e6c8 753c
000000f0: 0591 32be 24a1 303e a9d4 a73a 29cf 78bc
00000100: 1566 83bd 821d 04be 096c 9fbb 8a45 0f3c
00000110: 8273 26be ef71 1ebc e575 48be b0aa 21be
00000120: 9813 c8bb 9ee1 0bbe 4cbc 32be f454 11be
00000130: 2083 333c afe0 17be 6d40 01bb 3551 41be
00000140: e2a7 be3d 4b56 e6bd af9d 3cbc 4e4f 22be
00000150: 1a3b a9bb d446 33be 41f8 5fbe 109d 00be
00000160: 7967 2abe 70b1 0b3e 8de9 2dbe 22f6 48be
00000170: 29a1 103c 20fa 46be 76c2 2ebc 552d 833c
00000180: b264 af3b 8fd7 09be 2639 25be 7cc4 043e
00000190: a784 f8bd 9b30 2d3e ca7e 3dbc db65 223e
000001a0: 118a dd3b 88b4 143e 59bf a43d 4d4c 123e
000001b0: c947 16be 6e96 b4ba d79a 06be 2854 28ba
000001c0: 06db 30be b8a3 7d3c c782 123c 97fb 0cbb
000001d0: fc29 1a3e f01b 253d afd3 34be 5b61 19be
000001e0: f96f 13be 2101 25be e880 163e 2a47 1b3c
000001f0: c1c1 313e 13d4 25be e874 c03b 10b6 82ba

fc4.bias f4 [2]
0.929135 -0.9382172
00000000: cbdb 6d3f 012f 70bf
