MWNet/old_data_results/checkpoints/model_epoch_0.pt (torch, 234127 bytes, 8 tensors)

fc1_lin.weight f4 [256, 64]
00000000: da41 c73d 84b3 aebd 7974 473d 4f1a f0bd
00000010: b69a f2bc ba5a 733d 199d 763d 0d6e 1ebd
00000020: 77a5 3fbc a68f 023a 7807 deb9 eef0 763c
00000030: af79 723c e753 c9bd 73b4 a03d 9d4e 10ba
00000040: 1b62 a9bc 36b2 32bd d6b3 5abd b964 7e3c
00000050: a027 ee3d a85c 61bd 99e8 8c3d 444e 913d
00000060: c2a7 5d3c 8fa8 8ebd 76be 9d3d f452 a2bc
00000070: 3462 b9bd 9f43 903c b9b2 16bd 27d5 ce3b
00000080: fb2b a13c 7137 873d 7f21 f8bd 3afd e93d
00000090: 4c8e ee3c 10ae 97bd 4f74 e43c 17d2 b83d
000000a0: ecc8 d73c 1764 c3ba b376 e03d 7ccd 9fbd
000000b0: eb11 72bd 6ef7 ee3d f8c9 debd 780b 0d3d
000000c0: c97b 323d 2fd6 ba3c f326 c93d 331b bf3c
000000d0: 9d56 c9bb 13d1 cf3d 8702 2cbd f448 963c
000000e0: 79d7 47bc 9773 b73d faff 0dbd a8f7 e73c
000000f0: 8421 c53d 198c 9dbd e834 9a3d cc95 ca3d
00000100: 0bcb 1abd a135 ac3d 5097 25bd bfe6 6d3c
00000110: ad48 d83c 0275 acbd ab59 7b3d 76ad cc3d
00000120: a8ff fa3d 2944 da3d 9051 bb3d 789e bf3d
00000130: c1ae 5d3d e41b 19bd 7278 833d 6954 053d
00000140: c5c1 3dbd 75d4 cf3c d724 b63d feec a6bc
00000150: f838 55bd 5ac1 19bd 1bb5 02bc 77de 8a3c
00000160: 29e2 e6bd 9eef c3bd 8574 8fbd 527b 95bd
00000170: d4d6 ad3d 7462 23bd 7523 1e3d 1e0b 95bc
00000180: c579 5c3d c1f0 923d 1078 7b3d 2570 95bd
00000190: a1fe 853d 5b0a c53d 5bd0 9ebc 5469 0fbd
000001a0: 8419 613d 08cc e43d 112e a8bd 7cca d5bd
000001b0: 4154 89bd 46a3 17bd a6b3 c2bd eb74 6dbd
000001c0: 4030 c53d 7b36 da3d a4aa 8cbd 2fa9 c23c
000001d0: 8a77 e3ba f96f 61bb f676 ee3d 25a0 dc39
000001e0: 1d1d f63d 8308 05bd 62d8 943d 0865 4bbd
000001f0: dcba 083c 76c3 ae3c 31d1 c23d 848d d2bd
00000200: 216b 44bd 5e7a 79bc 73b9 9a3c 4041 8fbd
00000210: 87a9 54bd 0f2a a3ba 9c8b 8cbd 1cd0 68bd
00000220: 8a83 ea3c 33dd 123d 7e0c ec3d 7cfd 9abd
00000230: cdbf 74bd 2643 fdbd aabb eebd ddef b43d
00000240: 5817 793d 8a47 b5bd 1e1e ecbb 1672 753d
00000250: 0810 9abd e5e7 73bd 8b48 6a3d b497 8cbd
00000260: 9c18 c53d f604 8cbd aaf0 f63d e96e 8fbd
00000270: 0e59 debd 08ca 1abd 5919 bd3b d617 013d
00000280: 7935 c83b fffc 6b3d e111 b03d f48b 033d
00000290: ea9f 93bd de92 debd 8175 6ebd 4e85 d6bd
000002a0: 268a bdbb 55f5 babd 59ee ab3d 3046 c03d
000002b0: 9619 f4bc 4866 133c 2f2f 89bd 40ea d3bd
000002c0: 98eb 71bd 4249 8bbd 0d67 ab3d 14ab 66bc
000002d0: b0b0 4d3c 2196 4e3c cbca b63c f71c cfbd
000002e0: f83b 5d3d 1a3a d73c ada6 c63d de48 b53d
000002f0: c129 33bc fbc4 dabd d7f9 c8bd 5cd0 54bd
00000300: 5dd0 7c3d 9197 623c 3022 cfbd 9fe8 d7bc
00000310: 4c6a 703c d235 19bc c0c8 75bd 2710 bbbd
00000320: 1432 04bd 6362 d7bb 5079 f6bd 9545 fa3c
00000330: 34aa 2b3d 0c84 6b3b 255d c23c a900 a13d
00000340: 148d 41bc 6bca 9c3d 28ca 543d 7c52 cebd
00000350: ef46 c7bd 4a47 0f3d 9861 2ebc 2962 4d3d
00000360: 5ca9 a9bd ec6f c3bd 5613 e9bd 6003 acbc
00000370: c01e e3bc a417 253d 86c9 273c 7320 0abd
00000380: a5be 1a3d 5ca7 97bd d3c2 c2bc 85de c63d
00000390: b2a5 60bd cfbf 5abd efb2 b3bd 8bd2 333c
000003a0: 5044 073c 1378 743d 32b6 c5bd de03 98bd
000003b0: 0ad7 533d c44c f43d 8975 ecbd 2dc5 433d
000003c0: 12d2 263d 911b 633d a0a5 643d e92b cebd
000003d0: 9202 aebd 4d2c eabc 50a7 b43d d971 f7bd
000003e0: c5f2 a3bc 9ff8 4d3d fc8f e13d a998 e9bd
000003f0: 7bdc 2ebd 5b8d ca3d 9ecf 08bd 59ab b2bd
0.09729357 -0.08530334 0.04869506 -0.11723768 -0.029614788 0.059412695 0.060208414 -0.03867917
-0.011697165 0.0004980512 -0.00042348704 0.015072091 0.014799519 -0.09830456 0.07846918 -0.00055048784
-0.020676663 -0.043626986 -0.05339416 0.015526944 0.116286516 -0.055020005 0.06880302 0.07095006
0.013528766 -0.06965744 0.07702343 -0.019814946 -0.09051934 0.01761037 -0.036791537 0.006312031
0.019674292 0.066023715 -0.12115764 0.11425252 0.029120587 -0.07406247 0.027887492 0.090244465
0.026340924 -0.0014907148 0.1096014 -0.07802865 -0.05909912 0.11668287 -0.10878366 0.034434766
0.043575082 0.022807209 0.09821882 0.0233284 -0.0061443583 0.101472996 -0.041994598 0.018345334
-0.012197369 0.08957594 -0.034667946 0.028316334 0.09625533 -0.07692737 0.07529622 0.09891853
-0.037791293 0.084086664 -0.040427506 0.014520346 0.026401842 -0.08420755 0.06136481 0.099940225
0.12255794 0.10657532 0.09146416 0.093563974 0.054121736 -0.037380114 0.064194575 0.032551203
-0.04632737 0.025369862 0.088937454 -0.020376679 -0.052056283 -0.03753791 -0.007977749 0.016951783
-0.112736054 -0.09567188 -0.07004646 -0.07298912 0.08488241 -0.039888814 0.038608033 -0.018193778
0.053827066 0.071748264 0.061393797 -0.072967805 0.06542707 0.09621116 -0.019386461 -0.035012558
0.054955974 0.111717284 -0.082119115 -0.104390115 -0.06705523 -0.037020944 -0.095069215 -0.05797283
0.096283436 0.106549226 -0.068684846 0.023762314 -0.0017354351 -0.0034399016 0.11643784 0.00042080987
0.12017272 -0.03247882 0.07267834 -0.049656898 0.008345332 0.021333437 0.09512556 -0.10280898
-0.04795373 -0.0152269285 0.018887257 -0.06994867 -0.051919486 -0.0012448448 -0.06862566 -0.056839094
0.028627176 0.035855483 0.1152582 -0.075678796 -0.059753228 -0.12366323 -0.11656888 0.08834813
0.060813278 -0.088515356 -0.0072057387 0.059923254 -0.07522589 -0.059547324 0.05719809 -0.068648726
0.096238345 -0.06836884 0.12057622 -0.07003576 -0.108568296 -0.03779033 0.005770844 0.031516872
0.00610989 0.057614323 0.0859716 0.03211589 -0.072082356 -0.108678564 -0.05821753 -0.104746446
-0.005784291 -0.091288246 0.083950706 0.09388387 -0.029797357 0.008996554 -0.06698453 -0.10347414
-0.05906257 -0.06801082 0.08369265 -0.014078874 0.012554333 0.012609036 0.022313496 -0.101129465
0.05401227 0.026272822 0.0969976 0.08851789 -0.010935248 -0.10682102 -0.09813278 -0.05195652
0.06172215 0.013830082 -0.101139426 -0.02635604 0.014673781 -0.009351211 -0.060005903 -0.0913394
-0.03227432 -0.006573008 -0.12034857 0.030550757 0.041910365 0.003593686 0.023726055 0.07861454
-0.011813421 0.07655796 0.051950604 -0.100743264 -0.097303264 0.034980096 -0.010643385 0.05014244
-0.08284256 -0.09542832 -0.11380641 -0.020997703 -0.027724624 0.04030575 0.010240918 -0.033722352
0.03777947 -0.07404968 -0.02377454 0.09710411 -0.05484552 -0.05340558 -0.08774363 0.01097549
0.008256033 0.059684824 -0.096538916 -0.074226126 0.05171875 0.119287044 -0.115458556 0.047795463
0.040727682 0.05544621 0.055822015 -0.10066969 -0.08496584 -0.028585577 0.08820975 -0.120822616
-0.020013222 0.05028593 0.11013791 -0.11406071 -0.042690735 0.09890243 -0.033401124 -0.08724088

fc1_lin.bias f4 [256]
00000000: 28a2 93bc f9a0 843d dbe6 9ebc 7efb 8d3d
00000010: 4f46 773d f7cb 6a3d 0ae6 a3bd 32cd e9bd
00000020: a93d 40bd 4b1a c3bd 313e 8cbd 1b90 7fbd
00000030: 63b6 323c 8aa2 e83c 4acb d63c f23b 26bd
00000040: 043d 6f3d 1b37 65bd 0a8b abbc 9603 c1bd
00000050: 77fb 23bd 6a7a 7b3c 75c3 0b3d 07be c4bd
00000060: 5e1d eabb 2a35 a63d 99c2 053d 3d94 713d
00000070: 3820 483d 2f1b dbbc 8e84 f4b9 8c7f f9bd
00000080: d89c cbbc cf54 a8bd 3975 9ebd 74d3 c13b
00000090: 5c4d b7bd e5ad 6abc 5d73 a63d 5ba1 74bd
000000a0: aa22 243d 3fb9 1abc 163d 61bd 7462 36bd
000000b0: 2390 253c 0a45 66bd a2e7 b93d d6bd 843d
000000c0: 7c05 a6bd 68d1 13bd ed5f bdbd a25c 823c
000000d0: 1ffd a23d b403 c1bd 789c d33d dfd4 443d
000000e0: 7ec0 dcbc 6c71 94bd 162b 62bb 97cb c8bd
000000f0: e89b 1bbd 3677 b4bd fab8 0ebb 2840 723d
00000100: 37fa e53d 49cb f2bd 46a6 f0bd eb28 aebd
00000110: fbf2 c2bd 8d24 c93d 93b6 b3bc a78e 723d
00000120: a185 32bb bff9 96bd 8bd4 043d 1d88 c93c
00000130: 4938 c3bc 2d40 c0bd 6b92 d73c a0ae 9d3c
00000140: 364b 97bd fa48 acbd 54b9 4b3d b5c7 d6bd
00000150: 770d c43c c602 643d c21d 3d3c 2f11 5bbd
00000160: 60ee 9a3c a943 f0bd fc02 ebbd 2984 cebc
00000170: e0db df3d 6a31 a33d 9e22 a9bd f6aa dbbd
00000180: 1648 a1bd f0c1 e4bd dd4d 643c e5c2 95bd
00000190: 3cc8 103d 2117 d3bd 411d dbbd b235 f9bb
000001a0: 5c73 7dbd 72ed da3d 8d3b 3fbd e5b7 a43d
000001b0: 0d8e 93bc 7926 f1bc 5f41 a43d b573 5d3d
000001c0: dd74 89bd d250 fabd c188 e5bd 1a2c 07bc
000001d0: 514d 4d3d 4e79 3fbd 4146 a2bd 581e 9bbd
000001e0: 9609 db3d 383b 0b3d a742 d03c 68fd 363d
000001f0: 959a d4bc 3185 ebbd dc39 d5bd ec3f 243c
00000200: cba2 803d 7935 b83d d8f3 993d 0f5c be3d
00000210: 700e 653d b2e0 8ebd 75ca a6bd 3ea7 803d
00000220: 5058 9e3d d745 173d 831d af3d c73a ddbd
00000230: 729b d3bd 3d34 853c f7cd b33d 448c 453c
00000240: df21 10bd 97bf 103d e1af fd3d cd72 83bd
00000250: e75e 96bd 7ce1 aa3d 6424 cebc 4c3b 1fbd
00000260: a1cd 853c 6f0c ad3d 29e9 05bd a0bd 1d3c
00000270: 32b6 be3d 12f9 c23d f032 b03d 1dc5 393d
00000280: 5470 cb3d c674 93bd 7715 a9bd aa91 dfbc
00000290: b373 ec3c 0cf7 b2bb 9a84 083d 3d34 d33d
000002a0: 74d4 b9bd 589a 0bbd 8c62 c43d 2246 cbbd
000002b0: c6c9 d03d 2ae2 c93c 7560 123c 45aa 413d
000002c0: c731 e438 e1e3 b93d 09ee c1bd 9a54 863d
000002d0: 195b 8bbd 2e2d cebd 3ed8 e7bd e381 73bc
000002e0: 826a 7abc 3eb5 a73c b698 69bd 685c 033d
000002f0: e261 e33b 61df 3fbd 994d 10bd ff24 933d
00000300: c581 b23a 9bbc cabd 503d 94bd e919 8e3d
00000310: ef7a b33d 8df8 d9bd bbed a43d 9866 8bbd
00000320: 2563 01bd 44ff e23d 047a 6cbc 32bd 273d
00000330: 5317 b9bc e214 0b3d f8cb dc3d b073 383c
00000340: f862 a93c 2722 ec3d 6e43 62bd 8ef2 373d
00000350: 4cba 893d 7f0b cbbd 58ea cd3c 0b5d 863d
00000360: 6e36 e23c 1ef2 4fbd af4f d2bd ac83 48bd
00000370: 7f86 b93d c54b 98bd 6869 0fbd d993 863c
00000380: a915 c7bc b9bf aebc b95b 293c a1a1 013c
00000390: 140c 323d e3d9 2fbb 8c9a 063e 4dd7 eb3d
000003a0: 3ef8 9f3b fb06 bc3d 9acd 173c 08bf a03d
000003b0: f6dc a5bd 6f2b 823d 4c15 c7bd 6197 583d
000003c0: 32ab 98bd a7ca b7bd 00f0 d8bd 8053 823d
000003d0: 25ba 83bd 9518 ab3c 5753 b5bd f86c c63d
000003e0: ec63 c6bd 00c2 733d 5604 c5bd 2726 683d
000003f0: c389 41bd 6640 adbd 56d5 c9bc 8c53 c9bd
-0.018021658 0.064760156 -0.01939719 0.06932734 0.060369786 0.057323422 -0.08002861 -0.11416091
-0.046933804 -0.09526499 -0.068477996 -0.06239329 0.010907742 0.028397817 0.026219983 -0.040584512
0.0584078 -0.055960756 -0.020940322 -0.09424512 -0.040034737 0.01534901 0.03412195 -0.09606557
-0.007144614 0.08115609 0.032656286 0.05897926 0.04885885 -0.02674636 -0.00046638068 -0.12182531
-0.024855062 -0.08219301 -0.07737202 0.0059150998 -0.08950302 -0.014323686 0.081274725 -0.059724193
0.04007212 -0.00944358 -0.054989897 -0.044527486 0.010105166 -0.056218185 0.090773836 0.06481521
-0.08106515 -0.036088377 -0.09246812 0.015913311 0.07958435 -0.094245344 0.103325784 0.048054572
-0.026947256 -0.07248196 -0.0034510545 -0.09804457 -0.03799048 -0.088118 -0.0021777735 0.059143215
0.11229365 -0.1185518 -0.11750464 -0.08503898 -0.09519001 0.09821425 -0.021937644 0.059218075
-0.0027240294 -0.07371854 0.03242926 0.024601037 -0.02383055 -0.093872406 0.026314935 0.019248307
-0.07387392 -0.08412357 0.04973729 -0.1048731 0.023932202 0.055666707 0.011542739 -0.053483184
0.018912494 -0.11731655 -0.114751786 -0.025209503 0.1093061 0.07968409 -0.08258556 -0.107259676
-0.078750774 -0.11169803 0.01393458 -0.07312564 0.03534721 -0.10307146 -0.10698939 -0.007605278
-0.061877593 0.1068982 -0.04668765 0.080428876 -0.018012071 -0.02943729 0.08020281 0.054065425
-0.06711743 -0.122224465 -0.11207724 -0.008250261 0.050122563 -0.046746545 -0.07923556 -0.07574147
0.10695188 0.033992022 0.025422407 0.04467526 -0.025952617 -0.115000136 -0.104114264 0.010025006
0.0628105 0.08994574 0.07517213 0.092949025 0.05592197 -0.06976451 -0.08144084 0.06281899
0.07731688 0.03693184 0.08550551 -0.108022265 -0.10332383 0.01626026 0.08779519 0.012057368
-0.035188552 0.035338964 0.12387062 -0.06418381 -0.0734232 0.08343789 -0.025163837 -0.03887491
0.016333403 0.08449637 -0.032693062 0.00962773 0.09312095 0.09520163 0.086034656 0.045353997
0.09933534 -0.07200007 -0.08256047 -0.027291138 0.028863763 -0.005461579 0.033329584 0.10312698
-0.09073725 -0.03408274 0.09589109 -0.09925486 0.10194735 0.024643976 0.00893413 0.047281522
0.00010881159 0.090766676 -0.0946923 0.06559105 -0.06804485 -0.10067211 -0.11320542 -0.01486251
-0.0152841825 0.020472165 -0.057030402 0.032070547 0.006939159 -0.04684389 -0.035230253 0.07184791
0.0013618997 -0.09899255 -0.07238257 0.06938536 0.08763682 -0.106431104 0.08053156 -0.068066776
-0.031588692 0.11083844 -0.014433388 0.040951915 -0.02259413 0.033955462 0.107810915 0.011258051
0.020677075 0.115299515 -0.055240087 0.044909053 0.067249864 -0.09914302 0.025136158 0.06560715
0.027613845 -0.05076801 -0.10269105 -0.048953697 0.09058856 -0.07436327 -0.035012633 0.016427921
-0.02430232 -0.021331655 0.01033681 0.0079120705 0.04346855 -0.0026832751 0.13144892 0.11515675
0.0048818877 0.09181019 0.009265328 0.07848936 -0.080987856 0.063559406 -0.09720859 0.05287874
-0.07454528 -0.089742 -0.10592651 0.063635826 -0.064319886 0.020885745 -0.088537864 0.09688753
-0.09687027 0.059511185 -0.09619968 0.05667701 -0.04725052 -0.08459549 -0.02463786 -0.098303884

fc2_lin.weight f4 [128, 256]
00000000: 01a3 42bc aad4 703c 8aac 9b3b 398d 75bd
00000010: b31d ebbc c277 363d 4506 75bd eed2 643d
00000020: 632d 303c c927 553d 20ed f83c c9c1 8fbc
00000030: 1927 5ebc 2f6c cb3b b7fd 293d 366f 5c3d
00000040: de49 893b 2e50 c13c a797 2fbd a84d 263d
00000050: 42c4 653d 683d 4fbd ffe0 f73c 1e95 28bb
00000060: ea6a bebc d4c9 683a dc45 5d3b 84fa 13bd
00000070: 0060 223c 3ba7 503d dc51 5ebd 6da3 553d
00000080: 97b4 f23c ee7d 1c3d b0c4 dbbc 3be7 943c
00000090: 54d3 2ebc fcc5 d33c e0ce e93c c0d1 be3c
000000a0: 1cbd 133a 54e1 92bc 3173 58ba 26dd 513d
000000b0: eba0 0ebd afa7 0fbd 8705 3f3d d5c4 1bbd
000000c0: b2e4 3fbc 2123 e6bc 6c89 2bbd a1cb 07bd
000000d0: e566 553d e5a2 f7bc d1a9 003d 8dc4 df3c
000000e0: 4398 f9ba bb76 0a3d d831 2fbd 70fe 783d
000000f0: 6284 46bc abd7 e0bc 463e 623c ec44 ff3c
00000100: 0f66 3f3d d8a8 5b3c da0e 5dbb 0e8e 69bd
00000110: 9f99 3fbd 68e7 5bbd 7236 47bc 0951 d8bc
00000120: e30d 54bd 06e0 8fbc 2f92 40bd 8ceb 4ebd
00000130: eee3 793d 1818 8d3c 714d 153d 2f66 263d
00000140: 13f2 e63c c6ad 3e3d 2351 eabc ff8b fdbc
00000150: de98 5a3d 4b1f 383d 0de0 b9bc 81b1 303d
00000160: e07c 633c b207 2f3c b57e 843b e063 763d
00000170: a9f7 1f3d 1265 563d 4a00 f8bc f78a 04bd
00000180: 5f1f 5fbc 5c4f 2ebc a83b fbbc d28c 873c
00000190: 6a81 d03c 37df 063d 9cb2 763d b172 34bd
000001a0: 6893 62bd 7b11 af3b 509d 0bbd c346 2a3d
000001b0: 7675 513d 1a9f 8b3c 2da7 043d 164e 743d
000001c0: f8f0 453d 7a2a 6d3d 89be 5ebc 7c82 47bd
000001d0: 7ecc b83c 8796 6f3d d7d5 883a ad2b c3bb
000001e0: 9978 ffbc 9a76 863c 3521 dcbc fe9e 183d
000001f0: 7b45 0fbc 81ab 183d 4913 4b3d 92f9 97bb
00000200: 03c9 2dbd bd25 3fbd 7509 473c b551 993b
00000210: 0fde 4c3d 1d42 5ebd 51a6 553b 9a57 45bc
00000220: 941d b3bb 157d b6bc d41e ba3c b837 a63c
00000230: 3a86 b6bc 94f0 56bc 832e 98ba 8323 0cbd
00000240: bfa6 75bd 686e e23c 736f 933c 4c92 993c
00000250: 56dc 70bd 5025 cebc e9c0 90bc fe08 54bd
00000260: 8ab8 4ebd 3fdc debc 89d3 3b3d 6e74 45bd
00000270: 7c0a 4f3d 4254 a6bc ab86 1ebc 565d 883c
00000280: 1c64 19bd a903 773d 17c0 73bc 70ce e73c
00000290: 7c97 f5bc 89d1 6abd 3d64 34bd c72c 41bc
000002a0: 6eef f7bc e259 b3bb b7ec 333d b495 acbc
000002b0: 3db0 db3b 0cc5 1d3c 3240 08bd 27fd 8bbc
000002c0: ddd5 ffbc 732f 22bd 6c22 5c3d 5907 36bd
000002d0: ddd1 413d 83e8 46bc e353 4f3d f9a1 55bd
000002e0: 651d f1bc c3af 7ebc 94ba 22bd 4989 adbc
000002f0: 0e27 20bc 4fb5 62bc 5839 91bc a2e1 0abc
00000300: 8034 72bd 3d43 d63c f36b c03c 02ca 583c
00000310: 4ecf 69bd aae0 343d 1cb6 bbbc b74f 3f3d
00000320: d3d0 203d 668a 32bd f386 e6bc ac1f 24bd
00000330: 27b7 45bc 1906 59bd 58aa 24bd 4be4 ddbb
00000340: fcca 2abd ea47 4bbd e9aa 57bc 81a0 53bd
00000350: 0e3e 74bd 6756 b93a 1644 753d 6582 0e3d
00000360: 414d 30bc a322 063c 0619 363a 98f6 c5b9
00000370: d721 103d 8141 e1bc 7125 8dbb 9f8b 3a3d
00000380: 371d 5ebd 8ea8 5f3d 40a8 503b 1ee7 78bd
00000390: bcc5 923c 2cb5 3dbd 77f0 77bd 4387 b3bc
000003a0: 5c49 29bd db14 9dbc ace3 3bbc 5884 04bc
000003b0: 3e73 fdbc dbdd cbbc 376e 403a 3f5c bdbb
000003c0: 33b8 3cbd 2337 033d 4cd7 6e3d 17d3 12bd
000003d0: b9f2 803c 1961 2abd 33b3 1ebd ddd8 f53c
000003e0: 7244 61bd 180d 753d 62bc 813c eac9 7d3c
000003f0: 08bd 53bc 4cc7 c13c c1b4 73bd f210 e9bc
-0.0118796835 0.014699141 0.004750793 -0.059949134 -0.028700685 0.044547804 -0.059820432 0.05586522
0.010753009 0.052039895 0.030386508 -0.017548459 -0.013559126 0.006207965 0.041501727 0.053816997
0.004189714 0.023597803 -0.042869236 0.040601403 0.05609537 -0.05059567 0.030258654 -0.0025723646
-0.02324434 0.00088801724 0.0033763563 -0.036127582 0.0099105835 0.050940733 -0.054277286 0.052157808
0.029627128 0.038206033 -0.026827186 0.018176666 -0.010670502 0.025851242 0.028541028 0.023293376
0.00056357845 -0.01792971 -0.0008256911 0.051236294 -0.034821432 -0.035072025 0.04663613 -0.03802951
-0.01171224 -0.028092923 -0.041879103 -0.03315318 0.05210008 -0.030229041 0.03141195 0.027315402
-0.001904257 0.033804636 -0.042772144 0.060789526 -0.012116523 -0.027446589 0.013808792 0.031160794
0.04672819 0.013406955 -0.0033730776 -0.05702024 -0.046777364 -0.053687483 -0.012158977 -0.026405828
-0.051771056 -0.017562877 -0.04701441 -0.050517604 0.061008386 0.017223403 0.036450807 0.040624794
0.028191602 0.046552442 -0.028603142 -0.030950544 0.05336844 0.04495172 -0.022689844 0.04313803
0.013884753 0.010682987 0.004043425 0.060153842 0.039054547 0.052342482 -0.030273575 -0.03235909
-0.013618319 -0.010639038 -0.030668095 0.01654664 0.025452334 0.032927718 0.06022893 -0.04405469
-0.05531636 0.00534266 -0.03408557 0.04157139 0.05113741 0.017043639 0.032385994 0.05964478
0.04832551 0.057901837 -0.013595232 -0.048708424 0.022558447 0.058493163 0.0010439706 -0.0059561343
-0.031185435 0.016413976 -0.026871303 0.037261 -0.008744593 0.037272934 0.04957894 -0.0046379054
-0.042428028 -0.04666685 0.012148251 0.0046789297 0.05001646 -0.05426227 0.0032600353 -0.012044812
-0.0054661725 -0.02227644 0.022719778 0.02029024 -0.022280801 -0.013118882 -0.0011610541 -0.034213554
-0.059973475 0.027640536 0.017997479 0.018746518 -0.05880388 -0.025164276 -0.017670112 -0.051766388
-0.05046896 -0.02720463 0.045856033 -0.04820674 0.050547108 -0.02030385 -0.009675662 0.016646069
-0.037448987 0.060306225 -0.014877341 0.02829668 -0.02997946 -0.057328735 -0.044040907 -0.011790461
-0.030265536 -0.0054733614 0.04392692 -0.021067478 0.006704359 0.009629499 -0.033264346 -0.017088486
-0.031229908 -0.039596032 0.053743765 -0.0444406 0.04731928 -0.012140396 0.05061711 -0.052156422
-0.029432962 -0.015544835 -0.039728716 -0.021183627 -0.009774936 -0.013837173 -0.017727539 -0.008476647
-0.0591321 0.026155109 0.023488974 0.013231756 -0.057082467 0.04415957 -0.022913985 0.04670688
0.03926165 -0.04358902 -0.02814052 -0.040069267 -0.012067593 -0.05298433 -0.040201515 -0.0067715994
-0.041697487 -0.04962913 -0.013163307 -0.05166674 -0.059629492 0.001414013 0.059879385 0.034792323
-0.010760606 0.008186969 0.0006946478 -0.00037758495 0.035188522 -0.027497055 -0.004307442 0.04554331
-0.05422708 0.054604106 0.0031838566 -0.060767286 0.017916553 -0.046315357 -0.06053206 -0.021915084
-0.041329727 -0.019174984 -0.011467855 -0.008088194 -0.03093874 -0.024886062 0.0007340642 -0.005778819
-0.046074104 0.032035004 0.05831079 -0.035845842 0.01574074 -0.041596506 -0.038745116 0.030010635
-0.054996915 0.05982694 0.015836898 0.015490035 -0.0129234865 0.023654602 -0.059498552 -0.028450463

fc2_lin.bias f4 [128]
00000000: be16 bdbb 9ae7 a93c e616 cc3c 38d3 41bd
00000010: cafd ec3c 3a54 46bd c114 9f3c a947 283c
00000020: 7a7d 0e3d 5a9b cebb 2c25 f9bc d42a 413d
00000030: baa1 23bc acbe 6fbd 601e 0abd bca3 953c
00000040: 530b e13c a97c 56bb af7c 66bd 9df8 78bd
00000050: 778e cdba 0080 fe3c 526f fcbc 2cda 0abd
00000060: c8c1 423d 1c26 a7bc 48d4 9cbc 011b 813c
00000070: 93d1 d63c 852e 0b3c 3c73 0dbd 2377 813c
00000080: 8e1a 7c3c d470 62bd c64a edbb 09eb 10bd
00000090: 2b53 61bd 8f17 3f3d 15db 71bd 5311 79bd
000000a0: 3214 963d 3cef 57bd d485 1cbd f4f1 513c
000000b0: 8d95 9c3a e4da 36bd 6b84 79bd 5f18 883c
000000c0: db2b 39bd 9cdf 63b9 7450 683d 83e8 703d
000000d0: c2e3 11bd b164 573d bad3 bc3c 83f3 143d
000000e0: 39a1 eb3b 2869 80bd ca2f c7bc a3dc a13b
000000f0: cd0e 753d 07c2 cc3c 9236 60bd bed4 ce3c
00000100: 286d 00bd 500f 72bd 20ff b73c f509 2bbc
00000110: 037a 5bbd cb2b de3c fa3b 003c ac5a 45bc
00000120: 3ded ae3c a87b 423d 914b df3b e2dd 973c
00000130: 73a4 d63c 98d8 043d a508 0abd a01f ae3c
00000140: dfe5 84bd 0e3e 57bd d668 9e3c 9e5c dc3c
00000150: f365 313d 5877 0d3d c88b 81bc 9d7d 593c
00000160: 55fe 32bb da27 11bd 140b f9bc 9558 e13c
00000170: f110 d5bc 00fa fabc c070 ee3b 227a 253d
00000180: 99cc a53b f08a 1cbc 312b 113d bf5f 6dbd
00000190: 4d28 7a3d 9005 31bd b672 fd3c af07 18bd
000001a0: 0a6d 9d3c 1991 b03c deaf 2fbd 1bd3 0bbd
000001b0: 8594 12bd 2eb7 7e3d 9380 f03c 4df2 65bb
000001c0: 6795 c3bc 2025 5b3d bdea c13b 00b5 353d
000001d0: d11d ebbb 9722 d6bc ee00 923c 06dd 403b
000001e0: d161 1bbd 6b21 b4bc 6948 453d 8de3 f6bc
000001f0: 6ead 95bb 3c16 0ebd 7c77 21bd d408 d93b
-0.0057705333 0.020740319 0.024913263 -0.047320575 0.02892961 -0.04842017 0.019419076 0.010270991
0.034787633 -0.0063051404 -0.030413233 0.047159985 -0.009987289 -0.05853145 -0.033720374 0.018266551
0.02747122 -0.0032728112 -0.05627125 -0.06078397 -0.0015682717 0.031066895 -0.0308148 -0.03389947
0.047548085 -0.020403914 -0.019144192 0.015759947 0.02622298 0.008494978 -0.034533724 0.01580388
0.0153871905 -0.055283383 -0.0072415797 -0.035380397 -0.055010956 0.046653327 -0.059046824 -0.060807537
0.07328071 -0.052718386 -0.038213566 0.012814034 0.0011946425 -0.044642344 -0.0609173 0.016613184
-0.04520784 -0.00021731708 0.05671735 0.05881549 -0.035617597 0.05258626 0.023050178 0.036365043
0.00719085 -0.06270057 -0.02431478 0.004939632 0.05982857 0.024994863 -0.054739542 0.025247928
-0.0313541 -0.059096634 0.02246052 -0.010439386 -0.053583156 0.027120491 0.0078267995 -0.012045544
0.021353358 0.04748121 0.006814428 0.01853842 0.026201462 0.032433122 -0.03369965 0.021255314
-0.06489157 -0.052549414 0.019337099 0.026899632 0.043310117 0.034537643 -0.015813723 0.013274577
-0.0027312238 -0.035438396 -0.03040079 0.02750806 -0.026009055 -0.030636787 0.0072766244 0.040399678
0.0050597903 -0.00955461 0.03544158 -0.05795264 0.06107359 -0.043218195 0.030938487 -0.037116703
0.019217033 0.021553563 -0.04289233 -0.034136873 -0.03578617 0.062186413 0.029358184 -0.003508705
-0.023874952 0.053502202 0.0059178756 0.04436207 -0.0071751853 -0.02613954 0.017822709 0.0029428615
-0.037935082 -0.021988591 0.04816476 -0.030137802 -0.0045677936 -0.034689173 -0.03942059 0.006623367

fc3_lin.weight f4 [64, 128]
00000000: 8209 02bc d517 efbc ebf0 62bd c660 b1bd
00000010: 442b 25bd 0696 573c 0aa5 88bd a31a 993c
00000020: 093c 12ba b72c a0bc a141 be3b 5029 8a3d
00000030: cca7 bf3c 59ee ffbc fe5d 4e3c d7bc bfbc
00000040: 88bb 8b3d 977c 943c 4700 eb3c 78f5 84bd
00000050: 4ab3 71bd 54a5 83bd d69c 9a3d eafd 55bd
00000060: 05c0 84bc f148 d8bc ecc6 d43c 15a1 aabd
00000070: 0efb 37bc 8578 a1bd 1e6a 953d 1e38 153c
00000080: daa0 b3bd 9559 a3bd f892 bebc 9ad5 333d
00000090: fc1b 0cbb 47c8 e33a f924 2fbd 6c9c 8bbd
000000a0: c579 96bb e14d 383d 4190 d2bc ecaf 393d
000000b0: 2036 3a3c 7d66 093d db19 e23c ff94 4abc
000000c0: 6754 863b 72a1 a2bd d3d7 febc 8520 813c
000000d0: 0a19 8cbd a84c 30bd 5fbf eabc 0443 843b
000000e0: 0f67 9bbd 7fbf 74bd f980 92bd 24ba 943d
000000f0: 12ba 50bc d4c6 843d ba05 9d3d 05de ee3c
00000100: d53f 543d b828 353b 2954 9cbd 0749 e53c
00000110: 9e0b 27bd bdf9 9dbd 8b7a 46bd 71ba a13d
00000120: eb54 00bd 64d6 923d 73d1 5b3d f188 213d
00000130: 77d2 b0bd 8dd7 3cbb d0dd 673d 322b b83c
00000140: 4c65 563d c862 8bbd 95ca 743d fd22 9b3d
00000150: ae2c 30bd 9055 6cbd 5d9e 883d 1a29 8f3d
00000160: cb10 4cbd 4c8e 873c 0ec8 a6bd c121 bcbc
00000170: 2bf9 94bd e7ff 3cbc 648c b1bc e192 1f3d
00000180: 7e6f b4bd aea8 c1bc 5f26 e43c d95b 50bd
00000190: 9f36 b4bd 1bd8 75bc 447b 66bd 0791 093d
000001a0: 335d 443c 4952 9d3c f2ac 09bd ab7a 67bd
000001b0: a4ed 4bbd 7ab9 ce3c b34d 4bbc eed2 463d
000001c0: 1f84 8fbc 3043 78bc 85f3 a8bd edf0 72bd
000001d0: dc89 f5bc 10b4 03bc 52fe 77bd 8df2 a93d
000001e0: 7615 a1bd 1e64 4abd f5fe 893d 29d0 e63c
000001f0: a012 433d 2a65 08bd e78e d33b e44a 483d
00000200: f6bd 7b3d 85bd 983d 24be 273d c93a a13d
00000210: 0835 8dbd 56ca 413d 78d1 e939 d60f 9d3d
00000220: 7986 02bd 49f7 263d ff1f 743d 0f61 0d3d
00000230: 49d9 87bd c1f3 18bd 1fb8 9fbd 7e74 1f3d
00000240: 9221 983c 09d2 13bc c2e9 933d c18c 8b3c
00000250: 217d 98bd 3633 15bc 7b99 5bbd d44a dbbb
00000260: de5a 863d a233 3a3d 91b3 0abd b4a5 01bd
00000270: aa39 823a 58c2 413d 8910 b0bd d6e8 8abd
00000280: 964a 6c3d f041 8fbb ed7f a23d 7863 5b3d
00000290: d5f4 d6bc 9036 b73c 88c6 0b3d 9a98 723c
000002a0: e0f8 32bc ed44 c93b 94d2 0f3c 0d24 553b
000002b0: f2ea b83d 2473 753d e89d 9c3d fe00 8c3d
000002c0: 949c eabc 7179 63bc 587c a23d da8a 43bd
000002d0: bc7d b0bd ff54 efbc 8631 07bd 3fee 33bd
000002e0: 5d4f f93c e10f 003c 3a61 6fbc 2994 9cbd
000002f0: df5d 2e3d 2c67 64bd 4958 7b3c f768 84bc
00000300: fd83 4cbd fde9 7d3d a703 8ebd 2080 29bd
00000310: e211 c5bc 71dd 473d 4f56 5d3d 905f 093d
00000320: 0c39 153c 2cb6 893d 5f5e 18bd 9911 e5b9
00000330: 8df7 8f3d 5f48 a33d 83cc f63c dc9d 6a3c
00000340: 6bcb 433d b785 983b 9209 88bd 6d7e 263d
00000350: 20db a3bb bbef 32bc e9a2 87bc aac0 32bb
00000360: 36f4 803d 167a ab3d ce5a 383c e5cb d2bc
00000370: a288 82bd 5d05 133d 67c4 eabc 0c70 30bc
00000380: 4962 343d ed85 2b3d 00d2 423d 3961 e6bc
00000390: 34b4 903d d33d 66bd 8787 1a3d af73 55bd
000003a0: 1183 7b3d 8240 88bd be91 403d b1b5 1e3b
000003b0: ba66 96bd 74fb 37bd 652b 9b3c cf0b 89bd
000003c0: 3289 723d 0821 893d 8022 82bd 6e36 673d
000003d0: 0aa5 9b3d 4070 acbd 2328 f53c 612f 0e3d
000003e0: 1440 06bd 0007 77bc 69ca 33bd a2eb 083d
000003f0: 1556 03bd aed6 76bd f2b1 b33d 2af4 aebd
-0.007936837 -0.029186169 -0.05540554 -0.08661036 -0.040324464 0.013158327 -0.06672104 0.01868946
-0.0005578404 -0.019552572 0.0058061634 0.06746161 0.023395441 -0.031241583 0.012595652 -0.023405476
0.06822878 0.018125815 0.028686656 -0.06492132 -0.059008874 -0.06428018 0.07549445 -0.052244104
-0.016204843 -0.026401969 0.02597376 -0.08331505 -0.01122929 -0.078843154 0.07295631 0.009107618
-0.087709144 -0.07976071 -0.02326344 0.04390488 -0.0021378985 0.0017378413 -0.04275987 -0.068169445
-0.004592153 0.044996146 -0.025703551 0.045333788 0.0113654435 0.033545006 0.02760022 -0.012364625
0.004099417 -0.079409495 -0.031108772 0.015762577 -0.06840713 -0.043041855 -0.028655706 0.004036309
-0.07588016 -0.059752937 -0.07153506 0.07262066 -0.012739675 0.06483236 0.07667108 0.029158602
0.051818687 0.0027642678 -0.0763324 0.027988924 -0.040782563 -0.077136494 -0.04845671 0.07896889
-0.031330984 0.07169798 0.053666543 0.039437238 -0.08633893 -0.0028815002 0.05660802 0.022481535
0.052342698 -0.068059504 0.05976351 0.07575033 -0.04301136 -0.057698786 0.066708304 0.069902614
-0.049820703 0.016547345 -0.08143626 -0.022965314 -0.072740875 -0.011535621 -0.021673389 0.038958434
-0.08810328 -0.023640003 0.027850328 -0.050868843 -0.08799481 -0.015005137 -0.0562699 0.033585574
0.011985111 0.019204276 -0.0336122 -0.05651347 -0.04978718 0.025234926 -0.012408662 0.048541002
-0.017519055 -0.0151527375 -0.08249573 -0.059311796 -0.029972963 -0.008038536 -0.060545273 0.08298216
-0.078654215 -0.049411885 0.06738082 0.02817543 0.047625184 -0.033299603 0.0064562443 0.048899546
0.061460458 0.07458023 0.040952817 0.078725405 -0.068948805 0.047312103 0.0004459729 0.07669036
-0.031866524 0.040763173 0.059600826 0.03451639 -0.06633241 -0.037341837 -0.0779879 0.038929455
0.018570695 -0.009022244 0.0722232 0.01703489 -0.074457414 -0.009106448 -0.053613167 -0.00669227
0.065603 0.045459397 -0.033862654 -0.031652167 0.0009935398 0.04730448 -0.08596904 -0.06782691
0.05768832 -0.004371874 0.07934556 0.053561658 -0.026239792 0.022364885 0.03412488 0.014806891
-0.010923594 0.00614225 0.008778233 0.0032522709 0.09029187 0.05992426 0.07647306 0.06836127
-0.028639115 -0.013883934 0.07933873 -0.04773984 -0.08617732 -0.029215334 -0.033006214 -0.04392838
0.030433351 0.007816286 -0.014610583 -0.07645447 0.04256999 -0.055762455 0.015340873 -0.016163332
-0.04993056 0.061990727 -0.069342904 -0.041381955 -0.024056379 0.048795167 0.05403739 0.0335384
0.009107839 0.067242 -0.037199374 -0.00043691395 0.070296384 0.07972788 0.030126816 0.014319863
0.047801416 0.004654612 -0.066424504 0.040647913 -0.005000487 -0.010921414 -0.016557174 -0.0027275481
0.062965795 0.083728954 0.011252118 -0.02573199 -0.06373717 0.035893787 -0.028658105 -0.010768902
0.044039045 0.04187577 0.047563553 -0.028122531 0.07065621 -0.056211304 0.037726905 -0.052112278
0.06140429 -0.06652929 0.04701399 0.0024217183 -0.07343812 -0.04491754 0.01894159 -0.066917054
0.05921287 0.06695753 -0.063542366 0.056448393 0.07599838 -0.084198475 0.029926365 0.034713153
-0.032775953 -0.0150773525 -0.043894205 0.033427842 -0.032064516 -0.06026333 0.08774175 -0.08542664

fc3_lin.bias f4 [64]
00000000: 703d 323d ca9d f63c f6c8 b2bc f419 c6bd
00000010: 7123 013e e8bf c3bc 21fa 293d e48d 813e
00000020: 4a40 88bd 2b7d 90bd fd80 a33b f1f3 91bd
00000030: e5df d8bd c617 a93d 2d9c 6d3d 88ea 3c3d
00000040: 2dff e8bd ae4f eb3c e9db b6bc 7cc2 cabc
00000050: 7a67 a6bd 83d1 f53d 1cba 3b3d 5aae 303e
00000060: 82c6 f0bc b69b fc3b 1f25 953d e38e 1b3d
00000070: a8d8 a0bc c86d d23d 578a a3bd 8488 9cbd
00000080: 4d1a e3bc d458 26bc 7318 0a3e 8565 803e
00000090: c81e 7f3e dbf6 33bc b96b a3bd 302e 35bd
000000a0: 0026 d2bd 14b7 503e 42b6 9ebc fa68 1fbc
000000b0: 33f1 093d a276 81bd e035 533d 3c3f c8bd
000000c0: 08c0 dbbb 0b8d d1bd 82fc 5abd 7dd3 8abd
000000d0: 7f44 abbc 121e b4bd 7fa7 f73c c075 1f3d
000000e0: d1ec 12bd ca10 463e 1a56 3d3d 0b0c 87bd
000000f0: ea17 d5b9 be3a 533d d77f c7bd 5fa9 4dbd
0.043515623 0.030104537 -0.021824341 -0.09672919 0.12611176 -0.023895219 0.041498307 0.25303566
-0.06652887 -0.07055124 0.004989742 -0.07126606 -0.105895795 0.082564875 0.05801027 0.046122104
-0.11376796 0.028724518 -0.022321658 -0.02475094 -0.08125205 0.12002852 0.045831785 0.1725401
-0.02939153 0.007708992 0.07282471 0.037978064 -0.01963456 0.10274845 -0.079853706 -0.07643226
-0.027722502 -0.010153014 0.13485889 0.25077453 0.24914086 -0.010984148 -0.07979531 -0.0442335
-0.10261154 0.20382339 -0.019374017 -0.009729618 0.03367729 -0.063214555 0.05156505 -0.09777686
-0.0067062415 -0.1023198 -0.053463466 -0.067786194 -0.020906685 -0.08794798 0.030231236 0.038930655
-0.035870377 0.19342342 0.04622469 -0.06594094 -0.00040644343 0.051569693 -0.097411804 -0.050210353

fc4.weight f4 [2, 64]
00000000: 13de dfbc 3680 283e a76f f6bd 15c8 c7bc
00000010: 6fc6 81bb 6e0f c4bd 31c2 80bd 109e 503e
00000020: c51c 97bb fb2a ce3d 590a c33d 0303 d53d
00000030: b984 b1bc faed 2f3e 29be 273e 7021 943c
00000040: f180 bbbd 6197 703d 7d01 e1bc 2627 b93c
00000050: 3aab 77bc 2877 a0b9 8547 18bd bd2b e33d
00000060: c91d 93bc 15f9 d3bd c513 bf3c 3d60 9b3d
00000070: db30 ba3d 2f09 3d3c 7936 f5bd 0aac db3d
00000080: 5845 9abd 59b7 f93d c25c 5b3d 5a9a 8b3d
00000090: b353 c33d 1f35 283d d84f 38bd 651c 76bd
000000a0: 91b3 25bd a946 c03d e9a6 86bd 653d cebd
000000b0: a3bf 8a3d 81e7 243c 8bff 5c3d 6ae1 4ebd
000000c0: 5d81 9c3d 7fe0 043c 4247 cbba 20e6 393d
000000d0: f322 a33c fe5c f5bd 79c5 a8bb b199 6c3d
000000e0: d1ae 4d3d 1a68 8b3d d77b a13b 314e ea3d
000000f0: 4260 a5bc d60b f43d f459 b83b b50a d9bd
00000100: ab7c d3bd 0c7c 103d 3896 9ebd 18b6 6f3d
00000110: b041 46be 7e79 79bd 2311 e1bd 667f c2bd
00000120: 3bba 50bc ae24 12bd 5040 f0bc 6bb3 903b
00000130: 443f 973d 9332 5ebd b7c5 55bd f2df 4fbe
00000140: 083f 903c b2b0 5cbc 4fe9 8dbd a2ec f2bc
00000150: dc7e 1dbb 8092 eebd 8432 08be 6116 e4bc
00000160: 083d 96bd d50d 83b9 9ca5 0cbe 2b9a 99bd
00000170: fd34 a53c 6d58 babd fc46 23bd 7b24 ca3d
00000180: 1fba 1c3d b681 933d 1fbd 08be 9a8f b8bd
00000190: d402 16be 4327 8c3d 279d 58bd 5e54 3c3d
000001a0: d67d 693d 0e14 01bd 537c 68bd cc35 c4bc
000001b0: c235 e9bd ab58 e4bb 81a6 1fbe 3c76 fd3a
000001c0: e03a 5cbc 6128 da3d 7bf4 863d 9523 ae3b
000001d0: 747d bb3d 0ead 793c 1211 06be 9bc8 00be
000001e0: 5d40 bb3d d04c 1bbe ff2b 26bd 1e18 1c3d
000001f0: d60e 7a3c f8e6 5abd 4a85 1f3d 8fba a83b
-0.027327573 0.16455159 -0.12033015 -0.024387399 -0.0039604227 -0.095732555 -0.06287039 0.20372796
-0.004611584 0.100667916 0.09523458 0.10400965 -0.021669732 0.17180625 0.16381134 0.01808235
-0.09155453 0.058738116 -0.02746653 0.022601675 -0.015116507 -0.00030606356 -0.03717758 0.11092327
-0.017958539 -0.10350243 0.023324857 0.07586715 0.0909135 0.011537834 -0.119732805 0.10726173
-0.075327575 0.12193174 0.053555258 0.068165496 0.09537449 0.041066285 -0.04499802 -0.060085673
-0.04045445 0.09388477 -0.06574804 -0.10070304 0.06774833 0.01006496 0.053954642 -0.05050794
0.076418616 0.008110165 -0.0015508907 0.04538548 0.019914126 -0.119806275 -0.0051504937 0.05776376
0.050215546 0.06806965 0.004928093 0.11440695 -0.0201875 0.1191632 0.0056259576 -0.10597745
-0.10326513 0.03527455 -0.07743496 0.058523268 -0.19360995 -0.06090688 -0.10989597 -0.094969556
-0.012739713 -0.03567951 -0.029327542 0.0044159195 0.07385114 -0.05424745 -0.05219051 -0.20300272
0.01760818 -0.013469862 -0.06929266 -0.029653851 -0.0024031913 -0.116490364 -0.1330052 -0.027842702
-0.073358595 -0.00024996573 -0.1373505 -0.07500108 0.020166868 -0.09098897 -0.039862618 0.09870239
0.038263436 0.07202475 -0.13353394 -0.09011765 -0.14649516 0.06843426 -0.052884247 0.045978896
0.057004772 -0.031513266 -0.05675919 -0.023951434 -0.113872066 -0.006968578 -0.1559086 0.0019337605
-0.013441771 0.10652233 0.065896 0.0053143003 0.09154788 0.015239013 -0.1309245 -0.12576525
0.09143136 -0.1516602 -0.0405693 0.038108937 0.015262326 -0.053442925 0.038945474 0.0051491926

fc4.bias f4 [2]
00000000: cfb0 ba3f 7bee c1bf
1.4585208 -1.5150903
