MWNet/old_data_results/checkpoints/model_epoch_150.pt (torch, 234127 bytes, 8 tensors)

fc1_lin.weight f4 [256, 64]
000000 6d 42 89 3c ad ad 70 bc 17 65 09 3c 8d 63 a5 bc
       0.016755307 -0.014689845 0.008385918 -0.020189071
000010 32 1e a7 bb d8 a1 27 3c 83 e0 29 3c 1d 43 da bb
       -0.005100035 0.010231458 0.010368469 -0.0066608326
000020 98 02 04 bb cb de b3 38 f5 f0 98 b8 f4 1a 2a 3b
       -0.0020143148 8.5768836e-05 -7.2928065e-05 0.0025956007
000030 69 07 27 3b b1 ac 8a bc 7d 65 5d 3c 3d ce c6 b8
       0.0025486595 -0.016928049 0.013512966 -9.4797906e-05
000040 3d 5a 69 bb 4f 2e f6 bb ef a4 16 bc ed 3a 2f 3b
       -0.0035606765 -0.0075128446 -0.009194597 0.0026738003
000050 8e 0d a4 3c ae 3d 1b bc 30 20 42 3c fc 2e 48 3c
       0.020025995 -0.009475155 0.011848494 0.012218233
000060 65 af 18 3b 6c 88 44 bc 49 51 59 3c 98 a0 5f bb
       0.0023297903 -0.011995416 0.013264009 -0.003412282
000070 16 68 7f bc 1f bf 46 3b 6f 9c cf bb 0c 79 8e 3a
       -0.015588781 0.003032632 -0.006335787 0.0010869815
000080 4b 0a 5e 3b 6c 48 3a 3c e2 eb aa bc 06 2f a1 3c
       0.0033880647 0.011369806 -0.02086443 0.019675743
000090 11 54 a4 3b 1a f6 50 bc eb 5c 9d 3b 63 9f 7e 3c
       0.0050149043 -0.012753988 0.0048023365 0.01554093
0000a0 f0 a3 94 3b f9 97 86 b9 3a 9e 9a 3c 57 27 5c bc
       0.0045361444 -0.000256717 0.018874276 -0.013437114
0000b0 f7 be 26 bc 36 9c a4 3c 21 76 99 bc 54 50 c2 3b
       -0.0101773655 0.020094018 -0.018733086 0.005929986
0000c0 45 e3 f5 3b 2d b3 80 3b e3 8d 8a 3c 4e a4 83 3b
       0.0075038993 0.0039276094 0.01691336 0.0040173894
0000d0 57 ae 8a ba 11 28 8f 3c 59 f8 ec bb cf 0a 4f 3b
       -0.0010580522 0.01747516 -0.007231754 0.0031592136
0000e0 b7 a8 09 bb 7b bb 7c 3c 71 a0 c3 bb 35 c8 9f 3b
       -0.0021005103 0.015425558 -0.005970054 0.0048761615
0000f0 09 c8 87 3c ea 0b 59 bc f4 71 54 3c 5e 8c 8b 3c
       0.016574876 -0.013247469 0.012966622 0.017034706
000100 41 fe f8 bb 72 df 10 3d c4 21 e4 bb 6e 30 33 3b
       -0.007598669 0.035369344 -0.006962033 0.0027342099
000110 12 b6 98 3b 46 9b 24 bc ad ef 2c 3c 51 19 90 3c
       0.0046603763 -0.010046786 0.01055519 0.017590197
000120 44 f7 15 3d 48 2d f7 3c b6 af 7f 3c 7d 92 a2 3c
       0.036612764 0.030172959 0.015605858 0.019845242
000130 c0 70 f1 3c da 02 42 bc 0b 90 28 3c dd 61 a5 3b
       0.029472709 -0.0118415 0.010288249 0.0050470666
000140 5f 57 03 bc 88 a0 a2 39 d8 ef 7b 3c af 53 5e bb
       -0.008016436 0.00031018653 0.015377007 -0.003392439
000150 91 bb 78 bc 08 98 dd bb f4 8b b9 ba a9 c3 c9 ba
       -0.015181438 -0.0067625083 -0.0014156089 -0.0015393394
000160 ff 35 a1 bc db 40 7e bc 98 4d 46 bc 61 e5 97 bc
       -0.019679068 -0.015518392 -0.012103461 -0.018541994
000170 73 d3 80 3c 67 b3 34 bc 52 d5 7f 3d 9c dc 41 bc
       0.015725827 -0.011029101 0.062459297 -0.0118323825
000180 48 bd 18 3c ee ed 4a 3c 31 d0 45 3c 60 22 ec bd
       0.009322472 0.012385828 0.0120735625 -0.11529994
000190 e4 03 28 3c 10 d0 9f 3c a2 fd 75 39 ce 96 40 bc
       0.010254834 0.019508392 0.00023459506 -0.011754705
0001a0 0b a9 01 3d 84 a0 9d 3c 0b 6c 6b bc ff d9 3f bd
       0.031655353 0.019241579 -0.014369021 -0.046838757
0001b0 69 be 4b bc 96 d6 d0 bb b4 b8 8f bc a5 27 34 3b
       -0.012435534 -0.006373237 -0.017544128 0.002748945
0001c0 40 3e 88 3c fc 33 4e 3d 10 c6 41 bc f3 e8 ce 3b
       0.016631246 0.050342545 -0.011827007 0.006314391
0001d0 37 a1 eb bb 54 91 1a 3b 1e eb a4 3c 0b fa 10 bb
       -0.007190849 0.0023585157 0.020131644 -0.0022121693
0001e0 4b 41 85 3c 2f af b7 bb 52 6c 37 bc 92 0c 89 bc
       0.016266486 -0.0056056003 -0.011195259 -0.016729627
0001f0 0e 65 bc 3a 69 53 97 3b 66 79 9d 3a 09 7b 9d bc
       0.0014373378 0.0046180976 0.0012014329 -0.019223707
000200 56 61 d2 bb 64 69 21 bb c4 27 55 3b 4e bf 44 bc
       -0.0064202948 -0.0024629468 0.0032524923 -0.012008501
000210 c7 2f 12 bc a9 ca 93 38 86 a0 41 bc ce 19 1f bc
       -0.008922524 7.0472546e-05 -0.011818057 -0.009710742
000220 33 8a 45 3c b9 b4 f7 3b c1 a3 a2 3c 34 22 40 bc
       0.012056875 0.0075593856 0.019853475 -0.011726905
000230 c4 fe 33 bc 52 72 f5 bc 38 7b 97 bc 1b 5b 85 3c
       -0.010986034 -0.029961739 -0.018491372 0.016278794
000240 e3 a9 26 3c ee cf 7f bc 50 67 aa ba a3 68 29 3c
       0.01017234 -0.015613539 -0.001300076 0.010339889
000250 57 b5 51 bc 49 c1 24 bc 7c 44 21 3c a4 26 4a bc
       -0.012799582 -0.010055848 0.009842988 -0.012338314
000260 d7 5f 88 3c 7b 5f 3d bc d6 fa a9 3c 58 29 64 bc
       0.016647262 -0.011558409 0.02074949 -0.013925873
000270 18 ed 96 bc 4c 4d fb bb 3c 7a 3f 3c 48 27 d2 3a
       -0.018423602 -0.0076691266 0.011686858 0.0016033435
000280 a9 a5 8c 3a 93 6c 22 3c 6d 11 73 3c 40 93 4f bc
       0.0010730523 0.009913581 0.014835698 -0.0126693845
000290 f8 93 50 bc ec 86 92 bc ce de 19 bc 57 18 95 bc
       -0.012730591 -0.017886601 -0.0093915 -0.018200083
0002a0 92 9e bb 3d 86 c7 80 bc 44 22 6d 3c 9b 37 3e 3c
       0.09161104 -0.01572014 0.014473502 0.011609937
0002b0 ce ff ab bb ff d3 ca 3a dc 1d 41 bc e5 01 7d bc
       -0.005249 0.0015474557 -0.011786904 -0.015442346
0002c0 80 c5 26 bc fc d5 f8 bb 30 23 6c 3c d8 6a 15 bb
       -0.010178924 -0.0075938683 0.014412686 -0.002279928
0002d0 53 17 eb ba ac 1f 56 3b 31 7c 7c 3b ad 00 a6 bc
       -0.0017936028 0.0032672687 0.0038526172 -0.020263994
0002e0 7f 4f fc 3b cb 42 94 3b b5 d6 1c 3c 30 b0 87 3c
       0.0076999064 0.004524564 0.0095726745 0.016563505
0002f0 16 d5 f6 ba df d6 92 bc ae 93 c7 bc ec b5 0d bc
       -0.0018831815 -0.017924724 -0.024362411 -0.008649331
000300 f9 0b 84 3d 87 09 eb bb 94 b0 8e bc 65 46 a4 bb
       0.06447596 -0.0071727666 -0.017418183 -0.0050132745
000310 39 04 22 3b e7 79 9e 3c ec 0e 29 bc 71 16 87 bc
       0.0024721755 0.019345237 -0.010318499 -0.016490193
000320 af af 86 bd 51 b9 ac bc 43 e6 a7 bc e8 87 ac 3b
       -0.06576478 -0.02108446 -0.02049554 0.0052652247
000330 72 7e 56 3c c9 eb 8f 3d ab 99 06 3d b0 f2 8d 3c
       0.01309167 0.07027394 0.032861393 0.017327636
000340 3a 79 25 bb a5 85 9a 3c b1 f3 03 3c 23 04 90 bc
       -0.0025249259 0.018862555 0.008053706 -0.017580098
000350 92 20 90 3d 13 ef ab 3b e0 76 c9 ba 93 54 e3 3c
       0.07037462 0.0052470057 -0.001537051 0.027750289
000360 6d 7b 77 bc 16 31 8c bc 0b e8 9f bc 54 5a 96 3b
       -0.015105111 -0.01711325 -0.019519826 0.0045884047
000370 e5 cb 87 bb 55 79 a1 3c 4c f8 eb bd 4d 4d 57 bd
       -0.004144179 0.019711176 -0.11521968 -0.052563954
000380 52 0c d4 3b fb 2f 52 bc ed 2f 8a bb 67 9d 1b 3e
       0.0064711953 -0.012828822 -0.004217139 0.15196763
000390 91 60 1a bc bd 19 b1 bc ea b4 e4 bc 7b 22 fd 3b
       -0.009422437 -0.021618718 -0.027918298 0.0077250577
0003a0 7f 23 74 3d ed 6a 28 3c e5 51 85 bc 5b ed 2a 3d
       0.059604164 0.010279399 -0.016274402 0.041730266
0003b0 8b 40 4c 3c e6 2a a8 3c 6f 0c ac bc 44 4f 86 bc
       0.01246656 0.020528268 -0.021002023 -0.016395219
0003c0 77 61 dc 3b 09 47 38 bd 64 78 1d 3c 55 42 92 bc
       0.006725486 -0.04498962 0.009611223 -0.017853895
0003d0 81 62 ee 3c 0f 68 eb bb 08 86 76 3c 83 27 8d bd
       0.029099705 -0.0071840356 0.015046604 -0.06892302
0003e0 d9 06 87 3c 8b 81 0d 3c 1a 99 d0 3c 62 44 ac bc
       0.016482757 0.0086368425 0.02546363 -0.021028701
0003f0 47 e0 f0 bb db 41 92 3c 11 c8 5a bc 9a 83 47 bc
       -0.0073509547 0.017853668 -0.013353364 -0.012177372

fc1_lin.bias f4 [256]
000000 ea 63 4b bb eb 73 94 3b da ec aa bb 72 8f 44 bd
       -0.0031034895 0.00453042 -0.005216223 -0.047988363
000010 e0 e9 08 3c 17 96 d7 3b aa 07 a3 bc ec 0d a1 bc
       0.008356541 0.0065791714 -0.019901115 -0.019659959
000020 4e fb 22 bc 1c cd e0 bc 34 7f ad bb e2 5b 47 bc
       -0.009947611 -0.027441554 -0.005294705 -0.012167903
000030 f9 8a 1c bc 5e 34 85 3c c9 ce 31 bd a6 03 e5 bb
       -0.009554618 0.016260322 -0.043410096 -0.0069889603
000040 c1 5f 10 3c fb e4 1d bc 7c 0b 18 bc c7 f2 84 bc
       0.008811892 -0.009637113 -0.009280082 -0.016229047
000050 51 e9 e1 bb 91 b7 a0 ba 9a 62 9a 3c 0d 84 87 bc
       -0.0068942686 -0.0012261738 0.018845845 -0.016542459
000060 62 b1 a2 ba 5c 01 b7 bc 50 cf 20 bc 3e ff 5c 3c
       -0.0012412483 -0.022339515 -0.009815052 0.013488589
000070 50 a8 19 3c 1e f0 9a bb 89 b4 6e 39 fc db ab bc
       0.009378508 -0.004728331 0.00022764703 -0.02097892
000080 fe b3 f0 bc 6d d0 4b 3c 20 34 8e bc 4a 35 be ba
       -0.029382702 0.012439829 -0.01735884 -0.0014511731
000090 f9 1c 87 bc 62 2c 67 bd 0f fa 70 3d b3 63 00 bd
       -0.016493307 -0.05643881 0.058832224 -0.03134508
0000a0 72 1f e2 3b 33 28 d5 ba 3d e2 37 bc fd 43 fb bb
       0.006900721 -0.0016262591 -0.011223373 -0.007668017
0000b0 cc b0 cb 3c 83 9e 1e bc 7e 4a 92 3d aa 48 3d 3d
       0.024864577 -0.009681347 0.071431145 0.046211876
0000c0 48 82 13 bd fb 5f df bb ba 72 82 bc eb a3 cb ba
       -0.036012918 -0.0068168617 -0.015923847 -0.0015536522
0000d0 fc 8a 60 3c dc f2 84 bc 87 40 94 3b 56 5c 3f 3d
       0.013705011 -0.016229086 0.004524294 0.046718918
0000e0 f9 10 98 bb 1c 6d 86 bc 2e 8b a6 bc 74 4f 8a bc
       -0.004640695 -0.01640945 -0.020330038 -0.01688359
0000f0 b6 f6 df bb 59 9e 78 bc 80 e1 be bb 83 0d 18 3c
       -0.00683483 -0.015174472 -0.0058252215 0.009280565
000100 14 a8 c6 3a 8e 3f a7 bc 9f c3 a5 bc a4 ee 6f bc
       0.0015156292 -0.020416047 -0.020234881 -0.014644299
000110 cf 96 05 bc 81 b9 b1 3c c1 e3 2c 3d e5 20 76 3d
       -0.008153631 0.0216949 0.04220939 0.060089964
000120 99 a4 81 ba e7 f8 85 bc 07 da 18 bc 89 aa 06 3b
       -0.0009890973 -0.016354037 -0.0093293255 0.0020548424
000130 36 21 23 bc 54 cc 82 bc 6e 9f 16 3b 95 36 d3 3a
       -0.009956649 -0.015966572 0.002298321 0.0016114289
000140 25 6e 50 bc 63 59 6d bc e8 c0 9a 3c a0 f0 93 bc
       -0.012721573 -0.0144866435 0.018890813 -0.018059075
000150 87 0b 87 3b fa 0d 1d 3c b6 ff 21 3c d5 e4 16 bc
       0.004121247 0.009585852 0.009887626 -0.009209831
000160 af 15 32 bd e0 7f a5 bc 7c b1 10 bc 7d 40 8e bb
       -0.04347771 -0.020202577 -0.008831378 -0.0043411837
000170 27 e4 bb bc e3 d2 60 3c ee 02 69 bc df ae b8 bc
       -0.02293594 0.013722154 -0.01422189 -0.022544323
000180 00 b0 3e 3d 8e 5c a6 bc 4f bb 18 3b 3a 52 4e bc
       0.046554565 -0.020307805 0.0023305004 -0.0125928465
000190 45 fc 86 b9 ff 6c 9d bc 31 ed 96 bc 55 a9 ab ba
       -0.00025746427 -0.019217012 -0.018423649 -0.001309673
0001a0 47 95 2e bc d8 2b 2d 3d 19 0c ad bc c2 00 64 3d
       -0.010655708 0.04227814 -0.021123933 0.055664785
0001b0 b8 20 50 bb d2 a7 c1 bb 2a 98 8c bc 5a 8c a9 bc
       -0.0031757783 -0.0059098983 -0.017162401 -0.020696808
0001c0 47 5e 3d bc d3 3d b7 bc 72 1d 9e bc d8 38 ba ba
       -0.011558122 -0.022368347 -0.01930115 -0.0014207615
0001d0 bf 5c 44 3c 2e 3c 8d bc 33 f1 64 bc e7 cf 77 bc
       0.011985003 -0.01724061 -0.013973522 -0.015125251
0001e0 bf 55 fc 3a a5 0e 5b ba 9e 75 8f 3b 94 58 cf 3a
       0.0019251629 -0.0008356369 0.0043780347 0.0015819245
0001f0 73 8c 12 bb 1e 6b a6 bc a0 e0 92 bc c8 47 e2 3a
       -0.0022361546 -0.02031475 -0.017929375 0.0017263824
000200 c4 ed cf bc 90 7d b2 3a 91 3e e3 3c 5a 20 60 3c
       -0.02538193 0.0013617743 0.027739795 0.013679588
000210 02 b6 b9 3b 99 d5 44 bc a6 97 6d bc 02 a1 2b 3c
       0.005667449 -0.012013816 -0.014501488 0.010475399
000220 51 14 65 3a 44 be 23 bb 60 2d 85 3c cf 64 98 bc
       0.0008738684 -0.0024985233 0.016256988 -0.018602757
000230 dd 89 89 bc 46 d6 ae 39 ae b5 db bb bb 5c ef bc
       -0.016789371 0.00033347512 -0.0067050075 -0.029219022
000240 a0 90 c6 bb 7b af b6 ba 34 65 d1 3c b1 16 35 bc
       -0.006059721 -0.0013937795 0.025560953 -0.011052773
000250 d5 15 d2 3c 91 11 b1 3c 7d fd 8d bb f9 5d db bb
       0.025645176 0.021614822 -0.0043331967 -0.006694552
000260 d2 1a 13 3b 22 fa 5a 3c 16 4e c4 bb 71 8d ab 3a
       0.0022446406 0.0133653 -0.005990754 0.0013088417
000270 3a 5f 83 3c ae df 92 3c 92 95 95 bc 45 bd d0 bc
       0.016036619 0.017928924 -0.018259797 -0.025480876
000280 f3 cc 3d 3d 31 25 4b bc aa f0 68 bc 31 92 d7 bc
       0.046338033 -0.012399004 -0.014217535 -0.026314827
000290 06 70 98 3c d9 14 c5 3c 0d 50 d2 3c 17 62 8c 3b
       0.018608104 0.024057792 0.025672937 0.004284154
0002a0 23 bc 14 bc 6e 53 c0 bb f9 ca e3 bc 2e 07 8c bc
       -0.009078058 -0.0058693206 -0.027806746 -0.017093267
0002b0 4e a2 6f 3d a1 17 4c bc 44 a8 c9 3a 82 6c 46 3a
       0.058504395 -0.012456805 0.001538523 0.00075692695
0002c0 4a 6f 0b 3b 36 20 c9 3b 61 96 85 bc b0 9e 1a 3d
       0.002127605 0.006137873 -0.016307058 0.037748992
0002d0 68 fc 3f bc ec 10 66 bd e7 a5 57 bc 41 0f 09 3a
       -0.011717893 -0.05616848 -0.013162113 0.0005228408
0002e0 7f 7d 2c bb ba 86 24 bb 72 e9 20 bc e1 25 26 3c
       -0.0026319919 -0.0025104717 -0.009821283 0.010140867
0002f0 e4 9f 9c 3a 8c 4b 6b bc d3 50 e1 bb 5b be 45 3c
       0.0011949507 -0.0143612735 -0.00687609 0.01206931
000300 41 cc 80 bb 87 a7 8b bc 49 39 4c bc 9d 29 6d 3d
       -0.003930599 -0.017047657 -0.01246483 0.057901014
000310 15 ea 81 3d e8 24 96 bc aa c0 18 bd 3d 0c 40 bc
       0.06343476 -0.018328145 -0.037293114 -0.011721668
000320 38 7d ea bb a7 f5 3a 3d 5f e3 22 bb 0f e6 eb 3b
       -0.0071560405 0.04564443 -0.0024854762 0.007199056
000330 74 ff 7e bb 26 e6 a4 3b be ac 82 3d 20 52 11 bc
       -0.0038909586 0.0050323186 0.06380604 -0.008869678
000340 f4 51 1c bd fc dd 6b 3c b8 db 1b bc 43 6d 44 bc
       -0.038164094 0.014396187 -0.009512834 -0.011988941
000350 25 48 86 3c 3c 1b 9b bc 61 3d a4 3c 80 20 9d 3c
       0.016391823 -0.018933885 0.020048799 0.019180536
000360 ba e4 ba 3c c7 9e 1c bc ba dc 90 bc 67 1e 0a bc
       0.022814143 -0.00955934 -0.017683376 -0.0084301
000370 b8 31 8b 3d db 9c 79 bc aa 84 cc bb 16 2b a4 ba
       0.067965925 -0.015235151 -0.0062414007 -0.0012525048
000380 a4 3a 87 bb 75 be 70 bb 41 da f6 bc 29 9a b2 3c
       -0.0041268636 -0.0036734615 -0.030133368 0.021802025
000390 35 4a f5 3b a7 43 f2 b9 0e 23 9e bb fa 45 d7 3c
       0.007485653 -0.00046208242 -0.004825956 0.026278485
0003a0 1b 62 5c 3a 57 f3 6b 3c f7 c9 22 bc 82 96 90 3d
       0.0008406953 0.014401278 -0.0099358475 0.07059957
0003b0 ef 4f 7b bd 12 d9 f5 3a b0 fe 8b bc 39 33 15 3c
       -0.061355527 0.0018756709 -0.017089218 0.009106451
0003c0 4e 53 52 bc 6b e9 7c bc e5 6f 95 bc 17 b2 15 bd
       -0.012837244 -0.015436511 -0.018241832 -0.036546793
0003d0 b4 78 35 bc 0c 39 e9 3b f0 cd 79 bc 15 a3 88 3c
       -0.011076141 0.007117396 -0.015246853 0.016679326
0003e0 6b 44 a8 bc 3e 16 dd bc 88 7f 8a bd 30 e8 1f 3c
       -0.020540437 -0.026988145 -0.06762606 0.009759948
0003f0 13 2d 0f bd db 0e 0f bc b5 1b b5 bc 17 7c b6 bc
       -0.034955095 -0.008731569 -0.022107938 -0.022275968

fc2_lin.weight f4 [128, 256]
000000 31 14 06 bb 75 81 34 ba ad 46 26 bb 5d 67 13 3d
       -0.0020458812 -0.00068857457 -0.0025371716 0.035987247
000010 f9 38 9a bb e9 d9 0b 3b 71 e2 2b bc fb 9e 1d 3c
       -0.0047064987 0.0021339601 -0.010491 0.009620423
000020 34 a1 f2 3a 85 3a 34 3c 4a 2e 4b 3a 6a b7 3c bb
       0.0018511177 0.01100028 0.0007750733 -0.0028795847
000030 6e f0 28 bb 7e 80 ff bc 4d 31 aa 3d 83 d8 17 3c
       -0.0025778073 -0.0311892 0.08310185 0.009267929
000040 ad e1 3c 3a 19 28 85 3b 68 94 f3 bb fa 1b e5 3b
       0.0007205259 0.004063618 -0.007433463 0.0069918605
000050 30 46 1e 3c 6b 17 0b bc ef 1a de ba ca 3f e8 b9
       0.009660289 -0.00848947 -0.0016945283 -0.00044298015
000060 d5 2b 83 bb a2 79 e7 3d 8c 19 d0 39 43 f0 a1 bb
       -0.004003028 0.113024965 0.00039691885 -0.0049419715
000070 5c 2f 51 bb 74 ba 0f 3c 10 fc 7d bb d5 28 13 3c
       -0.0031919098 0.008772481 -0.0038754977 0.008981903
000080 be 1b 32 3d 88 d9 82 bd 7b 42 fe 3c 93 78 5f 3b
       0.04348349 -0.06389147 0.03103756 0.0034098967
000090 a8 df ea ba 9f 18 18 3d 79 a3 34 bc 33 17 88 3c
       -0.0017919438 0.037132856 -0.011025303 0.016612625
0000a0 fc 88 cb 38 70 59 4a bb df e8 ab bb 71 8e 10 3c
       9.70531e-05 -0.0030876063 -0.0052462663 0.008823023
0000b0 f7 7d 26 bc 9c e8 c5 bb 11 8d 09 bd 10 fe c0 bc
       -0.010161868 -0.006039692 -0.033581797 -0.023558646
0000c0 6d 47 44 3d f7 98 9e bb c6 51 ec bb 9e 09 ad bb
       0.04791968 -0.004840012 -0.0072118966 -0.0052806875
0000d0 73 ff 12 3c ff 94 aa bb 12 55 b9 3b f5 96 a3 bc
       0.008972037 -0.00520575 0.005655893 -0.019969443
0000e0 f1 ec ab b9 22 b1 d8 3b e6 3e 93 3d 48 83 2b 3c
       -0.00032792197 0.0066129128 0.07189731 0.010468312
0000f0 39 c0 08 bb f4 e1 9a bb 0f a7 6c 3b 2e d3 37 bb
       -0.0020866527 -0.0047266427 0.0036110317 -0.0028049457
000100 5a 81 54 3d f9 4d 17 3b ba 46 18 ba 12 e2 20 bc
       0.05188117 0.0023087247 -0.0005808879 -0.009819524
000110 2b ff 3f bc 47 95 14 bb 39 e1 ac bc 19 92 e6 bc
       -0.011718552 -0.0022671984 -0.021103488 -0.028145837
000120 49 65 2c bc 76 e8 48 bb fb 43 80 3c 06 c6 30 bc
       -0.010522195 -0.0030656136 0.015657416 -0.0107894
000130 13 6f 21 3c 2b 61 42 3b 07 05 c4 3b 25 3f e5 3b
       0.009853142 0.0029659967 0.0059820446 0.006996053
000140 2c 15 9f 3b 7f 59 03 3c 59 26 45 bc 40 a6 ae bb
       0.004854819 0.008016943 -0.012033069 -0.005329877
000150 a0 92 16 3c 72 a8 fd 3b 63 46 13 bc 16 6c f3 3b
       0.009190232 0.0077410275 -0.0089889495 0.0074286563
000160 e5 51 d5 3d cc 21 f1 3a 14 11 a8 bb 89 b8 29 3c
       0.10416011 0.0018396913 -0.005128989 0.010358938
000170 92 40 a7 3d 4b ad 13 3c 19 d5 aa bb 85 93 bc bb
       0.08166613 0.009013484 -0.0052133915 -0.0057548904
000180 0e a2 ba bd 44 b1 f0 ba 50 10 ad bb a7 bd 3a 3b
       -0.09112941 -0.0018363376 -0.0052814856 0.002849439
000190 9d 6d 8b 3b 35 bf b9 3b 87 ef 29 3c 65 98 f8 bb
       0.0042550103 0.0056685456 0.010372049 -0.007586526
0001a0 8e 12 1c bc c2 93 7a bc 39 ed 13 bc bf 99 94 3b
       -0.009525908 -0.015294017 -0.009028726 0.0045349295
0001b0 ad 07 13 3c 32 46 28 3b fe bf 59 3d 59 02 8b 3d
       0.008973998 0.0025676605 0.053161614 0.06787557
0001c0 e8 58 08 3c bf 8e 26 3c 55 6e 19 bb b2 6e 09 bc
       0.008321978 0.010165869 -0.002341171 -0.008388208
0001d0 06 24 d0 b8 04 1e 21 3c 73 f6 3b 39 a9 e8 87 ba
       -9.924923e-05 0.009833816 0.00017925519 -0.0010369021
0001e0 c1 f8 d5 bb 7d 80 3e 39 f6 a1 97 bb fc 8f ed 3b
       -0.006529898 0.00018167678 -0.0046274615 0.0072498303
0001f0 47 ac b7 bb 0f 59 d2 3b 06 e4 0b 3c f7 5e 51 ba
       -0.005605254 0.006419308 0.008538252 -0.0007986868
000200 81 c9 fc 3d 8e 39 a1 bc cb da 32 3b 34 db 70 3a
       0.12343121 -0.019680765 0.0027291055 0.0009187937
000210 80 0b 9e ba 1e 19 19 bc af 21 13 3a cd ed 07 bb
       -0.0012057871 -0.009344367 0.0005612624 -0.0020741106
000220 fb 86 0f bb 4c 3e 25 bb 3c 4d 1a 3b e1 fd 64 3b
       -0.0021900523 -0.0025214134 0.002354457 0.0034941363
000230 c8 27 5f bb 8f 6c 14 bb e6 22 a8 3d fc 6d 51 3d
       -0.003405081 -0.0022647714 0.08209781 0.05113028
000240 2f 35 29 bc 81 22 aa 3b a4 2d 7e 3b 69 91 53 3b
       -0.010327621 0.0051921015 0.0038784528 0.0032282716
000250 e3 2a 34 bd 6e c4 27 bc 60 6b 47 bb 11 10 12 bc
       -0.043986212 -0.010239704 -0.003042899 -0.008914963
000260 b2 69 0e bc 62 32 98 bb 03 7c 00 3c 0e 12 08 bc
       -0.008692192 -0.004644678 0.007842067 -0.008305086
000270 43 9e 0e 3c 8f be 89 bb e8 08 99 3d 48 d1 77 3d
       0.008704725 -0.0042036246 0.07472402 0.06050232
000280 5f ee 36 bd c0 27 2a 3c 5a e7 27 bb 3f 8e 78 3d
       -0.044660922 0.010385454 -0.0025620074 0.06068253
000290 a6 56 45 bd 4c 44 cd bc 58 ae ed bc 4d 98 38 bb
       -0.048178338 -0.02505698 -0.029013798 -0.002816695
0002a0 00 92 0e bc 82 15 77 ba ec 43 c5 3c 4f c3 6d bb
       -0.008701801 -0.0009425507 0.02408024 -0.0036279743
0002b0 48 97 92 bd b4 39 91 3d 47 b4 bb bb df e2 87 bb
       -0.07157761 0.07091084 -0.005728278 -0.004146918
0002c0 18 40 98 b9 0b 08 e2 bb ca a2 17 3c 4d 0e e0 bc
       -0.00029039453 -0.0068979315 0.0092551205 -0.02735057
0002d0 d1 82 05 3c df c6 8c 3d 85 c9 80 3c ce 3f 36 bc
       0.008148865 0.06873869 0.015721092 -0.011123611
0002e0 11 15 a6 bb 4d bb 0a bc 47 2f e0 bb bf 10 3d bc
       -0.0050684293 -0.008467508 -0.0068415734 -0.011539637
0002f0 b2 a2 dc ba 1d 02 2d bb 71 15 48 bb ef 58 bf ba
       -0.0016833155 -0.0026398965 -0.0030530358 -0.0014598648
000300 14 10 24 bc 34 96 93 3b 17 8a 84 3b 78 ea 68 bd
       -0.010013599 0.0045039896 0.004044782 -0.05686423
000310 d5 4d 64 bd c4 2f f9 3b 96 28 13 3c 21 c8 03 3c
       -0.05573829 0.007604571 0.008981844 0.00804332
000320 2d 4b e5 3b 61 65 a1 bc c7 cb 9e bb df 96 e6 bb
       0.006997487 -0.019701662 -0.0048460695 -0.007037028
000330 90 30 08 bb 62 3b 10 bc 8a 46 95 bd 70 4f 84 3d
       -0.0020780899 -0.0088032205 -0.07288845 0.06460464
000340 77 47 cf 3d 7e 69 17 bc 20 8f 14 bb 31 79 d1 3c
       0.10121053 -0.00924146 -0.0022668317 0.025570484
000350 d9 ec 80 bc d9 ea 7c 39 11 98 0e 3c b3 ac d7 bb
       -0.015737938 0.0002412008 0.008703248 -0.0065818666
000360 e9 45 60 bd 78 bf b8 3a 9d de fa 38 c1 5c 88 b8
       -0.05475417 0.0014095148 0.00011962394 -6.502262e-05
000370 23 15 86 bd 23 51 90 bb 56 78 3f ba d3 b9 03 3c
       -0.06547 -0.0044042035 -0.0007304003 0.008039909
000380 07 1c 19 bc 5d 0e 1a 3c f8 fb f2 3d cb cd 89 bd
       -0.009345061 0.009402839 0.118644655 -0.06728705
000390 9a 33 4a 3b 64 ae 02 bc 69 cc 03 3d 5a 67 a8 bb
       0.003085351 -0.007976148 0.032177363 -0.0051392736
0003a0 30 38 e9 bb 43 6c 58 bb 4a c7 8d 3d 12 76 08 bd
       -0.007117294 -0.0033023513 0.06922777 -0.033315726
0003b0 9c 45 be 3c c8 98 a7 bb cf 6e 04 39 45 70 82 ba
       0.023226552 -0.0051146485 0.0001262978 -0.0009951672
0003c0 b0 fd 01 bc 21 1d 2a 3b 27 86 24 3c 52 c0 86 3c
       -0.007934019 0.0025957304 0.01004175 0.016449127
0003d0 23 a5 31 3b 2c 11 14 bc 73 a2 da bb 6e 57 a9 3b
       0.0027106486 -0.009037297 -0.0066721975 0.005167893
0003e0 4c 38 1c bc 7f 23 9f 3d 6d 6e b0 3d 9d d0 2e 3b
       -0.009534907 0.07770442 0.08614812 0.0026674636
0003f0 93 af cf 3d 25 e5 dc b9 f4 3c fa bb 1f c5 b3 bb
       0.1014091 -0.00042132396 -0.0076366607 -0.005486145

fc2_lin.bias f4 [128]
000000 9a c2 84 3a 1e dd ee 3d 8f b3 3d 3d cb 06 be 3b
       0.0010128797 0.116632685 0.04631382 0.0057991496
000010 3e 6e 6a bc 12 2b 6e bc e7 38 8d bc 02 bb 11 bb
       -0.01430851 -0.014536636 -0.017239047 -0.002223671
000020 78 8d 0b bd be 7e 91 bb 5b 8c b4 bc 8e 02 cf 3d
       -0.034070462 -0.0044401577 -0.022039583 0.10107909
000030 66 d9 8f bc cd cb dd bc 83 b3 23 3c 42 d1 b9 3b
       -0.017559718 -0.027074719 0.009991529 0.0056706974
000040 42 af 8c 39 3b 70 db bb 47 d7 12 3c 68 84 9d 3d
       0.00026833458 -0.0066967285 0.008962459 0.0769127
000050 f6 e5 03 bc 47 e4 61 bc e6 6e 62 bc 8c 63 d3 bb
       -0.008050432 -0.013787336 -0.013820386 -0.006451076
000060 af 9c b3 3b 25 6b 28 bc 88 06 1f bc 8e 58 e7 3c
       0.0054813246 -0.0102794515 -0.009706147 0.028240468
000070 d4 15 9d 3c 72 3c 63 3d 80 22 0f bc c0 5f 8c 3d
       0.019175448 0.055477567 -0.008736253 0.068542
000080 b2 0b 86 3d 1f c5 49 bc a6 9b 95 3a 44 13 b0 3d
       0.065451995 -0.012315064 0.0011414185 0.085974246
000090 b1 a2 20 bc 77 c5 93 3d 6b 8a 2b bc 84 45 0e 3b
       -0.009804414 0.07215398 -0.010470013 0.0021708915
0000a0 94 92 36 3d 40 df 6d bc 8a b4 72 3a 35 ad 35 3d
       0.04457338 -0.014518559 0.000925847 0.044354636
0000b0 7f a4 64 bc 8e b5 25 bc 26 d4 07 3d 7a 7c 44 bc
       -0.013955235 -0.010114087 0.033161305 -0.011992568
0000c0 d8 2d dc bc 07 4d 39 3d 55 7f 95 3b 90 de ac 3d
       -0.026877329 0.045239475 0.0045622983 0.08440888
0000d0 41 82 16 bc 4a 1c 01 bc 59 a0 d0 bc 5c f2 cd bc
       -0.009186328 -0.00788028 -0.025467085 -0.02513998
0000e0 dc 72 da bb 35 d7 26 bd 6d cf 9a bb 8c 12 26 bd
       -0.0066665243 -0.04073258 -0.004724434 -0.04054503
0000f0 d8 a0 0b 3d f9 70 30 3c 36 dd 93 bc 29 2b 39 bc
       0.03408894 0.010769122 -0.018049818 -0.011301794
000100 0a 26 57 3a 8e 27 3c bc 71 4e f0 3c b5 50 d6 3d
       0.00082072674 -0.01148404 0.029334279 0.104646124
000110 9d a0 75 3c 2f 9b 24 ba 42 76 9e 3c 0c be a1 3d
       0.0149919065 -0.00062792277 0.0193435 0.07897577
000120 49 40 c1 3d 17 e2 bb 3d bd 55 c9 bb 8e 15 1e bc
       0.094360895 0.091739826 -0.006144254 -0.009648694
000130 cb 48 8f bb 0f 39 84 3d 3b 99 f1 bc 7b f8 73 ba
       -0.0043726913 0.064561956 -0.029492011 -0.0009306741
000140 82 6d 61 bc ed 54 39 bc 23 d4 d3 bb 42 14 e5 bb
       -0.013759019 -0.011311752 -0.0064644977 -0.0069909403
000150 3e 07 ce bb bf 9c f0 3d e6 a4 09 bc 2e aa 96 bb
       -0.0062874844 0.11748647 -0.008401131 -0.0045979237
000160 1b 97 af bb 97 c2 6b bc 1a ac 5f bc 85 a8 7e 3d
       -0.0053585893 -0.014389656 -0.013651872 0.06217243
000170 ae 8c 00 bc ec 13 f5 bc 12 5b 26 bc 06 a1 64 bd
       -0.007846041 -0.029916726 -0.010153549 -0.055817626
000180 66 75 6d 3d 97 cf 9d 3c 55 e1 1a 3c a7 29 32 bc
       0.057973288 0.019264026 0.009453137 -0.0108741885
000190 e8 43 c4 bc 66 18 27 bc 0e e3 36 3d c5 ab a6 3c
       -0.023958161 -0.010198688 0.04465013 0.020345578
0001a0 34 2d 0b bd 90 03 b7 3c 7b 06 92 bb 49 e7 6c bc
       -0.033978656 0.022340566 -0.004456339 -0.01445944
0001b0 8e 9b 6a bc 7a d2 10 3d 41 73 24 bb b2 e5 e0 bb
       -0.014319314 0.035356976 -0.002509311 -0.0068633193
0001c0 4c 6c 2f bc 6f b9 2e bc 72 b9 ea bb 65 fe e7 bb
       -0.010706972 -0.010664328 -0.00716322 -0.0070798867
0001d0 e3 e3 cc bb d9 53 a6 3d 37 40 d5 3d 0b 7f f1 bc
       -0.006252752 0.081214614 0.10412639 -0.029479524
0001e0 99 bf 26 bc 9b 2f e2 3c 0c 4b 0a bc 4f 09 c9 bb
       -0.010177516 0.02761059 -0.008440744 -0.006135143
0001f0 3d c8 96 bb fd 43 74 bb de 5f 8b 3d 4d 66 8b bd
       -0.004601507 -0.003727197 0.068053946 -0.06806622

fc3_lin.weight f4 [64, 128]
000000 32 0e 69 bd c1 53 7f 3c c1 55 1d bc 61 a4 8e bc
       -0.056898303 0.015583933 -0.009602965 -0.017412366
000010 16 bd 8b 3c 47 44 08 3d ad b2 25 bc 63 ad 9d 3b
       0.017057937 0.03326824 -0.0101134 0.004811929
000020 75 d3 5c bd c3 d7 38 b8 87 f0 b1 3b c7 c3 3d ba
       -0.0539126 -4.4069962e-05 0.0054302844 -0.0007238951
000030 89 08 98 3b 15 01 0d bb 60 2e 30 bc e8 51 22 bc
       0.0046396893 -0.0021515538 -0.010753244 -0.009907223
000040 04 42 76 3c bf b8 59 3b e1 98 c8 3b 92 c2 3a 3b
       0.015030388 0.003322169 0.00612174 0.002849732
000050 60 22 29 bc 26 4a ad 3c 7b 09 44 3c 9f 94 19 bc
       -0.010323137 0.02115352 0.011965151 -0.009373813
000060 d0 23 26 bb 31 b7 87 bb ec af 87 3b 66 6b 52 bd
       -0.0025350936 -0.004141711 0.0041408446 -0.051371954
000070 ec 39 ec bb cc 36 5a 3c 79 5f 01 3b 83 0d c6 3c
       -0.0072090533 0.013318729 0.0019740744 0.024176365
000080 50 ea e4 3c b4 87 61 bc ca d1 84 bb 48 25 97 bc
       0.02794376 -0.013765264 -0.004053329 -0.018450394
000090 2c 17 bf b9 e4 c8 35 3b ad e8 f5 bb 3b 51 4b bc
       -0.00036447623 0.0027738148 -0.0075045438 -0.012409504
0000a0 37 c3 87 3c 5c 31 f9 3b 39 73 8f bb de 5f c4 3b
       0.016572578 0.007604761 -0.0043777493 0.0059928736
0000b0 52 e4 bc bb bb 30 be 3b 88 bf 1a bc f4 01 06 bb
       -0.0057645226 0.005804149 -0.009445079 -0.0020447941
0000c0 ee 79 c7 bc 6a 88 8c b9 b0 2d b0 bb 1e 09 62 bc
       -0.024350133 -0.00026804517 -0.00537654 -0.013796119
0000d0 c8 2a 30 bc d6 8d 94 bd 08 67 a4 bb 7b cb db 3b
       -0.010752387 -0.072536156 -0.005017165 0.0067076064
0000e0 d0 7e 55 bc 57 0f 41 bd 2b 1a d4 bc 0a ee d4 bc
       -0.013030723 -0.04713377 -0.025891384 -0.025992412
0000f0 76 4a 3a 3c ba 65 bf 3b d2 97 54 3c ec f1 08 3d
       0.011370292 0.005840984 0.01297565 0.03343384
000100 80 5e ec 3c 41 b8 67 39 a9 d8 4e 3c 96 41 88 3c
       0.028853655 0.00022098517 0.012624898 0.016632836
000110 46 82 4e bc 04 7c 59 bc ed 05 8d 3b 7a 30 b4 3c
       -0.012604302 -0.013274197 0.004303685 0.021995772
000120 e7 58 f0 3a 9f 71 81 b9 06 d7 86 bc f9 2b c5 3b
       0.0018337042 -0.00024689452 -0.016459953 0.006017205
000130 91 fd 6c bc 42 bf 0d bb 53 28 54 3c 92 73 c9 3b
       -0.014464752 -0.002162889 0.012949067 0.0061478103
000140 99 b2 9a 3d 5d 77 41 bc 34 59 31 3c 82 fe 54 3c
       0.07553596 -0.011808244 0.01082449 0.0130001325
000150 21 5c 0b bc dd 32 68 3c c3 9d 35 3c 8f 66 41 3c
       -0.008505852 0.014172283 0.011084977 0.011804237
000160 bc f5 10 bc 3d 82 35 3b e3 14 66 bc b2 e0 6f bc
       -0.00884765 0.0027696036 -0.014043066 -0.014640974
000170 09 4e 4b bc e2 6a 76 bd 06 af 8e bb 16 fa 09 bd
       -0.012408742 -0.060160525 -0.0043543605 -0.033685766
000180 cf 72 bc bc 33 7d cc 3c fd a4 76 3c 88 9a 0f bc
       -0.023003964 0.024962043 0.015053985 -0.00876487
000190 18 27 30 3c 8f b2 22 bb 24 5e b3 bb 96 ea 7b bc
       0.010751508 -0.0024825667 -0.005473869 -0.015375754
0001a0 4a 0d 03 3c ae d2 80 3b 04 17 05 bc d8 a6 f5 bb
       0.007998774 0.003931365 -0.008123163 -0.007496696
0001b0 50 04 0b bc a0 78 1f 3c 97 2b e1 ba 8b 32 fc 3b
       -0.008484915 0.009733349 -0.0017179128 0.007696455
0001c0 9d b4 68 bb 47 f7 ec 3b 8a cc 6c bc e2 99 cf bb
       -0.0035508045 0.007231626 -0.014453063 -0.006335483
0001d0 1b 31 a6 bb bc c0 17 3c 78 e7 bc bc 32 0d 93 bc
       -0.005071772 0.00926226 -0.023059592 -0.017950628
0001e0 e7 49 5d bc 16 f2 51 3c ba c4 98 3c a5 fe a3 3b
       -0.013506389 0.012814065 0.018648494 0.005004721
0001f0 03 da 02 3c 59 3a e3 bb 0a 2c 07 3b 84 24 34 bd
       0.007986548 -0.006934446 0.0020625615 -0.043980137
000200 79 43 66 bd e1 7f 68 3d b5 c3 1d 3c 5c 33 49 3c
       -0.05621669 0.05676258 0.00962918 0.012280311
000210 9a 89 41 3b a5 16 c8 3c 50 b0 5d 3b 08 14 4d 3c
       0.002953148 0.02442486 0.0033827014 0.012516983
000220 8c 0c c8 bd a7 6c 2d 3c 34 6c 3d 3c 00 c9 a6 3c
       -0.09768018 0.010584987 0.011561442 0.020359516
000230 98 20 17 bc 6d d3 53 bb 36 72 e7 bc 1f b8 90 3b
       -0.00922408 -0.0032322065 -0.028252702 0.00441648
000240 f6 0a 7b 3b eb 57 c6 ba a0 48 4f 3c 49 7b fd 3b
       0.0038306094 -0.0015132403 0.0126515925 0.007735644
000250 dc 90 5d bc 1c 70 a9 3c 1a 15 0e bc 0e 85 de ba
       -0.013523307 0.02068334 -0.008672023 -0.0016976909
000260 91 b8 42 3c 4e 7f f0 3b 24 e0 cb bb b7 f1 a8 bd
       0.011884824 0.0073393947 -0.006221788 -0.082492284
000270 35 a9 95 3b f6 9f c0 bc fc b4 07 bd 0e 92 07 39
       0.00456729 -0.023513775 -0.033131585 0.00012929013
000280 5a 85 95 3d dd ec 5c ba c6 d6 5c 3c 31 cc 21 3d
       0.073008254 -0.00084276294 0.01347894 0.039501373
000290 cc e2 93 bb 84 72 9f 3c a6 cd bf 3b 67 60 68 3a
       -0.0045131203 0.019463785 0.0058533726 0.0008864463
0002a0 2a 07 e9 bc 8a 49 42 3a 66 02 00 3b d5 70 00 bd
       -0.028445799 0.0007411471 0.001953268 -0.031357605
0002b0 8d 6f ba 3b 84 d5 26 3c 7c c1 fa 39 7a 02 29 3c
       0.0056895674 0.010182742 0.00047827873 0.010315532
0002c0 05 69 55 bd 1c 16 22 3d 6b 64 66 3c df 4c 68 bd
       -0.052102108 0.039571866 0.014062027 -0.056713935
0002d0 a3 08 80 bc 58 23 98 bd 10 fa ab bb 2a d9 48 3c
       -0.015629118 -0.07428616 -0.0052483156 0.012258807
0002e0 9d e7 ad 3b f3 b1 6f bd 3a 0e 6d bd be 6d d8 bd
       0.0053071515 -0.058519315 -0.057874896 -0.10567807
0002f0 f9 3d 87 bc e2 71 57 bc 48 e7 35 3b ae 9f 80 3c
       -0.016509043 -0.01314971 0.0027756263 0.015701141
000300 59 60 ad bb d3 af 2c 3c b5 02 ee 3b 46 a3 48 3b
       -0.0052910266 0.010539967 0.0072635063 0.0030614897
000310 04 47 8f bb b0 88 07 3c 73 37 db 3c e5 da 7c 3d
       -0.0043724794 0.008272335 0.026759839 0.06173219
000320 b2 88 c3 3c 33 35 32 3c 1e 79 8a bd 08 ea 58 39
       0.023868892 0.0108769415 -0.067613825 0.00020686549
000330 a6 f6 48 3c 56 28 30 3d 42 da 26 3c e8 57 4b 3c
       0.012265837 0.043007217 0.010183873 0.012411095
000340 c3 97 23 3d 93 29 37 3a 01 bb 3a bc 40 1c c8 3b
       0.039939653 0.0006987091 -0.011397124 0.0061068833
000350 2e c9 37 bb 17 7f 2c 3d c5 a5 8f bb 30 b1 22 ba
       -0.0028043496 0.04211339 -0.004383775 -0.00062062126
000360 0e d5 22 3c 26 2c 6a 3c e9 f3 bf 3a 77 c0 a3 bc
       0.0099384915 0.014292752 0.0014644834 -0.019989235
000370 33 c1 37 bc 6f c0 8f bd ac 32 a2 bb 6a 60 8b bd
       -0.011215496 -0.07019126 -0.004949888 -0.06805499
000380 82 07 06 bd 9e 08 11 3d dd d2 b3 3c e3 b5 9e bb
       -0.032722004 0.03540861 0.021951133 -0.00484346
000390 34 16 08 3d 88 e4 16 bc 92 83 5f bc e7 68 33 bd
       0.0332243 -0.0092097595 -0.013642209 -0.043801215
0003a0 fe b9 84 3c fc c9 c0 bc 2d 14 e5 3b b0 69 88 3b
       0.01620197 -0.023533814 0.0069909305 0.0041629896
0003b0 44 0e 48 bc 06 58 9e bc e0 94 0a 3b 1e 61 4d bc
       -0.012210432 -0.019329082 0.0021145865 -0.012535362
0003c0 3c 27 25 3c e3 97 d3 bc 67 66 37 bc 13 0f 59 3c
       0.010080155 -0.025829261 -0.011193848 0.013248223
0003d0 28 8d 56 3c 08 71 cc ba c0 a6 2c 3d 5b 99 34 bd
       0.013095178 -0.0015597651 0.042151213 -0.044091564
0003e0 65 40 b7 bb d9 48 46 bc d1 68 ec 3c 12 d4 b2 3b
       -0.005592393 -0.012102329 0.028858574 0.0054574097
0003f0 88 b6 bb bb fb 66 30 bc 22 8e 14 3d 9b 16 9f bd
       -0.0057285465 -0.01076674 0.03626836 -0.077679835

fc3_lin.bias f4 [64]
000000 2b da 2e 3d f8 8d 03 3e ee a5 f9 3a a0 62 af bc
       0.04268853 0.12847126 0.0019046643 -0.021409333
000010 99 1b fe 3d 0f 20 a6 bb 00 5e 07 3e b1 68 02 3e
       0.124076076 -0.0050697397 0.13219452 0.12735249
000020 c8 47 64 bc a0 4f fd 3d 76 96 11 3e e5 ad d3 3d
       -0.01393313 0.12368703 0.14217553 0.10335902
000030 aa 2b af bc e0 ea 24 3e 08 33 91 bc 6a 60 19 3e
       -0.021383125 0.16105223 -0.017724529 0.14978185
000040 33 34 46 3d d1 c0 c0 3d ed 53 f0 bb 1e 06 7e 3d
       0.048389625 0.09411777 -0.0073342235 0.062017553
000050 98 21 70 bc 90 db 1c 3e 65 34 15 3e 3c 4e cc 3d
       -0.014656447 0.15318131 0.14570768 0.099758595
000060 ee 64 0d 3e 2e 94 03 3e f0 09 04 3e b6 9b 25 3e
       0.13808033 0.12849495 0.12894416 0.1617268
000070 9e ab 6f bc 4f b0 25 3e dd 5d 8a bc ec 5a 23 bc
       -0.014628319 0.16180538 -0.01689046 -0.009970408
000080 1b e9 0a bc 62 b2 d1 3d bd 03 e5 3d 81 30 e0 3d
       -0.008478428 0.10239102 0.11182354 0.109467514
000090 e5 79 f8 3d 2b e2 7f 3d 5f fa a2 bc 56 4c 99 3d
       0.121326245 0.06247155 -0.019894777 0.07485263
0000a0 a1 4a ed bc d1 d0 eb 3d 1d be 5d 3d 9c 88 91 3d
       -0.02896625 0.11514438 0.054136384 0.07106134
0000b0 ba bd eb 3d 93 39 2a bc e0 c0 ce 3d 08 04 8f bc
       0.11510797 -0.010389703 0.10095382 -0.017457977
0000c0 8c 9f 38 3e 37 bd b7 bc e7 5a 69 bc e2 f3 78 bc
       0.18029612 -0.022429092 -0.014242864 -0.015194865
0000d0 0e 08 90 3d a6 df 28 3c 9c ff 1c 3e 90 55 ca 3d
       0.07032786 0.010307228 0.15331882 0.09879601
0000e0 b5 21 ba 3d bd 52 fe 3d ff d7 fe 3d dc 12 a2 bc
       0.0908846 0.12418125 0.12443542 -0.019784383
0000f0 94 12 06 3e 37 9d 04 3e 8e 1c ac bc a6 35 95 bc
       0.13093024 0.12950598 -0.02100971 -0.018214058

fc4.weight f4 [2, 64]
000000 88 8c 9d 3c ba 95 10 3e 61 26 d6 bc ec 56 66 bb
       0.01923205 0.14119616 -0.026141347 -0.0035147024
000010 84 cf c5 3d f6 f3 87 bc 9e d9 18 3e 4f 74 1d 3e
       0.09658721 -0.016595822 0.14926764 0.153764
000020 84 28 5b 3b d5 25 06 3e a6 bd 36 3e 4c 1b 13 3e
       0.0033440897 0.1310037 0.17845783 0.14365882
000030 01 e9 34 bb 2e 78 19 3e 5d d1 ae 3c 8f ce 17 3e
       -0.0027604701 0.14987251 0.021340067 0.1482489
000040 be 75 ae bd 02 79 a3 3d 3c 2d 8d bb b0 8d 0d 3e
       -0.08518551 0.07982065 -0.004308371 0.1382358
000050 69 5d 25 3b fa f8 07 3e 46 b5 4f 3e 20 62 e0 3d
       0.0025232679 0.13278571 0.20283994 0.10956216
000060 ed d8 0f 3e 4c eb 22 be 3f 0f 0a 3e 14 5c 4f 3e
       0.14047594 -0.15910071 0.13482378 0.20249969
000070 66 00 1b 3c e9 30 45 3e e2 30 83 bc 2a 6c 96 3c
       0.009460544 0.19256939 -0.01601452 0.018362124
000080 a9 8b 46 bc e6 7f 10 3e c6 1b fd 3d 55 a2 f5 bd
       -0.0121182585 0.1411129 0.12358813 -0.11993853
000090 6d 9d bf 3d 9c 7c 18 be 25 d6 9a bb a8 13 2b be
       0.093561985 -0.14891285 -0.004725235 -0.16706717
0000a0 78 c0 90 bb a9 76 f7 bd 43 8b b4 bd 0d a5 1c be
       -0.0044174753 -0.120831795 -0.088156246 -0.15297337
0000b0 14 78 f2 3d ba 05 02 3b ac eb ad 3d cc cb f9 bb
       0.11839309 0.001983984 0.084922165 -0.0076231714
0000c0 2e 56 3d 3e 25 99 4d 3b 1e 8a c1 3a 3e 5f 36 3c
       0.18489906 0.0031371799 0.0014765894 0.011131106
0000d0 89 e2 03 be 47 78 3d bd 05 2c 0a 3e a7 69 e3 3d
       -0.12879385 -0.046257284 0.13493355 0.11104136
0000e0 82 c0 19 3e c2 10 00 3e 3e 03 1f be ed fa 82 3c
       0.15014842 0.12506393 -0.1552858 0.015988791
0000f0 28 1c 3b be 53 58 1c 3e 50 38 b8 3a 1d 7b 85 bc
       -0.1827246 0.15268068 0.0014054868 -0.016294057
000100 71 e3 2a bd e7 b1 da bd 18 af 01 bc 2f e5 19 3c
       -0.04172081 -0.106784634 -0.007915281 0.0093930205
000110 be be 05 be f4 0a 2a bc b3 50 37 be b3 46 0a be
       -0.13061044 -0.010378588 -0.17901878 -0.13503532
000120 ba 7d cf bb 3b 60 f5 bd 60 1e 2b be 12 f9 ff bd
       -0.0063321264 -0.11981245 -0.16710806 -0.12498678
000130 8e 74 40 3c 25 bd 04 be d5 cf 0a bb 4b 6a 38 be
       0.011746539 -0.12962778 -0.0021181006 -0.18009298
000140 5e 61 94 3d 0a 82 93 bd 1d 69 4a bc 2b cc 0e be
       0.07245134 -0.07202537 -0.0123541625 -0.13945071
000150 40 8b b5 bb 5f 91 1c be c2 b7 6d be 11 15 c3 bd
       -0.0055402815 -0.1528983 -0.2321463 -0.095255025
000160 2e f3 1f be 87 9f 10 3e a2 2a 1e be c8 34 4f be
       -0.1562011 0.14123355 -0.1544595 -0.20234978
000170 b2 67 1e 3c 7f 33 53 be c1 e8 3b bc c6 22 8c 3c
       0.009668278 -0.20625113 -0.011469067 0.017106425
000180 07 f2 bb 3b 00 98 dc bd 49 a8 0c be 72 e4 ed 3d
       0.005735639 -0.10771179 -0.1373607 0.11615838
000190 dc a4 d1 bd a1 cb 2b 3e 57 c0 46 bc e6 96 28 3e
       -0.102365226 0.16776897 -0.012130818 0.16463813
0001a0 fa 24 ee 3b c6 ba 06 3e 8e 56 89 3d 90 a9 06 3e
       0.0072675915 0.13157186 0.06705962 0.1315062
0001b0 1a 5e 01 be 5e 27 be ba a3 e0 d1 bd 68 6d 42 ba
       -0.12633553 -0.0014507582 -0.10247924 -0.00074168155
0001c0 05 3b 32 be bc 03 88 3c ac 5a 1d 3c cd 4d 1d bb
       -0.17405327 0.016603343 0.009604137 -0.0024002672
0001d0 4e 8a 17 3e 8a 6c e7 3c bd 2a 22 be 16 65 fb bd
       0.14798853 0.028249998 -0.15836616 -0.1227514
0001e0 20 c6 00 be 4d ce 0e be 1e ba 18 3e 25 5b 28 3c
       -0.12575579 -0.13945885 0.14914748 0.010275637
0001f0 9f 3d 3a 3e 82 c1 10 be ff 74 cd 3b 0b 34 8c ba
       0.18187569 -0.14136317 0.0062700505 -0.0010696662

fc4.bias f4 [2]
000000 83 75 7b 3f e2 f3 7d bf
       0.98226184 -0.9920026
