MWNet/old_data_results/checkpoints/model_epoch_180.pt (torch, 234127 bytes, 8 tensors)

fc1_lin.weight f4 [256, 64]
0.016644666 -0.014593086 0.008330598 -0.020056302 -0.0050663967 0.010163844 0.010300297 -0.0066171605
-0.0020010993 8.5202184e-05 -7.244785e-05 0.0025784955 0.002531865 -0.016817408 0.013424325 -9.417363e-05
-0.003537319 -0.007463473 -0.009134359 0.0026562822 0.019893896 -0.009412458 0.011770714 0.012138046
0.0023144234 -0.011916738 0.013176725 -0.0033898465 -0.015486312 0.003012655 -0.0062939893 0.0010798199
0.0033657697 0.011294816 -0.020726744 0.019545648 0.004981724 -0.012670392 0.0047708685 0.015438895
0.004506244 -0.00025502665 0.018750118 -0.013348601 -0.010110501 0.01996125 -0.018610151 0.0058910064
0.007454638 0.0039017932 0.016802719 0.0039909584 -0.0010511371 0.017359601 -0.0071842405 0.0031383848
-0.0020866801 0.015324037 -0.005930715 0.0048441985 0.016466694 -0.013160186 0.012881486 0.01692221
-0.00755197 0.035138227 -0.006916227 0.0027162114 0.0046296427 -0.009981518 0.010485791 0.017474638
0.036371812 0.029973967 0.01550318 0.01971333 0.029276807 -0.011764292 0.010220573 0.005013597
-0.0079635745 0.00030805715 0.015276103 -0.0033700843 -0.015086053 -0.0067181056 -0.0014062742 -0.0015297508
-0.019548912 -0.015416392 -0.012023553 -0.01841942 0.015622251 -0.01095657 0.06204819 -0.011750455
0.009261005 0.012304692 0.011993973 -0.11454266 0.010187473 0.01938054 0.00023293533 -0.01167727
0.03144896 0.019115087 -0.014274362 -0.04652952 -0.012353814 -0.006331439 -0.017428553 0.0027308122
0.016521884 0.0500125 -0.011749558 0.0062728375 -0.0071439343 0.0023427466 0.019998875 -0.0021942179
0.016159251 -0.00556872 -0.011120143 -0.016619416 0.0014278755 0.00458697 0.0011956817 -0.019097874
-0.006137505 -0.0024608127 0.0032310495 -0.0119293695 -0.0088638235 0.00017826464 -0.011740254 -0.0096475575
0.011948865 0.0075370558 0.019723162 -0.011621349 -0.010826113 -0.029670926 -0.018287702 0.01619296
0.010100218 -0.015506506 -0.0012940293 0.0102719655 -0.012412569 -0.009988912 0.009778681 -0.0122295525
0.016538735 -0.011476794 0.02061284 -0.013858514 -0.018290788 -0.007622411 0.011630078 0.0013057095
0.0010665284 0.009848336 0.014737665 -0.012662907 -0.012655489 -0.01777797 -0.009311618 -0.018079834
0.09160807 -0.015616875 0.014378868 0.011512548 -0.005209268 0.0015372254 -0.011721196 -0.015331898
-0.010112467 -0.0074817045 0.014318027 -0.0022690836 -0.0016708208 0.003259891 0.0038272159 -0.020336812
0.007666288 0.0044947774 0.009360995 0.016451642 -0.0018707806 -0.017793624 -0.02436846 -0.008596558
0.064053066 -0.007125437 -0.017303035 -0.0049801245 0.0024558867 0.019217385 -0.010250885 -0.01638201
-0.06533205 -0.020946115 -0.020360311 0.005230742 0.013005616 0.06981171 0.032645028 0.017214414
-0.0025083297 0.018738627 0.008000844 -0.017464539 0.06991239 0.005212584 -0.001526909 0.027568346
-0.015005534 -0.01700015 -0.019391974 0.0045582857 -0.0041171336 0.019580865 -0.114462405 -0.05221918
0.006428783 -0.012744209 -0.0041894787 0.15096448 -0.009360647 -0.021476114 -0.02773414 0.007674149
0.05921101 0.010211785 -0.016167086 0.041454893 0.012384222 0.02039304 -0.020864336 -0.016287036
0.0066812295 -0.044694576 0.00954816 -0.017735878 0.028907927 -0.007136706 0.0149476025 -0.06847062
0.016374575 0.008580293 0.025296438 -0.020891014 -0.007302499 0.01773565 -0.01326558 -0.012097465
00000000: 655a 883c d717 6fbc 0f7d 083c 1d4d a4bc
00000010: 0404 a6bb 4086 263c 94c2 283c c4d4 d8bb
00000020: e024 03bb 93ae b238 25ef 97b8 fafb 283b
00000030: a5ed 253b a9c4 89bc b3f1 5b3c 157f c5b8
00000040: 5dd2 67bb 2690 f4bb 47a8 15bc 0515 2e3b
00000050: 86f8 a23c b636 1abc f4d9 403c a8de 463c
00000060: 95ad 173b 6c3e 43bc 31e3 573c 3028 5ebb
00000070: 4dba 7dbc f76f 453b cf3d cebb be88 8d3a
00000080: 3f94 5c3b e40d 393c 22cb a9bc 321e a03c
00000090: bb3d a33b 7a97 4fbc f254 9c3b 6bf3 7c3c
000000a0: 1da9 933b 19b5 85b9 d999 993c 17b4 5abc
000000b0: 84a6 25bc c685 a33c 5174 98bc 5809 c13b
000000c0: 0946 f43b 3ab5 7f3b dba5 893c 96c6 823b
000000d0: 4fc6 89ba b935 8e3c c769 ebbb 5cad 4d3b
000000e0: afc0 08bb ab11 7b3c 7156 c2bb 15bc 9e3b
000000f0: 29e5 863c d29d 57bc de0c 533c 72a0 8a3c
00000100: 8476 f7bb 1aed 0f3d 84a1 e2bb 7702 323b
00000110: 42b4 973b 8589 23bc 98cc 2b3c f926 8f3c
00000120: 9cfa 143d f78b f53c 0d01 7e3c d97d a13c
00000130: ead5 ef3c 04bf 40bc 3174 273c 1a49 a43b
00000140: a779 02bc bb82 a139 9f48 7a3c a2dc 5cbb
00000150: 7e2b 77bc 8e23 dcbb bb52 b8ba eb81 c8ba
00000160: 0a25 a0bc 0995 7cbc 70fe 44bc 53e4 96bc
00000170: 78f4 7f3c 2f83 33bc 3e26 7e3d fb84 40bc
00000180: 78bb 173c 9e99 493c 5e82 443c 5895 eabd
00000190: 5ce9 263c f0c3 9e3c 1a40 7439 0552 3fbc
000001a0: a0d0 003d 3e97 9c3c 03df 69bc bd95 3ebd
000001b0: a767 4abc f677 cfbb 53c6 8ebc 6df7 323b
000001c0: e758 873c e8d9 4c3d 3881 40bc 608c cd3b
000001d0: aa17 eabb c488 193b aed4 a33c decc 0fbb
000001e0: 6860 843c cf79 b6bb 4331 36bc 7125 88bc
000001f0: 8d27 bb3a 4b4e 963b 6cb8 9c3a 2573 9cbc
00000200: 201d c9bb 9645 21bb 04c0 533b 6773 43bc
00000210: 9239 11bc 8dec 3a39 325a 40bc ca10 1ebc
00000220: 2cc5 433c 68f9 f63b 7892 a13c 7867 3ebc
00000230: 0260 31bc 7110 f3bc 17d0 95bc 19a7 843c
00000240: 627b 253c 000f 7ebc 6b9c a9ba bf4b 283c
00000250: 165e 4bbc 89a8 23bc c336 203c 765e 48bc
00000260: 3e7c 873c 2a09 3cbc 42dc a83c d20e 63bc
00000270: 90d6 95bc 6bc5 f9bb 158c 3e3c 5724 ab3a
00000280: c1ca 8b3a ea5a 213c 3f76 713c 1578 4fbc
00000290: f858 4fbc 1ba3 91bc c28f 18bc 291c 94bc
000002a0: 039d bb3d ecdd 7fbc 5895 6b3c 209f 3c3c
000002b0: 82b2 aabb ba7c c93a 420a 40bc a432 7bbc
000002c0: c3ae 25bc 1629 f5bb 2896 6a3c e8b4 14bb
000002d0: 71ff daba e5a3 553b 07d2 7a3b 6399 a6bc
000002e0: 7c35 fb3b ed48 933b dc5e 193c 98c5 863c
000002f0: fb34 f5ba efc3 91bc 5da0 c7bc 94d8 0cbc
00000300: 412e 833d 7f7c e9bb 18bf 8dbc 5030 a3bb
00000310: f1f2 203b c76d 9d3c 54f3 27bc 9133 86bc
00000320: cfcc 85bd 3097 abbc abca a6bc a566 ab3b
00000330: 8215 553c 71f9 8e3d cbb6 053d 3e05 8d3c
00000340: ca62 24bb c081 993c f915 033c cb11 8fbc
00000350: 3a2e 8f3d 53ce aa3b 9022 c8ba 03d7 e13c
00000360: c5d9 75bc e643 8bbc ebdb 9ebc ac5d 953b
00000370: 05e9 86bb 0d68 a03c 446b eabd c7e3 55bd
00000380: 8aa8 d23b 16cd 50bc e547 89bb 6f96 1a3e
00000390: 665d 19bc adee afbc b532 e3bc 6d77 fb3b
000003a0: 3e87 723d 554f 273c d670 84bc 9bcc 293d
000003b0: 31e7 4a3c 4e0f a73c afeb aabc 646c 85bc
000003c0: 37ee da3b a911 37bd e36f 1c3c d54a 91bc
000003d0: 51d0 ec3c 07db e9bb cae6 743c 533a 8cbd
000003e0: f923 863c 5b94 0c3c 7a3a cf3c a223 abbc
000003f0: cd49 efbb 5b4a 913c e057 59bc 7234 46bc

fc1_lin.bias f4 [256]
-0.0030831012 0.004505374 -0.005505385 -0.04767365 0.008267341 0.0065589137 -0.019770805 -0.019530162
-0.009882456 -0.027261233 -0.0052338555 -0.012067767 -0.009508075 0.01661565 -0.043499295 -0.00694286
0.0087531535 -0.009573553 -0.009212277 -0.01612276 -0.0068487828 -0.0012031189 0.018935684 -0.016434276
-0.0012331039 -0.022092868 -0.009758541 0.013336181 0.010226974 -0.0046971003 0.00024132378 -0.020841233
-0.028601712 0.012106627 -0.016074028 -0.0014254893 -0.016405301 -0.056067515 0.05745154 -0.03113855
0.0068552354 -0.0016155394 -0.011210904 -0.0076176138 0.020801203 -0.009617421 0.07068464 0.04609547
-0.03495516 -0.0067719906 -0.015818441 -0.0015594299 0.013615064 -0.0161228 0.0044755475 0.047022913
-0.0046099615 -0.016254881 -0.020218687 -0.016772948 -0.0067913258 -0.015074895 -0.0057870373 0.010038984
0.0009394451 -0.020281203 -0.020102112 -0.014548116 -0.007825336 0.021559976 0.041667983 0.06068199
-0.00085926004 -0.016245855 -0.009024574 0.0020260725 -0.009891493 -0.015860816 0.0022902961 0.0016008258
-0.0126379775 -0.014391321 0.018751578 -0.017941058 0.0040942016 0.009523155 0.009917539 -0.009149593
-0.043824635 -0.020069808 -0.008661685 -0.0043126806 -0.022679683 0.013631975 -0.01412846 -0.022417063
0.04486032 -0.02017493 0.0023165185 -0.012510179 -0.00025539054 -0.019090991 -0.018303173 -0.0013010675
-0.010585635 0.041207585 -0.020984896 0.055035703 -0.0031595642 -0.005864249 -0.019834738 -0.020495139
-0.011481903 -0.022220826 -0.019173512 -0.0014113877 0.011828528 -0.01712751 -0.013881321 -0.015025674
0.0019125091 -0.00083013583 0.004349145 0.001571476 -0.00061332306 -0.020181747 -0.017811358 0.001715011
-0.027645202 0.0013528615 0.028001754 0.013582286 0.0056300247 -0.0119351335 -0.014405974 0.010406556
0.0008662277 -0.0024959296 0.01626523 -0.018479822 -0.016683515 0.00033128535 -0.0060989647 -0.029657923
-0.0060197674 -0.0013845715 0.02517179 -0.010980242 0.024864182 0.020995608 -0.0043048635 -0.006650412
0.0022298885 0.013280145 -0.005951415 0.0013027776 0.015930895 0.01798245 -0.01974151 -0.02427908
0.04545707 -0.012317674 -0.014124105 -0.026625497 0.018725054 0.023465862 0.025497947 0.004255879
-0.00892194 -0.005830596 -0.027624076 -0.016980167 0.057831142 -0.009892417 0.0015283809 0.0029923387
0.0021173498 0.0060980623 -0.016198998 0.037072077 -0.011640454 -0.053717826 -0.012686375 0.00044056828
-0.0026147615 -0.0024938756 -0.009756549 0.01106532 0.0011871136 -0.014266614 -0.006830798 0.011989774
-0.0039047827 -0.016934877 -0.012382518 0.057673138 0.063544504 -0.01820767 -0.037047245 -0.011644219
-0.0071089133 0.045265228 -0.0024691874 0.007154338 -0.0038654157 0.0050360053 0.06366998 -0.009455456
-0.03686203 0.014309417 -0.009450138 -0.012247179 0.016831191 -0.018808559 0.018254254 0.01683619
0.02217903 -0.009496643 -0.017567817 -0.0083747795 0.06817134 -0.015134901 -0.0062110336 -0.0012442323
-0.004099963 -0.0036492592 -0.032217357 0.022712382 0.007436479 -0.00045904747 -0.0059849164 0.026476927
0.0008351632 0.014306451 -0.012068449 0.07071878 -0.060952302 0.0018633594 -0.016976118 0.009046213
-0.012752509 -0.01557595 -0.018121356 -0.03630584 -0.01100361 0.007156838 -0.015146459 0.016568866
-0.020405209 -0.02707891 -0.064517446 0.009696022 -0.036624946 -0.008084634 -0.021962876 -0.022129048
00000000: db0d 4abb d1a1 933b 8466 b4bb 7245 43bd
00000010: be73 073c 28ec d63b 62f6 a1bc b8fd 9fbc
00000020: 06ea 21bc f352 dfbc c380 abbb e2b7 45bc
00000030: c2c7 1bbc 8b1d 883c 512c 32bd ee80 e3bb
00000040: 6369 0f3c 64da 1cbc 17ef 16bc e113 84bc
00000050: c16b e0bb f9b1 9dba 021f 9b3c 2da1 86bc
00000060: 1aa0 a1ba 1afc b4bc 4ae2 1fbc ff7f 5a3c
00000070: 0a8f 273c 22ea 99bb dc0b 7d39 3cbb aabc
00000080: 234e eabc e05a 463c aead 83bc 7cd7 baba
00000090: 6964 86bc 0da7 65bd 4e52 6b3d 4616 ffbc
000000a0: e2a1 e03b 82c0 d3ba f1ad 37bc 2d9d f9bb
000000b0: 4967 aa3c 6392 1dbc 1cc3 903d 9bce 3c3d
000000c0: 242d 0fbd 93e7 ddbb ad95 81bc c965 ccba
000000d0: b811 5f3c f613 84bc 9da7 923b 199b 403d
000000e0: 290f 97bb f528 85bc a9a1 a5bc 6c67 89bc
000000f0: c589 debb b1fc 76bc 30a1 bdbb 8d7a 243c
00000100: 1845 763a c424 a6bc 2fad a4bc 395b 6ebc
00000110: d735 00bc 8c9e b03c 0cac 2a3d ae8d 783d
00000120: f73f 61ba 0716 85bc cfdb 13bc dbc7 043b
00000130: ee0f 22bc 8bee 81bc cb18 163b cdd2 d13a
00000140: 850f 4fbc 93c9 6bbc e99c 993c 20f9 92bc
00000150: a728 863b 0207 1c3c 2c7d 223c 2de8 15bc
00000160: 7681 33bd 7069 a4bc bde9 0dbc 6351 8dbb
00000170: beca b9bc a658 5f3c 0e7b 67bc fda3 b7bc
00000180: 74bf 373d e545 a5bc bbd0 173b 7ef7 4cbc
00000190: f0e5 85b9 b664 9cbc 89f0 95bc 9588 aaba
000001a0: 5f6f 2dbc 49c9 283d 84e8 abbc 1e6d 613d
000001b0: b110 4fbb e328 c0bb 767c a2bc 6ce5 a7bc
000001c0: 971e 3cbc 7308 b6bc c511 9dbc 50fe b8ba
000001d0: 71cc 413c fe4e 8cbc 7b6e 63bc 3f2e 76bc
000001e0: 28ad fa3a 799d 59ba 4683 8e3b fcf9 cd3a
000001f0: 6ac7 20ba 3154 a5bc 20e9 91bc 38ca e03a
00000200: 3178 e2bc 8052 b13a ef63 e53c 3d88 5e3c
00000210: 127c b83b 948b 43bc 0907 6cbc 4280 2a3c
00000220: 8f13 633a c092 23bb a93e 853c ff62 97bc
00000230: deab 88bc 5eb0 ad39 d3d9 c7bb 2cf5 f2bc
00000240: 7841 c5bb 837a b5ba 1235 ce3c 79e6 33bc
00000250: f8af cb3c fbfe ab3c d00f 8dbb b3eb d9bb
00000260: 5223 123b f794 593c 1604 c3bb f6c1 aa3a
00000270: 8281 823c ee4f 933c f2b8 a1bc ece4 c6bc
00000280: 3131 3a3d 12d0 49bc ca68 67bc b71d dabc
00000290: 4965 993c 7b3b c03c 12e1 d03c e774 8b3b
000002a0: 542d 12bc 960e bfbb e34b e2bc fe19 8bbc
000002b0: 59e0 6c3d ce13 22bc f453 c83a 1d1b 443b
000002c0: 3cc3 0a3b 41d2 c73b c3b3 84bc e4d8 173d
000002d0: 9ab7 3ebc 3907 5cbd 83da 4fbc 13fc e639
000002e0: 6b5c 2bbb 4a70 23bb efd9 1fbc 514b 353c
000002f0: ec98 9b3a 84be 69bc e3d4 dfbb c270 443c
00000300: 62e7 7fbb 03bb 8abc 0be0 4abc ab3a 6c3d
00000310: 9f23 823d 4028 95bc dabe 17bd 65c7 3ebc
00000320: e3f1 e8bb 0868 393d 17d2 21bb f06e ea3b
00000330: ea52 7dbb 1305 a53b 6865 823d 0feb 1abc
00000340: a4fc 16bd 0c72 6a3c c0d4 1abc 64a8 48bc
00000350: 91e1 893c 6814 9abc f289 953c 0dec 893c
00000360: ccb0 b53c cf97 1bbc 62ea 8fbc 5f36 09bc
00000370: 6a9d 8b3d 60f8 77bc ed85 cbbb 8215 a3ba
00000380: fb58 86bb 6928 6fbb 59f6 03bd 510f ba3c
00000390: b5ad f33b 4fac f0b9 1e1d c4bb 24e6 d83c
000003a0: dbee 5a3a 9b65 6a3c beba 45bc 02d5 903d
000003b0: 1fa9 79bd f73b f43a 8011 8bbc 9136 143c
000003c0: e6ef 50bc 4532 7fbc 3d73 94bc 6fb5 14bd
000003d0: 7c48 34bc e983 ea3b db28 78bc 6ebb 873c
000003e0: d328 a7bc 97d4 ddbc b921 84bd 10dc 1e3c
000003f0: 0a04 16bd 6a75 04bc 7deb b3bc fa47 b5bc

fc2_lin.weight f4 [128, 256]
-0.0020323584 -0.00068404136 -0.0024399979 0.035751212 -0.004675696 0.0021198227 -0.010422156 0.009557184
0.0018389755 0.010927749 0.00081378105 -0.0028605808 -0.0025609038 -0.030984124 0.08273079 0.009206726
0.0007157648 0.004036902 -0.0073845317 0.00694576 0.009596363 -0.008433827 -0.0018073982 -0.00044006045
-0.003976597 0.11261531 0.0003943065 -0.004842411 -0.003239348 0.008714702 -0.0037885683 0.0089228945
0.043854434 -0.0636644 0.031185448 0.0033874612 -0.0017801239 0.036886986 -0.011058894 0.016503647
9.641493e-05 -0.003067322 -0.0052118446 0.008765244 -0.009875755 -0.0059998464 -0.03348044 -0.023625528
0.04824191 -0.004808049 -0.007164567 -0.0052475967 0.008913028 -0.0051713283 0.005618658 -0.020061053
-0.0003257706 0.006569271 0.07150713 0.010399468 -0.0020728225 -0.004695445 0.0035873372 -0.0026382008
0.051497027 0.002293589 -0.0005770462 -0.0097548235 -0.01144583 -0.00207632 -0.021177996 -0.028185232
-0.010411839 -0.0030453994 0.015944581 -0.010606269 0.009787987 0.0029464911 0.0059427056 0.0069499523
0.004822856 0.007964081 -0.011906975 -0.005294841 0.009129994 0.0076900097 -0.008900413 0.007379785
0.10330822 0.0018275527 -0.0048716366 0.010290937 0.08184602 0.008954476 -0.00517897 -0.0057169516
-0.09081965 -0.0018242414 -0.0052467175 0.0028306914 0.004226966 0.005631103 0.010303813 -0.0075367377
-0.0094632115 -0.015264152 -0.008969718 0.0044164313 0.008914989 0.002550757 0.052812546 0.06769018
0.008267141 0.010099214 -0.0023258042 -0.008332888 -2.7563847e-05 0.009768846 0.00017807905 -0.0010301218
-0.006486871 0.00018048585 -0.00459699 0.007202085 -0.0056566745 0.00637693 0.008481702 -0.0007934436
0.122827455 -0.019550577 0.0025555014 0.00091273774 -0.00119782 -0.0092829 0.0005575744 -0.002060543
-0.0021756075 -0.0025048172 0.0023569358 0.003471086 -0.0033826455 -0.0022498884 0.082220435 0.051353753
-0.010260007 0.005157875 0.003979271 0.0032070654 -0.04384147 -0.010048918 -0.0030229222 -0.008855955
-0.008634977 -0.0046139443 0.007790434 -0.008250624 0.008647243 -0.004091433 0.074241936 0.06080093
-0.044732805 0.010316978 -0.002545104 0.060685746 -0.047864363 -0.025009964 -0.028915362 -0.0027982548
-0.008533919 -0.00093633676 0.023922065 -0.0036040626 -0.07162886 0.07106601 -0.0056907684 -0.004203977
-0.00028409742 -0.0068524457 0.009194174 -0.027338445 0.008094941 0.06899603 0.015746064 -0.011015154
-0.005035237 -0.008412187 -0.0067967023 -0.011391623 -0.0016722514 -0.0026225273 -0.0030330122 -0.0014502621
-0.009947538 0.0044744853 0.004018351 -0.056859277 -0.05552579 0.007554604 0.008922836 0.007990458
0.0069513866 -0.019328002 -0.0048141065 -0.006990851 -0.002064434 -0.008745441 -0.072675444 0.06453361
0.100692004 -0.009180787 -0.0022519066 0.025563369 -0.01556117 0.0002396124 0.008841163 -0.0063982597
-0.05477527 0.0014002791 0.00011883639 -6.4594045e-05 -0.06563691 -0.004375314 -0.0007255916 0.007987048
-0.009283594 0.009341371 0.11754077 -0.06720691 0.0030650669 -0.007923286 0.032210633 -0.004980058
-0.0070705786 -0.0032805619 0.069563106 -0.03334051 0.023074113 -0.0050808415 0.00012547184 -0.000988581
-0.007881965 0.0025797484 0.009975365 0.016340945 0.002692823 -0.008785088 -0.0066283676 0.005134086
-0.00947221 0.077671885 0.08610699 0.0026499454 0.10105229 -0.00033972418 -0.0075863027 -0.0054498794
00000000: 5131 05bb 3d51 33ba 5fe8 1fbb dd6f 123d
00000010: 9536 99bb b9ec 0a3b b1c1 2abc bc95 1c3c
00000020: c709 f13a 4d0a 333c ec53 553a 9578 3bbb
00000030: d6d4 27bb 6bd2 fdbc c36e a93d cfd7 163c
00000040: 2aa2 3b3a fd47 843b f1f9 f1bb 4299 e33b
00000050: 103a 1d3c 092e 0abc 38e6 ecba eab7 e6b9
00000060: 1d4e 82bb dba2 e63d ecba ce39 16ad 9ebb
00000070: 3e4b 54bb 1cc8 0e3c a149 78bb 5531 123c
00000080: b5a0 333d 7b62 82bd a078 ff3c 2b00 5e3b
00000090: 0c53 e9ba cf16 173d 5d30 35bc a832 873c
000000a0: 5f32 ca38 2005 49bb 1fc8 aabb 199c 0f3c
000000b0: ebcd 21bc 5c9a c4bb c922 09bd 538a c1bc
000000c0: 4f99 453d d78c 9dbb bec4 eabb 08f4 abbb
000000d0: f307 123c 3f74 a9bb b81c b83b 1457 a4bc
000000e0: 31cc aab9 0a43 d73b 5572 923d 8862 2a3c
000000f0: 31d8 07bb 3fdc 99bb 8819 6b3b aae5 2cbb
00000100: 8cee 523d 0a50 163b ea44 17ba b2d2 1fbc
00000110: 4a87 3bbc de12 08bb 7a7d adbc b7e4 e6bc
00000120: 6b96 2abc 5395 47bb 369e 823c ebc5 2dbc
00000130: cb5d 203c eb19 413b 07bb c23b 6dbc e33b
00000140: 0c09 9e3b c77b 023c 7915 43bc 5880 adbb
00000150: f895 153c 7afc fb3b 0ad3 11bc 20d2 f13b
00000160: 4393 d33d 7e8a ef3a 40a2 9fbb 519b 283c
00000170: e39e a73d cbb5 123c 59b4 a9bb 4455 bbbb
00000180: a7ff b9bd 621b efba a8ec abbb 1f83 393b
00000190: 5c82 8a3b 1e85 b83b 53d1 283c bdf6 f6bb
000001a0: 960b 1bbc 7e16 7abc b9f5 12bc b6b7 903b
000001b0: 2d10 123c 9a2a 273b f851 583d 26a1 8a3d
000001c0: e772 073c 2c77 253c 856c 18bb aa86 08bc
000001d0: e938 e7b7 830d 203c bbba 3a39 2705 87ba
000001e0: d18f d4bb cd40 3d39 59a2 96bb 78ff eb3b
000001f0: a05b b9bb 91f5 d03b d6f6 0a3c 19ff 4fba
00000200: f68c fb3d 8828 a0bc 337a 273b cb44 6f3a
00000210: 2b00 9dba 4e17 18bc 2f2a 123a 2d0a 07bb
00000220: a394 0ebb dc27 24bb d276 1a3b 297b 633b
00000230: 60af 5dbb dd72 13bb 3063 a83d 5058 523d
00000240: 9719 28bc 6403 a93b 8b64 823b a12d 523b
00000250: 1d93 33bd 38a4 24bc 381c 46bb 9118 11bc
00000260: b879 0dbc 9230 97bb e646 ff3b a02d 07bc
00000270: 2aad 0d3c 6d11 86bb 280c 983d 650a 793d
00000280: bf39 37bd 8b08 293c c2cb 26bb 9e91 783d
00000290: 6c0d 44bd b2e1 ccbc e9df ecbc ed62 37bb
000002a0: dad1 0bbc 7f74 75ba 35f8 c33c 2332 6cbb
000002b0: 27b2 92bd 0e8b 913d a079 babb 84c1 89bb
000002c0: e9f2 94b9 7b8a e0bb 29a3 163c e0f4 dfbc
000002d0: a5a0 043c ca4d 8d3d e4fd 803c e878 34bc
000002e0: a1fe a4bb 45d3 09bc dfb6 debb eea3 3abc
000002f0: 722f dbba b5de 2bbb 80c5 46bb b916 beba
00000300: 00fb 22bc b49e 923b 5fac 833b 46e5 68bd
00000310: 036f 63bd 9d8c f73b 1631 123c 69ea 023c
00000320: 75c8 e33b c255 9ebc a7bf 9dbb 8213 e5bb
00000330: 754b 07bb 0a49 0fbc ddd6 94bd 332a 843d
00000340: 9c37 ce3d 036b 16bc b994 13bb 456a d13c
00000350: 47f4 7ebc 7740 7b39 86da 103c 7ea8 d1bb
00000360: 095c 60bd 9289 b73a cd37 f938 aa76 87b8
00000370: a56c 86bd cb5e 8fbb a135 3eba 1bdc 023c
00000380: 371a 18bc 8d0c 193c 37b9 f03d c7a3 89bd
00000390: 4adf 483b acd0 01bc 4cef 033d c12f a3bb
000003a0: 50b0 e7bb b2fe 56bb 1a77 8e3d 0f90 08bd
000003b0: ec05 bd3c 307d a6bb 1791 0339 4693 81ba
000003c0: 5b23 01bc ff10 293b b76f 233c 72dd 853c
000003d0: 137a 303b 54ef 0fbc c732 d9bb d63b a83b
000003e0: 5431 1bbc 7012 9f3d dd58 b03d b5aa 2d3b
000003f0: 81f4 ce3d 021d b2b9 8596 f8bb e794 b2bb

fc2_lin.bias f4 [128]
0.0027368166 0.10676724 0.04626199 0.006492616 -0.01025722 -0.012782244 -0.017125947 -0.0021230676
-0.031775497 -0.0033643018 -0.02179653 0.09614831 -0.017444536 -0.026896767 0.015473624 0.006458998
0.00026472018 -0.006655673 0.008669389 0.07638568 -0.007997797 -0.00972255 -0.013729414 -0.0064086635
0.005711605 -0.0102118375 -0.009646719 0.025845872 0.021491066 0.053794805 -0.006890448 0.0691247
0.072421946 -0.012233955 0.001214813 0.079006255 -0.009739998 0.06913698 -0.010400629 0.0027214894
0.045505837 -0.014424933 0.0013777603 0.044334635 -0.010170988 -0.010048156 0.032908253 -0.01191389
-0.024564974 0.044130094 0.004598311 0.083402306 -0.009126357 -0.007861785 -0.025299894 -0.024997555
-0.006624062 -0.037290048 -0.0037546956 -0.03692841 0.035002545 0.010310353 -0.0179318 -0.007494258
0.004466724 -0.011405502 0.03176742 0.097569734 0.0149205215 -0.0006255553 0.020438477 0.077211045
0.0920003 0.08483145 -0.0049552745 -0.009578811 -0.004331995 0.06550106 -0.029297775 -0.00043645254
-0.010854274 -0.011237282 -0.0064190393 -0.006945295 -0.006254379 0.111499935 -0.008345833 -0.0045678047
-0.005321763 -0.01429359 -0.013558091 0.060694903 -0.0077774944 -0.028142072 -0.010087118 -0.05114374
0.059943605 0.020146277 0.009289303 -0.010802886 -0.023019504 -0.010116241 0.045632534 0.019798776
-0.033755634 0.022481885 -0.004470271 -0.014357239 -0.014224252 0.037508056 -0.0024938174 -0.0068181995
-0.01063699 -0.008044576 -0.007105191 -0.005751561 -0.0062152874 0.0785738 0.103322506 -0.029685948
-0.010110649 0.028506989 -0.0061814114 -0.006088183 -0.0045707584 -0.0036019816 0.06563111 -0.06195354
00000000: 2a5c 333b c8a8 da3d 367d 3d3d 03c0 d43b
00000010: e60d 28bc 9e6c 51bc b74b 8cbc 2a23 0bbb
00000020: 0627 02bd 9e7b 5cbb a38e b2bc 68e9 c43d
00000030: d8e7 8ebc 9c56 dcbc 1585 7d3c 01a6 d33b
00000040: 24ca 8a39 d517 dabb 0e0a 0e3c 1870 9c3d
00000050: 3109 03bc 554b 1fbc 56f1 60bc c4ff d1bb
00000060: 6a28 bb3b 8d4f 27bc 460d 1ebc b9ba d33c
00000070: 080e b03c f157 5c3d 44c9 e1bb 4091 8d3d
00000080: f551 943d ed70 48bc 5c3a 9f3a 08ce a13d
00000090: 8394 1fbc b097 8d3d 6667 2abc 045b 323b
000000a0: 5464 3a3d 8e56 6cbc f795 b43a 3c98 353d
000000b0: 37a4 26bc 05a1 24bc ceca 063d 7a32 43bc
000000c0: 7c3c c9bc c2c1 343d 6ead 963b d4ce aa3d
000000d0: b786 15bc b7ce 00bc b941 cfbc acc7 ccbc
000000e0: a90e d9bb 73bd 18bd 5711 76bb 3f42 17bd
000000f0: d45e 0f3d c1ec 283c b6e5 92bc 6592 f5bb
00000100: 995d 923b 25de 3abc 8e1e 023d a4d2 c73d
00000110: 3475 743c 4efc 23ba 986e a73c d320 9e3d
00000120: a76a bc3d 1cbc ad3d db5f a2bb 72f0 1cbc
00000130: 68f3 8dbb 6b25 863d e301 f0bc abd3 e4b9
00000140: 20d6 31bc 941c 38bc ce56 d2bb 5b95 e3bb
00000150: 89f1 ccbb 145a e43d f6bc 08bc 86ad 95bb
00000160: 2f62 aebb a92f 6abc c122 5ebc 389b 783d
00000170: 5ada febb 348a e6bc 7044 25bc 197c 51bd
00000180: 6d87 753d ce09 a53c 2932 183c 97fe 30bc
00000190: 6693 bcbc 97be 25bc 2ee9 3a3d 0b31 a23c
000001a0: 5943 0abd ee2b b83c 5a7b 92bb a03a 6bbc
000001b0: d60c 69bc 0ca2 193d 506f 23bb 346b dfbb
000001c0: c546 2ebc 66cd 03bc a9d2 e8bb 9777 bcbb
000001d0: 9ca9 cbbb 4deb a03d c09a d33d f22f f3bc
000001e0: 23a7 25bc 7d87 e93c 708d cabb 617f c7bb
000001f0: 4dc6 95bb 390f 6cbb 9a69 863d ffc2 7dbd

fc3_lin.weight f4 [64, 128]
-0.056526516 0.015894666 -0.009370562 -0.017299201 0.017073361 0.03322018 -0.010047016 0.004783955
-0.053570453 1.6529697e-06 0.0053950036 -0.00047900755 0.0046089734 -0.0021374163 -0.010472601 -0.009845806
0.015038839 0.003300348 0.0061551323 0.002985419 -0.010255523 0.021155335 0.011886473 -0.009312346
-0.0025210415 -0.0041146656 0.004113805 -0.0509882 -0.0070302845 0.013485501 0.001948148 0.0243694
0.02804076 -0.013674503 -0.0040259287 -0.017984448 -0.00036208334 0.003042512 -0.0074552745 -0.012328681
0.016724039 0.007554792 -0.004332183 0.006092343 -0.005576141 0.0057660392 -0.009347094 -0.0020312713
-0.024213552 -7.4814176e-05 -0.0053415517 -0.013418542 -0.0106815575 -0.07204787 -0.0049839728 0.006663696
-0.01294467 -0.046819128 -0.025465444 -0.025810855 0.011408875 0.005811293 0.0128903845 0.03336519
0.028909018 0.00021952794 0.012726096 0.016715175 -0.012479855 -0.013186913 0.0045011435 0.022359971
0.0021152853 -5.0329498e-05 -0.016321342 0.0059789526 -0.014369539 -0.001945935 0.012864182 0.0062349364
0.07513595 -0.011730795 0.010753165 0.012914518 -0.008449853 0.014485544 0.0110124 0.011726788
-0.008789861 0.0027514708 -0.013950865 -0.014285985 -0.01232667 -0.05976412 -0.004325577 -0.033499885
-0.022614812 0.024963554 0.015031633 -0.008707091 0.010695389 -0.0024662074 -0.005161104 -0.015251281
0.007945912 0.0039996575 -0.008068861 -0.0074473806 -0.008429372 0.009915444 -0.0017066047 0.0076458906
-0.0035274469 0.0072585945 -0.01435817 -0.006149058 -0.0050384137 0.009565762 -0.022533905 -0.017849041
-0.013417838 0.012862322 0.018602336 0.0049717296 0.0079336865 -0.0068885437 0.0022112601 -0.04368851
-0.05626282 0.056985978 0.010141747 0.0120765045 0.0034032043 0.024768451 0.00336048 0.012445743
-0.09718464 0.010647814 0.0114845 0.02165926 -0.009163754 -0.0032110002 -0.027433807 0.004354954
0.0041798926 -0.0015032517 0.012675862 0.008208737 -0.013434519 0.020924775 -0.008615237 -0.0016864934
0.011789663 0.007291085 -0.006180752 -0.082085624 0.0049386173 -0.022524929 -0.033152353 0.0014126151
0.07356047 -0.0008372302 0.013387209 0.04061083 -0.004483616 0.019984102 0.0058147903 0.00082505925
-0.027372455 0.0007362762 0.00200488 -0.030576665 0.0062195864 0.01011578 0.0004007248 0.010247918
-0.052229054 0.039927013 0.013967103 -0.05534072 -0.015526125 -0.07397066 -0.005213894 0.012176726
0.005272115 -0.058539398 -0.05664587 -0.10523248 -0.01598854 -0.013054663 0.0027574091 0.016007159
-0.0045749466 0.01047078 0.00834984 0.0037925122 -0.004206004 0.008218248 0.027260592 0.06256451
0.025346883 0.011978493 -0.0675115 0.00020711012 0.012185596 0.043769527 0.01011689 0.0127063105
0.03998588 0.00069409906 -0.011322132 0.006066824 -0.0027859095 0.043148942 -0.0043548835 -0.00061654905
0.009873336 0.014198749 0.0014548183 -0.018952351 -0.011141113 -0.07011197 -0.0049173106 -0.06787977
-0.031971883 0.035680167 0.022020577 -0.004811497 0.033100616 -0.009149548 -0.012719929 -0.043716263
0.016096245 -0.023083124 0.0069430177 0.0041359705 -0.012130364 -0.018322308 0.0021007564 -0.012452995
0.01001377 -0.025357198 -0.0111200875 0.01352943 0.013008997 -0.00057353446 0.04321665 -0.044271346
-0.005555513 -0.011661295 0.028842181 0.0054215994 -0.005691033 -0.010694886 0.03672846 -0.077548936
00000000: 5988 67bd 8835 823c fc86 19bc 0eb7 8dbc
00000010: 6fdd 8b3c e211 083d 3d9c 24bc b9c2 9c3b
00000020: b16c 5bbd 9bdb dd35 92c8 b03b 4e23 fbb9
00000030: df06 973b e513 0cbb 4695 2bbc 4e50 21bc
00000040: 7665 763c a74a 583b feb0 c93b 05a7 433b
00000050: c806 28bc f44d ad3c 7bbf 423c cf92 18bc
00000060: 0f38 25bb 51d4 86bb 19cd 863b 01d9 50bd
00000070: 4d5e e6bb 4af2 5c3c 0059 ff3a 56a2 c73c
00000080: bcb5 e53c 060b 60bc f0eb 83bb 1f54 93bc
00000090: 01d6 bdb9 e264 473b 604b f4bb 3cfe 49bc
000000a0: da00 893c 308e f73b fcf4 8dbb 47a2 c73b
000000b0: 10b8 b6bb 0bf1 bc3b 8e24 19bc 141f 05bb
000000c0: 805b c6bc 8ee5 9cb8 2f08 afbb 72d9 5bbc
000000d0: b301 2fbc d58d 93bd 9850 a3bb 225b da3b
000000e0: e215 54bc 6ac5 3fbd e89c d0bc 4971 d3bc
000000f0: 4aec 3a3c a96c be3b 3132 533c f0a9 083d
00000100: 9bd2 ec3c 1531 6639 1e81 503c 43ee 883c
00000110: 4e78 4cbc ec0d 58bc 547e 933b 422c b73c
00000120: 99a0 0a3b e318 53b8 56b4 85bc 17eb c33b
00000130: 376e 6bbc be0e ffba 4ac4 523c 704e cc3b
00000140: e1e0 993d 8532 40bc 0b2e 303c 6a97 533c
00000150: 4171 0abc c654 6d3c 5a6d 343c b721 403c
00000160: 5903 10bc 0552 343b 2b92 64bc c40f 6abc
00000170: cdf5 49bc 39cb 74bd 92bd 8dbb 2d37 09bd
00000180: b342 b9bc 5e80 cc3c 3d47 763c 30a8 0ebc
00000190: b63b 2f3c 18a0 21bb 7a1e a9bb 82e0 79bc
000001a0: 922f 023c 8f0f 833b 4233 04bc 2809 f4bb
000001b0: 591b 0abc 6374 223c 27b0 dfba 618a fa3b
000001c0: bd2c 67bb 81d9 ed3b 883e 6bbc 0a7e c9bb
000001d0: 4719 a5bb b7b9 1c3c 0699 b8bc 2738 92bc
000001e0: 7ed6 5bbc 7dbc 523c ed63 983c e4e9 a23b
000001f0: 4bfc 013c 4bb9 e1bb caea 103b b9f2 32bd
00000200: d873 66bd 216a 693d 9229 263c 88dc 453c
00000210: 4b08 5f3b 35e7 ca3c 803b 5c3b 3be9 4b3c
00000220: be08 c7bd 2b74 2e3c 7c29 3c3c c36e b13c
00000230: 9223 16bc a56f 52bb ddbc e0bc 01b4 8e3b
00000240: 7bf7 883b c208 c5ba 6bae 4f3c f07d 063c
00000250: 751c 5cbc 6f6a ab3c ec26 0dbc 540d ddba
00000260: 6e29 413c 0eea ee3b e887 cabb 821c a8bd
00000270: 20d4 a13b 3386 b8bc c3ca 07bd 7f27 b93a
00000280: dfa6 963d 9179 5bba 0656 5b3c 8b57 263d
00000290: 4ceb 92bb b3b5 a33c ff89 be3b ca48 583a
000002a0: 333c e0bc a902 413a 4e64 033b ea7b fabc
000002b0: accd cb3b a8bc 253c 5f18 d239 e2e6 273c
000002c0: 22ee 55bd 828a 233d 47d6 643c f3ac 62bd
000002d0: 4a61 7ebc ee7d 97bd 50d9 aabb e480 473c
000002e0: b5c1 ac3b 02c7 6fbd 8005 68bd 2084 d7bd
000002f0: 66fa 82bc 3ae3 55bc a6b5 343b 7221 833c
00000300: 6fe9 95bb a28d 2b3c c4cd 083c cc8b 783b
00000310: 85d2 89bb d5a5 063c 9b51 df3c d221 803d
00000320: 44a4 cf3c 7141 443c 7843 8abd b32b 5939
00000330: 18a6 473c ad47 333d 50c1 253c 212e 503c
00000340: 3cc8 233d 33f4 353a 7780 39bc 35cc c63b
00000350: ce93 36bb f2bc 303d 69b3 8ebb e89f 21ba
00000360: c6c3 213c dfa1 683c 9aaf be3a f641 9bbc
00000370: 3789 36bc dd96 8fbd 6421 a1bb 8d04 8bbd
00000380: f3f4 02bd 5e25 123d 7f64 b43c c3a9 9dbb
00000390: 8394 073d fce7 15bc 4067 50bc d30f 33bd
000003a0: 46dc 833c d218 bdbc 4182 e33b 0987 873b
000003b0: 6fbe 46bc aa18 96bc d8ac 093b a607 4cbc
000003c0: cc10 243c e6b9 cfbc 0731 36bc 8baa 5d3c
000003d0: b023 553c 3f59 16ba f103 313d df55 35bd
000003e0: 050b b6bb 040f 3fbc 7046 ec3c aca7 b13b
000003f0: d87b babb 9a39 2fbc 9570 163d fad1 9ebd

fc3_lin.bias f4 [64]
0.04437169 0.13282005 0.0022817536 -0.021268293 0.1284662 -0.0050354446 0.13368061 0.12548319
-0.013812405 0.12305881 0.13990536 0.104835875 -0.021231355 0.16260728 -0.017635724 0.15235928
0.052575912 0.09754027 -0.0072914334 0.06856401 -0.014560361 0.15214653 0.14349236 0.10098437
0.13440785 0.12902676 0.12759154 0.15206182 -0.014533032 0.15439889 -0.01676931 -0.009912842
-0.008406567 0.10524363 0.11168183 0.11101421 0.1239996 0.06642748 -0.019806517 0.07327758
-0.02878177 0.121281385 0.055501495 0.07539179 0.11566582 -0.010316596 0.10125135 -0.01734501
0.17678182 -0.02230367 -0.014141 -0.015111257 0.075544335 0.012439837 0.15193434 0.10088043
0.09176432 0.12225141 0.12878403 -0.019653268 0.13503632 0.12826306 -0.020865854 -0.018095592
00000000: 17bf 353d fb01 083e 7989 153b d83a aebc
00000010: a58c 033e 5f00 a5bb 92e3 083e aa7e 003e
00000020: 6d4d 62bc 4206 fc3d 5a43 0f3e 31b4 d63d
00000030: 61ed adbc 8682 263e cb78 90bc 1204 1c3e
00000040: d759 573d 31c3 c73d faec eebb 4a6b 8c3d
00000050: 958e 6ebc 4dcc 1b3e a9ef 123e e5d0 ce3d
00000060: 36a2 093e 971f 043e 5ba7 023e 18b6 1b3e
00000070: f41b 6ebc be1a 1e3e cb5f 89bc 7969 22bc
00000080: b3bb 09bc f989 d73d 71b9 e43d 6b5b e33d
00000090: 81f3 fd3d 210b 883d 4741 a2bc 8e12 963d
000000a0: bfc7 ebbc 6062 f83d 8955 633d 0367 9a3d
000000b0: 34e2 ec3d f106 29bc de5c cf3d 1f17 8ebc
000000c0: 4b06 353e 30b6 b6bc a7af 67bc 3595 77bc
000000d0: fdb6 9a3d 75d0 4b3c ad94 1b3e 669a ce3d
000000e0: efee bb3d f25e fa3d f6df 033e e4ff a0bc
000000f0: f646 0a3e 6457 033e deee aabc 353d 94bc

fc4.weight f4 [2, 64]
0.021436134 0.14559671 -0.026418326 -0.0034877101 0.10131671 -0.016494498 0.1518083 0.15544297
0.003346688 0.13304706 0.17921434 0.14448442 -0.0027471865 0.1542418 0.021199245 0.15325442
-0.088536724 0.08359108 -0.004279487 0.14056544 0.002506023 0.13415502 0.20177792 0.11243337
0.14073408 -0.1589043 0.134977 0.19831964 0.009509136 0.190955 -0.015910074 0.018275514
-0.012037647 0.14468695 0.12559417 -0.12159298 0.09733709 -0.14866096 -0.0046861824 -0.16632605
-0.0043876553 -0.12550563 -0.091004156 -0.15485911 0.120764405 0.001981056 0.087581575 -0.007575263
0.18525676 0.0031235393 0.0014625901 0.011046011 -0.13070722 -0.047693584 0.13745695 0.11451494
0.15259829 0.12658492 -0.15885866 0.015880682 -0.1837218 0.15436919 0.0013848577 -0.016186148
-0.04377691 -0.11141184 -0.0074142646 0.00932746 -0.13511643 -0.010302383 -0.18136343 -0.13683768
-0.0063150628 -0.1219295 -0.16793917 -0.125935 0.011674171 -0.13413022 -0.0021037725 -0.1848892
0.07588662 -0.07584706 -0.01227346 -0.14177223 -0.005503196 -0.15413542 -0.23089173 -0.09822044
-0.15635571 0.14115465 -0.15448359 -0.19817072 0.009493818 -0.20454627 -0.011392695 0.016959688
0.0056970045 -0.11150565 -0.13927604 0.117837735 -0.10608238 0.16739298 -0.01205898 0.1639132
0.0072190124 0.13617484 0.07004626 0.13353294 -0.12865467 -0.0014513371 -0.10502324 -0.0007345529
-0.17448248 0.01648713 0.009545237 -0.0023726074 0.14977579 0.029804708 -0.16073519 -0.12614784
-0.12836608 -0.14088528 0.15276049 0.010210954 0.18287845 -0.1431262 0.0062401905 -0.0010628564
00000000: d59a af3c 4e17 153e 3f6b d8bc 1192 64bb
00000010: 237f cf3d 781f 87bc a373 1b3e 712c 1f3e
00000020: 1c54 5b3b 7d3d 083e f783 373e b9f3 133e
00000030: 240a 34bb 90f1 1d3e 0aaa ad3c baee 1c3e
00000040: be52 b5bd cd31 ab3d f03a 8cbb 63f0 0f3e
00000050: 173c 243b ef5f 093e df9e 4e3e 7743 e63d
00000060: 981c 103e cfb7 22be 6937 0a3e 4e14 4b3e
00000070: 35cc 1b3c b589 433e d855 82bc 88b6 953c
00000080: 8d39 45bc d128 143e c29b 003e be05 f9bd
00000090: ab58 c73d 943a 18be 8c8e 99bb 6051 2abe
000000a0: 52c6 8fbb 8c84 00be 6360 babd 6393 1ebe
000000b0: 5453 f73d 9bd4 013b f85d b33d e939 f8bb
000000c0: f3b3 3d3e 4bb4 4c3b 61b4 bf3a 54fa 343c
000000d0: 1dd8 05be 595a 43bd 84c1 0c3e cf86 ea3d
000000e0: ba42 1c3e 7a9f 013e d8ab 22be 3418 823c
000000f0: 9121 3cbe f512 1e3e 1d84 b53a d098 84bc
00000100: 6b4f 33bd e42b e4bd 5cf3 f2bb 34d2 183c
00000110: f65b 0abe 54cb 28bc 56b7 39be 2d1f 0cbe
00000120: 96ee cebb 2cb6 f9bd 3ff8 2bbe 1bf5 00be
00000130: 0645 3f3c 6f59 09be 72df 09bb 9853 3dbe
00000140: 726a 9b3d b455 9bbd 9f16 49bc bd2c 11be
00000150: 2754 b4bb add5 1dbe e26e 6cbe cc27 c9bd
00000160: b61b 20be d88a 103e f230 1ebe 44ed 4abe
00000170: f58b 1b3c 9474 51be 6da8 3abc 0bef 8a3c
00000180: f0ad ba3b 135d e4bd 619e 0ebe e954 f13d
00000190: b841 d9bd 1169 2b3e 0793 45bc ddd8 273e
000001a0: 778d ec3b 6b71 0b3e 6a74 8f3d dcbc 083e
000001b0: 0dbe 03be cb3a beba 6d16 d7bd 038f 40ba
000001c0: 89ab 32be 0510 873c a063 1c3c bf7d 1bbb
000001d0: d35e 193e 0129 f43c c497 24be e62c 01be
000001e0: 6672 03be 3b44 10be 3f6d 1c3e d84b 273c
000001f0: 7d44 3b3e ad8f 12be 837a cc3b 8b4f 8bba

fc4.bias f4 [2]
0.97542983 -0.9851077
00000000: c5b5 793f 0530 7cbf
