MWNet/old_data_results/checkpoints/model_epoch_330.pt (torch, 234127 bytes, 8 tensors)

fc1_lin.weight f4 [256, 64]
000000 b9 ed 83 3c 4e 55 67 bc d8 0e 04 3c e5 f7 9e bc
       0.016104566 -0.014119459 0.00806018 -0.019405315
000010 8e a0 a0 bb 6a 1f 21 3c 01 47 23 3c 81 ca d1 bb
       -0.004901952 0.00983415 0.009965659 -0.006402314
000020 0f c6 fd ba 2b e2 ac 38 b4 00 93 b8 5c 7f 23 3b
       -0.0019361394 8.243726e-05 -7.009637e-05 0.0024947738
000030 99 8a 20 3b 13 4b 85 bc 8b cd 54 3c 68 15 bf b8
       0.0024496673 -0.01627115 0.012988458 -9.111577e-05
000040 8e 4a 60 bb c9 9e ec bb 01 cb 10 bc 24 6e 28 3b
       -0.0034224126 -0.007221077 -0.008837462 0.0025700415
000050 91 ae 9d 3c bc 36 15 bc 6e 97 3a 3c 29 6a 40 3c
       0.019248279 -0.009107288 0.011388643 0.011744061
000060 c3 c1 12 3b dc e7 3c bc 56 e0 50 3c 2e f1 56 bb
       0.0022393323 -0.011529889 0.012748798 -0.0032797563
000070 e4 7c 75 bc c2 06 3f 3b f9 8b c7 bb a4 f1 88 3a
       -0.0149833895 0.0029148315 -0.006089684 0.0010447991
000080 94 6b 55 3b 29 0c 33 3c d4 48 a4 bc c9 ec 9a 3c
       0.0032565342 0.010928192 -0.020054258 0.018911736
000090 77 f2 9d 3b 27 da 48 bc b7 40 97 3b 31 bd 74 3c
       0.004820164 -0.012259043 0.004615869 0.014937685
0000a0 f3 de 8e 3b ee 5c 81 b9 89 9d 94 3c 8e 9a 53 bc
       0.0043600737 -0.00024674035 0.018141525 -0.012915267
0000b0 c9 44 20 bc f0 37 9e 3c 8c 80 93 bc 50 c5 ba 3b
       -0.009782025 0.019313782 -0.018005632 0.005699791
0000c0 0f 57 ec 3b 65 68 77 3b f4 2c 85 3c 0e 10 7d 3b
       0.0072125266 0.0037751433 0.016256787 0.0038614306
0000d0 af 4c 85 ba 37 99 89 3c d9 c4 e3 bb c6 00 47 3b
       -0.0010169948 0.016796691 -0.0069509563 0.0030365451
0000e0 77 4f 04 bb c8 ea 72 3c 21 07 bc bb 2f 94 99 3b
       -0.0020188966 0.014826484 -0.0057381545 0.0046868543
0000f0 0f 84 82 3c e5 9d 50 bc 17 33 4c 3c f9 21 86 3c
       0.015932111 -0.0127329575 0.012463353 0.016373621
000100 54 f5 ef bb bb 40 0b 3d 66 46 db bb 94 3a 2c 3b
       -0.0073229466 0.03399728 -0.0066917418 0.0026280032
000110 2e c8 92 3b 37 4f 1e bc f3 37 26 3c 6a 80 8a 3c
       0.0044794297 -0.009662441 0.010145175 0.016906936
000120 a9 24 10 3d 44 94 ed 3c 61 c1 75 3c c5 2f 9c 3c
       0.03519121 0.029001363 0.014999718 0.019065747
000130 44 f9 e7 3c 06 88 3a bc 2a 02 22 3c a9 e7 9e 3b
       0.028317101 -0.01138497 0.009888211 0.0048493934
000140 5b 7a fc bb 34 08 9c 39 a7 28 72 3c f3 b1 55 bb
       -0.0077050156 0.0002976075 0.0147802 -0.0032607287
000150 9b 81 6f bc 04 fe d4 bb b9 56 b2 ba f1 5a c2 ba
       -0.014618303 -0.0065000076 -0.0013606168 -0.0014828128
000160 7f f3 9a bc 9f 64 74 bc 36 99 3e bc 64 ff 91 bc
       -0.018914936 -0.014916568 -0.011633208 -0.017821975
000170 86 9d 77 3c 01 b0 2d bc b1 e5 75 3d 9a ee 39 bc
       0.01511324 -0.010601045 0.060033504 -0.011348391
000180 18 cf 12 3c 44 0e 43 3c dd 21 3e 3c 3f f7 e2 bd
       0.008960508 0.011905257 0.011604753 -0.11082315
000190 6a 84 21 3c c4 9b 99 3c 7a b5 6b 39 3c 1d 39 bc
       0.00985823 0.018751033 0.00022478952 -0.011298474
0001a0 99 4b f9 3c b7 81 97 3c 09 48 62 bc 07 66 38 bd
       0.030431556 0.01849447 -0.01381112 -0.045019176
0001b0 bd d7 43 bc 83 bb c8 bb 47 22 8a bc ca 28 2d 3b
       -0.0119532915 -0.0061258688 -0.016862048 0.0026422017
0001c0 2c f5 82 3c 09 34 46 3d 83 41 3a bc 7d e1 c6 3b
       0.015986048 0.04838947 -0.011368158 0.0060693608
0001d0 89 90 e2 bb cb 77 14 3b ed 83 9e 3c 47 05 0a bb
       -0.0069142026 0.002265441 0.019350016 -0.0021060274
0001e0 57 15 80 3c 8e 8d b0 bb b2 28 30 bc d9 be 83 bc
       0.015635176 -0.0053879684 -0.01075189 -0.016082214
0001f0 33 14 b5 3a b6 4c 91 3b 8c 07 99 3a 3b 5f 97 bc
       0.0013815224 0.0044341935 0.0011675223 -0.018478027
000200 97 9e c1 bb db a5 1d bb 0d e1 4c 3b bb 19 3d bc
       -0.005908798 -0.0024055156 0.003126207 -0.011541779
000210 2b 81 0c bc 62 f1 32 39 6c 1b 3a bc c9 e9 18 bc
       -0.008575718 0.00017065325 -0.011359077 -0.0093330825
000220 e1 cf 3e 3c 76 ac ee 3b d4 54 9c 3c 38 b4 38 bc
       0.011646242 0.0072837425 0.019083418 -0.011273436
000230 88 0f 2f bc 63 52 ec bc 54 0a 90 bc 2f 94 80 3c
       -0.010684855 -0.028847879 -0.01758305 0.01569566
000240 64 f0 1f 3c bb d8 75 bc 9f 6d a4 ba e4 d5 22 3c
       0.009761903 -0.015005286 -0.0012544877 0.009938691
000250 3b 1f 45 bc 3b 3c 1e bc e1 03 1b 3c ca 14 42 bc
       -0.012031372 -0.009657915 0.009461374 -0.011845777
000260 34 1a 83 3c 9e f7 35 bc 5c 60 a3 3c 6b 6c 5c bc
       0.016003706 -0.0111064 0.019943409 -0.013453583
000270 a5 03 91 bc da 1c f2 bb a7 b5 39 3c 58 3d a2 3a
       -0.017701933 -0.0073886933 0.011334813 0.0012377901
000280 87 4f 87 3a ba 1c 1c 3c 68 9d 69 3c 83 ab 49 bc
       0.0010323384 0.009528333 0.01425872 -0.012308958
000290 89 a0 48 bc 25 eb 8c bc 08 97 13 bc 85 45 8f bc
       -0.012245306 -0.01720197 -0.009008177 -0.017489204
0002a0 ff a2 bb 3d 95 8f 77 bc ab f3 63 3c ba 28 36 3c
       0.091619484 -0.015109916 0.013913075 0.011118108
0002b0 fe 2b a5 bb 24 f0 c2 3a 17 b1 39 bc 77 a0 72 bc
       -0.0050406447 0.0014872593 -0.011333725 -0.014808766
0002c0 d1 50 20 bc ce a8 eb bb 08 f8 62 3c 17 e8 0f bb
       -0.009784893 -0.007191754 0.013853081 -0.0021958405
0002d0 c5 70 d8 ba ab 69 4f 3b d5 af 72 3b 3f 3a a1 bc
       -0.00165131 0.0031648676 0.0037031074 -0.019681094
0002e0 db 2d f3 3b 3a 81 8e 3b 52 aa 12 3c b7 10 83 3c
       0.007421238 0.004348901 0.00895174 0.015999181
0002f0 9b 3f ed ba cc 21 8d bc 37 0e c2 bc 8e 37 08 bc
       -0.0018100621 -0.01722803 -0.023688419 -0.0083140265
000300 29 d8 7d 3d 58 e9 e1 bb d0 26 89 bc 4d e5 9d bb
       0.061973725 -0.006894272 -0.01674214 -0.0048185945
000310 f1 b9 1b 3b bd 52 98 3c 38 7f 22 bc 81 d6 81 bc
       0.0023761953 0.01859414 -0.009918027 -0.015849354
000320 90 73 81 bd 73 04 a6 bc 58 61 a1 bc a4 d5 a5 3b
       -0.0632087 -0.020265793 -0.019699737 0.0050608683
000330 c7 29 4e 3c 9b 54 8a 3d 8c 5e 01 3d 00 71 88 3c
       0.012583203 0.067544185 0.031584308 0.016655445
000340 c5 0c 1f bb eb 85 94 3c 4c a9 fd 3b eb 6b 8a bc
       -0.0024269086 0.018130263 0.007741129 -0.016897162
000350 25 87 8a 3d c3 42 a5 3b 26 a3 c1 ba 5e 81 da 3c
       0.06764058 0.005043359 -0.0014773353 0.026673015
000360 91 df 6d bc 88 bf 86 bc cc b2 99 bc 72 83 90 3b
       -0.014518634 -0.016448751 -0.018762015 0.0044102008
000370 d5 87 82 bb 4b 34 9b 3c cf ce e2 bd 27 f2 4e bd
       -0.0039834776 0.018945834 -0.11074602 -0.050523903
000380 ab d1 cb 3b a9 06 4a bc 14 d1 84 bb b5 92 15 3e
       0.0062200627 -0.0123306895 -0.0040532444 0.14606746
000390 4b 62 14 bc 20 39 aa bc ab d3 db bc 0e 4e f3 3b
       -0.009056638 -0.020779192 -0.02683433 0.0074250763
0003a0 c9 a8 6a 3d 2f e1 21 3c ac 25 80 bc 3f 4a 24 3d
       0.057289872 0.009880348 -0.015642963 0.04010987
0003b0 bc 51 44 3c 7c a3 a1 3c 13 5f a5 bc 87 17 81 bc
       0.011982378 0.019731276 -0.020186936 -0.015758289
0003c0 41 d2 d3 3b 55 20 31 bd 21 5b 17 3c a5 94 8c bc
       0.006464273 -0.043243725 0.009238035 -0.017160723
0003d0 12 21 e5 3c 30 44 e2 bb 43 f3 6c 3c 3e ab 87 bd
       0.02796987 -0.0069051012 0.014462295 -0.06624459
0003e0 43 c7 81 3c 91 02 08 3c e3 7f c8 3c 06 95 a5 bc
       0.015842086 0.008301393 0.024475044 -0.020212661
0003f0 fc 85 e7 bb 30 94 8c 3c eb 49 52 bc 31 c5 3f bc
       -0.0070655327 0.017160505 -0.012835006 -0.011704729

fc1_lin.bias f4 [256]
000000 fc 7e 43 bb 50 9b 8f 3b c5 2b ad bb aa ee 3c bd
       -0.0029830327 0.0043825284 -0.0052847588 -0.046126045
000010 25 16 03 3c ea b0 d3 3b 98 b3 9c bc ee cc 9a bc
       0.008000885 0.006460299 -0.019128606 -0.018896546
000020 b2 a7 1c bc 09 13 d8 bc bc c3 ab bb 98 56 3f bc
       -0.009561466 -0.026376264 -0.005241839 -0.01167836
000030 a2 c5 16 bc a5 7d 88 3c 2e 05 2f bd 40 1f dc bb
       -0.009202393 0.016661474 -0.04272955 -0.0067175925
000040 e8 b0 0a 3c 8b c3 17 bc 88 d9 11 bc c0 95 7f bc
       0.008465029 -0.00926293 -0.008901961 -0.015599668
000050 b8 23 d9 bb 83 33 8e ba d2 ca 94 3c 9f 41 82 bc
       -0.0066265725 -0.0010849092 0.018163119 -0.015900431
000060 90 60 9c ba 57 28 ba bc 1f df 1a bc 3e b0 50 3c
       -0.0011930633 -0.022724314 -0.00945261 0.012737332
000070 47 67 47 3c 37 ec 94 bb e5 d6 0f b9 5a 30 a5 bc
       0.012170619 -0.0045447606 -0.00013717597 -0.020164657
000080 7c d0 ed bc cd 97 2b 3c c4 ed 49 bc 58 c7 a9 ba
       -0.029030077 0.010473204 -0.012324754 -0.0012953086
000090 dd 8a 81 bc b8 32 5e bd 2a f4 53 3d 1d cf f6 bc
       -0.015813285 -0.054247588 0.051746525 -0.030128056
0000a0 a7 57 d9 3b 87 e1 cc ba 8c a8 32 bc eb 82 f1 bb
       0.0066327634 -0.0015631177 -0.0109044425 -0.007370343
0000b0 62 90 49 3c f0 75 18 bc 4f f2 84 3d 9f 6b 33 3d
       0.01230249 -0.009305462 0.06491529 0.043803807
0000c0 d9 65 0d bd 39 b3 d6 bb 4f c5 7a bc 43 e8 c1 ba
       -0.034520958 -0.0065521267 -0.015305831 -0.0014793951
0000d0 97 d3 57 3c ea 95 7f bc f6 53 88 3b ce e7 38 3d
       0.013173006 -0.015599707 0.0041603995 0.04514294
0000e0 ae 29 92 bb 66 9b 80 bc 02 a7 a1 bc e8 ef 84 bc
       -0.004460535 -0.0156991 -0.019732956 -0.016227677
0000f0 8e 7e d7 bb b7 f7 6e bc 5d 79 b7 bb 54 c3 13 3c
       -0.006576366 -0.014585427 -0.0055991844 0.009018738
000100 17 02 28 39 b3 c0 a0 bc 68 54 9f bc 86 9d 66 bc
       0.00016022507 -0.019623136 -0.019449428 -0.014075642
000110 dd 60 0e bc 6b 63 a7 3c 31 dc 20 3d 11 37 71 3d
       -0.008690086 0.020433148 0.03927249 0.058890406
000120 e4 a9 7e ba 16 c5 80 bc 73 eb 15 bc f7 18 b0 3a
       -0.0009714647 -0.015718978 -0.009150374 0.0013435174
000130 2c cc 1c bc 4c 61 7b bc c2 4f 0c 3b 20 02 cb 3a
       -0.009570163 -0.015343022 0.0021409844 0.0015488304
000140 32 56 48 bc 28 22 64 bc 19 79 94 3c a1 32 8e bc
       -0.012227582 -0.013924159 0.01812415 -0.017358126
000150 d6 cb 81 3b d3 f4 16 3c 9f a8 18 3c bc 08 11 bc
       0.0039610667 0.009213644 0.009317546 -0.00885218
000160 11 f6 39 bd 2b 13 9f bc f0 65 0a bc 7d bb 88 bb
       -0.045400683 -0.01941832 -0.008447155 -0.004172741
000170 c6 9b c1 bc 94 18 58 3c b1 f6 5f bc f4 db b1 bc
       -0.023633849 0.013189454 -0.013669656 -0.021711327
000180 4d 04 2f 3d 76 e7 9f bc 8b 38 13 3b 56 50 46 bc
       0.04272871 -0.019519549 0.0022464122 -0.0121041145
000190 61 52 80 b9 2c 50 97 bc ec 10 91 bc 83 ff a4 ba
       -0.0002447544 -0.018470846 -0.017708264 -0.0012588355
0001a0 4e ce 27 bc 7a 68 1b 3d ec 52 a6 bc bb de 55 3d
       -0.010242058 0.037941433 -0.020303212 0.052214365
0001b0 ea 7b 49 bb 8a 9c b8 bb 06 7a 98 bc 17 94 a7 bc
       -0.0030744025 -0.0056338953 -0.018612873 -0.020456357
0001c0 3d 03 36 bc f6 1f b0 bc d6 f9 97 bc 17 fd b2 ba
       -0.0111091705 -0.021499615 -0.018551748 -0.0013655749
0001d0 71 8c 30 3c 03 bf 87 bc 8a 0d 5c bc ea 30 6e bc
       0.010775671 -0.016570574 -0.013430962 -0.014538029
0001e0 f1 88 f2 3a 8e 8d 52 ba 77 e3 89 3b 1c 4b c7 3a
       0.0018503946 -0.00080319575 0.004208024 0.001520488
0001f0 80 c8 92 3b 3b f5 9f bc 57 2c 8d bc 5b 7e d9 3a
       0.004479468 -0.019526115 -0.017233057 0.0016593443
000200 aa 64 e1 bc ae 90 ab 3a 0e 27 cf 3c 34 3b 57 3c
       -0.02751382 0.0013089383 0.025287177 0.013136674
000210 a9 7e b2 3b 9b 32 3d bc 05 5e 64 bc 7c f7 24 3c
       0.005447228 -0.01154771 -0.013938432 0.0100687705
000220 d0 51 4e 3a cf 8f 20 bb 79 9c 80 3c 29 7a 92 bc
       0.00078704674 -0.002449978 0.015699612 -0.017880516
000230 c7 04 84 bc 05 0d a8 39 d9 a2 c9 bb 7f 84 07 bd
       -0.01611556 0.00032053157 -0.006153446 -0.033085342
000240 b1 d9 be bb 5d 96 af ba 89 22 c5 3c 7f 0f 2e bc
       -0.0058242907 -0.0013396252 0.02406432 -0.010623812
000250 32 65 c5 3c b7 8d a0 3c 57 7b 88 bb 94 d9 d2 bb
       0.024096105 0.019598825 -0.004165094 -0.0064346287
000260 1d 64 0d 3b 2b b5 52 3c 59 af bc bb 43 42 a7 3a
       0.0021574565 0.012860577 -0.0057582078 0.0012760836
000270 b9 8a 7c 3c 62 8d 8d 3c c9 be c6 bc 19 7f ca bc
       0.015413933 0.01727933 -0.024260895 -0.024718808
000280 6c 76 33 3d 12 43 43 bc 26 e5 5f bc c0 c5 d5 bc
       0.043814108 -0.011917846 -0.013665473 -0.026095271
000290 e8 01 95 3c 48 0a be 3c c5 16 bf 3c 67 ee 86 3b
       0.018189386 0.023198262 0.023326287 0.0041177752
0002a0 74 0a 12 bc a5 da b8 bb 15 f3 da bc 72 97 86 bc
       -0.008913625 -0.005641299 -0.026727239 -0.016429637
0002b0 3e 33 58 3d 63 b1 50 bc 79 d2 c1 3a 23 5c 39 3c
       0.052783243 -0.012737605 0.0014787457 0.011313471
0002c0 33 ad dc 3a 4c c2 c1 3b 0a 67 80 bc ed a9 11 3d
       0.0016836285 0.0059130546 -0.015674133 0.035562444
0002d0 cc 86 38 bc b2 38 5c bd 4b e4 41 bc 00 1f 82 b9
       -0.011262607 -0.053765006 -0.011834214 -0.0002481863
0002e0 c7 cb 25 bb 40 23 1e bb d6 a9 1a bc 38 60 13 3c
       -0.0025298463 -0.0024129897 -0.009439906 0.008995108
0002f0 0e 8b 96 3a ca 28 62 bc 69 91 d8 bb 9f 10 3e 3c
       0.0011485533 -0.01380367 -0.006609131 0.011600642
000300 c2 98 77 bb f3 3b 86 bc cd 4a 44 bc c7 76 65 3d
       -0.003778026 -0.016386008 -0.0119807245 0.056021478
000310 53 40 77 3d 34 50 90 bc 58 d2 12 bd e0 95 38 bc
       0.06036408 -0.017616369 -0.03584513 -0.011266202
000320 80 62 e1 bb bf 90 32 3d ab 90 1c bb ec 3a e2 3b
       -0.006878197 0.043595072 -0.002388994 0.0069039967
000330 3e 19 75 bb eb 67 a4 3b 9a 28 7c 3d 4e d0 ce bb
       -0.0037399079 0.005017271 0.06156216 -0.006311453
000340 97 70 0f bd 4d 5e 63 3c 94 ce 15 bc 76 d2 3f bc
       -0.035019483 0.0138774635 -0.00914349 -0.011707893
000350 87 47 81 3c a4 15 95 bc 82 e7 7b 3c 9a 18 45 3c
       0.015781177 -0.018198796 0.01537502 0.012029791
000360 ab 14 a8 3c fd 89 16 bc 78 3d 8b bc f2 bf 04 bc
       0.020517668 -0.009188172 -0.016997084 -0.008102404
000370 6c 8e 82 3d 44 eb 6f bc 4d 7f c5 bb 01 cb 9d ba
       0.06374821 -0.014643494 -0.0060271383 -0.0012038649
000380 75 9f 81 bb 73 65 67 bb 16 89 01 bd 7e 88 bb 3c
       -0.0039557763 -0.0035308271 -0.031624876 0.022892233
000390 72 c4 eb 3b de db e8 b9 a8 3e c2 bb e4 4c ca 3c
       0.007195049 -0.00044414302 -0.0059278794 0.024694867
0003a0 df d2 53 3a 68 c6 62 3c e5 bb 97 bc 09 c1 8a 3d
       0.00080804335 0.013841249 -0.018522212 0.067751
0003b0 6b 8e 71 bd 5e 4d ec 3a 52 8f 86 bc 63 68 0f 3c
       -0.05897371 0.0018028428 -0.016425762 0.008752915
0003c0 73 28 4a bc 44 a6 7c bc 95 a2 8f bc 13 e2 0f bd
       -0.012338745 -0.0154205 -0.01753358 -0.03512771
0003d0 30 6e 2e bc fb 09 b9 3b 8b 1a 70 bc 76 55 83 3c
       -0.010646388 0.0056469417 -0.014654766 0.016031962
0003e0 14 bc a1 bc f4 dd bd bc ef 28 8c bd ef b2 19 3c
       -0.019743003 -0.023177125 -0.06843745 0.00938104
0003f0 bb 3f 0a bd e9 bc 19 bc 57 14 ae bc 04 65 af bc
       -0.033752184 -0.009383419 -0.021249933 -0.021410473

fc2_lin.weight f4 [128, 256]
000000 22 df 00 bb 51 7f 2d ba 21 0d 0e bb 78 ad 0d 3d
       -0.0019664248 -0.0006618398 -0.0021675306 0.03458926
000010 41 3c 94 bb 25 6c 06 3b 94 36 25 bc 3c 80 17 3c
       -0.0045237844 0.0020511237 -0.010083813 0.009246882
000020 c9 35 e9 3a c9 3a 2d 3c ca 02 7e 3a 91 62 35 bb
       0.0017792518 0.0105730975 0.00096897467 -0.0027677158
000030 d5 61 22 bb 21 94 f5 bc a7 a9 a2 3d 7a f3 11 3c
       -0.002477755 -0.02997786 0.07942515 0.008908147
000040 c9 8a 35 3a 8c fb 7f 3b 10 1f ea bb 9b 36 dc 3b
       0.00069252827 0.0039059846 -0.007144816 0.0067203767
000050 03 21 18 3c 1b b2 05 bc fa 51 f0 ba 40 3b df b9
       0.009285214 -0.008160139 -0.0018334978 -0.0004257802
000060 85 27 7c bb 9e 6a de 3d 17 04 c8 39 0c 0a 93 bb
       -0.0038475704 0.10860179 0.0003815002 -0.0044872817
000070 49 9d 4f bb 5f 25 0a 3c ac 2a 59 bb 8a 71 0d 3c
       -0.0031679443 0.0084317615 -0.0033137007 0.008633027
000080 c7 fd 2b 3d 2e 64 7f bd 56 db f0 3c ce ca 56 3b
       0.041990068 -0.0623514 0.029401463 0.003277469
000090 1a c1 e1 ba 05 31 12 3d ae 6c 29 bc cc cf 82 3c
       -0.0017223686 0.03569128 -0.010340853 0.015968226
0000a0 64 a2 c3 38 46 7e 42 bb c7 3c a5 bb da f0 0a 3c
       9.328572e-05 -0.0029677316 -0.0050426456 0.008480275
0000b0 64 3b 11 bc ec 38 be bb 18 a5 07 bd aa 29 c2 bc
       -0.0088642575 -0.0058051255 -0.03311643 -0.023701508
0000c0 3b 8c 41 3d 9b 70 98 bb cc 24 e3 bb 7e 9c a6 bb
       0.047252875 -0.0046520955 -0.0069318768 -0.0050845733
0000d0 e2 49 0d 3c 0b f5 a3 bb 7c 22 b2 3b 7e b1 a5 bc
       0.008623572 -0.0050035766 0.0054362398 -0.020226236
0000e0 b4 40 a5 b9 f3 46 d0 3b a4 81 8c 3d d1 da 24 3c
       -0.0003151946 0.006356114 0.068606645 0.0100619355
0000f0 4e 71 03 bb 9b de 94 bb af 76 63 3b 93 2a 04 bb
       -0.0020056549 -0.004543138 0.0034708192 -0.0020166978
000100 18 dc 4a 3d 7a 6e 11 3b 48 5d 12 ba bc a2 1a bc
       0.049526304 0.0022191093 -0.0005583358 -0.009438213
000110 88 89 2d bc 5d ba c0 ba 0a 3f ae bc bd 74 e4 bc
       -0.010591872 -0.0014703978 -0.021270294 -0.027887696
000120 34 18 23 bc 36 1b 41 bb c8 cb 7f 3c 1b 75 24 bc
       -0.009954501 -0.0029465682 0.01561255 -0.010037686
000130 6b 2a 1b 3c 5d d5 3a 3b 92 68 bc 3b 5e 58 dc 3b
       0.009470562 0.0028508522 0.0057497704 0.0067244014
000140 09 e8 98 3b aa 7f fc 3b 25 ef 39 bc af de a7 bb
       0.0046663326 0.0077056484 -0.01134852 -0.0051229815
000150 72 b9 10 3c 2e cf f3 3b 5e 1a 0b bc 41 f8 e9 3b
       0.008833276 0.007440469 -0.008490173 0.00714019
000160 2b 91 ca 3d 05 c5 e7 3a c3 28 77 bb 19 21 23 3c
       0.0989097 0.0017682618 -0.0037713505 0.009956622
000170 c1 89 a2 3d b3 f0 0d 3c db 32 a4 bb 69 40 b5 bb
       0.07936431 0.008663344 -0.0050109453 -0.00553136
000180 f9 e9 b6 bd c2 58 e7 ba fd 56 a6 bb 8c 7d 33 3b
       -0.089313455 -0.0017650353 -0.005076288 0.0027388064
000190 8f 04 86 3b 72 87 b2 3b 7b 55 23 3c fb f1 ee bb
       0.004089899 0.0054482752 0.009969111 -0.00729203
0001a0 43 03 16 bc 5a 30 7a bc 4c 2f 0e bc 9e b2 72 3b
       -0.009156051 -0.015270317 -0.008678269 0.0037032734
0001b0 c4 51 0d 3c ca bd 21 3b 52 cc 4f 3d 62 04 87 3d
       0.0086254515 0.0024679773 0.050731964 0.06592633
0001c0 95 0e 03 3c ea 16 20 3c 10 79 13 bb 06 18 04 bc
       0.007999082 0.009771088 -0.0022502579 -0.008062368
0001d0 73 8a 9d 39 6c dc 1a 3c f0 aa 34 39 53 a3 82 ba
       0.00030048526 0.009451967 0.00017229817 -0.0009966887
0001e0 24 a9 cd bb 16 1c 37 39 1b bf 91 bb a6 56 e4 3b
       -0.0062762666 0.00017462703 -0.0044478304 0.006968337
0001f0 4f 82 ae bb f2 2d ca 3b d2 75 06 3c ba 3e 49 ba
       -0.0053255926 0.006170028 0.0082068015 -0.00076768885
000200 2c b3 f1 3d ec f6 9a bc d9 c5 0f 3b 1b 81 67 3a
       0.118017524 -0.01891657 0.0021937995 0.0008831189
000210 95 e8 97 ba 42 27 13 bc b0 6a 0d 3a 3c a8 02 bb
       -0.0011589701 -0.008981528 0.0005394621 -0.0019936701
000220 17 f4 09 bb 05 d4 1e bb b7 f2 18 3b b7 19 5c 3b
       -0.002105003 -0.002423526 0.0023338029 0.0033584663
000230 55 7d 56 bb d4 a9 0e bb 81 c9 9f 3d e5 9e 47 3d
       -0.0032728512 -0.0021768706 0.07802106 0.048735518
000240 16 a4 22 bc a3 86 a3 3b 60 a4 87 3b 52 5a 4b 3b
       -0.009926816 0.004990415 0.004139468 0.0031029177
000250 fe d3 2f bd b7 86 1a bc b5 ad 3f bb 7a 64 0c bc
       -0.04292678 -0.009431533 -0.0029247825 -0.008568877
000260 f2 e2 08 bc c1 49 92 bb 01 fe f6 3b e1 ca 02 bc
       -0.008354889 -0.0044643586 0.007537604 -0.00798294
000270 46 15 09 3c 17 f5 6b bb 9b d8 92 3d 80 70 73 3d
       0.008366888 -0.003600424 0.071702205 0.05943346
000280 e4 06 37 bd b2 8b 23 3c 65 62 21 bb c1 a6 6c 3d
       -0.044684306 0.009982036 -0.0024625298 0.057776216
000290 54 b4 3d bd 7f 49 c8 bc c9 7c e9 bc e3 6e 31 bb
       -0.046314552 -0.024449108 -0.028501885 -0.002707415
0002a0 2d ab 02 bc 6d 7d 6d ba d7 9b bd 3c 00 88 64 bb
       -0.007975382 -0.00090595224 0.0231456 -0.0034871101
0002b0 85 c6 91 bd 15 c0 8b 3d f8 6b b4 bb 31 cf 8a bb
       -0.07117943 0.06823746 -0.005506035 -0.004236125
0002c0 1f cb 89 b9 33 41 d9 bb e7 bf 11 3c fc 05 dd bc
       -0.00026282013 -0.006630087 0.008895851 -0.026980393
0002d0 5e 54 00 3c 72 cb 88 3d 4c 49 7b 3c 59 1d 2d bc
       0.007832615 0.06679429 0.0153373 -0.010566079
0002e0 d6 a2 9f bb 5c 59 05 bc 3b 7b d7 bb 21 18 2f bc
       -0.0048717065 -0.008138981 -0.0065759695 -0.010686905
0002f0 c4 10 d4 ba 6b 49 26 bb c8 51 40 bb 1c eb b7 ba
       -0.0016179313 -0.002537335 -0.002934562 -0.001403186
000300 ff b0 1d bc 5b da 8d 3b 98 cb 7e 3b 1d b3 65 bd
       -0.009624719 0.0043290085 0.0038878676 -0.05607902
000310 4e f1 5f bd 4e 82 ef 3b 4e 71 0d 3c 35 55 fd 3b
       -0.054673485 0.0073092347 0.008632971 0.0077311047
000320 eb 63 dc 3b 46 92 93 bc 77 a1 98 bb 1c a3 dd bb
       0.0067257783 -0.018014085 -0.00465792 -0.006763829
000330 08 e8 02 bb d1 a0 0a bc 9d f1 91 bd 84 64 7d 3d
       -0.0019974727 -0.008461193 -0.07126162 0.061863437
000340 db 6a c5 3d e6 88 11 bc fc ca 0e bb f3 d3 c9 3c
       0.09639522 -0.008882737 -0.0021788469 0.024637198
000350 d3 40 72 bc 70 18 73 39 63 15 15 3c b0 95 c5 bb
       -0.014785963 0.0002318339 0.009099337 -0.006029807
000360 c3 41 5e bd 3e 94 b1 3a 3f 21 f1 38 42 12 83 b8
       -0.054261934 0.0013548208 0.00011497968 -6.2499676e-05
000370 8f 3b 87 bd a5 b5 8a bb 04 09 38 ba 98 39 fd 3b
       -0.06603157 -0.0042330795 -0.00070203864 0.007727813
000380 0d 2a 13 bc 10 13 14 3c 73 d6 e8 3d 2e 0b 89 bd
       -0.008982194 0.009037748 0.11369028 -0.066915855
000390 95 59 42 3b 15 37 fb bb 79 36 ff 3c e7 a3 8e bb
       0.0029655446 -0.0076664784 0.031153904 -0.004353035
0003a0 d9 29 e0 bb fd 04 50 bb 49 0e 85 3d 15 f6 06 bd
       -0.006840926 -0.0031741254 0.06496865 -0.032949526
0003b0 1b e3 b6 3c ae 16 a1 bb f1 96 fe 38 9f c0 7a ba
       0.02232509 -0.0049160337 0.00012139779 -0.0009565446
0003c0 1d e6 f9 bb 05 19 21 3b b2 22 1e 3c 71 83 81 3c
       -0.0076263086 0.0024581563 0.009651827 0.015809746
0003d0 b8 bf 2a 3b 15 4f 01 bc de 25 d2 bb 17 c5 a2 3b
       0.0026054215 -0.00789239 -0.0064132055 0.0049673426
0003e0 86 27 16 bc 0a 50 98 3d 4e 72 a7 3d 90 07 28 3b
       -0.009164697 0.07437141 0.08176099 0.0025639273
0003f0 9a 72 c7 3d 71 5b 05 b9 81 85 f0 bb 5f c9 ac bb
       0.097386554 -0.00012717933 -0.0073401337 -0.0052730287

fc2_lin.bias f4 [128]
000000 71 48 00 bc e7 d2 a3 3d b3 d6 45 3d 8a eb 09 3c
       -0.007829771 0.07999211 0.048300456 0.008417973
000010 d7 e5 34 bb ca 12 04 bb e0 bb 87 bc a0 42 cf ba
       -0.0027602816 -0.00201528 -0.016569078 -0.0015812702
000020 89 0b 5e bc a0 e5 46 38 ae c3 ab bc 9a bf af 3d
       -0.013552555 4.7420734e-05 -0.02096733 0.08581467
000030 f7 4a 8a bc a7 2f d5 bc 40 a6 9a 3c 81 97 22 3c
       -0.01688145 -0.026023699 0.018878102 0.009923817
000040 6f 65 ae 3b 79 1a d3 bb 0d 5d 0a 3c 1e b3 95 3d
       0.0053221504 -0.006442365 0.008445037 0.073095545
000050 9c 8a fd bb 9f 66 70 3b e3 a3 59 bc cd 41 cb bb
       -0.007737471 0.003668226 -0.013283703 -0.0062029124
000060 90 d2 d4 3b 65 e1 21 bc 67 dc 18 bc 51 c9 57 3c
       0.0064948276 -0.009880398 -0.009329892 0.013170556
000070 a5 56 c3 3c f0 36 63 3d 90 82 d2 ba 17 66 83 3d
       0.023845026 0.055472314 -0.0016060639 0.064159565
000080 2d 53 7c 3d bc f2 41 bc da 87 76 3a d6 4e 76 3d
       0.06160276 -0.011837658 0.0009404399 0.060133778
000090 bf 65 1a bc cc 28 85 3d 25 6b 25 bc da 15 5a 3b
       -0.009423672 0.06501922 -0.010096346 0.0033277185
0000a0 b3 0c 47 3d a2 a7 64 bc d9 d0 0a 3b 91 15 34 3d
       0.048596095 -0.013955982 0.0021181612 0.04396588
0000b0 a0 19 9f ba 4c 47 1f bc 51 58 c2 3c 4a dc 3c bc
       -0.0012138374 -0.009721588 0.023723753 -0.01152713
0000c0 6d 22 6f bc 2a 6e 44 3d 0b 63 9c 3b 28 6f a4 3d
       -0.01459561 0.047956623 0.004772549 0.08029014
0000d0 4e 95 10 bc 25 09 8e bc ec 86 c8 bc 29 a8 c7 bc
       -0.0088246595 -0.017338345 -0.024478398 -0.024372177
0000e0 45 84 d2 bb 89 ab 04 bd 6c 45 89 3a 61 48 d2 bc
       -0.006424459 -0.03239015 0.001047296 -0.025669279
0000f0 b0 25 11 3d 87 c0 23 3c 9e 1f 8e bc 1e 56 33 3b
       0.035436332 0.009994633 -0.01734906 0.0027364562
000100 1a 83 8c 3c a2 a7 34 bc 9e 37 3c 3d c5 48 97 3d
       0.017152358 -0.011026295 0.04595148 0.073869266
000110 d5 7a 81 3c a1 4e 21 ba 35 f1 e8 3c 56 ea 83 3d
       0.015805641 -0.0006153379 0.028435329 0.064411804
000120 cf c7 96 3d b5 c6 9d 3d 1f 5d 7f 3b de 80 17 bc
       0.07362329 0.07703916 0.0038965417 -0.009247033
000130 02 6f 88 bb b3 b7 78 3d eb 37 e8 bc f5 c9 83 3a
       -0.004163624 0.060722064 -0.028346976 0.0010054695
000140 4d 67 ba ba 39 20 32 bc bd c3 cb bb 62 cc dc bb
       -0.001422146 -0.01087194 -0.006218402 -0.0067382315
000150 b8 50 c6 bb 4c 6f a9 3d 1b 40 04 bc 47 c1 90 bb
       -0.006052103 0.08273181 -0.008071925 -0.0044175717
000160 e4 90 a8 bb 2f 8a 62 bc 88 db 56 bc f1 52 6a 3d
       -0.0051442254 -0.013826891 -0.013113864 0.057208005
000170 71 45 f7 bb a5 0f ef bc 54 e6 1f bc 3f 63 ce bc
       -0.00754612 -0.029182265 -0.009759504 -0.025193809
000180 4c d0 64 3d 35 4e df 3c e4 5e 3c 3c aa 3f 2b bc
       0.05586271 0.027258972 0.011497233 -0.01045219
000190 8a d9 96 bc 1d 56 20 bc 0c 95 49 3d 5d 29 c3 3c
       -0.018414278 -0.009786156 0.049214408 0.023823434
0001a0 f2 c6 05 bd 99 20 cb 3c 46 ff 8c bb e1 ca 63 bc
       -0.032660432 0.024795817 -0.004302892 -0.013903351
0001b0 34 2c 61 bc b9 6a 1e 3d ae d8 1d bb a0 2a d8 bb
       -0.013743449 0.038675997 -0.002408545 -0.006596878
0001c0 c3 f6 28 bc a6 ba bf 3b 09 f9 e1 bb dd a2 b8 38
       -0.010312739 0.0058511076 -0.0068961424 8.804139e-05
0001d0 72 c8 c4 bb 70 b2 a0 3d 15 cb ae 3d 7a 20 f4 bc
       -0.0060053403 0.07846534 0.085348286 -0.029800642
0001e0 65 45 20 bc 9d 81 37 3d 27 97 b5 39 13 27 c1 bb
       -0.00978217 0.044801343 0.00034635628 -0.0058945506
0001f0 ce e7 90 bb a0 3b 61 bb 8d 3d 82 3d 8c a5 0e bd
       -0.0044221645 -0.0034367815 0.06359396 -0.034825847

fc3_lin.weight f4 [64, 128]
000000 77 58 5f bd 43 06 8a 3c 21 a3 08 bc 7c 1d 89 bc
       -0.054527726 0.016848689 -0.008339674 -0.016737692
000010 fb 58 8c 3c fc 1a 07 3d 17 44 1f bc 00 45 98 3b
       0.017132273 0.03298472 -0.009720824 0.0046468973
000020 75 5e 54 bd 9c 52 ad 39 3c 1b ab 3b 9a f5 6b 3a
       -0.051847894 0.0003305868 0.0052217524 0.0009001136
000030 94 21 92 3b 7b 86 07 bb d1 09 1a bc 25 38 1c bc
       0.004459569 -0.0020679522 -0.0094017545 -0.00953487
000040 ef 98 75 3c 7d 44 51 3b 77 ef d3 3b f0 d3 8a 3b
       0.0149900755 0.0031931691 0.0064677554 0.0042366907
000050 f1 91 22 bc 29 fe ae 3c e3 6c 3c 3c d2 9d 13 bc
       -0.00992249 0.021361427 0.01150057 -0.009009795
000060 02 1f 20 bb 99 73 82 bb ca 6b 82 3b 91 6c 48 bd
       -0.0024432545 -0.0039810655 0.0039801346 -0.048931662
000070 a8 61 cf bb b3 54 6f 3c c2 82 f3 3a 93 39 ce 3c
       -0.00632878 0.014607596 0.0018578398 0.025173938
000080 d3 95 e9 3c 10 c6 58 bc d8 06 7f bb 9f d7 85 bc
       0.028513825 -0.0132308155 -0.0038913991 -0.016338168
000090 7a ac b7 b9 63 80 88 3b 33 5c ec bb e7 7e 43 bc
       -0.00035032985 0.0041656955 -0.0072131394 -0.011932111
0000a0 f5 21 8d 3c d2 83 ef 3b f2 59 86 bb 7e 6e db 3b
       0.017228106 0.0073094154 -0.004100078 0.0066965213
0000b0 98 5f 9b bb e7 ce b6 3b 5c 19 0f bc b9 cd 00 bb
       -0.0047416203 0.005578864 -0.0087340735 -0.001965387
0000c0 1b 81 c0 bc 3c 94 9e 3a 83 5a a9 bb 81 12 40 bc
       -0.023499062 0.0012098621 -0.0051682605 -0.011723162
0000d0 67 52 29 bc 14 6e 8e bd ba 04 9e bb 65 42 d3 3b
       -0.010334588 -0.069545895 -0.004822341 0.006447124
0000e0 6d 34 4d bc 24 54 39 bd 3e d0 c1 bc a1 81 cd bc
       -0.012524706 -0.04524626 -0.023658868 -0.025086226
0000f0 a9 c7 40 3c ad 77 bd 3b 56 57 4c 3c 35 d8 06 3d
       0.011766353 0.0057820887 0.012471994 0.032921035
000100 49 e6 ed 3c e5 b7 5e 39 40 c2 5a 3c 05 c1 8b 3c
       0.029040473 0.00021240076 0.013351977 0.017059812
000110 bc 56 41 bc 34 09 51 bc c6 74 ad 3b 36 eb bb 3c
       -0.011800464 -0.012758542 0.0052934615 0.022939306
000120 37 02 62 3b 72 d9 b2 3a ff f4 80 bc 6d 95 bd 3b
       0.0034486183 0.0013645126 -0.015741823 0.005785635
000130 28 ca 63 bc 6c 97 86 ba 9d ec 4b 3c ed c0 d9 3b
       -0.013903178 -0.0010268516 0.01244655 0.006645313
000140 2d 38 96 3d 4f f5 39 bc f7 76 2a 3c 9f b9 4c 3c
       0.073349334 -0.01134999 0.01040434 0.012495427
000150 d4 f3 05 bc 1e 9c 7a 3c ce 91 2e 3c 0a e5 39 3c
       -0.008175809 0.01529601 0.01065488 0.011346111
000160 e7 55 0b bc 65 77 2e 3b 8e 25 5d bc 80 dc 52 bc
       -0.008504367 0.0026621458 -0.013497723 -0.012869954
000170 27 67 43 bc 4a 7a 6c bd 52 25 89 bb e0 77 05 bd
       -0.011926449 -0.05773381 -0.004185357 -0.032585025
000180 a9 d2 ad bc 8f 11 d3 3c 76 52 76 3c cf 06 0a bc
       -0.021218615 0.025765209 0.015034309 -0.008424475
000190 d6 53 2c 3c 0e 5d 1c bb d3 8d 6e bb a9 7b 71 bc
       0.010518035 -0.0023859176 -0.0036400452 -0.014738956
0001a0 91 ec fb 3b 85 55 91 3b 11 bc ff bb 30 1c ec bb
       0.007688113 0.0044352436 -0.0078044017 -0.0072055086
0001b0 d6 9f 05 bc f4 a4 2c 3c af 6d d8 ba 70 67 f2 3b
       -0.008155784 0.010537375 -0.001651218 0.0073975846
0001c0 12 ac 5f bb cb ad f2 3b b7 9a 63 bc 57 76 b3 bb
       -0.0034129662 0.0074059716 -0.013891867 -0.0054767537
0001d0 c6 bc 9f bb 55 7e 34 3c 7b 56 aa bc 39 fd 8d bc
       -0.0048747985 0.011016448 -0.02079319 -0.01733266
0001e0 17 b3 54 bc 4c 14 5c 3c ad 9b 96 3c 22 a0 9d 3b
       -0.0129821515 0.0134325735 0.018384779 0.004810349
0001f0 46 8a fb 3b de 54 da bb f3 5a 47 3b 56 88 2d bd
       0.0076763956 -0.006662949 0.00304192 -0.04236635
000200 66 66 67 bd 90 04 6a 3d 07 36 36 3c 04 60 2f 3c
       -0.05649414 0.057133257 0.01112128 0.010704044
000210 5f 38 a8 3b 76 9f d3 3c 4b 15 55 3b 56 fd 45 3c
       0.005133673 0.025832873 0.0032513912 0.012084326
000220 eb c7 c2 bd 09 b1 37 3c 9e 29 36 3c 87 b0 ba 3c
       -0.095107876 0.011211642 0.011118321 0.022789253
000230 ea 42 11 bc 6d 9a 4b bb 70 73 ca bc d9 a9 81 3b
       -0.008866051 -0.0031067387 -0.024713248 0.003957015
000240 d2 7a b5 3b ad a1 be ba 10 6f 59 3c d1 b2 2e 3c
       0.005538323 -0.0014544033 0.013271108 0.01066275
000250 17 f7 54 bc 05 7b b9 3c f3 91 08 bc c9 e7 d5 ba
       -0.012998364 0.022641668 -0.008335578 -0.0016319688
000260 12 cf 39 3c b2 28 e7 3b 61 f8 c3 bb 0e f6 a3 bd
       0.011340873 0.007054412 -0.005980537 -0.080059156
000270 ca 69 c0 3b 9e c8 9d bc 93 31 07 bd cb 23 9d 3b
       0.005871986 -0.0192607 -0.033006262 0.0047955266
000280 b8 65 98 3d c0 58 54 ba 11 96 54 3c fe 0c 2b 3d
       0.07441276 -0.0008100383 0.012975232 0.041760437
000290 16 25 8e bb 52 c7 b9 3c aa 5a b8 3b 0c fa 2b 3a
       -0.004337917 0.022678051 0.0056260424 0.0006560392
0002a0 3a 6b c4 bc 2a a9 3a 3a 7e 9a 10 3b 8d e7 e2 bc
       -0.02397691 0.00071205443 0.002206474 -0.027698303
0002b0 98 9e 01 3c 84 5a 20 3c fd 81 38 38 39 73 22 3c
       0.007911347 0.009787206 4.399008e-05 0.009915167
0002c0 f9 2d 56 bd ee f5 29 3d a3 4c 5d 3c 36 0b 4f bd
       -0.052289937 0.041494302 0.013507041 -0.0505478
0002d0 2a 1f 76 bc 91 b3 95 bd 5b 4d a5 bb 5e ff 40 3c
       -0.0150220785 -0.0730964 -0.005044622 0.011779634
0002e0 bc 26 a7 3b 3d 44 6e bd aa 8b 56 bd a8 e4 d2 bd
       0.005101053 -0.058170546 -0.052379288 -0.10297519
0002f0 49 a5 5c bc e4 71 4d bc a6 d7 2e 3b a7 05 8e 3c
       -0.013467141 -0.012539361 0.002667883 0.01733668
000300 05 55 7e ba 20 f7 25 3c a4 d9 30 3c 0e 24 b8 3b
       -0.0009702 0.01012972 0.010794077 0.0056195324
000310 97 3b 73 bb e2 46 02 3c 50 4f eb 3c aa ef 7f 3d
       -0.0037114376 0.00795147 0.028724343 0.06248442
000320 2e 94 e2 3c 25 9c 7b 3c ab 9d 88 bd 7a 81 53 39
       0.027658548 0.015357052 -0.06670698 0.00020170762
000330 f0 27 41 3c 72 30 33 3d 16 5f 20 3c d9 75 65 3c
       0.011789307 0.043747373 0.009788295 0.014005148
000340 17 a1 25 3d 63 0c 30 3a 7b 7b 33 bc 3f 59 c0 3b
       0.04043683 0.0006715713 -0.010954733 0.005870014
000350 80 a6 30 bb 03 40 33 3d 64 11 8a bb 28 60 1c ba
       -0.002695471 0.04376222 -0.004213499 -0.0005965256
000360 e4 82 1c 3c 97 14 61 3c 6d 7f b8 3a e3 97 83 bc
       0.009552691 0.013737819 0.0014076062 -0.016063636
000370 f3 9c 30 bc 5e a6 8d bd a2 e6 9b bb 91 6b 8a bd
       -0.010779607 -0.06916498 -0.004757718 -0.06758798
000380 01 41 ef bc f2 75 1d 3d 2f f4 b7 3c 6a 8c 98 bb
       -0.029205801 0.03844256 0.022455303 -0.0046554105
000390 be ea 04 3d 83 07 11 bc 1d 10 08 bc 68 91 34 bd
       0.03245043 -0.008851889 -0.008304623 -0.044083983
0003a0 20 29 7f 3c 0a 96 a9 bc 74 f0 db 3b 13 1b 83 3b
       0.01557377 -0.020701427 0.006712014 0.00400103
0003b0 ee 4a 40 bc 95 60 77 bc e6 33 05 3b a6 67 45 bc
       -0.011736615 -0.015098711 0.0020325123 -0.0120486375
0003c0 d1 bd 1e 3c 72 74 be bc 08 47 30 bc 47 b4 70 3c
       0.00968881 -0.023248885 -0.010759123 0.014691419
0003d0 15 35 4e 3c 5a df 4d 3b 7d 80 36 3d 84 2f 38 bd
       0.012585898 0.0031413645 0.04455613 -0.04496719
0003e0 72 22 b0 bb e5 0b 18 bc 2c db ee 3c ea e2 ab 3b
       -0.0053752 -0.00928018 0.029157244 0.005245556
0003f0 1d 6e b4 bb 5b 7b 29 bc 27 94 18 3d f9 9f 9d bd
       -0.0055062906 -0.010344352 0.037250664 -0.07696528

fc3_lin.bias f4 [64]
000000 69 2d 5e 3d b0 a0 0d 3e ee 1d 68 3b bb 6f a8 bc
       0.054242525 0.13830829 0.003541823 -0.02056109
000010 b0 44 07 3e 16 36 9f bb 13 7b 0a 3e 6d 9c f8 3d
       0.13209796 -0.0048587425 0.13523512 0.12139211
000020 28 83 56 bc a4 7d e6 3d e2 a5 fd 3d 72 ec eb 3d
       -0.0130927935 0.11254433 0.12385155 0.11519708
000030 c1 29 a8 bc aa 2c 1a 3e e2 34 8c bc b0 90 11 3e
       -0.020527722 0.150561 -0.01711506 0.1421535
000040 10 46 87 3d 09 45 e6 3d 57 de e8 bb 3c 21 b4 3d
       0.0660516 0.11243636 -0.007106583 0.087954015
000050 c4 12 66 bc 70 e5 1b 3e 4e 62 f7 3d e1 20 e1 3d
       -0.01404256 0.15224242 0.12079297 0.10992599
000060 93 75 f7 3d f7 af 01 3e 9a 29 05 3e ab c6 0a 3e
       0.120829724 0.12664782 0.13004151 0.13552348
000070 5f 68 66 bc b4 f9 06 3e 5a 93 84 bc 98 ab 1d bc
       -0.01406297 0.13181192 -0.016183544 -0.009623431
000080 a8 71 04 bc 33 01 e6 3d e2 86 ec 3d 07 39 ea 3d
       -0.008083738 0.112306975 0.11549164 0.11436658
000090 5b 2a ee 3d a8 92 ab 3d a3 47 9d bc 4c 2a a4 3d
       0.116291724 0.08377582 -0.019199198 0.0801588
0000a0 f5 3d e4 bc 61 ed 00 3e 92 18 86 3d 01 55 be 3d
       -0.027861575 0.12590553 0.06547655 0.09293557
0000b0 47 7d fd 3d 34 96 23 bc a2 33 d1 3d 48 45 89 bc
       0.123774104 -0.009984542 0.10214926 -0.016756669
0000c0 63 b6 23 3e e3 d6 b0 bc fe 8d 60 bc 75 b1 71 bc
       0.15987544 -0.021586841 -0.013705729 -0.014751782
0000d0 7f 0e 9a 3d 28 96 90 3c 4b d0 16 3e 14 cf ce 3d
       0.07522296 0.017649725 0.14727895 0.10098091
0000e0 d9 f3 bd 3d b9 e8 f3 3d 04 4d 09 3e 40 a4 9b bc
       0.09275026 0.11909623 0.13408285 -0.018999219
0000f0 6b af 08 3e a8 32 00 3e 74 50 a5 bc 3f 5e 8f bc
       0.13348167 0.12519324 -0.020179965 -0.017500995

fc4.weight f4 [2, 64]
000000 eb f4 05 3d ee c6 1e 3e c4 6b d8 bc ed 3f 5d bb
       0.032704275 0.15505573 -0.026418574 -0.0033760027
000010 29 85 ed 3d e5 ce 82 bc e0 2b 24 3e fb 9a 2c 3e
       0.11597664 -0.015967796 0.16032362 0.16855995
000020 11 ea 5c 3b be 99 0d 3e cf ee 37 3e 35 bd 20 3e
       0.003370885 0.13828179 0.17962192 0.15697177
000030 bb 81 2e bb a5 a0 25 3e 22 04 a8 3c e4 84 20 3e
       -0.0026627618 0.16174562 0.020509783 0.15675694
000040 74 6b c6 bd 62 fc cd 3d f9 eb 87 bb 1c 84 1a 3e
       -0.09688464 0.10057904 -0.004148003 0.15089458
000050 7a 9b 1e 3b 7b 13 16 3e 2d d8 44 3e ac c7 02 3e
       0.0024201558 0.14655869 0.1922309 0.12771481
000060 1a 1d 16 3e 93 b0 1f be db 29 12 3e fa 23 4d 3e
       0.14659539 -0.15594701 0.14273779 0.20033255
000070 d9 d5 18 3c 96 bd 3b 3e ff dd 7c bc 35 6d 90 3c
       0.009328329 0.1833404 -0.015433787 0.017630199
000080 4f e9 3e bc e2 20 1d 3e 4c be 0d 3e a5 95 02 be
       -0.011652305 0.15344575 0.13842124 -0.12752397
000090 b7 d1 d9 3d 37 81 19 be 73 58 8f bb 96 cb 24 be
       0.10635703 -0.14990698 -0.0043745576 -0.16093287
0000a0 ec ee 8a bb 48 e9 04 be c4 28 cc bd 02 66 1f be
       -0.0042399075 -0.12979615 -0.09968713 -0.15566257
0000b0 54 e1 0c 3e 70 ba fb 3a 8a 7d cc 3d 68 5d f1 bb
       0.13757831 0.0019205343 0.09984882 -0.007365871
0000c0 98 37 3e 3e d9 9a 45 3b 65 36 ba 3a c7 76 2e 3c
       0.18575895 0.003015211 0.0014206885 0.010648436
0000d0 b6 b8 0a be f4 7e 52 bd 65 79 18 3e 3c 61 03 3e
       -0.13547024 -0.051390603 0.14890058 0.1283006
0000e0 90 03 25 3e 3f d5 0d 3e 05 4d 1f be 3d 8b 7c 3c
       0.1611464 0.13850878 -0.15556724 0.015414056
0000f0 8e 1e 35 be dd 7a 29 3e c2 81 ab 3a 59 4d 80 bc
       -0.17687437 0.16550775 0.0013084935 -0.015661882
000100 6d 7e 5e bd f8 d0 f9 bd ee f3 ce bb fb e1 13 3c
       -0.054319788 -0.12198061 -0.0063157 0.009026046
000110 59 3f 18 be 74 2b 23 bc 57 74 41 be fc 2b 1a be
       -0.14867915 -0.0099590905 -0.18892036 -0.15055841
000120 52 91 cc bb f1 95 02 be d5 c2 2c be 77 5c 0e be
       -0.0062429095 -0.1275251 -0.16871198 -0.1390246
000130 3b 23 39 3c 89 b3 11 be 6a 4b 05 bb 6a dc 3f be
       0.0112999035 -0.14228643 -0.002033914 -0.18736425
000140 5f 5a ad 3d 2c a4 be bd 83 70 42 bc 2b b6 1b be
       0.084645025 -0.09308657 -0.011867645 -0.1520621
000150 80 53 ae bb 38 df 29 be 31 b0 61 be 71 65 e9 bd
       -0.0053200126 -0.16589057 -0.22039868 -0.113963015
000160 12 97 25 be ac 1a 0e 3e 73 7d 25 be 2d fe 4c be
       -0.1617091 0.13877362 -0.16161136 -0.20018835
000170 bf 66 14 3c c9 34 49 be 5f f0 33 bc 85 d9 86 3c
       0.0090577 -0.19649042 -0.010982602 0.016461143
000180 91 cb b4 3b e1 81 f8 bd 88 4c 1b be 47 ba fd 3d
       0.005517431 -0.121341474 -0.15165913 0.12389045
000190 f6 25 eb bd 2b 10 2c 3e ff c5 41 bc 9f 67 22 3e
       -0.1148185 0.16803043 -0.011826991 0.15859841
0001a0 60 b3 e4 3b 77 7b 0f 3e a3 a1 a2 3d e9 44 0a 3e
       0.006979391 0.14011942 0.07940986 0.1350285
0001b0 71 b2 14 be fd 8c b8 ba 3e 0d ef bd 67 bb 30 ba
       -0.14521195 -0.0014080104 -0.116724476 -0.00067417923
0001c0 c4 8a 33 be 32 bc 82 3c 6a 38 17 3c 60 e3 13 bb
       -0.17533404 0.01595888 0.009229759 -0.0022565946
0001d0 19 9d 1d 3e 1b 9a 0b 3d 95 89 2f be ac e7 0e be
       0.15391959 0.034082513 -0.17142327 -0.13955563
0001e0 60 01 0d be 2b 00 1c be 56 42 19 3e 65 10 21 3c
       -0.13770056 -0.15234439 0.14966711 0.009830569
0001f0 d1 48 34 3e 6c 57 1e be b7 de c6 3b 63 ba 86 ba
       0.17605902 -0.15463036 0.00606903 -0.0010278936

fc4.bias f4 [2]
000000 fc 84 73 3f bb ea 75 bf
       0.95124793 -0.96061295
