MWNet/checkpoints/MWN_TRY1_FOCAL_LOSS_BIG_DATA/model_epoch_80.pt (torch, 234127 bytes, 8 tensors)

fc1_lin.weight f4 [256, 64]
0	0x370f42e8	8.539042e-06
1	0x393e0ad3	0.00018123844
2	0xb931e802	-0.00016966465
3	0x3a111e08	0.0005535786
4	0xb89ceb77	-7.4825184e-05
5	0xbaa8763c	-0.0012852619
6	0xb9013f67	-0.00012326018
7	0xbbca6273	-0.006176287
8	0x3655d88d	3.1865522e-06
9	0xba394fee	-0.00070691004
10	0xbba34671	-0.0049827625
11	0x3acb623d	0.0015516948
12	0x3b489106	0.0030604019
13	0x395200f8	0.00020027522
14	0xb8156b03	-3.562403e-05
15	0xb886d8c6	-6.429995e-05
16	0x3ac1a56d	0.0014774032
17	0xb88723ac	-6.443946e-05
18	0x389ad4dc	7.3829404e-05
19	0x3bb9ae50	0.0056665316
20	0x36adb082	5.17635e-06
21	0x39a389e8	0.0003119253
22	0xba29c126	-0.000647562
23	0x37a0e395	1.9179462e-05
24	0xb7cabb47	-2.4167484e-05
25	0xb83dc33f	-4.524295e-05
26	0x391b39ad	0.00014803438
27	0x3c040359	0.008057439
28	0xb88cbc9c	-6.7108514e-05
29	0x3905511f	0.00012714088
30	0xb85353d5	-5.0384395e-05
31	0xb892074c	-6.963182e-05
32	0xb96e8f31	-0.00022750792
33	0x3ab9bdba	0.0014170923
34	0xb878da40	-5.933107e-05
35	0xbae698c2	-0.0017593133
36	0x382df308	4.1472755e-05
37	0x38d2a087	0.00010043481
38	0xb8650669	-5.4603825e-05
39	0xbad7100d	-0.0016407982
40	0xb9a050c2	-0.00030577747
41	0x3ac2d741	0.0014865176
42	0xb702d5b6	-7.798362e-06
43	0x37950b08	1.7767321e-05
44	0x37457bc9	1.1770936e-05
45	0xbb42466e	-0.002964403
46	0xb7b7b2c2	-2.189854e-05
47	0xba9c7b83	-0.0011938665
48	0x3c0dfb72	0.008665906
49	0x3b4fe9e7	0.003172511
50	0x37df9e7f	2.6657477e-05
51	0xbbf99e34	-0.0076177362
52	0x3c11e712	0.008905189
53	0xb78b2014	-1.6585029e-05
54	0xb8ca1f49	-9.637938e-05
55	0x374b6fb5	1.2125752e-05
56	0x36fe6d81	7.582538e-06
57	0xbaa6aea9	-0.0012716848
58	0xb8924627	-6.9748894e-05
59	0xba21fb40	-0.0006179102
60	0x3c181fd4	0.009284932
61	0x3777f815	1.4780108e-05
62	0x3a445a54	0.00074902666
63	0xb730917c	-1.0524291e-05
64	0x3867d668	5.5274373e-05
65	0x3875495d	5.8480877e-05
66	0xb917fe9c	-0.00014495332
67	0x3a01f2af	0.0004957122
68	0xb7fdeed7	-3.0271169e-05
69	0xba834003	-0.0010013584
70	0xb967ac07	-0.00022093962
71	0xbbbf84de	-0.0058446964
72	0xb852fef4	-5.0305345e-05
73	0xba0c1ead	-0.0005345147
74	0xbb8e1a7a	-0.0043366523
75	0x3aa91a70	0.0012901556
76	0x3b2d3ca4	0.002643385
77	0x390e0ecd	0.00013547689
78	0x38a5b157	7.900845e-05
79	0x34dd0df9	4.1174624e-07
80	0x3a9e174d	0.0012061388
81	0x3809bdba	3.2840042e-05
82	0x36747e64	3.6432402e-06
83	0x3ba0408d	0.0048905076
84	0xb8249d08	-3.9246894e-05
85	0x3988b966	0.00026078074
86	0xb9cc6e5b	-0.00038992133
87	0xb84ea8c4	-4.9271403e-05
88	0x33373e6a	4.2664773e-08
89	0xb7879905	-1.616451e-05
90	0x39305919	0.0001681786
91	0x3be462d7	0.0069697904
92	0xb880a40e	-6.134073e-05
93	0x36c575ad	5.884757e-06
94	0xb8970721	-7.201569e-05
95	0xb8702793	-5.7257315e-05
96	0xb972b403	-0.00023145978
97	0x3a9add9b	0.0011815311
98	0xb76e02bc	-1.4186542e-05
99	0xbacc0681	-0.0015565903
100	0x38a1e976	7.720564e-05
101	0x38f7a20a	0.0001180806
102	0xb723117e	-9.71963e-06
103	0xbaaccaee	-0.0013183036
104	0xb9851c3a	-0.00025388767
105	0x3ab8c1eb	0.0014095878
106	0x386a9488	5.5928278e-05
107	0x38b23bd3	8.4988445e-05
108	0x3871fb45	5.769289e-05
109	0xbb29d544	-0.002591447
110	0x3836fe71	4.362915e-05
111	0xba822a36	-0.0009930793
112	0x3c0890f8	0.0083353445
113	0x3b2f88a7	0.0026784332
114	0xb8add38f	-8.288689e-05
115	0xbbd38ce8	-0.0064560063
116	0x3bfcae2e	0.0077111935
117	0x3864f499	5.4587235e-05
118	0xb8f76a77	-0.000117977084
119	0xb64feeb7	-3.0984354e-06
120	0xb8b07645	-8.4143634e-05
121	0xba8944a1	-0.0010472724
122	0x38969899	7.180981e-05
123	0xba1be431	-0.0005946784
124	0x3c02321e	0.007946519
125	0x38eb247a	0.000112124675
126	0x3a181b87	0.0005802442
127	0x34ae912c	3.2515652e-07
128	0x3816c914	3.5950055e-05
129	0xb9ebb3d1	-0.00044956667
130	0x3a34621e	0.00068810757
131	0xba6a1884	-0.0008930045
132	0xb81c2f07	-3.7237096e-05
133	0xbcb4adf7	-0.02205561
134	0x3b9c7a7a	0.0047753425
135	0x3d873734	0.06602326
136	0x381cbf72	3.7371596e-05
137	0x3b2af470	0.0026085638
138	0x3caeda9c	0.021344475
139	0xbbb56a05	-0.00553632
140	0xbc6a6c9f	-0.014308124
141	0xba0e9fe8	-0.0005440698
142	0x37da8c23	2.6052881e-05
143	0x37f1e259	2.883484e-05
144	0xbb8137c7	-0.0039434168
145	0x375ec17a	1.3277278e-05
146	0x3868e9aa	5.5530727e-05
147	0xbcbe6457	-0.023241205
148	0xb888d522	-6.5246844e-05
149	0xba9a20f0	-0.0011759084
150	0x3b090cf2	0.0020912257
151	0xb8c01fff	-9.161233e-05
152	0x380cf80f	3.3609624e-05
153	0x38283b14	4.0109342e-05
154	0xba569f62	-0.0008187202
155	0xbb8759bb	-0.0041305698
156	0x375367ee	1.2600778e-05
157	0xb96782f7	-0.00022078665
158	0x36f35468	7.2517905e-06
159	0x39c6eb04	0.00037940603
160	0xbadaa016	-0.0016679789
161	0xbbcb9df7	-0.0062138992
162	0x386b0719	5.6034976e-05
163	0x3c12ab57	0.008951983
164	0xb7b2cc34	-2.1314343e-05
165	0xbaf3c1e7	-0.0018597216
166	0xb7d5c0ff	-2.548145e-05
167	0x3bbf86e8	0.0058449395
168	0x3b874e74	0.0041292254
169	0xbbb4843e	-0.0055089286
170	0x38bcec82	9.0085916e-05
171	0x38b354ee	8.5512045e-05
172	0xb809c04f	-3.2842447e-05
173	0x3c2348d2	0.009966092
174	0x3785ccc9	1.5950196e-05
175	0x3baf8d56	0.0053574247
176	0xbdae7250	-0.08517897
177	0xbc4747d8	-0.012163125
178	0xb8cf8e3a	-9.897021e-05
179	0x3d06da47	0.03292301
180	0xbd05a9f7	-0.032632794
181	0x36c12b96	5.7569223e-06
182	0x390c2923	0.00013366765
183	0xb5f1675e	-1.7985983e-06
184	0xb7eb9ea4	-2.8088056e-05
185	0x3c875120	0.016518176
186	0x3773f194	1.45401755e-05
187	0x3b11416a	0.0022164234
188	0xbd1f9599	-0.038961027
189	0xb9344787	-0.00017192784
190	0xb9e54fe8	-0.00043737818
191	0xb89fbdbd	-7.617052e-05
192	0x37dd8134	2.6405418e-05
193	0xb959ee1f	-0.0002078344
194	0x3976f402	0.00023551288
195	0xba12d90b	-0.00056018
196	0xb8d8190f	-0.0001030435
197	0xbc0c62f1	-0.008568511
198	0x3aed1f06	0.0018090911
199	0x3cc456aa	0.023967106
200	0xb89262cb	-6.980224e-05
201	0x3a7f031b	0.0009727941
202	0x3c018175	0.0079044
203	0xbb0120dc	-0.0019703424
204	0xbb9e68f2	-0.004834288
205	0xb9484b4b	-0.00019101535
206	0x36d4ea2e	6.3453544e-06
207	0xb68052d5	-3.82434e-06
208	0xbab42d41	-0.0013746397
209	0xb5ed99bc	-1.7702619e-06
210	0xb754b9f5	-1.2679481e-05
211	0xbc0d4211	-0.0086217085
212	0x37be3cfb	2.2678161e-05
213	0xba00ced1	-0.00049136305
214	0x3a1fa9c8	0.0006090668
215	0xb7848432	-1.5797184e-05
216	0x34f0c573	4.4847147e-07
217	0x3831911b	4.233523e-05
218	0xb94ec583	-0.0001971927
219	0x398e1e67	0.00027107002
220	0x3878cdf4	5.9319616e-05
221	0xb812639c	-3.490188e-05
222	0x3805d2ce	3.1906e-05
223	0x38bdb128	9.04522e-05
224	0xba2bf681	-0.0006559864
225	0xbb1af970	-0.0023647211
226	0xb70f8535	-8.554479e-06
227	0x3b63c225	0.003475317
228	0x3793a8b4	1.7602324e-05
229	0xba4a387a	-0.0007714104
230	0x38a18c86	7.703253e-05
231	0x3b0ff9ba	0.0021968917
232	0x3ad8cb97	0.0016540167
233	0xbb02e67d	-0.0019973808
234	0xb7cfc958	-2.4770081e-05
235	0xb83a69e4	-4.4444474e-05
236	0x366f00f3	3.5614328e-06
237	0x3b712165	0.0036793586
238	0xb5a43663	-1.2234781e-06
239	0x3b08b027	0.0020856948
240	0xbd048456	-0.032352768
241	0xbb91a5fc	-0.0044448357
242	0xb7d6025c	-2.5511887e-05
243	0x3c4a724e	0.012356354
244	0xbc42e9fb	-0.011896606
245	0xb83468e3	-4.3013028e-05
246	0x38cb9bdc	9.7088254e-05
247	0x37b606a8	2.169919e-05
248	0x380b9ef4	3.328822e-05
249	0x3beb47bf	0.0071801837
250	0x37b24ce1	2.1255053e-05
251	0x3a5de43f	0.0008464492
252	0xbc67b9c4	-0.014143411
253	0xb8b4640e	-8.6017055e-05
254	0xb9bcf940	-0.0003604386
255	0xb8029cc4	-3.1140415e-05

fc1_lin.bias f4 [256]
0	0x3b815be4	0.003947722
1	0x3b4adabe	0.0030953134
2	0x3d29a482	0.041416653
3	0x3c89a510	0.01680234
4	0x3aba51fb	0.0014215106
5	0x381785ac	3.6125697e-05
6	0x37f44228	2.9117873e-05
7	0x396139c9	0.00021479199
8	0x3c117b22	0.008879455
9	0xb87e347e	-6.0607206e-05
10	0x38c316bc	9.302559e-05
11	0x3cad4094	0.021148957
12	0x3cafebc1	0.02147472
13	0x37b16718	2.1148051e-05
14	0x37c12556	2.3024779e-05
15	0xb8a7c26e	-7.999396e-05
16	0x3b3109cc	0.0027013896
17	0x3cf47e28	0.029845312
18	0xb8548260	-5.066616e-05
19	0xb812a16e	-3.4959456e-05
20	0xb82f7ee2	-4.184142e-05
21	0x3d084f4b	0.033278745
22	0x3d256fc9	0.04038981
23	0xb84c904c	-4.8771777e-05
24	0x3ccec333	0.025239563
25	0x3d1fe885	0.039040107
26	0xb823e479	-3.907501e-05
27	0xb7efe339	-2.8596829e-05
28	0x3d12cfa9	0.03584257
29	0x3a0b7c4e	0.0005320952
30	0x3c49d2be	0.012318311
31	0x3ceac652	0.02865902
32	0x3c2f2d99	0.010692024
33	0x3a7b98f3	0.00095976813
34	0x3b1d5110	0.0024004616
35	0xb8a04a51	-7.643237e-05
36	0x3bbfdafe	0.0058549633
37	0xb89217c7	-6.9662514e-05
38	0x3cef1206	0.029183399
39	0x3d0c29fb	0.034219723
40	0x374bc32b	1.2145184e-05
41	0xb88c42bf	-6.688153e-05
42	0x3b4cdd82	0.0031259959
43	0xb7383f17	-1.0981944e-05
44	0x3ba11b54	0.004916588
45	0xb61bf439	-2.3238956e-06
46	0x3c539362	0.012913557
47	0x3c96f99a	0.018429566
48	0x3b00a252	0.0019628
49	0x3b298eef	0.0025872549
50	0x38886f5c	6.505728e-05
51	0x38b1c050	8.475839e-05
52	0x3cda9d26	0.026686262
53	0x3ce245a7	0.027621103
54	0xb7ca76c5	-2.4135583e-05
55	0x3bdbff12	0.0067137564
56	0x3c8bddfc	0.017073624
57	0x3c3dce38	0.011584811
58	0x3b9a43c7	0.0047077867
59	0x3c74d497	0.0149432635
60	0x3a90f981	0.0011060686
61	0x3bbc62ca	0.0057490813
62	0xb83f172a	-4.5559522e-05
63	0x3cf3940b	0.029733678
64	0xb880b989	-6.138074e-05
65	0xb7ee4f0d	-2.8408622e-05
66	0xb89bfbc2	-7.4378695e-05
67	0x3b232fef	0.0024900397
68	0x3bb9081a	0.0056467177
69	0x398e00d8	0.0002708498
70	0x3c14b1c8	0.0090755895
71	0xb8790d13	-5.9378403e-05
72	0x3c965310	0.018350154
73	0xb87ee724	-6.0773586e-05
74	0x3c021ce5	0.007941459
75	0x3cc7c5f4	0.024386384
76	0x3d375772	0.04476113
77	0x38e051fc	0.00010696423
78	0x3c901ea9	0.017592745
79	0xb83ce399	-4.503466e-05
80	0x3a88ce21	0.0010437408
81	0x3d44abc8	0.048015386
82	0x3cf4630b	0.029832384
83	0x39e94190	0.0004449007
84	0xb7842752	-1.5753936e-05
85	0x3d049408	0.032367736
86	0xb809ed7e	-3.2884527e-05
87	0x3b90d99c	0.0044204723
88	0xb8782142	-5.915878e-05
89	0xb884d1cb	-6.3333275e-05
90	0x3be6dedc	0.00704561
91	0xb864d3b3	-5.4556596e-05
92	0x3ced73bf	0.028985856
93	0xb89e90a2	-7.560967e-05
94	0xb7640842	-1.3591782e-05
95	0x3b79683d	0.0038056516
96	0x399817c5	0.0002900941
97	0x3d2f586c	0.042808935
98	0xb8a65694	-7.931623e-05
99	0xb87fe070	-6.100576e-05
100	0x3be9d274	0.0071356837
101	0x3b51bd83	0.0032003827
102	0xb82210fb	-3.8639624e-05
103	0x3d0d3bf7	0.034481015
104	0x3ac4a2cf	0.0015002134
105	0xb89cbd94	-7.473971e-05
106	0xb809d9c4	-3.2866155e-05
107	0xb8b80465	-8.774622e-05
108	0x3d36fee0	0.04467666
109	0x3b906fa4	0.00440784
110	0xb8aaf411	-8.1516926e-05
111	0x3c6aacfb	0.014323468
112	0x3bc97d73	0.006148988
113	0xb8bb52a0	-8.932245e-05
114	0x3a7a28dd	0.0009542832
115	0xb8920a47	-6.963737e-05
116	0x3c446ae6	0.011988377
117	0x3cd5aeda	0.026084352
118	0x3b4820e7	0.003053719
119	0xb8715207	-5.753527e-05
120	0xb8a86a25	-8.030635e-05
121	0x3d2dfe74	0.042478994
122	0x3d28d1b3	0.04121561
123	0xb8a2fba9	-7.771637e-05
124	0x3ba19a61	0.0049317335
125	0x3c1088d2	0.008821683
126	0xb88e2a09	-6.778917e-05
127	0x3c21a58d	0.009866131
128	0x3cf71d5a	0.030165363
129	0x3bbbf490	0.005735941
130	0xb69d814a	-4.694016e-06
131	0x3bebbca9	0.007194121
132	0x3c2a60ec	0.010399085
133	0x37a88773	2.0090234e-05
134	0x3cfb052f	0.03064212
135	0xb8823901	-6.209501e-05
136	0xb7c50724	-2.3487555e-05
137	0x3c557186	0.013027554
138	0x3b98ce8a	0.0046632932
139	0x3889d2af	6.571912e-05
140	0x3b41b0b6	0.002955479
141	0x3c3b4ca5	0.011431848
142	0xb89fad82	-7.614029e-05
143	0x3c0c1111	0.008548991
144	0x3ae1ec7e	0.0017236618
145	0x3bc1b599	0.0059115407
146	0x3c92eef0	0.0179362
147	0x3d199381	0.037494186
148	0xb8b68c41	-8.7045606e-05
149	0x3b8096e2	0.0039242366
150	0x3d22f55d	0.039784778
151	0x39a34fcf	0.00031149245
152	0x3d6ebc90	0.058285296
153	0x38a89cea	8.040092e-05
154	0x3886991b	6.418136e-05
155	0xb8a154bf	-7.6928634e-05
156	0xb8b14393	-8.4526044e-05
157	0x3ce0938e	0.02741411
158	0xb7c3d438	-2.3344634e-05
159	0x3bbc3df9	0.0057446924
160	0x370059bb	7.6502865e-06
161	0x39a7e4a4	0.00032023073
162	0x3acfeddd	0.0015863735
163	0x3835eb39	4.337283e-05
164	0x3a0a9864	0.000528699
165	0x3d4520ab	0.048126858
166	0x3d20989d	0.039208043
167	0xb7b97293	-2.2107071e-05
168	0x3ce07f84	0.027404554
169	0x3a158e68	0.0005705119
170	0x3a7096ec	0.00091777625
171	0x3bd81079	0.0065937606
172	0xb84ebe8c	-4.9291688e-05
173	0x381ab465	3.6884467e-05
174	0x3c640999	0.013918304
175	0x3a279437	0.000639263
176	0xb85230e8	-5.011345e-05
177	0x3c04ae6d	0.008098227
178	0x37235065	9.734275e-06
179	0xb8ac422f	-8.213927e-05
180	0xb89bed55	-7.4351825e-05
181	0xb7db5782	-2.6147583e-05
182	0xb8a17705	-7.699247e-05
183	0x3c0c7e7c	0.008575078
184	0x3d343cce	0.0440033
185	0x3cab6468	0.0209219
186	0x3cd5c3b0	0.026094288
187	0xb853456b	-5.037097e-05
188	0x3cb66058	0.022262737
189	0x36f94b35	7.4295335e-06
190	0x3b47cde4	0.003048771
191	0x3cf66161	0.03007573
192	0x3d32e3e6	0.043674372
193	0x388fccb3	6.8568996e-05
194	0x3ca7d9d8	0.020489618
195	0xb8330b42	-4.268741e-05
196	0x3cceab94	0.0252283
197	0x3ce6200d	0.028091455
198	0x3c8a5add	0.01688903
199	0x3b193fef	0.0023384055
200	0x3d05910c	0.03260903
201	0x3d1f9eda	0.038969852
202	0x3c9cb0f8	0.019127354
203	0xb883d03f	-6.2853556e-05
204	0x3c387460	0.011258215
205	0xb8859474	-6.369586e-05
206	0x3cce130e	0.02515557
207	0x3c178a06	0.009249216
208	0xb8171b3f	-3.602658e-05
209	0x38aee905	8.34037e-05
210	0x3af9f170	0.0019069146
211	0xb77203df	-1.4425225e-05
212	0x3cd823cf	0.026384262
213	0xb7851637	-1.586518e-05
214	0x3c429957	0.011877379
215	0x3d18cc20	0.037304044
216	0xb837c18c	-4.3810855e-05
217	0xb8367c23	-4.3507793e-05
218	0xb8395a78	-4.4191693e-05
219	0x3b00774c	0.0019602356
220	0x3d25c63e	0.04047226
221	0x3c96ed6e	0.018423762
222	0xb7222786	-9.665155e-06
223	0xb88f08a9	-6.8203844e-05
224	0xb88e0325	-6.771673e-05
225	0xb80ee4af	-3.4068416e-05
226	0x3c40c23b	0.011765058
227	0x3c5ef46b	0.0136080785
228	0xb8920fb8	-6.96475e-05
229	0xb8381476	-4.3888074e-05
230	0x3c8a9a43	0.01691926
231	0x3bd9980e	0.006640441
232	0xb8b0686b	-8.411783e-05
233	0x3cd87b1e	0.026425894
234	0x3d21e1af	0.03952187
235	0x3d46b022	0.048507817
236	0x3c783213	0.015148657
237	0x3c470bb2	0.0121487845
238	0xb8744a02	-5.824306e-05
239	0x3c6e0af7	0.014528981
240	0xb32668ef	-3.8745323e-08
241	0xb844ee45	-4.6951947e-05
242	0x35c62c89	1.4765111e-06
243	0x3d121888	0.035667926
244	0x3b8e46a1	0.0043419157
245	0x38a5a50e	7.898557e-05
246	0x3bd7081c	0.006562246
247	0x3cee8893	0.029117858
248	0x3bff09f4	0.007783169
249	0x3ac5cccf	0.0015090945
250	0xb868a51e	-5.5466888e-05
251	0x3aa3b9a8	0.0012491243
252	0xb8a24572	-7.737697e-05
253	0x3bfc3b85	0.007697525
254	0x3c3c41bc	0.011490282
255	0x3c3a206f	0.011360272

fc2_lin.weight f4 [128, 256]
0	0xbb2d4e58	-0.0026444402
1	0xbb22722b	-0.0024787288
2	0x3ca12d33	0.019674873
3	0x3bf41332	0.0074485773
4	0x3a1e3e7d	0.0006036533
5	0x3811ffae	3.4808814e-05
6	0x375865ac	1.2898276e-05
7	0x39041944	0.00012597913
8	0xbc6d4ea6	-0.014484083
9	0xb6ce3bbb	-6.146232e-06
10	0x36e77745	6.8982213e-06
11	0x3c230667	0.009950257
12	0xbc847f0f	-0.016173868
13	0x37b99e16	2.2127333e-05
14	0x381178cf	3.4683206e-05
15	0xb7f14699	-2.8762313e-05
16	0xbb37910e	-0.0028010043
17	0x3c5abe2e	0.013351006
18	0x3731bfd6	1.0594687e-05
19	0x38358c3b	4.3284363e-05
20	0x3743ae6e	1.1663518e-05
21	0x3c7bf641	0.015378536
22	0x3c9b5231	0.01896009
23	0xb522e781	-6.0686585e-07
24	0x3c4a961e	0.012364892
25	0x3cabb30b	0.020959398
26	0x38023a77	3.1048865e-05
27	0xb7332342	-1.06774405e-05
28	0x3c76df80	0.015067935
29	0xba488d14	-0.0007650417
30	0x3bc36518	0.005962979
31	0x3c63b861	0.01389894
32	0x3b9d8018	0.0048065297
33	0xba93df1a	-0.0011281699
34	0xbb162d6c	-0.0022915257
35	0x38321cb8	4.2465254e-05
36	0xbbe82eeb	-0.007085671
37	0xb7e51d64	-2.7312613e-05
38	0x3c30ae31	0.010783718
39	0x3c6b7f2c	0.014373582
40	0x37ca394e	2.4106961e-05
41	0x37ce53b2	2.4596087e-05
42	0xbb53c453	-0.0032313063
43	0xb7935d1a	-1.756712e-05
44	0xbc29a5a7	-0.010354436
45	0x372539ab	9.848193e-06
46	0x3ba8b482	0.0051484713
47	0x3bf54bdc	0.00748585
48	0xbac51fc3	-0.0015039373
49	0x3a8af111	0.0010600408
50	0xb709301d	-8.177039e-06
51	0x3786725e	1.6027301e-05
52	0x3c41f201	0.011837483
53	0x3c6e7d4f	0.014556243
54	0xb7a02421	-1.909031e-05
55	0x3b5d5f81	0.0033778849
56	0x3bfd655b	0.00773303
57	0xbc359c76	-0.0110846665
58	0x3af187bd	0.0018427294
59	0x3bde048e	0.0067754453
60	0xbad6c0ca	-0.001638436
61	0x3b1202db	0.0022279534
62	0xb819079f	-3.648514e-05
63	0x3c679262	0.0141340215
64	0xb32aeb79	-3.979537e-08
65	0xb7dd144e	-2.6354708e-05
66	0xb692d8bb	-4.37637e-06
67	0xbad6451f	-0.0016347504
68	0xbbac91f5	-0.005266423
69	0x38e5796a	0.00010942186
70	0x3ba567c3	0.0050477698
71	0x37c4bc19	2.345261e-05
72	0x3c1fd740	0.009755909
73	0xb811b767	-3.47415e-05
74	0xbc3deae2	-0.011591645
75	0x3c2fb60b	0.010724555
76	0x3ca0946d	0.019602025
77	0x370b2637	8.293943e-06
78	0x3bf222b4	0.007389391
79	0xb7f6f744	-2.9440627e-05
80	0x3a0bf9de	0.00053396623
81	0x3ca33c6f	0.019926278
82	0x3c4f07b1	0.012636111
83	0xb9d67a03	-0.00040908167
84	0xb7f9b287	-2.9766246e-05
85	0x3c935c51	0.017988356
86	0xb5d63566	-1.5959783e-06
87	0xbbd9f0f3	-0.006651038
88	0x36dfe166	6.6721577e-06
89	0xb719d001	-9.16794e-06
90	0xbc27424c	-0.0102086775
91	0x37df23e8	2.6600392e-05
92	0x3c7a055d	0.015260068
93	0xb5132853	-5.4820447e-07
94	0x35662ead	8.57496e-07
95	0xbb859dee	-0.0040776646
96	0x392facfd	0.00016753744
97	0x3ca25bad	0.019819105
98	0xb8118c46	-3.4701334e-05
99	0xb7305c28	-1.0511874e-05
100	0x3b4a9267	0.0030910017
101	0xbb258b26	-0.002525994
102	0xb4a811a5	-3.1305277e-07
103	0x3c88cc52	0.01669899
104	0xba8e72f8	-0.0010868004
105	0xb6c937bb	-5.9967547e-06
106	0x374e7f60	1.2308214e-05
107	0x351740f5	5.634641e-07
108	0x3c935a72	0.017987464
109	0xbba965d5	-0.00516961
110	0xb72ed43f	-1.0420626e-05
111	0x3bb9ab1f	0.005666151
112	0xbc2f2108	-0.010689028
113	0xb819e222	-3.6688645e-05
114	0xba8269ac	-0.0009949706
115	0x37d218a3	2.5045423e-05
116	0xbc44e4b8	-0.012017421
117	0x3c30ba64	0.0107866265
118	0x3adc5b23	0.0016811829
119	0xb80f3572	-3.414363e-05
120	0x3802abda	3.1154465e-05
121	0x3c78a296	0.015175482
122	0x3cad23a7	0.021135164
123	0xb63b7541	-2.7933422e-06
124	0xbb8fd327	-0.004389185
125	0xbbd794a7	-0.006579
126	0x382984d6	4.0416453e-05
127	0xbc066939	-0.008203798
128	0x3c2e81dc	0.010651078
129	0xbbfc072d	-0.007691285
130	0xb6b14c33	-5.283882e-06
131	0x3b5bc879	0.003353624
132	0x3b7a9347	0.0038234757
133	0x374c6d3a	1.2184779e-05
134	0x3c86b3f5	0.016443232
135	0x381bbb21	3.7129157e-05
136	0xb7fd4b72	-3.0195082e-05
137	0xbc44ccb0	-0.012011692
138	0xbbb5f532	-0.005552911
139	0x374cbf24	1.2203851e-05
140	0xbb12fb21	-0.0022427517
141	0xbc5e13b6	-0.013554504
142	0xb795fc8e	-1.7879789e-05
143	0xbbf31b82	-0.0074190507
144	0x3a27ced1	0.00064013625
145	0xbb41841f	-0.0029528213
146	0x3c2afca2	0.010436209
147	0x3c856ffa	0.016288746
148	0x38335d07	4.2763564e-05
149	0xbbea0b9e	-0.007142498
150	0x3c9e1cdc	0.01930087
151	0xb9bddc66	-0.000362131
152	0x3cbca0fe	0.023025986
153	0x3814f1cf	3.551115e-05
154	0xb8408ea5	-4.5909215e-05
155	0x37c859e8	2.3883724e-05
156	0xb8042e21	-3.1514213e-05
157	0x3c56d1be	0.01311153
158	0xb789e64a	-1.643891e-05
159	0xbba532c0	-0.0050414503
160	0x3742c0c9	1.1608187e-05
161	0x38a539d7	7.8785866e-05
162	0xbaa0f423	-0.001227979
163	0x3703de08	7.859904e-06
164	0xb9d58950	-0.00040728832
165	0x3cb742e0	0.022370756
166	0x3c93eafc	0.018056385
167	0x378b4a58	1.660471e-05
168	0x3c54ffa4	0.013000403
169	0xb9d9f99b	-0.00041575436
170	0xba3eeb27	-0.0007282965
171	0xbc24d7be	-0.010061203
172	0xb7d4f2b2	-2.5385383e-05
173	0xb7196983	-9.144077e-06
174	0xbc5b4a52	-0.013384419
175	0xba8168d8	-0.0009873165
176	0x37727437	1.4451382e-05
177	0xbbcaaff4	-0.006185526
178	0xb8163442	-3.5811456e-05
179	0x382d6178	4.133719e-05
180	0xb69c43b2	-4.657043e-06
181	0x37d45441	2.5311603e-05
182	0xb68843af	-4.0609953e-06
183	0xbc4beb27	-0.012446201
184	0x3c71e765	0.014764641
185	0x3c0815e7	0.008306003
186	0x3c472822	0.0121555645
187	0x382a4b19	4.06011e-05
188	0x3c2e7c9c	0.010649826
189	0x37e98dde	2.7841827e-05
190	0xbb6b4c89	-0.0035903773
191	0x3c3b06e7	0.01141522
192	0x3ca4d745	0.02012218
193	0xb82c89c0	-4.1136285e-05
194	0x3c12552e	0.008931441
195	0xb7da6ab4	-2.6037313e-05
196	0x3c588f90	0.013217822
197	0x3c3b75f7	0.011441699
198	0x3c16a52f	0.009194656
199	0xbacfe3de	-0.0015860756
200	0x3c543803	0.012952807
201	0x3c8a65a4	0.01689417
202	0x3c29253c	0.010323819
203	0x364281f3	2.8983893e-06
204	0xbbf0c4a7	-0.0073476615
205	0xb78f8698	-1.7109604e-05
206	0x3c4070f9	0.011745685
207	0xbc35074b	-0.011049102
208	0xb7bf03ee	-2.2770804e-05
209	0x37db7b0c	2.6164133e-05
210	0x3a747c39	0.0009326372
211	0x367da2f7	3.7794796e-06
212	0x3c8c4501	0.017122747
213	0xb738e783	-1.1021158e-05
214	0xbc4cfd75	-0.012511601
215	0x3c9fcdc8	0.019507304
216	0xb8024235	-3.1056075e-05
217	0x37d104b7	2.4916937e-05
218	0x376593ec	1.3683904e-05
219	0xbb0f3ffe	-0.002185821
220	0x3c9b3796	0.018947404
221	0x3c19b6a6	0.009381926
222	0xb795269b	-1.7780161e-05
223	0xb652d1bc	-3.141452e-06
224	0xb72c649c	-1.0275424e-05
225	0xb70ba6d8	-8.323892e-06
226	0xbc5d4701	-0.013505698
227	0xbc3bc0ba	-0.011459524
228	0xb832ff56	-4.2676307e-05
229	0xb7e17f4a	-2.6881364e-05
230	0xbc63e35e	-0.013909189
231	0xbc0d1e06	-0.008613115
232	0xb7318d4f	-1.0582923e-05
233	0x3c75b976	0.014997831
234	0x3caef4fd	0.021357054
235	0x3caa408b	0.02078273
236	0x3bf5c8f9	0.0075007644
237	0xbc4e286c	-0.0125828795
238	0x37caaa46	2.4159566e-05
239	0x3bd37f43	0.0064543798
240	0x38289447	4.0192415e-05
241	0x38193fc5	3.6537433e-05
242	0xb7dd1033	-2.6352796e-05
243	0x3c806535	0.01567326
244	0xbbbbb01d	-0.0057277814
245	0xb80b7973	-3.325329e-05
246	0xbbe063cc	-0.006847834
247	0x3c52cdcd	0.01286645
248	0xbbce1289	-0.0062888307
249	0xba89a7ec	-0.0010502315
250	0x380821c7	3.2456384e-05
251	0xbaaa2182	-0.0012979957
252	0x37a80081	2.0027395e-05
253	0xbc1637f0	-0.00916861
254	0xbc2dbdca	-0.010604331
255	0xbc2c6f2b	-0.010524551

fc2_lin.bias f4 [128]
0	0x3d1327c4	0.035926595
1	0x3c03312c	0.008007329
2	0x3ba4f6d8	0.005034309
3	0x3d271a08	0.04079631
4	0x3cd5d27d	0.026101345
5	0x3b817e9b	0.00395186
6	0xb82f2aef	-4.1763236e-05
7	0x3b99c29b	0.004692388
8	0x3ccd99f8	0.025097832
9	0x3d03a438	0.032139033
10	0x3b7ba96b	0.0038400542
11	0x3cb29fc2	0.021804694
12	0x3c9cb962	0.019131366
13	0x3cab435f	0.020906148
14	0x3cf61add	0.030042106
15	0x3d2479c7	0.0401552
16	0x3cf8eed9	0.030387329
17	0x3d1c6448	0.038181573
18	0x3d75cb06	0.06000807
19	0x3b84e005	0.0040550255
20	0xb8238cb1	-3.8993257e-05
21	0x3c4b36a3	0.012403163
22	0x3d1151fd	0.03547858
23	0x3c94f391	0.018182548
24	0x3c07a430	0.008278891
25	0x3c84502c	0.01615151
26	0x3d680ed3	0.056654762
27	0x3a983f9f	0.001161564
28	0x3d30d049	0.043167386
29	0xb76c3f8f	-1.4081495e-05
30	0x3b195a11	0.002339963
31	0xb763ba15	-1.357358e-05
32	0x3d2361e8	0.039888293
33	0xb7d2731a	-2.508755e-05
34	0x3d088376	0.033328496
35	0x3cfb2287	0.030656112
36	0x3cd3e37f	0.025865315
37	0xb762d104	-1.3519315e-05
38	0x3cf8fe00	0.030394554
39	0x3cc50adf	0.024053035
40	0x3d10ef86	0.035384677
41	0x3c92b9a5	0.017910788
42	0xb7e47986	-2.7236307e-05
43	0x3d184a75	0.037180383
44	0x3d03ac1a	0.03214655
45	0xb77f1ec5	-1.52063485e-05
46	0xb8325957	-4.252171e-05
47	0x3c76e78f	0.015069856
48	0xb710e2ed	-8.635904e-06
49	0xb73cad25	-1.1245987e-05
50	0xb71ba2a8	-9.276591e-06
51	0x3d02d44f	0.031940755
52	0x3d2cb8c7	0.042168405
53	0xb7d51083	-2.5399268e-05
54	0x3c7976ed	0.015226108
55	0x3d1b56a9	0.037924442
56	0x3d0b8e56	0.03407129
57	0xb6dbee39	-6.5544414e-06
58	0x3cd1948b	0.025583526
59	0xb8206cad	-3.8248185e-05
60	0x3cba67ee	0.022754636
61	0x3d11d538	0.035603732
62	0xb826c597	-3.9761504e-05
63	0x3d16ff48	0.03686455
64	0x3cfb5bad	0.030683363
65	0x3cbb9a22	0.022900645
66	0x3cda1cd9	0.026625084
67	0xb808924f	-3.2561187e-05
68	0x3cba90c2	0.022774104
69	0xb82c1fa6	-4.103747e-05
70	0x3ca153b6	0.019693237
71	0x3c094e00	0.008380413
72	0x3d15dac3	0.03658558
73	0xb76093ac	-1.3385823e-05
74	0x3d204a0a	0.03913311
75	0xb822130d	-3.8641552e-05
76	0x3b496009	0.0030727407
77	0xb8141b0a	-3.531113e-05
78	0xb82d99b4	-4.138956e-05
79	0x3cbbe32d	0.022935474
80	0x3bfcc549	0.007713948
81	0x3ccb083c	0.0247842
82	0x3c9e4225	0.01931865
83	0x3d231985	0.03981926
84	0x3cd2337d	0.025659317
85	0x3cc3367a	0.023829687
86	0x3bc2fd92	0.005950638
87	0x3cf5441c	0.029939704
88	0xb7d887d9	-2.5812466e-05
89	0x3cd8c7ce	0.026462462
90	0x3d450a04	0.048105255
91	0xb824abc0	-3.92606e-05
92	0xb81adef6	-3.692411e-05
93	0xb7204f93	-9.5552705e-06
94	0xb73fa918	-1.1423857e-05
95	0xb78cef31	-1.6800683e-05
96	0x3d124ebe	0.035719626
97	0x3a201c71	0.0006107754
98	0xb6ec35f0	-7.0396272e-06
99	0x3c3f6577	0.011681906
100	0x3ccd7e43	0.02508462
101	0xb7e78126	-2.7597485e-05
102	0xb8057b7c	-3.1824675e-05
103	0xb82e7f28	-4.1603256e-05
104	0x3d1313e7	0.035907652
105	0xb758e1b7	-1.2927157e-05
106	0x3c8f39b9	0.017483579
107	0x3cc3cfd7	0.023902817
108	0xb769ee83	-1.3943415e-05
109	0xb8190152	-3.6479272e-05
110	0x3cbbeaaf	0.022939054
111	0x3d4175a7	0.047231343
112	0x3d3a7988	0.045526057
113	0x3d1fefa9	0.039046917
114	0x39389e5d	0.00017606602
115	0x3d0609b1	0.032724086
116	0x3cdbcef7	0.026832087
117	0x39d26afc	0.0004013403
118	0xb8285135	-4.012995e-05
119	0xb80e6f73	-3.3959233e-05
120	0x3d1422ce	0.036166005
121	0xb84b5c39	-4.848486e-05
122	0xb7e7e6a2	-2.7644743e-05
123	0x3d0cd8ab	0.03438632
124	0x3cdfd373	0.027322507
125	0xb78ccefb	-1.6785683e-05
126	0x3cfd186c	0.030895434
127	0x3caea60a	0.021319408

fc3_lin.weight f4 [64, 128]
0	0x3cce9927	0.025219513
1	0x3ba507e9	0.0050363434
2	0xbb13afac	-0.0022535129
3	0x3cab0461	0.020876111
4	0xbc3a625a	-0.011375988
5	0x3b18f27a	0.0023337887
6	0xb837cfe1	-4.3824202e-05
7	0xbb20d942	-0.0024543558
8	0xbc0f8aab	-0.008761088
9	0x3cb10fd5	0.021613995
10	0xbaf0c500	-0.0018369257
11	0xbbe1b4e8	-0.006888021
12	0x3c3e4d43	0.0116151
13	0x3c978424	0.018495627
14	0x3cbd4a4d	0.023106718
15	0x3cc9c83a	0.024631608
16	0x3cadb45d	0.021204168
17	0x3cce4a2f	0.025181858
18	0xbcb4c728	-0.022067621
19	0xbae73e36	-0.0017642442
20	0xb8739f78	-5.808423e-05
21	0xbbc0dad6	-0.0058854623
22	0x3cc34e41	0.023841025
23	0x3c906f4c	0.017631195
24	0x3be40c83	0.0069594993
25	0xbbf2f7ac	-0.0074147787
26	0x3cd6b6b1	0.02621016
27	0xba22da12	-0.00062123046
28	0x3ceccf18	0.028907344
29	0xb7920086	-1.74048e-05
30	0xba6e07e3	-0.00090801547
31	0x37476ee6	1.1887145e-05
32	0xbc79a6dc	-0.015237536
33	0x379df74d	1.8831017e-05
34	0xbc579cf3	-0.013159978
35	0x3caad1d9	0.020852016
36	0xbc1627a0	-0.009164721
37	0xb85582f4	-5.0905117e-05
38	0x3ca9ee6e	0.020743575
39	0xbc0d3912	-0.008619564
40	0x3cb7e0c5	0.022446046
41	0xbbf3884a	-0.0074320184
42	0xb8513098	-4.987474e-05
43	0x3cd88241	0.026429297
44	0x3cdefdbf	0.027220605
45	0x382a88c3	4.0658528e-05
46	0x38800900	6.105192e-05
47	0xbbfb01a9	-0.00766011
48	0xb74ad1f9	-1.2089026e-05
49	0xb85b49f7	-5.2282554e-05
50	0x36225c17	2.4193484e-06
51	0x3cbe57f7	0.023235304
52	0x3cd9bedf	0.026580272
53	0xb8675385	-5.5152475e-05
54	0x3c98fe2d	0.018675888
55	0x3cffd702	0.031230453
56	0x3c8ed444	0.0174352
57	0x3743f4c8	1.1679898e-05
58	0x3ca6d669	0.02036591
59	0xb7a933c6	-2.0170479e-05
60	0x3c55494c	0.013017964
61	0xbc93969e	-0.018016156
62	0x37b37826	2.1394411e-05
63	0x3cd7f683	0.026362663
64	0xbc42a58f	-0.011880293
65	0x3cc33d79	0.023833023
66	0x3cac434b	0.021028182
67	0x3816dc27	3.596782e-05
68	0x3ca300c4	0.019897826
69	0xb6ae7866	-5.1996203e-06
70	0xbc391228	-0.011295833
71	0x3b7c1223	0.0038462959
72	0x3cf3b3db	0.029748848
73	0x379d6c1c	1.87662e-05
74	0x3cae650d	0.02128842
75	0x384a5b99	4.824586e-05
76	0xbac934fa	-0.0015350871
77	0x37cc5d14	2.4362038e-05
78	0xb848048f	-4.768796e-05
79	0x3ccc7b83	0.024961239
80	0xbb617751	-0.0034403394
81	0x3cb265a9	0.021776991
82	0x3c854610	0.01626876
83	0xbc85fb9a	-0.016355325
84	0xbc37f0d4	-0.0112268515
85	0x3c7e3c03	0.015517238
86	0xbb257759	-0.0025248139
87	0xbc63238f	-0.013863458
88	0x3878b04b	5.9291993e-05
89	0xbc576b17	-0.013148091
90	0x3cd24268	0.02566643
91	0xb60af01c	-2.0703364e-06
92	0x37c1d205	2.310519e-05
93	0x3807b620	3.2356125e-05
94	0xb835f1a1	-4.3378797e-05
95	0xb81413be	-3.5304336e-05
96	0xbc6d96eb	-0.014501314
97	0x39ce8abd	0.0003939475
98	0xb7268df6	-9.927424e-06
99	0x3c00932c	0.0078475885
100	0x3cc2afbc	0.023765437
101	0x3861be2e	5.38213e-05
102	0xb8189d85	-3.6386326e-05
103	0xb7b360a7	-2.138347e-05
104	0x3cac8434	0.021059133
105	0xb741a71e	-1.1542606e-05
106	0x3ca9e280	0.020737886
107	0xbc15f50f	-0.009152665
108	0xb877c90d	-5.9076632e-05
109	0x3781ac63	1.5458272e-05
110	0x3cec1e2e	0.028822985
111	0xbc976485	-0.018480549
112	0x3cf597fa	0.029979695
113	0x3cef1d0d	0.029188657
114	0x392749a8	0.000159538
115	0x3cb798ce	0.02241173
116	0x3ca0814f	0.01959291
117	0xb93333a6	-0.00017090011
118	0x363c7921	2.808469e-06
119	0xb82782f5	-3.9937866e-05
120	0xbc5542b9	-0.013016396
121	0xb73ee453	-1.1378043e-05
122	0xb8048aa6	-3.160038e-05
123	0x3cc9ba2f	0.024624912
124	0x3cc7c174	0.024384238
125	0x3839e678	4.4322078e-05
126	0x3d024e7e	0.031813137
127	0xbc0e473e	-0.008683978
128	0xb6b6eb09	-5.4513844e-06
129	0xb66385e1	-3.3903564e-06
130	0xb5cdf573	-1.5345125e-06
131	0xb82ca3c7	-4.1160525e-05
132	0x387db0b3	6.0484464e-05
133	0xb86a0703	-5.5796478e-05
134	0xb7ea99a7	-2.7966524e-05
135	0x38719f7d	5.7607413e-05
136	0xb86f1e4d	-5.701026e-05
137	0x385c3bbe	5.2507727e-05
138	0xb7ed008b	-2.8252854e-05
139	0x37ba37bc	2.2198881e-05
140	0x3834eedf	4.313781e-05
141	0x381a3f50	3.6775426e-05
142	0xb8657955	-5.4710854e-05
143	0xb6799170	-3.7188547e-06
144	0xb80919bc	-3.2687312e-05
145	0xb823525e	-3.893894e-05
146	0xb83c4e9b	-4.48959e-05
147	0x37cc735c	2.4372413e-05
148	0xb6fcccb6	-7.5340167e-06
149	0xb85a2886	-5.201299e-05
150	0xb871d0f7	-5.765349e-05
151	0x382d7142	4.1351894e-05
152	0xb7d9d1cc	-2.596611e-05
153	0x3863ae54	5.4283373e-05
154	0x382db57d	4.141544e-05
155	0xb8170e77	-3.6014677e-05
156	0xb8842752	-6.3015745e-05
157	0xb79485cd	-1.770528e-05
158	0xb7a2b335	-1.9395355e-05
159	0x35e1be36	1.6819165e-06
160	0xb76c4d67	-1.4084718e-05
161	0x37993d2f	1.8267512e-05
162	0xb7e69a1c	-2.74899e-05
163	0x38502946	4.9629503e-05
164	0x37c6f12e	2.3715747e-05
165	0xb79c6fdc	-1.8648738e-05
166	0x38341e16	4.2943364e-05
167	0x386778d3	5.5187218e-05
168	0x37e78c00	2.7602538e-05
169	0xb72df11a	-1.0367739e-05
170	0x3838129c	4.388635e-05
171	0x3837d324	4.382724e-05
172	0xb6b70a24	-5.4550055e-06
173	0xb8108fc0	-3.4466153e-05
174	0x38466e15	4.73094e-05
175	0x37d84e60	2.5785703e-05
176	0xb756a133	-1.2792926e-05
177	0xb85fab08	-5.332663e-05
178	0xb743246a	-1.1631384e-05
179	0x36caf71e	6.0488373e-06
180	0xb7be8edb	-2.2716287e-05
181	0xb857d3cc	-5.1457246e-05
182	0xb7b03359	-2.1004746e-05
183	0x38045fc9	3.156046e-05
184	0xb860e6a3	-5.362056e-05
185	0xb7b7fb9a	-2.1932461e-05
186	0xb758ca9e	-1.2921779e-05
187	0xb839363d	-4.415795e-05
188	0x3756db0e	1.2806397e-05
189	0xb86d511e	-5.658075e-05
190	0x3775de30	1.465487e-05
191	0x3839c700	4.429277e-05
192	0x37d9d050	2.5965419e-05
193	0x38194078	3.6538084e-05
194	0xb8345b02	-4.3000102e-05
195	0x38623965	5.393605e-05
196	0xb82a4246	-4.059288e-05
197	0x35bd23e2	1.4092041e-06
198	0xb737c990	-1.095458e-05
199	0xb6adadaf	-5.176021e-06
200	0x3752d728	1.256707e-05
201	0xb84a5ded	-4.8248028e-05
202	0xb77360b1	-1.4506441e-05
203	0xb86a32f1	-5.583739e-05
204	0xb82acca3	-4.072174e-05
205	0xb838ab78	-4.402871e-05
206	0x386b6bdf	5.612883e-05
207	0x3770de95	1.4356939e-05
208	0x38487075	4.778845e-05
209	0xb87e84c4	-6.0681967e-05
210	0x36d4f571	6.3466655e-06
211	0x38360bf6	4.340332e-05
212	0xb84bb39c	-4.8566246e-05
213	0xb85a4ba7	-5.2045707e-05
214	0x37893791	1.6357548e-05
215	0x367471a0	3.6424972e-06
216	0x379ea62b	1.8912446e-05
217	0xb858842e	-5.1621515e-05
218	0x351beb39	5.8084294e-07
219	0xb7861383	-1.598313e-05
220	0x38405091	4.58514e-05
221	0xb78cfba5	-1.6806482e-05
222	0xb84c6423	-4.873065e-05
223	0x384a42c0	4.822272e-05
224	0xb8463ffb	-4.7266465e-05
225	0x37e23338	2.696515e-05
226	0x3802ff82	3.1232375e-05
227	0xb80b0325	-3.314311e-05
228	0x3606b33a	2.007188e-06
229	0xb806856f	-3.207236e-05
230	0x37e3cd36	2.7156068e-05
231	0xb8040767	-3.1478146e-05
232	0xb668b4b6	-3.4675882e-06
233	0x384a381f	4.821282e-05
234	0x3738a226	1.1005008e-05
235	0x385f76a2	5.327783e-05
236	0xb805372e	-3.176106e-05
237	0x36e4ddce	6.820751e-06
238	0xb7f1854d	-2.8791512e-05
239	0xb8641cf2	-5.4386393e-05
240	0xb70c297b	-8.354308e-06
241	0xb80b6a1c	-3.3239005e-05
242	0xb66dab5e	-3.54155e-06
243	0xb6b6282d	-5.4286998e-06
244	0xb87eede2	-6.0779865e-05
245	0xb80e80b5	-3.3975306e-05
246	0xb86beff9	-5.6251858e-05
247	0xb8667231	-5.4942622e-05
248	0xb7f60c56	-2.933123e-05
249	0x384ccec2	4.882995e-05
250	0x37fefeb0	3.0397758e-05
251	0x37365b5b	1.0869316e-05
252	0x384cd7ac	4.883825e-05
253	0x3815e0d8	3.573377e-05
254	0x37d2833a	2.5095058e-05
255	0x3837a965	4.378836e-05

fc3_lin.bias f4 [64]
0	0x3c8bcade	0.017064508
1	0xb859b4e1	-5.190529e-05
2	0xb8400c26	-4.578768e-05
3	0x3c8a298f	0.01686552
4	0xb83f1f28	-4.5566965e-05
5	0x3ad93f20	0.0016574599
6	0x3d22802c	0.039673015
7	0x39a1fac4	0.00030895148
8	0x3cd3969d	0.025828654
9	0x3cf4c146	0.029877316
10	0xb847db8e	-4.7649773e-05
11	0x3d143900	0.036187172
12	0x3667549d	3.4470934e-06
13	0xb83335a6	-4.272689e-05
14	0x3c6e271a	0.01453569
15	0x3cbfd5b0	0.023417324
16	0xb886f3c0	-6.43502e-05
17	0xb8808fc9	-6.130298e-05
18	0x3c7288d7	0.014803133
19	0x3ca266f5	0.019824484
20	0x3c99ff1d	0.018798405
21	0x3c2bbd4c	0.010482144
22	0x3c94b60e	0.018153217
23	0x3d187691	0.03722245
24	0xb82461c0	-3.9191684e-05
25	0x3c97b391	0.018518241
26	0x3a099cb2	0.00052494847
27	0x3d16d983	0.03682853
28	0x3ba1dfa0	0.0049399883
29	0x38900f6b	6.869327e-05
30	0x3d2c3cb8	0.042050093
31	0x3d05e52c	0.03268926
32	0xb84c5b74	-4.8722562e-05
33	0x3c959e0e	0.018263843
34	0x3ce27e06	0.027647983
35	0x3cfc21db	0.030777862
36	0x3c8b8c21	0.017034592
37	0x3cd153cc	0.025552653
38	0x3d11de50	0.035612404
39	0x3d09fad7	0.033686485
40	0x3c91d452	0.017801438
41	0xb8dff447	-0.00010678969
42	0x3cd36232	0.02580366
43	0xb899f8d6	-7.341958e-05
44	0x3cda9f63	0.02668733
45	0xb86c0fa4	-5.628135e-05
46	0xb8574220	-5.132158e-05
47	0xb72b1ac8	-1.019863e-05
48	0x3d14c063	0.036316287
49	0x3d037b64	0.032100096
50	0x3c873c7e	0.016508337
51	0xb882cc67	-6.236956e-05
52	0x3cb6878f	0.022281436
53	0xb810aab9	-3.4491273e-05
54	0x3a529d16	0.0008034272
55	0xb89008e0	-6.868108e-05
56	0xb857bdc0	-5.1436713e-05
57	0x3b7ffd1b	0.0039060775
58	0x3cafa071	0.02143881
59	0xb895a343	-7.1352835e-05
60	0xb85b098b	-5.2222556e-05
61	0x3d9a0b14	0.07521644
62	0x3c37b81e	0.011213331
63	0x3d265d88	0.040616542

fc4.weight f4 [2, 64]
0	0x3df0751d	0.117410876
1	0xb88f4c9d	-6.833042e-05
2	0x386b0485	5.6032575e-05
3	0x3dc796b3	0.097455405
4	0xb7bb3fc3	-2.2321829e-05
5	0x3b54c531	0.0032466168
6	0x3dfd4e62	0.12368466
7	0x39ec9571	0.0004512477
8	0x3dfd0585	0.123545684
9	0x3df93cbc	0.12169787
10	0xb784eb7f	-1.5845288e-05
11	0x3e05fe5d	0.13085313
12	0xb8049c2b	-3.1616695e-05
13	0xb84969b7	-4.802059e-05
14	0x3df3314b	0.11874636
15	0x3dd5f5b4	0.10447255
16	0xb8882f79	-6.493828e-05
17	0xb8006502	-3.061165e-05
18	0x3dc7caf0	0.09755504
19	0x3cfd682d	0.030933464
20	0x3dccb80a	0.0999604
21	0x3dcd3c91	0.10021318
22	0x3ccff41e	0.025384959
23	0x3deb4691	0.11488069
24	0x387ab739	5.9775284e-05
25	0x3ddb96ee	0.10722147
26	0x3a4550f0	0.0007527014
27	0x3e063781	0.1310711
28	0x3bf9568d	0.0076091946
29	0x38ebf770	0.00011251762
30	0x3e0dee7b	0.13860504
31	0x3e0b3320	0.13593721
32	0xb882ceb5	-6.237385e-05
33	0x3ddd2812	0.107986584
34	0x3df04aca	0.11733015
35	0x3df01d71	0.117243655
36	0x3dd8f201	0.105930336
37	0x3e06d4dc	0.13167137
38	0x3dffbdbd	0.124873616
39	0x3de90103	0.11377146
40	0x3ccdc1f9	0.025116907
41	0xb815f03d	-3.5748108e-05
42	0x3def253b	0.11677023
43	0xb6613acb	-3.3561835e-06
44	0x3dfcc24a	0.12341745
45	0xb84bab2e	-4.8558395e-05
46	0xb7852738	-1.5873098e-05
47	0x37a7e549	2.001472e-05
48	0x3e0279fb	0.12741844
49	0x3df8237b	0.12116142
50	0x3de1c5be	0.110240445
51	0x37275f29	9.976132e-06
52	0x3deb9c2e	0.11504398
53	0xb7d4a3ac	-2.5348585e-05
54	0x3ab08e41	0.0013470129
55	0xb825f9e6	-3.95718e-05
56	0xb7d47ddb	-2.5330975e-05
57	0xbba94cdd	-0.0051666335
58	0x3de99242	0.114048496
59	0xb8585d89	-5.1585524e-05
60	0x382c9084	4.1142586e-05
61	0x3e147e3f	0.14501284
62	0x3e030bd1	0.12797476
63	0x3e068377	0.13136087
64	0xbdf063de	-0.11737798
65	0x378e890f	1.6991542e-05
66	0x382b4a20	4.083861e-05
67	0xbdc78dc9	-0.0974384
68	0xb81653b5	-3.5840745e-05
69	0xbb5dc558	-0.003383955
70	0xbdfd28c4	-0.12361291
71	0xb9d442b1	-0.0004048548
72	0xbdfd15a1	-0.12357641
73	0xbdf92020	-0.121643305
74	0x37655c6e	1.3670984e-05
75	0xbe060028	-0.13085997
76	0x37c71e41	2.3736737e-05
77	0x3751e1f6	1.2509981e-05
78	0xbdf33570	-0.11875427
79	0xbdd5d1c1	-0.10440398
80	0xb7c6aaa2	-2.3682896e-05
81	0x3873eae5	5.8154477e-05
82	0xbdc7c8f3	-0.09755125
83	0xbcfe6d4e	-0.03105798
84	0xbdccc64c	-0.099987596
85	0xbdcd5858	-0.10026616
86	0xbcd06545	-0.025438914
87	0xbdeb1efc	-0.11480519
88	0x384b9504	4.8537753e-05
89	0xbddbb195	-0.107272305
90	0xba43ff45	-0.0007476698
91	0xbe064e70	-0.13115859
92	0xbbfb049d	-0.007660462
93	0xb89b8d43	-7.417288e-05
94	0xbe0df5b4	-0.1386326
95	0xbe0b3385	-0.13593872
96	0x37d0cc5a	2.489069e-05
97	0xbddd4bd2	-0.10805477
98	0xbdf04ec7	-0.117337756
99	0xbdf04481	-0.11731816
100	0xbdd913a4	-0.10599449
101	0xbe06df22	-0.13171056
102	0xbdffc132	-0.12488021
103	0xbde90070	-0.113770366
104	0xbccc6ba0	-0.024953663
105	0x382d34eb	4.1295698e-05
106	0xbdeef925	-0.11668614
107	0x38003ee4	3.057615e-05
108	0xbdfcc7e3	-0.12342813
109	0x3819e116	3.668767e-05
110	0x389ced61	7.482875e-05
111	0x38230dd3	3.8875103e-05
112	0xbe028bdb	-0.12748663
113	0xbdf847ee	-0.121230945
114	0xbde18714	-0.11012092
115	0x38696908	5.5649347e-05
116	0xbdeb6ea6	-0.11495714
117	0xb8294715	-4.035894e-05
118	0xbaa9a4cd	-0.0012942791
119	0x3885fea3	6.389364e-05
120	0x387d392f	6.0373157e-05
121	0x3ba9daa1	0.0051835333
122	0xbde94fd5	-0.1139218
123	0xb835ee9e	-4.3375992e-05
124	0x389125e5	6.921197e-05
125	0xbe1454bb	-0.14485447
126	0xbe031b27	-0.12803327
127	0xbe067a20	-0.13132524

fc4.bias f4 [2]
0	0x3efd1dbb	0.49436745
1	0xbefd147b	-0.49429688
