MWNet/checkpoints/MWN_TRY1_FOCAL_LOSS_BIG_DATA/model_epoch_190.pt (torch, 234127 bytes, 8 tensors)

fc1_lin.weight f4 [256, 64]
0	0x36bb59e0	5.583497e-06
1	0x39365e28	0.00017391948
2	0xb92e0d62	-0.00016598919
3	0x3a070e32	0.00051519566
4	0xb881bafc	-6.186028e-05
5	0xba649b9e	-0.00087206985
6	0xb941a731	-0.00018468198
7	0xbbd8d890	-0.006617613
8	0x3634472a	2.6863513e-06
9	0xba32f318	-0.0006826385
10	0xbba0234c	-0.00488702
11	0x3ac72968	0.0015194835
12	0x3b4271cb	0.0029669877
13	0x3943c3c6	0.0001866958
14	0xb7fb0f6f	-2.9928719e-05
15	0xb8624d13	-5.395438e-05
16	0x3ab7fa66	0.0014036417
17	0xb864d334	-5.4556134e-05
18	0x3882f12c	6.243805e-05
19	0x3bb53cc7	0.005530927
20	0x369192ff	4.3384493e-06
21	0x399f94de	0.00030437758
22	0xba20c86f	-0.00061333826
23	0x37ac20ff	2.0519363e-05
24	0xb7ab8ccd	-2.0450354e-05
25	0xb820d696	-3.834682e-05
26	0x391a39d7	0.00014708131
27	0x3bf27ba1	0.0073999916
28	0xb86e2b16	-5.678375e-05
29	0x38f14814	0.00011505201
30	0xb83184e5	-4.2323856e-05
31	0xb8954e39	-7.119444e-05
32	0xb92ba1d0	-0.0001636811
33	0x3ab66756	0.0013916295
34	0xb852cafd	-5.025695e-05
35	0xbae559f0	-0.0017498117
36	0x3813456d	3.511219e-05
37	0x38ebc013	0.0001124145
38	0xb841e41a	-4.6227222e-05
39	0xbacfe566	-0.0015861213
40	0xb9b0df6f	-0.00033735807
41	0x3ac0a477	0.0014697452
42	0xb702b650	-7.791052e-06
43	0x377d0d77	1.508311e-05
44	0x3724d70d	9.825232e-06
45	0xbb3de5a5	-0.002897599
46	0xb79b1a61	-1.8489724e-05
47	0xba9a834d	-0.0011788398
48	0x3c15be57	0.009139619
49	0x3b481710	0.0030531324
50	0x37c63933	2.3630075e-05
51	0xbbf48f3a	-0.007463363
52	0x3c0c357c	0.008557674
53	0xb78a7efb	-1.6510012e-05
54	0xb8b48ae6	-8.608941e-05
55	0x3737301b	1.091885e-05
56	0x36cd1c54	6.112774e-06
57	0xbab85172	-0.0014062359
58	0xb87278fa	-5.7809964e-05
59	0xba1e8cfc	-0.000604823
60	0x3c14e984	0.009088878
61	0x37926a20	1.7453975e-05
62	0x3a30e424	0.0006747863
63	0xb715190e	-8.886926e-06
64	0x383b5b35	4.4669217e-05
65	0x3893410f	7.021624e-05
66	0xb918d165	-0.00014573855
67	0x3a0004e1	0.00048835395
68	0xb7cb7410	-2.4253532e-05
69	0xba68d081	-0.0008881167
70	0xb970612f	-0.00022924387
71	0xbbc29f8a	-0.0059394287
72	0xb832a920	-4.2596017e-05
73	0xba0c5d55	-0.0005354484
74	0xbb8cec9a	-0.004300666
75	0x3aa7dec4	0.0012807478
76	0x3b29cd2e	0.002590965
77	0x390994f2	0.00013120825
78	0x388cb715	6.709822e-05
79	0x3574f702	9.1256527e-07
80	0x3a9af437	0.0011822049
81	0x37e92f8e	2.7797909e-05
82	0x364ac603	3.0215604e-06
83	0x3b9e3737	0.0048283595
84	0xb80b8a4c	-3.326898e-05
85	0x398870fb	0.00026024118
86	0xb9d2439a	-0.00040104688
87	0xb825cee9	-3.9531766e-05
88	0x33403d32	4.475914e-08
89	0xb766a36b	-1.3747117e-05
90	0x392b305c	0.00016325846
91	0x3bdfd880	0.0068312287
92	0xb859b8d4	-5.1908966e-05
93	0x3747d5dd	1.1911118e-05
94	0xb87dec3e	-6.053992e-05
95	0xb87ea421	-6.0711176e-05
96	0xb94cf965	-0.00019547863
97	0x3a9aed8b	0.0011820061
98	0xb74a0b6d	-1.20427985e-05
99	0xbacb56a4	-0.0015513492
100	0x38891446	6.536445e-05
101	0x38f7c98a	0.000118154174
102	0xb70a137d	-8.229978e-06
103	0xbaac32c5	-0.0013137689
104	0xb98da7b5	-0.00027018567
105	0x3ab658ed	0.0013912
106	0x3841f567	4.6243335e-05
107	0x3896fe55	7.1999304e-05
108	0x384c8256	4.8758775e-05
109	0xbb2803fe	-0.0025637145
110	0x381b836c	3.7077276e-05
111	0xba8339ae	-0.0010011697
112	0x3c0a4ae4	0.008440707
113	0x3b2d2769	0.0026421195
114	0xb896669b	-7.171669e-05
115	0xbbd176f7	-0.0063923555
116	0x3bf8b00f	0.007589347
117	0x38363399	4.3440235e-05
118	0xb8dc271f	-0.00010497704
119	0xb6046ff4	-1.9734698e-06
120	0xb895fa85	-7.1515366e-05
121	0xba902a7e	-0.0010998992
122	0x38837e1f	6.270059e-05
123	0xba1842d6	-0.0005808299
124	0x3c00e5b4	0.0078672655
125	0x38d267b2	0.00010032895
126	0x3a127763	0.0005587248
127	0x34a04a20	2.9856255e-07
128	0x37fe7b9e	3.0336723e-05
129	0xb9e5ddfa	-0.0004384367
130	0x3a2d467a	0.0006609928
131	0xba68c4d3	-0.0008879427
132	0xb81e64fe	-3.776419e-05
133	0xbcba2b55	-0.02272574
134	0x3b9d4790	0.0047997907
135	0x3d85b599	0.06528778
136	0x3804ea84	3.1689662e-05
137	0x3b25eaf2	0.002531704
138	0x3ca94eb4	0.020667411
139	0xbbacbb83	-0.0052713766
140	0xbc6112be	-0.013737379
141	0xba069e43	-0.0005135277
142	0x37b0882d	2.1044247e-05
143	0x37c02432	2.2905038e-05
144	0xbb74dd3c	-0.0037363311
145	0x373cd2f5	1.12547905e-05
146	0x38468b20	4.733645e-05
147	0xbcb8a088	-0.022537485
148	0xb8670757	-5.5081528e-05
149	0xba93d3af	-0.0011278297
150	0x3b01999e	0.00197754
151	0xb8dcbc74	-0.000105255196
152	0x37ee5a23	2.8413784e-05
153	0x380df4cd	3.3845008e-05
154	0xba4e3f7a	-0.0007867735
155	0xbb1fb255	-0.0024367769
156	0x372f7d2b	1.0459956e-05
157	0xb9600e35	-0.00021367597
158	0x36ecff63	7.063079e-06
159	0x39bbfcc3	0.00035855742
160	0xbadf2254	-0.001702378
161	0xbbc6ce87	-0.0060671004
162	0x384781e8	4.7566282e-05
163	0x3c11f40a	0.008908281
164	0xb7977ae4	-1.8057828e-05
165	0xbaefef26	-0.0018305525
166	0xb7b4e4ee	-2.1564276e-05
167	0x3bb74617	0.005593072
168	0x3b877838	0.0041342042
169	0xbbad1e47	-0.0052831504
170	0x38abe0f0	8.195813e-05
171	0x3897a67a	7.23125e-05
172	0xb7e0cd40	-2.6798458e-05
173	0x3c1b4c95	0.009478708
174	0x3777739c	1.4749265e-05
175	0x3ba9a799	0.00517745
176	0xbdabfeb0	-0.08398187
177	0xbc3fefb8	-0.011714868
178	0xb8ce60d6	-9.8408826e-05
179	0x3d027034	0.031845286
180	0xbd007601	-0.031362537
181	0x3774a214	1.458127e-05
182	0x390580a1	0.00012731786
183	0xb68f6643	-4.273637e-06
184	0xb7bb5983	-2.233382e-05
185	0x3c8317d1	0.016002567
186	0x36e5f903	6.8537206e-06
187	0x3b0e00d4	0.0021667974
188	0xbd19bb36	-0.037532054
189	0xb926fb0b	-0.00015924514
190	0xb9e53228	-0.00043715653
191	0xb8877092	-6.4582695e-05
192	0x37c00700	2.2891443e-05
193	0xb956715d	-0.00020450861
194	0x39742e8d	0.00023286995
195	0xb9fe5d45	-0.00048516146
196	0xb8bd1093	-9.0153095e-05
197	0xbc0fb560	-0.0087712705
198	0x3af2700c	0.0018496527
199	0x3cc83c41	0.024442794
200	0xb877c030	-5.9068378e-05
201	0x3a7cdc74	0.0009645887
202	0x3c00328e	0.007824553
203	0xbb017d11	-0.0019758383
204	0xbb99d7e7	-0.004694927
205	0xb94d1ba0	-0.00019560615
206	0x36a67ab2	4.961469e-06
207	0xb681ab8e	-3.864471e-06
208	0xbaac532d	-0.0013147347
209	0xb5c84019	-1.4919816e-06
210	0xb731d7db	-1.060028e-05
211	0xbc0accfd	-0.008471725
212	0x37a1a3a5	1.9268899e-05
213	0xb9fffe14	-0.00048826693
214	0x3a2239a6	0.00061884
215	0xb7c9d829	-2.4061725e-05
216	0x34c2aad1	3.62596e-07
217	0x38161ebb	3.5791407e-05
218	0xb955f674	-0.00020405074
219	0x3a2bbf6e	0.00065516576
220	0x38523f5b	5.0126906e-05
221	0xb82afaa9	-4.0764604e-05
222	0x37e5888b	2.736251e-05
223	0x38c769b7	9.5087504e-05
224	0xba482671	-0.0007635123
225	0xbb180591	-0.0023196677
226	0xb6f1409e	-7.189882e-06
227	0x3b62859c	0.00345645
228	0x3779ecc6	1.4896685e-05
229	0xba477ea9	-0.00076101214
230	0x3888c501	6.52168e-05
231	0x3b0cbee2	0.002147608
232	0x3ad9d0e5	0.0016618042
233	0xbb033a89	-0.0020023903
234	0xb7a43878	-1.9576619e-05
235	0xb81dfd70	-3.766775e-05
236	0x3654b297	3.1694415e-06
237	0x3b738ce8	0.0037162844
238	0xb52624da	-6.1893445e-07
239	0x3b07dcd3	0.0020730987
240	0xbd070200	-0.03296089
241	0xbb8d3360	-0.004309103
242	0xb7f35ba1	-2.9010525e-05
243	0x3c48aae0	0.012247771
244	0xbc3cae8f	-0.011516227
245	0xb806698e	-3.2046395e-05
246	0x38bb0a6c	8.918796e-05
247	0x37908408	1.722762e-05
248	0x37f1d0df	2.8826702e-05
249	0x3beea80e	0.0072832173
250	0x3785857f	1.5917e-05
251	0x3a571dfd	0.0008206068
252	0xbc65c6e3	-0.014024469
253	0xb8a436b4	-7.830319e-05
254	0xb97ed009	-0.00024300827
255	0xb7dd8035	-2.6404954e-05

fc1_lin.bias f4 [256]
0	0x3b455381	0.0030109587
1	0x3b3a445c	0.0028422093
2	0x3d2f6ccb	0.042828362
3	0x3c8f2dfa	0.017477978
4	0x3ab9eb76	0.0014184553
5	0x3800a22d	3.0668616e-05
6	0x37d1668c	2.4962494e-05
7	0x395f0c05	0.00021271415
8	0x3c314d23	0.0108216135
9	0xb8573aa0	-5.1314593e-05
10	0x38b58a25	8.656484e-05
11	0x3ca5e468	0.020250514
12	0x3c902b4a	0.017598767
13	0x3796921a	1.7949427e-05
14	0x37a6aef1	1.9870206e-05
15	0xb88e0388	-6.7717454e-05
16	0x3b32b117	0.0027266198
17	0x3cf84d8d	0.030310417
18	0xb833e7df	-4.2892872e-05
19	0xb7f84599	-2.9596313e-05
20	0xb814a18d	-3.5436406e-05
21	0x3d0a78ee	0.033806734
22	0x3d26c52e	0.04071539
23	0xb82d2d3f	-4.1288553e-05
24	0x3cd54c65	0.026037404
25	0x3d333151	0.043748204
26	0xb80abd6e	-3.3078184e-05
27	0xb7c874ff	-2.3896338e-05
28	0x3d18cef7	0.037306752
29	0x3a189970	0.0005821204
30	0x3c55aad9	0.013041222
31	0x3cf93fad	0.03042587
32	0x3c3369f7	0.010950557
33	0x3aa1d39b	0.0012346389
34	0x3b024d8c	0.0019882647
35	0xb887b0ed	-6.4702566e-05
36	0x3bd31d8c	0.0064427312
37	0xb876e208	-5.886148e-05
38	0x3ce9722b	0.028496822
39	0x3d0af308	0.03392318
40	0x372eaa07	1.0410796e-05
41	0xb86d7c5c	-5.6621022e-05
42	0x3b4b8e67	0.003106022
43	0xb71c12c4	-9.302694e-06
44	0x3be90542	0.0071112225
45	0xb6019f80	-1.931534e-06
46	0x3c4d3c8e	0.012526644
47	0x3c8a7af5	0.016904334
48	0x3acd534c	0.0015665083
49	0x3b28a902	0.0025735502
50	0x3877e58f	5.9103182e-05
51	0x38944376	7.0697555e-05
52	0x3ce4b2df	0.027917324
53	0x3cf67a71	0.030087681
54	0xb7ac12b1	-2.0512702e-05
55	0x3be9c091	0.0071335514
56	0x3c916f3d	0.017753238
57	0x3c3dffe5	0.011596655
58	0x3b8ffdfd	0.0043942914
59	0x3c7eaf10	0.015544668
60	0x3aa1f717	0.0012356964
61	0x3bb41029	0.0054950905
62	0xb821c555	-3.856917e-05
63	0x3d03b637	0.032156195
64	0xb859f2c4	-5.1962925e-05
65	0xb7c9bf8f	-2.4050269e-05
66	0xb8840e54	-6.296919e-05
67	0x3b031fb1	0.0020007903
68	0x3bc4e2f7	0.0060085016
69	0x3983a58c	0.0002510961
70	0x3c259bba	0.010107929
71	0xb852d6e5	-5.0268038e-05
72	0x3ca8477e	0.020541903
73	0xb857df9c	-5.1468247e-05
74	0x3c20272e	0.009774966
75	0x3ccde836	0.02513514
76	0x3d3ac3e7	0.045596983
77	0x38e72cec	0.00011023306
78	0x3c8b8188	0.017029539
79	0xb81fe8aa	-3.812524e-05
80	0x3a983c25	0.0011614604
81	0x3d41455b	0.047185283
82	0x3ce620e9	0.028091865
83	0x39d9790c	0.00041479652
84	0xb76128ff	-1.342059e-05
85	0x3d14d6ff	0.03633785
86	0xb7eaba0f	-2.7981614e-05
87	0x3bb8bf47	0.0056380364
88	0xb85210c0	-5.00835e-05
89	0xb860dfbe	-5.3614138e-05
90	0x3be98c7f	0.007127344
91	0xb841ba03	-4.6188023e-05
92	0x3d0115e0	0.031515002
93	0xb8863d45	-6.40103e-05
94	0xb742bf7d	-1.1607885e-05
95	0x3b78cb56	0.0037962995
96	0x39a1bf6b	0.0003085093
97	0x3d3b5830	0.0457384
98	0xb88ccd5a	-6.71397e-05
99	0xb8589e18	-5.164565e-05
100	0x3bdffffb	0.006835935
101	0x3b40b452	0.0029404354
102	0xb8092e23	-3.2706314e-05
103	0x3d0ed2d6	0.034869038
104	0x3aaef2c4	0.0013347496
105	0xb884afb3	-6.326977e-05
106	0xb7e9654c	-2.7822934e-05
107	0xb89bca0e	-7.4286116e-05
108	0x3d267445	0.040638227
109	0x3b977d5e	0.004623099
110	0xb890b808	-6.9007336e-05
111	0x3c5bb8b4	0.013410736
112	0x3bec435f	0.0072101797
113	0xb89f1367	-7.585325e-05
114	0x3a818758	0.0009882255
115	0xb877480b	-5.8956484e-05
116	0x3c339431	0.010960625
117	0x3cd49273	0.025948739
118	0x3b7e4d4b	0.0038803394
119	0xb84c4c8f	-4.870869e-05
120	0xb88e9330	-6.7985035e-05
121	0x3d1dd31a	0.0385314
122	0x3d2d17d8	0.042259067
123	0xb889fab1	-6.579364e-05
124	0x3b926dce	0.004468656
125	0x3bff1787	0.007784787
126	0xb870b22f	-5.7386405e-05
127	0x3c175b46	0.00923807
128	0x3ce0e99f	0.02745515
129	0x3bdeee27	0.0068032923
130	0xb6851a1f	-3.96675e-06
131	0x3bef18cf	0.0072966586
132	0x3c29aca7	0.010356105
133	0x378df1ba	1.6921073e-05
134	0x3d0533c5	0.032520074
135	0xb85c259b	-5.248711e-05
136	0xb7a6c71f	-1.9881465e-05
137	0x3c33e0be	0.010978876
138	0x3b8f7253	0.004377642
139	0x386bf96a	5.626065e-05
140	0x3b30ab83	0.0026957698
141	0x3c296484	0.010338906
142	0xb8872e0b	-6.445878e-05
143	0x3c03baf3	0.008040178
144	0x3aed7bd3	0.0018118568
145	0x3b8c2fe2	0.004278169
146	0x3cb64b8c	0.02225282
147	0x3d0b7ac7	0.034052636
148	0xb89a7ff1	-7.367123e-05
149	0x3baddcea	0.005305876
150	0x3d24f009	0.040267978
151	0x39a43210	0.00031317817
152	0x3d50d3c0	0.05098319
153	0x388f3c88	6.830046e-05
154	0x38880958	6.486726e-05
155	0xb888939a	-6.512478e-05
156	0xb89610dc	-7.155698e-05
157	0x3cfe2416	0.031023066
158	0xb7a60eb7	-1.9795594e-05
159	0x3bb354ed	0.0054727704
160	0x36d40916	6.31915e-06
161	0x399fd76c	0.00030487345
162	0x3ac32b01	0.0014890135
163	0x381fafd4	3.8072307e-05
164	0x39f69c9f	0.00047037468
165	0x3d4bb359	0.049731586
166	0x3d1d4cc4	0.038403288
167	0xb79d64ee	-1.8762858e-05
168	0x3cf00905	0.029301176
169	0x39f90e5d	0.00047503682
170	0x3a7787e3	0.0009442551
171	0x3c0a0cca	0.008425901
172	0xb82f053f	-4.1728137e-05
173	0x3802cb13	3.1183543e-05
174	0x3c444d6b	0.0119813485
175	0x3a65eb33	0.0008770704
176	0xb831f06c	-4.2424e-05
177	0x3be003f5	0.006836409
178	0x370a4193	8.240709e-06
179	0xb891d563	-6.953885e-05
180	0xb883d585	-6.286338e-05
181	0xb7b9b048	-2.2135806e-05
182	0xb888b0f6	-6.517947e-05
183	0x3c1ac4bb	0.009446318
184	0x3d2e2073	0.042511415
185	0x3cad039a	0.021119881
186	0x3ce49a16	0.027905505
187	0xb832d86b	-4.2640062e-05
188	0x3cb6182e	0.022228327
189	0x36cfee76	6.1968412e-06
190	0x3b4a858e	0.0030902359
191	0x3cecaee4	0.028891988
192	0x3d35a35e	0.044345252
193	0x3887e7b7	6.480462e-05
194	0x3ca929d6	0.020649832
195	0xb817936f	-3.6138514e-05
196	0x3ced058e	0.028933313
197	0x3cdd5290	0.027016908
198	0x3c9f9fb9	0.019485341
199	0x3afce1fa	0.001929342
200	0x3cf923e6	0.030412626
201	0x3d16f1ae	0.036851577
202	0x3cafc1c3	0.021454697
203	0xb85f2df5	-5.3210144e-05
204	0x3c08a37d	0.00833976
205	0xb862cd51	-5.4073815e-05
206	0x3ccdc334	0.025117494
207	0x3c0896cf	0.008336737
208	0xb7ffecf9	-3.0508718e-05
209	0x38e3f508	0.00010869844
210	0x3b01119a	0.001969433
211	0xb74ce24c	-1.2212036e-05
212	0x3d08f718	0.033438772
213	0xb761557e	-1.343095e-05
214	0x3c4c4a5b	0.0124689
215	0x3d206d09	0.039166484
216	0xb81b9012	-3.7089056e-05
217	0xb81a4549	-3.6780988e-05
218	0xb817fa15	-3.6234112e-05
219	0x3b097411	0.0020973722
220	0x3d227c9b	0.039669614
221	0x3cac0bfb	0.021001806
222	0xb70a8b6d	-8.257904e-06
223	0xb87280fe	-5.781743e-05
224	0xb8707339	-5.732777e-05
225	0xb7f1f3b2	-2.8842918e-05
226	0x3c2429b9	0.010019713
227	0x3c457d49	0.012053796
228	0xb8775158	-5.8965146e-05
229	0xb81bd63f	-3.7154412e-05
230	0x3c4a7d8c	0.012359034
231	0x3be1cae9	0.006890644
232	0xb8954c10	-7.1190414e-05
233	0x3d051607	0.03249171
234	0x3d32c5fe	0.04364585
235	0x3d407eff	0.046996113
236	0x3c7d1841	0.015447677
237	0x3c2b5f52	0.010459738
238	0xb84cf76d	-4.8867823e-05
239	0x3c6d3895	0.014478822
240	0xb31f3d4c	-3.707582e-08
241	0xb82687e7	-3.9704053e-05
242	0x35a54ed0	1.2316395e-06
243	0x3d150389	0.036380325
244	0x3baf3269	0.0053465855
245	0x388d58e8	6.739964e-05
246	0x3bd58ee0	0.006517276
247	0x3ce3edfe	0.027823444
248	0x3bda118f	0.006654925
249	0x3aa39239	0.0012479491
250	0xb844f165	-4.6954858e-05
251	0x3ab081f6	0.0013466466
252	0xb8896122	-6.5507615e-05
253	0x3be6dc7c	0.0070453268
254	0x3c178710	0.00924851
255	0x3c1eea94	0.0096994825

fc2_lin.weight f4 [128, 256]
0	0xbb2dde9f	-0.0026530398
1	0xbb24b25b	-0.0025130722
2	0x3c9f1b6d	0.019422257
3	0x3bf5e20e	0.0075037545
4	0x3a216660	0.00061569177
5	0x37f736d3	2.9470224e-05
6	0x3737b794	1.0950393e-05
7	0x38ffec85	0.00012203403
8	0xbc6cc727	-0.0144517785
9	0xb6ae9493	-5.2029004e-06
10	0x36e8bf80	6.9364323e-06
11	0x3c1f5cd4	0.009726722
12	0xbc834926	-0.01602609
13	0x379d2abd	1.873576e-05
14	0x37f68b4b	2.9390349e-05
15	0xb7cc42d4	-2.4349814e-05
16	0xbb3e0d28	-0.002899954
17	0x3c59b242	0.013287129
18	0x371679a3	8.9690175e-06
19	0x3819b0fe	3.664288e-05
20	0x3725e110	9.887168e-06
21	0x3c7a694c	0.015283894
22	0x3c9ad40f	0.018899946
23	0xb509e842	-5.1374457e-07
24	0x3c46fe34	0.012145568
25	0x3cab5841	0.020916106
26	0x37dc7ec2	2.628507e-05
27	0xb716d448	-8.990122e-06
28	0x3c7c94c1	0.015416325
29	0xba46c988	-0.0007583131
30	0x3bc3cded	0.005975476
31	0x3c62bc08	0.013838775
32	0x3b9ed3be	0.004847019
33	0xba981581	-0.0011603088
34	0xbb14d2f6	-0.002270875
35	0x3816c7f9	3.5949026e-05
36	0xbbee7ad3	-0.0072778254
37	0xb7c1b8a8	-2.309338e-05
38	0x3c33c225	0.010971581
39	0x3c6c3cd6	0.014418801
40	0x37ab41a8	2.0415362e-05
41	0x37aeab6a	2.0822237e-05
42	0xbb53ad84	-0.0032299468
43	0xb77981ab	-1.4871747e-05
44	0xbc2b0b89	-0.010439762
45	0x370c0610	8.346062e-06
46	0x3baad3cd	0.005213237
47	0x3bf361b5	0.007427419
48	0xbac5811e	-0.0015068387
49	0x3a8aebd7	0.001059885
50	0xb7025457	-7.768241e-06
51	0x371a7f9b	9.208826e-06
52	0x3c42ff86	0.011901742
53	0x3c6e1ff2	0.014533984
54	0xb7878597	-1.6155462e-05
55	0x3b5bf354	0.0033561783
56	0x3bff01c0	0.007782191
57	0xbc3a1b64	-0.0113590695
58	0x3aec6af1	0.0018037242
59	0x3be4f67d	0.0069873915
60	0xbad5fa6e	-0.0016325244
61	0x3b13366a	0.0022462853
62	0xb8018b76	-3.088588e-05
63	0x3c68ccdf	0.014209001
64	0xb31082b0	-3.3646472e-08
65	0xb7bb28a1	-2.2311056e-05
66	0xb678a223	-3.7049256e-06
67	0xbad8090f	-0.0016482192
68	0xbbb33e06	-0.0054700403
69	0x38de952e	0.00010613572
70	0x3ba2506e	0.0049534356
71	0x37a68b89	1.9853718e-05
72	0x3c213619	0.009839558
73	0xb7f6b90e	-2.9411658e-05
74	0xbc3cc9d0	-0.011522725
75	0x3c315c36	0.010825207
76	0x3ca240e9	0.019806342
77	0x3748fa3b	1.197919e-05
78	0x3bf24646	0.007393631
79	0xb7d111c4	-2.4923014e-05
80	0x3a0d0f86	0.00053810363
81	0x3ca57ef6	0.020202141
82	0x3c4ca41c	0.012490299
83	0xb9d36a51	-0.00040324268
84	0xb7d35db9	-2.5196803e-05
85	0x3c91dbd3	0.017805016
86	0xb5b468d6	-1.3441556e-06
87	0xbbd8eea9	-0.0066202474
88	0x36bd8a49	5.6487374e-06
89	0xb702337e	-7.760593e-06
90	0xbc28b0dc	-0.010296073
91	0x37bce861	2.2519556e-05
92	0x3c786548	0.015160866
93	0xb4f928ac	-4.6409457e-07
94	0x354412a1	7.30428e-07
95	0xbb870c4c	-0.004121339
96	0x392c74ff	0.00016446783
97	0x3c9fc9f1	0.019505473
98	0xb7f66dbd	-2.9376586e-05
99	0xb7154db1	-8.899181e-06
100	0x3b4b390f	0.0031009351
101	0xbb24ee36	-0.00251664
102	0xb48e3b77	-2.6492827e-07
103	0x3c8701a6	0.016480278
104	0xba90ede6	-0.0011057227
105	0xb6aa5896	-5.0767076e-06
106	0x372ed01f	1.0419665e-05
107	0x3500562f	4.780913e-07
108	0x3c8fa352	0.017533932
109	0xbba923a5	-0.00516172
110	0xb713ffc8	-8.8214365e-06
111	0x3bb92add	0.0056508617
112	0xbc2fa9ce	-0.010721637
113	0xb802550c	-3.107362e-05
114	0xba83f9ad	-0.0010068916
115	0x37b1dbfe	2.1202486e-05
116	0xbc48c0a1	-0.012252958
117	0x3c350e05	0.011050706
118	0x3ae3b92c	0.0017373911
119	0xb7f27a75	-2.8905672e-05
120	0x37dd3e0c	2.6374146e-05
121	0x3c7606dd	0.015016285
122	0x3ca9ea3a	0.02074157
123	0xb61eb26c	-2.364769e-06
124	0xbb91222d	-0.004429123
125	0xbbd9e528	-0.006649632
126	0x380f8788	3.422008e-05
127	0xbc0a40f1	-0.008438335
128	0x3c303445	0.0107546495
129	0xbbfd95a6	-0.0077387867
130	0xb695f93e	-4.4695616e-06
131	0x3b61424c	0.0034371791
132	0x3b7aee3a	0.0038288967
133	0x372d1cc6	1.0318303e-05
134	0x3c83e523	0.016100472
135	0x38045663	3.1551706e-05
136	0xb7d66d79	-2.5561765e-05
137	0xbc47bc40	-0.012190878
138	0xbbb5d882	-0.0055494914
139	0x372f078a	1.0432568e-05
140	0xbb16b168	-0.0022993926
141	0xbc59426e	-0.013260467
142	0xb77df474	-1.5136891e-05
143	0xbbf30f57	-0.0074176
144	0x3a2e18f7	0.00066412933
145	0xbb4122a2	-0.0029470106
146	0x3c2bf06a	0.010494331
147	0x3c839bef	0.016065566
148	0x3817de6e	3.620836e-05
149	0xbbeea42e	-0.0072827553
150	0x3c9e6a4e	0.0193378
151	0xb9beca52	-0.00036390364
152	0x3cb5013a	0.022095311
153	0x37ffea56	3.050749e-05
154	0xb8514617	-4.989476e-05
155	0x37a99b4f	2.0218691e-05
156	0xb7dfcd19	-2.6679178e-05
157	0x3c5a4201	0.013321401
158	0xb7697207	-1.3914431e-05
159	0xbba8794d	-0.0051414133
160	0x3724a5c8	9.813761e-06
161	0x38af5e20	8.3621824e-05
162	0xbaa604b4	-0.0012666197
163	0x36e9d890	6.9691523e-06
164	0xb9d44f9d	-0.00040495108
165	0x3cb3bdf6	0.021941166
166	0x3c932b7a	0.017965067
167	0x376bdebf	1.4058954e-05
168	0x3c548852	0.012971954
169	0xb9df7a1b	-0.0004262485
170	0xba445ce8	-0.0007490651
171	0xbc280a0c	-0.010256302
172	0xb7b446a2	-2.1490563e-05
173	0xb701dc27	-7.740257e-06
174	0xbc5b3e3b	-0.013381536
175	0xba8387f0	-0.0010035019
176	0x374d40d4	1.2234046e-05
177	0xbbcb22bd	-0.0061992095
178	0xb7fe51dc	-3.0317278e-05
179	0x3812c7b8	3.4995115e-05
180	0xb684239a	-3.938051e-06
181	0x37b3c0f8	2.142832e-05
182	0xb666b615	-3.4378656e-06
183	0xbc4a0517	-0.012330315
184	0x3c75bb25	0.014998232
185	0x3c09de6f	0.008414849
186	0x3c47158e	0.012151135
187	0x38102b5e	3.4372664e-05
188	0x3c2b87b6	0.010469368
189	0x37c5ba30	2.357093e-05
190	0xbb68deaa	-0.0035533109
191	0x3c3aeca2	0.011408957
192	0x3ca17bf1	0.01971242
193	0xb82f8803	-4.1849922e-05
194	0x3c13b8b3	0.009016204
195	0xb7b8e7e8	-2.2042499e-05
196	0x3c5754ec	0.013142806
197	0x3c3e1173	0.01160084
198	0x3c16829b	0.009186412
199	0xbad43ef9	-0.0016193084
200	0x3c533568	0.012891151
201	0x3c87b2a8	0.016564682
202	0x3c26891c	0.010164525
203	0x3624aa76	2.4537126e-06
204	0xbbed9bf2	-0.007251256
205	0xb77308ef	-1.4486009e-05
206	0x3c4195d7	0.01181551
207	0xbc3719f5	-0.011175622
208	0xb7a1b04a	-1.9274787e-05
209	0x3804e3c1	3.1683365e-05
210	0x3a705f11	0.00091694394
211	0x3656b827	3.1995676e-06
212	0x3c8ab602	0.016932491
213	0xb71c88dc	-9.33019e-06
214	0xbc4faf84	-0.0126761235
215	0x3c9ddc05	0.019269953
216	0xb7dc8be3	-2.6291184e-05
217	0x37b10676	2.1103053e-05
218	0x37459cf5	1.1778659e-05
219	0xbb123415	-0.0022308875
220	0x3c9a4fbf	0.018836854
221	0x3c1b43f1	0.009476648
222	0xb77c86eb	-1.50517835e-05
223	0xb633fb4c	-2.6819353e-06
224	0xb711f2d9	-8.699216e-06
225	0xb6ec75a3	-7.047043e-06
226	0xbc5962ec	-0.013268214
227	0xbc3b0b45	-0.011416261
228	0xb817895c	-3.612913e-05
229	0xb7bee588	-2.2756649e-05
230	0xbc61aa2d	-0.013773483
231	0xbc0c15ff	-0.008550166
232	0xb71696a2	-8.975769e-06
233	0x3c769f76	0.015052667
234	0x3cad6f5b	0.021171262
235	0x3ca7bb00	0.02047491
236	0x3bf3ac09	0.0074362797
237	0xbc4e8744	-0.012605492
238	0x37aba3b6	2.0461022e-05
239	0x3bd49182	0.0064870724
240	0x380eb743	3.4026114e-05
241	0x3801bc1c	3.0931187e-05
242	0xb7bb20e9	-2.2307462e-05
243	0x3c815591	0.015787872
244	0xbbba4bd0	-0.005685307
245	0xb7eb3510	-2.8038892e-05
246	0xbbe04800	-0.0068445206
247	0x3c509d99	0.012732887
248	0xbbcc95dd	-0.006243451
249	0xba8d6e63	-0.0010790344
250	0x37e67cfe	2.747634e-05
251	0xbaab02cb	-0.0013047097
252	0x378e38b4	1.6954124e-05
253	0xbc17b1ab	-0.009258668
254	0xbc2f2837	-0.01069074
255	0xbc2ca26e	-0.010536773

fc2_lin.bias f4 [128]
0	0x3d09a3b3	0.03360338
1	0x3c0b8552	0.008515673
2	0x3bb9fb65	0.0056757205
3	0x3d075611	0.033041064
4	0x3cdb0401	0.026735308
5	0x3b8d2fc1	0.004308671
6	0xb8144a21	-3.5354988e-05
7	0x3bbf1ae4	0.005832063
8	0x3cc635ff	0.02419567
9	0x3cf8e7f0	0.030384034
10	0x3b8fc965	0.004388022
11	0x3ca6bbe7	0.02035327
12	0x3caee99f	0.021351634
13	0x3ce99cb3	0.028517103
14	0x3cf86bde	0.030324873
15	0x3d17aec7	0.037031915
16	0x3d0e6440	0.034763575
17	0x3d15776e	0.03649085
18	0x3d6a913c	0.057267413
19	0x3b8da24c	0.004322326
20	0xb80a3ace	-3.295653e-05
21	0x3c6d9701	0.014501334
22	0x3d1239f3	0.035699796
23	0x3cf4cc0e	0.029882457
24	0x3c31fc7c	0.01086342
25	0x3c8d9015	0.017280618
26	0x3d1f7439	0.038929198
27	0x3ab214d4	0.001358653
28	0x3d22d1c4	0.03975083
29	0xb74833b3	-1.1932966e-05
30	0x3b185908	0.0023246426
31	0xb73f145f	-1.138923e-05
32	0x3d240f0c	0.040053412
33	0xb7b225a0	-2.1236774e-05
34	0x3d011cb9	0.031521533
35	0x3d04bf77	0.032409158
36	0x3cc75a7e	0.024335142
37	0xb73fc53e	-1.1430411e-05
38	0x3d0b1932	0.033959575
39	0x3ca5b380	0.020227194
40	0x3d0bcb77	0.034129586
41	0x3c900f86	0.017585527
42	0xb7c16e7f	-2.3058847e-05
43	0x3d1259b0	0.035730064
44	0x3d1018ca	0.03517989
45	0xb758af52	-1.2915423e-05
46	0xb816fb1d	-3.5996654e-05
47	0x3c95bf61	0.018279733
48	0xb6f1bd0f	-7.204369e-06
49	0xb71fc42b	-9.522812e-06
50	0xb7047efa	-7.897377e-06
51	0x3d007b4f	0.031367596
52	0x3d161fa7	0.03665128
53	0xb7b47204	-2.1510765e-05
54	0x3ce5ae6c	0.028037272
55	0x3d2036df	0.03911483
56	0x3d07a7ab	0.033118885
57	0xb6c2728f	-5.794987e-06
58	0x3ce6848e	0.028139379
59	0xb807cf2d	-3.2379456e-05
60	0x3cb779a5	0.022396872
61	0x3d1ed4cf	0.03877717
62	0xb80d34ec	-3.3666307e-05
63	0x3d1ecef6	0.038771592
64	0x3d080fd6	0.033218227
65	0x3d01460d	0.031560946
66	0x3cedff02	0.029052261
67	0xb7e74580	-2.756971e-05
68	0x3ced6603	0.028979307
69	0xb811ed3e	-3.4791643e-05
70	0x3ccac263	0.024750894
71	0x3c1341e4	0.0089878775
72	0x3d12171c	0.03566657
73	0xb73eebaf	-1.1379757e-05
74	0x3d024fb2	0.031814285
75	0xb8093623	-3.2713764e-05
76	0x3b701642	0.003663436
77	0xb7fac3c1	-2.9893477e-05
78	0xb813018a	-3.5048964e-05
79	0x3d09420e	0.03351026
80	0x3c155664	0.009114835
81	0x3cea732c	0.028619371
82	0x3cc5fc76	0.024168234
83	0x3d1b7281	0.037950996
84	0x3cd99f7c	0.026565306
85	0x3ccc7fb5	0.02496324
86	0x3bba9850	0.0056944266
87	0x3d039d0c	0.032132193
88	0xb7b77cdf	-2.1873448e-05
89	0x3cf91d20	0.030409396
90	0x3d1ba40f	0.037998255
91	0xb80b8e93	-3.3272965e-05
92	0xb80319c9	-3.1256848e-05
93	0xb707fdac	-8.10569e-06
94	0xb721dd59	-9.647884e-06
95	0xb7703b0b	-1.4318862e-05
96	0x3d199b53	0.037501644
97	0x3a1b6d95	0.000592911
98	0xb698b766	-4.5513034e-06
99	0x3c623e20	0.013808757
100	0x3ce9fab6	0.028561931
101	0xb7c40c49	-2.3370741e-05
102	0xb7e1fd20	-2.693996e-05
103	0xb813f931	-3.527961e-05
104	0x3d194f12	0.037428923
105	0xb7198389	-9.150136e-06
106	0x3ce59ae5	0.028027961
107	0x3cc0eb3c	0.023549668
108	0xb7461b52	-1.1808081e-05
109	0xb8019570	-3.089517e-05
110	0x3d063764	0.03276767
111	0x3d426bf0	0.04746622
112	0x3d28faa4	0.041254655
113	0x3d1756e7	0.03694811
114	0x39517e01	0.00019978733
115	0x3d10a740	0.035315752
116	0x3cf33e8e	0.029692914
117	0x39c5ec51	0.00037750838
118	0xb80e7de8	-3.3972698e-05
119	0xb7f1960f	-2.8799315e-05
120	0x3d042d4d	0.032269765
121	0xb82c4cb6	-4.107944e-05
122	0xb7c45212	-2.3403238e-05
123	0x3d0cfeee	0.034422807
124	0x3d0cfe48	0.03442219
125	0xb76e652f	-1.4209464e-05
126	0x3d12cfe4	0.03584279
127	0x3caf6a6e	0.021413054

fc3_lin.weight f4 [64, 128]
0	0x3cd07ede	0.02545112
1	0x3bb2ccdd	0.0054565505
2	0xbb127a68	-0.0022350792
3	0x3caa5d2f	0.020796387
4	0xbc38e0e2	-0.011284085
5	0x3b2365c2	0.0024932479
6	0xb81b9c31	-3.7100344e-05
7	0xbb205327	-0.0024463625
8	0xbc0fc692	-0.00877537
9	0x3cb3c5da	0.021944929
10	0xbaebb803	-0.0017983917
11	0xbbe47a94	-0.0069726203
12	0x3c4ac25e	0.012375442
13	0x3c9e3390	0.019311696
14	0x3cc031ed	0.023461306
15	0x3ccb5063	0.024818605
16	0x3cb5840f	0.022157697
17	0x3cd0fe0c	0.025511764
18	0xbcad656f	-0.021166531
19	0xbae7b714	-0.0017678463
20	0xb84e409e	-4.9174407e-05
21	0xbbbf7e34	-0.005843902
22	0x3cc831a7	0.024437739
23	0x3c9dd268	0.019265369
24	0x3bf269b0	0.007397853
25	0xbbef876e	-0.0073098456
26	0x3cd1e037	0.02561961
27	0xba1cbce8	-0.0005979077
28	0x3cef1daa	0.02918895
29	0xb77735cd	-1.4734874e-05
30	0xba6a0d80	-0.0008928403
31	0x3728c441	1.0059274e-05
32	0xbc758500	-0.014985323
33	0x3785baa5	1.5941749e-05
34	0xbc524d01	-0.012835742
35	0x3cafcf6f	0.021461217
36	0xbc12ada2	-0.00895253
37	0xb834c2e0	-4.3096836e-05
38	0x3cb14be7	0.021642638
39	0xbc07ff52	-0.008300619
40	0x3cb8aa18	0.022542045
41	0xbbee5366	-0.0072731255
42	0xb8311885	-4.2222924e-05
43	0x3cd99a47	0.026562823
44	0x3cdfd8b9	0.027325021
45	0x38105f93	3.4421286e-05
46	0x3858c804	5.1684692e-05
47	0xbbf92496	-0.0076032383
48	0xb72b86c6	-1.0223774e-05
49	0xb839a492	-4.4260705e-05
50	0x36097c71	2.0487025e-06
51	0x3cbb6095	0.022873202
52	0x3cdb26a3	0.026751822
53	0xb843d68f	-4.6691446e-05
54	0x3ca2e528	0.01988466
55	0x3cfc9b11	0.03083566
56	0x3c99caf5	0.018773535
57	0x3725e3c5	9.887798e-06
58	0x3cacb770	0.021083564
59	0xb78f3f6e	-1.7076465e-05
60	0x3c63b4db	0.0138981
61	0xbc8b7a92	-0.01702622
62	0x3797ef74	1.8112107e-05
63	0x3cddc9d5	0.02707378
64	0xbc411595	-0.011784931
65	0x3ccb0355	0.024781862
66	0x3cb49c5f	0.02204722
67	0x37ff6d20	3.0449184e-05
68	0x3ca8c910	0.020603687
69	0xb693ab8c	-4.400912e-06
70	0xbc359b17	-0.01108434
71	0x3b9152d6	0.0044349236
72	0x3cef94d2	0.029245768
73	0x37852f22	1.5876783e-05
74	0x3cb5477c	0.022128813
75	0x382b501b	4.084418e-05
76	0xbac98539	-0.0015374786
77	0x37ad01d2	2.0624055e-05
78	0xb82952a5	-4.036971e-05
79	0x3cd140e1	0.025543632
80	0xbb63a3e8	-0.0034735147
81	0x3cb19f2d	0.021682346
82	0x3c8c205c	0.017105274
83	0xbc7d0dcf	-0.015445187
84	0xbc3269d1	-0.010889486
85	0x3c8377ee	0.016048398
86	0xbb2230be	-0.002474829
87	0xbc5eaa7b	-0.01359045
88	0x385288df	5.0195373e-05
89	0xbc524328	-0.012833394
90	0x3cd576cc	0.026057623
91	0xb5eb4017	-1.7527517e-06
92	0x37a414a3	1.9559933e-05
93	0x37e5c714	2.739163e-05
94	0xb81a060d	-3.6722096e-05
95	0xb7fabc53	-2.9890018e-05
96	0xbc695615	-0.014241715
97	0x39d53e75	0.0004067306
98	0xb70f3840	-8.536561e-06
99	0x3c088e44	0.0083347
100	0x3cc33a7d	0.0238316
101	0x383f1b49	4.556336e-05
102	0xb8013373	-3.0803913e-05
103	0xb797eaa5	-1.8109868e-05
104	0x3cb4b11a	0.022057105
105	0xb723118b	-9.719642e-06
106	0x3cb09a63	0.021557992
107	0xbc1329a9	-0.0089821005
108	0xb851c310	-5.001115e-05
109	0x375b93f0	1.3087862e-05
110	0x3ce987f7	0.028507216
111	0xbc96a7f4	-0.018390633
112	0x3cf5e448	0.03001608
113	0x3cea62f2	0.028611634
114	0x3924e2e5	0.00015724784
115	0x3cbc7bea	0.023008306
116	0x3ca41b1d	0.02003246
117	0xb92f0a81	-0.00016693214
118	0x361f8ebe	2.3775933e-06
119	0xb80dcc60	-3.380736e-05
120	0xbc50daf0	-0.012747511
121	0xb72198a6	-9.631889e-06
122	0xb7e06882	-2.6751546e-05
123	0x3cc982d6	0.02459852
124	0x3cccb681	0.024989368
125	0x381d607a	3.7521568e-05
126	0x3d018745	0.031623144
127	0xbc0ac76d	-0.008470398
128	0xb69bce7f	-4.6433993e-06
129	0xb64125d8	-2.878127e-06
130	0xb5ae5fea	-1.2991925e-06
131	0xb8123a2a	-3.4863282e-05
132	0x3856c2a2	5.1202842e-05
133	0xb8462316	-4.7239555e-05
134	0xb7c69bfb	-2.3676073e-05
135	0x384c8db5	4.8769365e-05
136	0xb84a6e75	-4.8263424e-05
137	0x383a3b15	4.440088e-05
138	0xb7c8a379	-2.391798e-05
139	0x379da300	1.8791761e-05
140	0x38191313	3.6495807e-05
141	0x38026de4	3.109676e-05
142	0xb8425325	-4.633064e-05
143	0xb65572c3	-3.1806273e-06
144	0xb7e83cd7	-2.7684886e-05
145	0xb80a55ac	-3.2981552e-05
146	0xb81f6b2e	-3.8008373e-05
147	0x37ad149d	2.0632806e-05
148	0xb6d6031f	-6.3780603e-06
149	0xb838afae	-4.4032633e-05
150	0xb84cbfa3	-4.8815866e-05
151	0x3812ae25	3.4971297e-05
152	0xb7b8778c	-2.1990178e-05
153	0x3840bf77	4.5954683e-05
154	0x3812d6b4	3.500907e-05
155	0xb7ffc2ad	-3.0489022e-05
156	0xb85fc971	-5.335495e-05
157	0xb77b7885	-1.49888265e-05
158	0xb789be34	-1.6420243e-05
159	0x35bf1aeb	1.4238443e-06
160	0xb7480f05	-1.1924426e-05
161	0x3781b90c	1.5464168e-05
162	0xb7c339c0	-2.3272703e-05
163	0x38300c0a	4.1972882e-05
164	0x37a86a16	2.007656e-05
165	0xb7846f00	-1.5787315e-05
166	0x3818480a	3.6306716e-05
167	0x3843f49e	4.671944e-05
168	0x37c3b7db	2.3331426e-05
169	0xb7134256	-8.777328e-06
170	0x381bd4ae	3.7152953e-05
171	0x381b6b88	3.7055026e-05
172	0xb69c03e4	-4.649615e-06
173	0xb7f4c334	-2.9177965e-05
174	0x3827fd4a	4.0051797e-05
175	0x37b71e57	2.1829428e-05
176	0xb735b258	-1.0829965e-05
177	0xb83d59dd	-4.5144803e-05
178	0xb72534a9	-9.847027e-06
179	0x36aaa6f3	5.0858303e-06
180	0xb7a18322	-1.925376e-05
181	0xb836b6d9	-4.356247e-05
182	0xb7954ce4	-1.779799e-05
183	0x37dfae39	2.66648e-05
184	0xb83e7755	-4.5410667e-05
185	0xb79bc131	-1.8567402e-05
186	0xb737e506	-1.0960974e-05
187	0xb81ccb83	-3.7382833e-05
188	0x37359291	1.0822566e-05
189	0xb848e893	-4.7900317e-05
190	0x375024cb	1.2406333e-05
191	0x381d0fdc	3.7446487e-05
192	0x37b861d9	2.1980073e-05
193	0x38018fc6	3.0889896e-05
194	0xb818bf7c	-3.6417958e-05
195	0x383f8371	4.5660363e-05
196	0xb81035f3	-3.438252e-05
197	0x35a01e3b	1.1929727e-06
198	0xb71b96c7	-9.2738255e-06
199	0xb693470a	-4.3892114e-06
200	0x3731ca7e	1.05971685e-05
201	0xb82b520e	-4.0845996e-05
202	0xb74e67e7	-1.23027485e-05
203	0xb8464494	-4.7270747e-05
204	0xb8109713	-3.4472974e-05
205	0xb81c560a	-3.727343e-05
206	0x38474cdb	4.7516874e-05
207	0x374b4aa6	1.2117123e-05
208	0x3829ae4b	4.0455063e-05
209	0xb85780a8	-5.1379815e-05
210	0x36b3651b	5.346386e-06
211	0x381a1c4d	3.674282e-05
212	0xb82c71dd	-4.111404e-05
213	0xb838d708	-4.4069282e-05
214	0x37685344	1.3847664e-05
215	0x364ee822	3.0831511e-06
216	0x37864f9a	1.6011112e-05
217	0xb8374c3a	-4.370159e-05
218	0x34f79c73	4.6121167e-07
219	0xb763022f	-1.3530763e-05
220	0x3822cf20	3.881671e-05
221	0xb76eb40f	-1.4227829e-05
222	0xb82d07d0	-4.125369e-05
223	0x382b3b3d	4.0824747e-05
224	0xb827d6a2	-4.0015795e-05
225	0x37bf7d0d	2.2827206e-05
226	0x37ddcbf0	2.6440219e-05
227	0xb7eb719a	-2.8067083e-05
228	0x35e05b6c	1.6715908e-06
229	0xb7e3c2aa	-2.7151156e-05
230	0x37c0da1d	2.298975e-05
231	0xb7df8b85	-2.664864e-05
232	0xb647018f	-2.9654218e-06
233	0x382b3254	4.081645e-05
234	0x371bd0db	9.287348e-06
235	0x383d2c99	4.5102646e-05
236	0xb7e18d78	-2.6887967e-05
237	0x36c1bf60	5.774127e-06
238	0xb7cc9f23	-2.4392799e-05
239	0xb8411f08	-4.6043686e-05
240	0xb6ee6083	-7.104188e-06
241	0xb7ec2db6	-2.8154678e-05
242	0xb64937c2	-2.998379e-06
243	0xb69b1a3c	-4.622414e-06
244	0xb857dfda	-5.1468473e-05
245	0xb7f1499f	-2.8763721e-05
246	0xb847bbb7	-4.762012e-05
247	0xb84316dd	-4.6512916e-05
248	0xb7d04f56	-2.4832476e-05
249	0x382d62e9	4.133853e-05
250	0x37d7df1d	2.5733892e-05
251	0x3719d643	9.169397e-06
252	0x382d3531	4.1295953e-05
253	0x37fdc5ed	3.0252117e-05
254	0x37b1d82c	2.1200707e-05
255	0x381b7b28	3.7069578e-05

fc3_lin.bias f4 [64]
0	0x3cb79bdc	0.022413187
1	0xb83955c4	-4.4187313e-05
2	0xb8228672	-3.874902e-05
3	0x3cb6a303	0.022294527
4	0xb821a46e	-3.853853e-05
5	0x3af34650	0.0018560383
6	0x3cddfe67	0.027098848
7	0x39a4b784	0.00031417247
8	0x3cc62e1d	0.02419191
9	0x3cbbcc13	0.022924459
10	0xb829bfe7	-4.0471463e-05
11	0x3cceec0e	0.025259044
12	0x370b59d7	8.305963e-06
13	0xb817fe74	-3.6238183e-05
14	0x3cbc14f9	0.02295922
15	0x3cc72945	0.024311671
16	0xb864b3b7	-5.452681e-05
17	0xb85a2ece	-5.201884e-05
18	0x3ca62359	0.020280527
19	0x3caa890f	0.020817308
20	0x3cc4836b	0.023988446
21	0x3caafa2b	0.020871243
22	0x3c96e7b2	0.018421028
23	0x3ce15ac8	0.027509108
24	0xb80abe46	-3.307897e-05
25	0x3cb9b918	0.022671267
26	0x3a107bbb	0.00055116013
27	0x3cd517e8	0.026012376
28	0x3bb907b5	0.0056466707
29	0x389324c9	7.016358e-05
30	0x3cece289	0.028916614
31	0x3cc689c7	0.02423562
32	0xb82dc4fe	-4.1429877e-05
33	0x3cceead1	0.025258454
34	0x3cc82526	0.024431776
35	0x3cd66a38	0.026173696
36	0x3cbdeb4c	0.023183487
37	0x3cc9f583	0.024653202
38	0x3cf9f389	0.030511634
39	0x3cee25bf	0.029070733
40	0x3c9ef31d	0.019403035
41	0xb8bdfc5d	-9.0592286e-05
42	0x3cbd9339	0.02314149
43	0xb882a5b0	-6.229745e-05
44	0x3cc9599f	0.024578867
45	0xb84a366f	-4.821125e-05
46	0xb8365445	-4.3470664e-05
47	0xb6f95279	-7.4303794e-06
48	0x3cd2188d	0.025646472
49	0x3cb97a57	0.022641344
50	0x3cbcdbdd	0.023054058
51	0xb85dc698	-5.287546e-05
52	0x3cc8bd49	0.02450432
53	0xb7f25ef0	-2.8892857e-05
54	0x3a70fbbf	0.00091927865
55	0xb87464cf	-5.826802e-05
56	0xb8374d4e	-4.3702596e-05
57	0x3b6e47bc	0.0036358675
58	0x3cc3052f	0.023806183
59	0xb87da104	-6.0469858e-05
60	0xb8397dd2	-4.4224616e-05
61	0x3d32da1a	0.04366503
62	0x3cc3c400	0.023897171
63	0x3cfe8402	0.031068806

fc4.weight f4 [2, 64]
0	0x3df6c76b	0.12049755
1	0xb8727fe7	-5.7816414e-05
2	0x3846ff4f	4.7444653e-05
3	0x3dd1283d	0.10212753
4	0xb79e4fa6	-1.8872157e-05
5	0x3b6e839f	0.003639437
6	0x3dfc7960	0.12327838
7	0x3a004c22	0.0004894157
8	0x3dfe893a	0.12428518
9	0x3df59502	0.119913116
10	0xb7609260	-1.3385521e-05
11	0x3e0428b2	0.12906149
12	0xb7ef8236	-2.8551654e-05
13	0xb82a78fc	-4.0643834e-05
14	0x3df63f83	0.12023833
15	0x3ddc1d39	0.10747761
16	0xb86691bb	-5.4971995e-05
17	0xb7d93871	-2.5894698e-05
18	0x3dcdbd58	0.1004588
19	0x3d0c7506	0.03429129
20	0x3dd720e1	0.10504318
21	0x3dd37b42	0.10326244
22	0x3ce4c39d	0.027925307
23	0x3ded3a25	0.11583356
24	0x3854bf0d	5.072267e-05
25	0x3de1b8b7	0.1102156
26	0x3a5c50ca	0.00084043725
27	0x3e049c25	0.1295019
28	0x3c0ddaf1	0.008658157
29	0x38f2e739	0.00011582528
30	0x3e0c8ac6	0.13724813
31	0x3e0958b4	0.13412744
32	0xb85d664d	-5.278578e-05
33	0x3de7c078	0.113160074
34	0x3df3ff31	0.11913908
35	0x3df4e865	0.11958388
36	0x3de2a92c	0.11067423
37	0x3e073d36	0.13206944
38	0x3e02a615	0.12758668
39	0x3df07090	0.117402196
40	0x3ce7adbf	0.02828109
41	0xb7fda6e1	-3.023766e-05
42	0x3df5040e	0.11963664
43	0xb63b2ad9	-2.7890112e-06
44	0x3e00643f	0.12538241
45	0xb82c0553	-4.1012954e-05
46	0xb7616ba8	-1.3436111e-05
47	0x378634a7	1.5998563e-05
48	0x3e02812c	0.12744588
49	0x3df84131	0.12121809
50	0x3de85dc5	0.1134601
51	0x370dc154	8.449268e-06
52	0x3df483e4	0.11939219
53	0xb7b1ea03	-2.1209014e-05
54	0x3aca510d	0.0015435532
55	0xb80c7640	-3.348873e-05
56	0xb7b3b594	-2.1423017e-05
57	0xbba35bb2	-0.004985296
58	0x3dee51d4	0.11636701
59	0xb836ec1f	-4.3612086e-05
60	0x38121d42	3.483636e-05
61	0x3e0bf9ae	0.13669464
62	0x3e0537f6	0.13009629
63	0x3e074b23	0.13212256
64	0xbdf6b8ed	-0.120469905
65	0x3770d08d	1.4353672e-05
66	0x3810f7e7	3.4563152e-05
67	0xbdd120d0	-0.102113366
68	0xb7febcec	-3.0367133e-05
69	0xbb762276	-0.0037557161
70	0xbdfc5985	-0.12321762
71	0xb9ec008a	-0.0004501383
72	0xbdfe96e1	-0.124311216
73	0xbdf57cda	-0.11986704
74	0x3741b0ae	1.1544833e-05
75	0xbe042a30	-0.12906718
76	0x37b78c9f	2.1880782e-05
77	0x373185ac	1.0581145e-05
78	0xbdf64312	-0.120245114
79	0xbddbfecc	-0.10741958
80	0xb7a8362b	-2.0052385e-05
81	0x384e68e5	4.9211918e-05
82	0xbdcdbb9f	-0.100455515
83	0xbd0ce3a0	-0.034396768
84	0xbdd72cf6	-0.105066225
85	0xbdd39296	-0.103306934
86	0xbce523f0	-0.027971238
87	0xbded18a4	-0.115769655
88	0x382bd867	4.0971117e-05
89	0xbde1cf6b	-0.1102589
90	0xba5b336a	-0.00083618483
91	0xbe04af74	-0.12957555
92	0xbc0e90f9	-0.008701556
93	0xb8aed37d	-8.336359e-05
94	0xbe0c90d7	-0.13727127
95	0xbe09590b	-0.13412873
96	0x37b09c0a	2.1053496e-05
97	0xbde7deaf	-0.113217704
98	0xbdf40297	-0.119145565
99	0xbdf50963	-0.11964681
100	0xbde2c5bd	-0.11072872
101	0xbe0745f8	-0.13210285
102	0xbe02a786	-0.12759218
103	0xbdf07013	-0.117401265
104	0xbce68bcd	-0.028142834
105	0x381285f9	3.4933884e-05
106	0xbdf4dee5	-0.11956576
107	0x37d8b2cf	2.583247e-05
108	0xbe0066aa	-0.12539163
109	0x3801df92	3.0964213e-05
110	0x3884d75d	6.334365e-05
111	0x380e004d	3.385572e-05
112	0xbe029038	-0.12750328
113	0xbdf85ff5	-0.12127677
114	0xbde828e2	-0.11335923
115	0x38459576	4.7107656e-05
116	0xbdf45d20	-0.11931825
117	0xb8105aaf	-3.441673e-05
118	0xbac47727	-0.0014989123
119	0x3862d17b	5.4077693e-05
120	0x38564742	5.108794e-05
121	0x3ba3d3a5	0.004999595
122	0xbdee19b8	-0.11625999
123	0xb81a42f0	-3.67788e-05
124	0x3875bce8	5.8588485e-05
125	0xbe0bd67e	-0.13656041
126	0xbe0544ef	-0.13014577
127	0xbe07434b	-0.13209264

fc4.bias f4 [2]
0	0x3efc5c6b	0.4928926
1	0xbefc5484	-0.4928323
