MWNet/checkpoints/MWN_TRY2_BIG_DATA/model_epoch_140.pt (torch, 234127 bytes, 8 tensors)

fc1_lin.weight f4 [256, 64]
000000 20 33 38 b9 5f 10 0d 3b 38 3b 36 bb 56 07 0a 3c
       -0.00017566653 0.002152465 -0.0027806293 0.008424601
000010 90 bc 98 38 74 74 3b 3c 15 f7 6c bb 90 e4 9e bc
       7.283047e-05 0.011441339 -0.0036158015 -0.019396096
000020 22 82 05 36 c9 9d ff bb 97 77 88 bd 88 5f c5 3c
       1.9894292e-06 -0.007800792 -0.06663435 0.024093404
000030 72 50 89 3c 4b b0 81 b9 0a e5 bd b7 ae 6d 33 b7
       0.016761992 -0.00024736146 -2.263721e-05 -1.0694768e-05
000040 05 57 88 3c 76 a9 70 b8 c8 3e 72 38 a4 17 9f 3d
       0.016643057 -5.737828e-05 5.7755766e-05 0.07768181
000050 54 57 c7 b4 ca 96 40 3b fa e4 62 3b 3b 2b 98 3a
       -3.7130178e-07 0.0029386752 0.0034621344 0.0011609563
000060 6a 5a ac b7 fe ee 53 b8 83 05 df 3a 68 f7 95 3c
       -2.05461e-05 -5.05289e-05 0.0017015192 0.018306449
000070 65 67 7c b8 cc a2 5f 3a 81 75 c3 37 07 62 b8 ba
       -6.0177776e-05 0.00085310335 2.3300528e-05 -0.00140673
000080 69 de 15 bc 83 c5 a9 3c cc 06 6d b8 d6 eb 0a bd
       -0.009147265 0.020724064 -5.6511533e-05 -0.033916317
000090 7c 3b 1b 38 18 11 0f bb f4 cc 4b b8 3f 2f 8a bc
       3.701028e-05 -0.0021830257 -4.858985e-05 -0.016868232
0000a0 ab 0b 62 bb d5 78 d0 3c e2 d6 7c b9 c4 99 c7 37
       -0.0034491818 0.025448242 -0.00024112643 2.3794251e-05
0000b0 56 77 ef b7 94 06 24 bd cc ad 76 38 11 5b 62 bc
       -2.854659e-05 -0.040045336 5.881283e-05 -0.013815657
0000c0 5f b5 4c 3d fb 32 f4 3c ca f7 99 b9 e1 ee 8c bd
       0.049977656 0.029809466 -0.0002936705 -0.068815
0000d0 c6 92 98 3d eb ac 78 b8 d2 27 88 b9 27 07 7e 38
       0.0744987 -5.928885e-05 -0.0002596961 6.056498e-05
0000e0 b5 b3 46 b6 fe 23 ff b9 00 64 15 38 ef 48 25 bc
       -2.9608902e-06 -0.00048664206 3.56175e-05 -0.0100881895
0000f0 a0 16 df 3d 9b c1 02 3a fd 74 82 3c 90 4c ec b6
       0.10892987 0.0004987956 0.015924925 -7.042261e-06
000100 69 b6 25 b9 f1 b6 09 3b 18 21 40 bb dc 55 3c 3c
       -0.0001580358 0.0021013583 -0.00293166 0.01149508
000110 e1 7d 04 39 67 a1 5b 3c 42 b6 79 bb 6f 6c 29 bd
       0.00012635395 0.013405181 -0.003810302 -0.041363176
000120 a3 f1 3e b8 ed aa 0e bc ec 79 95 bd ee 12 ce 3c
       -4.552457e-05 -0.008707744 -0.072986454 0.02515551
000130 f6 c0 a7 3c cf 14 ac b9 8c dc ab 38 e7 b7 46 38
       0.020477753 -0.000328219 8.1949955e-05 4.737815e-05
000140 94 d4 8a 3c 04 7b f1 37 e0 41 be b6 62 72 a7 3d
       0.016947068 2.8786722e-05 -5.67011e-06 0.08176114
000150 3a 82 2a b8 bd 2c 2c 3b 03 b6 d9 3a 18 67 a4 3a
       -4.065244e-05 0.0026271783 0.001661003 0.0012542931
000160 92 27 85 35 8a 09 e0 b7 21 4b 0a 3b 65 48 06 3d
       9.920789e-07 -2.6707323e-05 0.002110191 0.032783885
000170 ed 9b 67 b8 2a 38 50 3a ae f5 38 b7 36 ab bf ba
       -5.521991e-05 0.00079429394 -1.1024456e-05 -0.0014623168
000180 f7 78 30 bc d1 ad b5 3c b6 e5 8e b7 74 e3 25 bd
       -0.010771028 0.022177609 -1.7034687e-05 -0.04050012
000190 0e 14 90 38 46 40 9f ba 20 4c 14 b7 33 ac 9d bc
       6.8701906e-05 -0.0012149892 -8.839212e-06 -0.01924715
0001a0 b8 2a 8d bb 1a b2 d6 3c 11 84 4b b9 44 55 ac 38
       -0.004308071 0.026207972 -0.00019408787 8.217481e-05
0001b0 82 db 47 37 c4 ce 2c bd 11 23 f6 38 4e 10 81 bc
       1.19124325e-05 -0.042189375 0.00011736726 -0.015754845
0001c0 9e 8b b3 3d fa 90 19 3d 48 c8 23 ba 52 29 99 bd
       0.08766864 0.037491776 -0.0006247801 -0.07478584
0001d0 55 7d bb 3d c1 9b 30 b8 75 8c c1 b9 55 8e 66 38
       0.091547646 -4.2106727e-05 -0.00036916477 5.496883e-05
0001e0 7a 32 ba b8 c0 ae c9 3c 7b 6d 4e 39 68 75 2a bc
       -8.878573e-05 0.02461946 0.00019686476 -0.010403968
0001f0 cc e0 eb 3d 54 dc 2e 3a 8a 8f a3 3c 29 12 4b 36
       0.11517486 0.00066704047 0.019965906 3.0259928e-06
000200 7b 99 9f 36 83 1d 3a ba 93 62 03 3b 24 b3 57 bc
       4.7564367e-06 -0.00070997345 0.0020047768 -0.013165269
000210 63 79 03 b9 1f 86 c8 bd 86 e3 ad 3c 19 6d 00 3e
       -0.00012538354 -0.097912066 0.021226656 0.12541617
000220 00 6c 0d 38 a8 22 17 3c f1 b1 80 3d 5d db 47 bc
       3.3717602e-05 0.009224571 0.0628394 -0.012198296
000230 ed a4 f8 bc cf 7e 25 b9 b1 84 bf b4 1f 55 ba 38
       -0.03035208 -0.00015782866 -3.5673068e-07 8.885026e-05
000240 d8 62 f2 bb 72 5a 48 37 60 dd 6e 38 87 3f 5c bd
       -0.007397037 1.1941987e-05 5.6949793e-05 -0.053771522
000250 1a b7 61 b8 e3 dd a2 b9 95 bc 22 3c 01 24 5b ba
       -5.3814707e-05 -0.00031064366 0.009932657 -0.0008359552
000260 20 6a f6 37 84 af 23 38 49 31 60 bb 3a 48 8f bd
       2.9374904e-05 3.902569e-05 -0.0034209064 -0.06996198
000270 55 47 33 37 a7 73 f2 b9 f7 b5 77 38 95 59 72 3a
       1.068584e-05 -0.00046244005 5.9058857e-05 0.0009244916
000280 ed bf 9b 3c 22 07 81 bc df ca 4b 38 05 f9 31 3d
       0.019012416 -0.015750472 4.858791e-05 0.043450374
000290 8a 79 9e b7 bf 1d bb ba 2d 34 bc b7 fc 38 ac 3c
       -1.8891664e-05 -0.0014275833 -2.2435643e-05 0.021023266
0002a0 8d 72 79 3c f5 13 fc bb 07 d5 e6 39 6c b0 a0 38
       0.015225065 -0.0076928088 0.00044027736 7.662256e-05
0002b0 9e a8 32 38 d6 b6 56 3c d1 47 23 b7 3b 40 43 3c
       4.2595544e-05 0.013105115 -9.732278e-06 0.011917169
0002c0 06 76 18 be 13 83 64 bd 2c 03 d7 b9 3f 0d b8 3d
       -0.14888772 -0.055789065 -0.0004101036 0.089869015
0002d0 05 f5 15 be 16 9d 26 39 6a 44 a4 39 37 68 ca b8
       -0.14644249 0.00015889513 0.0003133149 -9.651522e-05
0002e0 24 e5 58 b5 8b 4f 7a 3d bb 68 60 39 d3 ff 7a 3b
       -8.0799714e-07 0.061111014 0.0002140132 0.0038299456
0002f0 ff 2e 9c bd b2 38 fd b9 27 d9 a8 bc 42 d1 8e b8
       -0.07626151 -0.00048298162 -0.020611359 -6.810065e-05
000300 ac ae 0c b8 7b bb 1e b8 09 f5 8d 39 f5 a2 3c bb
       -3.3541277e-05 -3.784474e-05 0.0002707618 -0.0028783653
000310 c9 a4 d3 b8 c3 40 0e bd 13 ee e5 3b 16 95 db 3c
       -0.00010091958 -0.03472973 0.007016906 0.026804488
000320 a4 98 81 b8 18 80 f7 3a 25 55 5e 3c 80 8d 40 bb
       -6.179631e-05 0.0018882779 0.013570105 -0.0029381216
000330 ca 6a d3 bb d6 eb 64 b8 c1 01 e8 35 c1 d4 cb 37
       -0.006451939 -5.4579075e-05 1.7285857e-06 2.4298557e-05
000340 8b 5d 85 ba c0 bd d2 b5 1f e1 2a b7 68 e5 2b bc
       -0.0010174973 -1.5701444e-06 -1.0185205e-05 -0.010491706
000350 37 9f aa 37 83 68 24 b8 cf ed 46 3b a5 87 e7 37
       2.033972e-05 -3.919798e-05 0.0030354147 2.760051e-05
000360 26 ef d0 34 dd 8c 1a 38 16 17 4e ba 1f ad 99 bc
       3.8917022e-07 3.684765e-05 -0.00078617164 -0.018759308
000370 b6 d8 5a 38 41 f8 61 b8 ef 49 58 38 e4 f0 a7 38
       5.2177078e-05 -5.3875385e-05 5.156727e-05 8.00805e-05
000380 02 8a bc 3b a1 c6 4c bb ca 8d 14 b7 cf ef 12 3c
       0.0057537565 -0.0031246322 -8.8545e-06 0.008968308
000390 54 1d 83 37 38 58 4f ba fd 31 8f 38 05 68 93 3b
       1.5630074e-05 -0.0007909569 6.8280824e-05 0.004498484
0003a0 15 8f a4 3b 08 88 95 ba 0c 55 62 38 27 64 1e b8
       0.0050219395 -0.0011408338 5.3961805e-05 -3.776341e-05
0003b0 77 7c 66 37 34 26 dc b9 5b a2 92 36 40 18 16 3b
       1.37380475e-05 -0.00041990133 4.3700397e-06 0.0022902638
0003c0 c4 9a d1 bc 2e 59 60 bc 22 01 9c b9 83 9d ab 3c
       -0.025586493 -0.013693137 -0.00029755483 0.02094913
0003d0 e8 76 21 bd b0 a7 4b b7 b3 cb b5 38 01 4e b2 b5
       -0.03942004 -1.2138786e-05 8.6686945e-05 -1.3284736e-06
0003e0 79 9b 10 38 39 f9 06 3d 54 b0 02 39 94 26 19 3a
       3.447707e-05 0.03295252 0.00012463453 0.00058422354
0003f0 06 df 82 bc 05 62 dd b8 ab 2a 8e bb 72 6b e5 b7
       -0.015975486 -0.00010556359 -0.0043385825 -2.734896e-05

fc1_lin.bias f4 [256]
000000 b2 e5 b1 3a 07 e9 9a 3b 12 42 49 3d 84 56 a8 3c
       0.0013572483 0.004727486 0.049135275 0.020549066
000010 dd 5d 0d 3b e3 33 04 38 da 12 8d 38 3b 83 51 3a
       0.002157084 3.1519576e-05 6.726915e-05 0.0007992272
000020 ae 92 ce bb 32 b0 67 b8 8b db 89 3b be 99 14 3c
       -0.0063041067 -5.5238786e-05 0.0042070798 0.009069858
000030 56 36 1d bb 01 26 78 37 83 c8 aa 39 9d aa 94 b8
       -0.0023988686 1.47908e-05 0.0003257432 -7.088969e-05
000040 4a 03 ca bc 41 b9 76 3d 5a 53 3c b8 26 f1 01 b8
       -0.024659771 0.060235266 -4.490032e-05 -3.0980584e-05
000050 a8 b1 76 3a 8e 22 13 3d 7b f1 59 3d 42 c5 35 b8
       0.0009410628 0.035921626 0.05320881 -4.3337473e-05
000060 8d 72 b1 3b b5 96 23 3d 9c 3c 11 b8 ad b2 0b 3a
       0.005415267 0.039938647 -3.462714e-05 0.0005329054
000070 10 67 96 3d 43 23 64 bb 9a f5 67 3a 01 95 40 3d
       0.07343876 -0.0034811057 0.0008848548 0.0470171
000080 2a af 5f 3a 99 d6 61 37 6e c6 86 bc 41 0b 8e b8
       0.00085328764 1.346101e-05 -0.01645204 -6.773184e-05
000090 08 ac 51 bb cf 75 89 3c ac a9 b5 3c da 19 74 3d
       -0.0031993408 0.016779808 0.022175632 0.059594966
0000a0 25 fd 86 36 95 99 78 b8 df ba 1c bd 8c 65 29 b7
       4.022981e-06 -5.9270842e-05 -0.03826415 -1.0096828e-05
0000b0 fc 9d fc bc 63 ac 17 38 5a 9e 0b bb 22 63 18 3b
       -0.030837052 3.6161753e-05 -0.0021304102 0.0023252447
0000c0 8c d5 15 3c d2 f2 71 b8 e1 54 16 38 4d 4a 30 3c
       0.009145152 -5.768502e-05 3.5841837e-05 0.010759902
0000d0 c8 4d f4 3c 88 b6 5a bb 41 5e d1 b7 34 bc ec 3c
       0.029822245 -0.0033372957 -2.4958632e-05 0.028898336
0000e0 1a 64 8d 3c 4c 74 35 3c 4f f1 47 bb 36 5b 1b 3d
       0.017259646 0.011075091 -0.0030508821 0.037928782
0000f0 29 f9 5f b8 b3 cf c3 3c 0c 71 29 b8 b1 43 d9 3c
       -5.339939e-05 0.02390275 -4.0398023e-05 0.026521536
000100 6c 5e 65 b8 2d 31 d3 b7 c3 3c 8a b8 67 66 8c 3c
       -5.4685792e-05 -2.517606e-05 -6.5916705e-05 0.017138673
000110 bb 79 ca bc df 29 ab 3b 2b 25 a6 3b 1c b5 5c b8
       -0.024716249 0.0052234973 0.0050703487 -5.262076e-05
000120 23 30 1c 3d d9 e6 5d b8 ba 56 6c bc 11 23 0f 3c
       0.038131844 -5.29055e-05 -0.014424974 0.008736388
000130 ff 4e 87 3d bc c2 5c 3a 35 86 19 3d 16 66 27 b8
       0.06606864 0.00084213517 0.037481505 -3.9910978e-05
000140 51 e0 51 ba 9d 3b a4 3d bb 6c ff 3c 30 44 cd bb
       -0.0008006143 0.08019183 0.031179776 -0.006264232
000150 c3 76 44 3a ae 40 5e 3d 92 6a 1b b8 d9 1b 38 bc
       0.00074945035 0.054260902 -3.705413e-05 -0.011237108
000160 7a f2 5b b8 46 93 69 b8 01 86 2a bd 57 22 4d b8
       -5.2439493e-05 -5.5688688e-05 -0.041631702 -4.890779e-05
000170 a2 a1 2c 3d eb 85 8c b8 b0 f9 94 b7 0e 10 9b bb
       0.042146333 -6.7006644e-05 -1.7759245e-05 -0.0047321385
000180 6a ee 03 3a 3c 97 bf 3b a8 e4 92 b8 97 c1 62 b8
       0.000503278 0.005846886 -7.004413e-05 -5.4062893e-05
000190 04 39 43 39 34 f5 ab 3b 8e c2 0f b8 04 4b ca bb
       0.00018617889 0.0052477363 -3.427505e-05 -0.0061734933
0001a0 36 59 15 3c e8 e5 8a b8 97 53 f4 b7 58 5c a7 b8
       0.009115508 -6.623176e-05 -2.9125991e-05 -7.980381e-05
0001b0 3a 25 3d bb 01 19 a5 bc d6 7e 97 b8 e7 3a 8c 3b
       -0.00288613 -0.020153524 -7.223866e-05 0.0042794826
0001c0 59 f5 98 bc 63 31 77 b8 fe af 09 b8 33 6c 81 b8
       -0.018671678 -5.8935384e-05 -3.282725e-05 -6.171353e-05
0001d0 cd 38 6b 3c 45 26 72 3d ec d0 92 3c e4 dc 55 b8
       0.014356804 0.059118528 0.017921887 -5.0988878e-05
0001e0 62 40 95 b8 65 46 d5 3c 7b 55 06 3d b2 6f 90 b8
       -7.116866e-05 0.026034543 0.032796364 -6.88726e-05
0001f0 bf 99 6b 3c 71 7d 80 39 19 2d 7a b8 ae 13 33 3b
       0.014379918 0.00024507524 -5.9646645e-05 0.0027324962
000200 b4 0d 7c 3c 0e 93 45 bd 46 f0 4e b6 25 ae c6 3a
       0.015384126 -0.048235945 -3.083625e-06 0.00151581
000210 85 27 85 3d df 55 52 37 c7 1a 51 3c f4 7a 67 37
       0.065016784 1.2536969e-05 0.012762732 1.37973e-05
000220 fc 22 ad b7 6d f8 b3 bb 2d b3 43 bc a7 1f 91 38
       -2.0639498e-05 -0.005492261 -0.011944574 6.9200345e-05
000230 91 04 5f b8 2e 17 52 bd a3 81 8d b8 b3 1d 8a 3b
       -5.3171596e-05 -0.051291637 -6.747551e-05 0.004214966
000240 f6 6d a8 3a f0 ff 24 3c bc bc 9c 3b 38 20 2e 3c
       0.0012850154 0.010070786 0.004783241 0.010627799
000250 a4 91 07 b9 7f bf 8f bc e1 81 3b 3d cb 87 b8 3a
       -0.00012928859 -0.017547367 0.04577816 0.0014078555
000260 14 3a 94 3d a2 72 ef 3a fc 6e 9f 39 64 fe 8e b8
       0.0723764 0.0018268416 0.00030409533 -6.8184716e-05
000270 bf 15 9d b8 4b e9 28 3d ed 48 a2 b7 eb 17 73 3c
       -7.490394e-05 0.04123811 -1.9345864e-05 0.014837245
000280 a8 65 45 b6 8b 35 e4 3b 6e c2 b9 37 27 88 28 3b
       -2.941446e-06 0.0069643906 2.2144257e-05 0.0025715919
000290 bb 00 08 3c 43 e9 74 3d 14 d4 60 3d ee 3b c1 b7
       0.008300955 0.05979277 0.054889753 -2.30353e-05
0002a0 08 cc 85 3c 24 9a 82 3b be 37 4a 38 b7 02 90 bb
       0.016332641 0.00398566 4.8212467e-05 -0.004394855
0002b0 90 37 37 b8 32 06 12 38 35 4d e8 bb f2 39 1d bb
       -4.3682347e-05 3.4814882e-05 -0.007089282 -0.0023990837
0002c0 81 45 3a b8 f4 8d 1c 3c bb b9 10 37 67 a9 98 b8
       -4.4410586e-05 0.009555329 8.626313e-06 -7.2794785e-05
0002d0 b3 89 75 b8 2c 61 c2 b7 50 17 8f b8 b6 05 70 bd
       -5.8540794e-05 -2.3171851e-05 -6.823114e-05 -0.058599196
0002e0 c3 bc e6 b7 d8 bc be 3b ef 2a b4 bb ee 63 20 b8
       -2.7506036e-05 0.005820852 -0.005498282 -3.824004e-05
0002f0 ae ec a2 3b 08 9d 21 36 e5 50 02 ba a4 d1 9f 3d
       0.004972062 2.4082274e-06 -0.00049711607 0.07803658
000300 6f 5c 92 3d 64 f3 84 3b 0b 66 36 3d ca ac 1e b8
       0.071465366 0.0040573347 0.04453091 -3.7831058e-05
000310 b7 7e f0 3c 23 ed 8e 3c b8 48 86 3c 7c 9e af b7
       0.029357297 0.01744706 0.016392097 -2.0935426e-05
000320 ae 40 d0 3c cc a3 01 3d 77 df a3 3a ae 9f 69 b8
       0.025421467 0.03165035 0.0012502511 -5.5700242e-05
000330 01 c7 4d 3c 7c 39 80 b8 27 8a a9 3c 18 00 1a 3b
       0.012559653 -6.114223e-05 0.020695759 0.002349859
000340 7a 0a 07 b8 e2 45 be 39 d6 51 ab 3b 7c 5f 56 b7
       -3.2196265e-05 0.0003629169 0.0052282615 -1.2777626e-05
000350 00 25 0c 3d a5 e1 6b b7 1e d8 92 bb 81 ed 06 3d
       0.034214973 -1.40596285e-05 -0.0044813296 0.032941345
000360 5c d7 22 b8 50 10 0f 39 39 f2 9a 38 ad ea 01 3b
       -3.882438e-05 0.0001364362 7.38841e-05 0.0019823716
000370 f1 28 2a 3d 88 61 d5 37 d5 f3 47 b7 b7 01 79 b9
       0.04154295 2.5436995e-05 -1.1918096e-05 -0.0002374713
000380 f7 b3 7b b8 bb 47 fd b7 46 3e 16 bd 29 35 af 3b
       -6.001067e-05 -3.0193352e-05 -0.036680482 0.0053469134
000390 06 71 81 b8 49 20 23 b8 06 ef 81 3b 33 2f 8f bc
       -6.1722516e-05 -3.8892296e-05 0.0039652614 -0.017478561
0003a0 d5 05 b8 b8 68 fd 1b 3d 8d dd 3e 3d 07 80 3a 3d
       -8.77489e-05 0.038083464 0.046598006 0.045532253
0003b0 75 f0 f0 3b e6 8b 72 bc f8 7f a3 39 82 b2 19 b8
       0.0073528835 -0.014803862 0.00031185127 -3.664429e-05
0003c0 45 4f 0b b4 2a d3 40 b8 eb 41 80 3d 28 61 25 3c
       -1.2974222e-07 -4.597303e-05 0.06262573 0.010093965
0003d0 c4 2c 9b 3a 08 e8 ba 3c 6a 02 e4 3b 45 b6 15 3d
       0.0011838903 0.02281572 0.0069582956 0.03655078
0003e0 a2 0c 8e 39 45 84 fe b9 c2 2f 4e b8 96 21 89 bc
       0.00027093763 -0.00048545204 -4.9158705e-05 -0.016739648
0003f0 50 cf 8f b8 c0 ec e5 bc a9 22 2d bc a3 3e 1c bd
       -6.857386e-05 -0.028066993 -0.010567346 -0.038145673

fc2_lin.weight f4 [128, 256]
000000 0b c1 5f bc 5d 53 18 bc 68 a3 29 3d 11 d0 46 3c
       -0.013656865 -0.009297219 0.041415602 0.012134568
000010 01 09 04 3b 3b c0 01 38 bd 27 87 37 38 09 f0 bc
       0.0020146968 3.0935025e-05 1.6111759e-05 -0.02930127
000020 bd fd 3d bd ef b0 b6 b6 a7 98 5c 3b 2c 08 b5 3b
       -0.04638456 -5.4446205e-06 0.0033660324 0.005524656
000030 5b 50 2f bd ab 3c a4 37 07 81 6a 39 b9 d2 d5 b7
       -0.042801242 1.9578574e-05 0.00022364045 -2.5489704e-05
000040 08 7a 53 bc 5a ef 30 3d 92 84 1d 37 49 e3 20 38
       -0.0129075125 0.043197013 9.388796e-06 3.835865e-05
000050 60 2f 61 3a 07 01 be 3c ea 74 e8 3c b6 8b 0f b5
       0.0008590128 0.02319385 0.028376061 -5.347496e-07
000060 ea 5e bf 3c 1d f9 21 3d e5 d0 e6 37 37 96 64 39
       0.023360688 0.039544214 2.751541e-05 0.00021799734
000070 96 a3 e1 3c f4 9a 29 bb 40 ef 29 3c 60 f4 2d 3d
       0.027543824 -0.0025879713 0.010371983 0.042469382
000080 2e 7d 54 3a 62 96 52 b9 af fb 9a bb b3 d7 1d 38
       0.00081058114 -0.00020083183 -0.00472971 3.7632602e-05
000090 10 6d c3 bc 11 5f 69 3c a9 21 98 3b 39 36 d5 3c
       -0.023855716 0.014243857 0.0046426845 0.026026832
0000a0 5b 02 b2 37 00 d9 b6 37 f2 cb a7 bc 60 93 82 b7
       2.122035e-05 2.179714e-05 -0.02048299 -1.5565834e-05
0000b0 cf 2d 77 bc 7b f9 79 37 71 7f 66 3c dc 6e 60 3b
       -0.015086605 1.4899643e-05 0.01406847 0.0034245765
0000c0 3f ee 33 bc 31 bc e0 bb 94 ab ce b6 5f 08 05 bc
       -0.010982095 -0.0068583717 -6.1592527e-06 -0.008119672
0000d0 12 88 d5 3c b0 04 4f 3c 57 69 93 b7 eb 1b cc 3c
       0.02606586 0.012635395 -1.7572818e-05 0.024915656
0000e0 8d 93 aa 3c 55 d5 c5 bc ab fa ab bc d8 01 03 3d
       0.02082231 -0.024149576 -0.020993551 0.03198418
0000f0 be 4f 4e b7 6b 31 5e 3c e4 67 07 b8 2d 0f f0 3c
       -1.2297123e-05 0.013561587 -3.2283264e-05 0.029304111
000100 5a c8 14 b3 07 ec c3 b7 46 22 82 b6 c6 37 82 bc
       -3.4641154e-08 -2.335572e-05 -3.878292e-06 -0.015895735
000110 e3 3a 01 bc 39 17 6e 3b 87 ea f6 3b a3 58 ae 37
       -0.007887575 0.003632976 0.007535282 2.0783691e-05
000120 53 bb 0e 3d 1f e8 00 b8 24 cc 63 bd 50 b6 ad 3b
       0.034846615 -3.0733758e-05 -0.055614606 0.0053012744
000130 a9 4f 02 3d 20 7c 3f 3a b9 b5 ec 3c 48 dc da b7
       0.03181425 0.0007304568 0.028895246 -2.6090202e-05
000140 f4 44 1e bd 96 6e 4f 3d f4 06 1b 3c 8c 38 8f bc
       -0.038639978 0.050642572 0.009462107 -0.017483018
000150 2f e6 94 39 0d f5 54 3d 9e ca 39 b6 cb 32 07 bc
       0.0002840026 0.05199151 -2.7685087e-06 -0.008251856
000160 ce 76 c6 36 e8 ff 06 b7 f2 72 08 bd d9 21 c6 37
       5.9146905e-06 -8.046605e-06 -0.033312745 2.36192e-05
000170 93 b9 72 3d f2 68 02 b5 bd 7b f6 34 90 62 e8 bb
       0.05925901 -4.858149e-07 4.5911102e-07 -0.0070918277
000180 e8 e5 81 39 a9 15 98 3c b8 84 00 b8 9d 4a 1c b7
       0.0002477609 0.018565016 -3.0641182e-05 -9.315697e-06
000190 08 6a c4 38 2a eb 08 3c 33 33 94 b4 c5 ac 65 3c
       9.365758e-05 0.008356849 -2.76044e-07 0.014018242
0001a0 28 72 22 bd ff 50 b2 b6 a4 ff 36 37 b0 fb db 34
       -0.03965965 -5.3142426e-06 1.0907566e-05 4.0975056e-07
0001b0 87 84 39 3d cf 38 6c bc 0c ef 1a b7 f4 b8 c1 3b
       0.045292404 -0.014417841 -9.234773e-06 0.0059119407
0001c0 b7 c6 80 bd 43 79 64 b8 bb 56 67 36 03 30 ba 37
       -0.06287902 -5.447237e-05 3.4472166e-06 2.2195285e-05
0001d0 49 65 b2 bc 80 4a b2 3c db 1e f5 bb 52 d5 fd b7
       -0.021776812 0.02176404 -0.007480485 -3.0259285e-05
0001e0 d0 9a e7 37 42 6e 2d 3d 39 71 59 3d dc 1e 26 b6
       2.7609436e-05 0.04234148 0.053086493 -2.475389e-06
0001f0 78 c9 93 bc fb 1d 11 bd 7d 90 17 38 26 fb 99 bc
       -0.018040404 -0.035428982 3.613577e-05 -0.018796515
000200 53 14 b9 3c ed 73 04 bd 77 b2 9b b6 6d d1 65 bc
       0.0225927 -0.032337118 -4.640136e-06 -0.014026982
000210 27 80 03 3d 4c c7 32 37 be 20 71 3d 54 d1 8f 38
       0.032104637 1.0656029e-05 0.058869116 6.857762e-05
000220 78 6e e0 b7 fc cf f5 bc 5f 68 16 bd 09 ff 85 37
       -2.6754322e-05 -0.030006401 -0.03672063 1.5973596e-05
000230 3a 93 d4 36 60 23 cc bc 37 ea 84 b7 8e 8c 6b bc
       6.335232e-06 -0.024919212 -1.5844691e-05 -0.014376773
000240 78 66 03 3a 45 9b 24 bd bc c3 c9 3b 8d 7a 85 3c
       0.00050125225 -0.04018714 0.0061573666 0.016293788
000250 72 e8 53 38 d0 cd df bb ac 40 a7 3c ee 4b 66 bc
       5.05228e-05 -0.0068299547 0.02041658 -0.014056189
000260 8e 1c 8e 3d 3b d2 14 3a 5b f7 d4 bb f4 8c b1 37
       0.0693904 0.0005677079 -0.0064992136 2.116568e-05
000270 8a 47 ea b7 12 f0 01 3d d2 ff 6c b7 6b 84 16 3c
       -2.7928287e-05 0.03172309 -1.4126259e-05 0.009186844
000280 d6 3f 42 37 dc 32 7a 3b aa ff f2 37 82 cc 18 3b
       1.1578164e-05 0.0038177287 2.8967701e-05 0.0023315256
000290 ad 5c c0 bb 8c 70 df 3c d3 12 0a 3d 6c fc 71 37
       -0.005870423 0.027275346 0.03370936 1.4423491e-05
0002a0 8f d4 93 3c b5 1c e1 bc 4d 3f cb 37 0b fe 0f bd
       0.018045692 -0.027479509 2.4228963e-05 -0.035154384
0002b0 ef b6 bc b7 50 5a 07 b7 52 61 48 bd 94 84 8c bb
       -2.2496532e-05 -8.067655e-06 -0.048920937 -0.0042882655
0002c0 18 dc 56 37 ba 50 f6 bc bb 1b 05 b8 d5 a5 19 38
       1.2806639e-05 -0.03006779 -3.1735497e-05 3.6632486e-05
0002d0 46 ef 69 b6 79 2a bc 37 bd 83 71 b6 c2 a6 ad bc
       -3.485898e-06 2.2431124e-05 -3.598848e-06 -0.02119768
0002e0 d8 cf af 37 a7 92 2f 3b ce 84 1c 3d d3 7f 17 38
       2.095841e-05 0.0026790292 0.03821259 3.612025e-05
0002f0 5b 3b 85 3c b7 6a cc 37 2b 22 d8 bb 50 0b 2b 3d
       0.016263654 2.4368388e-05 -0.00659587 0.041758835
000300 64 0b 56 3d 8a ac a8 bb a3 77 c7 3c d2 8f c1 b7
       0.052256957 -0.0051475214 0.02434904 -2.3074364e-05
000310 9c b5 88 3c b0 fe be 3b aa fa 8f 3c 00 91 cc 37
       0.01668816 0.005828701 0.01757558 2.4386216e-05
000320 1c 2a 99 3c df 59 19 3d a6 d5 19 3c 32 5e 2c 36
       0.018696837 0.037439223 0.009389317 2.5684826e-06
000330 26 ae 70 bb 05 f2 8a b7 1c f9 b6 3c 2a 11 3e bc
       -0.0036724894 -1.6563581e-05 0.022335581 -0.011600772
000340 69 6f a7 b7 4a ed 9b 38 6f 65 79 3b 7c c5 60 36
       -1.995983e-05 7.4351745e-05 0.0038054844 3.3493552e-06
000350 f6 fe 64 3d c1 dc 23 b7 07 d9 e0 bc 23 06 2a 3d
       0.055907212 -9.766955e-06 -0.027447237 0.04150976
000360 c0 de e6 b7 ee 26 32 39 1a 43 f3 38 fc 43 36 bd
       -2.7521863e-05 0.00016989905 0.000115996416 -0.04449843
000370 85 de 23 3d 5e cb 80 37 a2 e8 84 b7 ef 8b dc b7
       0.040007133 1.535349e-05 -1.5843954e-05 -2.6291205e-05
000380 17 c8 18 b7 9d 88 f7 b6 9c 35 9b bc d8 e8 aa bc
       -9.106493e-06 -7.3770775e-06 -0.018946461 -0.020862982
000390 50 a2 1e b8 25 d5 c7 b7 b1 1d f2 bc 15 db 10 bc
       -3.78213e-05 -2.3821902e-05 -0.029555174 -0.008841296
0003a0 2c aa 7a b7 c9 e0 a7 3c 6a 2f 28 3d e2 cc 13 3d
       -1.4940782e-05 0.020492928 0.041060843 0.036084063
0003b0 09 1c 52 3c 13 4e 51 bd 79 3d 5a 39 b9 42 d0 37
       0.012824067 -0.051099848 0.00020813 2.4826602e-05
0003c0 c6 65 15 38 e8 34 07 38 1e 07 22 3d 73 84 f6 3c
       3.5619152e-05 3.223578e-05 0.03955757 0.030092454
0003d0 1a 1e 06 3a d0 a6 9f 3b d2 e9 74 bc 2d e8 e1 3c
       0.000511618 0.0048721805 -0.014948325 0.02757653
0003e0 31 76 a5 bc 1d 1b 1f bb c2 8b f1 37 2a b2 c9 bb
       -0.02019796 -0.0024277635 2.8794519e-05 -0.006155272
0003f0 0c e2 94 37 a4 20 12 bc 90 24 72 bc e5 42 8e bc
       1.7748236e-05 -0.008918915 -0.014779225 -0.017365882

fc2_lin.bias f4 [128]
000000 fa 92 3b 3d 84 03 ca bc 17 bf 30 b8 af 91 e1 3c
       0.045794465 -0.02465988 -4.2139636e-05 0.027535288
000010 81 de a0 bb 62 7c 3c bc 72 ce 6b b8 c5 6a a3 bd
       -0.004909337 -0.011504265 -5.6220633e-05 -0.07979349
000020 c0 4d 2d bd 76 e3 fa 3c 13 ba aa bc f0 a7 33 bc
       -0.042310476 0.03062604 -0.02084068 -0.010965332
000030 ba 02 d2 b7 0e 1c e0 39 13 a4 12 bd 1c 4f 13 3d
       -2.503522e-05 0.00042745512 -0.035801005 0.035964116
000040 68 ef fc 3c 7b b8 f2 3c 34 aa d9 bb a6 06 ea bc
       0.030875877 0.029628983 -0.0066426042 -0.028567623
000050 6e d8 0b bc 8c 21 fc 3c 13 3f 80 b8 5c e9 ed 3b
       -0.008535488 0.030777715 -6.115264e-05 0.0072604846
000060 cb 2e b9 3c 0e ec a7 bd 3a 4f 32 b8 7b b7 fc bd
       0.02260532 -0.08199321 -4.2512293e-05 -0.123396836
000070 bf 98 15 3d fb da da b7 79 96 e4 b7 30 3b 01 b8
       0.036522623 -2.6089596e-05 -2.7249787e-05 -3.081112e-05
000080 8c 28 0e be 16 da 94 ba 63 4d 0f bd 52 57 03 bd
       -0.13882655 -0.0011356499 -0.03498591 -0.032065697
000090 2e 54 f3 bc 69 19 c9 b7 d6 80 d8 b7 75 12 b6 bb
       -0.029703226 -2.39729e-05 -2.58092e-05 -0.0055563995
0000a0 3c b8 a5 3c 19 35 19 3d c6 2c 1e b8 5f fe 16 3d
       0.020229451 0.037404153 -3.7711834e-05 0.03686368
0000b0 eb 46 5e bc 2b 24 06 b8 ee 1a 99 b9 44 cd 47 3b
       -0.013566713 -3.1981774e-05 -0.00029202498 0.0030487338
0000c0 81 33 dc b7 e2 f7 d6 b7 72 79 ef 37 51 4a fd ba
       -2.6250027e-05 -2.5626217e-05 2.8547573e-05 -0.0019324516
0000d0 62 07 18 3d e0 49 5e bd 4e 4f b1 3c ff 5d 45 3d
       0.037116416 -0.05426967 0.02164426 0.048185345
0000e0 ab f6 bc 3c e4 69 3a b8 37 d1 0c 3d 76 5d 4a b8
       0.02306684 -4.4444474e-05 0.03437921 -4.8247595e-05
0000f0 80 b1 4a 3d e4 04 dd bd fb 76 4a bd 38 76 17 3d
       0.049485683 -0.107919484 -0.049429875 0.036977977
000100 03 50 91 bd a8 5f 11 3d 71 67 ed bc 0a 01 0d 3d
       -0.07095339 0.035491616 -0.028979989 0.03442482
000110 3f 51 83 bc 31 26 5c b8 48 d7 32 b8 86 a2 39 b8
       -0.016029952 -5.2487656e-05 -4.2639003e-05 -4.42588e-05
000120 b8 90 5a 3d 6a 46 81 bb d2 93 48 bd 68 d5 13 b8
       0.05336067 -0.0039451616 -0.048969097 -3.524628e-05
000130 4a 61 b5 bd 99 73 a1 bd f9 9c 2a b8 ed 3f 20 b8
       -0.08856447 -0.07883377 -4.067735e-05 -3.8206508e-05
000140 75 8d e2 bc 07 c4 ce 39 de 8e 0d b8 78 63 41 bd
       -0.027655343 0.00039437434 -3.3750075e-05 -0.047214
000150 58 23 78 bd 1d 40 cc 3c 1e 08 c6 bc 5b 03 c9 bd
       -0.06058058 0.024932915 -0.024173792 -0.09815093
000160 6b f8 40 b8 11 a8 8f bd ec 65 71 b8 84 eb 5b b8
       -4.6007724e-05 -0.07014478 -5.75538e-05 -5.243301e-05
000170 ea 2c 7c bd 98 ce e4 b7 fd af b3 3c 12 c9 9b 3b
       -0.06156627 -2.727592e-05 0.021934504 0.004754194
000180 b5 ca 82 b8 e2 49 2e 3d 4b f8 77 bd 4b 94 19 b8
       -6.23664e-05 0.04255093 -0.060539525 -3.661615e-05
000190 67 07 1e 3d a1 1e f2 b7 b0 f5 31 b8 7e aa 89 bc
       0.03858128 -2.886291e-05 -4.2428903e-05 -0.01680493
0001a0 23 cb 66 bb 4f 9b 06 b8 1a e2 96 b7 6f 80 bd bc
       -0.0035216294 -3.2092732e-05 -1.798668e-05 -0.023132531
0001b0 bf 13 20 b8 c9 3d 55 b8 d4 cf 35 3d 31 ce 9d bd
       -3.8165363e-05 -5.08407e-05 0.044387653 -0.077053435
0001c0 79 ae 25 3d 0f 21 22 3b 48 70 3e b8 ac f7 0f bd
       0.040449593 0.0024738943 -4.54041e-05 -0.035148308
0001d0 37 93 4e bc 9f 7f 2e b8 30 94 31 b8 59 fc 57 b8
       -0.012608341 -4.160369e-05 -4.23381e-05 -5.149501e-05
0001e0 ff 9d b7 bc 9c 5b 90 bc b0 a4 11 b8 6e bd 0a b8
       -0.022414206 -0.017621808 -3.472407e-05 -3.3078184e-05
0001f0 fe c0 84 3d fc 3e 0c b8 b2 c4 3f 3d eb 33 3f 3c
       0.06482123 -3.343726e-05 0.046818443 0.011670093

fc3_lin.weight f4 [64, 128]
000000 da dd 4c 3d d8 ad 62 3c ac 0e 83 b7 cb dd 35 3c
       0.05001626 0.013835393 -1.5623249e-05 0.011100243
000010 0a 77 1c bc 2a 49 fa bb 81 a9 21 b8 d2 41 ea bb
       -0.0095498655 -0.0076381164 -3.8543254e-05 -0.0071489597
000020 53 5b 0f bc b8 16 f4 3c 89 fc a1 bc 68 0b 05 bc
       -0.008749801 0.02979599 -0.019773738 -0.008120395
000030 23 7d 41 37 b3 ac a9 bc 81 ba 00 3d e4 a7 2e 3d
       1.1532832e-05 -0.020712232 0.031427864 0.04264058
000040 37 f7 6f 3c c1 0b c7 3c b8 b7 9c bc 9f 47 8a bb
       0.014646343 0.024297597 -0.019130573 -0.0042199637
000050 e1 94 64 bc 24 c6 77 3d 81 90 2d b8 00 dc 32 bb
       -0.013951511 0.060491696 -4.1380994e-05 -0.0027291775
000060 7b 4c 15 3d 80 a2 26 bd e0 c0 df b7 02 dc bb bc
       0.03644989 -0.040682316 -2.6673486e-05 -0.022932056
000070 7e e2 14 3d 0c 4a 89 b6 43 d4 6c 35 15 e4 4b 37
       0.036348812 -4.0915384e-06 8.822573e-07 1.2152847e-05
000080 8c 5a e2 bc 5b d2 96 b9 0a f0 85 bc 9f 3f 0e 3d
       -0.027631067 -0.00028766957 -0.016349811 0.034728643
000090 94 7b 85 bb cd 39 3c b8 0f d7 0b 38 37 f8 d6 bc
       -0.0040735696 -4.4876524e-05 3.334047e-05 -0.026241405
0000a0 66 ef 1e 3d e3 0e 08 3d 65 1c 3a b8 93 1e 63 3d
       0.038802527 0.033217322 -4.43723e-05 0.05544908
0000b0 23 d6 22 3d 8d 2c 1a 38 bb 55 60 3a 88 3e df bb
       0.039754998 3.6757952e-05 0.0008557697 -0.006812874
0000c0 c3 af ab b6 f0 e3 3d b8 0d 89 a0 b8 8e 96 22 3d
       -5.1166585e-06 -4.5273395e-05 -7.654922e-05 0.03969436
0000d0 cb 01 24 3d de 6c e9 ba a2 39 3b 3c 02 70 f4 3c
       0.040040772 -0.0017808934 0.011427315 0.029838566
0000e0 4f ae b4 3c 66 de 17 37 79 c6 15 3c 45 cc a3 b7
       0.022055773 9.0520825e-06 0.009141558 -1.9526235e-05
0000f0 71 ee f2 3c 23 f3 52 bd 31 e9 c4 bb e0 5e 9c 3c
       0.029654713 -0.051501404 -0.006009244 0.019088209
000100 4f 4b 9c bc 61 dc f4 3c ee 3c d9 3c 5e 70 c6 bc
       -0.019078879 0.029890241 0.026518311 -0.024223503
000110 1d dc be ba 94 87 70 b6 37 80 92 38 c4 99 2f b8
       -0.0014561448 -3.5841704e-06 6.9857044e-05 -4.1866457e-05
000120 9f bf 31 3d cb 86 d2 bc 36 26 aa 3a 65 dc 32 38
       0.043395635 -0.02569904 0.0012981358 4.2643765e-05
000130 e0 51 d2 3b 27 b9 42 38 1d 28 32 b8 8f 56 88 b7
       0.0064184517 4.642564e-05 -4.2475865e-05 -1.625277e-05
000140 e8 7f 1e bc 50 9b c7 3c ce 79 88 b6 de 63 29 bc
       -0.00967405 0.024366051 -4.067296e-06 -0.010338752
000150 31 27 d4 bc b5 86 89 3c f6 c8 90 bc 66 d4 60 bc
       -0.025897594 0.016787866 -0.01767395 -0.013722515
000160 10 ec 5c 38 b7 31 b0 bc b0 a7 b3 36 e5 41 e2 b5
       5.2671938e-05 -0.02150808 5.354137e-06 -1.685749e-06
000170 64 fa 0b bd 53 42 ed 37 f6 ba 1d bb 67 bf 63 3b
       -0.034174338 2.8283486e-05 -0.0024067736 0.0034751536
000180 ba e4 f8 37 95 3e 49 3d 7d 1e 78 bb e0 fa 9b 37
       2.9670413e-05 0.04913195 -0.003785997 1.8594263e-05
000190 75 a8 0b 3d ac f2 49 38 b1 5e f3 b7 b3 45 09 3b
       0.0340962 4.814814e-05 -2.9011951e-05 0.0020946085
0001a0 41 65 a3 ba ab 64 27 b7 e9 c8 55 38 80 96 1d 3c
       -0.0012466089 -9.977414e-06 5.097027e-05 0.0096184015
0001b0 38 f4 38 b8 ad 18 6d 37 22 01 57 3d 74 89 e1 b9
       -4.4096465e-05 1.4132046e-05 0.052491315 -0.00043017755
0001c0 ef 5f 4f 3d f4 f1 99 3a 55 f5 4b 38 32 2f 08 3c
       0.0506286 0.0011745081 4.8627455e-05 0.0083120335
0001d0 2b ad 48 3c b0 7c 19 b8 63 42 08 36 95 39 12 b8
       0.012248318 -3.6594167e-05 2.0304221e-06 -3.486274e-05
0001e0 c7 09 c8 ba 24 48 42 bd 28 26 e9 b7 67 bb c5 37
       -0.0015261703 -0.04743208 -2.7793532e-05 2.3571496e-05
0001f0 27 c7 00 3d b8 b9 28 38 d0 a3 a5 3d e8 e9 8c bb
       0.031439926 4.0227285e-05 0.080878854 -0.0043003447
000200 5d 3f 40 bc 84 4e 64 39 84 67 4a b5 cd 50 86 ba
       -0.011733857 0.00021773024 -7.54015e-07 -0.0010247469
000210 e4 83 f3 3c d4 b5 ab 3c 80 3f c3 b7 02 30 03 3c
       0.029725976 0.020960726 -2.3275381e-05 0.008007051
000220 da 85 3c 3d 3c be 17 bb 78 d4 08 3d 58 f9 22 3d
       0.04602609 -0.002315416 0.03340575 0.039788574
000230 79 d6 20 38 62 a8 90 3c 15 fd 95 bb bb 82 d4 bb
       3.8346716e-05 0.017658416 -0.004577289 -0.006485311
000240 d3 07 de bb 68 85 98 bb 28 f6 ef 3c c1 d0 b9 3c
       -0.006775835 -0.004654575 0.029292181 0.02268255
000250 62 fa da 3c cc 51 a4 ba 65 1d 57 b8 33 3b ab 3b
       0.02673072 -0.0012536584 -5.128737e-05 0.005225563
000260 96 fb 6e bb 14 b0 ef 3c 2f 27 1b 38 09 4a 37 3d
       -0.0036465875 0.029258765 3.6991372e-05 0.04474834
000270 5f 6e 19 bc f7 28 6c b5 7e 46 c2 b7 de c7 cf 36
       -0.009364693 -8.797646e-07 -2.3159428e-05 6.1923483e-06
000280 f3 49 39 3d 1d 8f 4f 3b 6e af d5 3c c2 1e 60 bb
       0.04523654 0.0031670996 0.026084628 -0.003419802
000290 1e 8f df 3c a6 f9 8b b7 27 56 1d 38 31 98 8e 3d
       0.027289923 -1.6686343e-05 3.7511953e-05 0.06962622
0002a0 2b 08 9d bb cb 3a 9d bb 30 56 26 38 f1 19 94 ba
       -0.0047922335 -0.0047982684 3.9657752e-05 -0.0011299235
0002b0 3c 17 e7 ba e3 7a fd b7 04 fa 25 b9 1b fa 93 3c
       -0.0017630826 -3.0217174e-05 -0.00015828764 0.018063596
0002c0 d8 5b 37 b7 30 25 46 b8 92 2c 10 38 a3 85 25 bb
       -1.0929034e-05 -4.7241512e-05 3.4373785e-05 -0.0025256656
0002d0 1b c5 f3 bb d9 71 4d 3c 82 d8 28 bc c6 bf 71 bc
       -0.0074392683 0.01253935 -0.010305526 -0.014755195
0002e0 2a ee 68 bb 82 d8 96 b7 78 49 12 ba 55 1d 23 b8
       -0.0035542347 -1.7982213e-05 -0.00055804057 -3.8889546e-05
0002f0 db ee ce bb f1 e2 c0 3c 7c 2b b1 3c 53 d5 63 bc
       -0.006315095 0.023545714 0.02162718 -0.013905841
000300 a3 70 c8 3c 0b 07 13 bc 31 83 40 bb bf 8f 32 3d
       0.024467772 -0.008973847 -0.0029375071 0.04359412
000310 02 42 34 3d bf 4e 2f 36 44 8f 5a b7 7b d4 ad b6
       0.044008262 2.6122868e-06 -1.3027169e-05 -5.1805378e-06
000320 7a b6 19 bc 12 a4 46 3c 88 8f ac bc d5 f6 44 b8
       -0.009381885 0.012124078 -0.021064535 -4.695992e-05
000330 03 5f b1 3c b1 ac 15 3d 18 c2 51 38 d1 09 28 37
       0.02165175 0.036541644 5.0010247e-05 1.0015866e-05
000340 45 0f 75 3d ef 51 77 bb 96 ae d5 36 48 d4 1f 3c
       0.059829015 -0.0037738045 6.368219e-06 0.009755202
000350 2b 13 e5 3c e7 d3 5b bb f5 ee 59 3d d7 68 e1 3b
       0.027963242 -0.0033543052 0.053206403 0.006878953
000360 86 cc 89 37 87 90 b7 3c 03 cd 33 b5 f0 2f 49 b7
       1.6426911e-05 0.022407783 -6.698103e-07 -1.1991695e-05
000370 99 c2 09 3c 73 c8 50 b7 24 32 6e 3c 4e e8 8b ba
       0.008408212 -1.2444437e-05 0.014538322 -0.0010674091
000380 5e c5 34 b8 e6 de 19 36 07 bf 45 3d 3e e8 f5 b7
       -4.3099157e-05 2.292852e-06 0.04827788 -2.9314422e-05
000390 ce 7e 3b bb dc 8c ee b7 37 31 bd 37 0b 8a 82 3c
       -0.0028609517 -2.8437404e-05 2.2553473e-05 0.015934965
0003a0 5c 87 df 3a 68 d2 36 38 db 6b 2a 37 70 ab 04 3d
       0.001705389 4.3588137e-05 1.0157902e-05 0.032390058
0003b0 65 91 f2 b7 74 3e c5 36 d5 4b e3 bb 2d e8 20 3c
       -2.8916353e-05 5.878328e-06 -0.00693653 0.00982098
0003c0 e1 67 17 bc bf e3 84 b9 64 13 62 b6 94 64 c5 b9
       -0.009241075 -0.00025346686 -3.368791e-06 -0.00037649705
0003d0 3a 2f 88 bb 35 57 df b7 94 96 49 b8 96 57 47 b8
       -0.0041560205 -2.662428e-05 -4.806237e-05 -4.7526868e-05
0003e0 95 24 63 3c e3 e8 83 3d 3d 15 e0 37 70 f8 50 37
       0.013863702 0.06440904 2.671277e-05 1.245561e-05
0003f0 c8 5d 2b bc 05 8d 03 38 16 0f 56 bb 51 26 4e 3c
       -0.010459371 3.136417e-05 -0.00326628 0.0125823775

fc3_lin.bias f4 [64]
000000 73 60 de 3c c2 b4 c6 3b fd a8 59 b8 df 02 3a 3d
       0.0271456 0.0060640285 -5.1894214e-05 0.045412894
000010 ac a8 51 3b ff 52 4b b8 a4 e2 cb 3d aa 0b b0 3d
       0.0031991405 -4.8476268e-05 0.09955338 0.08595975
000020 1e 8b 96 bb d8 d8 60 3d 34 e2 83 bd 11 38 e6 3d
       -0.004594221 0.0548943 -0.06439629 0.112411626
000030 25 bd 1f bc 79 ef 96 bc b3 fa 78 3d 07 47 c8 3c
       -0.009749685 -0.018424736 0.06078596 0.024447931
000040 5d 26 bc bd 63 ba 11 be d3 ea c8 3c f4 e5 44 bd
       -0.09187005 -0.14231257 0.024526035 -0.048070863
000050 02 f1 2f be 1f 95 01 3d 24 bd c7 b8 69 6d cb 3d
       -0.17181781 0.031636354 -9.5242896e-05 0.09932978
000060 15 db f2 3c 5e 15 4d 3d 75 7b 89 3c 81 69 96 3d
       0.029645482 0.050069205 0.016782502 0.07344342
000070 d4 6f 15 be 2f 47 d4 3d 4a de c0 3d f2 33 9d 3d
       -0.1459344 0.1036514 0.09417398 0.076759234
000080 fa af c7 3b 8c ce 9d bb c3 10 97 bb ce b1 b2 3d
       0.006093976 -0.004815882 -0.0046101524 0.0872532
000090 86 8a 54 3d 75 f1 ba 3d b9 96 a6 3d 2a dc eb 3d
       0.05188992 0.091280855 0.08134217 0.11516602
0000a0 31 70 42 3d 55 39 e4 bd 95 8a 16 3d c7 4f 2a bc
       0.047470275 -0.11143748 0.036753256 -0.010394997
0000b0 82 23 5c 3d 5a 18 44 bc c2 61 d5 bc d2 44 47 bd
       0.0537448 -0.0119686965 -0.026047591 -0.048649617
0000c0 2d 6c de 3d ab 14 b1 bd 2e cd 3f 3d 79 99 42 b8
       0.10860477 -0.0864652 0.046826534 -4.6396137e-05
0000d0 3e bb 5f 3d de 29 a3 3d e2 69 b9 b8 98 3e 1d bc
       0.054621927 0.0796697 -8.84121e-05 -0.009597443
0000e0 e1 ac db bc be 47 bd bc 2d 68 27 3d 46 dc f9 3d
       -0.026815834 -0.023105498 0.040870834 0.12200217
0000f0 8e 27 01 ba 9a 32 4f b8 45 13 ab ba 1a 0e eb 3d
       -0.00049268536 -4.9399772e-05 -0.0013052007 0.11477299

fc4.weight f4 [2, 64]
000000 0b e8 ea 3d e0 97 f6 bd 29 72 28 38 3e 91 80 3d
       0.1147004 -0.120406866 4.016064e-05 0.06277703
000010 bd 26 c0 bd 9b 0e 9e b8 d9 54 16 3e 7e 13 36 3e
       -0.09382389 -7.5367476e-05 0.14680804 0.17780873
000020 ad c9 a0 bd 1c bc 0c 3e 69 dc b7 bd 93 8c 17 3e
       -0.078509666 0.13743633 -0.08977587 0.14799719
000030 6c ba 93 bd f0 4c c6 bd 6b 82 18 3e ec 32 80 3d
       -0.072132915 -0.096826434 0.148935 0.062597126
000040 c7 cb 10 be 85 e6 15 be 5b 4a 85 3d 3c 8e 8b bd
       -0.14140235 -0.14638717 0.06508323 -0.068142384
000050 f7 d0 3d be 5c 7d b3 3d 08 e3 a0 37 25 bd ff 3d
       -0.18536745 0.08764145 1.9179206e-05 0.12487248
000060 f3 c4 4c 3d 47 a5 22 3e 6d 53 b1 3c e0 fd 12 3e
       0.049992513 0.15883361 0.021646226 0.14354658
000070 4e 4a eb bd 48 40 1e 3e 7c d1 22 3e 53 f7 22 3e
       -0.11488782 0.15454209 0.15900224 0.15914659
000080 b3 af e8 bd 29 0e 0b 3e b0 d7 dc bd c8 4c cf 3d
       -0.11361637 0.1357962 -0.107833266 0.10122067
000090 a9 14 02 3e 1e 15 4d 3e 53 26 10 3e e4 d4 05 3e
       0.12703194 0.20027587 0.1407712 0.13069493
0000a0 1a aa 42 3e 1a 14 d0 bd a5 8c c3 3d b0 aa d1 bd
       0.19010201 -0.10160084 0.0954831 -0.10237634
0000b0 03 82 0c 3e fe 7e 05 be 00 a0 3b bd 9c 0e 7e bd
       0.1372147 -0.13036725 -0.045806885 -0.06202565
0000c0 05 2c 44 3e 83 ab 18 be 17 55 ac 3d 3e e8 46 37
       0.19157417 -0.14909177 0.08414667 1.1855793e-05
0000d0 fb 0b 38 3e fe 1e 10 3e 25 19 5b 38 c4 c7 e5 bd
       0.1797332 0.14074323 5.2237086e-05 -0.11219743
0000e0 ec 60 e3 bd 30 9d 02 bd 97 7f b6 3d 4b 25 32 3e
       -0.11102471 -0.031888187 0.089110546 0.17397039
0000f0 3a 75 d5 bd 8b e2 d6 38 a1 72 16 ba a1 95 41 3e
       -0.1042275 0.00010246512 -0.0005739127 0.18904735
000100 92 d9 ea bd 07 80 f6 3d 20 a0 3f 38 ea 89 80 bd
       -0.114672795 0.12036138 4.5687077e-05 -0.06276305
000110 ab 0b c0 3d 04 59 42 b8 a2 44 16 be 17 09 36 be
       0.093772255 -4.6336107e-05 -0.14674619 -0.17776905
000120 39 bb a0 3d e6 af 0c be 5c db b7 3d c7 8e 17 be
       0.0784821 -0.13738975 0.08977386 -0.14800559
000130 b9 b6 93 3d 52 3c c6 3d c5 84 18 be eb 13 80 bd
       0.07212586 0.09679474 -0.14894398 -0.06253799
000140 10 b7 10 3e d7 ec 15 3e 32 49 85 bd 44 54 8b 3d
       0.14132333 0.14641128 -0.065081015 0.06803182
000150 a2 ca 3d 3e 9d 96 b3 bd 3a 81 8c b8 0b 9b ff bd
       0.1853433 -0.087689616 -6.6997905e-05 -0.12480744
000160 53 60 4c bd 9c b1 22 be ac 4a b1 bc a5 12 13 be
       -0.04989655 -0.15888065 -0.021642052 -0.14362581
000170 6c 32 eb 3d e2 37 1e be 86 d8 22 be 2b f8 22 be
       0.114842266 -0.15451005 -0.1590291 -0.15914981
000180 4c 9e e8 3d 64 1e 0b be 23 d4 dc 3d 15 70 cf bd
       0.11358318 -0.13585812 0.10782649 -0.101288
000190 da 23 02 be f0 1e 4d be 66 28 10 be 12 d5 05 be
       -0.12708989 -0.20031333 -0.14077911 -0.13069561
0001a0 aa 84 42 be b5 16 d0 3d e9 66 c3 bd 17 b7 d1 3d
       -0.1899592 0.10160581 -0.09541113 0.1024
0001b0 eb 84 0c be 23 7c 05 3e aa d6 3b 3d 50 45 7e 3d
       -0.13722579 0.13035636 0.045859016 0.06207782
0001c0 60 3c 44 be 3b 9b 18 3e 49 1e ac bd d4 32 42 38
       -0.19163656 0.14902966 -0.08404214 4.630054e-05
0001d0 57 f8 37 be 54 2e 10 be 2f b7 b8 b6 ff d2 e5 3d
       -0.17965828 -0.14080173 -5.5049527e-06 0.11221885
0001e0 25 71 e3 3d c0 ac 02 3d ab 45 b6 bd b3 3b 32 be
       0.11105565 0.03190303 -0.08900007 -0.17405586
0001f0 75 a8 d5 3d 90 af 1d 38 79 eb 08 3a e4 8d 41 be
       0.10432521 3.7595222e-05 0.00052230764 -0.18901783

fc4.bias f4 [2]
000000 a3 af 9f 3f cd ad 9f bf
       1.2475475 -1.2474915
