AutoBalance/results/tvarit_wheel/New_Experiments/test_big_data/dyly_LA_init/1/epoch_250.pth (torch, 236623 bytes, 8 tensors)

weight f4 [256, 64]
00000000: 5e7c b7bd 5b7b 9f3d c344 0bbd b380 b3bd
00000010: 4a82 b2bd f065 4b3d 9574 ecbd e201 263d
00000020: 68dc 82bc dc2e d43d 6f34 e33d e253 a23b
00000030: 1280 94bd da82 a33d 1885 fe3c e0ac 23bc
00000040: 1f03 fb3d e0a6 a0bb 484d 23bd 9f54 913c
00000050: 0ec9 ce3d 5658 d0bd c249 aebd 003f a8bc
00000060: 06ad c8bd 12af db3d 580c be3d 5db6 e33d
00000070: 4c8d 943d a6e0 ac3d 46c5 e6bd 0cb3 ca3d
00000080: 4bac b5bd 6896 efbc f0be 4abd 858e 64bd
00000090: 5ebb 863d 271e 6c3d b016 91bd 5efb d5bd
000000a0: 5fbf 003d d802 a83d b50e 043d 10d2 d8bc
000000b0: 584d 45bd 931b 893a 08e7 4e3d 8884 333d
000000c0: 16e2 debd 7123 6fbd 20cc ca3c 58f5 f23b
000000d0: fa3d edbd fad5 863d 589b 153b 7402 64bd
000000e0: 34eb d3bd dc9f 07bd 0105 d13c d710 63bd
000000f0: 1ee9 c3bd dd81 d9bd e567 2bbd 78e6 a9bc
00000100: 4c90 0ebd e64f 8c3c b19e b9bd 26d2 bb3d
00000110: 5aca a73d 95dc dcbd 63d4 983d 47c1 c03d
00000120: 14d0 53bd ae18 333d 3b06 473b f218 05bd
00000130: 9ed6 aebd db84 adbd e7bc 23bb bbd3 1abc
00000140: d390 7dbd fbcb 64bd 9280 d7bd 5f3c a33c
00000150: 3cd3 1dbd a432 a1bd 77ee a1bd d1bc eebd
00000160: 58b6 0abd eb37 5dbd 90d2 b0bc 6bc7 67bd
00000170: a0f5 0cbd 3529 193d 0196 87bc 629d dd3d
00000180: 0046 913d 554b fa3d 869d bf3d 8cba 993d
00000190: fe37 c4bd fa72 a73d f8f0 cabc 2500 1cbd
000001a0: 6bbf 62bd e344 ad3d 7677 e6bd 70d5 dcbd
000001b0: 2fc4 d33d ee9a a7bc 1a1e a33d e4e2 713d
000001c0: f78c 06be d260 783d 4877 86bd 0350 b73d
000001d0: 2c4b be3d 229c bfbc 0347 a73d 00d7 153d
000001e0: 28a2 ad3c 48e1 37bd 8c77 26bc f913 47bb
000001f0: de1c 98bc 228d c5bb fe34 97bd 549d 13bd
00000200: 6ef0 f93d e2ad 683d eebb e73b 080a cd3c
00000210: f60c 883d e15b 99bd 22f1 e7bd 8924 afbd
00000220: 3073 3a3c d6b5 c9bd 3fdf f43d f8ed a03d
00000230: bcdc 0ebd a623 e53d b0a7 5c3d 50d4 493d
00000240: 45dc b2bd d0c1 e13d d090 9d3d f6a3 9dbd
00000250: d07c 593c 2693 b3bd 81b5 363d be52 bfbd
00000260: a0d4 63bd 2c76 103d 282e f5bd c1d9 a8bd
00000270: d845 4bbd 3209 fa3d 104b 8c3d d98f a7bb
00000280: 4f30 86bc 35f3 be3d c46e 2cbd a850 a1bd
00000290: 3090 fabc 1326 6abd 60e9 123d fd5e 063d
000002a0: eb45 233d e4f5 d7bd 5443 293d bca0 5bbd
000002b0: d46f 6abd 1901 3e3a 04a0 e53d dafe f23b
000002c0: 4a1e 643c fbb6 f33c 5bbd 98bc 6298 dc3d
000002d0: 2dee 39bd 50f0 a3bc f001 d93d d454 cb3d
000002e0: f0c1 85bd 3548 26bd 3f6a 363c 84ed 833c
000002f0: 2cbe 383d 96e0 8b3d edb5 fabd 88c8 9a3d
00000300: 3987 febd 0447 bc3d 88b9 edbd 6bf1 b4bd
00000310: b43b c3bb 683e afbd 04ad 863d 19ae 513d
00000320: 2003 7c3d c80a d43d d0e3 9a3d 5249 babb
00000330: f495 28bd 30cc 673d ba59 e73d 0449 c33d
00000340: 4dd4 aeba 1021 e7bd eab1 c83d efab 7d3d
00000350: 1831 6ebd 0d00 93bd c3c3 0f3d 10a8 c0bc
00000360: d01d 04bc 42cb de3d 5b21 efbc 580c cebd
00000370: e4d0 05bd 50e7 f73d 79b9 b7bd 2052 a9bd
00000380: df81 7abd 6b5d a1bd 9006 f2bb 449e fabd
00000390: 7e3a 83bd 6025 a43c 9cc0 1c3d d4bf 43bc
000003a0: 62b6 f63d 8ae7 373d a86a a8bd 48b7 eb3d
000003b0: d408 cabd e8f0 d9ba 5485 d5bd e2c1 f6bd
000003c0: e919 b13d 2bcd b1bd 6af7 493d a0ed 333d
000003d0: 6fbf d6bd db08 2f3d 6e16 7f3d 18b5 c53c
000003e0: b02f 4a3c 5cb6 d4bd 2094 14bd 634f d93d
000003f0: dc50 e3bc e3be 32bd ce95 6ebd c2c1 edbd
-0.08959268 0.077872 -0.034001123 -0.08764782 -0.08716257 0.049657762 -0.11545674 0.04052914
-0.015974239 0.103605 0.11093985 0.0049538473 -0.0725099 0.07983942 0.031069323 -0.009989947
0.12256455 -0.0049027056 -0.039868623 0.017740546 0.10096942 -0.10173099 -0.08510162 -0.020537853
-0.097986266 0.107267514 0.09279698 0.111187674 0.07253513 0.08441286 -0.11268096 0.09897432
-0.08870753 -0.029246524 -0.0494985 -0.05579998 0.06578706 0.057645943 -0.070844054 -0.10448335
0.031432506 0.082036674 0.03224059 -0.026467353 -0.048169464 0.0010460488 0.050513297 0.043827564
-0.10882966 -0.05838341 0.024755538 0.007414501 -0.11584087 0.065837815 0.0022828188 -0.055666402
-0.10347596 -0.03311144 0.025515081 -0.05543598 -0.09565948 -0.106204726 -0.04184713 -0.020739779
-0.03480558 0.017127942 -0.09063471 0.09170942 0.081928924 -0.1078426 0.074623846 0.09411865
-0.05171211 0.04372471 0.0030368704 -0.032494493 -0.08537029 -0.08472606 -0.002498442 -0.009449895
-0.061905693 -0.055858593 -0.1052257 0.019926248 -0.038531527 -0.07870987 -0.07906812 -0.116571076
-0.033865303 -0.054008406 -0.021584779 -0.056586664 -0.034413934 0.037392814 -0.01655102 0.10821034
0.070934296 0.122214 0.09356217 0.07506284 -0.09580992 0.08176227 -0.024773106 -0.038086075
-0.05535833 0.08460405 -0.11253254 -0.107828975 0.103401534 -0.020459618 0.07964726 0.05905427
-0.13139711 0.06063921 -0.0656572 0.08950808 0.09291682 -0.02338988 0.08167841 0.036581993
0.021195486 -0.04489258 -0.010160338 -0.0030376895 -0.018568452 -0.0060287872 -0.07383154 -0.03603871
0.122040614 0.056806453 0.0070719635 0.025029197 0.06643097 -0.07488228 -0.11325289 -0.085518904
0.011380002 -0.098491356 0.11956643 0.07857889 -0.034878477 0.1118844 0.053870857 0.049274743
-0.08733419 0.11023295 0.076936364 -0.07697289 0.0132743865 -0.08768301 0.04460669 -0.09341954
-0.055622697 0.035268947 -0.11971694 -0.08244658 -0.049627155 0.12208785 0.068502545 -0.0051135835
-0.016380457 0.09323732 -0.04209782 -0.07876712 -0.030586332 -0.057165217 0.035867095 0.03280543
0.0398616 -0.10544947 0.041323975 -0.053620085 -0.057235554 0.00072480884 0.11212161 0.0074156346
0.013923237 0.029750338 -0.01864498 0.10771252 -0.045393158 -0.02001205 0.10596073 0.09928289
-0.06531131 -0.040596206 0.0111337295 0.016104467 0.045103237 0.06829946 -0.12241731 0.075577796
-0.124281354 0.09193233 -0.11607653 -0.08835109 -0.005958045 -0.08556825 0.06575969 0.051191423
0.061526418 0.10353619 0.07562983 -0.00568501 -0.04115863 0.056591213 0.11296411 0.09535411
-0.0013338417 -0.11285603 0.097995594 0.061931547 -0.05815229 -0.07177744 0.035098802 -0.023517638
-0.0080637485 0.10878612 -0.02919071 -0.10060948 -0.032669917 0.12104666 -0.08970923 -0.08267617
-0.06115901 -0.07879146 -0.007386036 -0.12237218 -0.06407641 0.020037353 0.038269624 -0.011947591
0.120465055 0.044898547 -0.08223468 0.115095675 -0.09864965 -0.0016627582 -0.10425821 -0.12048699
0.0864752 -0.08681711 0.049308218 0.04392779 -0.10485732 0.042733055 0.06227725 0.024134204
0.012340471 -0.10386345 -0.036274076 0.10610845 -0.027748518 -0.043639075 -0.058248334 -0.11609222

bias f4 [256]
00000000: ae91 c7bd 8998 423d 8f1a fbba 4898 4a3d
00000010: 5e68 8dbd 41b7 ed3d 989f e93d 56da 7abd
00000020: 688a 5bbd a011 bcba 1e1c 313d b264 91bd
00000030: 71be 143d 69ad 43bd 708c 503d ead8 f23c
00000040: aff3 a03d 12cd ab3d 462b ecbd 2348 87bd
00000050: 2867 ae3c de69 85bd bfe9 97bd 68ea 893c
00000060: 237a 9a3d 5e81 0a3e acb8 0e3d 560f c0bd
00000070: 08cc a5bc a13d 003c 0cd3 f3bd 1bfa 603d
00000080: 7463 f33d c071 1fbd 5c1e 00bd 2104 a53b
00000090: 2822 f83d e4ca 7cbd 8f3e 5d3d e21c 013e
000000a0: b5ab 123c 89a2 f8bd bf1a 623d 5770 243d
000000b0: 8d7e 923d c72d be3c fd1e 56bd 7696 a93c
000000c0: 2de9 8abd 3aed e13b fa2b 08bd 1fdd 8f3d
000000d0: d20f 5d3c 919f d6bc 9868 32bd 52a2 95bd
000000e0: f1e3 d5bd 7d97 bd3d abe8 91bd bb37 763d
000000f0: 273c 2e3d 586b 58bd eab8 f53c 1089 f33c
00000100: c0e3 8ebc 7a6e c03d 52e2 173d 2db6 eabd
00000110: 5533 26bc 82ca f2bd 149f f4bd b756 463c
00000120: 23f9 9dbc 7879 88bd 051d b9bd 3a25 5bbc
00000130: c41d 99bd 0761 d43d 1755 e3bc a760 063c
00000140: 4019 cb3d a130 b3bd 549c 19bc ee7a 88bd
00000150: ff3e e4bc b10c e7bd 50ee f03c 0c2b a23d
00000160: 6ae2 6bbd 034c e73b 505a a03d 9a34 aabd
00000170: a216 a23d 854f 383d 8a58 dcbd d8da e2bd
00000180: 66d8 eb3d 5866 d83d da8c 91bd 28e9 20bd
00000190: e745 e43d c30f aa3d a34e 09bb bc69 e2bd
000001a0: 4a2b cbbd f1de 483c f92a 133e bea7 febd
000001b0: 69fc d53d 83ce a83d 510c 8f3a 8dac 683d
000001c0: 6b8b 843d 10f0 a5bd 938b bd3d d6c7 0b3e
000001d0: b02f 63bd 0104 6e3c a27b fcbd 3194 b7bc
000001e0: 265a a8bd b218 e0bd 7b36 f4bc b8ed b83c
000001f0: cfea 56bd c931 a6bd f72d 2fbc 36c0 cbbd
00000200: fdc1 863b 256b 8ebd aa07 a03d 2648 c6bd
00000210: f4e2 b73d 89fa 033e 7de0 c23d ded8 c1bd
00000220: dacf cdbd c3d7 b6bd 8ad0 04bd e7e5 ddbd
00000230: 3500 763d eff3 b73d 565f 9cbd af81 933c
00000240: 9638 cdbd 574a 203d be1f 89bd f427 c4bd
00000250: 3844 a83d c337 f33d 41aa 793c 3297 b8bd
00000260: 5869 2cbd a1c8 6fbd 14fb 0abd 6571 90bd
00000270: d769 abbd 4dee c2bd cc38 323c 289e e43c
00000280: 104e d9bc 31cf 26bd a6f8 ad3d 9059 213e
00000290: 6855 1abd 4ee4 063e 1ee4 b6bd e941 3cbd
000002a0: 121e fd3d bae2 953d e578 c13d a6d0 443d
000002b0: 49aa b63d 56d1 b13d 500e efbd 283f 0bbd
000002c0: 30fc 3cbc 9958 ac3d 8cb7 9abc b0a5 093e
000002d0: edf9 a5bd e479 99bc 0358 a4bd 39e3 efbd
000002e0: 8f34 0cba 79fa 9cbc a98f b43d b582 a9bc
000002f0: 2ad6 6e3d b3d1 be3d c00f ca3d ec6c 57bd
00000300: b6b4 f63d 900f 4ebc ecba 013a aa3e d2bd
00000310: 57e0 bc3c 89e8 f3bc 680a 8c3b 2b2a babc
00000320: bed4 93bb 0f0a a5bb 1c92 3a3c 4ace 57bd
00000330: 1408 4e3d aaf7 983c f90c 18bd 35f7 b63c
00000340: 36d6 08bd 04a5 cc3d 259f 9bbd 202c 3d3c
00000350: 10ac c6bc c7ff 2cbd ec1b b33d 8eb6 a2bd
00000360: d459 ca3c ad28 1f3b aef2 023c 4fef e2bd
00000370: a9f0 f63d 1e81 42bd c874 59bd a76a 923d
00000380: 448b a23d de63 3bb9 c791 c4bd 7f9f febc
00000390: 258b b53d 9896 633d a579 f93d fb75 5bbc
000003a0: 76ac 39bc b64f f83b d8f0 febd 5d3c 87bd
000003b0: 126e 7a3d 9da1 013c 0a16 e53c 8f29 8f3d
000003c0: b45c 3abd 19a9 3dbd a0ed d5bd 3498 213c
000003d0: b87f d4bc 12a1 f4bd 0a80 eebd 86c2 29bd
000003e0: 71ff d0bd 1c81 ff3d 616d a33d 44d7 e4bd
000003f0: 8877 b1bc 262c fdbd f17a c13d 44ec 29bd
-0.09744583 0.04750875 -0.0019157695 0.049461633 -0.06904672 0.116072185 0.11407393 -0.061243378
-0.05359879 -0.0014348514 0.043239705 -0.07099284 0.03631443 -0.0477728 0.05091518 0.029644448
0.07858979 0.083887234 -0.11531691 -0.06605556 0.021289423 -0.06514333 -0.074176304 0.016835406
0.07542827 0.13525912 0.034844086 -0.09377925 -0.020238891 0.0078271935 -0.11905488 0.05492602
0.118842036 -0.03892684 -0.031278953 0.0050358926 0.1211589 -0.06171693 0.05401474 0.12608674
0.008952071 -0.12140376 0.05520129 0.040146198 0.07153044 0.023215188 -0.052275646 0.020701628
-0.06782756 0.0068947347 -0.033245064 0.070245974 0.013492541 -0.026199134 -0.04355678 -0.07306351
-0.10443867 0.0925741 -0.07124456 0.060111742 0.042537834 -0.052836746 0.0299954 0.029728442
-0.017442584 0.09396072 0.03708107 -0.114605285 -0.010144074 -0.118550315 -0.11944404 0.012105635
-0.019283837 -0.06663793 -0.09038738 -0.013375575 -0.074763805 0.10370069 -0.027750535 0.008201755
0.099169254 -0.087495096 -0.00937565 -0.06664072 -0.02786207 -0.112817176 0.029410511 0.07918367
-0.057588972 0.007058622 0.07829726 -0.08310814 0.07914473 0.04499771 -0.10759075 -0.110768974
0.11515884 0.105663955 -0.071069434 -0.039284855 0.11146145 0.083037876 -0.0020951412 -0.110553235
-0.09920366 0.012260185 0.14371862 -0.12434338 0.10448534 0.08242514 0.0010913705 0.056805182
0.06471904 -0.08102429 0.09255137 0.1365045 -0.0554654 0.014527322 -0.123282686 -0.02240953
-0.082203194 -0.1094221 -0.029811135 0.02257429 -0.052470025 -0.081149645 -0.010692111 -0.09948771
0.0041124807 -0.0695403 0.07813962 -0.0968173 0.08978835 0.1288854 0.09515474 -0.09465192
-0.1004941 -0.08927872 -0.03242544 -0.10834866 0.06005879 0.089820735 -0.076353714 0.018006174
-0.100205585 0.039133396 -0.066955075 -0.09577933 0.08216137 0.1187587 0.015238346 -0.09013213
-0.04209265 -0.058540944 -0.033930853 -0.07052878 -0.08369797 -0.095181085 0.010877799 0.027907446
-0.02652648 -0.040724937 0.084946916 0.15756822 -0.037679106 0.13173029 -0.08930229 -0.045961294
0.12359251 0.07318635 0.09446887 0.048050545 0.08919198 0.08682506 -0.11672652 -0.033995777
-0.011534736 0.08415336 -0.01888635 0.13442111 -0.0810431 -0.01873488 -0.080245994 -0.11713261
-0.0005348408 -0.019162403 0.088164635 -0.020692209 0.05830971 0.09317341 0.09866285 -0.05259411
0.120461866 -0.012576953 0.0004948813 -0.102658585 0.023056192 -0.029773967 0.0042737015 -0.022725185
-0.004511445 -0.0050365995 0.011387374 -0.052686967 0.050300673 0.018672783 -0.037121747 0.022334674
-0.033407412 0.09992412 -0.07598714 0.011546165 -0.024251968 -0.042236116 0.0874556 -0.07944976
0.024701037 0.002428572 0.00799243 -0.11080801 0.12057621 -0.047486417 -0.053089887 0.071492486
0.07936719 -0.00017870913 -0.09598117 -0.031081913 0.0886443 0.05556354 0.12181405 -0.013394828
-0.011332622 0.0075778617 -0.12448281 -0.0660331 0.061140127 0.007912067 0.02796461 0.069903485
-0.045498565 -0.046303842 -0.10445714 0.009862948 -0.025939807 -0.11944784 -0.11645515 -0.041445278
-0.102049716 0.124757975 0.07979847 -0.11173871 -0.021663442 -0.12361936 0.09447277 -0.041485086

weight f4 [128, 256]
00000000: c266 c8bc 4c63 7dbc 28d1 633d 4f14 1dbd
00000010: bc22 2d3d 9e4c b8bb 253c af3c 8ff1 4abd
00000020: 3a57 1d3d d408 643d ccbe 0cbd f023 493d
00000030: 3008 9dbc a512 31bd ea99 293d a2a6 803d
00000040: 260d 403c ca46 713c ae3d 433d fffa 45bc
00000050: 96d8 54bc 78d4 193d 9364 47bd fa4e 763d
00000060: 09fa 6fbc b7cd 8c3c d7c9 083d d093 023b
00000070: 1653 7e3d 143f 333d 4a7d 16bd 802d 0ebc
00000080: 8019 01bd ec2e 27bc bdd8 2b3d aad9 4a3d
00000090: 19ed d4bc 10ca 01bc 41f1 58bc 2d7f eabc
000000a0: e77c 4abd ee65 553d b300 763b 0da1 493d
000000b0: e810 413c 9826 ddbc 9ecb 9dbc 366c ae3c
000000c0: 1ece ea3c 55cf 203d c831 6abd 43f2 a9bc
000000d0: 8008 263d e822 d7bb a2c6 f83b 0c46 d3bc
000000e0: d79d 3fbc 7ac5 f43c 6d81 33bd 378d 3c3d
000000f0: 302d f5bb f2a8 5c3d 50ae 4e3d 37c6 4cbd
00000100: c03f 883c 4825 673b d368 e93c 17a5 a9bc
00000110: c361 443b 0c35 933c 8cd7 6a3d bf25 2abd
00000120: 2039 f9bc 23c4 63bd 1c95 753b 1400 52bd
00000130: 3901 a1bc b465 793d 7197 613d 63d3 d2bb
00000140: aa27 19bd 77a4 3f3d f75d 5a3d dc7e 30bd
00000150: 28f7 4d3a 2696 44bd f797 92bb e17d 9ebb
00000160: 1146 783d ea44 9c3c d190 35bd 4963 2f3d
00000170: 3442 973c 1037 493d 50bd 503c de9c 6d3d
00000180: b4d5 bfbc 4333 dc3c a664 7c3d 88a8 32bd
00000190: abbd 643d ae06 b7bc 5c68 6bbc 30d5 eb3b
000001a0: 945f a1bc f2e3 c13c 8f47 5f3d 401c 37bd
000001b0: 46a5 a33c 0f5c 61bd a17e 49bc 4214 773d
000001c0: a460 233b 0d0a 7b3a e9d8 8bbb 1d5e 3cbd
000001d0: e1c3 e43c d969 c8bc a9bd 6fbd a0b2 15bc
000001e0: 58ba 45bc 0bd5 dc3c b8a7 c1bc c711 adbc
000001f0: ae94 9e3c bcd9 753d 9738 78bd b82b 2e3d
00000200: e1ad b9bc 1ee2 283d 2f7e a4bc 60dd 783c
00000210: 9976 6a3d 7458 783c 13a0 02bd c8f7 2abd
00000220: c5e7 83bc d063 b63a d113 413c dcdc f7bb
00000230: ceb7 1e3d 2bcf 32bb 3647 d3bb e1dc c5bc
00000240: 263a 59bd 3e43 94bc 59ae 253d 0363 1b3d
00000250: 982c 13bc b7f5 c2b9 e586 233d 4ab3 6dbd
00000260: 1888 573d 1617 b0bc 2dbd 233d c1d5 c6bc
00000270: ead4 b33c 1c82 2b3d 1f41 453d 59e7 243b
00000280: bc46 903c a6fa d2bc 9adc 393d 127a d43c
00000290: 015f 1bbd afdb 8bbb 011e 113d 8f40 d53c
000002a0: ec93 e93c 2a1a 9a3c 4d81 7c3d 9c67 4c3d
000002b0: c2d1 3dbd a131 e03b 781f 233c 6603 17bd
000002c0: 5fbe be3c e0da 353d c97f 46bd e869 b4bb
000002d0: 7659 0bbd 52af 1cbd d590 033d 0e5c 61bc
000002e0: 4ffa 913b ec93 66bd 667f 843d c8e4 70bd
000002f0: f476 61bc 2e6f 343c 324b 053d 012a fd3c
00000300: 2819 aebc e191 a13c 973c 893c dec4 49bd
00000310: 617e 45bd a09d c63c 87fe 873d c4d7 05bb
00000320: 5b16 36bd 8a4c 55bc 2361 4f3b 2e9b 24bd
00000330: 8812 1fbd 1516 063d 5906 7e3d 5ba9 2abb
00000340: 2f42 24bd 017f 45bc 8a93 523d c4a2 e8bb
00000350: 6044 3cbb d232 7cbd 0d6f 18bd cfbb 493d
00000360: a373 803c 12d7 6d3d 5afb 323d 3b8a 3dbd
00000370: dc57 153d 2734 693c 368e 13bd e104 753d
00000380: 3715 64bd 249e 6e3d 618e 7fbd 6ead 023d
00000390: e949 67bd 3876 acbb 2d6f a93b 37cf b0bb
000003a0: 51ec 493d e64a d73c 8d9c e73c 23ee 3b3d
000003b0: e4cd c7bc de5c 883c 1079 163c a0cb 88bc
000003c0: 70d0 213d 48c1 2ebd 8b64 553d 0d1e 053d
000003d0: 5c39 673d 389a 083d 55ab 6abd 0d32 b93c
000003e0: e9b3 ec3b 730d 1f3d 3a32 8a3c 9e55 4ebd
000003f0: 5cd2 6a3d 1d5e 2cbd bff1 8b3b 80c6 6f3d
-0.024463061 -0.015465569 0.05561939 -0.038349446 0.042269453 -0.005624368 0.021390984 -0.049546774
0.038413264 0.05567248 -0.034361646 0.04910654 -0.019168943 -0.04323067 0.04140655 0.06281783
0.011721885 0.01472635 0.047666244 -0.012083768 -0.012991091 0.03755614 -0.0486799 0.06013391
-0.014647015 0.017187936 0.033395614 0.001992453 0.062090956 0.043761328 -0.03674058 -0.00867784
-0.03151846 -0.010204058 0.041954745 0.049523987 -0.025991963 -0.007921711 -0.013241113 -0.028625095
-0.049435522 0.05209916 0.0037537038 0.049225856 0.011783816 -0.026995942 -0.019262131 0.021291833
0.028662737 0.039260227 -0.05717638 -0.020745402 0.04053545 -0.0065654404 0.0075920383 -0.025790237
-0.011695347 0.02987932 -0.043824602 0.04603311 -0.0074821934 0.053872056 0.050459206 -0.04999372
0.01663196 0.0035270024 0.028492367 -0.020708604 0.0029965497 0.01796963 0.057334468 -0.041539904
-0.030422747 -0.055606972 0.003747291 -0.051269606 -0.019653903 0.060888007 0.055076066 -0.0064338907
-0.037391342 0.046787705 0.053312268 -0.043089733 0.00078569585 -0.047994755 -0.004473682 -0.0048367833
0.060613696 0.01907583 -0.04432756 0.042819295 0.018464185 0.049124777 0.012740448 0.05801093
-0.023417331 0.026879912 0.061619423 -0.043617755 0.055844944 -0.022342052 -0.014368143 0.007197045
-0.019698896 0.023668263 0.054511603 -0.044704676 0.01997627 -0.055019435 -0.012298257 0.060322054
0.0024929428 0.0009576388 -0.004267801 -0.04598819 0.027925434 -0.024464535 -0.058530483 -0.009136826
-0.012068354 0.026957056 -0.023639545 -0.021126641 0.019358005 0.0600221 -0.060600843 0.042522162
-0.02266592 0.041231267 -0.0200797 0.015189499 0.05724201 0.015157808 -0.03189094 -0.04174021
-0.016101727 0.0013915244 0.01178451 -0.0075641703 0.03874951 -0.0027284126 -0.006447698 -0.024153175
-0.05303397 -0.01809847 0.040449474 0.03793622 -0.0089828 -0.00037185635 0.039923567 -0.05803231
0.052620023 -0.021495383 0.039975334 -0.024271848 0.021952111 0.04187213 0.048157807 0.0025162308
0.017611854 -0.025754284 0.045376398 0.025937114 -0.0379324 -0.0042681317 0.035429005 0.02603176
0.028512917 0.018811304 0.06164675 0.049903497 -0.04634262 0.0068418537 0.009956233 -0.036868475
0.023284135 0.04439819 -0.04846171 -0.005505789 -0.034020863 -0.038253136 0.032120544 -0.013754858
0.004454888 -0.056293413 0.06469612 -0.058811933 -0.013761271 0.011012835 0.032542415 0.030903818
-0.02125223 0.01972288 0.016752524 -0.049260013 -0.048216227 0.024245083 0.06640344 -0.0020422796
-0.044454914 -0.013018737 0.0031643591 -0.040187053 -0.038836032 0.032735903 0.062017772 -0.0026040885
-0.04010218 -0.012054206 0.051410235 -0.0070994813 -0.0028727278 -0.061571904 -0.03721528 0.049251374
0.01568014 0.058066435 0.04369674 -0.046274405 0.036460742 0.0142336255 -0.036024295 0.059819106
-0.055684295 0.058256283 -0.062391642 0.031903677 -0.05646697 -0.005263116 0.005170724 -0.0053957957
0.049297635 0.026280832 0.028272891 0.0458814 -0.024390168 0.016645845 0.009184137 -0.016698658
0.039505422 -0.042664796 0.05209784 0.03249936 0.056451187 0.0333502 -0.0572923 0.022606874
0.0072235954 0.038831186 0.016869653 -0.05037462 0.05732952 -0.04208194 0.0042707617 0.058538914

bias f4 [128]
00000000: b56d 933d ce9d 1ebd 9a44 1fbc 1a18 80bd
00000010: 4c69 03bc 8e3e 9abc 161f a4bc 1d92 e23c
00000020: 935d b53d 0045 e1bb 4aac 013d dbf6 903b
00000030: 1896 973c f0e2 f53c 1bc9 fabc c9bd 3c3d
00000040: a63e d63c 8d16 72bd 33d6 993d 34e4 993c
00000050: dc19 2e3d 0965 93bc f356 143d 7b0d bc3d
00000060: 0593 9e3a 3801 4dbd f617 f23c 7a06 56bc
00000070: 26f9 203d 74d6 9b3a 65c4 eabc 0989 ccbc
00000080: 072f da3c d99d 633c 161a dabc 528b e73d
00000090: 8d9f 7b3d 1e30 b0bb 6d8d 6cbd ac06 8a3c
000000a0: 0039 94b9 d14e 03bd e00f 9fbc 677a 20bd
000000b0: 92d6 823d ebef dcbb c94c 96bc 07f6 1dbd
000000c0: 941b 8ebc 7dda 023d eccb 8f3d 132d c23c
000000d0: fd6c 46bc 13a8 6b3d 79c0 4d3c 8638 793d
000000e0: 9e6e dc3d e942 b73c a16a 033c 8c34 503d
000000f0: 9e8f 43bd 27f9 4f3c dcd5 3abd 57f2 19bd
00000100: 256b 2b3c 41c3 a13d 3644 ba3d 1f0a 673d
00000110: 4f2a 833d 27cb f4bc d801 9b3c 7e38 5e3d
00000120: 700b 64bd 348c 1f3d 4d13 50bd 8159 b4bb
00000130: 93a3 08bc 218e 1ebd 14b2 043d 727a 37bc
00000140: f6d5 f3bc ceed cd3d 52e4 06bd 0c5b 313d
00000150: 31e7 a0bc 5e9f 6fbd 7563 0e3d 4d9c 1a3d
00000160: 923c ad3d aba9 243d 85ed 76bd 1770 e8bb
00000170: 38d6 d63c 4162 a53d 6ce8 bf3c 7577 723c
00000180: 7783 43bb a5f7 1a3d 0f13 b0bc 5a2c f33d
00000190: fe97 2abd aeb2 013d 310b 52bd 7f84 5ebd
000001a0: e323 d33c 212a b13d 2323 b73a 033f 3c3d
000001b0: ec1d b83c 0e94 56bd ae94 ad3d 2af6 7f3d
000001c0: 948b e4bc e3ca 95bc e795 52bd 8a18 a0bc
000001d0: dbb4 9b3d d70a 8bbc fd4f a33c 40ff 063d
000001e0: 0cc8 563d 069f 6fbc 5e63 76bd a1a7 07bd
000001f0: da4d 8b3d 24fa 933c 936b 783c 2e61 313d
0.07198659 -0.038724713 -0.009720946 -0.06254597 -0.00802071 -0.018828657 -0.020034354 0.027657563
0.088557385 -0.0068746805 0.03165845 0.0044239587 0.018504187 0.030015439 -0.030613473 0.04607943
0.02615292 -0.059103537 0.075115584 0.018785574 0.04250513 -0.017992513 0.036215734 0.09182259
0.0012098259 -0.05004999 0.029552441 -0.013063068 0.039300106 0.0011889474 -0.028658101 -0.024967687
0.026633753 0.013892614 -0.026623767 0.1130587 0.061431456 -0.0053768298 -0.05775206 0.016848885
-0.00028271228 -0.032057587 -0.01941675 -0.039179232 0.06388582 -0.0067424676 -0.01834716 -0.038564708
-0.017347135 0.031946648 0.07021317 0.023703134 -0.012110946 0.057533335 0.012558096 0.06084492
0.10763286 0.022370772 0.008021028 0.050831363 -0.047744386 0.01269368 -0.04561411 -0.03758463
0.010462557 0.0789857 0.090950415 0.056406137 0.06404554 -0.029882027 0.018921778 0.054253094
-0.05567497 0.038952067 -0.050799657 -0.0055038338 -0.00833978 -0.038709763 0.03239639 -0.011198627
-0.02976511 0.10055123 -0.032932587 0.04329972 -0.01964149 -0.058501594 0.03476282 0.037746716
0.084588185 0.04020087 -0.06028511 -0.0070934403 0.026225194 0.08075381 0.023426257 0.014798989
-0.0029832998 0.03783383 -0.021493463 0.11873694 -0.041648857 0.031664543 -0.051280204 -0.054325577
0.025773948 0.086506136 0.0013972264 0.04595853 0.022475205 -0.05238729 0.08475624 0.06249062
-0.027898587 -0.01828522 -0.05141249 -0.019542951 0.07602855 -0.016972942 0.019935602 0.03295827
0.052436873 -0.0146253165 -0.060153358 -0.033118848 0.068019584 0.018063612 0.015162366 0.04330557

weight f4 [64, 128]
00000000: fd23 e13d c13e d7bc deb7 b1bc 2a8c a2bd
00000010: a122 4bbd 436f 043c 68ce 44bd f7e3 5e3d
00000020: b8b1 a43d 4f04 24bd bb53 edbc 9a6b f63c
00000030: b1d5 a83c 6391 66bd ba71 a53d 47bf 193d
00000040: 6596 d7bc 4445 b3bd 5642 803d 3087 7fbd
00000050: bea7 ab3d e08b 93bc 3005 593c 50ad 27bd
00000060: 4243 2bbd 52f3 e73c c17c 89bd ce83 2fbd
00000070: 2ec4 1c3d c580 573d 83fb a3bc 5410 6dbd
00000080: 282b 183d d8fa 523c e126 113d c38c 9f3d
00000090: 7f4f d23d 467a a33d a904 6f3d 5f59 8fbc
000000a0: 26b5 353d b682 43bd c737 063d 8873 d3bc
000000b0: 34b9 81bd deaa abbd 5ecd 93bd 386a 89bd
000000c0: dade 9dbc c1ac aebd 23d9 f13c d59d 483d
000000d0: e5a4 18bd ba48 8c3d 9a76 41bd 8d66 0abc
000000e0: d353 a03d ffcb 983d 691c a13d 1aab 103d
000000f0: 5457 a03d 7255 ca3c 94fc 9e3b 0125 f5bc
00000100: 0e0a 05bd aee1 c23d 2928 a83d 6ddc 4cbd
00000110: 07c0 d93c 3dff f7bc d42d 5a3d 4e61 da3d
00000120: c4d1 883c 2bbf 203c f9bb 6a3d 055d 413d
00000130: 9a40 243d ee99 5cbd 3f6f 0c3d f214 42ba
00000140: f1e9 74bd 2264 eb3c d4a1 523d 22a5 9fbd
00000150: d9ef e9bb dc15 87bd 61e1 8d3d fb5d 343c
00000160: 003a 04bd 1af1 483b 12ed 09bd 38a6 18bd
00000170: a337 123d 51e7 c03d b0e3 af3c 30cd ca3c
00000180: 55d8 11bd 07c1 293d 6e28 81bc 32b2 b83d
00000190: 1463 923d 3128 c83d c6aa 0ebd 06ee 94bd
000001a0: eddf 143d f5b7 3a3d daa1 01bd 5037 133d
000001b0: 87f6 a5bd d41d 363d e869 e33d b223 f8bc
000001c0: eb31 c83c f67f 76bd 3b9e 663d 33f2 1b3d
000001d0: aa07 ce3c aeb4 6a3d 127b abbd 34d1 fb3c
000001e0: 68a7 cf3d ed22 f6bc a7aa 323a 7b95 2cbd
000001f0: d931 e9bb d499 32bc 0d08 76bd 66ed 513d
00000200: fec1 633b cf36 83bd 219c 013c a83d 003d
00000210: 85e4 a4bd 4d8e 89bc 9446 233c ec46 bdbc
00000220: 53b5 663c f1de 9f3d 7a0b 36bd 03f3 5c3d
00000230: 4656 563d 93d6 b83c e1ac a53d 66e6 9f3d
00000240: 593b bbbc 4942 673d 2e23 fc3d 5bb6 edbc
00000250: a483 0d3d d913 aebc 76c3 1a3d 4e01 eebc
00000260: 31c7 a0bd 44c6 54bd 97ed 98bd 812d 26bd
00000270: 0812 5b3d 7298 993d e201 4dbd ec4a 8bbd
00000280: 0176 853d 1702 0c3d 965d 85bd 78ed af3c
00000290: 6c3d 493d e5cd 013d 3ee7 33bd 3bfc 15bd
000002a0: 1228 62bd 954e 8d3c 04a8 2dbd dc06 91bc
000002b0: 2ed9 febc 0c12 09bd 423c a63c 7351 10bd
000002c0: 8915 56bb 9de5 6b3d beb6 a93c 85d8 3b3d
000002d0: e1d3 2ebb f761 883d 1c62 9c3d 9f89 b13d
000002e0: 5425 c23d c777 1cbd 92d5 cbba 802b b3bb
000002f0: e08d 70bd a3ef 853b d856 adbd fde8 573d
00000300: eeae ae3c 091d 833b 5c4e b23d f32c 5e3d
00000310: f35c 41bd 45bc 933b 8578 54bd 9c61 d13c
00000320: e47d 043d 8f22 973d 2c82 243c 8c2e 65bd
00000330: cfad 943d 0f09 6e3d 18c8 bdbc 058d 88bd
00000340: 08a0 81bd 8c97 3dbd 112b 99bc e3b3 81bd
00000350: f0b4 8c3b 7cb5 d03c 35b6 3ebd d137 dd3d
00000360: 8535 cf3d e095 953c 2a22 693d 9762 bdbc
00000370: 5ae8 aebd 524a 3cbc 9e4a 143a 7ec1 25bd
00000380: edca 323d 6522 16bd 194a 9a3d 2484 813d
00000390: dda1 96bd be08 523c 6a0a d03c ced1 36bc
000003a0: 5d20 b13d 734c 78bd da8e 05bc 34b8 ee3c
000003b0: 8f82 5d3d 1d35 49bd 6b1d be3d 18b8 763d
000003c0: 51f7 b9bc 2087 1fbd c37d 173d f9b6 40bd
000003d0: 903d 16bd 51bf 45bd 8ae9 bb3a 6f7b a7bc
000003e0: 8e33 a7bc b838 b7bc b22e 33bc 0570 363d
000003f0: ad02 413c dd50 ebbc a9a6 913d 8e3c 5abd
0.10993192 -0.02627504 -0.02169412 -0.079368904 -0.04959357 0.0080831675 -0.048048407 0.054416623
0.0804171 -0.04004317 -0.02897059 0.030080605 0.020609709 -0.056290995 0.08078332 0.037535932
-0.02631683 -0.08753446 0.062626526 -0.062384784 0.08381604 -0.018011034 0.013245866 -0.040936768
-0.04181219 0.028314266 -0.06713248 -0.042850308 0.03827303 0.05261304 -0.020017391 -0.0578769
0.037150532 0.012877189 0.03543747 0.0779052 0.10269069 0.07982306 0.058354054 -0.01749867
0.04436221 -0.047732078 0.032768037 -0.025811926 -0.06334153 -0.083822 -0.07216905 -0.06709713
-0.019271303 -0.08529044 0.029522484 0.048978645 -0.03726663 0.06849809 -0.047232248 -0.008447302
0.07828488 0.07460784 0.07866747 0.035319425 0.078291565 0.024698947 0.004851887 -0.029924871
-0.032480292 0.09515701 0.08210785 -0.050014902 0.026580824 -0.030273074 0.05326636 0.10663091
0.016701587 0.009811203 0.05730817 0.04720785 0.04010067 -0.053857736 0.03428578 -0.0007403634
-0.059793416 0.02873427 0.051423863 -0.077951685 -0.007139188 -0.06595966 0.06927753 0.011008735
-0.032281876 0.0030661286 -0.033673353 -0.037267894 0.03569759 0.0941912 0.021470875 0.024756044
-0.0356067 0.04144385 -0.015766349 0.09018363 0.07147804 0.09773291 -0.03483083 -0.07271962
0.036346365 0.04558559 -0.031648494 0.035941422 -0.08103662 0.04446204 0.111041844 -0.030290458
0.024437865 -0.060180627 0.056303244 0.038072776 0.025150139 0.057301216 -0.08373083 0.030739404
0.10139352 -0.03004595 0.00068155903 -0.042134743 -0.007116538 -0.010900933 -0.06006627 0.05125179
0.003475308 -0.06406938 0.007910759 0.0313088 -0.08051399 -0.016791487 0.009965558 -0.023105107
0.014081317 0.078061946 -0.04444454 0.05394269 0.05232837 0.022563254 0.08089615 0.07807617
-0.022855448 0.0564597 0.123113975 -0.029017618 0.03454937 -0.021249698 0.037784062 -0.029053356
-0.07850493 -0.051946893 -0.07467192 -0.04057074 0.053483993 0.0749978 -0.050050624 -0.068013996
0.06516648 0.03418168 -0.06511991 0.021475539 0.049130842 0.031690497 -0.0439217 -0.0366175
-0.055213995 0.017249385 -0.04239656 -0.017703466 -0.031109419 -0.033464476 0.020292405 -0.035233926
-0.0032666645 0.057592023 0.020717021 0.045860786 -0.0026676583 0.0665931 0.076359004 0.08668827
0.09479776 -0.038200166 -0.001555132 -0.005467832 -0.058729053 0.004087405 -0.0846383 0.05271243
0.021323647 0.004001264 0.08706352 0.054242086 -0.047207784 0.0045085275 -0.05187275 0.02555924
0.03234662 0.073796384 0.010040801 -0.055952594 0.07259714 0.058114108 -0.023166701 -0.06667522
-0.06329352 -0.046287104 -0.018697293 -0.06333139 0.0042940304 0.025477163 -0.046560485 0.10801662
0.1011763 0.018259943 0.056917347 -0.0231183 -0.08540411 -0.011492329 0.0005656871 -0.04046773
0.043650556 -0.036653895 0.07533664 0.06324032 -0.07355092 0.012819467 0.02539559 -0.01115842
0.08648751 -0.060619783 -0.008151734 0.02914057 0.05407959 -0.04912292 0.09282955 0.06023416
-0.022700937 -0.038947225 0.03698517 -0.047049496 -0.036679804 -0.048278157 0.0014336568 -0.0204446
-0.020410325 -0.022365913 -0.010936426 0.044540424 0.011780423 -0.028725082 0.07111866 -0.053280406

bias f4 [64]
00000000: 9b7d 183e f5d5 583e 50fc 3dbd 8815 f63d
00000010: 0e4e b43c c80e afbd d68d 0ebc 83de b6bc
00000020: 7b6e 043c d0b4 32bd f000 d53d a150 0abd
00000030: 2c9e 2cbc 8a2c 3a3d 15a1 2a3b 9b96 cdbc
00000040: b43b c7bc 15e2 bebb 96f9 043e 1af4 023d
00000050: 67b5 233d 0341 73bd b0b2 6dbd 4950 263c
00000060: 920c c5bc 0d1e cf3c 5d34 0e3e ff77 e23b
00000070: 0cad 90bd a940 103d e727 0b3d d369 dbbc
00000080: f129 07bd 0c96 22bd 02f7 93bc 1097 c0bc
00000090: b1c2 97bd 4acf 82bd ba8f 2a3e d43a 62bd
000000a0: fe89 5cbc 5b63 9d3b 930a 503e 0adb adbd
000000b0: 414e 7aba afe1 1abd 7d40 4d3e 91d8 133c
000000c0: 8ef7 703e ddaa b03d 09b3 16bd 68dd 0dbc
000000d0: 267a 4a3e 569e 313e d4c8 78bc 3338 47bd
000000e0: c9f5 3dbd 2fc3 163d ac5a 1c3d 0149 e3bc
000000f0: 0d5d eb3d 9964 5f3e eb3d 813e 8c9f 303d
0.14891665 0.21175368 -0.046383202 0.120158255 0.022009876 -0.08547741 -0.0087008085 -0.022322899
0.008082981 -0.043629467 0.104005694 -0.0337683 -0.010535758 0.045452632 0.0026035954 -0.025096228
-0.02432046 -0.005825291 0.12985834 0.031971075 0.03996792 -0.059388172 -0.058031738 0.010150977
-0.024053846 0.025282884 0.13887163 0.0069112773 -0.07064256 0.035217915 0.0339736 -0.02678386
-0.032998983 -0.039693877 -0.018062118 -0.023509532 -0.07410181 -0.063871935 0.1665639 -0.055231884
-0.013460634 0.004803104 0.20316534 -0.08489044 -0.0009548404 -0.037812885 0.20044132 0.009023801
0.23531935 0.086263396 -0.036791835 -0.008658744 0.19773158 0.17345557 -0.0151846 -0.04863758
-0.046376977 0.036807235 0.03817241 -0.027744772 0.114923574 0.21815719 0.25242552 0.043120906

weight f4 [2, 64]
00000000: f7e8 703e 91b3 823e 4bb2 3abd f611 363e
00000010: 7d94 9e3d f683 03bd c6bb 47bd dbba bb3c
00000020: a824 c1bd 44eb c7bd d38d 803e 976c d0bd
00000030: be9a f539 5d2b ac3c d08a c8bd f741 cebd
00000040: a277 66bd 0a02 86bd 2b5f 743d 1e86 a6bd
00000050: 7596 803c 0a9b 623d c546 9dbd 9f68 363e
00000060: 4a73 f73d a44b 823d b2b8 343e dd78 49bc
00000070: 4b28 f1bd eac7 1d3d bb64 a6bc 6d0d a03d
00000080: 4753 e23d 7581 4d3a 1f16 80bd 1b70 32bc
00000090: ceb1 aebd 3ce6 d0bd 2332 503e 27f0 ad3b
000000a0: 2168 bc3c 1e34 35ba 4ff3 663e c908 c63d
000000b0: 04b8 18bd 61b3 ce3a d675 823e 313c 24bd
000000c0: d2e1 8b3e 2e1c 2f3e a738 013e 9b78 523d
000000d0: 814e 723e 67d6 533e ee76 453b 273f dcbd
000000e0: 0c90 1bbd 631e 84bd c970 ec3d 16c0 c53d
000000f0: b062 dc3d da6c 653e b7e3 983e 1701 ac3c
00000100: 7a22 2dbe 2b78 f4bd 90c1 b13c f504 063c
00000110: c75b 923d f03a dc3d c21e 823d 4f4c c33d
00000120: abd0 8ebc e627 813c 9ef1 eebd 6af7 f13d
00000130: ec38 32bd 4885 803c 2d46 9dbd a6a9 cfbd
00000140: 8b23 363d 705d adbd 0eb0 49be 5621 ac3c
00000150: b859 a83c f5f8 b9bb 43f4 00be 851b 73bd
00000160: cf37 ffbd 105d f1bc 588c 6cbe a453 d2bd
00000170: ca9a e0bd 3a6c 38be b074 babd 65ce a73d
00000180: 2533 17bd 8f3e 543d ccb8 b73d 8a3e e33d
00000190: 49e5 213d 2941 8f3d b927 fbbd 6466 c3bc
000001a0: cb76 b93d b15f 1f3d 4216 4fbe 3e9d 843d
000001b0: ba2e bf3d d1c1 0d3d 4541 1cbe 885e f1bc
000001c0: 4b3c 21be b4bf f6bd 50ae e4bd 98db f83d
000001d0: 4ec9 84be b3d6 2fbe ac19 aabc 41d3 1f3d
000001e0: ce8a 3fbd b492 2bbe 3101 02be d0e1 203d
000001f0: b86f 39be a14f 7abe b05c 2dbe 5a80 abbd
0.23526369 0.25527623 -0.04558019 0.17780289 0.07743166 -0.03210827 -0.04876306 0.022916248
-0.0943082 -0.0976167 0.25108203 -0.10176962 0.00046845333 0.021016771 -0.097921014 -0.100711755
-0.056266434 -0.06543358 0.05966107 -0.081310496 0.015696744 0.055323638 -0.07679514 0.17813347
0.120825365 0.063620836 0.1764858 -0.012296882 -0.117752634 0.03852073 -0.020311704 0.07815061
0.1105104 0.000783942 -0.06254219 -0.010890986 -0.08530007 -0.10200164 0.20331626 0.0053081694
0.022998871 -0.0006912368 0.22553752 0.096696444 -0.037284866 0.0015770012 0.25480527 -0.040096465
0.27320725 0.17100593 0.12619267 0.05138455 0.2366276 0.20687257 0.0030130702 -0.10754233
-0.03797917 -0.06451108 0.115449496 0.09655778 0.10761011 0.22404805 0.29861233 0.020996613
-0.16907683 -0.11936983 0.021698743 0.008179893 0.071464114 0.10753429 0.06353523 0.09536039
-0.017433485 0.015766095 -0.116671786 0.118147686 -0.043511316 0.015688553 -0.076794006 -0.1013978
0.04446749 -0.084650874 -0.19696066 0.02101199 0.020550594 -0.00567543 -0.12593178 -0.059352417
-0.124618165 -0.029463321 -0.23100412 -0.102698594 -0.10967024 -0.18010035 -0.091042876 0.081936635
-0.03691401 0.051817473 0.08970794 0.11095913 0.039525304 0.0699485 -0.12263436 -0.023852535
0.09055861 0.038909618 -0.20223334 0.06475304 0.09335084 0.034608666 -0.15259273 -0.029464021
-0.15745656 -0.12048283 -0.1116606 0.12151259 -0.25934833 -0.17171745 -0.020764194 0.039019827
-0.046763234 -0.16755182 -0.12695767 0.03927785 -0.18109024 -0.24444439 -0.16929889 -0.083740905

bias f4 [2]
00000000: 3859 6a3f 2f8c 52bf
0.91542387 -0.82245153
