MWNet/old_data_results/checkpoints/MWN_TRY4_FOCAL_LOSS/model_epoch_260.pt (torch, 234127 bytes, 8 tensors)

fc1_lin.weight f4 [256, 64]
0.016354673 -0.014338632 0.008185416 -0.019706458 -0.0049779667 0.009986584 0.010120557 -0.0065016947
-0.001966163 8.3715415e-05 -7.118451e-05 0.0025334982 0.0024876746 -0.016523575 0.013190082 -9.252961e-05
-0.0034755657 -0.0073332344 -0.008974942 0.0026099407 0.0195466 -0.009248418 0.011565404 0.011926322
0.0022740748 -0.01170881 0.012946605 -0.0033306468 -0.015216048 0.0029600605 -0.006184187 0.0010609699
0.0033070748 0.011097689 -0.020365203 0.01920471 0.0048948503 -0.012449306 0.0046875807 0.015169332
0.0044275657 -0.00025057982 0.018422635 -0.013115631 -0.009934054 0.019613165 -0.018285466 0.0057882615
0.00732451 0.003833702 0.016509213 0.003921347 -0.0010327714 0.017057199 -0.0070588887 0.0030836686
-0.0020502955 0.0150567405 -0.005827183 0.004759678 0.0161788 -0.012930506 0.012656783 0.016627166
-0.03990477 0.039077554 -0.006795229 0.0026862198 0.0045823012 -0.024242623 0.010298752 0.017367128
0.047382794 0.028208047 0.015181274 0.016591812 0.016138198 -0.035851922 -0.0002044589 0.0031110994
-0.0074041286 -0.00102276 0.015290871 -0.003301985 -0.05665144 -0.0066606645 -0.0014509554 -0.0062091337
-0.019359473 -0.015728535 -0.011809865 -0.01697917 0.01393815 -0.011518176 0.07095532 0.024655763
0.009071859 0.012085243 0.01207083 -0.12999389 0.010901859 0.02133097 -0.0024552424 -0.011975695
0.031667836 0.01878229 -0.014081043 -0.04848512 -0.012955466 -0.0062169824 -0.015670493 0.004073256
0.016291035 0.045625035 -0.011544699 0.0073261587 -0.025979353 0.0015134596 0.019668192 0.02389
0.011305618 -0.0054799826 0.0010515406 -0.016016651 0.0014033982 0.0030818975 0.016812015 -0.017854352
-0.012783097 0.0027508899 0.0031748235 -0.011691518 -0.008690338 -0.0012740393 -0.011538311 -0.009434082
0.011245724 0.009906374 0.019330917 -0.0124816615 -0.009617845 -0.028222077 -0.021217134 0.014542042
0.010228676 -0.016077396 -0.001135966 0.010106532 -0.02113656 -0.0100610275 0.0095997285 -0.013682461
0.01612327 -0.011369931 0.020254102 -0.013604435 -0.018270835 -0.007891856 0.01779725 0.008227794
0.0010474405 0.009691754 0.0148264915 -0.025848879 -0.01222958 -0.01703032 -0.008925623 -0.018934902
0.008700195 -0.015343724 0.014059136 0.0068671033 -0.005403709 0.0015137164 -0.011203081 -0.013495434
-0.009904579 -0.0024038942 0.014068102 -0.0017125156 -0.0022220595 0.0026146832 0.0037727244 -0.012868658
0.006928885 0.004411793 0.012053102 0.01401807 -0.0018379783 -0.018054219 -0.016940532 -0.009199736
0.015534293 -0.0022494378 -0.017000714 -0.0045061866 0.0024288332 0.00023450474 -0.010083339 -0.015466278
-0.012432387 -0.004879865 -0.020185338 0.005136132 0.007849421 0.008843494 0.006643451 0.013598493
-0.002007882 0.0140228085 0.008631252 -0.016971678 -0.0068699913 0.005897466 -0.0017677333 0.010883311
-0.013927316 -0.016137794 -0.019113906 -0.0016768654 -0.0045765317 0.008684391 -0.015934689 -0.009247746
0.006336423 -0.012455932 -0.0043126224 0.046762466 -0.00911032 -0.010376936 -0.016372968 0.0031787483
-0.0024821986 0.010031762 -0.016173191 -0.002869235 0.009149738 0.020048888 -0.019566065 0.0035495902
0.0068155318 -0.00068896794 0.009382756 -0.017377278 -0.0095007075 -0.0051683057 0.014803942 -0.025885172
-0.00093820895 0.008455355 0.021580841 -0.019005844 -0.0071759033 0.016819097 -0.006661258 -0.01401351
00000000: 3cfa 853c 95ec 6abc 201c 063c 706f a1bc
00000010: 361e a3bb c59e 233c b1d0 253c 2b0c d5bb
00000020: beda 00bb 5f90 af38 e548 95b8 0c09 263b
00000030: 4108 233b 735c 87bc 371b 583c 750c c2b8
00000040: 51c6 63bb a14b f0bb a30b 13bc 8a0b 2b3b
00000050: 3120 a03c ad86 17bc d27c 3d3c 9f66 433c
00000060: a508 153b 4fd6 3fbc ff1d 543c fb46 5abb
00000070: bb4c 79bc 93fd 413b b8a4 cabb 3e10 8b3a
00000080: 82bb 583b 15d3 353c edd4 a6bc 3253 9d3c
00000090: fb64 a03b 2df8 4bbc 479a 993b ca88 783c
000000a0: 1d15 913b 4160 83b9 11eb 963c f2e2 56bc
000000b0: 71c2 22bc caab a03c 67cb 95bc 75ab bd3b
000000c0: 7102 f03b d93e 7b3b 543e 873c a57e 803b
000000d0: 0f5e 87ba 8abb 8b3c 404e e7bb 6017 4a3b
000000e0: 405e 06bb 8cb0 763c f4f1 bebb 13f7 9b3b
000000f0: 6789 843c 79da 53bc 655e 4f3c b235 883c
00000100: 2f73 23bd c90f 203d 83aa debb 4a0b 303b
00000110: 2127 963b 7798 c6bc 19bc 283c 8245 8e3c
00000120: 7614 423d 9014 e73c e1ba 783c 8deb 873c
00000130: 4134 843c 77d9 12bd 0564 56b9 96e3 4b3b
00000140: 559e f2bb 220e 86ba 9086 7a3c 1e66 58bb
00000150: 570b 68bd b441 dabb fc2d beba fd75 cbbb
00000160: c297 9ebc 21d9 80bc 2a7e 41bc e617 8bbc
00000170: d75c 643c bbb6 3cbc 0651 913d e2fa c93c
00000180: 22a2 143c 2f01 463c bbc4 453c 1e1d 05be
00000190: b69d 323c 49be ae3c 22e8 20bb b535 44bc
000001a0: 22b6 013d 51dd 993c 2db4 66bc 5598 46bd
000001b0: 2a43 54bc d4b7 cbbb 685f 80bc f378 853b
000001c0: c774 853c 51e1 3a3d fa25 3dbc 4610 f03b
000001d0: a7d2 d4bc 475f c63a 301f a13c f6b4 c33c
000001e0: 333b 393c 6d91 b3bb d9d3 893a 5a35 83bc
000001f0: 3bf2 b73a a9f9 493b 5ab9 893c 4a43 92bc
00000200: 3270 51bc 4648 343b b310 503b c88d 3fbc
00000210: eb61 0ebc aafd a6ba 2f0b 3dbc 6891 1abc
00000220: fc3f 383c 584e 223c df5b 9e3c e27f 4cbc
00000230: 2a94 1dbc fc31 e7bc 8ecf adbc bf41 6e3c
00000240: 2d96 273c beb4 83bc b2e4 94ba de95 253c
00000250: 9426 adbc 02d7 24bc 2e48 1d3c 672c 60bc
00000260: f314 843c f248 3abc eeeb a53c 23e5 5ebc
00000270: b8ac 95bc d84c 01bc 8acb 913c dfcd 063c
00000280: 454a 893a 2aca 1e3c d0ea 723c 07c1 d3bc
00000290: 945e 48bc 2b83 8bbc c73c 12bc 5e1d 9bbc
000002a0: 438b 0e3c 3e64 7bbc 4a58 663c 7005 e13b
000002b0: 9911 b1bb e567 c63a 218d 37bc f41b 5dbc
000002c0: d146 22bc a78a 1dbb e67d 663c 7d76 e0ba
000002d0: f99f 11bb 1b5b 2b3b d03f 773b 10d7 52bc
000002e0: b30b e33b cd90 903b 607a 453c 0cac 653c
000002f0: 51e8 f0ba 71e6 93bc dfc6 8abc 7dba 16bc
00000300: 8c83 7e3c 4e6b 13bb 1545 8bbc a2a8 93bb
00000310: 0f2d 1f3b 63e5 7539 9734 25bc 4666 7dbc
00000320: 36b1 4bbc 46e7 9fbb b95b a5bc ff4c a83b
00000330: dc9a 003c 4de4 103c 4eb1 d93b 37cc 5e3c
00000340: ac96 03bb ecbf 653c 186a 0d3c 3008 8bbc
00000350: aa1d e1bb 883f c13b 49b3 e7ba ea4f 323c
00000360: 662f 64bc 6833 84bc c494 9cbc 44ca dbba
00000370: bbf6 95bb fa48 0e3c 7789 82bc dc83 17bc
00000380: c5a1 cf3b f713 4cbc e650 8dbb 008a 3f3d
00000390: 7443 15bc 0604 2abc 9a20 86bc 8c52 503b
000003a0: 62ac 22bb 425c 243c a47d 84bc c609 3cbb
000003b0: c8e8 153c 913d a43c 0349 a0bc 3ea0 683b
000003c0: d354 df3b db9b 34ba 22ba 193c cb5a 8ebc
000003d0: dba8 1bbc e45a a9bb 3c8c 723c 240d d4bc
000003e0: 23f2 75ba 5488 0a3c 4eca b03c 25b2 9bbc
000003f0: d723 ebbb 34c8 893c af46 dabb ec98 65bc

fc1_lin.bias f4 [256]
-0.0030293274 0.047404885 0.0014209497 0.0061783604 0.019260973 0.034900904 -0.011378803 -0.019189224
-0.009534014 -0.015006476 0.019393045 0.0023222368 0.017342549 0.02117283 1.369619e-05 -0.006821817
0.0094903195 -0.009406362 0.005721134 -0.01584083 -0.0067293853 0.0016397301 0.014107538 -0.01614712
-0.0009014751 0.008602104 -0.0026677141 0.009149585 0.021013055 -0.0046145394 -0.0010878143 -0.020477647
-0.01018065 0.010891666 -0.014897416 0.025171494 -0.01553201 -0.007029958 0.027365167 -0.010153604
0.006735664 -0.001587374 0.0044744955 -0.0074846596 0.028835602 -0.009449745 0.0395951 0.019064795
-0.01895214 -0.0029141165 -0.015543179 0.0023893542 0.013377503 -0.01584087 0.030068928 0.03842011
-0.004529642 -0.013466946 -0.0036223526 -0.016480103 -0.006473618 -0.014811631 0.0025196571 0.019222671
0.009007068 -0.019927194 -0.019751418 -0.014294239 0.007727085 0.018188622 0.027244553 0.03582061
0.000837264 -0.006365663 0.0062943166 0.003073071 0.005059922 -0.015785351 0.016962351 0.0079299975
-0.012417369 -0.01414032 0.0115704425 -0.017627763 0.004022739 0.009356944 0.014198494 -0.008989867
-0.009835167 -0.019719712 -0.018527294 -0.0042372816 0.013540023 0.013394183 -0.013881721 -0.00055622007
0.024302416 -0.019365128 0.0051021753 -0.012291961 0.0071711275 -0.01744822 -0.017983638 -0.0012783704
-0.010400962 0.042409576 -0.010297512 0.03767103 -0.002753256 0.027059816 0.0051346296 0.0025298216
-0.011281491 -0.020543884 -0.01883913 -0.0013867544 0.016433403 -0.0034038022 -0.013636961 -0.014070443
0.023321507 0.017663166 0.0042733476 0.0030401384 2.0198857e-05 -0.004189869 -0.017500764 0.0016850856
0.0069128773 0.019208835 0.012258672 0.017823003 0.022113549 -0.011726919 -0.014155935 0.010595891
0.020519419 0.0073042065 0.013844864 -0.018157745 -0.01729098 0.002389398 0.011702328 -0.004922821
-0.0059146634 0.0058545284 0.020487927 -0.010788675 0.007868279 0.02725659 -0.0042296345 -0.0065344777
0.002700657 0.014176797 -0.005574396 0.0017270133 0.015653217 0.017017521 0.008502981 0.0010040606
0.040353082 -0.012102801 -0.0138774235 -0.0067947265 0.02400727 0.00824403 0.0034184468 0.040687095
-0.0039331047 -0.00572881 0.012754587 -0.016684454 0.04092443 0.0044501205 0.0015016935 0.005533834
-0.0013847182 0.025018068 -0.015917068 0.027703444 -0.011437485 -0.019835098 -0.021441694 0.005239078
-0.0025691416 0.0128977755 -0.009586198 0.007099301 0.0011664015 -0.006560154 -0.0059507294 0.011787411
0.0028203104 -0.016639834 -0.012166662 0.0368006 0.037301738 -0.017890083 0.0065245787 -0.01144114
0.019670416 0.040685084 -0.0024261065 0.006887895 -0.003797924 0.004945028 0.056708068 -0.0057304003
-0.0063190074 0.030448725 -0.009285359 0.0023830275 0.020359686 -0.017668374 0.023476582 0.029668381
0.002358581 -0.008652826 -0.017260984 -0.008228617 0.05419614 -0.011749531 -0.006073273 0.004714443
-0.0041946475 -0.0035856331 -0.00065855385 0.0002884921 0.0073066284 -0.00045103047 0.016168213 0.019933876
0.0008205783 0.01623496 -0.003113091 0.047049377 -0.017699376 0.02977589 -0.01653003 0.008888596
-0.012530216 0.002802571 -0.017805532 -0.002233267 -0.010811647 0.014541086 -0.014882312 0.016360192
-0.016080154 -0.0069533773 -0.025428241 0.009526834 -0.011362833 -0.001302322 -0.009692846 0.006670698
00000000: ae87 46bb a02b 423d 293f ba3a d873 ca3b
00000010: 30c9 9d3c 40f4 0e3d 296e 3abc b832 9dbc
00000020: 8e34 1cbc b9dd 75bc 2ade 9e3c ab30 183b
00000030: f611 8e3c a572 ad3c b0c8 6537 8c89 dfbb
00000040: 497d 1b3c 241d 1abc 5a78 bb3b a1c4 81bc
00000050: 2d82 dcbb 36ec d63a 4e23 673c f746 84bc
00000060: f850 6cba d7ef 0c3c d1d4 2ebb 24e8 153c
00000070: 9223 ac3c 9035 97bb fe94 8eba bdc0 a7bc
00000080: becc 26bc f572 323c 4b14 74bc 7334 ce3c
00000090: f979 7ebc 905b e6bb ea2c e03c 4d5b 26bc
000000a0: d8b6 dc3b 6f0f d0ba ca9e 923b e041 f5bb
000000b0: a438 ec3c 1ad3 1abc 792e 223d c62d 9c3c
000000c0: 8541 9bbc c3fa 3ebb d1a8 7ebc b696 1c3b
000000d0: 502d 5b3c b6c4 81bc 1d53 f63c 685e 1d3d
000000e0: 646d 94bb 77a4 5cbc fe64 6dbb 4801 87bc
000000f0: a520 d4bb 7cac 72bc d520 253b dd78 9d3c
00000100: 6292 133c 5b3e a3bc bacd a1bc 6232 6abc
00000110: 7d33 fd3b 4e00 953c f82f df3c a2b8 123d
00000120: d67b 5b3a 0d97 d0bb 8e40 ce3b 9365 493b
00000130: b4cd a53b 4850 81bc a1f4 8a3c d2ec 013c
00000140: 3872 4bbc cdac 67bc f491 3d3c 1968 90bc
00000150: 2ed1 833b de4d 193c cda0 683c 3c4a 13bc
00000160: ae23 21bc 3c8b a1bc 8dc6 97bc e5d8 8abb
00000170: f9d6 5d3c 4673 5b3c 2870 63bc 4ccf 11ba
00000180: dc15 c73c 9ea3 9ebc 2630 a73b 3964 49bc
00000190: c7fb ea3b 92ef 8ebc 6c52 93bc fe8e a7ba
000001a0: cc68 2abc aab5 2d3d e5b6 28bc f04c 1a3d
000001b0: f86f 34bb 8cac dd3c 6540 a83b 5dcb 253b
000001c0: 01d6 38bc a64b a8bc 8554 9abc c2c3 b5ba
000001d0: 589f 863c 5312 5fbb 8f6d 5fbc b787 66bc
000001e0: bf0c bf3c 58b2 903c 7007 8c3b 0f3d 473b
000001f0: b770 a937 2b4b 89bb c35d 8fbc 17de dc3a
00000200: 6b85 e23b d95b 9d3c 99d8 483c 8c01 923c
00000210: 7927 b53c 4322 40bc 4bee 67bc 639a 2d3c
00000220: 5718 a83c 2058 ef3b 92d5 623c 8dbf 94bc
00000230: d0a5 8dbc 7297 1c3b 1fbb 3f3c 9e4f a1bb
00000240: cbcf c1bb 58d7 bf3b 4cd6 a73c fcc2 30bc
00000250: f4e9 003c 3649 df3c bf98 8abb 2c1f d6bb
00000260: 81fd 303b cc45 683c 6ca9 b6bb f35c e23a
00000270: 2d3b 803c 5468 8b3c 1650 0b3c af9a 833a
00000280: 4649 253d d44a 46bc 225e 63bc 4ca6 debb
00000290: e5aa c43c f811 073c 0508 603b 83a7 263d
000002a0: 46e1 80bb beb8 bbbb 9ef8 503c d6ad 88bc
000002b0: 60a0 273d 51d2 913b 79d4 c43a 2a55 b53b
000002c0: 6f7f b5ba b1f2 cc3c 8364 82bc 55f2 e23c
000002d0: 4a64 3bbc 377d a2bc 7ea6 afbc 92ac ab3b
000002e0: 0b5f 28bb 3151 533c 6e0f 1dbc 41a1 e83b
000002f0: f1e1 983a 8ff6 d6bb 56fe c2bb fc1f 413c
00000300: f5d4 383b 4350 88bc ae56 47bc 3abc 163d
00000310: b5c9 183d 398e 92bc 22cc d53b 9f73 3bbc
00000320: da23 a13c 67a5 263d 50ff 1ebb dab3 e13b
00000330: 97e6 78bb e709 a23b b846 683d 15c6 bbbb
00000340: ad0f cfbb 9b6f f93c 9e21 18bc 912c 1c3b
00000350: 5bc9 a63c 44bd 90bc f651 c03c 1b0b f33c
00000360: 6c92 1a3b 95c4 0dbc e866 8dbc 52d1 06bc
00000370: c6fc 5d3d 1b81 40bc 4e02 c7bb 9d7b 9a3b
00000380: 4173 89bb f1fc 6abb cda2 2cba c140 9739
00000390: 716c ef3b 4978 ecb9 3373 843c 5e4c a33c
000003a0: 141c 573a 2eff 843c 0005 4cbb d9b6 403d
000003b0: 48fe 90bc 91ec f33c fc69 87bc 79a1 113c
000003c0: 894b 4dbc 57ab 373b e8dc 91bc 015c 12bb
000003d0: 5623 31bc bc3d 6e3c f1d4 73bc cf05 863c
000003e0: 87ba 83bc 28d9 e3bb e34e d0bc 7016 1c3c
000003f0: 2d2b 3abc adb2 aaba bece 1ebc df95 da3b

fc2_lin.weight f4 [128, 256]
-0.0019969621 0.0023096658 0.0007653582 -0.010027028 -0.0048265364 0.0073618824 -0.01007456 0.009390306
0.0018071687 0.008781427 0.0050693 -0.0029894977 -0.002383932 0.00096531294 0.0071030473 0.009046092
0.0007040531 0.0039664195 -0.0071622515 0.0068246396 0.009429092 -0.008514535 0.005047874 -0.00043238577
-0.0039078877 0.00020214176 0.00050250813 -0.0060764235 0.0016178772 0.008563313 -0.009120539 0.008767239
0.005035885 0.0062993085 -0.00451659 0.0029738673 -0.0017968226 0.004402828 0.0047762203 0.003947019
9.473346e-05 -0.003013787 -0.0001947194 0.008612225 -0.005954588 -0.005895234 0.007669651 -0.006508105
-0.0019634466 -0.0047223195 -0.00703947 -0.0055822846 0.008757578 -0.005081128 0.005223672 0.0044871345
-0.00032008733 0.005727552 -0.0071286676 0.010218053 -0.002036726 -0.0046134884 0.002358513 0.0051912796
0.007780123 0.002253531 -0.00056699023 -0.009584505 -0.007894467 -0.009023615 -0.0021008782 -0.0044387523
-0.008774862 -0.002983605 -0.007884099 -0.00846166 0.010176546 0.0028951333 0.0060855625 0.00689035
0.0047387457 0.007825274 -0.004809148 -0.005202469 0.008970667 0.007555938 -0.003831261 0.007251057
0.0022940955 0.0017957021 0.0006977052 0.010111366 0.0067161643 0.008798162 -0.005088633 -0.005490185
-0.0023677463 -0.0017884695 -0.0051552136 0.0027812952 0.004218004 0.005533683 0.010124008 -0.007405115
-0.009298176 0.0007315917 -0.0057063256 0.0069256616 0.008591162 0.0027909495 0.0054908055 0.010070108
0.008122898 0.00973177 -0.0022852279 -0.008187656 0.0037336857 0.009779187 0.00017579438 -0.0010111188
-0.005233562 0.0027076944 -0.0045166737 0.0062336144 -0.0014457275 0.0062547633 0.008334028 -0.000779603
-0.0069937888 -0.007929326 0.0020721287 0.0007758162 0.008359259 -0.009121002 0.00054798374 -0.0020245027
-0.0011464255 -0.0037641076 0.003812285 0.0034105738 -0.003752717 -0.0022067404 -0.00014664393 -0.005788064
-0.010080999 0.0045538424 0.003019993 0.0031510824 -0.009948051 -0.004246123 -0.0029701695 -0.008701694
-0.008483515 -0.004575648 0.007708551 -0.008102905 0.008496443 -0.0034170253 -0.0015714812 0.0028740922
-0.006412622 0.010136934 -0.0025007136 0.004796433 -0.00511538 -0.009637108 -0.007412358 -0.0022297192
-0.0050910595 -0.00092001446 0.0073897466 -0.0035412314 0.0010290979 0.0016747866 -0.0055914945 -0.0028492962
-0.0052534253 -0.0067333663 0.009033539 -0.007610826 0.007953976 -0.0018704922 0.008531071 -0.0087773865
-0.004947384 -0.0026430788 -0.00667807 -0.0036192127 -0.0016430515 -0.0023618233 -0.0029786045 -0.0014239894
-0.009956296 0.004396386 0.0039481027 0.0021324272 -0.009614129 0.0074227606 -0.0037576614 0.007851037
0.0065258127 -0.0073755067 -0.004730165 -0.006738935 -0.0020283733 -0.008909806 -0.006837469 -0.0011079677
-0.0069149686 -0.008412159 -0.0022125675 -0.008562475 -0.01004064 0.00023802066 0.00999952 0.0056521795
-0.0018885589 0.0013756211 0.00011676358 -6.3467145e-05 0.0057314667 -0.0046295826 -0.00072487287 0.0076227365
-0.009116591 0.009178303 0.0006511054 -0.010219775 0.0030115661 -0.0077854274 -0.010184812 -0.0036850437
-0.006947126 -0.0031947976 -0.0019349293 -0.0013879983 -0.0051289415 -0.0042433683 0.00012336769 -0.00097137794
-0.007744658 0.0053056763 0.00980142 -0.0060147876 0.0026458427 -0.007013474 -0.006512744 0.0050444514
-0.009277347 0.010326904 0.0027921125 0.0026037153 -0.0021410696 0.0039348034 -0.00995533 -0.004859054
00000000: 77df 02bb c35d 173b 52a2 483a 6748 24bc
00000010: ec27 9ebb f23b f13b c40f 25bc ccd9 193c
00000020: 85de ec3a f9df 0f3c 5f1c a63b 73eb 43bb
00000030: be3b 1cbb 0e0d 7d3a aec0 e83b 0f36 143c
00000040: 3490 383a bdf8 813b 52b1 eabb 3aa1 df3b
00000050: 7a7c 1a3c 8c80 0bbc a368 a53b d6b1 e2b9
00000060: bd0d 80bb 04f6 5339 c0ba 033a bc1c c7bb
00000070: f30e d43a 234d 0c3c 506e 15bc 77a4 0f3c
00000080: 1104 a53b 6e6a ce3b e7ff 93bb 37e5 423b
00000090: 5d83 ebba 9945 903b d781 9c3b ff55 813b
000000a0: a4ab c638 f582 45bb 972d 4cb9 4a1a 0d3c
000000b0: b41e c3bb cf2c c1bb b251 fb3b f141 d5bb
000000c0: 2bad 00bb b0bd 9abb 5bab e6bb 99eb b6bb
000000d0: f27b 0f3c 977f a6bb 562b ab3b d008 933b
000000e0: 65d1 a7b9 30ae bb3b 9997 e9bb 9f69 273c
000000f0: 987a 05bb bf2c 97bb 4891 1a3b 9c1b aa3b
00000100: 67f0 fe3b faaf 133b 12a2 14ba 5408 1dbc
00000110: cb57 01bc c9d7 13bc e3ae 09bb f472 91bb
00000120: 70c4 0fbc 9688 43bb 4f2c 01bc c6a2 0abc
00000130: 87bb 263c 47bc 3d3b 6669 c73b 72c8 e13b
00000140: 7b47 9b3b 9435 003c 0f96 9dbb 7979 aabb
00000150: b4f9 123c cd97 f73b e515 7bbb 469a ed3b
00000160: 8958 163b c45d eb3a 34e6 363a 25aa 253c
00000170: 4513 dc3b 2b26 103c 8cbe a6bb 03e7 b3bb
00000180: 312c 1bbb 146b eaba 11ed a8bb 6446 363b
00000190: 2f37 8a3b e653 b53b 2bdf 253c 9ba6 f2bb
000001a0: 6057 18bc 4ac8 3f3a 21fc babb a9f0 e23b
000001b0: f2c1 0c3c 5de8 363b 37ec b33b 18fd 243c
000001c0: e715 053c 0072 1f3c c3c3 15bb 8525 06bc
000001d0: dab0 743b e238 203c 7255 3839 8487 84ba
000001e0: 4d7e abbb 9373 313b 9b00 94bb 5943 cc3b
000001f0: 917e bdba c2f4 cc3b 728b 083c 465e 4cba
00000200: 272c e5bb 01ea 01bc 8dcc 073b 2560 4b3a
00000210: 46f5 083c 4170 15bc 91a6 0f3a 85ad 04bb
00000220: a843 96ba 3faf 76bb 87d7 793b ef83 5f3b
00000230: 25f0 75bb f69e 10bb 6ec4 19b9 cda9 bdbb
00000240: c62a 25bc 6638 953b 13eb 453b 6482 4e3b
00000250: 26fd 22bc 1023 8bbb 2da7 42bb 8d91 0ebc
00000260: 71fe 0abc 51ef 95bb 0398 fc3b 0cc2 04bc
00000270: aa34 0b3c 2cf0 5fbb 29fa cdba 445b 3c3b
00000280: f920 d2bb 6215 263c 03e3 23bb 652b 9d3b
00000290: eb9e a7bb f6e4 1dbc 5ee3 f2bb 7b20 12bb
000002a0: e7d2 a6bb 202d 71ba b025 f23b 0114 68bb
000002b0: cce2 863a 8384 db3a db38 b7bb 42bb 3abb
000002c0: ed24 acbb 92a3 dcbb 6901 143c 3c64 f9bb
000002d0: 6551 023c 4e2b f5ba e8c5 0b3c 07cf 0fbc
000002e0: aa1d a2bb 8137 2dbb b6d3 dabb 5030 6dbb
000002f0: a95b d7ba d2c8 1abb b134 43bb 28a5 baba
00000300: bb1f 23bc 8f0f 903b 165f 813b 31c0 0b3b
00000310: 9484 1dbc a13a f33b 1943 76bb a3a1 003c
00000320: 7cd6 d53b 3cae f1bb 80ff 9abb 49d2 dcbb
00000330: 75ee 04bb 6ffa 11bc d90c e0bb 3a39 91ba
00000340: f696 e2bb 27d3 09bc b900 11bb a049 0cbc
00000350: 7f81 24bc 2f95 7939 07d5 233c eb35 b93b
00000360: 8589 f7ba 2f4e b43a f8de f438 aa19 85b8
00000370: 07cf bb3b c1b3 97bb 6505 3eba 26c8 f93b
00000380: c15d 15bc 9860 163c f2ae 2a3a d870 27bc
00000390: b25d 453b e61c ffbb 33de 26bc c680 71bb
000003a0: b7a4 e3bb cf5f 51bb 749d fdba 7fed b5ba
000003b0: ae10 a8bb f40b 8bbb 435c 0139 12a4 7eba
000003c0: e6c6 fdbb 3ddb ad3b 2396 203c b217 c5bb
000003d0: e065 2d3b 49d1 e5bb db68 d5bb ed4b a53b
000003e0: 0300 18bc 2d32 293c e0fb 363b 18a3 2a3b
000003f0: 3051 0cbb 86ef 803b ae1b 23bc b338 9fbb

fc2_lin.bias f4 [128]
-0.0010706877 0.027418729 0.0007887688 -0.008201117 0.026585003 0.017890701 0.01391881 0.0046693054
0.015816562 0.0060074334 0.0015601335 0.03240604 -0.0005665932 0.017507117 0.022588558 0.02717999
0.0012994785 -0.00051844656 -0.008494429 -0.009909305 0.010657245 0.01162396 -0.0070906733 -0.0057083974
0.0029056794 -0.0033573324 -0.0055666827 -0.0024232522 0.026671758 0.026294393 0.008231701 0.03318294
0.0070818607 -0.0091041755 -0.001204882 0.03083368 -0.00922017 0.032799874 -0.009678859 0.023849458
0.024200495 -0.0064369785 -0.006423358 0.008756461 0.022491522 -0.007130289 -0.01023971 0.017767694
0.022604585 0.0282951 0.009845722 0.035243813 -0.005983449 0.020762675 0.026205316 0.017903488
0.03822045 0.0069890134 0.027399529 0.0091487365 0.011656546 -0.0010781724 -0.009690844 0.031900335
0.03400244 -0.00993955 0.0257388 0.035832502 -0.009002545 0.004400879 0.023786673 0.034023218
0.03638016 0.041373443 0.029998716 0.0010868721 0.011514802 0.00851538 0.023940928 0.028061869
0.023046935 -0.008887064 0.013403406 0.004226427 0.011292859 0.023894172 0.00010763343 0.004393908
0.027727583 -0.0066676163 -0.0083124945 0.013906738 -0.004888328 0.0360545 0.011342266 0.0096910205
0.020946797 0.028089546 0.018521603 -0.009741288 0.023401331 -0.007865583 0.03264623 -0.0059693237
0.029714255 0.03067933 -0.0035490482 0.022082916 -0.0038897293 0.030726917 0.030431928 0.054934736
-0.0049077854 0.030986017 0.00018479636 0.023245374 -0.0007934769 0.031916536 0.03718401 0.023681598
-0.0063947234 0.01591813 0.02687978 0.005703091 -0.001112595 -0.005554132 0.025128968 0.021750385
00000000: 5156 8cba 3e9d e03c 61c5 4e3a fa5d 06bc
00000010: cbc8 d93c 858f 923c b80b 643c f900 993b
00000020: bc91 813c 01da c43b 657d cc3a 32bc 043d
00000030: 6d87 14ba 166b 8f3c a40b b93c 92a8 de3c
00000040: 4353 aa3a 5ce8 07ba 382c 0bbc a35a 22bc
00000050: ba9b 2e3c 6c72 3e3c e158 e8bb 820d bbbb
00000060: 366d 3e3b b106 5cbb b868 b6bb 6dcf 1ebb
00000070: bb7e da3c 5767 d73c 42de 063c d6ea 073d
00000080: f40e e83b ae29 15bc 22ed 9dba ea96 fc3c
00000090: 3210 17bc 2959 063d 1494 1ebc f05f c33c
000000a0: 1e40 c63c 4aed d2bb 087b d2bb 4277 0f3c
000000b0: 2440 b83c 33a5 e9bb 75c4 27bc 8e8d 913c
000000c0: 402d b93c 20cb e73c f34f 213c d15b 103d
000000d0: cf10 c4bb 7c16 aa3c 88ac d63c 56aa 923c
000000e0: 0c8d 1c3d 1804 e53b fa74 e03c 95e4 153c
000000f0: 19fb 3e3c 7651 8dba 59c6 1ebc eda9 023d
00000100: 2446 0b3d 7fd9 22bc 2dda d23c 1ac5 123d
00000110: 697f 13bc 4035 903b 45dc c23c ee5b 0b3d
00000120: 5d03 153d 3377 293d debf f53c 6075 8e3a
00000130: 95a8 3c3c 1884 0b3c c41f c43c 01e2 e53c
00000140: edcc bc3c 0c9b 11bc f699 5b3c d77d 8a3b
00000150: af05 393c b6bd c33c 42b9 e138 c6fa 8f3b
00000160: f524 e33c 057c dabb 2131 08bc 16d9 633c
00000170: 442e a0bb e2ad 133d e9d4 393c 16c7 1e3c
00000180: 9e98 ab3c 0c1c e63c 9eba 973c ec99 1fbc
00000190: 26b4 bf3c a5de 00bc 0eb8 053d 519a c3bb
000001a0: 4f6b f33c 3853 fb3c 2697 68bb 3be7 b43c
000001b0: d4ea 7ebb 04b7 fb3c 614c f93c 3f03 613d
000001c0: 7dd1 a0bb 63d6 fd3c e5c5 4139 156d be3c
000001d0: 5501 50ba eaba 023d 434e 183d e9ff c13c
000001e0: d48a d1bb bd66 823c fc32 dc3c ffe0 ba3b
000001f0: 7ed4 91ba 70ff b5bb 44db cd3c dd2d b23c

fc3_lin.weight f4 [64, 128]
-0.0013451064 -0.0029465472 -0.009277555 -0.0145429205 -0.0036461656 0.0042390516 -0.009702402 0.0036320656
-0.00069714844 -0.0024234566 0.0013715463 0.013733708 0.0043720645 -0.0028929343 0.004582018 -0.0059424923
0.0118156085 0.003087996 0.0048289504 -0.010911574 -0.008918948 -0.009731869 0.012748386 -0.008781282
-0.0026633802 -0.004437846 0.0043579796 -0.013892291 8.444112e-05 -0.010326839 0.011932466 0.004890063
-0.014394586 -0.0134101445 -0.0039017447 0.009959541 -0.0003580394 0.002816598 -0.0071872124 -0.013189964
0.002337179 0.007687826 -0.0043203975 0.007945355 0.004701514 0.0056430963 0.004639345 -0.0006664346
-0.001428374 -0.009630626 -0.0045233066 0.007661841 -0.011497646 -0.008769199 -0.0015134253 0.0015437476
-0.015597857 -0.010711699 -0.009093393 0.0117878 -0.0011925431 0.010941367 0.012989759 0.008487372
0.012556073 0.0004640974 -0.008974972 0.008647167 -0.0068551702 -0.012964782 -0.0048983446 0.016817044
-0.0022618573 0.01567062 0.0074096224 0.006919556 -0.013321377 -0.00024587743 0.0132381525 0.006490378
0.012247283 -0.011441872 0.010974435 0.012929932 -0.00762489 -0.0061472813 0.011236738 0.011787767
-0.010290603 0.0027426344 -0.01356449 -0.0032112286 -0.012221829 -0.0049907523 -0.004401133 0.0059143957
-0.012894471 -0.0007562126 0.0060359635 -0.008550732 -0.012503987 -0.0024827563 -0.00691479 0.0056441184
0.004923324 0.0066432827 -0.0056381607 -0.007500179 -0.008162303 0.0076605487 -0.0035805216 0.004474343
-0.002943855 0.0010409736 -0.013836925 -0.007874315 -0.0050263344 0.002156548 -0.005984419 0.012508779
-0.013200757 -0.005824867 0.014559529 0.0045585204 0.008005197 -0.0055963136 0.0049661966 0.006615938
0.010292964 0.023036536 0.0069120047 0.013299149 0.0015398527 0.019260839 0.009045839 0.012974189
-0.00909043 0.008896456 0.0118750045 0.021589829 -0.009344166 0.008133019 0.0008250815 -0.004733861
0.0020358446 -0.0015270595 0.012164885 0.002827822 -0.0062408634 0.0024060612 -0.009004558 -0.0010634805
0.011056715 0.007642116 -0.0055759833 -0.005426478 0.011357088 0.020282242 -0.016489223 0.0041702124
0.010947305 -0.00075095496 0.013349423 0.026278773 -0.0044123726 0.021263015 0.0057688183 -0.00953586
0.013153145 0.0008758149 0.001475513 0.0009147536 0.029274791 0.010038477 0.012854505 0.019895881
-0.016702196 0.019020114 0.016081793 0.010304657 -0.014483077 -0.013084029 0.0111670485 -0.00075847446
-0.011639867 -0.0028507323 0.012644022 -0.015380684 0.01064224 -0.009320856 0.0026451105 0.014054959
0.00972812 0.010420112 0.0065403054 0.009543348 -0.004043451 0.008201772 0.025011398 0.02496696
0.021046618 0.031545047 -0.014669742 0.00077750254 0.017147591 0.015222544 0.021143494 0.016402125
0.024543086 0.00078253535 -0.0054971925 0.0067565795 -0.004696129 0.014918867 -0.002690793 -0.00075309305
8.2329025e-05 0.01385636 0.0020253607 0.00018286613 -0.010707702 -0.010179123 -0.008000376 -0.005546149
0.017764825 0.025416953 0.014989555 -0.004727123 0.023337143 -0.009433253 0.01957399 -0.0087646805
0.030865049 0.005746602 0.007846627 0.011630461 -0.011533345 0.0076496582 -0.005665884 -0.031105397
0.00995374 0.027671952 -0.010666934 0.01928217 0.012777151 0.0061956076 0.028432257 -0.0017266211
-0.005583303 0.009471071 0.009591388 0.0044170693 -0.0053961426 -0.010122351 0.03503265 -0.022053601
00000000: 484e b0ba dc1a 41bb e300 18bc 6e45 6ebc
00000010: 82f4 6ebb bee7 8a3b d3f6 1ebc f307 6e3b
00000020: d7c0 36ba dbd2 1ebb 75c5 b33a 5903 613c
00000030: 8943 8f3b 6297 3dbb c124 963b 3db9 c2bb
00000040: 4196 413c fa5f 4a3b 2c3c 9e3b 75c6 32bc
00000050: c720 12bc 6b72 1fbc 9bde 503c 5edf 0fbc
00000060: 1b8c 2ebb 5a6b 91bb 62cd 8e3b 7e9c 63bc
00000070: fb15 b138 e731 29bc 6480 433c d23c a03b
00000080: 45d7 6bbc 39b6 5bbc 6ab4 7fbb 582d 233c
00000090: 3cb7 bbb9 ac96 383b b582 ebbb b81a 58bc
000000a0: 5b2b 193b 29ea fb3b 1f92 8dbb 3c2d 023c
000000b0: 280f 9a3b b9e9 b83b a605 983b abb3 2eba
000000c0: 4738 bbba c6c9 1dbc 3f38 94bb 2e10 fb3b
000000d0: 9f60 3cbc b0ac 0fbc 205e c6ba 9357 ca3a
000000e0: 278e 7fbc 1f80 2fbc 74fc 14bc 9e21 413c
000000f0: 1b4f 9cba 6b43 333c 00d3 543c 9e0e 0b3c
00000100: fdb7 4d3c 1952 f339 c30b 13bc d9ac 0d3c
00000110: 56a1 e0bb 3d6a 54bc 4b82 a0bb e6c3 893c
00000120: ab3b 14bb ac5f 803c 6bcc f23b 71bd e23b
00000130: e841 5abc 1ce9 80b9 d6e4 583c 3dad d43b
00000140: d4a8 483c b176 3bbc 1ece 333c 11d8 533c
00000150: 37da f9bb 226f c9bb 4c1a 383c 7a21 413c
00000160: eb99 28bc c5bd 333b 983d 5ebc 7a73 52bb
00000170: 113e 48bc 7789 a3bb 6137 90bb 8ccd c13b
00000180: 5543 53bc 923c 46ba 55c9 c53b 5f18 0cbc
00000190: 86dd 4cbc bdb5 22bb 7695 e2bb 4cf2 b83b
000001a0: d653 a13b e5af d93b 52c0 b8bb 10c4 f5bb
000001b0: 2ebb 05bc 5705 fb3b 2fa7 6abb 829d 923b
000001c0: b1ed 40bb 4771 883a 45b4 62bc 4503 01bc
000001d0: f3b3 a4bb df54 0d3b f218 c4bb 9ff1 4c3c
000001e0: fd47 58bc 87de bebb 178b 6e3c a45f 953b
000001f0: 3b28 033c 4861 b7bb 7abb a23b 83ca d83b
00000200: d2a3 283c 1eb7 bc3c 197e e23b ade4 593c
00000210: e2d4 c93a e8c8 9d3c 0035 143c b191 543c
00000220: 07f0 14bc 71c2 113c 618f 423c 27dd b03c
00000230: 4618 19bc 5b40 053c 484a 583a 811e 9bbb
00000240: ce6b 053b 9d27 c8ba 3a4f 473c fb52 393b
00000250: 2880 ccbb 02af 1d3b db87 13bc 7c64 8bba
00000260: 3927 353c b76a fa3b bdb6 b6bb 99d0 b1bb
00000270: 1413 3a3c f226 a63c 6814 87bc 47a6 883b
00000280: 535c 333c bcdb 44ba 8ab7 5a3c 9546 d73c
00000290: aa95 90bb c62f ae3c 5b08 bd3b 4c3c 1cbc
000002a0: 4a80 573c f196 653a 0066 c13a 13cc 6f3a
000002b0: b0d1 ef3c 6d78 243c b49b 523c b0fc a23c
000002c0: 0bd3 88bc 12d0 9b3c f7bd 833c ddd4 283c
000002d0: 6e4a 6dbc 655e 56bc fff5 363c 5cd4 46ba
000002e0: 24b5 3ebc 5ad3 3abb df28 4f3c 44ff 7bbc
000002f0: ca5c 2e3c 81b6 18bc 9759 2d3b c546 663c
00000300: b162 1f3c 1eb9 2a3c 0f50 d63b b45b 1c3c
00000310: ed7e 84bb ba60 063c b4e4 cc3c 8387 cc3c
00000320: f569 ac3c 6135 013d 5c59 70bc 50d1 4b3a
00000330: 1b79 8c3c fa67 793c 1f35 ad3c c05d 863c
00000340: 950e c93c 0f23 4d3a cb21 b4bb 4c66 dd3b
00000350: fce1 99bb 436e 743c 0458 30bb 386b 45ba
00000360: 0fa8 ac38 c905 633c eabb 043b c1bf 3f39
00000370: 5b6f 2fbc 56c6 26bc 0214 03bc 78bc b5bb
00000380: 8a87 913c 3737 d03c c096 753c fbe5 9abb
00000390: 892d bf3c ee8d 1abc a259 a03c bc99 0fbc
000003a0: b3d8 fc3c fe4d bc3b 248f 003c b08d 3e3c
000003b0: 5bf6 3cbc fca9 fa3b e1a8 b9bb bfd0 febc
000003c0: 0315 233c 4ab0 e23c 5dc4 2ebc a4f5 9d3c
000003d0: 4157 513c 8604 cb3b c4ea e83c ca4f e2ba
000003e0: 24f4 b6bb 8d2c 1b3c 3225 1d3c 10bd 903b
000003f0: 20d2 b0bb 38d8 25bc 657e 0f3d c1a9 b4bc

fc3_lin.bias f4 [64]
0.009595361 0.018241312 0.004477053 -0.009319587 0.015405849 -0.0034452279 0.030269967 0.01905022
-0.009016763 -0.012694112 0.021714155 -0.012309948 -0.012550932 0.020493891 0.016236655 0.018247189
-0.011778283 0.015160861 -0.00010375236 0.011500014 -0.011287322 0.018913575 0.036217514 0.016431201
0.02623334 0.062935404 0.011833443 0.0149785895 -0.0026403386 0.01817164 -0.013172579 -0.012285162
-0.004289358 -0.00087698275 0.016963134 0.017089248 0.015248081 0.0007318444 -0.013393554 -0.007836729
-0.018283978 0.018348582 0.011426736 -0.0045209713 0.019989504 -0.01076374 0.012831023 -0.013977039
0.018266512 -0.01448897 -0.009494751 -0.01161941 -0.0070912708 -0.01864518 0.02093941 0.011499813
-0.0072625275 0.013461882 0.018999444 -0.011151421 -0.00019125451 0.014556588 -0.014035711 -0.00981304
00000000: dc35 1d3c ce6e 953c 3eb4 923b 2eb1 18bc
00000010: d068 7c3c 55c9 61bb b9f8 f73c 350f 9c3c
00000020: 0cbb 13bc f7fa 4fbc e2e1 b13c aaaf 49bc
00000030: 6da2 4dbc cee2 a73c bc02 853c 217b 953c
00000040: b3f9 40bc 4365 783c a095 d9b8 8e6a 3c3c
00000050: 76ee 38bc a4f0 9a3c d158 143d ba9a 863c
00000060: 4de7 d63c 47e4 803d 0fe1 413c c268 753c
00000070: 8809 2dbb b1dc 943c cdd1 57bc b447 49bc
00000080: be8d 8cbb 51e5 65ba 45f6 8a3c c0fe 8b3c
00000090: 16d3 793c 3fd9 3f3a a370 5bbc a065 00bc
000000a0: 48c8 95bc c44f 963c 3437 3b3c a824 94bb
000000b0: 07c1 a33c 665a 30bc 3639 523c f3ff 64bc
000000c0: a7a3 953c 2563 6dbc df8f 1bbc 565f 3ebc
000000d0: e45d e8bb c7bd 98bc 2089 ab3c b669 3c3c
000000e0: 7ffa edbb 3a8f 5c3c b9a4 9b3c 73b4 36bc
000000f0: 7e8b 48b9 c17e 6e3c 0af6 65bc dfc6 20bc

fc4.weight f4 [2, 64]
-0.0006283247 0.10417657 -0.021279499 -0.0058700433 0.11250755 -0.01670314 0.02390448 0.14299111
-0.001399565 0.016840482 0.14221622 0.017413715 -0.0048866146 0.14276065 0.11159484 0.13092527
-0.016976932 0.14158635 -0.0031733648 0.045954905 -0.0041561048 0.13381475 0.089375675 0.1150964
0.12154114 -0.110162675 0.14488481 0.15737383 0.01576706 0.16008791 -0.020158447 0.020483613
-0.01253452 0.023751589 0.13577016 0.13452353 0.11843292 0.006800402 -0.0075359093 -0.0101321405
-0.005969242 0.12977359 -0.024853121 -0.016305156 0.14026777 0.0016306797 0.09757753 -0.009972105
0.10544171 0.0008102728 -0.0001743299 0.008453814 0.004041073 -0.019160463 0.098358735 0.11189722
0.00923011 0.13055716 -0.023666147 0.019217903 -0.0023680704 0.1586293 0.00029487512 -0.017777799
-0.02132298 -0.07058783 -0.011962711 0.011607922 -0.14571732 -0.009626191 -0.05294459 -0.12471038
-0.0015170121 -0.005916556 -0.1311381 0.00081202487 0.013657799 -0.123000056 -0.09283243 -0.16200905
0.0045470283 -0.13397774 -0.013090887 -0.047140036 0.0012112351 -0.15344673 -0.117982134 -0.10113141
-0.1368906 0.092722796 -0.16405267 -0.15722816 0.0029043257 -0.17344148 -0.006668129 0.014136822
0.006304378 0.00885042 -0.14921452 -0.13821374 -0.1270253 0.011605508 -0.008917233 0.007760981
0.008751141 -0.119290575 0.00426089 -0.0046478817 -0.1480211 -0.0011102069 -0.1147154 0.0018072823
-0.09485575 0.018458292 0.010990215 6.837861e-05 0.01469454 0.0015838359 -0.12123248 -0.12332753
0.01457919 -0.14460704 0.017675323 0.006418627 0.0015402006 -0.1475833 0.007197105 0.0008298143
00000000: 28b6 24ba 875a d53d 5852 aebc 7e59 c0bb
00000010: 5c6a e63d 06d5 88bc 54d3 c33c 436c 123e
00000020: 9c71 b7ba 0df5 893c 21a1 113e 35a7 8e3c
00000030: e51f a0bb d92f 123e d68b e43d 4611 063e
00000040: 3513 8bbc 03fc 103e 3af8 4fbb 363b 3c3d
00000050: ef2f 88bb bc06 093e 980a b73d a9b7 eb3d
00000060: 90ea f83d f89c e1bd af5c 143e 9b26 213e
00000070: ec29 813c 16ee 233e 5423 a5bc 40cd a73c
00000080: 965d 4dbc b192 c23c 5507 0b3e 89c0 093e
00000090: f58c f23d e8d5 de3b caef f6bb 4701 26bc
000000a0: a299 c3bb 5ee3 043e c698 cbbc 6492 85bc
000000b0: 5ba2 0f3e 88bc d53a bad6 c73d 0a62 23bc
000000c0: d3f1 d73d 7d68 543a 54cc 36b9 de81 0a3c
000000d0: fa6a 843b 67f6 9cbc 4e70 c93d 5f2a e53d
000000e0: e339 173c c7b0 053e 82df c1bc dd6e 9d3c
000000f0: a131 1bbb b86f 223e 7899 9a39 bfa2 91bc
00000100: 88ad aebc 5a90 90bd 3fff 43bc 272f 3e3c
00000110: ec36 15be 2cb7 1dbc 6ddc 58bd 2868 ffbd
00000120: 7bd6 c6ba abdf c1bb 1149 06be 11de 543a
00000130: f6c4 5f3c 74e7 fbbd ee1e bebd b3e5 25be
00000140: 3dff 943b 7631 09be 297b 56bc e915 41bd
00000150: 4ec2 9e3a 2421 1dbe 9ea0 f1bd fc1d cfbd
00000160: 0d2d 0cbe 73e5 bd3d 6cfd 27be 6b00 21be
00000170: 8056 3e3b a59a 31be 5280 dabb 219e 673c
00000180: f594 ce3b 5a01 113c b1cb 18be e787 0dbe
00000190: ec12 02be 0725 3e3c 9619 12bc d44f fe3b
000001a0: f260 0f3c 9e4e f4bd f09e 8b3b 424d 98bb
000001b0: d892 17be 5d84 91ba e8ef eabd 55e2 ec3a
000001c0: bb43 c2bd d835 973c 4e10 343c 7d66 8f38
000001d0: 5ec1 703c b798 cf3a bc48 f8bd 2593 fcbd
000001e0: 8edd 6e3c de13 14be d7cb 903c 5953 d23b
000001f0: 8ee0 c93a 1420 17be b1d5 eb3b e587 593a

fc4.bias f4 [2]
0.4929159 -0.5024268
00000000: 795f fc3e 0b9f 00bf
