MWNet/old_data_results/checkpoints/MWN_TRY4_FOCAL_LOSS/model_epoch_170.pt (torch, 234127 bytes, 8 tensors)

fc1_lin.weight f4 [256, 64]
000000 bd a7 88 3c 1d 9e 6f bc 67 ca 08 3c ed a9 a4 bc
       0.016681546 -0.0146250995 0.008349038 -0.020100558
000010 22 61 a6 bb c8 e4 26 3c 1c 21 29 3c cc 4e d9 bb
       -0.005077497 0.010186382 0.010322835 -0.006631708
000020 c8 6e 03 bb fb 13 b3 38 15 45 98 b8 82 5a 29 3b
       -0.0020055044 8.539107e-05 -7.260792e-05 0.00258413
000030 75 4a 26 3b 01 12 8a bc 73 6d 5c 3c cd ee c5 b8
       0.002537397 -0.016854288 0.013453829 -9.438172e-05
000040 fd 54 68 bb a6 19 f5 bb 7f fc 15 bc fd 76 2e 3b
       -0.0035451048 -0.007479864 -0.009154438 0.0026621216
000050 ee 53 a3 3c 5e 8e 1a bc 3c 46 41 3c 60 4e 47 3c
       0.019937482 -0.009433357 0.01179653 0.012164682
000060 85 03 18 3b 6c ac 43 bc 39 5d 58 3c a8 a5 5e bb
       0.0023195457 -0.011942964 0.01320582 -0.003397325
000070 f5 48 7e bc af df 45 3b af b2 ce bb ce d7 8d 3a
       -0.015520324 0.003019314 -0.006307922 0.0010821761
000080 ff 0f 5d 3b bc 76 39 3c 62 2b aa bc d6 78 a0 3c
       0.0033731458 0.011319812 -0.02077264 0.019588869
000090 71 9a a3 3b 5a 0c 50 bc 9a ac 9c 3b 13 82 7d 3c
       0.004992776 -0.012698257 0.004781318 0.015472907
0000a0 9d fb 93 3b b9 00 86 b9 c9 ef 99 3c d7 2f 5b bc
       0.0045160786 -0.0002555901 0.018791096 -0.013378105
0000b0 54 03 26 bc 96 e2 a3 3c 41 ca 98 bc a0 75 c1 3b
       -0.010132629 0.020005506 -0.01865113 0.0059039146
0000c0 89 cf f4 3b cd 22 80 3b 33 f3 89 3c 7e 10 83 3b
       0.007471029 0.0039103986 0.0168396 0.0039997688
0000d0 a7 13 8a ba 81 86 8e 3c 1f ee eb bb 0f 21 4e 3b
       -0.0010534421 0.01739812 -0.007200017 0.003145281
0000e0 07 0e 09 bb 9b 9e 7b 3c 71 c4 c2 bb 75 15 9f 3b
       -0.0020912902 0.015357639 -0.005943828 0.004854853
0000f0 c9 30 87 3c da 17 58 bc 76 83 53 3c 3e ee 8a 3c
       0.016502755 -0.01318928 0.012909761 0.016959306
000100 3a ec 26 bd dc de 21 3d 7b 1d e3 bb c4 0c 33 3b
       -0.040752627 0.039519176 -0.0069310046 0.0027320841
000110 c8 0d 99 3b 00 a0 ca bc 2b 1d 2c 3c c3 0d 91 3c
       0.0046708323 -0.024734497 0.010505001 0.017706757
000120 95 c1 43 3d 4d 9b e9 3c 55 c1 7d 3c 3c fb 89 3c
       0.047792036 0.028516436 0.0154879885 0.01684343
000130 08 9c 84 3c 13 16 14 bd 02 7c 13 b7 40 c7 4f 3b
       0.016187683 -0.036153864 -8.790756e-06 0.0031704456
000140 ce 55 f7 bb 20 62 7b ba c5 78 7f 3c 83 f8 5c bb
       -0.0075480705 -0.0009589512 0.015592759 -0.003371746
000150 4a 67 6c bd 8a 95 de bb ea af c1 ba 54 d1 ca bb
       -0.05771569 -0.006792729 -0.0014777158 -0.0061895046
000160 26 cf a1 bc 83 9b 83 bc 1a 56 45 bc 7d 8f 8c bc
       -0.019752096 -0.016065365 -0.012044454 -0.017158264
000170 df 8b 68 3c a0 95 3d bc a4 ef 90 3d 0f 6a d0 3c
       0.014193504 -0.011571318 0.07076958 0.025441198
000180 d0 97 17 3c 02 f3 49 3c 65 51 49 3c f9 fc 04 be
       0.0092525035 0.012326004 0.012287472 -0.12987126
000190 e9 b1 36 3c cf 60 b1 3c 4f a4 34 bb 0c d5 45 bc
       0.0111508155 0.021652607 -0.0027563756 -0.01207472
0001a0 64 3a 02 3d 03 f1 9c 3c b6 3d 6b bc 4a 1b 47 bd
       0.031793967 0.019157892 -0.014357975 -0.04861001
0001b0 59 0a 58 bc 92 cb cf bb eb cb 82 bc fe 95 73 3b
       -0.013186061 -0.006341406 -0.015966376 0.003716826
0001c0 ba 1b 88 3c c4 9a 3a 3d 13 ee 40 bc cc 6c f4 3b
       0.016614784 0.045557752 -0.011775511 0.0074592587
0001d0 6f 24 d7 bc 7a c0 c1 3a ef 53 a4 3c 03 0a c7 3c
       -0.02626249 0.0014782094 0.020059554 0.024296766
0001e0 a1 e3 3f 3c 8f 28 b7 bb 3e 6e c8 3a cb 52 85 bc
       0.011711986 -0.0055895518 0.0015291644 -0.01627483
0001f0 5e a0 bb 3a f8 b2 4c 3b 47 6f 8e 3c 32 b0 94 bc
       0.0014314761 0.0031234603 0.017387046 -0.018150423
000200 91 74 52 bc a3 a4 30 3b d2 38 54 3b bf 68 43 bc
       -0.012845174 0.00269536 0.00323825 -0.011926829
000210 fa 3d 11 bc 0e ca a0 ba 81 d2 40 bc 2f b5 1d bc
       -0.008864874 -0.0012267248 -0.011768938 -0.009625717
000220 da 51 39 3c e3 f3 24 3c c7 88 a1 3c 05 ad 50 bc
       0.011311019 0.010067913 0.01971854 -0.012736564
000230 23 53 21 bc af 73 ea bc c4 a8 b0 bc c1 3c 73 3c
       -0.0098464815 -0.028619615 -0.021564849 0.014846028
000240 df e5 2a 3c 7b 1f 86 bc d9 23 98 ba bb e2 28 3c
       0.010430782 -0.016372433 -0.0011607363 0.010307963
000250 df 52 ae bc 63 22 28 bc b3 70 20 3c b6 d1 63 bc
       -0.02127975 -0.010262105 0.009792495 -0.013904979
000260 df ba 86 3c b2 0b 3e bc ba 3d a9 3c 8a fb 62 bc
       0.016446529 -0.011599468 0.020659316 -0.013853917
000270 7e a7 98 bc dd 58 03 bc d9 e5 91 3c 90 c6 06 3c
       -0.018634554 -0.008016792 0.017809795 0.008226052
000280 9b 10 8c 3a 68 f6 21 3c f0 a6 77 3c 56 a4 d3 bc
       0.0010686101 0.009885408 0.015115485 -0.025835197
000290 fb 5a 4c bc 58 8d 8e bc 1f 73 15 bc 64 f6 9d bc
       -0.012472863 -0.017401382 -0.009121685 -0.019282527
0002a0 e3 c2 0f 3c 09 36 80 bc 48 fa 6a 3c de ee ea 3b
       0.008774492 -0.015650766 0.014341898 0.0071695885
0002b0 f0 48 b4 bb 46 5e ca 3a 02 41 3b bc 2f e8 62 bc
       -0.005501859 0.0015439473 -0.011429073 -0.013849302
0002c0 58 88 25 bc 43 67 2a bb fa 1a 6b 3c 45 b3 e6 ba
       -0.010103308 -0.002600149 0.014349693 -0.0017601034
0002d0 53 b1 09 bb eb 05 2e 3b 32 28 7c 3b 3d 68 59 bc
       -0.0021010234 0.002655382 0.0038476107 -0.013269481
0002e0 45 42 e9 3b 5e 75 93 3b 2e 16 4a 3c 88 c4 6a 3c
       0.0071184956 0.0045000752 0.01233439 0.014329083
0002f0 12 b9 f5 ba 47 d7 96 bc f7 a0 8d bc a1 ad 19 bc
       -0.0018747172 -0.0184132 -0.017288668 -0.009379775
000300 16 a5 7d 3c 59 49 0e bb 78 0d 8e bc d2 8c 96 bb
       0.015481254 -0.00217112 -0.017340407 -0.004594424
000310 f0 6b 22 3b 30 c9 a8 38 d1 82 28 bc 53 33 81 bc
       0.0024783574 8.048338e-05 -0.010285095 -0.015771544
000320 fc f2 4b bc ec d9 a2 bb 19 ad a8 bc 1a aa ab 3b
       -0.012448069 -0.004969826 -0.020590352 0.0052387835
000330 68 82 03 3c 96 81 0f 3c e1 42 d9 3b 07 db 62 3c
       0.008026697 0.008758923 0.006630287 0.0138461655
000340 0c dc 05 bb ea cc 69 3c e6 4c 10 3c 2c ce 8d bc
       -0.0020425348 0.014270047 0.0088073965 -0.017310224
000350 31 25 f6 bb 1d 27 c5 3b bf 85 ec ba 06 a6 34 3c
       -0.007511758 0.0060166256 -0.001804523 0.011025911
000360 35 c2 68 bc 38 d6 86 bc fb b6 9f bc 97 d5 e1 ba
       -0.014206459 -0.01645957 -0.019496432 -0.0017229792
000370 58 2a 99 bb f3 67 10 3c 36 db 81 bc bf c5 14 bc
       -0.004674237 0.008813846 -0.015851598 -0.0090803495
000380 d3 c0 d3 3b 3a 28 50 bc e8 df 8f bb 8a 45 41 3d
       0.0064621954 -0.012704903 -0.0043907054 0.04718546
000390 d5 3a 18 bc 69 af 2c bc af a5 88 bc 23 17 52 3b
       -0.00929137 -0.010539868 -0.016680567 0.0032057248
0003a0 72 18 25 bb d3 a5 27 3c bd 28 87 bc 28 06 4c bb
       -0.0025191572 0.010232407 -0.016498918 -0.00311316
0003b0 d9 a9 18 3c 99 86 a7 3c 51 6f a3 bc e3 44 74 3b
       0.009317839 0.020449923 -0.01995054 0.0037272505
0003c0 9d d5 e3 3b 70 da 14 ba 2a cd 1c 3c 0f 13 91 bc
       0.006952955 -0.00056783017 0.009570399 -0.017709283
0003d0 b3 a3 23 bc b1 5e ac bb 1c 69 77 3c 61 0f d6 bc
       -0.009987759 -0.0052603115 0.015100744 -0.02613038
0003e0 26 64 87 ba a4 4d 0d 3c 31 8b b4 3c 6f 13 9f bc
       -0.0010329529 0.008624468 0.022039028 -0.019418446
0003f0 df d6 ef bb 28 7e 8c 3c 9c 52 dc bb c0 2f 6a bc
       -0.007319316 0.01715 -0.006723715 -0.014293611

fc1_lin.bias f4 [256]
000000 4b 7f 4a bb 94 01 47 3d 0d df a0 3a b1 3d dd 3b
       -0.0030898626 0.04858549 0.0012273506 0.006751739
000010 8f a2 9f 3c c5 17 11 3d e3 97 3e bc bc 57 a0 bc
       0.019486694 0.03542306 -0.011632892 -0.019573085
000020 e4 52 1f bc af 48 77 bc 9a ff a0 3c 70 29 18 3b
       -0.0097243525 -0.015093013 0.01965313 0.0023218058
000030 6c 08 8e 3c be 04 a9 3c d0 8c 54 3a d6 01 e4 bb
       0.017338 0.020632144 0.0008108141 -0.0069582267
000040 71 a9 1e 3c 3b 32 1d bc c6 65 b5 3b c9 5d 84 bc
       0.009683953 -0.009594495 0.005535814 -0.016158001
000050 f1 ea e0 bb 9d 7b c1 3a 68 0a 68 3c cd ec 86 bc
       -0.0068639447 0.0014761571 0.014162637 -0.016470337
000060 c2 0b 71 ba 13 59 0d 3c 41 62 32 bb 93 f1 18 3c
       -0.00091951725 0.008627194 -0.0027219208 0.0093349395
000070 43 51 ab 3c a2 3b 9a bb 8e 50 90 ba 7c 1b ab bc
       0.020912772 -0.004706816 -0.0011010335 -0.020887129
000080 d8 4a 29 bc ba 99 32 3c 36 ec 78 bc 3b 82 ce 3c
       -0.010332786 0.010900909 -0.015193036 0.025208583
000090 e8 cb 81 bc aa a8 f3 bb d0 2f e1 3c 09 12 2a bc
       -0.0158443 -0.007435878 0.02748862 -0.0103802765
0000a0 12 21 e1 3b 93 37 d4 ba 57 a2 8e 3b 1d 2a fa bb
       0.0068703974 -0.0016190879 0.0043528485 -0.007634415
0000b0 6c 66 f0 3c c3 eb 1d bc 9d d0 22 3d be 43 9d 3c
       0.029345714 -0.0096387295 0.03974973 0.019197341
0000c0 6f d0 9f bc b5 04 4c bb ea de 81 bc 19 bb 23 3b
       -0.019508569 -0.0031130735 -0.015853364 0.0024983345
0000d0 30 8f 5f 3c de 5d 84 bc ac 1a f8 3c 41 f0 1b 3d
       0.013644978 -0.01615804 0.030286156 0.03807092
0000e0 19 65 97 bb fd 05 63 bc 68 16 6b bb c4 b4 89 bc
       -0.004620206 -0.013856408 -0.003587151 -0.016809829
0000f0 9b 54 d8 bb e9 87 77 bc fa 2e 2a 3b b9 a7 9d 3c
       -0.0066018826 -0.015108087 0.0025967942 0.019245015
000100 ad 13 19 3c 7e 82 a6 bc ff 09 a5 bc 49 e1 6e bc
       0.00934307 -0.020325895 -0.020146368 -0.014580079
000110 34 c1 fe 3b 1e 1e 98 3c 2c 20 de 3c 9e 59 14 3d
       0.0077744965 0.018569048 0.02711495 0.036218278
000120 26 bb 4d 3a 0b 5f db bb 0e 6c d6 3b 2f 29 4d 3b
       0.00078480167 -0.0066946796 0.006543643 0.0031305065
000130 ff cc a1 3b 09 e7 83 bc be b1 8b 3c 95 e9 07 3c
       0.0049377675 -0.016101377 0.017052528 0.008295436
000140 65 84 4f bc eb 4d 6c bc ac 62 42 3c a0 4b 93 bc
       -0.012665843 -0.014422874 0.0118643455 -0.017980397
000150 47 74 86 3b aa 5e 1c 3c 95 42 6b 3c 65 3c 16 bc
       0.004103217 0.009544054 0.014359136 -0.009169673
000160 41 44 23 bc 40 c6 a4 bc 85 30 9b bc 73 a0 8d bb
       -0.0099650035 -0.020114064 -0.018944034 -0.0043221056
000170 8a ed 6d 3c 1e d6 5f 3c ae fd 67 bc 61 b9 63 ba
       0.014521966 0.013661889 -0.014159603 -0.00086869864
000180 08 da c4 3c ab b6 a1 bc 2b 23 a9 3b a6 6a 4d bc
       0.024029747 -0.019740423 0.005161663 -0.012537634
000190 93 7f e9 3b 32 c0 91 bc c1 44 96 bc d5 e8 aa ba
       0.0071258037 -0.017791841 -0.018343331 -0.001303936
0001a0 57 d1 2d bc 71 ef 2f 3d 73 22 29 bc 62 75 1b 3d
       -0.010608993 0.04295296 -0.010323155 0.03795374
0001b0 14 28 38 bb 51 ae dd 3c df a2 a3 3b 78 3a 34 3b
       -0.002810006 0.02706066 0.004993781 0.002750067
0001c0 27 89 3c bc 15 b1 ab bc b2 6a 9d bc 28 67 b9 ba
       -0.011507309 -0.020958463 -0.019215915 -0.0014145123
0001d0 34 da 85 3c 5f 88 6c bb 14 e5 63 bc 11 c5 69 bc
       0.016339399 -0.0036092026 -0.013909597 -0.014268176
0001e0 c2 92 bf 3c 18 46 92 3c 0e d4 8e 3b ee 85 4a 3b
       0.02338541 0.017855689 0.004358775 0.0030902582
0001f0 e8 b4 81 b9 bf 5b 91 bb a0 3b 92 bc 68 49 e1 3a
       -0.00024739583 -0.004435986 -0.017850697 0.0017188014
000200 a2 10 ff 3b 7b d9 9f 3c 62 7f 4d 3c 74 95 94 3c
       0.007783965 0.019512882 0.012542577 0.018137671
000210 3d 3c b7 3c 94 f9 43 bc 7a 90 6c bc 57 24 31 3c
       0.022367591 -0.0119613595 -0.014438743 0.010811887
000220 60 e0 aa 3c b0 6e f2 3b 1c 43 67 3c ef b8 97 bc
       0.020858943 0.007398449 0.014115121 -0.0185208
000230 3a 8c 90 bc 0e c8 20 3b 0e ed 49 3c e4 71 a4 bb
       -0.01764499 0.0024533304 0.012324585 -0.0050184596
000240 30 b1 c5 bb a1 20 c3 3b 52 eb a9 3c e1 4b 34 bc
       -0.0060330853 0.0059548174 0.020742092 -0.011004419
000250 0f 9f 01 3c c7 34 e3 3c e0 5e 8d bb 79 66 da bb
       0.007911458 0.027735127 -0.0043142885 -0.0066650477
000260 a0 4e 34 3b 0b f3 6c 3c 3d 4d ba bb 03 ef e6 3a
       0.0027512684 0.014462243 -0.005685477 0.0017618838
000270 6a cb 82 3c 72 b6 8e 3c 8d 31 0a 3c 99 52 9f 3a
       0.015966136 0.017420981 0.008434665 0.0012155353
000280 5e c2 26 3d 82 41 4a bc 6a eb 67 bc 35 eb d5 bb
       0.040712707 -0.01234472 -0.014155248 -0.006528283
000290 f7 ec c2 3c f5 0b 06 3c 17 40 64 3b 68 99 29 3d
       0.023794634 0.008181562 0.003482824 0.041406065
0002a0 10 01 8b bb de 7a bf bb 34 c4 5a 3c 0e 69 8b bc
       -0.00424207 -0.0058435043 0.0133524425 -0.017017867
0002b0 65 31 28 3d db 15 97 3b 64 c5 c8 3a bc 16 b5 3b
       0.04106273 0.0046107597 0.0015317616 0.005526392
0002c0 dc 09 b8 ba 06 23 ce 3c 21 ff 84 bc 9c f0 e0 3c
       -0.0014041024 0.025163185 -0.016234936 0.027458481
0002d0 d8 23 3f bc 8b bf a6 bc c2 29 b3 bc ce 19 ab 3b
       -0.011666261 -0.020355007 -0.021870498 0.005221582
0002e0 ab bc 2b bb 6d 76 56 3c 4f 33 20 bc fb 5d dd 3b
       -0.0026204984 0.013089758 -0.009777858 0.006755588
0002f0 94 f0 9b 3a 79 58 d9 bb a1 53 c6 bb f0 fb 44 3c
       0.0011897259 -0.006632861 -0.00605245 0.012022957
000300 ca 1b 38 3b 67 09 8b bc f9 52 4b bc 99 6d 17 3d
       0.0028092735 -0.016972257 -0.012409919 0.036969755
000310 de ac 18 3d 78 7c 95 bc 84 d1 e7 3b ad 33 3f bc
       0.037274234 -0.018247828 0.0070745368 -0.011670035
000320 ac 80 a1 3c 32 82 29 3d 2f 2d 22 bb 9f de e5 3b
       0.019714676 0.04138393 -0.002474617 0.007015064
000330 92 e1 7d bb c7 57 a5 3b 29 aa 6b 3d 0d 99 be bb
       -0.0038739187 0.0050458643 0.057535324 -0.005816585
000340 2d 7d cf bb a5 63 f9 3c 68 2c 1b bc ca 43 16 3b
       -0.006332061 0.030443022 -0.0094710365 0.002292859
000350 df 9b a9 3c c5 a1 93 bc 7d 2e c2 3c 89 08 f8 3c
       0.020704208 -0.018021474 0.023703808 0.030277507
000360 c4 c7 18 3b 06 8b 10 bc 2a 3b 90 bc b7 83 09 bc
       0.002331243 -0.008822208 -0.017606337 -0.00839322
000370 45 10 60 3d 3e 27 45 bc 1f b2 ca bb 81 35 9c 3b
       0.054703016 -0.012033282 -0.0061857845 0.0047671204
000380 6c e1 8b bb e5 ae 6f bb d5 41 88 ba f2 f9 8e 39
       -0.0042688157 -0.003657275 -0.0010395596 0.00027270574
000390 35 37 f4 3b 17 34 f1 b9 85 00 88 3c 0d b5 a6 3c
       0.0074528703 -0.00046005912 0.01660181 0.020350004
0003a0 9b 6a 5b 3a 80 1d 89 3c 1b b3 46 bb c4 3a 43 3d
       0.00083700725 0.0167377 -0.0030319158 0.047663465
0003b0 dc 57 93 bc 8f 48 f8 3c d9 1f 8a bc c9 8a 14 3c
       -0.01798623 0.030308036 -0.01686089 0.009066292
0003c0 1e 66 51 bc 42 55 14 3b 75 c7 94 bc da db 02 bb
       -0.012780694 0.0022633825 -0.018161515 -0.0019967468
0003d0 e4 ad 34 bc 77 20 71 3c 13 b4 78 bc 94 b3 88 3c
       -0.011027787 0.014717213 -0.015179652 0.016687192
0003e0 b2 f5 86 bc 86 40 dc bb 52 fd c9 bc 70 35 1f 3c
       -0.016474579 -0.006721559 -0.024656925 0.00971733
0003f0 99 2d 36 bc fe 1e c6 ba fd fa 20 bc 5c f6 cf 3b
       -0.01111927 -0.0015115438 -0.009825465 0.006346507

fc2_lin.weight f4 [128, 256]
000000 f1 7c 05 bb af 91 1a 3b 43 e1 4c 3a 08 98 27 bc
       -0.002036866 0.002358537 0.0007815549 -0.010229118
000010 81 4d a1 bb 3b 22 f6 3b ae 5c 28 bc 64 ed 1c 3c
       -0.0049225693 0.007511405 -0.010276003 0.009578083
000020 be 9b f1 3a c5 b8 12 3c f6 72 a9 3b f7 b8 47 bb
       0.0018433256 0.008955185 0.005171175 -0.0030475238
000030 66 43 1f bb 74 45 81 3a f4 20 ed 3b a3 2c 17 3c
       -0.0024301647 0.0009862618 0.0072365943 0.009226951
000040 f0 41 3c 3a e5 91 84 3b e8 5f ef bb 2a 1a e4 3b
       0.00071814563 0.0040457123 -0.007305134 0.006961127
000050 70 93 1d 3c e8 49 0e bc 5b be a8 3b 8a 3a e7 b9
       0.009617671 -0.008684613 0.0051496453 -0.00044103368
000060 e5 9c 82 bb a7 be 53 39 6c ed 05 3a 0e 17 cb bb
       -0.0039859884 0.00020193552 0.0005108926 -0.0061978167
000070 9d 7b d8 3a 45 1b 0f 3c 3b 6b 18 bc d5 83 12 3c
       0.0016516332 0.008734529 -0.0093029095 0.008942564
000080 1b 34 a8 3b 16 a2 d2 3b 81 f5 96 bb ef f9 46 3b
       0.0051331646 0.0064280136 -0.004606903 0.0030361374
000090 0d 38 f0 ba d9 05 93 3b 0a ae 9f 3b 4c d7 83 3b
       -0.0018327251 0.004486781 0.004873042 0.004023468
0000a0 cf a3 ca 38 90 76 49 bb b0 82 4f b9 e1 ec 0f 3c
       9.662622e-05 -0.0030740835 -0.00019789743 0.008784504
0000b0 ee fa c6 bb 2c 09 c5 bb dc 39 00 3c 02 79 d9 bb
       -0.0060723936 -0.0060130563 0.007826295 -0.0066367397
0000c0 00 a1 03 bb 2e d4 9d bb 16 49 eb bb a8 99 ba bb
       -0.0020084977 -0.0048165536 -0.0071803434 -0.005694587
0000d0 73 5a 12 3c 7f d4 a9 bb 8d a7 ae 3b 52 15 96 3b
       0.008932698 -0.005182802 0.005330032 0.0045801783
0000e0 71 2c ab b9 c8 5b bf 3b 30 5c ee bb c8 c2 2a 3c
       -0.00032648773 0.0058397986 -0.007274173 0.010422416
0000f0 33 25 08 bb a4 32 9a bb 23 7d 1d 3b 6f 92 ad 3b
       -0.0020774126 -0.004705744 0.0024030886 0.0052969973
000100 10 f0 01 3c 42 a4 16 3b da 9a 17 ba 12 2c 20 bc
       0.0079307705 0.002298609 -0.00057832676 -0.009776132
000110 e9 eb 03 bc 9f cc 16 bc 0f 59 0c bb 17 59 94 bb
       -0.008051851 -0.009204059 -0.0021415388 -0.004527222
000120 37 a5 12 bc 59 6c 47 bb 9a c5 03 bc 29 69 0d bc
       -0.008950523 -0.003042957 -0.008042717 -0.008631029
000130 bb 16 2a 3c b7 86 41 3b d0 72 cb 3b c2 34 e6 3b
       0.010381396 0.002952976 0.006208755 0.007025332
000140 6c 62 9e 3b af c5 02 3c 16 bc a0 bb 50 e2 ad bb
       0.00483351 0.007981702 -0.004905234 -0.0053065196
000150 30 ea 15 3c 22 8b fc 3b ba 03 80 bb e8 59 f2 3b
       0.009150073 0.0077070156 -0.0039066942 0.0073959716
000160 ed f0 18 3b 3c 12 f0 3a 05 9f 3a 3a d9 f9 28 3c
       0.0023336962 0.0018315981 0.00071190327 0.010313475
000170 e1 43 e0 3b 4b 08 13 3c 99 14 aa bb 67 70 b7 bb
       0.0068440293 0.008974145 -0.0051904437 -0.005598116
000180 06 1a 1e bb 5d 1a ef ba 25 4d ac bb f7 eb 39 3b
       -0.0024124398 -0.001824211 -0.00525822 0.0028369406
000190 ac fd 8c 3b 8c f4 b8 3b db 2f 29 3c f5 81 f7 bb
       0.004302701 0.0056443866 0.010326351 -0.007553334
0001a0 3e 63 1b bc 87 dc 43 3a aa cb be bb 20 8f e7 3b
       -0.00948411 0.0007471521 -0.0058226185 0.0070666224
0001b0 03 93 0f 3c b5 c8 3a 3b e8 4e b7 3b 3c 3b 28 3c
       0.008763078 0.0028500978 0.005594123 0.010268029
0001c0 87 be 07 3c 1b a2 22 3c 75 c2 18 bb 02 d4 08 bc
       0.008285171 0.009926344 -0.0023309265 -0.008351328
0001d0 3b a7 79 3b 4e 6f 23 3c 3b 05 3c 39 d5 4b 87 ba
       0.0038094062 0.009975268 0.00017931026 -0.0010322282
0001e0 ce e6 ae bb f1 11 35 3b 91 f6 96 bb 8d 51 d0 3b
       -0.0053375727 0.0027629102 -0.0046070297 0.006357378
0001f0 12 47 c1 ba 3a 08 d1 3b e6 45 0b 3c f9 73 50 ba
       -0.0014745912 0.0063791545 0.008500552 -0.00079518516
000200 2f e2 e9 bb 0e 85 04 bc df 83 0a 3b ce 83 4f 3a
       -0.007137559 -0.008088363 0.002113573 0.0007916064
000210 ef b7 0b 3c 3e 6d 18 bc fa 85 12 3a be 55 07 bb
       0.00852774 -0.009303389 0.0005589422 -0.0020650472
000220 fb 3f 99 ba 12 aa 7b bb 7b d7 7e 3b 11 fc 63 3b
       -0.0011692041 -0.003840093 0.003888576 0.0034787694
000230 1b da 7a bb 81 83 13 bb a1 a6 20 b9 81 9a c1 bb
       -0.0038276974 -0.0022508802 -0.00015320863 -0.005908311
000240 1f 78 28 bc ad 2f 98 3b 82 e2 49 3b 39 a4 52 3b
       -0.010282545 0.0046443553 0.0030805175 0.0032141341
000250 c7 3e 26 bc 07 e1 8d bb f0 8b 46 bb 11 6b 11 bc
       -0.010146803 -0.004329804 -0.0030295812 -0.008875624
000260 f8 c5 0d bc ab ee 98 bb 45 d2 00 3c ac 6a 07 bc
       -0.008653156 -0.0046671233 0.007862632 -0.008265179
000270 b3 fc 0d 3c cc 6d 64 bb 36 8d d2 ba e0 eb 3f 3b
       0.008666205 -0.0034855483 -0.0016063813 0.002928488
000280 01 4a d6 bb 40 67 29 3c 4a 2a 27 bb f9 31 a0 3b
       -0.0065395837 0.010339558 -0.0025507384 0.0048887697
000290 0e f1 aa bb 73 0c 21 bc 77 bf f7 bb b0 fe 14 bb
       -0.0052167242 -0.009829628 -0.007560666 -0.0022734813
0002a0 0a 1f aa bb 12 ff 75 ba 57 d4 f6 3b 2f b7 6c bb
       -0.0051916884 -0.0009384017 0.007532637 -0.0036119928
0002b0 c6 d5 89 3a 51 7e df 3a 78 e2 ba bb d0 83 3e bb
       0.001051598 0.0017051195 -0.0057032667 -0.0029070266
0002c0 2e 95 af bb 21 05 e1 bb 61 f7 16 3c 42 52 fe bb
       -0.00535836 -0.0068670665 0.009214253 -0.0077612707
0002d0 91 eb 04 3c bd a8 fa ba 28 91 0e 3c c2 ab 12 bc
       0.008112804 -0.0019123774 0.0087016 -0.008952083
0002e0 71 5b a5 bb b5 a4 30 bb 57 34 df bb 18 e2 71 bb
       -0.005046301 -0.0026953642 -0.0068116593 -0.0036908444
0002f0 32 ab db ba 6a fc 1d bb 80 1b 47 bb e6 5f be ba
       -0.0016759394 -0.002410675 -0.0030381382 -0.001452443
000300 75 67 26 bc 34 f1 92 3b 47 f6 83 3b 6d bf 0e 3b
       -0.010156502 0.00448432 0.0040271613 0.002178158
000310 35 9d 20 bc d5 17 f8 3b ff b5 7b bb 51 34 03 3c
       -0.009803106 0.0075712004 -0.0038408039 0.008008079
000320 c9 2b da 3b 25 79 f6 bb 07 19 9e bb 36 3d e1 bb
       0.0066580516 -0.007521766 -0.004824761 -0.006873752
000330 15 97 07 bb c1 e5 14 bc 72 80 e4 bb 77 65 94 ba
       -0.0020689417 -0.009087981 -0.0069733197 -0.0011321743
000340 fe 41 e7 bb b1 90 0c bc 39 e7 13 bb ed 21 0f bc
       -0.0070574274 -0.008579419 -0.002256824 -0.008736116
000350 4b ca 27 bc 38 92 7e 39 69 23 27 3c 77 e9 bc 3b
       -0.0102411015 0.00024277798 0.0102013135 0.005765136
000360 01 6d fc ba 19 e9 b7 3a bd c4 f9 38 4a c2 87 b8
       -0.001925856 0.001403126 0.000119098906 -6.473491e-05
000370 63 b5 bf 3b b7 bb 9a bb af d0 41 ba 06 cb fe 3b
       0.0058504804 -0.0047220844 -0.0007393462 0.007775667
000380 54 5a 18 bc 7d 62 19 3c fe c6 2c 3a 8c c9 2a bc
       -0.00929888 0.00936186 0.00065909314 -0.010424029
000390 ba 50 49 3b 94 1a 02 bc d9 3c 2a bc 9c 53 76 bb
       0.0030718283 -0.007940907 -0.010390484 -0.0037586456
0003a0 f0 32 e8 bb 6b ac 55 bb b4 75 01 bb 2d 48 b9 ba
       -0.0070861503 -0.003260399 -0.0019753994 -0.001413589
0003b0 39 7a ab bb 39 ce 8d bb 62 f3 03 39 75 dc 81 ba
       -0.005233076 -0.004327562 0.000125838 -0.000990762
0003c0 8b 6b 01 bc 76 69 b1 3b 87 cc 23 3c 1a 36 c9 bb
       -0.007899175 0.0054141833 0.009997494 -0.0061404826
0003d0 c3 dd 30 3b f4 6a ea bb cf ac d9 bb e3 99 a8 3b
       0.002698765 -0.007153863 -0.006642915 0.005145298
0003e0 c2 08 1b bc a5 75 2c 3c eb 31 3a 3b ad 0c 2e 3b
       -0.009462537 0.0105260955 0.00284111 0.0026557848
0003f0 05 7a 0f bb b6 88 83 3b 97 63 26 bc 4f 57 a2 bb
       -0.0021892798 0.0040141 -0.01015558 -0.0049542557

fc2_lin.bias f4 [128]
000000 97 05 93 ba 89 7b e0 3c c2 86 64 3a c3 22 09 bc
       -0.0011216876 0.027402656 0.000871759 -0.008370104
000010 5e 56 ce 3c a2 85 93 3c 9c 3f 60 3c 37 d7 97 3b
       0.025187667 0.018008057 0.013687041 0.00463381
000020 16 8f 80 3c cf 30 c1 3b 0c c2 99 3a 74 bc 04 3d
       0.015693229 0.005895711 0.0011730804 0.032406285
000030 f1 b8 42 ba 55 2a 8a 3c b5 09 af 3c c5 e3 d8 3c
       -0.0007428071 0.016865889 0.021366933 0.026475796
000040 ba 42 aa 3a 8b 95 f1 b9 87 f1 0d bc 16 9d 25 bc
       0.0012989857 -0.0004607852 -0.008663542 -0.010108253
000050 6b 86 2f 3c 4d 27 3b 3c e8 b4 ec bb 37 ca be bb
       0.0107132 0.011422944 -0.007223714 -0.0058224457
000060 30 fa 44 3b ed 1a 60 bb 0f 05 ba bb 72 90 20 bb
       0.003005635 -0.0034195737 -0.0056768726 -0.0024500159
000070 6a 17 df 3c e4 4d d6 3c 3a 64 08 3c 88 d3 0b 3d
       0.027232844 0.026160188 0.008324677 0.03413728
000080 f0 1c ee 3b 3b 25 18 bc d4 e6 a0 ba 94 96 02 3d
       0.007266633 -0.00928622 -0.0012275823 0.031881884
000090 a2 15 1a bc d7 9b 03 3d e3 bf 21 bc 16 d4 c1 3c
       -0.009404572 0.032131042 -0.0098724095 0.0236607
0000a0 ec b7 a5 3c fe e2 d6 bb e3 af d6 bb eb 55 11 3c
       0.020229302 -0.0065578213 -0.006551729 0.008870582
0000b0 46 51 b1 3c 5e 53 ee bb ec 1e 2b bc ff be 91 3c
       0.0216452 -0.0072731217 -0.010444384 0.01779127
0000c0 a4 f9 b4 3c 25 00 ea 3c 48 0b 20 3c ba 7a 11 3d
       0.022091694 0.028564522 0.009768315 0.03551743
0000d0 55 a6 c7 bb 38 13 a9 3c 11 93 d0 3c ea f9 94 3c
       -0.0060928264 0.020639047 0.025460752 0.018185575
0000e0 c0 74 19 3d b9 bf dd 3b b6 5c dd 3c 46 9e 13 3c
       0.037464857 0.00676724 0.027021747 0.009009903
0000f0 b2 9e 3c 3c ab ce 8b ba 70 f7 21 bc 7a 5c f6 3c
       0.011512445 -0.001066645 -0.009885654 0.030073393
000100 52 2a 11 3d d1 1a 26 bc 91 c4 ca 3c b7 dc 1a 3d
       0.03544075 -0.0101382295 0.024751933 0.037808146
000110 ae 72 16 bc dc d6 92 3b 49 5d b5 3c 3f a1 0a 3d
       -0.009182615 0.0044811796 0.022139208 0.033845183
000120 e1 88 14 3d ae f6 32 3d 35 34 f3 3c 69 c6 5b 3a
       0.03626335 0.043692283 0.02968798 0.00083837524
000130 72 e0 36 3c c8 22 0c 3c 69 2b b5 3c 9f 41 ec 3c
       0.01116191 0.008553214 0.022115426 0.028839884
000140 1d 61 bb 3c 3a 84 14 bc 13 47 59 3c 7d b3 8c 3b
       0.022873456 -0.009064728 0.013261574 0.0042938576
000150 29 ae 36 3c 39 7c c5 3c 14 e8 0f 39 54 ce 8e 3b
       0.011149921 0.024107086 0.00013723999 0.0043580923
000160 c8 ef dc 3c c8 ab de bb 17 d8 0a bc 21 e3 5f 3c
       0.026969805 -0.0067953803 -0.008474371 0.013664992
000170 6e 65 a3 bb 68 55 16 3d 67 3d 3b 3c d1 92 1b 3c
       -0.0049864566 0.036702543 0.011428214 0.009495453
000180 e7 cb a9 3c b0 a8 eb 3c 27 b5 9d 3c c4 ca 22 bc
       0.020727111 0.02876696 0.01925142 -0.009936038
000190 85 38 ba 3c 74 66 03 bc 5e cb 09 3d eb 90 c7 bb
       0.022732029 -0.008020032 0.03364121 -0.0060902736
0001a0 ad dd ed 3c cd e0 fb 3c 3c e4 6e bb a5 ed ac 3c
       0.029036367 0.030746842 -0.0036451956 0.021109411
0001b0 52 74 85 bb 09 94 f4 3c a8 81 ff 3c 96 15 66 3d
       -0.0040727044 0.029855745 0.031189755 0.05617293
0001c0 ea e7 a3 bb e0 5f fb 3c 7d 6b 26 39 d1 f5 b9 3c
       -0.0050020115 0.030685365 0.00015871036 0.022700222
0001d0 61 9e 5b ba 76 36 fb 3c 58 80 1b 3d ef 7b bd 3c
       -0.00083777873 0.030665617 0.037964195 0.023130385
0001e0 90 91 d5 bb ed a6 68 3c fc c9 db 3c dd 13 bc 3b
       -0.0065175965 0.014199954 0.026829712 0.0057396726
0001f0 2b 0c 95 ba 2c b0 b9 bb ad 83 c2 3c 2a 81 a7 3c
       -0.0011371424 -0.0056667533 0.023744429 0.020447332

fc3_lin.weight f4 [64, 128]
000000 70 c5 b3 ba b6 ed 48 bb 52 0c 1b bc ba 08 73 bc
       -0.0013715457 -0.0030659265 -0.009463387 -0.014833624
000010 32 88 78 bb ef dd 8b 3b dc f1 22 bc 16 4e 72 3b
       -0.0037922976 0.0042684 -0.009945359 0.0036972812
000020 b9 2e 36 ba 54 66 23 bb 6f fe b5 3a e8 56 64 3c
       -0.0006949711 -0.0024932818 0.0013885031 0.013936736
000030 78 c3 91 3b 14 2f 45 bb 43 cc 96 3b b9 2c c5 bb
       0.0044483505 -0.0030087875 0.0046019866 -0.0060172942
000040 d4 73 45 3c 76 6a 4e 3b 4a 66 a1 3b 62 5a 36 bc
       0.012051541 0.003149656 0.004925524 -0.011129947
000050 6f a1 15 bc 68 12 23 bc d3 0c 55 3c fd bf 12 bc
       -0.009132727 -0.009953119 0.013003546 -0.008956906
000060 84 0a 32 bb 89 53 94 bb 2f a8 91 3b 77 2a 68 bc
       -0.0027166912 -0.0045265597 0.004445098 -0.014170281
000070 25 c0 d8 37 fe e9 2d bc 18 99 47 3c 6e 79 a0 3b
       2.583868e-05 -0.01061487 0.0121824965 0.004897288
000080 6c b6 70 bc ff 19 60 bc 55 68 82 bb 2b 52 25 3c
       -0.01469193 -0.013678073 -0.0039797225 0.010090391
000090 55 79 bf b9 ca 08 37 3b 23 38 f0 bb ac a5 5b bc
       -0.00036520758 0.0027928823 -0.007330911 -0.0134061985
0000a0 d5 dc 16 3b a1 79 00 3c 51 67 90 bb 53 a4 04 3c
       0.002301981 0.007841499 -0.0044068475 0.008095819
0000b0 66 11 9b 3b 31 9d bc 3b e1 0f 9b 3b 36 b8 3d ba
       0.0047322987 0.0057560434 0.0047321175 -0.00072372274
0000c0 e9 cf b8 ba 95 56 22 bc 8c 9f 97 bb 8b 86 fd 3b
       -0.0014100048 -0.009908338 -0.0046271738 0.007736986
0000d0 7b 25 40 bc c8 04 12 bc a8 da d4 ba be f7 c8 3a
       -0.011727686 -0.008912273 -0.0016239481 0.0015332622
0000e0 6c d5 81 bc f9 aa 32 bc ef 35 19 bc 7e 34 45 3c
       -0.015848838 -0.010905021 -0.009351238 0.012036441
0000f0 8d a7 a2 ba e9 d9 36 3c d0 14 59 3c 47 77 0c 3c
       -0.0012409553 0.011160352 0.013249591 0.00857336
000100 7b 67 50 3c 98 2f f8 39 41 31 17 bc 46 49 0f 3c
       0.012719984 0.00047337706 -0.009228052 0.008745497
000110 19 20 e5 bb 75 aa 58 bc 75 1c a6 bb 95 de 8b 3c
       -0.0069923517 -0.013224234 -0.0050693103 0.017073909
000120 d9 ce 1c bb 67 4d 82 3c c4 24 f9 3b f5 27 e7 3b
       -0.0023927002 0.015906049 0.0076032598 0.007054324
000130 6b 11 5f bc b8 6a 88 b9 44 1d 5c 3c 5f c7 d6 3b
       -0.013614993 -0.00026019453 0.013434712 0.0065545286
000140 22 4f 4b 3c d9 36 3f bc b7 d9 36 3c 75 0f 58 3c
       0.012409003 -0.011670792 0.011160306 0.013187279
000150 75 62 fe bb a0 f4 cf bb 3c c7 3b 3c 1a 04 45 3c
       -0.007763202 -0.0063463002 0.011461075 0.012024904
000160 23 35 2b bc 58 56 37 3b 1b af 62 bc c8 b6 58 bb
       -0.0104496805 0.002797505 -0.013835694 -0.003306793
000170 08 40 4c bc 6a bd a4 bb fe 81 92 bb eb 2a c6 3b
       -0.012466438 -0.0050274627 -0.0044710627 0.0060475967
000180 65 56 58 bc 8d 10 5f ba 8c 8a c8 3b 5b e5 0e bc
       -0.013204192 -0.0008509241 0.0061200317 -0.008721675
000190 0d e6 51 bc bd f6 25 bb de 61 e9 bb ea a5 bc 3b
       -0.012811196 -0.002532407 -0.0071222624 0.005757083
0001a0 b3 eb a1 3b 83 79 db 3b cc 6d bc bb c3 a2 fc bb
       0.0049414276 0.006697835 -0.0057503935 -0.0077098324
0001b0 95 76 08 bc ed 92 fd 3b 36 e1 6c bb 40 0b 98 3b
       -0.008329053 0.007738462 -0.0036144978 0.004640013
0001c0 3f c8 44 bb a4 9c 80 3a e7 3d 67 bc 31 aa 04 bc
       -0.0030026583 0.0009812308 -0.01411388 -0.008097217
0001d0 4a ff a7 bb 0c ac 09 3b e5 44 ca bb 8e 90 51 3c
       -0.0051268684 0.002100709 -0.0061727636 0.012790812
0001e0 e1 9a 5c bc b2 a6 c4 bb b0 41 72 3c 37 97 98 3b
       -0.01346466 -0.006001317 0.014786169 0.004656698
0001f0 66 c7 05 3c 76 0b bb bb 9d 80 a3 3b 58 8b de 3b
       0.008165216 -0.0057081534 0.004989697 0.0067915134
000200 78 13 2c 3c f6 36 bd 3c 25 f5 e6 3b 70 40 5e 3c
       0.010502689 0.023097496 0.0070482665 0.013565168
000210 18 7e 85 3a 27 f0 9d 3c 1d 39 11 3c 06 13 58 3c
       0.0010184674 0.019279553 0.0088637145 0.013188129
000220 44 04 15 bc 3f 28 12 3c 42 0b 45 3c a2 3d b0 3c
       -0.009095255 0.008920728 0.01202661 0.021513764
000230 07 51 1d bc 2b d9 ff 3b fa ee a7 39 f7 6a 92 bb
       -0.009601838 0.007807871 0.00032030774 -0.0044683176
000240 96 fe 07 3b 91 46 cc ba a6 4b 4b 3c 0b 04 3d 3b
       0.002075111 -0.0015584995 0.012408173 0.002884152
000250 cb f1 d7 bb c7 25 15 3b cf 7b 16 bc 8f 2d 8e ba
       -0.0065901033 0.0022758113 -0.009184792 -0.0010847318
000260 03 c4 38 3c 56 6c ff 3b 04 5e ba bb c2 61 b5 bb
       0.011277202 0.007794897 -0.005687477 -0.0055353353
000270 27 71 37 3c 45 43 a5 3c a1 05 89 bc 73 66 6d 3b
       0.011196411 0.020173678 -0.016726317 0.0036224395
000280 68 e3 35 3c c4 cc 48 ba 49 18 5f 3c 55 f7 d6 3c
       0.011101581 -0.0007659907 0.01361663 0.026240984
000290 29 7a 93 bb 61 16 ac 3c e4 cf c0 3b 38 92 18 bc
       -0.0045006466 0.021006765 0.0058841575 -0.009312205
0002a0 1d 62 52 3c 20 1e 6a 3a 2d 44 c5 3a ae bc 64 3a
       0.012840775 0.00089308806 0.0015050225 0.0008725625
0002b0 62 06 f1 3c 54 c2 27 3c 06 d1 56 3c 7f 42 a3 3c
       0.029421989 0.0102392025 0.0131113585 0.019929169
0002c0 87 15 88 bc 20 fa 99 3c 5a 8d 85 3c 7d a9 22 3c
       -0.016611828 0.018796027 0.016302753 0.0099281045
0002d0 36 08 72 bc 68 ee 55 bc 41 36 32 3c 8d 9c 83 ba
       -0.014772465 -0.013057329 0.010877193 -0.0010041163
0002e0 d9 e7 38 bc e8 b5 32 bb 22 f8 49 3c 1c 45 7f bc
       -0.011285746 -0.002726907 0.012327226 -0.015580442
0002f0 19 ce 2e 3c f3 c3 1b bc 1d d1 30 3b e6 13 61 3c
       0.010669255 -0.009507167 0.002698011 0.013737654
000300 72 3e 19 3c 18 23 2e 3c 9e eb c7 3b d6 29 17 3c
       0.009353267 0.010628484 0.006101086 0.009226283
000310 10 26 87 bb de 11 09 3c d1 85 cc 3c ce e5 cb 3c
       -0.0041244105 0.008366076 0.024966152 0.024889853
000320 11 39 aa 3c e1 04 01 3d 2a 22 6f bc d7 9b 49 3a
       0.020779165 0.031498794 -0.014595548 0.00076907635
000330 f1 bd 8d 3c 79 57 7d 3c 86 66 ac 3c 7f f9 84 3c
       0.017302485 0.01546275 0.02104498 0.01623225
000340 dc c6 c8 3c 70 3c 51 3a eb fe be bb 27 97 e1 3b
       0.024508886 0.0007981723 -0.0058287284 0.006884474
000350 76 47 99 bb 58 48 70 3c 79 dc 33 bb 1d e5 43 ba
       -0.0046777083 0.014665686 -0.0027444644 -0.00074728
000360 97 7e 0f 3a cf 90 67 3c 6d 65 07 3b 5f 29 cd b7
       0.00054738804 0.014133646 0.002065982 -2.445717e-05
000370 27 f2 32 bc 60 41 21 bc c6 70 03 bc de 39 b5 bb
       -0.010921991 -0.009842247 -0.008022493 -0.00553058
000380 1e 43 91 3c de d9 cf 3c 4b 8c 76 3c 02 ff 9d bb
       0.0177322 0.025372442 0.015048097 -0.004821659
000390 1f 4d bf 3c b8 a5 1d bc 77 38 9f 3c e5 78 12 bc
       0.023352204 -0.00962203 0.019436104 -0.008939956
0003a0 b1 9f fd 3c 4d 4e ab 3b 6d 36 03 3c 76 22 39 3c
       0.030959936 0.00522784 0.008008582 0.01129972
0003b0 7f 1f 41 bc 3f ae ef 3b 88 0c b3 bb ce 40 fe bc
       -0.011787294 0.007314473 -0.0054641403 -0.03103676
0003c0 92 58 26 3c f5 b8 e1 3c ff 48 32 bc 5f df 9c 3c
       0.010152953 0.027554015 -0.010881661 0.01914948
0003d0 a1 87 55 3c 6d 84 b9 3b 98 a3 e8 3c 36 22 be ba
       0.013032825 0.0056615383 0.02839832 -0.0014506045
0003e0 f7 9c ba bb e0 0d 18 3c 23 fa 17 3c 5e eb 95 3b
       -0.005694981 0.009280652 0.009275946 0.004575177
0003f0 3c 5b b4 bb 8e 28 29 bc 49 fc 0f 3d 44 1a b5 bc
       -0.00550404 -0.01032461 0.035152707 -0.022107251

fc3_lin.bias f4 [64]
000000 c2 b7 1d 3c f5 0e 99 3c fa af 8d 3b b8 49 1b bc
       0.009626331 0.01868389 0.0043239566 -0.009478025
000010 4e 24 78 3c 31 b3 65 bb 0e d7 fa 3c b3 4a 9e 3c
       0.015145374 -0.0035049433 0.030620124 0.019322729
000020 c4 b2 16 bc af 77 54 bc 6a 64 b8 3c 86 b7 4d bc
       -0.0091978945 -0.012967988 0.022508819 -0.012555962
000030 bf b6 51 bc 8a 14 a4 3c 35 ff 78 3c ba 7e 8a 3c
       -0.012799918 0.020029325 0.015197565 0.016906131
000040 c6 b9 44 bc 7b 0b 56 3c b9 dc 25 b9 94 d8 2a 3c
       -0.012007182 0.013064261 -0.00015817852 0.010427613
000050 59 96 3c bc bc 59 94 3c 04 38 20 3d 05 2e 73 3c
       -0.011510455 0.018109195 0.03911592 0.014842515
000060 38 32 f7 3c 4c b4 7f 3d 60 3d 53 3c a7 dd 81 3c
       0.030175313 0.062427804 0.012893051 0.015852762
000070 12 e2 31 bb 5a 7c a3 3c 2a 1a 5c bc 39 59 4d bc
       -0.0027142805 0.019956756 -0.013433972 -0.012533479
000080 1e e0 8e bb 54 17 74 ba a8 dd 80 3c 43 be 8b 3c
       -0.004360213 -0.00093113375 0.015730694 0.017058497
000090 b3 18 6e 3c 61 f9 3f 3a 9e d2 5f bc c3 d2 02 bc
       0.014532256 0.0007323232 -0.013661055 -0.00798482
0000a0 d9 b1 98 bc 3e 40 95 3c 4f a0 3d 3c 40 7b 96 bb
       -0.018639492 0.01821911 0.011573865 -0.0045923293
0000b0 a9 9c a7 3c b6 f4 33 bc dd be 4e 3c a3 60 69 bc
       0.020460444 -0.010983637 0.012618748 -0.014244231
0000c0 ef b0 94 3c 3f b3 71 bc 0d 9b 1e bc 8f 35 42 bc
       0.018150775 -0.014752208 -0.009680522 -0.01185359
0000d0 5b 12 ec bb 94 9e 9b bc d8 f2 b0 3c 98 de 2a 3c
       -0.0072043366 -0.018996514 0.021600172 0.010429047
0000e0 33 20 f2 bb bd 01 41 3c 59 39 9c 3c db 5b 3a bc
       -0.0073890924 0.0117802 0.019070314 -0.011374439
0000f0 46 95 40 b9 99 12 62 3c 91 7b 6a bc e9 e5 23 bc
       -0.00018366156 0.013798379 -0.014311687 -0.010003545

fc4.weight f4 [2, 64]
000000 73 e1 88 ba 12 bd d3 3d 9f ce b0 bc fd 47 c4 bb
       -0.0010443166 0.10338797 -0.0215829 -0.005990027
000010 03 da e3 3d 8f 96 8b bc cd bc bb 3c 30 6b 11 3e
       0.11125567 -0.017039565 0.022917176 0.14201045
000020 62 50 bd ba 4d b1 8c 3c f6 04 11 3e 80 81 91 3c
       -0.0014443512 0.017174387 0.14162049 0.017761946
000030 be 4c a3 bb 10 75 11 3e 1a ac e2 3d be 20 05 3e
       -0.0049835136 0.14204812 0.11067982 0.13000771
000040 18 dc 8d bc c7 7e 10 3e ea 1a 55 bb 79 d5 37 3d
       -0.017316863 0.14110862 -0.0032517263 0.044881318
000050 d9 e4 8a bb d6 bf 07 3e e1 4f b6 3d e0 c2 e9 3d
       -0.0042387065 0.13256773 0.089019544 0.114141226
000060 d5 c4 f7 3d d2 18 e0 bd 8a ca 14 3e 99 4c 21 3e
       0.120980896 -0.10942234 0.14530388 0.15751876
000070 41 ab 83 3c 63 92 24 3e 1d 71 a8 bc 8c 28 ab 3c
       0.016072871 0.16071467 -0.02056175 0.020893358
000080 ba 7d 51 bc 85 9c c5 3c 4c 14 0a 3e 44 64 09 3e
       -0.012786323 0.024122486 0.13484305 0.13417155
000090 88 af f0 3d 63 e8 e2 3b a5 de fb bb 24 57 29 bc
       0.1175223 0.0069246753 -0.0076864534 -0.010335717
0000a0 d0 75 c7 bb 97 1c 04 3e 4a f0 cb bc 6d 46 88 bc
       -0.0060870424 0.12901531 -0.024894852 -0.016635144
0000b0 f6 0a 0f 3e 67 7f d9 3a ff 04 c5 3d fa b1 26 bc
       0.13969025 0.0016593755 0.096200936 -0.010174269
0000c0 40 6f d5 3d 82 5a 57 3a 5b 54 3b b9 4a 45 0d 3c
       0.1042161 0.0008215086 -0.00017865135 0.008622477
0000d0 73 da 86 3b 55 22 a0 bc 31 6b c6 3d b5 93 e2 3d
       0.0041153966 -0.01954762 0.09688414 0.11063329
0000e0 6f 28 1a 3c 14 17 05 3e 45 7d c0 bc 09 95 a0 3c
       0.009409054 0.12997085 -0.023497233 0.019602316
0000f0 15 31 1f bb 7a bc 22 3e d9 e3 9a 39 ac 8e 94 bc
       -0.002429073 0.1589221 0.0002954293 -0.018134438
000100 c6 dd ae bc d8 92 8d bd 1b eb 49 bc 99 07 42 3c
       -0.021345984 -0.06912774 -0.01232412 0.011842632
000110 d8 9c 14 be be d4 20 bc 42 32 57 bd 2a a6 fc bd
       -0.14512956 -0.009816347 -0.052538164 -0.12336381
000120 db 9c c8 ba 74 a8 c5 bb b8 72 05 be 85 14 59 3a
       -0.0015305536 -0.006032044 -0.13032043 0.0008280951
000130 f5 3a 64 3c 73 a2 f9 bd 87 7a bb bd 06 98 25 be
       0.013930072 -0.12189188 -0.091542296 -0.16171274
000140 11 00 98 3b 31 8c 08 be ae 86 5a bc 2e c9 3c bd
       0.00463868 -0.13334729 -0.013337774 -0.046090297
000150 c3 dd a1 3a 36 41 1c be b8 11 f2 bd cc 96 cc bd
       0.0012349415 -0.15259251 -0.11819786 -0.099897
000160 ba ea 0b be 89 aa bb 3d 9b cf 28 be 9c 25 21 be
       -0.1366376 0.091633864 -0.16485445 -0.15737003
000170 98 c4 42 3b 24 85 32 be 40 dd de bb 44 3f 6c 3c
       0.002971923 -0.17433602 -0.0068012774 0.014419381
000180 59 c0 d2 3b 8a 9c 15 3c f8 1e 18 be f4 3e 0d be
       0.006431621 0.00913156 -0.14855564 -0.13793546
000190 48 51 01 be 98 23 42 3c c7 05 15 bc ef b6 01 3c
       -0.12628663 0.0118493065 -0.009095616 0.00791715
0001a0 82 38 12 3c fc 52 f2 bd 3e fd 7e 3b 47 38 9b bb
       0.008924605 -0.11832234 0.0038908268 -0.0047369334
0001b0 eb 23 17 be 05 ea 93 ba b3 d1 e8 bd 66 fb f1 3a
       -0.14759795 -0.0011284953 -0.11368122 0.0018461763
0001c0 46 52 bf bd 6c 46 9a 3c 5e ad 37 3c f7 22 93 38
       -0.09341864 0.018832408 0.011210768 7.016019e-05
0001d0 2b ad 75 3c 2b 45 d4 3a 40 33 f6 bd 71 74 fa bd
       0.0149949 0.001619493 -0.12021494 -0.12229241
0001e0 1d bc 73 3c fe c3 13 be 34 6e 8e 3c 9f 87 d6 3b
       0.014876393 -0.14430234 0.017386533 0.006546929
0001f0 fb b3 cf 3a d2 32 17 be ec b9 f0 3b cd 28 5e 3a
       0.0015846485 -0.1476548 0.0073463824 0.0008474708

fc4.bias f4 [2]
000000 93 60 fd 3e e8 2b 01 bf
       0.49487743 -0.5045762
