CE_naive/checkpoints/CE_NAIVE/model_epoch_50.pt (torch, 234127 bytes, 8 tensors)

fc1_lin.weight f4 [256, 64]
0	0x3d00b065	0.031418223
1	0xbce1a8f4	-0.027546383
2	0x3c80d12d	0.015724743
3	0xbd1b11b6	-0.037858687
4	0xbc1caf5b	-0.009563292
5	0x3c9d2b67	0.019185735
6	0x3c9f4644	0.019442685
7	0xbc4ca46f	-0.012490376
8	0xbb778c3b	-0.0037772793
9	0x3928a507	0.00016083206
10	0xb90f6585	-0.00013675362
11	0x3b9f7c67	0.004867125
12	0x3b9c9a17	0.004779111
13	0xbd0206e1	-0.03174484
14	0x3ccf94c9	0.025339501
15	0xb93a6679	-0.00017776516
16	0xbbdaca6d	-0.006676963
17	0xbc66d1e7	-0.014088131
18	0xbc8d3f6e	-0.01724216
19	0x3ba44c7c	0.0050140005
20	0x3d19cfaa	0.03755156
21	0xbc918c8f	-0.017767219
22	0x3cb6029f	0.022218047
23	0x3cbbb0ac	0.022911392
24	0x3b8f27c0	0.0043687522
25	0xbcb84552	-0.022493992
26	0x3ccbc1bc	0.024872653
27	0xbbd1ac37	-0.0063987034
28	0xbcef755d	-0.029230768
29	0x3bba5843	0.005686791
30	0xbc42a7e1	-0.011880846
31	0x3b0594fc	0.002038299
32	0x3bd02f3c	0.006353287
33	0x3caea87c	0.021320574
34	0xbd204115	-0.039124567
35	0x3d171ef3	0.03689475
36	0x3c1a11f4	0.009403694
37	0xbcc3ec51	-0.023916395
38	0x3c138bd8	0.009005509
39	0x3ceebb3d	0.029142017
40	0x3c0b5d05	0.008506064
41	0xb9fc6272	-0.00048138533
42	0x3d10f80d	0.03539281
43	0xbcce6a76	-0.025197249
44	0xbc9c570d	-0.019084478
45	0x3d1a55f3	0.037679624
46	0xbd0fe327	-0.03512874
47	0x3c362fa7	0.01111976
48	0x3c668ba7	0.014071382
49	0x3bf155d1	0.0073649664
50	0x3d01e9cd	0.03171711
51	0x3bf6d9b6	0.0075332774
52	0xbb02087c	-0.0019841483
53	0x3d0637b5	0.03276797
54	0xbc5e2ef5	-0.013561
55	0x3bc21f33	0.0059241294
56	0xbb81111b	-0.0039388067
57	0x3cecf659	0.028926061
58	0xbc376b7e	-0.011195062
59	0x3c15d094	0.009143967
60	0x3cfea1cd	0.031083012
61	0xbccb809f	-0.024841605
62	0x3cc73002	0.024314884
63	0x3d02d6b3	0.031943034
64	0xbda24011	-0.07922376
65	0x3d347e1a	0.044065572
66	0xbc55e42c	-0.013054889
67	0x3bb3b9ca	0.0054847943
68	0x3c0f3618	0.008740924
69	0xbd801fd0	-0.06256068
70	0x3ca20269	0.01977654
71	0x3d094835	0.033516128
72	0x3e159ea3	0.14611296
73	0x3d183521	0.037160043
74	0x3cef9841	0.029247405
75	0x3d404103	0.046937
76	0x3d9cfa81	0.07664967
77	0xbddabe77	-0.106808595
78	0xbcf46a1e	-0.029835757
79	0x3c1fa240	0.009743273
80	0xbc6b8825	-0.014375721
81	0xb8633e0e	-5.417881e-05
82	0x3cf057d9	0.029338764
83	0xbbcbae79	-0.006215867
84	0xbdebea96	-0.11519353
85	0xbc2d6db8	-0.010585241
86	0xbb518cdc	-0.0031974828
87	0xbc5f5481	-0.013630987
88	0xbd10ead8	-0.035380214
89	0xbce412f8	-0.027841076
90	0xbcba6ee8	-0.022757962
91	0xbcf5f147	-0.030022277
92	0x3cf77a87	0.030209793
93	0xbd07f8f9	-0.033196423
94	0x3e390a27	0.18070279
95	0x3d1b13d1	0.037860695
96	0x3c8b9fee	0.017044034
97	0x3cbe1661	0.02320403
98	0x3caab28b	0.020837089
99	0xbe752201	-0.23938753
100	0x3c96ce78	0.018408999
101	0x3d4fc664	0.05072631
102	0x3c74365a	0.014905537
103	0xbca9a1c5	-0.02070702
104	0x3e2bfb7a	0.1679515
105	0x3d13c3ad	0.036075283
106	0xbcde9aab	-0.02717336
107	0xbde26f0f	-0.11056339
108	0xbcd341c1	-0.02578819
109	0xbc43c9a2	-0.0119499285
110	0xbd0c0844	-0.03418757
111	0x3cd33891	0.025783809
112	0x3d00b5e1	0.031423453
113	0x3db86509	0.09003646
114	0xbcb5b09d	-0.022178942
115	0x3c0c7c67	0.008574582
116	0xbdd342f3	-0.10315504
117	0x3c30c669	0.010789492
118	0x3d1b0052	0.037842102
119	0x3d031888	0.032005817
120	0x3b8463fd	0.00404024
121	0xbc2b3c38	-0.010451369
122	0xbbed1560	-0.007235214
123	0xbd05ecbc	-0.03269647
124	0x3b30767e	0.0026926096
125	0x3c48619a	0.012230301
126	0xbbbfd734	-0.0058545116
127	0xbcfcebcc	-0.030874155
128	0x3b1a3a65	0.002353334
129	0x3b2cf929	0.0026393628
130	0x3bc7d56f	0.0060984413
131	0xbcbca143	-0.023026114
132	0xbc8a1582	-0.016855959
133	0x3c7b12b1	0.015324281
134	0xbcb57d05	-0.02215434
135	0xbc98be73	-0.0186455
136	0xbd185ffb	-0.03720091
137	0xba67be4d	-0.0008840308
138	0x3d18e285	0.0373254
139	0xbcc7b15a	-0.02437656
140	0xbb0e5546	-0.0021718307
141	0x3c867d2f	0.016417114
142	0xbc53de6c	-0.0129314475
143	0x3cec8df9	0.028876292
144	0x3ca231be	0.01979911
145	0xbcd866f4	-0.02641628
146	0xbb416c39	-0.0029513969
147	0x3c9ce614	0.019152679
148	0x3ca61d3d	0.020277614
149	0xbca71137	-0.02039395
150	0x3c9921cf	0.018692879
151	0xbc177cef	-0.009246095
152	0x3cf35ebc	0.029708259
153	0xbcb9b829	-0.022670822
154	0x3d1fe864	0.039039984
155	0xbc767c11	-0.015044228
156	0xbd0e19e3	-0.034692656
157	0x3b180974	0.0023198994
158	0xbda38012	-0.07983412
159	0xbb40abbd	-0.002939924
160	0x3b04c04e	0.0020256224
161	0x3c980b8a	0.01856019
162	0x3ce9c336	0.028535467
163	0x3db6c5f3	0.089244746
164	0xbcb83ac2	-0.022488955
165	0xbd364e72	-0.044508405
166	0xbd1d7eb2	-0.038450904
167	0xbd02ad75	-0.031903703
168	0x3c34eeae	0.011043234
169	0xbcf17713	-0.029475724
170	0x3cdf2955	0.027241388
171	0x3d9d5247	0.07681709
172	0xbbeb3a41	-0.0071785753
173	0x3b3db9de	0.0028949897
174	0xbcba1c54	-0.022718586
175	0xbd7278ef	-0.059197363
176	0xbc9de9c5	-0.019276509
177	0xbd90254c	-0.07038364
178	0x3cdd63a0	0.027025044
179	0xbae94519	-0.0017797082
180	0x3d0d7701	0.03453732
181	0x3b35d5d4	0.002774586
182	0x3be92e5a	0.0071161212
183	0xbd808dba	-0.06277032
184	0x3d0d630c	0.034518287
185	0x3c0a810f	0.0084536215
186	0x3d068848	0.03284481
187	0x3c892951	0.016743334
188	0xbb674f19	-0.0035294949
189	0xbd0be572	-0.034154363
190	0xbd326aa3	-0.043558728
191	0xbc50d027	-0.01274494
192	0x3c9edeb6	0.019393306
193	0x3b3f2ab8	0.002916975
194	0xbd05c6e5	-0.032660384
195	0xbc0d3927	-0.008619583
196	0x3b9a8198	0.004715156
197	0xbb55fbfa	-0.003265141
198	0xbc9ebcb5	-0.019377092
199	0xbcf260cf	-0.029587178
200	0xbca214d9	-0.019785332
201	0xbc0fec82	-0.008784415
202	0xbd1f0a1b	-0.038827997
203	0x3c21a442	0.009865822
204	0x3c8b8ad7	0.017033977
205	0x3c416cf5	0.011805763
206	0x3c2fa981	0.010721565
207	0x3cd05a90	0.025433809
208	0xbb70d045	-0.0036745232
209	0x3cd21990	0.025646955
210	0x3c885ba5	0.016645262
211	0xbd057a19	-0.032587145
212	0xbcdc30e2	-0.026878778
213	0x3c37704d	0.011196208
214	0xbb5f7f6b	-0.0034103047
215	0x3c9e19b7	0.019299371
216	0xbcdd029e	-0.026978787
217	0xbcfe0fec	-0.031013452
218	0xbd166d13	-0.036725115
219	0xbb7580fc	-0.0037460914
220	0xbc135ef4	-0.008994807
221	0x3c83cc46	0.016088616
222	0xbcb2ddca	-0.021834273
223	0xbc010533	-0.007874775
224	0x3c471c99	0.012152814
225	0xbcc4076c	-0.02392932
226	0xbbfd248a	-0.007725303
227	0x3d8a0f35	0.06741182
228	0xbc8f21e7	-0.01747222
229	0xbc9d771e	-0.019221839
230	0xbd05816c	-0.03259413
231	0x3b961e71	0.0045812656
232	0x3b28bb25	0.0025746312
233	0x3c9de409	0.019273775
234	0xbcff2206	-0.031144153
235	0xbc2a11d8	-0.010380231
236	0x3c8d71a6	0.017266106
237	0x3d1dc4cb	0.038517755
238	0xbd193d65	-0.037412066
239	0x3c19828e	0.009369506
240	0x3c56c717	0.01310899
241	0x3aab7ef7	0.0013084103
242	0x3c93aa8e	0.018025663
243	0xbd0436b9	-0.03227875
244	0xbcd4cfba	-0.025977958
245	0xbc1d118b	-0.009586702
246	0x3ce92a76	0.02846263
247	0xbd30409d	-0.04303037
248	0xbb481b21	-0.0030533748
249	0x3c84ff07	0.016234888
250	0x3d26edae	0.040754013
251	0xbd200d66	-0.039075278
252	0xbc61dcf6	-0.013785591
253	0x3d0369a4	0.03208317
254	0xbc4128f1	-0.011789546
255	0xbcdb3fb9	-0.026763784

fc1_lin.bias f4 [256]
0	0xbbbeb26e	-0.0058196103
1	0x3db5e9a5	0.08882455
2	0xbceadc30	-0.028669447
3	0x3ccad70f	0.024760751
4	0x3c6e9545	0.014561956
5	0x3d330afd	0.04371165
6	0xbcfa4ac9	-0.030553238
7	0xbd16ffe3	-0.036865126
8	0xbc980ebc	-0.018561713
9	0xbc6e4116	-0.014541885
10	0x3cb35b33	0.021894073
11	0xbcebd316	-0.028787177
12	0x3cab0ca4	0.020880051
13	0x3d803e73	0.06261911
14	0xbd39f5db	-0.04540048
15	0xbc56b921	-0.013105662
16	0x3c9a7c58	0.01885812
17	0xbc9409af	-0.018071024
18	0xbcb94e26	-0.022620272
19	0xbcf95094	-0.03043393
20	0xbc53d06f	-0.012928112
21	0x3b5b5661	0.0033468234
22	0x3c6d3b8b	0.014479528
23	0xbcfe2132	-0.031021688
24	0xbb0b24a3	-0.0021231554
25	0xbc61e35a	-0.013787115
26	0xbcb45641	-0.022013785
27	0x3c6db31c	0.014508035
28	0x3c245aef	0.010031446
29	0xbc112345	-0.008858507
30	0x3c1cbf11	0.009567038
31	0xbd212327	-0.039340165
32	0xbd28d2ed	-0.04121678
33	0xbd29be1a	-0.04144106
34	0xbce2597a	-0.027630556
35	0x3ca6f4ec	0.02038046
36	0xbcf0e41b	-0.029405644
37	0xbd2c0980	-0.042001247
38	0x3c292035	0.01032262
39	0xbc8b4bbc	-0.017003886
40	0x3c540330	0.012940213
41	0xbb47daee	-0.0030495482
42	0xbcb92531	-0.022600742
43	0xbc6b95a8	-0.014378943
44	0x3d221c39	0.039577696
45	0xbc94b7f5	-0.018154124
46	0x3d9d6cf4	0.07686797
47	0x3c38ae22	0.011271985
48	0xbd94fee6	-0.072751805
49	0xbc5d4871	-0.013506041
50	0xbcf49cfc	-0.029860012
51	0x3b5a0b89	0.0033271036
52	0x3cd287fc	0.025699608
53	0xbcf950b8	-0.030433998
54	0x3d030e03	0.031995784
55	0x3cd7e47f	0.026354073
56	0xbc0e923f	-0.00870186
57	0xbd11720e	-0.03550916
58	0xbd153425	-0.036426682
59	0xbd01aebd	-0.031660784
60	0xbc4f087f	-0.012636303
61	0xbce91b0b	-0.028455278
62	0xbbd25a87	-0.006419483
63	0x3ce0fddb	0.027464798
64	0xbcdd21b7	-0.026993616
65	0xbd1ccec7	-0.038283136
66	0xbd1b6c31	-0.037944976
67	0xbce0f5fe	-0.027461048
68	0xbcb36044	-0.021896489
69	0x3d1a8755	0.03772672
70	0x3bc3f857	0.005980532
71	0x3ce7d4ce	0.028299715
72	0xbb0911d9	-0.002091518
73	0xbb120677	-0.0022281685
74	0x3c2a47cc	0.010393094
75	0xbc37fb9f	-0.011229425
76	0xbca9b842	-0.020717744
77	0xbcf9059e	-0.030398186
78	0x3c309475	0.010777582
79	0x3c1e634f	0.009667232
80	0xbcc36cbb	-0.023855558
81	0xbcde89e9	-0.02716537
82	0x3c686ec5	0.014186566
83	0xbd0ab6f1	-0.033865873
84	0x3bfd3d23	0.0077282353
85	0x3c93426e	0.017976012
86	0x3c76e79c	0.015069868
87	0xbc8d7bb7	-0.017270906
88	0xbcfc903b	-0.030830493
89	0xbd1b2c5e	-0.03788411
90	0xbd1228e0	-0.035683513
91	0xbc0560b1	-0.008140729
92	0x39a998d9	0.00032348072
93	0x3cd2cb81	0.025731804
94	0xbcda786d	-0.026668752
95	0xbb04c64d	-0.0020259798
96	0x3d0b3431	0.03398532
97	0xbcd27233	-0.02568922
98	0x3d137767	0.036002543
99	0xbcc171fa	-0.023613919
100	0x3b57afa8	0.0032911096
101	0xbcdf01a5	-0.027222464
102	0xbd0d8398	-0.034549326
103	0xbb20f373	-0.002455917
104	0xbca3b0a1	-0.019981684
105	0x3cb28e6a	0.021796424
106	0xbc1b6568	-0.009484626
107	0x3d9a0e10	0.075222135
108	0xba450fdd	-0.00075173174
109	0x3cad468e	0.021151807
110	0x3c3a264c	0.01136167
111	0xbc8630a0	-0.016380608
112	0xbcb18d27	-0.021673752
113	0xbd17494c	-0.036935136
114	0xbd143e4b	-0.03619222
115	0xbb2e99dc	-0.0026642
116	0x3c8e3f6d	0.017364228
117	0xbd036e93	-0.032087874
118	0xbcd797ae	-0.026317444
119	0xbcedd4d2	-0.029032145
120	0x3ca5539b	0.020181468
121	0x3c0e22a9	0.008675256
122	0x3c0680f3	0.008209455
123	0x3abdeb88	0.001448975
124	0xbd0c890f	-0.034310397
125	0xbd223755	-0.03960355
126	0xbd09b609	-0.033620868
127	0x3b5428ed	0.0032373026
128	0xbc82317f	-0.015892742
129	0x3d326407	0.043552425
130	0x3c898de1	0.016791286
131	0x3cdb2660	0.026751697
132	0x3d0c2af6	0.03422066
133	0xbcb88dca	-0.022528548
134	0xbc627896	-0.013822695
135	0x3c9fe936	0.019520383
136	0xbbb5c5b4	-0.0055472497
137	0x3c53b2db	0.01292106
138	0x3cd602ad	0.026124323
139	0xbd0ee152	-0.03488285
140	0xbcee479f	-0.029086886
141	0x3b02314d	0.0019865811
142	0xbcb46943	-0.022022849
143	0xbcc5a5bb	-0.024126878
144	0xbc3a2caa	-0.011363188
145	0x3b0123d8	0.0019705202
146	0x3d0619c7	0.032739427
147	0xbca9ca6f	-0.02072641
148	0x3c1fb484	0.009747628
149	0x3dc2fa67	0.09520417
150	0xbc0522c1	-0.008125962
151	0xbc4dad96	-0.012553593
152	0x3be58237	0.007004048
153	0x3d13ff1f	0.036131974
154	0xbc3b2796	-0.011423012
155	0x3b9ff489	0.004881446
156	0x3cf6570d	0.030070806
157	0x3cbb0542	0.022829656
158	0xbb806be5	-0.003919112
159	0xbbd670b5	-0.0065441974
160	0x3df15977	0.11784642
161	0xbcbe77bf	-0.023250459
162	0xbcda6761	-0.026660623
163	0xbcb56b4e	-0.022145893
164	0x3cb24913	0.02176336
165	0x3ca58d41	0.020208957
166	0x3bc8790c	0.0061179455
167	0x3cc3ed40	0.02391684
168	0xbca4b0d6	-0.020103853
169	0xbc3452f3	-0.011006105
170	0x3c2b7e11	0.010467068
171	0xbd034886	-0.032051586
172	0x3cc8d252	0.024514351
173	0xbc9fd9e6	-0.019513082
174	0x3b3d12da	0.0028850348
175	0xba86ee86	-0.0010294474
176	0xbb29b2bd	-0.002589389
177	0x3d1d4fe9	0.038406286
178	0xbcfa7f4a	-0.030578274
179	0x3d49a02b	0.049225014
180	0xbcb40138	-0.021973237
181	0xbd39838a	-0.04529146
182	0xbd136f3e	-0.03599476
183	0xbbc3140a	-0.0059533166
184	0xbba1bae8	-0.004935611
185	0x3cd17387	0.025567783
186	0xbc96de0a	-0.018416423
187	0x3a625de8	0.0008635209
188	0x3b12da90	0.0022408105
189	0xbcc11f1d	-0.023574406
190	0xbc2ee251	-0.010674075
191	0x3cb91610	0.022593528
192	0x3a2290ec	0.00062014046
193	0xbd02efca	-0.031966962
194	0xbcbf7ac5	-0.02337397
195	0x3ce9bd8a	0.028532762
196	0x3d72ebcd	0.05930691
197	0xbd0cc68f	-0.034369048
198	0xbb6b97ea	-0.0035948702
199	0xbcb41020	-0.021980345
200	0x3c684656	0.014176926
201	0x3d4297b0	0.04750794
202	0xbb98ba22	-0.0046608606
203	0x3c97f9ec	0.01855179
204	0xbbef149f	-0.0072961594
205	0x3c1a8fde	0.009433715
206	0x3c4a2f32	0.012340354
207	0xbba89e93	-0.0051458566
208	0x3c677782	0.014127614
209	0x3d5d3ca3	0.054012906
210	0xbc92218f	-0.017838268
211	0x3ba6a42e	0.0050854897
212	0x3cb3b88c	0.021938585
213	0xbcd896ed	-0.026439155
214	0x3d3511fb	0.0442066
215	0x3dad7045	0.08468679
216	0xbbe60761	-0.0070199226
217	0xbc9318d6	-0.017956179
218	0xbd07d426	-0.033161305
219	0xbc81805a	-0.015808273
220	0x3d5026e5	0.050818343
221	0xbccd1fdb	-0.025039604
222	0xbc520961	-0.012819619
223	0xbb37d345	-0.002804951
224	0xbc2c19ed	-0.010504228
225	0xbbe1b8af	-0.006888471
226	0xbc67f845	-0.014158313
227	0x3c2830a6	0.010265505
228	0x3c65fb64	0.014036987
229	0xba632537	-0.0008664908
230	0x3d682b84	0.056682125
231	0x3d3de7a2	0.04636348
232	0x3acea18f	0.0015764701
233	0x3c8128a9	0.015766459
234	0xbd88877c	-0.066664666
235	0x3d0b30ee	0.03398221
236	0xbcf16738	-0.029468164
237	0x3d3f2e8f	0.04667526
238	0xbd0329a0	-0.03202212
239	0x3c8be275	0.017075757
240	0xbcc5335e	-0.024072345
241	0x38e89d62	0.00011091937
242	0xbd0c1bb4	-0.034206107
243	0x3bc73111	0.006078847
244	0xbcaa2696	-0.020770352
245	0x3c0f196d	0.008734089
246	0xbcea3778	-0.028590903
247	0x3d001905	0.03127386
248	0xbd2b2191	-0.04178006
249	0xbc4f9357	-0.012669406
250	0xbd898237	-0.0671429
251	0x3c95eeb4	0.0183023
252	0xbd0dcb6a	-0.03461782
253	0x3c2a64b2	0.010399984
254	0xbd2edb27	-0.04268947
255	0xbd1cfc2d	-0.03832643

fc2_lin.weight f4 [128, 256]
0	0xbb7b6921	-0.0038362222
1	0xbcaf8ae0	-0.021428525
2	0x3c128e6d	0.00894509
3	0xbc4962ef	-0.012291654
4	0xbc209054	-0.0098000355
5	0x3bfe5126	0.0077611385
6	0xbc9e3d8e	-0.019316461
7	0x3c93c8fb	0.01804017
8	0x3b6318a8	0.0034652147
9	0x3d0f5295	0.034990866
10	0xbafde6b7	-0.0019371127
11	0xbbb28b14	-0.0054487083
12	0xbc5e5fc2	-0.013572635
13	0xbc78227c	-0.0151449405
14	0x3cb702a7	0.022340132
15	0x3c8e5de5	0.017378757
16	0x3ab09b47	0.0013474011
17	0x3bf9b34b	0.0076202503
18	0xbc5e9915	-0.013586302
19	0x3c56cffa	0.013111109
20	0x3c9464ba	0.018114436
21	0xbc86a5cb	-0.016436478
22	0x3c08f545	0.008359258
23	0xba59c1a5	-0.00083067484
24	0xbbf605cc	-0.0075080153
25	0x3bcf8045	0.0063324296
26	0x3ac8ecd2	0.0015329367
27	0xbc3e38c7	-0.011610216
28	0x3b31e483	0.002714426
29	0x3c86baa6	0.016446423
30	0xbc8ae9bf	-0.016957162
31	0x3c89fa3c	0.016842954
32	0x3c44921f	0.011997729
33	0x3bcd3190	0.006262012
34	0x3c331e5f	0.010932534
35	0x39692b59	0.0002223676
36	0xbb508b43	-0.0031821288
37	0x3c359cbf	0.011084734
38	0x3c13b2a1	0.009014756
39	0x3c0a729c	0.008450177
40	0x393ed536	0.0001819924
41	0xbbbdb93b	-0.0057899035
42	0xb8c12da7	-9.2114606e-05
43	0x3c878a2d	0.01654538
44	0xbc8b062b	-0.016970715
45	0xbc398ece	-0.011325551
46	0x3b943b27	0.004523653
47	0xbc616794	-0.013757605
48	0x3c9696ac	0.018382393
49	0xbc183716	-0.009290477
50	0xbc5d9279	-0.013523691
51	0x3c7fe23c	0.015617903
52	0x3c89d325	0.016824314
53	0xbc1fef54	-0.00976165
54	0xbaa6ee81	-0.0012735875
55	0x3b51564c	0.0031942306
56	0xba213321	-0.00061492814
57	0x3c93637c	0.017991774
58	0xbbe2e7c9	-0.0069246036
59	0x3ca0cfae	0.01963028
60	0xbb803a48	-0.0039131977
61	0xbc1136b5	-0.008863141
62	0x3b954e1b	0.00455643
63	0x3b08935c	0.0020839786
64	0x3d45e8e7	0.048317816
65	0x3b8dddc0	0.004329413
66	0xba8ec4f3	-0.0010892436
67	0xbc96d72c	-0.018413149
68	0xbc51dc17	-0.012808821
69	0xbc90f4e9	-0.017694907
70	0xbbc457c2	-0.005991907
71	0xbc0fbcf8	-0.008773081
72	0xbc8f520f	-0.017495183
73	0xbc3e3992	-0.0116104055
74	0xbc78f943	-0.015196147
75	0xbb9e0467	-0.004822302
76	0x3c9ff34f	0.019525198
77	0x3bb63e50	0.0055616274
78	0x3c277060	0.010219663
79	0x3d147dc4	0.036252752
80	0x3c1527c5	0.00910372
81	0x3c764c39	0.015032821
82	0xbc1761ac	-0.009239595
83	0xbc23c08f	-0.00999464
84	0x3c8d2e12	0.017233882
85	0x3c6dd41a	0.014515901
86	0xbc0426cb	-0.00806589
87	0x3c643ba0	0.013930231
88	0x3d23beb1	0.03997678
89	0x3b6215b4	0.00344978
90	0x3b00d393	0.0019657358
91	0x3c9f214b	0.019425055
92	0x3d3723dd	0.044711936
93	0x3c8a7748	0.01690258
94	0xbc202ba9	-0.009776034
95	0xbc9746b9	-0.01846634
96	0xbcb35819	-0.021892594
97	0x382214f5	3.8643328e-05
98	0xbc4dbc3d	-0.012557087
99	0x3baf16c9	0.0053432924
100	0x3bbe099c	0.0057994854
101	0x3c55c545	0.013047521
102	0x3c9f5425	0.019449303
103	0xbc691555	-0.014226277
104	0xbc925549	-0.017862933
105	0x3c0bee9f	0.008540778
106	0xbc8364c3	-0.016039258
107	0xbbdfe888	-0.00683314
108	0x3c8d6a14	0.017262496
109	0x3b4f3402	0.0031616692
110	0x3c2be605	0.010491853
111	0x3cc5ab58	0.024129555
112	0x3c7faddb	0.015605415
113	0x3c9b5cc0	0.018965125
114	0xbb8fdbcd	-0.004390216
115	0xbc80da3d	-0.015729064
116	0x3b4546b5	0.003010196
117	0x3c9737bf	0.018459199
118	0x39b26f61	0.0003403379
119	0xbaf21d68	-0.0018471899
120	0xbc1d92eb	-0.0096175475
121	0x3bb63def	0.0055615823
122	0xbc0e2b72	-0.00867735
123	0x3c4cd56f	0.012502058
124	0xbb6f16b5	-0.003648204
125	0x3c4c3466	0.012463665
126	0x3c8327cb	0.016010186
127	0xbac44e13	-0.0014976881
128	0x3c85a493	0.016313827
129	0xbcbff91e	-0.023434218
130	0x3b7a1db2	0.0038164672
131	0x3b029948	0.0019927789
132	0xbb44baab	-0.003001849
133	0xbc8f8b6a	-0.017522532
134	0xba06f4b5	-0.00051481585
135	0xbb7ef685	-0.0038904261
136	0xbabe6a26	-0.0014527484
137	0xbc1b8b23	-0.009493622
138	0x3bf59414	0.007494459
139	0x3bd6b3b3	0.0065521835
140	0xbbe106db	-0.0068672723
141	0xbb87cb23	-0.004144089
142	0x3b4a3337	0.003085328
143	0x3c27628a	0.010216365
144	0xbc9ea723	-0.019366806
145	0x3c124059	0.0089264745
146	0x3bbba859	0.0057268557
147	0x3bc65de5	0.0060536736
148	0xbca59873	-0.020214295
149	0xbcb24fb0	-0.021766514
150	0xbbbafa0e	-0.0057060784
151	0xbc88f128	-0.016716555
152	0xbc850ed4	-0.016242422
153	0xbc142e54	-0.009044249
154	0x3c707482	0.014676215
155	0xbc7f445f	-0.015580266
156	0x3c85b767	0.016322805
157	0xbbd97ab9	-0.006636944
158	0x3d2a6858	0.041603416
159	0x3bdb3c98	0.006690573
160	0xbcee2d61	-0.029074373
161	0x3c9f8876	0.01947425
162	0xbb9d6ccc	-0.0048042294
163	0x3d2a5ec7	0.041594293
164	0xbc40c6ef	-0.011766179
165	0xbcaef220	-0.021355689
166	0xbc69d4b5	-0.014271905
167	0xbc2393b2	-0.009983944
168	0xbc1cc584	-0.009568576
169	0xbae7aa77	-0.0017674704
170	0x3cee66c4	0.029101737
171	0xbbdeed1f	-0.0068031694
172	0xbb7068e4	-0.0036683613
173	0x3c83df66	0.016097736
174	0xbc2ffe6f	-0.010741814
175	0xb953d3b9	-0.00020201401
176	0xbc21602a	-0.009849587
177	0xbc6eb2dd	-0.0145690115
178	0x3c8e2c31	0.017355056
179	0xbca0652d	-0.019579494
180	0x3c7a5b08	0.015280493
181	0x3d0b7f7e	0.034057133
182	0x3cf5f2bc	0.030022971
183	0xbc870ce1	-0.016485633
184	0xbc1bb904	-0.00950456
185	0xbc419b47	-0.011816806
186	0xbc5231f6	-0.012829294
187	0xbc2af2e0	-0.0104338825
188	0xbb4ede12	-0.003156547
189	0xb8abb679	-8.1879036e-05
190	0xbbbbbba9	-0.005729158
191	0xbb338a93	-0.002739583
192	0x3b13519f	0.002247907
193	0x3c0a617d	0.008446095
194	0x3bf88cac	0.007585129
195	0xbb9f6a22	-0.004864947
196	0xbca51290	-0.020150453
197	0x3c69a358	0.014260136
198	0x3c905ec1	0.017623307
199	0x3c771d7a	0.015082711
200	0x3b91f4fe	0.004454254
201	0xbc70dd05	-0.014701133
202	0xbc14e290	-0.00908722
203	0xbc5cf93a	-0.013487155
204	0xbb7f632f	-0.003896903
205	0xbc87c19e	-0.016571816
206	0xbc52eb27	-0.0128734475
207	0x3cac3355	0.02102057
208	0x3cd0aae4	0.025472112
209	0xbcb96bea	-0.022634465
210	0xbb8b49c1	-0.0042507355
211	0xbc77c10d	-0.0151217105
212	0xbcb1efdf	-0.021720825
213	0x3b5782d7	0.0032884383
214	0x3c6f8877	0.014619938
215	0xbbb44841	-0.0055017774
216	0xbba54007	-0.005043033
217	0x3b2d8921	0.002647944
218	0x396b36b8	0.00022431731
219	0xb8ffb507	-0.000121930665
220	0xbbe54099	-0.006996226
221	0xbc145303	-0.009052995
222	0xbab1b65e	-0.0013558378
223	0x3c7714ec	0.015080672
224	0xbc8f7ce1	-0.017515602
225	0x3c9072d4	0.01763288
226	0x3cdea551	0.027178438
227	0xbcb186f7	-0.021670802
228	0x3bbd95ab	0.005785664
229	0xbc750b45	-0.0149563
230	0x3b817374	0.0039505307
231	0xbc053617	-0.008130572
232	0xbc5aaa79	-0.013346308
233	0x3c12aed5	0.008952816
234	0x3c0fe52a	0.008782664
235	0xbb9c1dad	-0.00476428
236	0xbaf3f6fb	-0.0018613035
237	0xbd0a0b7d	-0.033702362
238	0x39788aa2	0.00023702768
239	0xbaf49862	-0.0018661136
240	0xbc73c475	-0.014878382
241	0xbc52af5c	-0.012859192
242	0x3c9a4124	0.01882989
243	0x3c375bbf	0.011191308
244	0x3ba68f97	0.005083035
245	0xbc82fd25	-0.01598985
246	0xbc4cfdd2	-0.012511687
247	0x3c1ed0b0	0.00969331
248	0xbc9367dd	-0.017993862
249	0x3d5c28bb	0.05374978
250	0x3c28abae	0.010294838
251	0x3ba3e87b	0.005002079
252	0x3cc33328	0.023828104
253	0xbc53a9dc	-0.012918916
254	0xbc32dbe8	-0.010916688
255	0xbc2a015a	-0.010376299

fc2_lin.bias f4 [128]
0	0x3d0abb3d	0.03386997
1	0x3a5dc207	0.0008459393
2	0x3c14fbc6	0.009093231
3	0xbd1b514e	-0.037919335
4	0x3dd23416	0.10263841
5	0xbc971588	-0.018442884
6	0x3ce74d31	0.02823505
7	0x3abb7358	0.0014301343
8	0x3c992413	0.01869396
9	0xbbf5cb1b	-0.0075010187
10	0xbc45f530	-0.012082383
11	0x3dcbcfd0	0.099517465
12	0x3c28a329	0.010292807
13	0xbd50d3f0	-0.05098337
14	0xbb14b750	-0.002269227
15	0x3b959372	0.004564696
16	0x3b388b5a	0.0028159232
17	0xbc6b0b13	-0.014345902
18	0xbc6077e8	-0.013700463
19	0x3aaf2e3f	0.0013365223
20	0x3ca6283b	0.020282855
21	0x3bbd5e50	0.005779065
22	0xbc5be7c2	-0.013421955
23	0xbbadf05a	-0.005308193
24	0xba7807c6	-0.00094616076
25	0xbc2ca9a8	-0.010538496
26	0x3a48b6b8	0.0007656622
27	0xbc1927bc	-0.009347852
28	0x3ce4691e	0.027882155
29	0xbd4deab3	-0.050272655
30	0x3da7cbec	0.08193192
31	0x3c2cbbd2	0.010542827
32	0xbc8fde3a	-0.01756202
33	0xbcd17f64	-0.02557344
34	0xbb81a6b1	-0.0039566387
35	0xbd0e448c	-0.03473334
36	0xbc9176a1	-0.017756762
37	0x3dc201f8	0.09473032
38	0xbcc7e5e1	-0.024401607
39	0xbcc8e7cc	-0.024524592
40	0xbb9df248	-0.004820142
41	0xbcbb8b87	-0.02289368
42	0xbc6e50cf	-0.014545633
43	0x3b67d2bc	0.003537341
44	0x3dc60068	0.09668046
45	0xbcb98252	-0.02264515
46	0xbca940ca	-0.020660777
47	0x3dd677b0	0.10472047
48	0x3d904a46	0.070454165
49	0x3da8e896	0.08247487
50	0xb8c10b15	-9.205021e-05
51	0x3da8880b	0.08229073
52	0x3cc09647	0.023509158
53	0x3b0e52d2	0.0021716845
54	0x3d5a3374	0.053271726
55	0x3b86f497	0.004118513
56	0xbc5660d8	-0.013084613
57	0x3d3962b6	0.045260154
58	0x3db463d3	0.088081025
59	0x3d3ed0be	0.04658579
60	0x3c4391b5	0.011936595
61	0xba121d3d	-0.0005573815
62	0xbce015d9	-0.027354168
63	0x3d7bfe61	0.06152189
64	0x3d186602	0.037206657
65	0xbcc0330a	-0.023461837
66	0xbc96b72b	-0.018397888
67	0xbd4fcf0c	-0.050734565
68	0xbca356ec	-0.019938909
69	0x3c9422cf	0.018083004
70	0x3db9f055	0.09079043
71	0x3d63b2ce	0.055590443
72	0x3b7e21de	0.003877751
73	0x3dded33c	0.108801335
74	0x3ca5d66b	0.020243844
75	0xbc8fdb06	-0.017560493
76	0xbbc3f798	-0.005980443
77	0x3a2fc55b	0.00067051285
78	0xbaabd524	-0.0013109786
79	0x3d83c8a0	0.064347506
80	0xbd6bc352	-0.05755932
81	0xbc970ef9	-0.018439757
82	0x3e187f60	0.1489234
83	0xbc0e739a	-0.008694554
84	0xbbafe1e4	-0.0053675044
85	0x3d224fe1	0.03962696
86	0xbc423dd6	-0.011855563
87	0xbc1217c0	-0.008916795
88	0x3c17507a	0.009235496
89	0xbcbff51d	-0.023432309
90	0x3d210e71	0.039320413
91	0xbb4c7790	-0.0031199194
92	0xbcb560be	-0.022140857
93	0xbcc2e0e2	-0.023788873
94	0x3c04b517	0.008099816
95	0xbc1db4bc	-0.00962561
96	0xbc9b6d25	-0.018972943
97	0xbd3cbf38	-0.046080798
98	0x3c7066f9	0.014672988
99	0xbca0b9ab	-0.019619783
100	0x3c35d379	0.011097782
101	0xbc8e5c92	-0.017378125
102	0x3cf02651	0.029315146
103	0x3cb42ca6	0.021993946
104	0xbc8b501e	-0.017005976
105	0x3d1bf77d	0.03807782
106	0xbc895e54	-0.016768612
107	0xbc6bdb7d	-0.014395592
108	0x3d33a192	0.043855257
109	0x3cf243be	0.029573318
110	0x3c172581	0.00922525
111	0xbb38773f	-0.0028147248
112	0xbb7194c0	-0.0036862344
113	0xbc08eba3	-0.008356961
114	0x3db8aa9b	0.090169154
115	0x3e00bf4d	0.12572975
116	0x3c59e75e	0.013299791
117	0x3bd4eba9	0.0064978194
118	0x3d360378	0.0444369
119	0x3d3f5826	0.046714924
120	0xbc82eddf	-0.015982566
121	0x3d3632c6	0.044482015
122	0x3c7b61be	0.015343128
123	0xbc561b8d	-0.013068092
124	0xbbf6282a	-0.007512112
125	0xbc7cb52b	-0.015424053
126	0x3ce0e797	0.02745418
127	0x3bf4d537	0.0074717063

fc3_lin.weight f4 [64, 128]
0	0xbb578ff7	-0.0032892206
1	0xbc22d778	-0.009939067
2	0xbc927354	-0.017877258
3	0xbceb704b	-0.028740069
4	0xbc50c850	-0.012743071
5	0x3b8ce632	0.0042999024
6	0xbcb1ce8d	-0.021704936
7	0x3bb18207	0.005417112
8	0xbba055b9	-0.0048930314
9	0xbbddabe0	-0.006764874
10	0x3ae19a14	0.0017212057
11	0x3cc9d271	0.02463648
12	0x3c031623	0.008000883
13	0xbc392d28	-0.01130227
14	0x3b7d637a	0.003866403
15	0xbc0213fc	-0.007939335
16	0x3cbd79fc	0.023129456
17	0x3bc2eb03	0.0059484257
18	0x3c17729d	0.0092436345
19	0xbcac7b75	-0.021054963
20	0xbc9b975e	-0.018993076
21	0xbcc383a1	-0.023866476
22	0x3cc747ba	0.024326194
23	0xbc8b2664	-0.01698608
24	0xbbaa3970	-0.0051948354
25	0xbc0c30bc	-0.008556541
26	0x3c0818c8	0.00830669
27	0xbcdbe860	-0.026844203
28	0xbb68572d	-0.0035452351
29	0xbccf530b	-0.025308153
30	0x3ca400b7	0.020019872
31	0x3b9ae897	0.004727434
32	0xbce897e0	-0.028392732
33	0xbcd2f1c9	-0.025750058
34	0xbbf6b01b	-0.0075283176
35	0x3c88c901	0.016697409
36	0xba343ea9	-0.0006875792
37	0x3b278a9a	0.002556479
38	0xbc620abd	-0.0137965055
39	0xbcb4cd5f	-0.022070585
40	0xbab1b003	-0.0013556484
41	0x3c6f06c1	0.014589013
42	0xbc07eb72	-0.008295881
43	0x3c689055	0.014194568
44	0x3b1e54d4	0.0024159448
45	0x3c32873d	0.010896501
46	0x3c1145fb	0.008866782
47	0xbb81d97d	-0.003962694
48	0xbaca5745	-0.0015437385
49	0xbcdab709	-0.026698606
50	0xbc1e0c60	-0.009646505
51	0x3ba7a8b1	0.005116545
52	0xbcb1dba1	-0.021711173
53	0xbc90138a	-0.017587442
54	0xbc1fe311	-0.009758727
55	0x3aa092cf	0.0012250784
56	0xbcc7a49b	-0.024370482
57	0xbcb834bf	-0.022486089
58	0xbcb06602	-0.021533016
59	0x3cbbddeb	0.022932967
60	0xbbfa294b	-0.007634317
61	0x3cac0d40	0.021002412
62	0x3cca00d7	0.024658604
63	0x3c37019e	0.011169819
64	0x3ca256e6	0.019816827
65	0x3a672fb6	0.000881906
66	0xbcca6442	-0.02470601
67	0x3c4c0138	0.012451462
68	0xbc58245b	-0.013192262
69	0xbccc2de0	-0.024924219
70	0xbc7a4379	-0.015274876
71	0x3cd5d069	0.026100354
72	0xbc2460a8	-0.01003281
73	0x3ccb4e29	0.024817543
74	0x3c5f4da8	0.013629355
75	0x3c4250ee	0.011860115
76	0xbcdaad6c	-0.026694022
77	0xba858acb	-0.0010188458
78	0x3c8a184e	0.016857293
79	0x3c16dbd1	0.009207682
80	0x3c9e12a2	0.019295994
81	0xbcb407c5	-0.021976361
82	0x3ca0c76f	0.019626347
83	0x3cb48c17	0.022039456
84	0xbc6eb62d	-0.014569801
85	0xbca2ce4e	-0.019873764
86	0x3cb09105	0.021553526
87	0x3cb91c9a	0.022596646
88	0xbc8570ab	-0.016289076
89	0x3baad70c	0.005213624
90	0xbcbc8576	-0.023012858
91	0xbbeefec7	-0.0072935554
92	0xbcc05401	-0.023477556
93	0xbb765ea5	-0.0037593034
94	0xbbe75d93	-0.0070607155
95	0x3c4cd71e	0.01250246
96	0xbce1f83b	-0.027584186
97	0xbba15417	-0.0049233544
98	0x3c0e2c95	0.008677621
99	0xbc869126	-0.016426634
100	0xbcf739d9	-0.030178951
101	0xbb9bbbc7	-0.0047526094
102	0xbc89e9b6	-0.016835075
103	0x3c1cd01f	0.009571104
104	0x3b72057c	0.0036929538
105	0x3bc19ce6	0.0059085963
106	0xbc31f98a	-0.010862717
107	0xbc95444e	-0.018221047
108	0xbc913149	-0.017723696
109	0x3bf55bae	0.0074877357
110	0xbb8f4513	-0.004372248
111	0x3c097149	0.008388826
112	0xbbbed1b3	-0.005823338
113	0xbb65981a	-0.0035033287
114	0xbcd9c8ab	-0.026584944
115	0xbc92f70f	-0.017940072
116	0xbc20860b	-0.009797583
117	0xbb32d470	-0.0027287267
118	0xbc9807a1	-0.018558325
119	0x3cbef8be	0.023311969
120	0xbcd0ee85	-0.02550436
121	0xbc7dc239	-0.015488201
122	0x3cb5c892	0.022190366
123	0x3c13cf84	0.009021644
124	0x3c7cbb5c	0.015425529
125	0xbc302233	-0.010750341
126	0x3aedaa0e	0.0018132345
127	0x3c4ad160	0.01237902
128	0x3bb64021	0.005561844
129	0x3cdb8fa1	0.026801886
130	0x3c54a111	0.012977854
131	0x3d01108d	0.031509925
132	0xba752706	-0.0009351823
133	0x3c80ed10	0.01573804
134	0xbca54e45	-0.020178923
135	0x3d06132e	0.032733135
136	0xbdbab60f	-0.09116756
137	0x3c46c700	0.012132406
138	0x3ca0b27b	0.019616356
139	0x3d2e70ad	0.042587925
140	0xbcab9bd9	-0.020948337
141	0x3cc80f01	0.024421217
142	0xbca7b430	-0.020471662
143	0x3c1e07b3	0.00964539
144	0x3d359c0e	0.04433828
145	0xba60c09f	-0.00085736247
146	0x3cc32519	0.0238214
147	0x3be083a8	0.006851632
148	0xbca9e640	-0.020739675
149	0xbd6edba0	-0.05831492
150	0xbc8d9773	-0.01728413
151	0xbb2f753c	-0.0026772758
152	0x3ca0c933	0.01962719
153	0x3c6a1589	0.014287361
154	0xbc5ba955	-0.013407071
155	0xbc364066	-0.011123752
156	0x3bc2cdac	0.005944928
157	0x3dcb05ee	0.099132404
158	0xbdbf09a4	-0.09328011
159	0xbbbc630c	-0.005749112
160	0x3c8aad19	0.016928243
161	0xbb13297f	-0.0022455154
162	0x3cdae0fc	0.026718609
163	0x3d404541	0.046941046
164	0xbc0aeb3f	-0.008478939
165	0xbc434f0e	-0.011920704
166	0x3c34ccf4	0.011035193
167	0x3b9c6018	0.0047721975
168	0x3be201f9	0.006897208
169	0x3b04d208	0.002026679
170	0x3b21585a	0.0024619312
171	0xba0d7c65	-0.00053972594
172	0x3df486cd	0.11939774
173	0x3d1129ce	0.03544026
174	0x3cc672d2	0.024224672
175	0x3d6bc402	0.057559974
176	0xbd846855	-0.06465212
177	0x3d1f7c7c	0.038937077
178	0x3d0125af	0.03153008
179	0x3d481bf5	0.048854787
180	0xbc84f34a	-0.01622929
181	0xbd97dd7e	-0.07415293
182	0xbc5cf378	-0.013485782
183	0xbc760617	-0.0150161
184	0x3c2291d5	0.009922464
185	0xbd8b628a	-0.06805904
186	0x3c8f64af	0.017504064
187	0xbd26902a	-0.04066483
188	0xbc3d6183	-0.011558893
189	0xbc945291	-0.018105777
190	0x3b904ee5	0.004403936
191	0x3d1ef1b5	0.03880473
192	0xbda84c3b	-0.08217665
193	0x3ca435dc	0.020045213
194	0xbcc6542b	-0.024210056
195	0x3c1a6362	0.009423109
196	0xbc144f3a	-0.009052092
197	0x3c7b8fb6	0.015354088
198	0x3c2e213d	0.010628042
199	0x3d7e52c8	0.062090665
200	0xbcfa8900	-0.030582905
201	0x3d409334	0.047015384
202	0xbd852aef	-0.065023296
203	0x3997e9d1	0.0002897517
204	0x3d23fc34	0.04003544
205	0x3ccfa799	0.025348471
206	0x3daeb8fe	0.08531378
207	0x3d2e285a	0.04251895
208	0x3d1104ab	0.035404842
209	0x3abc2afe	0.0014356074
210	0xbc470612	-0.012147443
211	0xbd59d036	-0.05317708
212	0xba3d7579	-0.00072272826
213	0xbd46600d	-0.048431445
214	0xbb80ecd8	-0.003934484
215	0xba53f2ec	-0.00080852094
216	0x3b804536	0.0039145006
217	0x3cdad672	0.026713584
218	0x3d4d191d	0.050072778
219	0xbbbca2f2	-0.0057567293
220	0xbca7af82	-0.02046943
221	0x3c3c5bd2	0.011496501
222	0xbc7ccdbf	-0.015429913
223	0xbbc300a3	-0.0059510036
224	0x3d67aaab	0.056559246
225	0x3cac39bb	0.021023622
226	0x3c8bf086	0.017082464
227	0xbc14bb17	-0.009077809
228	0x3ca4fea0	0.020140946
229	0xbc90c5b1	-0.017672392
230	0x3be686a1	0.007035092
231	0xbd2dbf96	-0.04241904
232	0x3c779371	0.015110836
233	0xbb4a48ae	-0.0030866074
234	0x3c7da783	0.015481832
235	0xbaa217a4	-0.0012366665
236	0xbd666108	-0.05624488
237	0x3c7d6576	0.015466085
238	0x3cefdae5	0.029279182
239	0xbdb93ae7	-0.09044438
240	0x3cfb040f	0.030641584
241	0x3d028871	0.031868402
242	0x3c926b09	0.017873304
243	0x3d96f1ec	0.07370362
244	0x3cbaff45	0.0228268
245	0xbce40d06	-0.027838241
246	0x3d0b6ac5	0.03403737
247	0xbcb6ebb3	-0.022329187
248	0xbc2d0ff3	-0.010562885
249	0xbb301350	-0.002686698
250	0xbc355cb6	-0.011069467
251	0x3c30526d	0.010761839
252	0xbc2355c1	-0.009969176
253	0xbca1764f	-0.019709734
254	0x3ca39b1b	0.019971421
255	0xbd9ba653	-0.07600083

fc3_lin.bias f4 [64]
0	0xbbbcb7b5	-0.0057592043
1	0x3d4419ac	0.047876045
2	0x3dc4f703	0.09617426
3	0xbd146167	-0.036225703
4	0x3db4ff5c	0.088377684
5	0xbbbf3f63	-0.0058364137
6	0x3de52376	0.11188404
7	0x3dba3c95	0.09093586
8	0xbc17df5f	-0.009269564
9	0xbc9be124	-0.019028254
10	0x3d2acc3c	0.04169868
11	0x3cbc3ffd	0.02297973
12	0xbd3d0b64	-0.04615344
13	0x3db1fe8c	0.08691129
14	0x3d4eae8f	0.05045944
15	0x3dcca736	0.099928305
16	0xbd037aff	-0.03209972
17	0x3d9687cc	0.0735012
18	0x3dd8f56f	0.10593688
19	0x3d7fdb1f	0.06246483
20	0xbce73cdc	-0.028227262
21	0x3dd8346f	0.10556876
22	0x3de10131	0.10986555
23	0x3d787589	0.060658965
24	0xbd117ac3	-0.035517465
25	0x3decdb40	0.11565256
26	0x3dd2e08e	0.10296737
27	0xbd146a98	-0.03623447
28	0xbc729db9	-0.014808112
29	0x3dcf63f6	0.10126488
30	0x3e380240	0.17969608
31	0xbcea400d	-0.028594995
32	0x3dc33c64	0.09533003
33	0x3cd1e396	0.025621217
34	0x3dfaea0c	0.12251672
35	0x3e182e3e	0.1486139
36	0x3e1579b6	0.1459721
37	0x3bebf238	0.0072005056
38	0xb92f583c	-0.0001672217
39	0xbc9dd20b	-0.019265195
40	0xbd0bc68b	-0.034124892
41	0x3e0924ec	0.13392991
42	0x3e07b53e	0.13252732
43	0x3e0c7f7f	0.13720511
44	0x3cc2ae1b	0.02376466
45	0xbcc60b27	-0.02417524
46	0x3d4f372f	0.050589737
47	0xbd0b66c6	-0.03403356
48	0x3db0997e	0.08623026
49	0xbd18758d	-0.03722148
50	0xbccc17a1	-0.02491361
51	0xbce18b58	-0.027532265
52	0x3daaaa75	0.08333293
53	0xbd8039f6	-0.06261055
54	0x3e199e78	0.15001857
55	0x3d94fe2a	0.072750404
56	0xbc731ea6	-0.01483885
57	0x3e091337	0.13386236
58	0x3de227bb	0.11042734
59	0xbd0aa235	-0.0338461
60	0x3bafe7f2	0.005368226
61	0x3ddc4802	0.10755922
62	0xbd0ccfa7	-0.03437772
63	0xbd0df771	-0.034659807

fc4.weight f4 [2, 64]
0	0xbca6e404	-0.020372398
1	0x3e1d916a	0.15387502
2	0xbe3adad2	-0.18247536
3	0xbb91f16d	-0.004453829
4	0x3d701d4c	0.05862169
5	0xbd0da5ed	-0.034582067
6	0x3dca738d	0.09885321
7	0x3e44c72b	0.19216602
8	0x3c84c510	0.016207248
9	0x3ccf5db9	0.025313245
10	0x3da8c579	0.0824079
11	0x3cd55580	0.026041746
12	0xbc35a13d	-0.0110858055
13	0x3df53e07	0.119747214
14	0x3d6bc9c4	0.057565466
15	0x3d750d0b	0.059826892
16	0xbceb2df0	-0.028708428
17	0x3e01901d	0.12652631
18	0x3ddc0962	0.10743977
19	0x3d94acf4	0.07259551
20	0xbb10038f	-0.0021974777
21	0x3d9b22df	0.075750105
22	0x3dcc69da	0.09981127
23	0x3d9b2860	0.0757606
24	0xbc3cf7e6	-0.011533713
25	0xbe584d89	-0.21123327
26	0x3dd7328e	0.105076894
27	0x3c4f7b90	0.012663737
28	0x3cc0d7dc	0.02354043
29	0x3de69b0d	0.11260042
30	0xbeaa814f	-0.3330178
31	0x3d22e286	0.03976681
32	0xbe54c7a0	-0.20779276
33	0x3d9ac9d1	0.07558025
34	0xbe0a4de7	-0.1350628
35	0x3e38aa16	0.18033633
36	0x3e3db03e	0.18524262
37	0x3b3bf5d0	0.0028680451
38	0xbd080a2e	-0.033212833
39	0xbc98aade	-0.018636163
40	0xbc03f208	-0.00805331
41	0x3e2148d8	0.15750444
42	0xbe3b145d	-0.18269487
43	0xbe82c6cd	-0.25542298
44	0x3c4cc21f	0.012497454
45	0x3b6b924b	0.0035945352
46	0x3ca9b39c	0.020715527
47	0xbcb334ce	-0.021875765
48	0x3dc82c53	0.09774079
49	0x3b7d9795	0.0038695086
50	0x3a77df3f	0.00094555685
51	0x3c8b927e	0.017037626
52	0xbde34775	-0.11097614
53	0xbd32d0b2	-0.04365606
54	0x3e24e41e	0.16102645
55	0x3da06ab4	0.07832852
56	0x3cb66846	0.022266518
57	0x3de5cd9a	0.11220856
58	0x3e182a02	0.14859775
59	0x3d1152f2	0.035479493
60	0xbc8f06e2	-0.017459337
61	0x3de01bed	0.109428264
62	0xbb3efb21	-0.0029141384
63	0xbcd64306	-0.026155006
64	0xbcb293b8	-0.021798953
65	0xbdb6fb4d	-0.089346506
66	0x3df2eaf4	0.1186122
67	0x3c7d939f	0.01547709
68	0xbdfab833	-0.122421645
69	0xbc831358	-0.016000435
70	0xbe1e5ada	-0.15464345
71	0xbe20d07d	-0.15704532
72	0xbcb2aba8	-0.021810368
73	0xbb8dc9fb	-0.0043270565
74	0xbd7a5e34	-0.061124995
75	0x3c12fcbe	0.008971391
76	0x3ce4dad5	0.027936378
77	0xbda77eb7	-0.08178466
78	0xbcb04c36	-0.021520715
79	0xbdf4d241	-0.11954165
80	0x3b9e40c6	0.004829499
81	0xbde53020	-0.1119082
82	0xbe0e0390	-0.13868546
83	0xbd9956e7	-0.074872784
84	0xbb62c1b6	-0.0034600324
85	0xbde86102	-0.11346628
86	0xbe1e7b48	-0.15476716
87	0xbd486cf7	-0.048932042
88	0xbc9315a1	-0.01795465
89	0x3e35feb2	0.1777294
90	0xbe114de2	-0.14189866
91	0xbc4ae65c	-0.0123840235
92	0x3c4a0392	0.012329953
93	0xbe0d9349	-0.13825716
94	0x3e901e36	0.2814805
95	0x3cdb157e	0.026743647
96	0x3e4885f9	0.19582357
97	0xbc5420cf	-0.012947275
98	0x3ddfb6e5	0.10923556
99	0xbe3fec5e	-0.1874251
100	0xbe4e97c2	-0.20175079
101	0x3d051699	0.032492254
102	0x3ad24bd2	0.0016044325
103	0x3c66b325	0.014080797
104	0x3c5b8263	0.013397786
105	0xbe0ca902	-0.13736346
106	0x3e1291db	0.14313452
107	0x3e5c5537	0.21516882
108	0xbce06533	-0.027392006
109	0xbb2a0acb	-0.0025946375
110	0xbd5bb469	-0.05363885
111	0x3bcad5e2	0.0061900476
112	0xbd9e8611	-0.07740415
113	0x3d07c600	0.033147812
114	0x3ca278a0	0.01983291
115	0xba2e76d1	-0.0006655278
116	0x3e167f3f	0.14696978
117	0x3c220524	0.009888921
118	0xbe51e326	-0.20496807
119	0xbdcd63b5	-0.10028783
120	0x3cc04d88	0.02347447
121	0xbe0e8ae5	-0.13920172
122	0xbe23f313	-0.16010694
123	0x3c61a13c	0.013771351
124	0x3c81ff80	0.015868902
125	0xbdb4a53f	-0.08820581
126	0x3c8dc7f6	0.017307263
127	0xbbd1dec6	-0.0064047305

fc4.bias f4 [2]
0	0x3f858b4d	1.0433136
1	0xbf87e1fd	-1.0615841
