CE_naive/checkpoints/CE_NAIVE/model_epoch_300.pt (torch, 234127 bytes, 8 tensors)

fc1_lin.weight f4 [256, 64]
00000000: 2cde 7e3c 8e75 5fbc 241f ff3b 478e 99bc
00000010: da28 9bbb b8a4 1b3c 52b8 1d3c 47a5 cabb
00000020: 0422 f5ba 9400 a738 20fe 8db8 78ee 1d3b
00000030: 9e13 1b3b a2c2 80bc 7f8e 4d3c d094 b8b8
00000040: 69a9 58bb 9c92 e4bb a7de 0bbc c4b1 223b
00000050: 8f50 983c 7622 10bc 4f3c 343c 3edc 393c
00000060: 51c1 0d3b 8e79 36bc b1c5 493c 7da1 4fbb
00000070: 4d20 6dbc c886 383b 31c2 c0bb 5a48 843a
00000080: 8d26 4e3b 0ff5 2c3c 95b2 9ebc 23a7 953c
00000090: ca92 983b ba02 42bc db1b 923b 7a66 6c3c
000000a0: 4402 8a3b 8bec 79b9 288f 8f3c 8e67 4cbc
000000b0: a4d0 1abc 3fd6 983c 487b 8ebc da68 b43b
000000c0: ff4c e43b 02fb 6e3b c7a5 803c 7d71 743b
000000d0: 2ec4 80ba cde7 843c 1305 dcbb b63a 403b
000000e0: e29d ffba 43a7 6a3c 26a1 b5bb 7659 943b
000000f0: 6427 7c3c 1285 49bc 443e 453c 1e90 813c
00000100: 999d 8abd 4d25 3a3d 8dd1 d3bb e935 363b
00000110: 3fe7 8f3b 740c 0dbd 9e2c 203c c8ba 8c3c
00000120: 57e9 c13d 3c1d 8d3c 494e 6b3c e58e ff3c
00000130: 258a a83d fdea 7fbd ed41 a1bc 59dc 7a3b
00000140: 770e dbbb 9244 88bb 3f06 6c3c 4f23 47bb
00000150: 3176 afbd bd33 babb 3ba5 e0ba 6c55 0cbc
00000160: 0f6c 96bc 0f14 4fbc f25c 38bc d2dd 60bc
00000170: 48b7 863c 5f0f 7abc 0814 013e 229a 1b3d
00000180: 8591 093c 9414 3c3c 3f9d 453c 11b2 47be
00000190: 6c0d 0e3c 1202 eb3c c194 69ba dc1e 6ebc
000001a0: 803c 3d3e a25b 923c 800b 61bc a70e 82bd
000001b0: d811 59bc fb0b c2bb 0175 a0bc a176 773c
000001c0: c731 7f3c 9aac 263d caea 33bc 7515 0d3c
000001d0: 0f18 a4bd 0db4 303c b30d 9a3c 3857 3a3c
000001e0: bb02 8ebb a63e aabb f4fd cfbc b222 1bbd
000001f0: dcde ae3a eb61 0b3c d28c 08bd 0090 32bc
00000200: 61a9 713c 0e7e 0fbb 87e1 453b f3f8 3abc
00000210: bed3 08bc 15c1 3f3c 9da9 33bc 0455 19bc
00000220: ed02 c6bc 86c5 31ba b8b2 973c 25bc 45bc
00000230: 312c 73bb d46a 6a3c a542 2ebb e99c 7b3c
00000240: 1264 1c3c 98b2 47bc 8492 ccba e149 1b3c
00000250: e3dd e23c 9e4c 25bc c452 183c 5072 2bbb
00000260: 9aa8 723c 5f0a 38bc 844c 9e3c 12ab 01bc
00000270: 6f23 8bbc d906 b43a 9424 40bd 4e01 79bc
00000280: 9b8f 853a db7b 163c da59 643c 5581 473d
00000290: c41f 3abc 9c6c bebc 4ce8 8dbc c788 7bbc
000002a0: 45d6 b43c 0b1e 6fbc 1f1d 5e3c 8584 233d
000002b0: 8f03 51bb 1bc3 bb3a b903 3abc 3954 f3bc
000002c0: 0ddf 1cbc ea94 0cbd 683b 5b3c 0b31 d4ba
000002d0: 6483 cd3c 1f64 903a 62ca 653b 60b2 1dbd
000002e0: a224 9b3c 1642 893b 92eb 773c f9d9 313c
000002f0: cf16 e5ba ba9f 89bc b6e5 bdbc 582b debb
00000300: c08a a83c 1488 57bb 9c79 84bc 20bf 8dbb
00000310: 2d68 183b 9c61 17b9 af24 1dbc feff 72bc
00000320: 1dc8 a2bc e481 30bc 5204 9dbc 3418 a03b
00000330: d203 023c 692f 8a3c 6465 fc3b 36f2 5e3c
00000340: 407d fdba a802 683c d473 043c 0170 84bc
00000350: e7ff be3b b98f b33b c85b d9ba 4e8d 583c
00000360: 22a6 5abc fd01 7ebc f5e8 94bc af51 b139
00000370: 49fd 8ebb 7c4c 1d3c c57f 05bd 9cee 57bc
00000380: 33b1 c33b a265 42bc 5a6a 84bb 957f 763d
00000390: b764 0fbc caa9 3ebc 71ed 82bc e0b4 4a3b
000003a0: d498 423c fa57 1c3c 0f63 7bbc 094d 953b
000003b0: 02fd 163c dc36 9c3c 93bc 98bc b337 e73a
000003c0: 9a10 d33b 42ce 1abc d138 123c 887c 89bc
000003d0: c820 e9bb f5a5 aabb 8669 663c 1d92 ebbc
000003e0: 9f61 c23a d9bb 033c 4a7d cc3c 0588 96bc
000003f0: d3ab dfbb 3dba 833c 2100 eabb c882 50bc
0.0155559 -0.013638867 0.0077856947 -0.018744601 -0.0047350945 0.009499721 0.009626465 -0.0061842534
-0.0018702154 7.963288e-05 -6.7707384e-05 0.0024098437 0.0023662816 -0.015717808 0.012546181 -8.801522e-05
-0.003305996 -0.006975485 -0.008536971 0.0024825195 0.0185931 -0.008797279 0.011000707 0.011344014
0.0021630118 -0.011137379 0.0123152 -0.0031681948 -0.014473033 0.0028156508 -0.0058825244 0.0010092363
0.0031456084 0.010556473 -0.019372264 0.018268174 0.0046561705 -0.01184147 0.004458887 0.014428729
0.004211696 -0.0002383461 0.017524317 -0.012475861 -0.009449158 0.018656848 -0.01739277 0.0055056633
0.0069671865 0.003646553 0.015704049 0.003729909 -0.0009824091 0.016223812 -0.006714472 0.002933187
-0.0019502009 0.014322105 -0.005542892 0.004527266 0.015390251 -0.012299793 0.012038771 0.01581579
-0.067683406 0.04544573 -0.0064641894 0.002780313 0.0043915804 -0.034435704 0.009776263 0.017178908
0.09468334 0.017225854 0.014361926 0.031196067 0.08229474 -0.06247996 -0.019684756 0.003827831
-0.006685074 -0.004158565 0.014405786 -0.0030386036 -0.08567465 -0.005682437 -0.0017139086 -0.008565288
-0.018362073 -0.01263906 -0.011252629 -0.013724761 0.016444817 -0.015262454 0.12605298 0.03798879
0.008396511 0.011479516 0.012061416 -0.1950152 0.008670192 0.02868751 -0.00089104107 -0.014533725
0.1848011 0.01786596 -0.013735652 -0.06350451 -0.013248883 -0.0059218383 -0.019587042 0.015103967
0.015575833 0.04069195 -0.010981271 0.008611073 -0.08012401 0.010785115 0.01880536 0.011373334
-0.0043338216 -0.0051954566 -0.025389649 -0.037874885 0.0013341564 0.008507232 -0.03333742 -0.01089859
0.014749856 -0.0021895203 0.003019424 -0.011411893 -0.0083512645 0.011703749 -0.010965732 -0.009358648
-0.024171317 -0.00067814474 0.018517837 -0.012068783 -0.0037105198 0.014307696 -0.0026590016 0.0153572345
0.009545343 -0.012188576 -0.001560763 0.009478063 0.027693694 -0.010089068 0.009297077 -0.0026160665
0.014810706 -0.011232941 0.019323595 -0.0079143215 -0.01698467 0.0013734951 -0.046909884 -0.015198065
0.0010189892 0.009184803 0.013937438 0.048707325 -0.011360113 -0.023245148 -0.017322682 -0.0153524345
0.022074828 -0.014594565 0.013556748 0.039921302 -0.003189299 0.0014325114 -0.011353427 -0.029703246
-0.009574664 -0.034321703 0.013380863 -0.0016188932 0.025087066 0.0011016167 0.0035063257 -0.03850019
0.018938366 0.0041887863 0.015131848 0.010855191 -0.0017478111 -0.016799796 -0.023180824 -0.0067800693
0.020573974 -0.0032887505 -0.01617127 -0.0043257624 0.0023255453 -0.00014436845 -0.009591266 -0.014831541
-0.019870812 -0.010773156 -0.0191671 0.0048856977 0.007935481 0.01686831 0.0077025164 0.013607552
-0.0019339696 0.01416079 0.008084256 -0.016166689 0.005828846 0.0054797796 -0.0016583139 0.013217283
-0.013345273 -0.015503404 -0.018177489 0.0003382093 -0.00436369 0.009600755 -0.032592554 -0.0131794475
0.0059720515 -0.011865051 -0.0040409984 0.060180265 -0.00875204 -0.011637161 -0.015982362 0.0030930564
0.011877257 0.00954246 -0.015343442 0.0045563024 0.009215595 0.019069128 -0.018644607 0.0017640501
0.006441188 -0.00944859 0.008924679 -0.016783014 -0.0071145035 -0.005207772 0.014063245 -0.028756196
0.0014830119 0.008040392 0.024962086 -0.018375406 -0.006825903 0.016080016 -0.0071411286 -0.012726493

fc1_lin.bias f4 [256]
00000000: 69d6 3cbb d759 8d3d 7c9e f7bc 1e6f 553a
00000010: 167b 583c eaaa 693b 9adc 77bc 1488 95bc
00000020: d392 16bc 5512 89bc 6e3d e73c 5d4a 54bc
00000030: 58f6 123d 1e54 843c 6e25 b8bc a2a0 d4bb
00000040: e169 143c 5999 12bc b881 37bc 6be5 76bc
00000050: 53bf d1bb d811 503a 5d97 193b e1a6 7bbc
00000060: 35ca 89ba 14af dfbb 112c 0cbc c261 eb3b
00000070: eebf a23b 2eba 8fbb b9de 7a3c 8790 9fbc
00000080: 9e2e a7bc a816 a8bc 950e cabc 4b80 053d
00000090: 4e36 69bc 235d aabc 98c8 ae3b 26f9 3cbc
000000a0: d9f1 d13b ffe7 c5ba ce15 2dbc b748 e9bb
000000b0: 3474 e13c 5245 13bc b9e1 4c3d dc54 a43c
000000c0: 5fdb 61bc 5220 dbbb ed39 72bc 99d5 92bc
000000d0: 8e7a 503c 93e5 76bc 4238 823c ee98 813c
000000e0: 952f 8dbb ce29 b0bc c7be 93bc 3e6b 80bc
000000f0: df64 d0bb 01d5 66bc f34d 50bb 4a05 093d
00000100: ff51 edbc 3d48 9bbc f1e6 99bc 6bc5 5ebc
00000110: 77a6 8fbb 17d8 be3c 7a8b 223c 6c13 bb3c
00000120: 83c0 5fb8 4bbd 293a 5bf1 a93b fafe 12bd
00000130: f310 28bc 8f4d 75bc 54f4 873b 584b 31bc
00000140: 2a85 41bc 7d5e 5cbc dd82 e43b 0c5d 89bc
00000150: 0dc5 7a3b 93d2 113c 70ce a93c b81a 0cbc
00000160: 08a0 42bd 69a8 99bc 3957 54bb 6f14 84bb
00000170: 8fe1 1dbc abbc 503c b057 58bc 123e edbb
00000180: 8a5c cd3c ee3f 1ebc 9bd1 de3c f68e 3fbc
00000190: 96a6 273b 0109 9ebc 9122 8cbc b861 9fba
000001a0: 8618 22bc e652 133c 564a 263c 0531 7a3d
000001b0: 7a4f dbb9 faed fe3c 5255 b83b c5e0 04bc
000001c0: 13d2 2fbc f7ef 7dbc becd 92bc 5fe6 acba
000001d0: fdef 893c 0f26 82bc 427e 55bc f582 6bbc
000001e0: 8eb5 fb3c 5535 0f3b 9130 853b 5e11 3c3a
000001f0: 3029 8bbc c2a1 a0bc ac5d 88bc 7617 d23a
00000200: 83aa 7bbc c659 113d b735 083c fce6 523c
00000210: ebd0 ee3c 3fc1 36bc 5743 0ebc 455b 1e3c
00000220: 9d7f 3ebb 2179 543b cbf2 543c ba7c 8dbc
00000230: b6dd 6cbc a1ec 803a 92a6 32bc 323f b639
00000240: 985b b8bb 8023 8b3b 9a8a 873c e022 28bc
00000250: 49cd a13b 3910 813d ebd6 83bb d0ab cbbb
00000260: bfda 7b3b cdab a93c 8a54 b9bb c6bf a53a
00000270: 2ff0 733c d2eb 2e3c 3026 61bc 7c58 54bb
00000280: 7972 8b3d 469c 3cbc a646 58bc ff63 0dbd
00000290: 334b 423c 70c2 113c e284 463b 6df0 823d
000002a0: 6c9e 1abc 2890 b2bb c11a 203c 4a00 82bc
000002b0: 378b a63c 5f18 45bc d63a bb3a d2b5 91bb
000002c0: 4c81 9bba 683e 7a3d fb0f 78bc aef2 283d
000002d0: 3b3f 32bc 35ea 55bd dc48 0abd a0ae bbba
000002e0: 8825 20bb a729 273c 5966 15bc 4c3b 8d3c
000002f0: 156b 913a 0a04 7abc bd2b d9bb f947 373c
00000300: d48a 04bc 75a8 81bc df9c 3dbc 49d6 783c
00000310: 2741 723d 6866 8bbc e12f 2cbd e94d 32bc
00000320: a93d 783c 0424 d23c 723b 17bb 1626 273c
00000330: 90bf 6cbb e326 a63b 0031 c83b ee14 14bd
00000340: ec43 edbb 96c0 893d f6b3 10bc fdd8 bd3b
00000350: 636f 843c c8d8 68bc 1ff1 c73c 186d 2f3d
00000360: abc2 703a 2ba9 11bc 8f81 86bc 433d 00bc
00000370: 5937 b53c f23b 41bc 2cfe cfbb c208 b6ba
00000380: 5f45 b0bb 1185 5fbb 64f5 85bd 512f 423c
00000390: f3bc e33b 34ee e0b9 c80c 653a 937b c13c
000003a0: 529e 4c3a 3831 063c 7dfe 08bd 66d9 bb3c
000003b0: 07c5 e5bb 09fb fa3a 9de1 81bc 3f85 0a3c
000003c0: 3247 43bc 48ad f03c 05bd 8abc e316 bbbc
000003d0: a57d 28bc d99d 0b3c 34ef 67bc 64b5 7d3c
000003e0: 4b75 a9bc 4a72 e8bc 192a 08bd 8777 143c
000003f0: 1020 2bbd 55de 063d c627 adbc a375 9bbc
-0.0028814322 0.06901901 -0.030226938 0.0008141863 0.01321294 0.0035654851 -0.015128279 -0.018253364
-0.009190279 -0.016732374 0.028227534 -0.012957183 0.035879463 0.016153391 -0.022478785 -0.0064888755
0.009058447 -0.008947694 -0.011200361 -0.015069346 -0.0064009815 0.0007937229 0.0023436167 -0.015359611
-0.0010512533 -0.006826291 -0.008555428 0.0071832845 0.0049667275 -0.004386208 0.01531189 -0.019478096
-0.020407971 -0.020518616 -0.024665156 0.032593053 -0.014234139 -0.020796364 0.005333971 -0.011534011
0.0064070043 -0.0015099047 -0.010564281 -0.007119264 0.02752123 -0.008988695 0.050019953 0.020059995
-0.013785212 -0.0066872025 -0.014784318 -0.017924117 0.012724532 -0.015069383 0.015895966 0.015819993
-0.0043086507 -0.021504309 -0.018035306 -0.015676137 -0.006359681 -0.01408887 -0.0031784743 0.03345231
-0.028969763 -0.018955344 -0.01878688 -0.013596873 -0.004383858 0.023296399 0.009920949 0.02283641
-5.3346634e-05 0.0006475045 0.0051862425 -0.035887696 -0.010257947 -0.014972105 0.004148999 -0.010821186
-0.011811534 -0.013450262 0.006973608 -0.016768001 0.0038264424 0.008900302 0.02072832 -0.008551292
-0.0475159 -0.018757062 -0.0032400622 -0.004030756 -0.009636297 0.012740294 -0.0132045 -0.0072400654
0.02506854 -0.009658797 0.027199557 -0.011691799 0.002558147 -0.019291403 -0.017106326 -0.001215986
-0.009893542 0.0089919325 0.010149559 0.061081905 -0.0004183015 0.031119335 0.0056254053 -0.00811023
-0.010731238 -0.015499107 -0.017920371 -0.0013191215 0.016838068 -0.015887288 -0.0130305905 -0.014374484
0.03072622 0.0021851857 0.0040646275 0.0007174219 -0.016987413 -0.019608382 -0.016646229 0.001602872
-0.015360477 0.035486005 0.008313588 0.012872454 0.029152354 -0.011154472 -0.008683047 0.009665315
-0.0029067763 0.0032420831 0.0129973395 -0.017271388 -0.014457157 0.0009836146 -0.010903971 0.0003476083
-0.005626153 0.0042461753 0.016545583 -0.010262221 0.004937802 0.06301922 -0.004023423 -0.00621555
0.0038429943 0.020711804 -0.00565583 0.0012645654 0.014888807 0.010676341 -0.013742015 -0.0032401374
0.06808943 -0.011511868 -0.013200438 -0.03451919 0.011858749 0.008896455 0.0030291607 0.06393514
-0.009437185 -0.0054493137 0.009772004 -0.015869278 0.020330055 -0.012029736 0.0014284502 -0.0044467235
-0.0011864095 0.06109467 -0.015140529 0.041247062 -0.010879333 -0.05222531 -0.03376089 -0.001431901
-0.0024436433 0.010202802 -0.00911864 0.017240189 0.0011094535 -0.015259752 -0.0066275285 0.011186593
-0.00808974 -0.015827397 -0.0115730455 0.015187808 0.059144165 -0.017016605 -0.04203785 -0.010882833
0.01515142 0.02565194 -0.0023076204 0.0102019515 -0.0036124922 0.0050705536 0.006109357 -0.036152773
-0.007240763 0.06726186 -0.0088319685 0.0057936893 0.016166395 -0.014211841 0.024406968 0.04282865
0.0009184281 -0.00889043 -0.0164192 -0.007827106 0.022121118 -0.011794077 -0.0063474383 -0.0013888108
-0.0053793634 -0.0034106413 -0.06540945 0.011852101 0.0069500147 -0.00042902085 0.00087375613 0.023618495
0.0007805574 0.008190446 -0.033445824 0.022930812 -0.007012013 0.0019148301 -0.015854651 0.00845462
-0.01191883 0.029379502 -0.016935835 -0.022838062 -0.010283862 0.0085215205 -0.014156152 0.015485141
-0.020685812 -0.02837481 -0.033243272 0.009061701 -0.041778624 0.032926876 -0.02113713 -0.018976992

fc2_lin.weight f4 [128, 256]
00000000: baf5 f8ba d05b a4bc 63ab 7c3b 52a6 89bb
00000010: 15d1 68bb 4d54 853b d8b1 1cbc ca58 123c
00000020: abe1 e03a d8dd 8e3c f37c c6bc 534c 31bb
00000030: 804d a7bc d473 29bb 6f39 353c d2fb 0c3c
00000040: e4e1 2e3a 3b48 773b 6f6d dcbb 5ab7 d43b
00000050: ecf3 123c 0ab1 07bc a48d 783b 77a1 d7b9
00000060: cd9f 73bb 5b7a 4d3b f4e6 563a ef5d bcbb
00000070: 4629 b03a e769 053c a231 b2bb 74a1 083c
00000080: 4aa7 c23b 7630 4b3b 5182 463b 016c 65bb
00000090: c0c5 d0ba 9dd7 b33b 8142 923b c3e0 623b
000000a0: eaf8 bc38 83df 3bbb d9fc 5ab8 1538 063c
000000b0: 8d3a a3bc 84bf b7bb 77cc 55bc ba33 54bc
000000c0: 9833 533d 42ba 96bb 296a dbbb a609 983c
000000d0: 9d7a 083c 5c61 9ebb 2c34 54bb b329 c03a
000000e0: 37a0 9fb9 4b4b 3a3c d2b0 60bb 873e 1f3c
000000f0: 8bf6 fdba 8fcd 8fbb 23d8 133b cbd5 ddbc
00000100: 43de 9b3d 467c 0c3b 0b61 0dba 8b5f 15bc
00000110: 0d66 4bbc 2b09 2abc be95 c33b 0b65 b3bb
00000120: 129f 0dbc 19bf d1bb ec8d f6bb c516 683c
00000130: 5265 1e3c 4c77 343b 63f2 983b 21fd 113d
00000140: adb2 933b 71e5 f33b 59e9 95bb 3b28 a2bb
00000150: 7acd 0b3c 4b82 eb3b 6094 94bb 6802 e23b
00000160: fd24 2a3d a8e0 df3a 0cc0 023c 5293 1d3c
00000170: c91a 273d cf1d 093c 7f9d 9ebb 3dc5 98bc
00000180: f794 8cbd 795d f43b 9f78 b4bb 8262 2d3b
00000190: e54d fc3a 0bba 853c 30c6 1d3c 59cf e6bb
000001a0: 75e6 10bc 7385 8a3b 7585 a4bc a02a 91bc
000001b0: 807c 0b3c 3026 9239 273a aa3b 37be 433c
000001c0: de33 fd3b 8c9b fd3b f473 0ebb 2231 ffbb
000001d0: 4ba2 0d3c e9bf 153c 68b2 3039 d1c0 6fba
000001e0: a012 c8bb 0b84 003b 95c9 8cbb 5fd5 ca3b
000001f0: a5c1 ecba 9837 ca3b c5df 013c b763 42ba
00000200: ee36 903c f33e 4bbd a9b0 f73a 9635 7f3a
00000210: 532a 20bc df23 0ebc 2959 333a 7d7c fcba
00000220: 6019 3fba 4574 80bb 1af1 713b 3f9b 543b
00000230: 2b59 61bb 9578 06bb d239 c83a 8d8b d33c
00000240: 7219 1dbc 9dd2 523b c39f 393b 1f6f 443b
00000250: 21f3 41bc a1b7 f0bb 6727 39bb f99a 07bc
00000260: 00e4 03bc b01c 5ebb 731c ee3b acd0 fcbb
00000270: 536a 043c 80d9 57bb a495 5f3d f619 593b
00000280: a7e6 42bd 80fa 1d3c 11e5 1bbb 29f6 8b3d
00000290: 727a edbb 6a48 68bc c98d e7bb 1f58 9bba
000002a0: 8d46 92bb 0d68 65ba 1157 013d 1ac0 5cbb
000002b0: aa3f 99bb ece6 e43c 2847 aebb d7de 693b
000002c0: 2ed3 a0bb 5811 1cbc 55ca 0c3c 6c24 21bc
000002d0: a3ec f73b 3bde 363d a325 263d b500 0cbc
000002e0: 9232 9abb 1367 0abc 2126 d0bb acd7 56bc
000002f0: 8ada ccba dd76 e43a 0156 3abb 03ca b1ba
00000300: b457 a33c 2a08 893b 4021 763b 8a1c aabb
00000310: cc9d 91bc 135d e73b 45b6 9a3c 90b4 f43b
00000320: c80b 03ba 6c8c c6bb 086f 93bb f738 06bc
00000330: 71e9 fcba 1518 07bc d0db d0bb d54a 9c3d
00000340: 714e 073d 0ea5 11bd 1cef 09bb f521 9cbb
00000350: a95a 32bc 533c 3c3b 5249 e839 e01f c4bc
00000360: 06f2 f8ba 56d7 ab3a 13eb e838 d43a 7db8
00000370: 8e9f 12bc c303 89bb 7afb 2fba ffab f43b
00000380: 5615 0ebc 5e0a 0f3c 8fd9 c03c eb6c e6bc
00000390: 4fbc 3b3b 27a7 f2bb e182 103c 5f41 873a
000003a0: 6d89 d8bb 23ca 8f3c 5153 8e3b d373 3bbb
000003b0: 2dc7 433c 638a 4fbd 141f f638 7135 72ba
000003c0: dd63 f1bb 2ee9 edbc dec1 183c 6b59 063d
000003d0: 77f0 243b 9269 57bc 07fd cabb b242 9d3b
000003e0: eaf7 11bc 6966 ba3d 4207 a73b 674f 223b
000003f0: 2868 333d ccfd 0ebd 921d b1bb fa58 a8bb
-0.0018994131 -0.02006331 0.0038554303 -0.004200735 -0.0035525013 0.0040688873 -0.009563886 0.008932302
0.0017157098 0.017439768 -0.024229502 -0.002705355 -0.020422697 -0.0025856392 0.0110610565 0.0086049605
0.00066712336 0.0037732262 -0.0067269127 0.006491584 0.008969288 -0.0082819555 0.0037926221 -0.00041128296
-0.0037174106 0.0031353447 0.0008197867 -0.0057485024 0.0013440035 0.008142925 -0.0054380456 0.008339275
0.0059403526 0.0031004227 0.0030290077 -0.0035007002 -0.0015928075 0.0054883496 0.0044634943 0.0034618832
9.0109024e-05 -0.002866716 -5.2210733e-05 0.008192082 -0.01992538 -0.0056075472 -0.0130492365 -0.012951786
0.051562876 -0.0045998404 -0.006696005 0.018559288 0.0083300145 -0.0048333835 -0.003237973 0.0014660865
-0.00030446213 0.01137049 -0.003428508 0.0097194975 -0.0019375844 -0.004388518 0.0022559247 -0.027079483
0.076107524 0.0021436377 -0.00053931837 -0.0091170175 -0.0124144675 -0.010378162 0.0059687784 -0.0054746917
-0.008643882 -0.0064009544 -0.0075242426 0.014165585 0.009667711 0.0027536927 0.0046675666 0.035641793
0.004507384 0.007443123 -0.0045749363 -0.0049486435 0.008532876 0.007187163 -0.0045342892 0.0068972595
0.04153918 0.0017080503 0.007980358 0.009617643 0.04079703 0.008368923 -0.0048405523 -0.018648738
-0.0686435 0.007457432 -0.005507543 0.002645642 0.0019249289 0.016324064 0.009629771 -0.0070437607
-0.008844008 0.004227334 -0.020083169 -0.01772052 0.00851357 0.00027875742 0.0051949206 0.011947206
0.0077271303 0.00773949 -0.0021736594 -0.0077878395 0.008644651 0.009139993 0.0001685113 -0.00091458583
-0.006105736 0.0019609954 -0.0042964914 0.0061899866 -0.0018063082 0.006171178 0.007926886 -0.00074153714
0.017604318 -0.04962058 0.0018897253 0.0009735463 -0.009775716 -0.0086755445 0.0006841594 -0.0019263175
-0.0007289853 -0.0039201104 0.003691739 0.0032441167 -0.0034385424 -0.002051865 0.0015276021 0.025823379
-0.009588586 0.0032168992 0.0028323985 0.002997346 -0.011837752 -0.007346109 -0.0028252245 -0.008276694
-0.008049965 -0.003389161 0.007266575 -0.0077153053 0.00808199 -0.0032936037 0.054586068 0.0033127046
-0.04758325 0.009642243 -0.0023787657 0.06834061 -0.0072472626 -0.014177421 -0.0070664627 -0.0011851824
-0.0044639767 -0.00087511615 0.031577174 -0.0033683837 -0.004676779 0.027942143 -0.005318541 0.0035685801
-0.004907987 -0.009525619 0.008593162 -0.009835344 0.007566051 0.04464553 0.040563237 -0.00854509
-0.0047057355 -0.008447426 -0.0063522016 -0.013112944 -0.0015629095 0.0017430444 -0.002843261 -0.0013564233
0.019939281 0.0041818814 0.003755644 -0.0051913904 -0.017775439 0.007060656 0.018885741 0.007467814
-0.0004999009 -0.00605922 -0.00449932 -0.008192292 -0.0019295645 -0.008245488 -0.00637386 0.076314606
0.033033792 -0.0355578 -0.0021047061 -0.00476479 -0.010885873 0.002872248 0.00044305116 -0.02394098
-0.0018993027 0.001311044 0.00011106408 -6.037469e-05 -0.008949174 -0.0041813566 -0.0006713193 0.0074667926
-0.008672079 0.008730499 0.02354124 -0.028128108 0.0028646176 -0.00740518 0.008820266 0.0010319165
-0.0066081793 0.017552441 0.004343428 -0.0028602972 0.011949343 -0.050669085 0.00011735983 -0.0009239531
-0.007366641 -0.029041853 0.009323565 0.03280012 0.0025167742 -0.0131477285 -0.006194714 0.0047992105
-0.008909205 0.091015644 0.0050973007 0.0024766566 0.043800503 -0.03491001 -0.0054051364 -0.00513756

fc2_lin.bias f4 [128]
00000000: 84f0 c93a a642 88bb a835 a1bb 33f6 96bc
00000010: be97 a43d a687 10bc 7440 27bc 643f 1abc
00000020: a7f9 4f3b ad80 84bb c684 44bb bb0e 883b
00000030: 7b91 b7bb 0745 44bc f2f9 0c3c 051e b5bb
00000040: 625d aebb 7a9f e8bb 01d1 10bc dc11 1abb
00000050: 6ace 5b3d 97f4 2b3c 1777 c9ba 9325 ba3b
00000060: 7ff2 7e3a ce19 dfbb e089 ba3c 16a9 acbb
00000070: 761c a53c dd1c 94bc 7a0c d53b 6d91 e8bb
00000080: 7d80 09bc 65cf 60bc f0ad 5bbb deba 6dbc
00000090: 86c8 11bc 859b c23d 3441 4fbc e0f2 46bc
000000a0: 1b65 9b3b 9d7d 40bc 369a e7bb d412 7fb9
000000b0: 9428 90bc ef6b 9dbc 99e0 6bbc 93b0 5abc
000000c0: bf7f 5c3b 1aad 833d 1c81 cd39 f926 503d
000000d0: fa91 26bb 9ed1 e73b ad22 b43d 4ce9 cebb
000000e0: f0a6 ffbb 7555 18bc 7cc6 c83d 4a52 ab3c
000000f0: 944f b73c 2b51 a8ba c3cc 55bc c15e 2e3d
00000100: f9a6 603d b903 3ebc 0449 18bc 4062 85bc
00000110: 4837 0ebc 9fbb cd3c ce75 6f3d ef94 85bc
00000120: 730e 063c 8203 933d 9da3 b23b 425b 38bb
00000130: 1d18 bebb 94c4 ee39 9c29 df3a 3f22 703d
00000140: c546 f03c 7122 20bc 0de8 d63d fff2 ab3b
00000150: e39c 0bbb 3f9f 713b bef6 d6bb 0eb0 a1bb
00000160: 4904 bd3c 91f5 30bc cfa8 8a3d 5a55 87bb
00000170: 2998 32bc 4f03 43bc eb46 253c 53ad dabb
00000180: 5522 6d3d fecc 003d 9656 2c3c b5dc 1bbc
00000190: 850c 383c 8744 dbbb 0ace 543d fc48 7c3c
000001a0: 2b42 17bc 3feb 8c3d e8e3 28bc 1a64 10bc
000001b0: d758 ceba faad 133d 7db7 803d eb9d 75ba
000001c0: f223 ac3c c5d1 533d e09a 5a3d fa33 773d
000001d0: 2889 5d3c fd52 debb e609 6c3d fd78 bd3b
000001e0: 97e1 01bc 7f01 9f3d 9589 1cbc 710d c8bb
000001f0: b235 bf3b 05c9 0dbc c0b4 95ba c62d 853c
0.0015406762 -0.0041583357 -0.0049197264 -0.018427944 0.08036755 -0.008821404 -0.010208238 -0.009414528
0.0031734498 -0.0040436597 -0.0029986366 0.0041521466 -0.0056020594 -0.011979348 0.0086045135 -0.0055272602
-0.0053211907 -0.007099089 -0.008838893 -0.002350918 0.05366365 0.0104953265 -0.0015370575 0.0056807487
0.0009725466 -0.006808496 0.022770822 -0.00526918 0.020155173 -0.01808017 0.0065017315 -0.007097414
-0.00839245 -0.013721322 -0.0033520423 -0.014509885 -0.008897906 0.09502319 -0.012649823 -0.012142867
0.0047422773 -0.011748699 -0.007067944 -0.00024325709 -0.017597474 -0.019216506 -0.01439681 -0.013347763
0.0033645479 0.06429501 0.0003919684 0.050818417 -0.0025416599 0.007074549 0.087956764 -0.0063144322
-0.007801883 -0.009297718 0.09803483 0.020913262 0.022376813 -0.0012841573 -0.013049307 0.042570833
0.054846738 -0.011597567 -0.009294752 -0.0162822 -0.008680172 0.025113879 0.058461957 -0.016306369
0.008182156 0.071784034 0.005451633 -0.0028130566 -0.0058012144 0.0004554136 0.001702595 0.05862641
0.02933062 -0.0097738365 0.10493479 0.0052474733 -0.0021303229 0.00368686 -0.0065601757 -0.0049343174
0.023073332 -0.010800735 0.06770479 -0.0041300477 -0.010900536 -0.011902644 0.010087709 -0.006673494
0.05789407 0.031445496 0.010518691 -0.00951307 0.011233454 -0.0066915187 0.051954307 0.01539826
-0.009232084 0.06880807 -0.010308243 -0.008812929 -0.0015743029 0.03605459 0.062849976 -0.000936954
0.021013234 0.051713724 0.053370357 0.060352303 0.01352147 -0.0067847953 0.057626627 0.005782245
-0.00792732 0.07763957 -0.0095542865 -0.006105118 0.0058352584 -0.008653884 -0.0011421666 0.016257178

fc3_lin.weight f4 [64, 128]
00000000: 0347 443c 98a6 a5bb 10d7 10bc d824 69bc
00000010: 9139 2abc ed4e 0a3b d631 39bc ba24 313b
00000020: cee7 ba3b 12e2 5cbb 76df 5b3a 592f 413c
00000030: 9238 503b 861d e9bb 9e11 943a cbb3 80bb
00000040: d407 3c3c 30f0 423b 1ae0 953b 2d1d 33bc
00000050: 66f3 3fbc 5544 063b 1ea7 673c ba1d cebb
00000060: e569 25bb d5da 8abb 2280 e33b 70c2 59bc
00000070: 959b 57bb fa71 58bc 6bc1 b33c 8b08 143b
00000080: eb5a 66bc bac9 50bc 9652 74bb 361b e53b
00000090: f893 b2b9 308d adbb 2fc5 dfbb ad0a 33bc
000000a0: 0003 7bba 665c ed3b bf9d 86bb b813 e63b
000000b0: f5ec 9038 895e a13b c0f4 8f3b cbe8 4abb
000000c0: 1c71 bf3c e14d 7dbc 123a 9cbb 467b 4f3a
000000d0: 8997 33bc ccb5 9bb9 0ec7 28bc f7f8 3b3a
000000e0: 3534 47bc 8a67 963a dbc2 6abc 4f80 b53c
000000f0: 7caa 083b 9c5b 2a3c f0f1 473c 4dfb 4f3b
00000100: 8daf cf3b 22ef e439 d46a 48bc 50da b23b
00000110: 552f d6bb eb5a d9bb 9987 45bc 9fe1 233c
00000120: d1ca adbb 5fde 073c 3b4d c23c c796 c33b
00000130: 9b4b 63bc 6a50 01ba ade3 ee3b 11a8 eb3a
00000140: b2b3 d93b 3113 32bc eab0 023a 3a2f fc3c
00000150: 6b20 ecbb 7e9c c93b e1d5 2e3c fb4b 373c
00000160: 9b6e e5ba 7378 273b e605 5fbc c283 70bb
00000170: 2574 3ebc 91f5 f3ba 93cc 95ba 336e ca3b
00000180: 6020 7cbc 1cdf 3ebb 5b67 693b d13c 05bc
00000190: e8cd 7abc 9c45 1bbb 8fee 30bc d99a 953c
000001a0: 2b29 ef3a 161c d639 2d3e b0bb c7c5 13bc
000001b0: 9e97 e53b 6ef6 c43a bd78 d8bb 049c c03c
000001c0: 4547 99bb b47a 80bb 430c 7dbc af8b 3ebc
000001d0: 51ce 323a 529f c7ba 3846 3dbc 21f9 c83c
000001e0: 21e5 4ebc 4006 44bc 56d7 333c bf5c 923b
000001f0: fc78 013c 906c aebb b5ae 2139 e02f 903c
00000200: 48b1 8ebc 029e 5f3c 5098 cd3b 17b5 7f3c
00000210: 7e3e 9abc a871 023c 86e4 ad3b 7199 d63c
00000220: 2424 a2bd c25d cb3b afd1 223c 3bd1 a23c
00000230: 3444 95bc 0b77 103d 1c78 89bb 33c2 8b3b
00000240: 125f 353d 0e22 d4b9 5248 443c 5540 f03b
00000250: bf8e 003b b1f3 7fbd 7b95 61bc c655 30bb
00000260: afd7 213c d43e e53b 73d9 91bc 6825 b4bb
00000270: 5156 503c af49 5b3d e472 89bd 13e8 56bb
00000280: b783 0a3c 71d7 91ba 4a4d 593c 9658 8b3d
00000290: fb87 89bb 5444 7f3b 9574 b23b 9ed9 1a3b
000002a0: 0241 6b3c 6dfa 863a ad0a a43a 5da2 c0b9
000002b0: 91e1 0f3d 2f03 b53c 02b8 423c 17c9 0f3d
000002c0: 5795 5bbd 17d4 e33c 1125 833c bb9d a33c
000002d0: 1f20 bf39 2d13 91bd b78e 7cbc 3c39 e5bb
000002e0: 9c96 423b 3d45 b6bd 7e86 90bc faff d4bc
000002f0: 4d0f 4abc 73e1 12bc 6a5e 0f3b 7730 e33c
00000300: 155f 03bd 799b 223c f46b 44bc 0f3f 883b
00000310: 9ff3 8fbb 7be2 343b 5e7f e03b cb00 033d
00000320: 55a7 1fbb 3990 3d3c 2efc 8ebd 0f2c 6bba
00000330: e1ad 223d 13a3 4d3c 38bf 333d fc41 893c
00000340: d3a9 143d 397a 3a3a 87e4 2dbc b22b 2ebd
00000350: 94bf beb9 58b5 5fbd 35d9 03bb 0932 e0b9
00000360: b300 79bc 15f8 583c fda7 823d 82bb 1bbb
00000370: d004 26bc 9a53 b83b 5a8c 46bc 4c6f 3abb
00000380: a957 3d3d 50ff 8e3c 4fe8 c73c 7048 93bb
00000390: 37ae 483c b213 0cbc 41a6 303d 1e81 21bd
000003a0: 94e6 f43b 9e09 703d 01ef f83b c301 e0b9
000003b0: 5d1f 82bd 75bb 523c 85b7 b0bb 980e 79bd
000003c0: 0577 9c3c 7d3b 293d a855 103c f931 f93c
000003d0: de77 a638 702f 02bc c643 c03d 110e 47bd
000003e0: 3055 abbb f48f 883c e71e c3bb 3d20 ae3b
000003f0: e78d acbb 42e2 1fbc f9b3 f03c d939 40bd
0.011979821 -0.00505526 -0.008840337 -0.014229976 -0.010389701 0.0021104172 -0.011303386 0.0027029947
0.005703903 -0.0033704084 0.0008387485 0.011791074 0.0031772 -0.007114115 0.0011296754 -0.003927683
0.011476476 0.0029745214 0.004573834 -0.010932249 -0.011715746 0.0020487506 0.014138965 -0.006290165
-0.002524012 -0.0042375126 0.006942765 -0.013290986 -0.003289913 -0.013210768 0.021942815 0.00225881
-0.0140597625 -0.012743408 -0.003728067 0.006991769 -0.0003406105 -0.005296372 -0.006828926 -0.010927838
-0.0009575337 0.007243681 -0.0041081603 0.0070213936 6.910592e-05 0.0049245995 0.00439319 -0.003096151
0.023369364 -0.015460462 -0.0047676647 0.00079147925 -0.010961422 -0.00029699353 -0.010301365 0.00071705825
-0.012158443 0.0011474949 -0.014328684 0.022155909 0.002085357 0.010397818 0.0122036785 0.003173548
0.006338066 0.00043665717 -0.012232501 0.005458154 -0.006536404 -0.0066331527 -0.012056255 0.010002523
-0.0053037186 0.0082927635 0.023718467 0.005968902 -0.013873006 -0.0004932942 0.0072903247 0.0017979165
0.006643736 -0.010868833 0.00049854687 0.030784238 -0.007206013 0.0061526885 0.01067111 0.011187549
-0.0017504276 0.002555397 -0.013612246 -0.0036699628 -0.011624371 -0.0018612613 -0.0011428766 0.0061776876
-0.015388578 -0.0029124683 0.0035614583 -0.008132176 -0.015307881 -0.0023692613 -0.010799064 0.018262314
0.0018246522 0.00040838186 -0.0053785057 -0.009019322 0.0070065996 0.0015027055 -0.00660619 0.023511894
-0.0046776854 -0.0039208774 -0.015444818 -0.011629983 0.00068209047 -0.0015229976 -0.011552386 0.024532856
-0.012627871 -0.011964381 0.010976633 0.0044666226 0.00790238 -0.0053230003 0.0001541924 0.017600954
-0.017418519 0.013648512 0.0062742606 0.01560714 -0.018828627 0.007961668 0.005306783 0.026196213
-0.079170495 0.006206245 0.009937688 0.01987516 -0.018220998 0.03526978 -0.0041952264 0.0042650937
0.04428012 -0.00040461164 0.011980133 0.0073318877 0.0019616333 -0.06248826 -0.013768549 -0.0026906594
0.009878083 0.006996015 -0.017803883 -0.0054976232 0.012715892 0.053537067 -0.06711367 -0.0032792136
0.008454255 -0.0011126829 0.013263056 0.06804006 -0.0041971183 0.003895064 0.0054460266 0.0023628245
0.014358761 0.0010298021 0.0012515389 -0.00036742064 0.035127226 0.022096245 0.011884691 0.035103884
-0.05360922 0.027811093 0.016008886 0.019972673 0.0003645429 -0.070837356 -0.015414885 -0.0069953483
0.002969182 -0.08899925 -0.017642256 -0.026000965 -0.01233275 -0.008964884 0.0021876344 0.02773307
-0.0320731 0.009924763 -0.011988629 0.004157908 -0.0043930556 0.0027600813 0.006851121 0.031983178
-0.0024361212 0.01157003 -0.06981693 -0.0008971104 0.039716605 0.012551087 0.043883532 0.016755097
0.03629477 0.00071135495 -0.010613567 -0.04252214 -0.0003638236 -0.054616302 -0.002011848 -0.00042761888
-0.015197921 0.013242741 0.063796975 -0.0023762886 -0.010132983 0.0056252005 -0.012118423 -0.0028447686
0.046226177 0.017455727 0.024402766 -0.004494719 0.012248567 -0.008549618 0.043127302 -0.039429776
0.007473776 0.05860292 0.007596851 -0.00042725922 -0.06353638 0.012862076 -0.005392971 -0.060804933
0.019099722 0.041316498 0.008809485 0.030419337 7.937824e-05 -0.00794588 0.09387927 -0.0485974
-0.005228661 0.016670205 -0.0059546116 0.0053139017 -0.0052659395 -0.009758534 0.029382693 -0.046930168

fc3_lin.bias f4 [64]
00000000: 65d4 9e3c bda7 163e fdb3 133e 9b3d 95bc
00000010: 0cf5 033e 62e4 93bb 9aa1 e63d c679 b83d
00000020: fc65 963d ee45 a03a 2a94 bb3d 5183 c93d
00000030: 57fd c9bc 1085 9e3d 09a5 ec3d 5e76 193e
00000040: eed3 97bc 8856 f63d a521 f53d a564 d03d
00000050: c332 69bc aa38 113e 8d41 ed3d b060 063e
00000060: 6632 90bc 74dd dd3d 7d14 023e 5941 b13d
00000070: b3ab 0dbc c8b0 d93d 6a97 cf3d 2e86 61bc
00000080: ed75 9c3d 45e8 e13d ac11 dc3d 3f62 e73d
00000090: cbd4 123e 01c7 003d c825 493d 1528 1ebc
000000a0: 7c7f a8bc 9566 f73d 109c dd3d 6cf6 c33d
000000b0: 707b b13d a464 54bc a617 df3d 4f7a 5bbc
000000c0: bcd2 e43d 88fd 9dbc b905 55bc 0b86 58bc
000000d0: af23 9a3d 29b6 09bd 02d2 183e bfe6 bd3d
000000e0: 3f8a e2bb b519 cb3d 969c db3d f82d 99bc
000000f0: 4aed de3c 31d0 083e 428d 99bc 0f6e 8dbc
0.019388387 0.14712425 0.14424129 -0.018217852 0.12886447 -0.0045133093 0.11261292 0.090076014
0.07343671 0.0012227872 0.091591194 0.098395 -0.024656935 0.077402234 0.115549155 0.1498656
-0.018533673 0.12028223 0.11969308 0.101754464 -0.014233294 0.14181772 0.115847684 0.13122821
-0.017602157 0.108332545 0.12703128 0.08655042 -0.008646893 0.106294215 0.10136302 -0.013764901
0.0763968 0.1103063 0.10745558 0.11298036 0.14338987 0.031439785 0.049108297 -0.009653111
-0.020568602 0.12080113 0.10820782 0.095684856 0.08666122 -0.012963448 0.108931825 -0.01339586
0.11173007 -0.019285932 -0.013001853 -0.013215552 0.07526337 -0.033620987 0.14923862 0.09272527
-0.006913453 0.099170126 0.10723226 -0.018698677 0.027212758 0.13360669 -0.018744115 -0.017264394

fc4.weight f4 [2, 64]
00000000: 43f0 67bd 0ed0 403e ac57 04be 292c 2cbb
00000010: 690e 123e 1192 75bc cc02 f03d c59a 043e
00000020: 54db e73d 7f93 9e3c aad5 e33d 6721 123e
00000030: 27b4 a7bb 07a2 9a3d 374b 343e 5082 203e
00000040: 62fa 45bc da56 223e 894e fe3d 8095 013e
00000050: a775 0cba 5838 1d3e 10c9 ff3d 3ac6 173e
00000060: 4115 9fbb 9ac9 38be 8ca6 093e 978b 0d3e
00000070: f4a9 2b3c 7696 fd3d 2d17 67be 5cba b23c
00000080: b0d6 41be 339a 1c3e 34b3 0bbe 23b5 083e
00000090: 3073 103e e491 95bd d56c 43be 53cf 14bc
000000a0: 9a8a 12bb 07e4 3f3e ea3d 62be ab2c 14be
000000b0: 4e06 d33d 6b96 033b 9b23 253e 3bf5 4abc
000000c0: 6b5c 0d3e f9ab 0f3b 8d03 6c3a 4a90 153c
000000d0: ed32 16be e3eb b0bc 5460 043e 622f 2e3e
000000e0: 6208 1c3c 8264 d63d 56b6 ee3d 8d3e 943c
000000f0: 9e9f 33bd aefd 263e 02f0 38ba 28dd 54bc
00000100: 0c6a 123d 6f18 20be 3ded c73d 1877 043c
00000110: 4e67 32be 54c2 24bc d74a 14be 8298 e5bd
00000120: b889 edbd d8e8 12bc b740 cebd b460 00be
00000130: ab8b 5c3c 8a46 68bd cb04 22be d2c8 3ebe
00000140: 7b9a 8839 73ed 1abe e2fe 0ebe 0ebd 02be
00000150: 2e76 14bb 5857 30be 49c1 1bbe fd2b 0abe
00000160: c8ab 1fbc c5cc 273e c551 1cbe 2b67 0dbe
00000170: 0aa4 ee3b 8bcd 0bbe 1bf6 4c3e 5e15 363c
00000180: 1ec5 3b3e bfb1 f9bd eb35 fd3d fb4c 0cbe
00000190: c1d1 18be ea6c b93d ea65 333e a3b6 df3b
000001a0: 0ffb 9f3b abad 35be f92e 4e3e 9787 ff3d
000001b0: ac20 e2bd d748 c6ba ccd4 35be 756d 973b
000001c0: c90c 03be f92e 843c 48ce 193c 1905 86ba
000001d0: db72 283e fdd7 9f3b c9a7 1abe 9c51 39be
000001e0: d505 573c 3fc3 f1bd ee61 fabd 0b13 ce3b
000001f0: dd65 303d 1a3b 1cbe 5551 003c 550e 4dbb
-0.056625616 0.18829367 -0.12924069 -0.0026271439 0.1426331 -0.014988438 0.117192835 0.12949665
0.113211304 0.019357441 0.111247376 0.14270554 -0.0051179114 0.075504355 0.17606817 0.1567471
-0.012083622 0.15853444 0.12417323 0.12654686 -0.0005358108 0.15353525 0.124895215 0.14821711
-0.0048548286 -0.18045655 0.13442439 0.1382278 0.010477532 0.12382214 -0.22567435 0.021817379
-0.18929553 0.15293197 -0.1364258 0.13350348 0.1410644 -0.07303217 -0.19084485 -0.009082633
-0.0022360445 0.1873933 -0.22093931 -0.14470164 0.10303937 0.002007867 0.16126864 -0.012387569
0.13804786 0.0021922572 0.00090032147 0.0091286395 -0.14667864 -0.021596855 0.12927371 0.17010263
0.009523483 0.10468389 0.116558716 0.018096233 -0.043853395 0.16307709 -0.0007054807 -0.012992181
0.035745665 -0.1563432 0.097620465 0.008085035 -0.1742222 -0.010056097 -0.14481674 -0.11210729
-0.115985334 -0.008966647 -0.10070937 -0.1253689 0.013461034 -0.056707896 -0.15822141 -0.18631294
0.00026055038 -0.15129642 -0.13964418 -0.12767431 -0.0022653448 -0.17220819 -0.15210451 -0.13493343
-0.009745546 0.16386707 -0.15265568 -0.13808887 0.0072827386 -0.13652627 0.20015757 0.011113493
0.18336913 -0.121921055 0.123638 -0.1370124 -0.14923765 0.09053977 0.17519346 0.006827192
0.0048822234 -0.1774203 0.20135106 0.124770336 -0.11041388 -0.0015127909 -0.17756957 0.0046212026
-0.12797846 0.01613568 0.00938756 -0.0010224908 0.16450064 0.0048780427 -0.15103067 -0.18097538
0.013123949 -0.11804818 -0.1222571 0.006288891 0.043065894 -0.1525692 0.007831891 -0.003128906

fc4.bias f4 [2]
00000000: b332 723f 4583 74bf
0.9460861 -0.955128
