CE_naive/checkpoints/CE_NAIVE/model_epoch_80.pt (torch, 234127 bytes, 8 tensors)

fc1_lin.weight f4 [256, 64]
0.016612435 -0.014565174 0.008314478 -0.020017825 -0.0050566033 0.01014446 0.010280355 -0.0066042948
-0.0019972406 8.5040105e-05 -7.230871e-05 0.002573501 0.0025269615 -0.01678514 0.013398278 -9.399353e-05
-0.0035304534 -0.0074491156 -0.009116794 0.0026511597 0.019855423 -0.00939443 0.011747816 0.012114429
0.0023099803 -0.011893719 0.01315144 -0.0033833196 -0.015455813 0.003006899 -0.0062820106 0.0010777543
0.003359308 0.011273277 -0.020687176 0.019508146 0.0049722157 -0.012645817 0.004761676 0.015408867
0.0044975933 -0.00025453302 0.01871401 -0.01332307 -0.010090952 0.019923136 -0.018574374 0.005879589
0.0074402574 0.003894235 0.01677046 0.003983232 -0.0010491203 0.0173261 -0.007170404 0.003132392
-0.0020826494 0.015294665 -0.0059193913 0.0048348806 0.01643515 -0.013135039 0.012856525 0.016889919
-0.07714585 0.04629691 -0.0069032204 0.0029331357 0.004688617 -0.03960685 0.01043999 0.018322079
0.10089498 0.016210293 0.01534335 0.03304877 0.085547775 -0.069648735 -0.022278568 0.003906832
-0.0070146783 -0.004129692 0.015407523 -0.003264118 -0.09737799 -0.005976525 -0.001835501 -0.009019137
-0.019604674 -0.013632936 -0.012009956 -0.013696848 0.017344829 -0.016014356 0.12646 0.047109015
0.008942727 0.01225409 0.012702747 -0.19015557 0.009396628 0.030579926 -0.0023316767 -0.014633369
0.18803358 0.019079352 -0.014651498 -0.06376838 -0.014130806 -0.0063241827 -0.020646285 0.014575021
0.016635448 0.037486885 -0.011727252 0.009157607 -0.0885464 0.011173428 0.020077832 0.0150556965
-0.004565432 -0.005550182 -0.022904249 -0.03959227 0.0014249127 0.009070042 -0.032629564 -0.011236076
0.015751645 -0.0023381696 0.0032244972 -0.012186941 -0.008918485 0.012498639 -0.011710398 -0.009994181
-0.025812935 -0.0007242064 0.019775724 -0.012888494 -0.0039625023 0.0152792325 -0.0028395855 0.016400196
0.010193605 -0.013016473 -0.0016667463 0.010121534 0.029574832 -0.010774247 0.009928267 -0.0027937472
0.015816694 -0.01199588 0.020635424 -0.0084519675 -0.018138746 0.001466772 -0.050095756 -0.016230231
0.0010882043 0.009808627 0.014883764 0.052015092 -0.012131628 -0.024823759 -0.01849998 -0.016395077
0.02357418 -0.015585885 0.014477377 0.042633533 -0.0034059798 0.001529805 -0.012124487 -0.031720437
-0.010225221 -0.03665186 0.014289506 -0.0017288788 0.026790846 0.0011764233 0.0037444877 -0.041115426
0.020224284 0.004473227 0.016158888 0.011592525 -0.0018665048 -0.0179404 -0.024755096 -0.0072404863
0.022623088 -0.0059523163 -0.017269328 -0.0045974134 0.0024769427 -0.0011495291 -0.0102417255 -0.015852844
-0.01917733 -0.011816578 -0.020460103 0.005217742 0.006739643 0.015298758 0.0065614227 0.014716029
-0.0021152736 0.015351493 0.008656412 -0.017255312 0.006344474 0.0059579955 -0.0017864632 0.013757871
-0.0141039975 -0.016541619 -0.019418025 0.00032212233 -0.004670965 0.009524683 -0.032291 -0.014686801
0.006368331 -0.012670283 -0.0045130462 0.06475458 -0.009386538 -0.012021874 -0.015375436 0.0034232636
0.013885589 0.010189824 -0.016374717 0.00347904 0.0097683305 0.020364383 -0.019853186 0.0030264964
0.0068871477 -0.008599732 0.0095307175 -0.018419791 -0.008780823 -0.005563424 0.015017671 -0.029719502
0.00073107285 0.008591688 0.027823655 -0.018283393 -0.007289739 0.017205268 -0.00692381 -0.013732408
00000000: cd16 883c c4a2 6ebc 7339 083c 6cfc a3bc
00000010: ddb1 a5bb f334 263c ef6e 283c d768 d8bb
00000020: 23e4 02bb 8f57 b238 71a4 97b8 2fa8 283b
00000030: 619b 253b fd80 89bc 7384 5b3c 641e c5b8
00000040: 2e5f 67bb b617 f4bb 9b5e 15bc 14bf 2d3b
00000050: d7a7 a23c 18eb 19bc e979 403c 997b 463c
00000060: 0a63 173b e0dd 42bc 2379 573c afba 5dbb
00000070: 613a 7dbc 650f 453b 53d9 cdbb 6f43 8d3a
00000080: d627 5c3b 8db3 383c 2778 a9bc 8ccf 9f3c
00000090: f8ed a23b 6730 4fbc d507 9c3b 7975 7c3c
000000a0: 8c60 933b d872 85b9 204e 993c 0149 5abc
000000b0: 8554 25bc d835 a33c 4929 98bc 91a9 c03b
000000c0: 67cd f33b 6c36 7f3b 3462 893c c685 823b
000000d0: a382 89ba 77ef 8d3c b5f5 eabb d148 4d3b
000000e0: 0f7d 08bb 7996 7a3c 74f7 c1bb eb6d 9e3b
000000f0: 02a3 863c 5934 57bc 2da4 523c ba5c 8a3c
00000100: a5fe 9dbd d4a1 3d3d 6934 e2bb da39 403b
00000110: f8a2 993b cb3a 22bd 7e0c 2b3c 2f18 963c
00000120: 07a2 ce3d 73cb 843c ad62 7b3c 265e 073d
00000130: ac33 af3d ffa3 8ebd 8b81 b6bc e204 803b
00000140: 63db e5bb 5e52 87bb d66f 7c3c d0ea 55bb
00000150: 1d6e c7bd bad6 c3bb 3295 f0ba 01c5 13bc
00000160: fb99 a0bc ae5c 5fbc 68c5 44bc bf68 60bc
00000170: be16 8e3c 8a30 83bc bb7e 013e 62f5 403d
00000180: 8484 123c 61c5 483c 2f1f 503c 24b8 42be
00000190: 50f4 193c c182 fa3c 0bcf 18bb ccc0 6fbc
000001a0: e08b 403e 4d4c 9c3c d60c 70bc ff98 82bd
000001b0: e584 67bc 173b cfbb 6622 a9bc 12cc 6e3c
000001c0: 1047 883c d98b 193d a923 40bc ca09 163c
000001d0: d157 b5bd c110 373c 447a a43c 2bac 763c
000001e0: 9f99 95bb 4dde b5bb b1a1 bbbc 812b 22bd
000001f0: 23c4 ba3a 839a 143c 94a6 05bd 8517 38bc
00000200: 9809 813c fa3b 19bb 1652 533b bcab 47bc
00000210: d61e 12bc 17c7 4c3c f8dc 3fbc a2be 23bc
00000220: a675 d3bc abd8 3dba b300 a23c 432a 53bc
00000230: e1d7 81bb bf55 7a3c 5718 3abb b459 863c
00000240: 1403 273c 0b43 55bc ba76 daba cad4 253c
00000250: eb46 f23c 7886 30bc 2caa 223c 4d17 37bb
00000260: 0392 813c 5e8a 44bc 9f0b a93c 1f7a 0abc
00000270: b597 94bc b440 c03a 3531 4dbd 43f5 84bc
00000280: 14a2 8e3a 5db4 203c 08db 733c c70d 553d
00000290: bcc3 46bc 325b cbbc 458d 97bc f84e 86bc
000002a0: a41e c13c f15b 7fbc 8532 6d3c 80a0 2e3d
000002b0: dc36 5fbb bd83 c83a c9a5 46bc 4aed 01bd
000002c0: af87 27bc 4320 16bd 881e 6a3c 8c9b e2ba
000002d0: 7a78 db3c 3732 9a3a 1466 753b a668 28bd
000002e0: 66ad a53c 2694 923b a55f 843c 93ee 3d3c
000002f0: 82a5 f4ba bff7 92bc 33cb cabc 9a41 edbb
00000300: 0e54 b93c a60b c3bb 6878 8dbc e6a5 96bb
00000310: 3454 223b ccab 96ba e9cc 27bc d3dd 81bc
00000320: c719 9dbc 529a 41bc f29b a7bc 98f9 aa3b
00000330: 39d8 dc3b a4a7 7a3c 3401 d73b 801b 713c
00000340: 67a0 0abb d484 7b3c a0d3 0d3c 035b 8dbc
00000350: 4ee5 cf3b 4a3b c33b c227 eaba b268 613c
00000360: 7414 67bc 4a82 87bc 8d12 9fbc 87e2 a839
00000370: e50e 99bb 6a0d 1c3c 9143 04bd e8a0 70bc
00000380: 6fad d03b 0597 4fbc 2de2 93bb 0d9e 843d
00000390: fec9 19bc 65f7 44bc 41e9 7bbc d558 603b
000003a0: 6280 633c 38f3 263c 4524 86bc 9b00 643b
000003b0: 590b 203c 35d3 a63c 26a3 a2bc 2f58 463b
000003c0: 95ad e13b e4e5 0cbc ba26 1c3c 1ae5 96bc
000003d0: 71dd 0fbc 624d b6bb ad0c 763c 5076 f3bc
000003e0: 78a5 3f3a 27c4 0c3c 6fee e33c 0ec7 95bc
000003f0: c3de eebb 10f2 8c3c 21e1 e2bb e5fd 60bc

fc1_lin.bias f4 [256]
-0.0030771266 0.08130808 -0.032278035 0.00037194707 0.012598868 0.003807668 -0.016155029 -0.019492438
-0.009814542 -0.022798358 0.045481633 -0.013768854 0.038063455 0.016043985 -0.02400555 -0.0069296393
0.009721953 -0.009555085 -0.011961046 -0.016091982 -0.0068357517 0.0006700463 0.0025028128 -0.016402729
-0.0011226212 -0.0072899517 -0.009466811 0.0076711453 0.005304137 -0.004683948 0.02528302 -0.020801151
-0.021793433 -0.02191196 -0.02687022 0.036227025 -0.0152087435 -0.022208193 0.0056535634 -0.012616439
0.0068421504 -0.0016124543 -0.011360027 -0.0076028807 0.025494123 -0.009599005 0.052998934 0.021028545
-0.010808233 -0.0071413307 -0.015788512 -0.029276526 0.013588706 -0.016092021 0.023252971 0.02344488
-0.0046011186 -0.021137748 -0.019260662 -0.016740689 -0.0067799184 -0.015045755 -0.0033943101 0.028299492
-0.02851229 -0.020242242 -0.02006346 -0.014520074 -0.008093676 0.02570923 0.004527812 0.032985628
-0.0021344349 -0.0026267183 0.005459801 -0.038323447 -0.010954522 -0.015998244 0.004293533 -0.0060121724
-0.012613646 -0.0143637145 0.0074587795 -0.017906591 0.00408631 0.009504821 0.019292329 -0.009132006
-0.053122982 -0.020031283 0.0013392516 -0.004304421 0.0059282216 0.013605699 -0.01410114 -0.0073476657
0.031699058 -0.011733942 0.03303975 -0.012485889 0.0029310624 -0.020735977 -0.018267987 -0.0012985697
-0.01056533 0.009406489 0.026612604 0.060988236 -0.00059924513 0.03585957 0.006007492 -0.008661267
-0.01146001 -0.01837398 -0.019136671 -0.0014086989 0.037295245 -0.01696651 -0.013915382 -0.015350766
0.035514824 0.0022892887 0.004340759 0.00076614734 -0.018141666 -0.02094041 -0.017777085 0.0017117284
-0.01666043 0.034997784 0.008878416 0.013675384 0.026729459 -0.011911993 -0.01008209 0.010321433
-0.0030250857 0.0033204162 0.014140922 -0.018444369 -0.015760256 0.001050406 -0.011644612 0.0067005916
-0.00600829 0.004737953 0.017652644 -0.010959111 0.0071651796 0.078824915 -0.004296607 -0.0066377297
0.004008803 0.028073052 -0.0060399342 0.0013149786 0.01589997 0.011319422 0.00030507328 -0.0034602527
0.05714135 -0.01229371 -0.014096831 -0.04341904 0.022486437 0.015605846 0.0032348686 0.067167215
-0.0127489725 -0.0058194934 0.0070889774 -0.016947312 0.025098035 -0.010974772 0.0015254652 -0.0064990455
-0.0012818859 0.070205934 -0.016168278 0.047457203 -0.011618375 -0.053307567 -0.032254927 -0.0024522124
-0.0026097083 0.010794019 -0.009737703 0.018520042 0.0011848317 -0.01612141 -0.0070775747 0.011946329
-0.0058470573 -0.01690258 -0.012359011 0.022253029 0.06636368 -0.018172672 -0.044893872 -0.0116221225
0.014863427 0.030139485 -0.0024644358 0.011115741 -0.0038578524 0.0055483594 0.006524369 -0.022244846
0.0037479496 0.084341995 -0.009432005 0.007191294 0.023211535 -0.015365406 0.024906797 0.052192777
0.0029452064 -0.009494354 -0.017534094 -0.008358651 0.037606277 -0.012218713 -0.006778388 -0.0014831207
-0.005702024 -0.003642286 -0.06985178 0.012557566 0.007422074 -0.00045815788 0.0043078354 0.021678865
0.0008335603 0.010539645 -0.035717268 0.025805952 -0.009719661 0.0029183961 -0.016931731 0.009028829
-0.012728276 0.03655798 -0.018086532 -0.02662964 -0.010982348 0.00944083 -0.015117476 0.016536098
-0.022091268 -0.0044072703 -0.03550188 0.009677365 -0.036226083 0.042308457 -0.022572123 -0.02026515
00000000: 9ea9 49bb da84 a63d f935 04bd e401 c339
00000010: 7c6b 4e3c 128a 793b 8d57 84bc 9bae 9fbc
00000020: 2ccd 20bc 9fc3 babc f34a 3a3d c296 61bc
00000030: 6de8 1b3d ad6e 833c 4aa7 c4bc 0712 e3bb
00000040: d448 1f3c ee8c 1cbc 43f8 43bc 55d3 83bc
00000050: 71fe dfbb 0ca6 2f3a 3b06 243b 045f 86bc
00000060: eb24 93ba 8ce0 eebb af1a 1bbc 3b5e fb3b
00000070: 53ce ad3b ce7b 99bb 561e cf3c 2d67 aabc
00000080: 2488 b2bc b680 b3bc f01e dcbc ca62 143d
00000090: 182e 79bc f5ed b5bc 8741 b93b 2eb5 4ebc
000000a0: 1e34 e03b fd58 d3ba 681f 3abc 9621 f9bb
000000b0: 0dd9 d03c 2545 1dbc 6915 593d 0e44 ac3c
000000c0: 0415 31bc d301 eabb e956 81bc 53d5 efbc
000000d0: 2aa3 5e3c 6ad3 83bc 047d be3c 7a0f c03c
000000e0: fbc4 96bb 1229 adbc 89c8 9dbc c523 89bc
000000f0: 142a debb 7882 76bc 1373 5ebb 56d4 e73c
00000100: 9b92 e9bc 0fd3 a5bc 205c a4bc 9be5 6dbc
00000110: 569b 04bc 2a9c d23c 0a5e 943b f01b 073d
00000120: e0e1 0bbb 0525 2cbb 21e8 b23b 0cf9 1cbd
00000130: 987a 33bc c00e 83bc c4b0 8c3b c201 c5bb
00000140: 77a9 4ebc c955 6bbc c768 f43b d8b0 92bc
00000150: 74e6 853b 1cba 1b3c f20a 9e3c 699e 15bc
00000160: 7c97 59bd a518 a4bc d489 af3a 1a0c 8dbb
00000170: 8741 c23b 70ea 5e3c 7808 67bc b0c4 f0bb
00000180: dfd6 013d b83f 40bc b054 073d 9d91 4cbc
00000190: 1117 403b 7fde a9bc bfa6 95bc c534 aaba
000001a0: 351a 2dbc ad1d 1a3c ad02 da3c cdce 793d
000001b0: a916 1dba 7ce1 123d 7fda c43b fde7 0dbc
000001c0: c4c2 3bbc 0785 96bc 82c4 9cbc 17a4 b8ba
000001d0: e6c2 183d 5afd 8abc 58fd 63bc c781 7bbc
000001e0: fe77 113d e407 163b ed3c 8e3b 47d7 483a
000001f0: d59d 94bc 398b abbc 40a1 91bc 135c e03a
00000200: 747b 88bc d659 0f3d c776 113c b80e 603c
00000210: bdf7 da3c 852a 43bc 5a2f 25bc 3a1b 293c
00000220: 8440 46bb 579b 593b 53af 673c a518 97bc
00000230: a71b 81bc c7ad 893a 0bc9 3ebc a390 db3b
00000240: 31e1 c4bb d540 9b3b 479c 903c d88d 33bc
00000250: e2c9 ea3b f56e a13d 8dca 8cbb 5081 d9bb
00000260: 475c 833b 75f9 e53c a4ea c5bb 5c5b ac3a
00000270: a740 823c 1975 393c 3ef2 9f39 68c5 62bb
00000280: 0c0d 6a3d 8f6b 49bc 65f6 66bc 2ad8 31bd
00000290: 7a35 b83c aaaf 7f3c 1700 543b f78e 893d
000002a0: 11e1 50bc 73b1 bebb a74a e83b 17d5 8abc
000002b0: 659a cd3c 88cf 33bc 1ef2 c73a f2f5 d4bb
000002c0: f404 a8ba 21c8 8f3d 5673 84bc 7c62 423d
000002d0: ff5a 3ebc 0959 5abd be1d 04bd 4cb5 20bb
000002e0: a407 2bbb 66d9 303c e38a 1fbc 58b7 973c
000002f0: 5b4c 9b3a 0c11 84bc 00eb e7bb 89ba 433c
00000300: ac98 bfbb 4877 8abc 737d 4abc fc4b b63c
00000310: aee9 873d dbde 94bc a3e2 37bd b76a 3ebc
00000320: bb85 733c 15e7 f63c 5f82 21bb cc1e 363c
00000330: 06d4 7cbb 03cf b53b 60ca d53b d33a b6bc
00000340: 29a0 753b 7fbb ac3d b288 1abc f2a4 eb3b
00000350: 1e26 be3c 2fbf 7bbc 5709 cc3c 18c8 553d
00000360: 5d04 413b 358e 1bbc a9a3 8fbc b9f2 08bc
00000370: 0a09 1a3d ff30 48bc 3d1d debb 4665 c2ba
00000380: 0bd8 babb 6bb3 6ebb 730e 8fbd 40be 4d3c
00000390: df34 f33b e934 f0b9 be28 8d3b e097 b13c
000003a0: 4983 5a3a 7aae 2c3c 454c 12bd 0167 d33c
000003b0: 373f 1fbc 9042 3f3b 6ab4 8abc a7ed 133c
000003c0: 428a 50bc d2bd 153d 352a 94bc 6726 dabc
000003d0: 4eef 33bc b6ad 1a3c 4aaf 77bc b676 873c
000003e0: bff8 b4bc dd6a 90bb 6b6a 11bd d08d 1e3c
000003f0: cd61 14bd a24b 2d3d 2ce9 b8bc 1a03 a6bc

fc2_lin.weight f4 [128, 256]
-0.0020284099 -0.022547228 0.0041170865 -0.005463214 -0.004036741 0.0043452964 -0.010213597 0.0095387595
0.0018322357 0.013369895 -0.02610663 -0.0028890902 -0.021759113 -0.0027613172 0.011812382 0.0091890255
0.00071243965 0.0040292153 -0.0071837734 0.006932515 0.009578013 -0.008844623 0.0040501654 -0.00043921996
-0.0039698686 0.0033482749 0.0008675669 -0.006138921 0.0014352568 0.00869607 -0.0060146637 0.008905731
0.006343818 0.0033110436 0.0009158802 -0.0052336603 -0.001701004 0.0058610654 0.0047665634 0.0036970377
9.6228774e-05 -0.0030614173 -5.5756598e-05 0.008748398 -0.019542038 -0.0059884 -0.012798829 -0.0134293465
0.04815137 -0.00491235 -0.0071506663 0.01720105 0.008895884 -0.0051614833 -0.00342046 0.0013318107
-0.0003251439 0.011247803 -0.003661387 0.010379519 -0.0020691077 -0.0046864 0.0024092183 -0.027602356
0.07496116 0.00228918 -0.000575939 -0.009735984 -0.013327887 -0.011288208 0.006229534 -0.0060517066
-0.009232909 -0.0067642303 -0.008034972 0.015127584 0.010323964 0.0029407165 0.0049819644 0.035019383
0.0048136055 0.007948618 -0.0048854426 -0.0052846815 0.009112441 0.0076752985 -0.004908827 0.007365628
0.037265655 0.0018240748 0.007670833 0.010271025 0.038843147 0.008937263 -0.0051690894 -0.019736737
-0.07133095 0.005972272 -0.0064993296 0.0028252671 0.002103097 0.016810806 0.010283852 -0.007522164
-0.009445047 0.0045144404 -0.022652095 -0.01722792 0.009091931 0.0006195074 0.0055475784 0.0127585195
0.008251382 0.008300319 -0.0023213332 -0.008316768 0.008658353 0.009760329 0.00017995412 -0.0009767038
-0.0078091854 0.0020941626 -0.004588152 0.006610488 -0.0019289919 0.006590182 0.008465398 -0.00079190405
0.012882098 -0.051780142 0.0020179618 0.0010396668 -0.01010175 -0.009265064 0.00062340946 -0.0020570685
-0.00077849906 -0.004135928 0.0039424817 0.0034644788 -0.0036720177 -0.0021911918 0.0016313723 0.02049228
-0.010240229 0.0034863937 0.0030247567 0.0032008805 -0.012293767 -0.008990361 -0.0030170933 -0.0088388985
-0.008596543 -0.0038372208 0.007760071 -0.008238858 0.008630706 -0.0035173032 0.052295197 0.0035376486
-0.05000055 0.010297037 -0.0025402408 0.06722707 -0.008050924 -0.015283994 -0.007546289 -0.0034840151
-0.0049647675 -0.0009345506 0.032255873 -0.003597182 -0.005082154 0.027345695 -0.005679747 0.0030056157
-0.0052413284 -0.01451903 0.009176491 -0.009998715 0.008079581 0.0431152 0.039448053 -0.0091727525
-0.005025537 -0.009252569 -0.0067835026 -0.0136529235 -0.0016690296 0.0019403204 -0.0030363612 -0.0014485557
0.016404424 0.0044658855 0.0040106485 -0.0054061553 -0.018463688 0.0075400695 0.020168593 0.007975008
-0.0005338291 -0.0066157104 -0.004804883 -0.008630302 -0.0020604937 -0.008805249 -0.0068068514 0.07697236
0.03138503 -0.042934366 -0.0022475822 -0.0055706874 -0.0116836745 0.0027435694 0.0008857941 -0.02466269
-0.002016382 0.0014001026 0.00011860808 -6.447092e-05 -0.009464888 -0.004456082 -0.00071690057 0.007973918
-0.009261388 0.0093233995 0.025139926 -0.029208032 0.0030591781 -0.0079081645 0.00517662 0.0009874025
-0.007056864 0.014603678 0.0046385373 -0.0031994798 0.011031602 -0.054109696 0.00012532847 -0.0009867104
-0.007866955 -0.030010005 0.00995633 0.031971056 0.002687658 -0.014060158 -0.0066155633 0.00512535
-0.009514266 0.08974447 0.005443407 0.002644852 0.043432318 -0.0368659 -0.0057722107 -0.005486479
00000000: 12ef 04bb f7b4 b8bc a0e8 863b c304 b3bb
00000010: a346 84bb fd62 8e3b ee56 27bc 7548 1c3c
00000020: a127 f03a 670d 5b3c 92dd d5bc e456 3dbb
00000030: 2b40 b2bc 37f7 34bb b988 413c 918d 163c
00000040: 04c3 3a3a 8207 843b dc65 ebbb 272a e33b
00000050: 19ed 1c3c 0ae9 10bc 40b7 843b 1b47 e6b9
00000060: ac15 82bb bb6e 5b3b 6e6d 633a 0029 c9bb
00000070: 3a1f bc3a f679 0e3c a816 c5bb 58e9 113c
00000080: cddf cf3b 18fe 583b ae17 703a 207f abbb
00000090: 39f4 deba 2e0e c03b d530 9c3b 004a 723b
000000a0: 6ece c938 0fa2 48bb 31dc 69b8 7155 0f3c
000000b0: a016 a0bc 573a c4bb 2eb2 51bc c306 5cbc
000000c0: 5f3a 453d c7f7 a0bb 2350 eabb 37e9 8c3c
000000d0: 0bc0 113c a921 a9bb cc29 60bb 2790 ae3a
000000e0: 1378 aab9 b548 383c e1f3 6fbb dc0e 2a3c
000000f0: de99 07bb 5f90 99bb fae3 1d3b 561e e2bc
00000100: 3d85 993d 1106 163b 9dfa 16ba ad83 1fbc
00000110: 365d 5abc 2df2 38bc 1e21 cc3b 654d c6bb
00000120: a145 17bc 7aa6 ddbb 1da5 03bc b0d9 773c
00000130: d825 293c 09b9 403b bf3f a33b 7c70 0f3d
00000140: 73bb 9d3b ec3a 023c 1016 a0bb 1f2b adbb
00000150: 594c 153c 1281 fb3b 3ada a0bb 5e5b f13b
00000160: dfa3 183d cb15 ef3a 9c5b fb3b cd47 283c
00000170: fe19 1f3d 996d 123c 7761 a9bb f0ae a1bc
00000180: f615 92bd 0cb3 c33b 54f8 d4bb 1e28 393b
00000190: 1dd4 093b d1b6 893c 9a7d 283c 7c7c f6bb
000001a0: 66bf 1abc dfed 933b e390 b9bc 9121 8dbc
000001b0: 53f6 143c 7066 223a 76c8 b53b 1c09 513c
000001c0: ce30 073c 10fe 073c 8221 18bb 0e43 08bc
000001d0: c4db 0d3c c9e9 1f3c 11b2 3c39 be04 80ba
000001e0: 32e4 ffbb 383e 093b 3558 96bb cb9c d83b
000001f0: 3ad6 fcba 74f2 d73b 74b2 0a3c c897 4fba
00000200: 6f0f 533c 6a17 54bd c83f 043b 6e45 883a
00000210: cf81 25bc 7fcc 17bc 4d6c 233a e2cf 06bb
00000220: 3014 4cba ae86 87bb ef2f 813b 4f0c 633b
00000230: 3ca6 70bb 199a 0fbb c5d3 d53a 6ddf a73c
00000240: a2c6 27bc fb7b 643b ff3a 463b ddc5 513b
00000250: cc6b 49bc 4f4c 13bc 6dba 45bb 07d1 10bc
00000260: 84d8 0cbc e279 7bbb 3248 fe3b 46fc 06bc
00000270: ce67 0d3c 8e82 66bb 7d33 563d e5d7 673b
00000280: 60cd 4cbd e7b4 283c 2b7a 26bb 59ae 893d
00000290: 06e8 03bc b869 7abc dc46 f7bb 1354 64bb
000002a0: 7daf a2bb a1fc 74ba bc1e 043d b3be 6bbb
000002b0: 3388 a6bb 1404 e03c 2c1d babb ddf9 443b
000002c0: 73bf abbb 3ae1 6dbc fe58 163c a6d1 23bc
000002d0: 3860 043c 9099 303d 4894 213d 5049 16bc
000002e0: 43ad a4bb 1698 17bc 2548 debb 83b0 5fbc
000002f0: 57c3 daba 5952 fe3a b0fd 46bb 77dd bdba
00000300: 9262 863c 9056 923b c26b 833b 1e26 b1bb
00000310: 2941 97bc b012 f73b 9b38 a53c 9ca9 023c
00000320: aaf0 0bba 9ac8 d8bb 4872 9dbb 1c66 0dbc
00000330: 5909 07bb e443 10bc 020c dfbb afa3 9d3d
00000340: 978d 003d f2db 2fbd 2c4c 13bb 508a b6bb
00000350: e26c 3fbc 75cd 333b a334 683a 6909 cabc
00000360: 4725 04bb a683 b73a 3abd f838 9034 87b8
00000370: 9e12 1bbc 5304 92bb 62ee 3bba 09a5 023c
00000380: 14bd 17bc 2cc1 183c 3ff2 cd3c af45 efbc
00000390: 7e7c 483b 3f91 01bc a3a0 a93b bb6b 813a
000003a0: 443d e7bb 4444 6f3c dffe 973b 5dae 51bb
000003b0: e4bd 343c 21a2 5dbd 9b6a 0339 8254 81ba
000003c0: 67e4 00bc 8bd7 f5bc e01f 233c 15f4 023d
000003d0: 6b23 303b 945c 66bc 5ec7 d8bb 8df2 a73b
000003e0: b9e1 1bbc f3cb b73d 9c5e b23b 4155 2d3b
000003f0: 16e6 313d b300 17bd d024 bdbb ecc7 b3bb

fc2_lin.bias f4 [128]
-0.019731581 -0.00925165 -0.0052141743 -0.01970244 0.08674684 -0.009636035 -0.013676429 -0.016735269
-0.027909514 -0.0045498884 -0.0032234928 -0.016709035 -0.011101414 -0.031972837 0.0020810072 -0.005949571
-0.028215338 -0.0076109525 -0.009266636 -0.0052397638 0.05184642 0.023108354 -0.003584605 0.0046513635
0.0007795518 -0.007272834 0.019015761 -0.0056921826 0.013819143 -0.025141709 -0.0054088226 -0.010927598
-0.008993485 -0.01465512 -0.0035788212 -0.026783532 -0.009501395 0.15371028 -0.013504167 -0.012967403
-0.005890568 -0.012517252 -0.007547713 -0.00012424693 -0.031075988 -0.030581033 -0.01576392 -0.03406014
0.018303795 0.06489905 0.0004217246 0.031783782 -0.011382356 0.0076067448 0.108971305 -0.007066115
-0.007966742 -0.014583264 0.12692201 0.013794067 0.027979095 -0.0013085214 -0.013916664 0.050379623
0.056554094 -0.012385189 -0.009895546 -0.025677769 -0.009271761 0.019735364 0.025237108 -0.029320568
-0.00087264687 0.069917165 -0.01564894 -0.004412789 -0.017061604 0.00048406364 -0.008230771 0.036563583
0.036642574 -0.010453584 0.16323237 -0.0020154244 -0.0022458488 -0.019995295 -0.0069907336 -0.0052668676
0.019813182 -0.011544061 0.06595602 -0.004918606 -0.011637894 -0.012759357 0.005446656 -0.0071749175
0.04836532 0.011290096 0.00060398784 -0.0100842025 0.0052020834 -0.0069259508 0.07032105 0.016779333
-0.009923515 0.120546 -0.011004959 -0.009427796 0.0007893215 0.03697749 0.07128343 0.0144879995
0.017791696 0.047522478 0.0534636 0.05479971 0.012427187 -0.0153313335 0.08711734 0.011360102
-0.008462186 0.09961572 -0.010986102 -0.0065866755 0.0029620617 -0.009243935 -0.01351222 0.008900366
00000000: 20a4 a1bc 3c94 17bc aadb aabb 0367 a1bc
00000010: 54a8 b13d 76e0 1dbc 1a13 60bc 6718 89bc
00000020: 7ea2 e4bc 3b17 95bb 3c41 53bb 63e1 88bc
00000030: b5e2 35bc f3f5 02bd 8261 083b 9ef4 c2bb
00000040: da23 e7bc 4c65 f9bb 17d3 17bc 53b2 abbb
00000050: e95c 543d bb4d bd3c b1eb 6abb 776a 983b
00000060: d65a 4c3a f450 eebb f1c6 9b3c 7d85 babb
00000070: b069 623c fcf5 cdbc 7e3c b1bb ab09 33bc
00000080: 6959 13bc 071c 70bc a88a 6abb 2369 dbbc
00000090: bdab 1bbc 3a66 1d3e 9540 5dbc 3b75 54bc
000000a0: aa05 c1bb 2915 4dbc ce52 f7bb 4848 02b9
000000b0: 1293 febc 1385 fabc 5623 81bc a582 0bbd
000000c0: d7f1 953c cbe9 843d eb1a dd39 b62f 023d
000000d0: 107d 3abc 0042 f93b 592c df3d de8a e7bb
000000e0: f086 02bc a4ee 6ebc d8f7 013e 8300 623c
000000f0: 6a34 e53c b182 abba b802 64bc dd5a 4e3d
00000100: 44a5 673d 3feb 4abc ee20 22bc 2f5a d2bc
00000110: 96e8 17bc 0fac a13c 0dbe ce3c b031 f0bc
00000120: 57c2 64ba bb30 8f3d 3532 80bc 2899 90bb
00000130: c7c4 8bbc ecc9 fd39 5bda 06bc b2c3 153d
00000140: 8616 163d 8245 2bbc 6326 273e 3615 04bb
00000150: 172f 13bb 2ccd a3bc 8612 e5bb b095 acbb
00000160: 414f a23c 4d23 3dbc f313 873d 422c a1bb
00000170: deac 3ebc 9f0c 51bc dd79 b23b 921b ebbb
00000180: b71a 463d 18fa 383c f054 1e3a 3638 25bc
00000190: 3d76 aa3b 16f3 e2bb 7c04 903d d074 893c
000001a0: 3d96 22bc d2e0 f63d 254e 34bc 0b77 1abc
000001b0: 78ea 4e3a b575 173d 0cfd 913d 135f 6d3c
000001c0: e4bf 913c eea6 423d a6fc 5a3d a975 603d
000001d0: 669b 4b3c 4630 7bbc 936a b23d b91f 3a3c
000001e0: fba4 0abc 5403 cc3d 0dff 33bc 0ad5 d7bb
000001f0: 261f 423b e073 17bc 5c62 5dbc d7d2 113c

fc3_lin.weight f4 [64, 128]
0.0087110745 -0.005369853 -0.009441037 -0.015196598 -0.009759918 0.0022553212 -0.012036643 0.002948676
0.00018961102 -0.003607887 0.0009112671 0.012821633 0.0034448223 -0.0072298064 0.0015064555 -0.004194364
0.012453187 0.0031697096 0.0048852167 -0.011646382 -0.011850884 -0.0029345278 0.014344119 -0.0075514186
-0.0027231753 -0.004525455 0.005498371 -0.014193907 -0.0031525213 -0.013882689 0.01766476 0.0024511653
-0.015014873 -0.013609009 -0.003981314 0.007667924 -0.0003637483 -0.004393458 -0.0072928173 -0.011669852
-0.0008890874 0.0077341255 -0.0043870946 0.0074989498 0.00027879432 0.00540935 0.0046952674 -0.003021505
0.020414699 -0.015787803 -0.0050913887 0.0018029131 -0.011589224 -0.0055024796 -0.009700851 0.0007561717
-0.012981023 -0.0045486647 -0.014302585 0.020945929 -0.0011315657 0.011103238 0.013032735 0.0039490876
0.007899327 0.00046630905 -0.013063388 0.0060311314 -0.006980254 -0.0095050195 -0.0116890855 0.010889373
-0.0055024014 0.010301766 0.020322641 0.0063369805 -0.0146514885 -0.000526907 0.0081204595 0.0025991492
0.007960543 -0.0116058085 0.0025227915 0.027685795 -0.0076954793 0.0026231664 0.011396046 0.011947352
-0.0051363013 0.0027307018 -0.013723058 -0.0039170943 -0.012413779 -0.00198753 -0.002888215 0.006597219
-0.015353294 -0.0025469314 0.0040670317 -0.00868561 -0.016203072 -0.002529379 -0.010952576 0.013892558
0.0019513153 0.0013410009 -0.0057436936 -0.009631968 0.002356623 0.0023520414 -0.0061379117 0.020209095
-0.0046158694 -0.0028256716 -0.015851028 -0.011346633 -0.0010995321 -0.0015597694 -0.010856954 0.020009173
-0.013485538 -0.011529036 0.011724976 0.004769942 0.008187009 -0.005684438 0.00037360354 0.013912516
-0.013470439 0.014199647 0.0066998913 0.016666707 -0.023878055 0.008486646 0.004935607 0.026504789
-0.0788637 0.006622874 0.01037507 0.018511726 -0.020724205 0.03141245 -0.006047639 0.004549408
0.042101555 -0.00043533003 0.012763635 0.006114855 0.0031133348 -0.06058012 -0.013755368 -0.0018360073
0.010573273 0.007470616 -0.017315073 -0.0058713113 0.011587176 0.05343675 -0.0652786 -0.0039661406
0.009027121 -0.0011882569 0.014163752 0.06543402 -0.004482087 0.012818129 0.005815917 0.0025233044
0.01262514 0.0010963902 0.0013364287 -0.0004045794 0.032545097 0.02102764 0.0126937665 0.033296157
-0.050586738 0.022909282 0.017094523 0.013590125 -0.0019223476 -0.071035065 -0.013320404 -0.0074719116
0.0031654227 -0.088915884 -0.013107393 -0.025526829 -0.0106973285 -0.009574031 0.0023361677 0.026933687
-0.034253567 0.010598919 -0.0128042335 0.0027622592 -0.0046912422 0.006257961 0.004080259 0.032298595
-0.0060245916 0.009139077 -0.06773499 -0.00094766356 0.03865196 0.013403409 0.042946022 0.014360694
0.037096187 0.00075908005 1.604143e-05 -0.039691333 -0.00038865575 -0.053596213 -0.0021491325 -0.00045673302
-0.01291508 0.014144668 0.070345975 -0.0026207264 -0.010821101 0.0060021398 -0.010964542 -0.003039187
0.044451993 0.0148060145 0.023982303 -0.004799905 0.012218301 -0.009166511 0.039889544 -0.037430618
0.007981605 0.068712965 0.008112524 -0.00046112208 -0.06364467 0.012076436 -0.009596209 -0.062711194
0.020644257 0.04195313 0.009111791 0.027895536 0.0020993177 -0.009819004 0.104455434 -0.045533005
-0.0055839075 0.017808564 -0.006402534 0.005675045 -0.005378253 -0.010421551 0.02607359 -0.04539486
00000000: e5b8 0e3c 98f5 afbb 94ae 1abc 27fb 78bc
00000010: 10e8 1fbc 03ce 133b 5735 45bc 933e 413b
00000020: 52d2 4639 4d72 6cbb 1ae2 6e3a d411 523c
00000030: 87c2 613b 03e8 ecbb 4274 c53a e070 89bb
00000040: 7408 4c3c e7ba 4f3b 2b14 a03b 77d0 3ebc
00000050: 362a 42bc 3551 40bb 9803 6b3c e471 f7bb
00000060: 4d77 32bb 454a 94bb ae2b b43b 908d 68bc
00000070: 889a 4ebb 3874 63bc b0b5 903c bba3 203b
00000080: f100 76bc 52f8 5ebc af75 82bb 3543 fb3b
00000090: 78b5 beb9 fff6 8fbb 96f8 eebb e832 3fbc
000000a0: a511 69ba 8c6e fd3b 9ec1 8fbb c0b9 f53b
000000b0: 242b 9239 eb40 b13b c2da 993b 7104 46bb
000000c0: ba3c a73c 6c55 81bc aad5 a6bb ba4f ec3a
000000d0: bbe0 3dbc 254e b4bb 51f0 1ebc d339 463a
000000e0: 5bae 54bc f70c 95bb 6455 6abc cc96 ab3c
000000f0: 0b51 94ba 5bea 353c 4187 553c 5967 813b
00000100: 2e6c 013c f17a f439 d207 56bc cca0 c53b
00000110: 9dba e4bb f1ba 1bbc 9483 3fbc 5769 323c
00000120: 7d4d b4bb bdc8 283c ab7b a63c 72a6 cf3b
00000130: cc0c 70bc 2120 0aba ad0b 053c 7d56 2a3b
00000140: f06c 023c 4a26 3ebc 6b55 253b 52cd e23c
00000150: 5c2a fcbb 6ee9 2b3b 7bb6 3a3c d4be 433c
00000160: 6b4e a8bb 93f5 323b add6 60bc f85a 80bb
00000170: 2a63 4bbc 3841 02bb 3548 3dbb 7c2d d83b
00000180: 628c 7bbc 6bea 26bb bc44 853b 174e 0ebc
00000190: 4ebc 84bc f0c3 25bb 6f72 33bc 9d9d 633c
000001a0: 47c3 ff3a 86c4 af3a 9835 bcbb 67cf 1dbc
000001b0: 9371 1a3b b524 1a3b 8920 c9bb 8b8d a53c
000001c0: b840 97bb e72e 39bb 04da 81bc 3ae7 39bc
000001d0: 2d1e 90ba 2d71 ccba 5ee1 31bc 47ea a33c
000001e0: 72f2 5cbc 48e4 3cbc 1d1a 403c 2c4d 9c3b
000001f0: ce22 063c 8644 babb 38e0 c339 52f1 633c
00000200: 1eb3 5cbc a3a5 683c c38a db3b 9e88 883c
00000210: e99b c3bc 930b 0b3c dfba a13b 9220 d93c
00000220: 4b83 a1bd b204 d93b 33fc 293c e7a5 973c
00000230: cfc5 a9bc 57aa 003d 462b c6bb 3313 953b
00000240: ae72 2c3d 023d e4b9 911e 513c 1f5f c83b
00000250: 1709 4c3b dc22 78bd 325e 61bc 2fa6 f0ba
00000260: 853b 2d3c 12cc f43b 57d8 8dbc 2164 c0bb
00000270: 23d8 3d3c 7ee0 5a3d c9b0 85bd 66f6 81bb
00000280: 7de6 133c 49bf 9bba 150f 683c 4502 863d
00000290: 79de 92bb 2103 523c 7393 be3b 065e 253b
000002a0: add9 4e3c c0b4 8f3a 1b2b af3a ba1d d4b9
000002b0: 024e 053d 2842 ac3c 84f9 4f3c 8d61 083d
000002c0: 0a34 4fbd 3fac bb3c d009 8c3c 1ea9 5e3c
000002d0: 48f7 fbba d57a 91bd d33d 5abc f0d6 f4bb
000002e0: fb72 4f3b 8819 b6bd 64c0 56bc a41d d1bc
000002f0: d943 2fbc 66dc 1cbc 641a 193b 09a4 dc3c
00000300: 784d 0cbd 17a7 2d3c d9c8 51bc 0507 353b
00000310: feb8 99bb 950f cd3b b1b3 853b 884b 043d
00000320: f069 c5bb 11bc 153c a4b8 8abd a06c 78ba
00000330: 8551 1e3d f999 5b3c 2be8 2f3d 1e49 6b3c
00000340: 2cf2 173d 00fd 463a b590 8637 6193 22bd
00000350: 7ec4 cbb9 b487 5bbd 76d8 0cbb ab75 efb9
00000360: c699 53bc 0abf 673c 8d11 903d 7ec0 2bbb
00000370: fd4a 31bc 99ad c43b 9fa4 33bc 192d 47bb
00000380: 4b13 363d ed94 723c 8976 c43c 8548 9dbb
00000390: 452f 483c 222f 16bc 3863 233d d950 19bd
000003a0: 47c5 023c 62b9 8c3d 64ea 043c c2c2 f1b9
000003b0: 2358 82bd 3edc 453c 6b39 1dbc ba6e 80bd
000003c0: 251e a93c 0cd7 2b3d 9f49 153c 2e85 e43c
000003d0: b594 093b e3df 20bc bbec d53d d180 3abd
000003e0: 36f9 b6bb 44e3 913c 59cc d1bb baf5 b93b
000003f0: 0e3c b0bb 27bf 2abc 4898 d53c f6ef 39bd

fc3_lin.bias f4 [64]
0.009584174 0.17111136 0.1597793 -0.019382898 0.12435587 -0.004840983 0.090028435 0.06479368
0.07629452 -0.003794113 0.058198005 0.113096185 -0.026484929 0.0489454 0.1197016 0.17234041
-0.019767368 0.15829737 0.14380261 0.08685198 -0.015215441 0.15520631 0.104217656 0.1220102
-0.018832056 0.09564883 0.11565725 0.072930254 -0.009071442 0.10546431 0.13119917 -0.0143666705
0.09433618 0.10206486 0.10162765 0.10985782 0.13844046 0.008330844 0.026935156 -0.010665792
-0.021962024 0.091275334 0.108314484 0.058518507 0.050554994 -0.013885348 0.108836144 -0.014183076
0.10927465 -0.020697508 -0.013892753 -0.014141804 0.056784272 -0.03584896 0.14248233 0.10130132
-0.0074724862 0.07225856 0.09956684 -0.01993066 0.021124722 0.13781321 -0.019985396 -0.018405149
00000000: f006 1d3c d137 2f3e 2f9d 233e e2c8 9ebc
00000010: 4aae fe3d 1ca1 9ebb d460 b83d 8db2 843d
00000020: 4d40 9c3d a7a6 78bb 0861 6e3d f99e e73d
00000030: ecf6 d8bc f97a 483d 1d26 f53d 017a 303e
00000040: 2def a1bc b518 223e fe40 133e 73df b13d
00000050: 2f4a 79bc 67ee 1e3e 1170 d53d 7ce0 f93d
00000060: af45 9abc 89e3 c33d b5dd ec3d 755c 953d
00000070: 63a0 14bc acfd d73d 1359 063e 2f62 6bbc
00000080: 5433 c13d 6207 d13d 2822 d03d 23fd e03d
00000090: 56c3 0d3e 187e 083c 1ea7 dc3c 93bf 2ebc
000000a0: b4e9 b3bc 90ee ba3d fcd3 dd3d 1ab1 6f3d
000000b0: c112 4f3d 5f7f 63bc 7ce5 de3d 2260 68bc
000000c0: 63cb df3d d28d a9bc 6e9e 63bc 06b3 67bc
000000d0: a096 683d 5cd6 12bd e3e6 113e 1177 cf3d
000000e0: c2db f4bb 4cfc 933d b3e9 cb3d a045 a3bc
000000f0: c10d ad3c e81e 0d3e 6ab8 a3bc 65c6 96bc

fc4.weight f4 [2, 64]
-0.04401228 0.18675861 -0.11361165 -0.0027924187 0.12900591 -0.015948234 0.10538449 0.10876481
0.098740466 0.017999556 0.0944254 0.13876271 -0.0054194164 0.046982095 0.16247374 0.1599297
-0.012906951 0.16352156 0.12210887 0.10018675 -0.00063422736 0.15483247 0.101524115 0.1365229
-0.0054356246 -0.16094258 0.115700446 0.11304255 0.011258021 0.11261912 -0.23230305 0.023316521
-0.18966359 0.14448678 -0.11348514 0.116083525 0.12445651 -0.055169795 -0.18576841 -0.009647006
-0.0023519725 0.1687019 -0.2233615 -0.108440444 0.07800173 0.0020961943 0.16006336 -0.013279561
0.12311989 0.002356123 0.000984751 0.009749428 -0.12999515 -0.023074687 0.10462514 0.18231362
0.010149362 0.079832345 0.09293203 0.019328251 -0.031305384 0.1453936 -0.000769703 -0.013874831
0.021714143 -0.152639 0.079843685 0.008620989 -0.16274017 -0.01079729 -0.13488351 -0.09019443
-0.10170304 -0.006903073 -0.083172075 -0.120249316 0.014329191 -0.026909206 -0.14341503 -0.191504
0.00028094172 -0.15579204 -0.13863006 -0.101390734 -0.0023571833 -0.17477474 -0.13058196 -0.12233743
-0.010156374 0.14322703 -0.13516966 -0.11289443 0.0077084894 -0.12618506 0.20505275 0.011850978
0.18333493 -0.11136945 0.09982874 -0.11983166 -0.13318494 0.07386658 0.1690553 0.0072383406
0.0051778727 -0.15805234 0.2024436 0.08715592 -0.08587739 -0.001567499 -0.17747162 0.004985722
-0.11236671 0.017216818 0.010001884 -0.0010926622 0.1490269 0.005220265 -0.12785937 -0.1939246
0.014036246 -0.094104804 -0.09901722 0.0067131864 0.03046436 -0.13417208 0.008380085 -0.0033411577
00000000: 3846 34bd a63d 3f3e 3aad e8bd 0301 37bb
00000010: 201a 043e dfa5 82bc d3d3 d73d 16c0 de3d
00000020: 7138 ca3d ce73 933c 1b62 c13d d017 0e3e
00000030: 5c95 b1bb 4c70 403d 845f 263e 9cc4 233e
00000040: ad77 53bc 3272 273e 3714 fa3d b62e cd3d
00000050: 4742 26ba 678c 1e3e e0eb cf3d a9cc 0b3e
00000060: 531d b2bb 22ce 24be 5bf4 ec3d da82 e73d
00000070: 9073 383c daa4 e63d dae0 6dbe 4a02 bf3c
00000080: 2c37 42be 58f4 133e e66a e8bd 33bd ed3d
00000090: 0ee3 fe3d b9f9 61bd 133a 3ebe 7a0e 1ebc
000000a0: 8d23 1abb 31c0 2c3e e1b8 64be 0616 debd
000000b0: 5fbf 9f3d 4e60 093b a6e7 233e 8492 59bc
000000c0: 4826 fc3d 2f69 1a3b c312 813a 11bc 1f3c
000000d0: 731d 05be 2007 bdbc b545 d63d 6cb0 3a3e
000000e0: 8249 263c 247f a33d 2653 be3d 4856 9e3c
000000f0: 133a 00bd 0fe2 143e e5c5 49ba 4253 63bc
00000100: dce1 b13c 664d 1cbe 1685 a33d 0c3f 0d3c
00000110: 5ca5 26be 1ee7 30bc e71e 0abe dbb7 b8bd
00000120: af49 d0bd 2c33 e2bb 1f56 aabd 4645 f6bd
00000130: fcc4 6a3c b270 dcbc 64db 12be a019 44be
00000140: 5c4b 9339 f387 1fbe 0af5 0dbe f2a5 cfbd
00000150: f97a 1abb 26f8 32be 47b7 05be 0c8c fabd
00000160: ec66 26bc 1baa 123e ea69 0abe 3235 e7bd
00000170: 7f97 fc3b a836 01be 59f9 513e 9b2a 423c
00000180: 27bc 3b3e ab15 e4bd 0373 cc3d 4d6a f5bd
00000190: a261 08be 5d47 973d d51c 2d3e 9a2f ed3b
000001a0: 25ab a93b 79d8 21be 604d 4f3e ce7e b23d
000001b0: 7ce0 afbd 8a74 cdba 1fbb 35be 445f a33b
000001c0: 8520 e6bd 490a 8d3c f1de 233c a937 8fba
000001d0: 829a 183e c20e ab3b 91ed 02be 2c94 46be
000001e0: 48f8 653c 05ba c0bd 8ac9 cabd 4afa db3b
000001f0: 6590 f93c 6864 09be a04c 093c 53f7 5abb

fc4.bias f4 [2]
0.97854084 -0.98820114
00000000: a781 7a3f c0fa 7cbf
