AutoBalance/results/tvarit_wheel/New_Experiments/test/dyly_LA_init/1/retrain/epoch_500.pth (torch, 236367 bytes, 8 tensors)

weight f4 [256, 64]
0.06332579 0.010175311 0.11337437 -0.057380814 -0.047337152 -0.09576154 0.03276295 -0.05068565
-0.05826226 -0.013527039 0.025731869 0.031224478 -0.03457204 0.019149551 0.08029849 0.123210065
-0.08352749 -0.095289946 0.079573564 0.0962414 -0.07765687 0.06784752 0.009921302 -0.1139587
-0.0056017376 -0.075256184 -0.042666584 0.11010784 0.10026601 -0.06661554 0.059811648 -0.0054052793
-0.06422511 0.026181119 0.110675395 -0.109041974 -0.07718648 -0.044786848 -0.11601025 0.10143146
-0.09564123 -0.045177802 -0.11911432 -0.06990627 -0.032757267 0.03545095 -0.033499334 -0.07859291
-0.02542766 0.03835947 0.075452015 -0.019962365 -0.04253703 -0.05805759 0.11299411 0.1100491
0.005988299 0.015681336 -0.0845759 -0.07486296 0.044822216 -0.070982195 -0.017572137 0.0017126115
0.110825986 -0.031562775 0.046259835 0.045225024 0.09470551 0.03509453 0.06759977 0.005150119
-0.106119305 -0.1040865 -0.122031 -0.04669667 -0.03472969 -0.09735417 -0.075945675 8.711303e-05
0.0959177 -0.019550867 -0.006251675 0.046087563 0.042593777 0.092677295 -0.05359117 0.10292299
-0.06340586 0.08923219 0.06403279 0.017455362 0.045494854 0.092278734 -0.05102525 0.08757006
0.024137113 0.08898345 -0.019495733 -0.0070561776 0.05872462 -0.099175826 0.08615297 0.002965501
0.032567963 0.009529237 0.056163676 -0.09900732 0.058076702 0.038572535 0.036320835 0.100727424
0.099546775 -0.0066442164 -0.100627735 0.07524739 -0.06843357 0.065375164 0.09283407 -0.09408568
-0.083316416 -0.055012323 -0.025379289 -0.09823345 0.055866465 -0.027786378 -0.0938071 0.09943847
-0.055950098 0.029219056 -0.056803264 0.06133122 0.07625359 0.015601443 -0.10049458 0.04730919
-0.07896707 0.019388232 -0.107804745 -0.055930644 0.056106783 0.016361987 0.11514013 0.10518954
-0.07657038 0.0064184843 -0.09317123 -0.112107664 0.04065417 -0.10009337 -0.061291814 0.06464095
-0.03531564 -0.0017993525 0.048196588 0.062367182 -0.024554715 -0.05269399 -0.08918963 0.012841847
-0.0731094 -0.057639014 0.11620496 -0.014836949 -0.062109392 0.07676839 0.027687458 -0.05421714
0.10172202 -0.02474453 0.036429994 0.11273271 0.124433056 -0.017991267 0.11233191 -0.06999816
0.10906568 -0.031974435 -0.12438871 -0.111413896 0.0713165 -0.04403295 -0.05741337 -0.029883372
-0.0627073 0.0036794269 -0.059867814 -0.051281188 -0.1021426 0.06491987 0.056767087 0.054498047
0.11153274 -0.0116712265 0.086010724 0.06640375 -0.075218216 0.053617 0.064656466 -0.06418417
0.11044355 -0.06952151 0.090149544 0.0067879343 -0.019462427 -0.12677743 0.0627812 0.049550638
-0.0073875543 0.03937666 0.07681513 0.021249246 -0.1021077 0.009176203 0.037310008 0.09006841
-0.10535865 0.12267062 0.057170093 0.10820288 0.07541658 0.08803986 -0.10046241 0.013579256
-0.025200699 -0.10021126 -0.028237388 -0.08007691 -0.1023401 -0.10677671 0.024679208 0.045834154
-0.03357829 -0.09276029 -0.10784754 0.10336026 0.08012474 -0.012766177 -0.06781903 -0.07810516
0.094132036 0.031778935 -0.0177081 0.07799689 -0.11721448 -0.11651499 -0.09388385 0.06866823
0.10557304 -0.054200303 0.045059547 0.002050734 0.029113594 0.039778426 0.12141974 -0.09972878
00000000: f4b0 813d 59b6 263c d230 e83d 2508 6bbd
00000010: 9ae4 41bd a01e c4bd 7132 063d c29b 4fbd
00000020: 68a4 6ebd 84a0 5dbc a4cb d23c 7aca ff3c
00000030: 699b 0dbd 85df 9c3c 8973 a43d 8f55 fc3d
00000040: 7610 abbd 6027 c3bd 77f7 a23d 361a c53d
00000050: 910a 9fbd a4f3 8a3d f58c 223c 2e63 e9bd
00000060: c88e b7bb ea1f 9abd 28c3 2ebd 3880 e13d
00000070: 4458 cd3d ba6d 88bd 0ffd 743d c51e b1bb
00000080: 7488 83bd c979 d63c c8a9 e23d 6651 dfbd
00000090: f213 9ebd 6a72 37bd c896 edbd 4cbb cf3d
000000a0: 8ddf c3bd 5c0c 39bd 35f2 f3bd 052b 8fbd
000000b0: 7c2c 06bd 0435 113d 9936 09bd 52f5 a0bd
000000c0: ab4d d0bc d21e 1d3d 9686 9a3d 1d88 a3bc
000000d0: 4f3b 2ebd cccd 6dbd 7569 e73d 6c61 e13d
000000e0: 7e39 c43b 2576 803c 2136 adbd c051 99bd
000000f0: 8097 373d 1d5f 91bd 71f3 8fbc b579 e03a
00000100: bcf8 e23d f847 01bd f47a 3d3d e03d 393d
00000110: f6f4 c13d 48bf 0f3d c071 8a3d 54c2 a83b
00000120: 1455 d9bd 4e2b d5bd 64eb f9bd 0245 3fbd
00000130: b840 0ebd a061 c7bd 6889 9bbd 74b0 b638
00000140: 8070 c43d 2429 a0bc dada ccbb 50c6 3c3d
00000150: d076 2e3d 98cd bd3d 6a82 5bbd 4ac9 d23d
00000160: eeda 81bd 5ebf b63d a023 833d 8cfe 8e3c
00000170: d058 3a3d a2fc bc3d daff 50bd ee57 b33d
00000180: 32bb c53c f43c b63d 84b5 9fbc 8237 e7bb
00000190: 3a89 703d b21c cbbd f870 b03d da58 423b
000001a0: fc65 053d 8420 1c3c e20b 663d 5ac4 cabd
000001b0: d6e1 6d3d 3cfe 1d3d 28c5 143d 2e4a ce3d
000001c0: 2edf cb3d bab7 d9bb ea15 cebd 4e1b 9a3d
000001d0: e626 8cbd 6ae3 853d ca1f be3d feaf c0bd
000001e0: cca1 aabd 9a54 61bd 3ae8 cfbc 9e2e c9bd
000001f0: 3cd4 643d 42a0 e3bc f01d c0bd 66a6 cb3d
00000200: ee2b 65bd cd5c ef3c 8aaa 68bd 7236 7b3d
00000210: d82a 9c3d 329d 7f3c 1ad0 cdbd 48c7 413d
00000220: 7db9 a1bd 12d4 9e3c bcc8 dcbd 8817 65bd
00000230: 3ad0 653d 9309 863c 97ce eb3d 9d6d d73d
00000240: eed0 9cbd 2652 d23b 8fd0 bebd b498 e5bd
00000250: fd84 263d c1fd ccbd 200d 7bbd 7962 843d
00000260: 22a7 10bd 40d8 ebba c969 453d bb74 7f3d
00000270: f826 c9bc a7d5 57bd 0da9 b6bd 9c66 523c
00000280: 62ba 95bd e316 6cbd defc ed3d ad16 73bc
00000290: 6b66 7ebd bf38 9d3d cfd0 e23c cb12 5ebd
000002a0: a253 d03d 0ab5 cabc 9e37 153d 68e0 e63d
000002b0: c2d6 fe3d 6c62 93bc 460e e63d 325b 8fbd
000002c0: d45d df3d a0f7 02bd 82bf febd f82c e4bd
000002d0: 630e 923d e55b 34bd 482a 6bbd f9cd f4bc
000002e0: af6c 80bd 8a22 713b f437 75bd 390c 52bd
000002f0: 2430 d1bd b5f4 843d 9b84 683d 5839 5f3d
00000300: 476b e43d ac38 3fbc 6426 b03d b0fe 873d
00000310: 020c 9abd 809d 5b3d 9c6a 843d fd72 83bd
00000320: 3a30 e23d 4b61 8ebd 53a0 b83d 526d de3b
00000330: ab6f 9fbc f1d1 01be 6e93 803d 9cf5 4a3d
00000340: 4c13 f2bb 6c49 213d 4051 9d3d e612 ae3c
00000350: d81d d1bd c957 163c 61d2 183d c975 b83d
00000360: 47c6 d7bd bc3a fb3d 302b 6a3d 7999 dd3d
00000370: 0274 9a3d 3e4e b43d 3cbf cdbd 877b 5e3c
00000380: b271 cebc 903b cdbd 1852 e7bc 5dff a3bd
00000390: b097 d1bd bfad dabd 0d2c ca3c 98bc 3b3d
000003a0: 6489 09bd 1bf9 bdbd 2cdf dcbd 8bae d33d
000003b0: 7118 a43d 3a29 51bc b4e4 8abd 99f5 9fbd
000003c0: 4cc8 c03d a12a 023d 9410 91bc d5bc 9f3d
000003d0: 250e f0bd 699f eebd 2d46 c0bd eea1 8c3d
000003e0: ae36 d83d 2301 5ebd 5c90 383d 9b65 063b
000003f0: a27f ee3c b4ee 223d eaaa f83d 9a3e ccbd

bias f4 [256]
0.088385865 -0.10863756 0.039744776 -0.012522868 0.04014403 -0.049083013 0.08404408 -0.09473546
0.0882323 0.06421873 -0.07387556 0.109815165 -0.0057359133 0.01671841 -0.088181034 0.09164617
-0.0660449 0.013999819 0.054401595 -0.064141095 0.10216044 -0.030939054 -0.07734849 0.056435443
0.13303289 -0.06301436 0.046196286 0.110051915 0.06300762 0.032586347 0.017593917 0.042076763
0.10829234 -0.12845775 -0.011377602 0.080796555 0.020062288 -0.027954444 0.037983958 -0.033839732
-0.10825335 -0.08013339 -0.032692015 -0.048489653 0.0635032 -0.004210759 -0.113851175 0.021883868
0.12039933 -0.031308666 0.047093105 -0.08607084 0.059095196 -0.04825678 0.07860464 -0.12437117
0.09045061 -0.0315258 -0.03397967 0.12063983 -0.013539634 -0.006185049 0.031756964 0.006848614
0.02030648 0.120741524 -0.11602938 0.13811937 0.070630334 -0.06874609 0.042598538 0.011874006
0.023648921 -0.07951065 -0.08248491 0.011111469 0.13388556 0.1301874 0.049602486 0.088488646
0.08762492 0.10404713 -0.098341554 0.04931231 0.13028531 0.009186815 -0.040659178 0.120671615
0.0178641 0.066175945 -0.09021907 -0.043083258 0.116877526 0.011529851 0.08640924 0.05041438
-0.054410234 -0.050426964 -0.09709795 -0.09511933 -0.07616457 -0.07815148 0.043660667 0.05507194
-9.2018665e-05 -0.052828066 0.13483296 -0.022595322 -0.056192968 -0.036048558 -0.10766578 0.13352205
-0.06255858 0.046399366 0.022330076 0.026604833 0.07711799 -0.0994541 0.08372229 -0.048173502
0.014091743 -0.07239045 0.109373406 0.0050907675 -0.036655843 0.11157032 0.08971833 -0.08436581
0.043345887 0.122112505 -0.118830726 0.034730975 -0.08412379 -0.061704993 0.012470318 -0.018410001
-0.07744509 0.035118863 0.00920153 0.10705453 -0.05946021 -0.122415885 -0.070680395 0.040837944
-0.10532592 -0.040405102 -0.034302846 -0.04847803 0.13266844 0.11508883 -0.018872522 -0.05121436
0.1104167 -0.08460119 0.034463447 -0.1225384 -0.001645765 0.008892378 -0.010977006 -0.087284714
0.13012344 0.13909556 0.036849834 0.037355088 -0.035643645 0.06886451 0.10665322 0.0720923
-0.079968676 -0.050943248 -0.10855658 -0.105914354 0.06024092 0.115141265 -0.041811228 -0.00010108967
0.091868624 -0.017873691 0.09699516 -0.118291065 0.013254871 0.0443566 0.057265162 -0.11039958
0.0032564467 -0.07301745 0.025694923 -0.09736729 0.086858645 0.025694227 -0.03232701 0.0402652
0.10957669 -0.068284266 -0.080322325 -0.005707434 0.056030445 -0.014363753 0.013727182 0.0608822
0.08344415 -0.091091976 0.038799796 -0.105554566 -0.10679871 0.104730874 0.09073231 -0.03829275
0.014121008 0.07375995 -0.09339053 -0.04396928 0.09282786 0.054335427 -0.05046742 0.0025037809
-0.11047597 -0.023166146 -0.03449714 -0.07745215 -0.02751987 -0.07124019 0.11189428 0.101689875
-0.035415635 0.055160806 -0.10983299 -0.078553446 0.055855934 -0.056615077 -0.07998942 -0.0040486995
-0.060762547 -0.1128608 -0.11862576 -0.06912477 -0.01093779 0.00033424745 -0.07851582 -0.04754425
-0.11465472 -0.068264425 0.02546965 -0.054060087 0.10968651 -0.08194244 -0.019559331 -0.10070667
-0.10579336 0.022591107 -0.022816528 -0.023465578 0.12532192 0.019714104 0.14130102 -0.044052783
00000000: a603 b53d 5e7d debd 6bcb 223d b72c 4dbc
00000010: 116e 243d 450b 49bd 4d1f ac3d aa04 c2bd
00000020: 23b3 b43d 1c85 833d 124c 97bd c6e6 e03d
00000030: 54f4 bbbb 0cf5 883c 4298 b4bd fdb0 bb3d
00000040: 8c42 87bd 7f5f 653c 35d4 5e3d 685c 83bd
00000050: 7e39 d13d e673 fdbc e368 9ebd da28 673d
00000060: c639 083e ac0d 81bd 5138 3d3d e662 e13d
00000070: 240a 813d 4379 053d 1e21 903c af58 2c3d
00000080: 60c8 dd3d 6e8a 03be 1f69 3abc aa78 a53d
00000090: ab59 a43c b800 e5bc 1195 1b3d 889b 0abd
000000a0: efb3 ddbd fa1c a4bd 10e8 05bd 169d 46bd
000000b0: f70d 823d 68fa 89bb ce2a e9bd cc45 b33c
000000c0: ed93 f63d 843d 00bd b3e4 403d e945 b0bd
000000d0: ce0d 723d e7a8 45bd 78fb a03d 50b6 febd
000000e0: 2b3e b93d 3221 01bd 442e 0bbd 0412 f73d
000000f0: 57d5 5dbc f4ab cabb 9713 023d 576a e03b
00000100: c659 a63c 5547 f73d d0a0 edbd 2a6f 0d3e
00000110: a3a6 903d c0ca 8cbd ce7b 2e3d 318b 423c
00000120: 62bb c13c 7bd6 a2bd d9ed a8bd e10c 363c
00000130: 4c19 093e d94f 053e fa2b 4b3d 8939 b53d
00000140: b274 b33d a916 d53d 4c67 c9bd b4fb 493d
00000150: 8369 053e 4b84 163c 3d8a 26bd ae22 f73d
00000160: bc57 923c 4187 873d c7c4 b8bd 1278 30bd
00000170: 7c5d ef3d b3e7 3c3c 54f7 b03d 4f7f 4e3d
00000180: 44dd 5ebd 818c 4ebd 4adb c6bd eccd c2bd
00000190: 2cfc 9bbd e20d a0bd 87d5 323d 1d93 613d
000001a0: 25fa c0b8 3e62 58bd a711 0a3e d319 b9bc
000001b0: 992a 66bd a7a7 13bd e07f dcbd 01ba 083e
000001c0: b61e 80bd 430d 3e3d 90ed b63c 61f2 d93c
000001d0: 09f0 9d3d 97ae cbbd 9876 ab3d 9451 45bd
000001e0: 0ee1 663c 7241 94bd 2aff df3d 74d0 a63b
000001f0: 7024 16bd fb7e e43d 3ebe b73d fbc7 acbd
00000200: 758b 313d 1f16 fa3d 865d f3bd 1142 0e3d
00000210: 1849 acbd 60be 7cbd 4e50 4c3c 92d0 96bc
00000220: 889b 9ebd ccd8 0f3d 04c2 163c 683f db3d
00000230: 8d8c 73bd 2eb5 fabd e2c0 90bd b045 273d
00000240: 1eb5 d7bd d27f 25bd 2481 0cbd e690 46bd
00000250: 3cda 073e b1b3 eb3d 8c9a 9abc 26c6 51bd
00000260: 2722 e23d 6443 adbd 8b29 0d3d 6af5 fabd
00000270: b6b6 d7ba 56b1 113c e6d8 33bc 54c2 b2bd
00000280: 143f 053e 116f 0e3e daef 163d a601 193d
00000290: 12ff 11bd d608 8d3d 016d da3d 21a5 933d
000002a0: 9ec6 a3bd dea9 50bd ea52 debd a0e9 d8bd
000002b0: 2fbf 763d 2fcf eb3d 4042 2bbd 1a00 d4b8
000002c0: 9e25 bc3d d96b 92bc 66a5 c63d 9642 f2bd
000002d0: f52a 593c 44af 353d e08e 6a3d 2d19 e2bd
000002e0: 1c6a 553b 2c8a 95bd 297e d23c 8068 c7bd
000002f0: f2e2 b13d b37c d23c 5469 04bd 1fed 243d
00000300: be69 e03d 9fd8 8bbd 0880 a4bd 6d05 bbbb
00000310: 2e80 653d f255 6bbc f9e7 603c 9d5f 793d
00000320: c4e4 aa3d 6e8e babd 89ec 1e3d fe2c d8bd
00000330: 48b9 dabd 247d d63d ddd1 b93d dcd8 1cbd
00000340: cd5b 673c 750f 973d 8943 bfbd 2219 34bd
00000350: 881c be3d d38e 5e3d edb6 4ebd 7916 243b
00000360: 3a41 e2bd eec6 bdbc e04c 0dbd 3c9f 9ebd
00000370: 5a71 e1bc 60e6 91bd d428 e53d c842 d03d
00000380: fc0f 11bd 4cf0 613d 1ef0 e0bd a1e0 a0bd
00000390: 31c9 643d 36e5 67bd 7ed1 a3bd f4aa 84bb
000003a0: 26e2 78bd 9023 e7bd 10f2 f2bd 4a91 8dbd
000003b0: 6b34 33bc ef3d af39 e7cc a0bd c2bd 42bd
000003c0: 18d0 eabd 38ce 8bbd baa5 d03c 1c6e 5dbd
000003d0: 52a3 e03d 70d1 a7bd e43a a0bc 4c3f cebd
000003e0: 30aa d8bd fc10 b93c bae9 babc e23a c0bc
000003f0: 6454 003e 797f a13c 37b1 103e b170 34bd

weight f4 [128, 256]
-0.061732464 0.03883311 -0.045172587 -0.03938806 -0.0028912707 -0.0038735361 -0.04554016 0.050167643
-0.034315456 0.0049925526 0.013167971 0.048912294 0.052521527 0.03766015 0.047177166 0.045923397
0.00796774 0.03060257 -0.011546725 0.056475714 0.054178677 -0.047944758 -0.061631337 0.026996836
0.0025143188 0.010696862 -0.016300386 -0.042690508 -0.000715294 -0.0009548162 0.045915164 0.025023006
-0.05149731 -0.007987569 0.059738237 -0.0340199 0.05034283 0.024266228 -0.0024057953 0.0020192834
-0.022594312 0.051642917 0.0095667355 -0.018169453 0.007697939 -0.04992225 -0.0108960755 0.06214212
0.033952966 -0.004346745 0.013794936 0.030404385 0.00048962014 0.059380513 -0.0157701 0.022752276
0.004385787 -0.0062368703 -0.0077987397 -0.04902057 -0.02767444 0.036270782 -0.015673384 0.012597276
-0.044273525 -0.018800044 -0.059191853 -0.05053049 0.014070025 0.008443004 -0.052524667 -0.03698395
-0.029022213 -0.05213686 -0.056590736 0.040905185 -0.0050541083 0.05359459 -0.02059374 -0.0070547415
-0.021737114 -0.047401257 -0.00058124907 0.058873255 -0.047178477 0.059315562 -0.037708763 0.042469226
-0.06221667 0.01496006 -0.018704398 0.023375886 0.039993074 0.017403934 -0.05365004 -0.027945329
0.02638994 0.033144455 0.041715883 0.021128519 -0.052792564 -0.06016288 -0.030569613 -0.03931954
0.017227149 -0.054418325 -0.0064664534 0.045942757 0.014532406 0.030893834 0.016379781 -0.009544137
0.02297742 0.00908645 -0.03346011 0.0066092475 0.026999043 -0.03931155 -0.01376448 -0.0028808573
-0.018149223 -0.031056743 -0.016559836 -0.022803582 -0.012326662 0.03527519 -0.032020908 -0.015115611
-0.056585148 -0.031078447 -0.03839977 0.024001302 -0.05841711 0.03720695 0.022134634 0.039559912
-0.042156495 6.7449626e-05 -0.023891453 0.04785321 -0.018326484 0.039897904 -5.9866587e-05 0.044088755
-0.036612064 0.023969362 0.041122034 0.042708203 -0.05837747 -0.03277727 0.051237293 -0.010892559
-0.032136288 -0.02902982 -0.025186015 0.022002362 -0.035660584 -0.008767567 0.042764813 0.035176687
0.048521962 -0.014052996 -0.039553627 -0.022399161 -0.0057344413 -0.059539165 -0.012806307 0.055526372
-0.046324708 -0.010359142 0.03407213 -0.012191499 -0.05997472 0.029078035 -0.02077044 -0.059673272
0.016587202 -0.0019102348 -0.03899561 0.04878012 -0.019194938 -0.00995632 0.04635409 0.05866288
0.0100416895 0.028859338 -0.015372894 -0.04265194 -0.049021978 -0.041737583 -0.047067612 0.04461131
0.060470257 0.032354277 0.014301853 -0.018862657 0.05777076 -0.03409324 -0.050004616 0.059115943
0.05482776 0.004129799 0.0019541795 -0.060901627 0.03188783 0.06236119 -0.034671605 0.05016397
0.04579834 0.048596922 -0.041432258 -0.030969674 -0.029189657 0.051411763 -0.05620379 0.011693304
0.036271155 -0.04139688 0.030123431 -0.030151295 0.05831274 -0.06142249 -0.04959936 0.05653678
-0.03191424 0.026921047 0.052130416 -0.0015768324 0.05661159 0.04401922 -0.00940134 -0.006615353
0.06107609 0.05048912 0.0088598095 -0.058701485 -0.00015798217 -0.033742994 0.04475009 -0.052832864
0.039852824 -0.009140205 0.015360599 -0.046507727 -0.04952472 0.031759523 0.05566393 -0.05010996
-0.034172356 -0.015773758 0.055607557 0.014200291 0.0010325231 0.049018737 -0.010710005 0.054238096
00000000: 2edb 7cbd 780f 1f3d e406 39bd 6055 21bd
00000010: 797b 3dbb 27db 7dbb 5288 3abd 967c 4d3d
00000020: 5d8e 0cbd 9198 a33b 79be 573c 4258 483d
00000030: d020 573d 8841 1a3d d83c 413d 2c1a 3c3d
00000040: 208b 023c 3eb2 fa3c 7a2e 3dbc 1453 673d
00000050: 76ea 5d3d b961 44bd 2471 7cbd 7828 dd3c
00000060: 45c7 243b e441 2f3c 6388 85bc 3edc 2ebd
00000070: 9182 3bba a14c 7aba 8a11 3c3d 0cfd cc3c
00000080: d8ee 52bd 4bde 02bc 15b0 743d 7358 0bbd
00000090: 4934 4e3d f8c9 c63c 8caa 1dbb f455 043b
000000a0: b517 b9bc 8687 533d ccbd 1c3c 1bd8 94bc
000000b0: fe3e fc3b 467b 4cbd 7485 32bc bc88 7e3d
000000c0: 4412 0b3d 246f 8ebb 2804 623c 9e12 f93c
000000d0: da59 003a fb38 733d 4c30 81bc fb62 ba3c
000000e0: a6b6 8f3b a95e ccbb 928c ffbb cbc9 48bd
000000f0: 82b5 e2bc ac90 143d 7865 80bc ce64 4e3c
00000100: 2858 35bd 8d02 9abc 2873 72bd 0ff9 4ebd
00000110: f685 663c 8754 0a3c 1b24 57bd 7b7c 17bd
00000120: febf edbc 768d 55bd b0cb 67bd 328c 273d
00000130: ef9c a5bb 0086 5b3d 34b4 a8bc 762b e7bb
00000140: 0812 b2bc d227 42bd f75e 18ba 1525 713d
00000150: 383e 41bd e0f4 723d 8174 1abd 36f4 2d3d
00000160: e8d6 7ebd 0a1b 753c f739 99bc c97e bf3c
00000170: c7cf 233d b292 8e3c 25c0 5bbd 9aed e4bc
00000180: b72f d83c 7bc2 073d 46de 2a3d b715 ad3c
00000190: 043d 58bd 5a6d 76bd 206d fabc 870d 21bd
000001a0: f31f 8d3c c0e5 5ebd 8be4 d3bb 792e 3c3d
000001b0: 5419 6e3c 1115 fd3c e42e 863c 035f 1cbc
000001c0: 243b bc3c 55df 143c 780d 09bd 6392 d83b
000001d0: 192d dd3c 2605 21bd 6a84 61bc c4cc 3cbb
000001e0: aead 94bc b66a febc 7ea8 87bc 94ce babc
000001f0: c5f5 49bc b87c 103d 5b28 03bd 78a7 77bc
00000200: d4c5 67bd 3a98 febc 1449 1dbd 619e c43c
00000210: c846 6fbd 5166 183d b153 b53c 9309 223d
00000220: 4aac 2cbd be73 8d38 02b8 c3bc ba01 443d
00000230: 6c21 96bc fc6b 233d 4219 7bb8 6996 343d
00000240: 88f6 15bd 655b c43c 946f 283d ccee 2e3d
00000250: 371d 6fbd 7541 06bd 32de 513d b476 32bc
00000260: 57a1 03bd f2cf edbc e752 cebc 4c3e b43c
00000270: d510 12bd d7a5 0fbc 282a 2f3d 6e15 103d
00000280: f7be 463d 8a3e 66bc fc02 22bd 727e b7bc
00000290: fbe7 bbbb 57df 73bd 8bd1 51bc 9f6f 633d
000002a0: fabe 3dbd 64b9 29bc 388f 0b3d dabe 47bc
000002b0: 0da8 75bd 0f35 ee3c c526 aabc f66b 74bd
000002c0: e2e1 873c d860 faba dcb9 1fbd aacd 473d
000002d0: b43e 9dbc d51f 23bc c9dd 3d3d 7d48 703d
000002e0: e685 243c 6b6a ec3c 97de 7bbc cdb3 2ebd
000002f0: 45cb 48bd 07f5 2abd f8c9 40bd 59ba 363d
00000300: a9af 773d eb85 043d 5252 6a3c dc85 9abc
00000310: 08a1 6c3d 5aa5 0bbd a4d1 4cbd 8f23 723d
00000320: 1393 603d 4453 873b b111 003b fc73 79bd
00000330: d09c 023d 726e 7f3d d003 0ebd bc78 4d3d
00000340: 0a97 3b3d 910d 473d dfb4 29bd 1db4 fdbc
00000350: 261f efbc 2495 523d f235 66bd 4695 3f3c
00000360: 1091 143d c68f 29bd 6ac5 f63c d9ff f6bc
00000370: 57d9 6e3d 2696 7bbd b328 4bbd 1c93 673d
00000380: 82b8 02bd 8789 dc3c b486 553d b7ad ceba
00000390: 8ee1 673d 7f4d 343d 1408 1abc 9ac5 d8bb
000003a0: ec2a 7a3d aecd 4e3d bc28 113c f870 70bd
000003b0: 04a8 25b9 1836 0abd df4b 373d 4667 58bd
000003c0: b73c 233d ccc0 15bc 06ab 7b3c e37e 3ebd
000003d0: 6fda 4abd 4616 023d dcff 633d 1a40 4dbd
000003e0: 50f8 0bbd f837 81bc c0c4 633d 56a8 683c
000003f0: ba55 873a dfc7 483d 0479 2fbc c428 5e3d

bias f4 [128]
-0.01695776 -0.038911432 -0.02612483 0.08333828 0.018072521 -0.027941523 0.010580927 0.0153297195
-0.021517988 0.06624342 0.053673387 0.015753578 0.0025229503 -0.058099538 0.13378946 0.023941983
0.034947257 0.055555563 0.05047755 0.028706027 0.043859705 -0.023786467 -0.03729402 -0.032015402
0.093213335 0.041886713 -0.04700531 0.059222113 0.001330007 0.064259164 -0.044647794 0.018341588
0.00448168 -0.0476433 -0.020393811 0.10434097 -0.034588177 0.04330804 -0.051997423 0.022200957
-0.008433756 0.0058880583 -0.0062547047 -0.054548267 -0.0425387 -0.0593748 0.060584437 0.012842614
0.019805767 -0.043035988 0.098832905 0.031950686 -0.051036328 0.041961186 0.076941885 0.079475224
0.00801405 -0.047433186 -0.044465445 0.018766101 -0.019574564 -0.0022024873 -0.04000721 0.0426538
0.0021798364 0.07766501 -0.059930127 0.007900176 0.07885064 0.024169922 -0.051707156 0.07578162
0.043367058 0.115306765 0.02947349 0.035914082 0.04746495 -0.058697667 -0.05903545 -0.010111887
-0.019613007 -0.0047489326 -0.023699729 0.07519835 -0.0067864438 -0.059334718 -0.03590401 0.047978424
-0.017466811 0.03283806 0.019282142 -0.047773216 -0.05262948 0.05511002 0.008117303 0.049457688
-0.050276708 0.060806815 -0.036130343 0.02364159 -0.021413397 0.03628793 -0.01178268 0.040636048
-0.006261809 0.029203273 0.036210205 -0.016461736 0.0637081 -0.04842155 0.03592834 0.00415818
0.032806415 0.10432066 -0.05270256 -0.012551035 0.0041248286 0.026810516 0.042554375 -0.03577009
0.09771174 0.048519682 -0.014925617 0.022242166 0.03088847 0.052662645 0.035365548 0.04631913
00000000: 00eb 8abc 9861 1fbd bd03 d6bc 43ad aa3d
00000010: d30c 943c 9fe5 e4bc a05b 2d3c 8129 7b3c
00000020: 7e46 b0bc a1aa 873d a0d8 5b3d a60d 813c
00000030: 1558 253b c8f9 6dbd 1b00 093e fa21 c43c
00000040: db24 0f3d 3b8e 633d 8cc1 4e3d e728 eb3c
00000050: 3ca6 333d d6db c2bc 9dc1 18bd 9522 03bd
00000060: a2e6 be3d 6791 2b3d a488 40bd e392 723d
00000070: a153 ae3a 4f9a 833d 9be0 36bd 1941 963c
00000080: 0fdb 923b 9f25 43bd ec10 a7bc b8b0 d53d
00000090: 55ac 0dbd c563 313d 40fb 54bd c8de b53c
000000a0: bd2d 0abc 9df0 c03b 44f4 ccbb 016e 5fbd
000000b0: 0f3d 2ebd fe32 73bd 6327 783d d469 523c
000000c0: b43f a23c 8146 30bd e868 ca3d b9de 023d
000000d0: 780b 51bd 7edf 2b3d b593 9d3d e8c3 a23d
000000e0: 5d4d 033c 4d49 42bd 6621 36bd 5ebb 993c
000000f0: d65a a0bc 9b57 10bb 9ade 23bd c0b5 2e3d
00000100: 96db 0e3b d50e 9f3d 4b79 75bd bd6f 013c
00000110: 727c a13d 0000 c63c e2ca 53bd 6533 9b3d
00000120: a8a1 313d f425 ec3d 6372 f13c a51a 133d
00000130: 9b6a 423d f76c 70bd 28cf 71bd 54ac 25bc
00000140: 75ab a0bc ef9c 9bbb ef25 c2bc 9801 9a3d
00000150: d160 debb f608 73bd 1510 13bd 0685 443d
00000160: 8f16 8fbc 3481 063d 95f5 9d3c d9ad 43bd
00000170: 0292 57bd 0bbb 613d 70fe 043c 2594 4a3d
00000180: f3ee 4dbd 9110 793d 69fd 13bd 02ac c13c
00000190: 266b afbc a7a2 143d 240c 41bc fc71 263d
000001a0: dc2f cdbb b43b ef3c 2751 143d c3da 86bc
000001b0: 6479 823d ad55 46bd 9829 133d 5841 883b
000001c0: 0560 063d 12a6 d53d a4de 57bd dba2 4dbc
000001d0: 9229 873b baa1 db3c 7f4d 2e3d a883 12bd
000001e0: 181d c83d 93bc 463d 938a 74bc 3435 b63c
000001f0: d109 fd3c c9b4 573d 77db 103d 21b9 3d3d

weight f4 [64, 128]
0.068706095 0.030311806 -0.05960802 -0.06933084 0.070494145 0.055717256 -0.045098968 0.03259114
-0.07210369 0.0050148647 -0.0013241498 -0.08314232 0.028240522 0.032370742 0.08055662 0.0201815
0.075836785 0.044083595 -5.8637834e-06 0.017992696 -0.027773133 0.0742727 0.0017893012 0.08056087
-0.0852481 -0.04980869 0.06644174 0.009410007 -0.035986893 0.045708146 -0.030765012 0.08619367
-0.027986934 0.07569307 0.007378871 -0.019594135 -0.0077013355 -0.08026605 0.039781533 -0.06519481
0.06633679 -0.003342135 0.041513234 -0.08540231 0.05890675 0.0146794235 0.062222548 -0.057914726
-0.052948575 -0.06435467 0.0800285 -0.044691134 -0.038965564 0.08766749 -0.06834375 0.004422914
-0.042454388 0.015519486 -0.06472022 0.05713391 -0.07286947 -0.061318863 -0.032188397 0.016535178
-0.02869089 0.063420825 -0.02823892 -0.034976233 0.020526646 0.04958982 0.07026794 0.076247804
0.034446828 -0.046235245 -0.07054895 0.08110768 0.05084917 -0.057692956 -0.07786511 -0.010902389
-0.07890536 0.00883959 -0.031522445 0.046188407 -0.0497967 0.00050311425 -0.06230235 0.021659717
0.014177215 -0.012267635 -0.001834722 0.005382219 0.004641872 0.021618364 -0.08788154 -0.08618192
-0.024037564 0.014742593 0.0059489957 -0.04382076 -0.044154715 0.006305703 -0.028350044 0.087142505
-0.04066883 -0.043360054 0.07806454 -0.074960105 -0.07886047 0.05523043 0.07648523 -0.04059593
0.038193442 0.02316708 0.011107542 -0.078865804 0.033605266 -0.037391767 0.06106064 0.0025276323
-0.0463402 -0.013886722 0.011903353 0.017090742 0.078568526 -0.022807345 -0.050088655 0.04449495
-0.009938782 -0.036270417 0.04064 -0.010629226 0.07354087 0.03420767 0.062005904 -0.07897562
0.0152025055 0.057951406 -0.0063083554 -0.035510655 -0.048045162 0.005152618 0.066601984 0.07383577
-0.024000911 -0.045542497 0.07534859 0.037841834 0.07815154 0.0843531 -0.08359382 -0.04974976
0.065156415 -0.08552473 -0.0017522593 0.025294174 0.03654333 0.054729972 -0.059724055 0.0130188335
0.03371203 0.014572906 -0.021165682 -0.027666364 0.013426207 0.0106561445 0.0060824426 -0.053447496
-0.026488524 0.020761197 0.05760768 0.00380112 0.07367403 -0.06882114 0.101992875 -0.0724836
-0.028163148 0.012077736 0.10494179 -0.014445895 -0.00903711 0.011705915 -0.024721313 0.062337033
-0.07663794 -0.01988701 -0.012587114 0.043538846 -0.05386002 0.00053923734 0.0013902988 0.029087767
0.04518482 0.112232 0.07007643 -0.00030334975 0.030673983 0.038979135 0.038201444 -0.0147552
0.102228075 0.052363023 -0.015101682 -0.060321942 0.0163594 -0.04698562 0.039058268 0.007937822
-0.010196223 -0.00081990246 -0.0347372 0.05231825 0.06346229 0.030344745 -0.056126114 -0.003803263
0.02342835 -0.05943783 0.05491111 -0.04923116 -0.033438846 -0.051867895 0.0684664 0.045419615
-0.02653585 0.093161754 0.037433162 -0.024155613 0.038272448 0.08944732 0.08666983 -0.075451404
0.007965643 -0.07463341 0.054136343 -0.06493423 0.030625725 -0.08543954 0.04178988 -0.064526424
0.073889084 0.077006795 0.048349287 0.03613793 -0.030798193 -0.0026439298 -0.015163471 0.0001787975
0.1091006 0.045955893 -0.04811955 0.09010163 -0.03532884 0.018154327 -0.08259512 -0.049411483
00000000: c8b5 8c3d 7750 f83c 8a27 74bd 54fd 8dbd
00000010: 3c5f 903d c737 643d b2b9 38bd 4a7e 053d
00000020: 19ab 93bd bc53 a43b 188f adba 8546 aabd
00000030: ab58 e73c 2f97 043d dffa a43d ac53 a53c
00000040: 5150 9b3d 0091 343d 84c1 c4b6 6b65 933c
00000050: 7b84 e3bc 491c 983d fc86 ea3a 19fd a43d
00000060: 8e96 aebd 3204 4cbd 9b12 883d 6e2c 1a3c
00000070: fe66 13bd 7738 3b3d e806 fcbc 4f86 b03d
00000080: db44 e5bc f804 9b3d 75ca f13b e183 a0bc
00000090: 7c5b fcbb 8762 a4bd f6f1 223d db84 85bd
000000a0: 95db 873d b907 5bbb c809 2a3d 68e7 aebd
000000b0: 3448 713d f781 703c 12dd 7e3d fe37 6dbd
000000c0: 9be0 58bd 62cc 83bd fbe5 a33d 0d0e 37bd
000000d0: 5b9a 1fbd 038b b33d cff7 8bbd 17ee 903b
000000e0: a7e4 2dbd 7145 7e3c 098c 84bd 3f05 6a3d
000000f0: 973c 95bd 7d29 7bbd fbd7 03bd c874 873c
00000100: 2809 ebbc c7e2 813d 4f55 e7bc 3d43 0fbd
00000110: 7f27 a83c b21e 4b3d a3e8 8f3d cf27 9c3d
00000120: 1e18 0d3d 2b61 3dbd f87b 90bd c91b a63d
00000130: 3847 503d 734f 6cbd be77 9fbd ef9f 32bc
00000140: 2299 a1bd edd3 103c ae1d 01bd 0e30 3d3d
00000150: a0f7 4bbd 6de3 033a c030 7fbd b86f b13c
00000160: 8d47 683c 31fe 48bc 0e7b f0ba 535d b03b
00000170: d81a 983b ff18 b13c 3dfb b3bd 2580 b0bd
00000180: 6dea c4bc eb8a 713c cbef c23b 667d 33bd
00000190: 93db 34bd 12a0 ce3b 5a3e e8bc c577 b23d
000001a0: 5c94 26bd 509a 31bd 4de0 9f3d af84 99bd
000001b0: 9981 a1bd 4e39 623d 4aa4 9c3d eb47 26bd
000001c0: ba70 1c3d e3c8 bd3c 68fc 353c 6584 a1bd
000001d0: ada5 093d 1c28 19bd b91a 7a3d a2a6 253b
000001e0: 39cf 3dbd 2285 63bc 4806 433c e201 8c3c
000001f0: 89e8 a03d 78d6 babc c329 4dbd 5640 363d
00000200: 46d6 22bc 4a90 14bd 2176 263d 3526 2ebc
00000210: 989c 963d 571d 0c3d e7f9 7d3d f8bd a1bd
00000220: ee13 793c 745e 6d3d 52b6 cebb 9f73 11bd
00000230: 01cb 44bd 4bd7 a83b 9f66 883d 3537 973d
00000240: 8f9d c4bc c58a 3abd 5d50 9a3d 0a00 1b3d
00000250: ea0d a03d 51c1 ac3d 3d33 abbd 68c6 4bbd
00000260: ba70 853d 9727 afbd 11ac e5ba ba35 cf3c
00000270: 75ae 153d 892c 603d 36a1 74bd f24c 553c
00000280: a015 0a3d 33c3 6e3c a763 adbc 92a4 e2bc
00000290: 98f9 5b3c 1c97 2e3c 3a4f c73b c3eb 5abd
000002a0: 76fe d8bc 6313 aa3c 08f6 6b3d 361c 793b
000002b0: 69e2 963d 19f2 8cbd a4e1 d03d 4872 94bd
000002c0: 67b6 e6bc b2e1 453c b9eb d63d 7aae 6cbc
000002d0: 6310 14bc 2bca 3f3c 5a84 cabc 1e55 7f3d
000002e0: 5af4 9cbd 15ea a2bc 2f3a 4ebc ca55 323d
000002f0: 539c 5cbd 9b5b 0d3a b03a b63a 7849 ee3c
00000300: b813 393d e4d9 e53d 3b84 8f3d ea0a 9fb9
00000310: 0148 fb3c 96a8 1f3d 1e79 1c3d cbbf 71bc
00000320: f45c d13d 9c7a 563d 0c6d 77bc 2414 77bd
00000330: 2604 863c fe73 40bd 90fb 1f3d a30d 023c
00000340: 0f0e 27bc b9ee 56ba 9848 0ebd a94b 563d
00000350: 84f8 813d 8b95 f83c 7fe4 65bd 2a40 79bb
00000360: d0ec bf3c 1575 73bd 79ea 603d 9da6 49bd
00000370: 2cf7 08bd 6e73 54bd 1d38 8c3d eb09 3a3d
00000380: b661 d9bc 97cb be3d 8453 193d fee1 c5bc
00000390: 92c3 1c3d 2830 b73d f47f b13d 4486 9abd
000003a0: 5482 023c 67d9 98bd 12be 5d3d 3dfc 84bd
000003b0: cde2 fa3c edfa aebd dd2b 2b3d 6e26 84bd
000003c0: 2953 973d bdb5 9d3d e709 463d 5e05 143d
000003d0: 7e4c fcbc c845 2dbb 3570 78bc 977b 3b39
000003e0: 2370 df3d 3f3c 3c3d 0119 45bd 3487 b83d
000003f0: f9b4 10bd 62b8 943c a127 a9bd b263 4abd

bias f4 [64]
-0.049730673 0.15404072 0.12175877 -0.003508035 -0.060413077 0.13275589 0.092917785 0.053186435
-0.09034479 -0.055049583 -0.08279022 -0.049814213 -0.0044225035 0.040664516 0.013724526 -0.03773284
0.07292303 0.036288973 0.05145671 0.19793917 -0.010824218 0.01393048 0.0979687 -0.03575163
-0.0040320274 -0.01219902 -0.07976922 0.03155325 -0.018044218 -0.06643239 0.11432984 -0.06609313
0.13724329 -0.05883862 0.0017295368 0.011645038 -0.0678756 -0.08314698 0.22476299 -0.002624414
0.120138735 0.041931443 -0.07884674 -0.04635601 0.023635074 0.05256225 0.0044971975 0.12447481
-0.0039248327 0.0661018 -0.075335845 0.06522216 0.1576449 0.069997 0.081590354 0.001532974
0.020091087 -0.0035830194 -0.08140295 0.13435078 0.19718337 0.0028945624 0.015120291 0.09611858
00000000: 64b2 4bbd dabc 1d3e a95c f93d 10e7 65bb
00000010: b473 77bd 29f1 073e ae4b be3d 05da 593d
00000020: b006 b9bd ac7b 61bd eb8d a9bd fd09 4cbd
00000030: a6ea 90bb d68f 263d d6dc 603c c08d 1abd
00000040: ab58 953d bfa3 143d 45c4 523d 91b0 4a3e
00000050: 1058 31bc ab3c 643c d0a3 c83d 4d70 12bd
00000060: 191f 84bb 66de 47bc 0b5e a3bd fb3d 013d
00000070: 78d1 93bc b40d 88bd c325 ea3d d65b 87bd
00000080: 8189 0c3e c400 71bd a0b1 e23a d4ca 3e3c
00000090: 5d02 8bbd f748 aabd 4528 663e 5cfe 2bbb
000000a0: 4c0b f63d 4ec0 2b3d 667a a1bd cddf 3dbd
000000b0: 589e c13c 844b 573d 3a5d 933b a6ec fe3d
000000c0: e29b 80bb 6160 873d ae49 9abd 3293 853d
000000d0: aa6d 213e 965a 8f3d d818 a73d 12ee c83a
000000e0: 1096 a43c 17d1 6abb 97b6 a6bd 4093 093e
000000f0: 70ea 493e b3b2 3d3b 19bb 773c d1d9 c43d

weight f4 [2, 64]
-0.028422987 0.139599 0.0021845566 -0.09008575 0.11257197 0.18512644 0.06776582 -0.069094785
-0.0705655 -0.016794322 0.07284436 -0.06388968 0.10937524 0.21001938 -0.04079515 0.003238202
0.10199213 -0.08997369 -0.10712913 0.22195466 0.13225736 -0.0070955367 0.16533424 0.060358085
-0.06694749 0.06547164 -0.08453971 0.017951839 0.05502423 0.027817713 0.23965545 0.013691587
0.25855815 -0.031705502 0.09578424 -0.030910518 0.01738052 0.08740233 0.24789059 0.029323049
0.081702426 -0.11269866 -0.08453643 -0.04379129 0.14833812 0.06176196 0.05382605 0.15587473
-0.09281104 0.06353579 -0.054432567 0.046164203 0.07162593 0.011814343 0.13105202 -0.053180035
-0.007930985 -0.034298383 -0.059844848 0.22020712 0.21524897 0.042338595 -0.11923507 0.11614988
-0.03328456 -0.2426658 -0.19034053 0.103980646 0.06724476 -0.18478103 -0.054240618 -0.1173215
0.11820145 0.08813914 -0.0095130615 0.10165752 0.08466912 -0.11174865 0.06772115 -0.07343043
-0.05534966 -0.043897234 0.074925385 -0.1616931 0.0686943 -0.06618788 -0.18911056 0.0074262465
0.08653108 0.027894652 -0.05275063 0.111908644 -0.1457478 -0.09005691 -0.18490106 0.028107641
-0.06742068 0.0610506 0.0097901765 -0.03145648 -0.035137825 -0.11252902 -0.18013175 -0.0850528
-0.059555933 -0.063795224 0.007948199 0.086218886 0.049102705 -0.18775494 0.0357529 -0.031000994
-0.040100448 -0.1308994 -0.12216017 -0.1487663 -0.20327006 -0.18597713 -0.14674975 -0.026305744
0.020836554 0.08265617 0.014815148 0.008592865 -0.113045804 0.0141231045 -0.009415617 0.018947585
00000000: 53d7 e8bc 0af3 0e3e c72a 0f3b e17e b8bd
00000010: 228c e63d c991 3d3e cec8 8a3d 9181 8dbd
00000020: a584 90bd 3f94 89bc 6c2f 953d 98d8 82bd
00000030: 2000 e03d 520f 573e d118 27bd 0438 543b
00000040: 40e1 d03d 2044 b8bd 8466 dbbd 1548 633e
00000050: 796e 073e ad81 e8bb 614d 293e 0a3a 773d
00000060: c41b 89bd ff15 863d 2823 adbd bc0f 933c
00000070: 1661 613d f9e1 e33c 3d68 753e ae52 603c
00000080: bc61 843e a1dd 01bd 872a c43d 0e38 fdbc
00000090: 9861 8e3c feff b23d 08d7 7d3e e436 f03c
000000a0: 9a53 a73d 8ece e6bd 7021 adbd 7f5e 33bd
000000b0: f3e5 173e 1cfa 7c3d b478 5c3d a09d 1f3e
000000c0: b713 bebd 0d1f 823d aff4 5ebd ad16 3d3d
000000d0: 9eb0 923d f290 413c 8032 063e 4fd3 59bd
000000e0: f6f0 01bc 767c 0cbd df1f 75bd fa7d 613e
000000f0: 3a6a 5c3e 3c6b 2d3d 8431 f4bd fddf ed3d
00000100: 6455 08bd 627d 78be a1e8 42be cef3 d43d
00000110: 9fb7 893d 3d37 3dbe 692b 5ebd 4146 f0bd
00000120: 9a13 f23d 4b82 b43d acdc 1bbc d131 d03d
00000130: 0167 ad3d 7adc e4bd 63b1 8a3d b162 96bd
00000140: 53b6 62bd 96cd 33bd 7b72 993d e092 25be
00000150: 99af 8c3d 838d 87bd 33a6 41be df57 f33b
00000160: 3537 b13d 5383 e43c 0b11 58bd 5c30 e53d
00000170: e93e 15be c26f b8bd b456 3dbe ff41 e63c
00000180: da13 8abd 3210 7a3d fa66 203c 83d8 00bd
00000190: aeec 0fbd 9d75 e6bd 7574 38be 2a30 aebd
000001a0: ecf0 73bd 12a7 82bd 2a39 023c 8793 b03d
000001b0: eb1f 493d d542 40be a271 123d ccf5 fdbc
000001c0: 5e40 24bd 7e0a 06be 1c2f fabd 3156 18be
000001d0: 0726 50be ca70 3ebe 9145 16be 257f d7bc
000001e0: 6cb1 aa3c a347 a93d 3cbb 723c 17c9 0c3c
000001f0: 8f84 e7bd 9864 673c f643 1abc f737 9b3c

bias f4 [2]
0.7758363 -0.66509163
00000000: 359d 463f 7243 2abf
