AutoBalance/results/tvarit_wheel/New_Experiments/test/dyly_LA_init/1/retrain/epoch_340.pth (torch, 236367 bytes, 8 tensors)

weight f4 [256, 64]
0	0x3d81aec8	0.06332165
1	0x3c26b905	0.010175948
2	0x3de830d2	0.11337437
3	0xbd6b0825	-0.057380814
4	0xbd41e49a	-0.047337152
5	0xbdc41ea3	-0.09576156
6	0x3d063271	0.03276295
7	0xbd4f9bc2	-0.05068565
8	0xbd6ea46b	-0.05826227
9	0xbc5daaba	-0.013529474
10	0x3cd2cba4	0.025731869
11	0x3cffca7a	0.031224478
12	0xbd0d9b2a	-0.034571804
13	0x3c9cdf5a	0.019149471
14	0x3da47389	0.08029849
15	0x3dfc558f	0.123210065
16	0xbdab1076	-0.08352749
17	0xbdc32760	-0.095289946
18	0x3da2f777	0.079573564
19	0x3dc51a36	0.0962414
20	0xbd9f0e1f	-0.07766365
21	0x3d8af3a4	0.06784752
22	0x3c228cf5	0.009921302
23	0xbde9632e	-0.1139587
24	0xbbb78ec8	-0.0056017376
25	0xbd9a1fea	-0.075256184
26	0xbd2ec328	-0.042666584
27	0x3de18038	0.11010784
28	0x3dcd5844	0.10026601
29	0xbd886dba	-0.06661554
30	0x3d74fc94	0.05981119
31	0xbbb0e6d2	-0.0053986097
32	0xbd838874	-0.06422511
33	0x3cd679c9	0.026181119
34	0x3de2a9c8	0.110675395
35	0xbddf4f0e	-0.1090375
36	0xbd9e13f2	-0.07718648
37	0xbd37726a	-0.044786848
38	0xbded96c8	-0.11601025
39	0x3dcfbb4c	0.10143146
40	0xbdc3e096	-0.09564321
41	0xbd390c5c	-0.045177802
42	0xbdf3f235	-0.11911432
43	0xbd8f2b05	-0.06990627
44	0xbd062c7c	-0.032757267
45	0x3d113504	0.03545095
46	0xbd093699	-0.033499334
47	0xbda0f552	-0.07859291
48	0xbcd04dab	-0.02542766
49	0x3d1d1b91	0.038356367
50	0x3d9a8696	0.075452015
51	0xbca3881d	-0.019962365
52	0xbd2e3f85	-0.042541046
53	0xbd6dcdcc	-0.05805759
54	0x3de76975	0.11299411
55	0x3de16198	0.11004943
56	0x3bc4396d	0.005988291
57	0x3c807625	0.015681336
58	0xbdad3621	-0.0845759
59	0xbd9951c0	-0.07486296
60	0x3d379780	0.044822216
61	0xbd915f1d	-0.070982195
62	0xbc8ff2dc	-0.017571859
63	0x3ae08e47	0.0017132246
64	0x3de2f8bc	0.110825986
65	0xbd0147f8	-0.031562775
66	0x3d3d7af4	0.046259835
67	0x3d393de0	0.045225024
68	0x3dc1f4f6	0.09470551
69	0x3d0fbf48	0.03509453
70	0x3d8a71c0	0.06759977
71	0x3ba8c254	0.005150119
72	0xbdd95514	-0.106119305
73	0xbdd52b4e	-0.1040865
74	0xbdf9eb64	-0.122031
75	0xbd3f4502	-0.04669667
76	0xbd0e40b8	-0.03472969
77	0xbdc761a0	-0.09735417
78	0xbd9b8968	-0.075945675
79	0x38b6b074	8.711303e-05
80	0x3dc47080	0.0959177
81	0xbca02924	-0.019550867
82	0xbbccdada	-0.006251675
83	0x3d3cc650	0.046087563
84	0x3d2e76d0	0.042593777
85	0x3dbdcd98	0.092677295
86	0xbd5b826a	-0.05359117
87	0x3dd2c94a	0.10292299
88	0xbd81daee	-0.06340586
89	0x3db6bf5e	0.08923219
90	0x3d8323a0	0.06403279
91	0x3c8efe8c	0.017455362
92	0x3d3a58d0	0.045494854
93	0x3dbcfca2	0.092278734
94	0xbd50ffda	-0.05102525
95	0x3db357ee	0.08757006
96	0x3cc5bb32	0.024137113
97	0x3db63cf4	0.08898345
98	0xbc9fb584	-0.019495733
99	0xbbe73782	-0.0070561776
100	0x3d70893a	0.05872462
101	0xbdcb1cb2	-0.099175826
102	0x3db070f8	0.08615297
103	0x3b4258da	0.002965501
104	0x3d0565fc	0.032567963
105	0x3c1c2084	0.009529237
106	0x3d660be2	0.056163676
107	0xbdcac45a	-0.09900732
108	0x3d6de1d6	0.058076702
109	0x3d1dfe3c	0.038572535
110	0x3d14c528	0.036320835
111	0x3dce4a2e	0.100727424
112	0x3dcbdf2e	0.099546775
113	0xbbd9b7ba	-0.0066442164
114	0xbdce15ea	-0.100627735
115	0x3d9a1b4e	0.07524739
116	0xbd8c26e6	-0.06843357
117	0x3d85e36a	0.065375164
118	0x3dbe1fca	0.09283407
119	0xbdc0affe	-0.09408568
120	0xbdaaa1cc	-0.083316416
121	0xbd61549a	-0.055012323
122	0xbccfe83a	-0.025379289
123	0xbdc92e9e	-0.09823345
124	0x3d64d43c	0.055866465
125	0xbce3a042	-0.027786378
126	0xbdc01df0	-0.0938071
127	0x3dcba666	0.09943847
128	0xbd65312a	-0.05595509
129	0x3cef5b81	0.029218437
130	0xbd68aa8a	-0.056803264
131	0x3d7b3672	0.06133122
132	0x3d9c2ad8	0.07625359
133	0x3c7f9185	0.015598659
134	0xbdcdd01a	-0.10049458
135	0x3d41c748	0.04730919
136	0xbda1b97d	-0.07896707
137	0x3c9ed435	0.019388298
138	0xbddcc8bc	-0.107804745
139	0xbd651788	-0.055930644
140	0x3d65d005	0.056106586
141	0x3c8607d7	0.01636116
142	0x3debce97	0.11514013
143	0x3dd76d9d	0.10518954
144	0xbd9cd0ee	-0.07657038
145	0x3bd25289	0.0064185304
146	0xbdbed08f	-0.09317123
147	0xbde598b4	-0.112107664
148	0x3d267f3e	0.04064869
149	0xbdccfdc1	-0.10009337
150	0xbd7b0d20	-0.061291814
151	0x3d846279	0.06464095
152	0xbd10a722	-0.03531564
153	0xbaebd83f	-0.0017993524
154	0x3d4569c9	0.048196588
155	0x3d7f74bb	0.062367182
156	0xbcc926f8	-0.024554715
157	0xbd57d5a7	-0.05269399
158	0xbdb6a90d	-0.08918963
159	0x3c527d0d	0.012847197
160	0xbd95ba62	-0.0731094
161	0xbd6c16e3	-0.057639014
162	0x3dedfcde	0.11620496
163	0xbc7321c2	-0.014839591
164	0xbd7e666b	-0.062109392
165	0x3d9d38bf	0.07676839
166	0x3ce2d327	0.027688576
167	0xbd5e12cb	-0.05421714
168	0x3dd05466	0.10172348
169	0xbccab50a	-0.02474453
170	0x3d15379e	0.036429994
171	0x3de6e068	0.11273271
172	0x3dfed6c2	0.124433056
173	0xbc93626c	-0.017991267
174	0x3de60e46	0.11233191
175	0xbd8f5b32	-0.06999816
176	0x3ddf5dd4	0.10906568
177	0xbd02f6ee	-0.03197377
178	0xbdfebf82	-0.12438871
179	0xbde42cf8	-0.111413896
180	0x3d920e6a	0.071316555
181	0xbd345be5	-0.04403295
182	0xbd6b2a48	-0.05741337
183	0xbcf4c856	-0.029880684
184	0xbd806caf	-0.0627073
185	0x3b71228a	0.0036794269
186	0xbd7537f6	-0.05986782
187	0xbd520c2b	-0.051281136
188	0xbdd13024	-0.1021426
189	0x3d84f4b5	0.06491987
190	0x3d68849b	0.056767087
191	0x3d5f3958	0.054498047
192	0x3de469a5	0.111529626
193	0xbc3f397e	-0.011671422
194	0x3db02664	0.086010724
195	0x3d87feb0	0.06640375
196	0xbd9a0c02	-0.075218216
197	0x3d5b9edd	0.0536183
198	0x3d846a9c	0.064656466
199	0xbd8372fd	-0.06418417
200	0x3de23046	0.11044364
201	0xbd8e61de	-0.069522604
202	0x3db8a053	0.090149544
203	0x3bde6b58	0.0067876987
204	0xbc9f4f65	-0.019447038
205	0xbe01d1f1	-0.12677743
206	0x3d809351	0.062780984
207	0x3d4af59c	0.049550638
208	0xbbf211b2	-0.0073873634
209	0x3d21496c	0.03937666
210	0x3d9d5140	0.07681513
211	0x3cae12e6	0.021249246
212	0xbdd11d72	-0.102106944
213	0x3c1657c9	0.009176203
214	0x3d18d261	0.037310008
215	0x3db875c9	0.09006841
216	0xbdd7c647	-0.10535865
217	0x3dfb3abc	0.12267062
218	0x3d6a2b30	0.057170093
219	0x3ddd9979	0.10820288
220	0x3d9a7402	0.07541658
221	0x3db44e3e	0.08803986
222	0xbdcdc4fb	-0.10047337
223	0x3c5e9770	0.01358591
224	0xbcce71b2	-0.025200699
225	0xbdcd3b90	-0.10021126
226	0xbce75218	-0.028237388
227	0xbda3e1cb	-0.08002051
228	0xbdd197b0	-0.1023401
229	0xbddaadbf	-0.10677671
230	0x3cca1f85	0.024673233
231	0x3d3bbc98	0.045834154
232	0xbd09ceb0	-0.03364438
233	0xbdbdf91b	-0.09276029
234	0xbddcdf2c	-0.10784754
235	0x3dd3b084	0.10336402
236	0x3da41871	0.08012474
237	0xbc51293a	-0.012766177
238	0xbd8ae4b4	-0.06781903
239	0xbd9ff599	-0.07810516
240	0x3dc0c84c	0.094132036
241	0x3d021642	0.031759508
242	0xbc911094	-0.0177081
243	0x3d9fbcd5	0.07799689
244	0xbdf00eff	-0.1172161
245	0xbdee9f69	-0.11651499
246	0xbdc0462d	-0.09388385
247	0x3d8ca174	0.06866732
248	0x3dd836ae	0.10557304
249	0xbd5e0123	-0.054200303
250	0x3d38967c	0.045065388
251	0x3b05f1d6	0.0020438335
252	0x3cee7fa2	0.029113594
253	0x3d22eeb4	0.039778426
254	0x3df8ab14	0.121420056
255	0xbdcc3e9a	-0.09972878

bias f4 [256]
0	0x3db50824	0.08839443
1	0xbdde7d5e	-0.10863756
2	0x3d22d2a5	0.039751668
3	0xbc4d19f0	-0.012518391
4	0x3d246dd7	0.040143814
5	0xbd48fa26	-0.049066685
6	0x3dac26a0	0.08405805
7	0xbdc204aa	-0.09473546
8	0x3db4b000	0.08822632
9	0x3d838f7c	0.06423852
10	0xbd974bcb	-0.07387503
11	0x3de0d475	0.10978023
12	0xbbbbf454	-0.0057359133
13	0x3c88f50c	0.01671841
14	0xbdb49842	-0.088181034
15	0x3dbbad4e	0.091639146
16	0xbd874c1f	-0.06606316
17	0x3c6575d5	0.014005144
18	0x3d5ed2b2	0.054400153
19	0xbd835c68	-0.064141095
20	0x3dd14275	0.10217754
21	0xbcfd5b66	-0.030927371
22	0xbd9e61fc	-0.07733533
23	0x3d67314b	0.056443494
24	0x3e083c06	0.13304147
25	0xbd810dac	-0.06301436
26	0x3d3d41ad	0.04620521
27	0x3de16480	0.11005497
28	0x3d8113a6	0.06302576
29	0x3d0577ac	0.03258483
30	0x3c900748	0.017581597
31	0x3d2c5897	0.042076673
32	0x3dddc6aa	0.10828908
33	0xbe038a6e	-0.12845775
34	0xbc3a59b2	-0.011373924
35	0x3da57fdf	0.0808103
36	0x3ca46f36	0.02007256
37	0xbce4fe2a	-0.027953226
38	0x3d1b8c78	0.03797576
39	0xbd0a9aaf	-0.033838924
40	0xbdddbe59	-0.108273216
41	0xbda4102b	-0.08010896
42	0xbd05e810	-0.032692015
43	0xbd4699b3	-0.048486423
44	0x3d821169	0.06350977
45	0xbb8bf8cd	-0.0042716027
46	0xbde92ace	-0.113851175
47	0x3cb345cc	0.021883868
48	0x3df692da	0.120397285
49	0xbd003d84	-0.031308666
50	0x3d40eba3	0.04709972
51	0xbdb04764	-0.08607367
52	0x3d72034d	0.05908518
53	0xbd45a543	-0.04825331
54	0x3da0fb6e	0.078604564
55	0xbdfec4e4	-0.12439898
56	0x3db94197	0.090457134
57	0xbd011ff7	-0.031524625
58	0xbd0b28c7	-0.033974435
59	0x3df71897	0.12065237
60	0xbc5e24be	-0.013558565
61	0xbbca2abd	-0.0061696456
62	0x3d021051	0.03175384
63	0x3be0da01	0.0068619256
64	0x3ca66851	0.020313414
65	0x3df74c21	0.12075067
66	0xbdeda0d0	-0.11602938
67	0x3e0d7511	0.13814189
68	0x3d90af5f	0.070646994
69	0xbd8ccf18	-0.068754375
70	0x3d2e4c06	0.04255297
71	0x3c4282fb	0.0118720485
72	0x3cc1bb62	0.023648921
73	0xbda2d95b	-0.079516135
74	0xbda8edd9	-0.08248491
75	0x3c356c7c	0.011073228
76	0x3e091ab4	0.13389093
77	0x3e055375	0.13020118
78	0x3d4b28a3	0.0495993
79	0x3db53b0a	0.088491514
80	0x3db374b2	0.08762492
81	0x3dd516a7	0.10404711
82	0xbdc96959	-0.098345466
83	0x3d49faf0	0.04931158
84	0x3e056b39	0.13029183
85	0x3c16ccad	0.009204072
86	0xbd26913a	-0.040665843
87	0x3df722ae	0.120671615
88	0x3c9257bc	0.0178641
89	0x3d8797a9	0.06620724
90	0xbdb8bb20	-0.09020066
91	0xbd307500	-0.04308033
92	0x3def54e1	0.11686111
93	0x3c3cfb7c	0.011534568
94	0x3db0f830	0.08641088
95	0x3d4e7ec6	0.05041387
96	0xbd5ed41b	-0.0544015
97	0xbd4e85c9	-0.050420556
98	0xbdc6db4a	-0.09709795
99	0xbdc2cdf8	-0.09511942
100	0xbd9bfc2c	-0.07616457
101	0xbda00de2	-0.07815148
102	0x3d32e02b	0.043670814
103	0x3d61900e	0.055069022
104	0xb89c28a9	-7.446233e-05
105	0xbd58623e	-0.052828066
106	0x3e0a15d8	0.13484895
107	0xbcb92744	-0.022601731
108	0xbd662617	-0.05618867
109	0xbd13a722	-0.036048062
110	0xbddc7fe0	-0.10766578
111	0x3e08bb57	0.13352714
112	0xbd801eb6	-0.06255858
113	0x3d3e524d	0.046465207
114	0x3cb70d19	0.022345113
115	0x3cda26f4	0.026629902
116	0x3d9de90e	0.07710467
117	0xbdcbadf6	-0.0994529
118	0x3dab7b26	0.08373098
119	0xbd45561a	-0.048177816
120	0x3c6708c3	0.01410121
121	0xbd944172	-0.07239045
122	0x3ddffd95	0.10937039
123	0x3ba6d074	0.0050907675
124	0xbd1625d2	-0.036657162
125	0x3de47706	0.111555144
126	0x3db7be88	0.08971888
127	0xbdacc8b5	-0.08436719
128	0x3d317bc2	0.043330915
129	0x3dfa1d46	0.12212615
130	0xbdf35d86	-0.118830726
131	0x3d0e3390	0.034717143
132	0xbdac4918	-0.08412379
133	0xbd7cbb60	-0.061702132
134	0x3c4c40f8	0.012466662
135	0xbc96e7af	-0.018421022
136	0xbd9e9b88	-0.07744509
137	0x3d0fe947	0.03513458
138	0x3c16c204	0.00920153
139	0x3ddb3f68	0.10705453
140	0xbd737eeb	-0.05944721
141	0xbdfab52e	-0.122415885
142	0xbd90c0e2	-0.070680395
143	0x3d27221f	0.040804025
144	0xbdd7b51e	-0.10532592
145	0xbd257ebe	-0.040404074
146	0xbd0c8124	-0.034302846
147	0xbd4688ca	-0.048470296
148	0x3e07de0c	0.13268298
149	0x3debbba7	0.11510401
150	0xbc9a9a8c	-0.018872522
151	0xbd51c626	-0.05121436
152	0x3de22410	0.110420346
153	0xbdad4364	-0.08460119
154	0x3d0d002e	0.034424
155	0xbdfaf56a	-0.1225384
156	0xbad75787	-0.0016429283
157	0x3c10b1f1	0.008831487
158	0xbc33cc75	-0.010974039
159	0xbdb2c257	-0.08728474
160	0x3e0544ab	0.13014476
161	0x3e0e73d3	0.13911371
162	0x3d16c398	0.036807626
163	0x3d1900bf	0.037354227
164	0xbd11e1a7	-0.03561559
165	0x3d8d0e2e	0.0688747
166	0x3dda685d	0.10664437
167	0x3d93a529	0.07209236
168	0xbda3c69e	-0.079968676
169	0xbd50a9de	-0.050943248
170	0xbdde52ea	-0.10855658
171	0xbdd8e9a0	-0.105914354
172	0x3d76cbc8	0.060252935
173	0x3debd1e9	0.115146466
174	0xbd2b483c	-0.041816935
175	0xb8d4001a	-0.00010108967
176	0x3dbc261f	0.091869585
177	0xbc92874f	-0.017886786
178	0x3dc6a837	0.09700053
179	0xbdf24296	-0.118291065
180	0x3c594e5d	0.013263312
181	0x3d35be0b	0.044370692
182	0x3d6a7eab	0.057249706
183	0xbde2153a	-0.11039205
184	0x3b55a169	0.0032597429
185	0xbd958866	-0.073014066
186	0x3cd287d8	0.025699541
187	0xbdc76c71	-0.097374804
188	0x3db1e15a	0.086855605
189	0x3cd29c0a	0.02570917
190	0xbd046954	-0.03232701
191	0x3d24da4c	0.040247247
192	0x3de06caf	0.1095823
193	0xbd8bd898	-0.06828421
194	0xbda48008	-0.080322325
195	0xbbba73f1	-0.005690091
196	0x3d657ac2	0.056025274
197	0xbc6b55f2	-0.014363753
198	0x3c60f5d9	0.01373049
199	0x3d7958ea	0.06087581
200	0x3daae46c	0.08344349
201	0xbdba8e91	-0.09109224
202	0x3d1eecb6	0.038799964
203	0xbdd82cfe	-0.105554566
204	0xbddab948	-0.10679871
205	0x3dd67d24	0.104730874
206	0x3db9cbcc	0.09072074
207	0xbd1cd8dc	-0.03829275
208	0x3c675dfb	0.014121528
209	0x3d970c51	0.07375396
210	0xbdbf63ec	-0.093452305
211	0xbd34194d	-0.04396944
212	0x3dbe1c88	0.09282786
213	0x3d5e9b73	0.054347467
214	0xbd4eb964	-0.05046977
215	0x3b2269a9	0.0024782217
216	0xbde2413a	-0.11047597
217	0xbcbdb68f	-0.02315834
218	0xbd0d4ce0	-0.03449714
219	0xbd9ea009	-0.07745368
220	0xbce16736	-0.027515035
221	0xbd91e660	-0.07124019
222	0x3de5292b	0.11189493
223	0x3dd0410d	0.101686575
224	0xbd1114bd	-0.03542017
225	0x3d620292	0.055178232
226	0xbde0f01e	-0.10983299
227	0xbda0d96a	-0.078539684
228	0x3d64d52c	0.05586736
229	0xbd68028f	-0.056643065
230	0xbda3d17e	-0.07998942
231	0xbb84aaf4	-0.0040486995
232	0xbd78e1c4	-0.060762182
233	0xbde72390	-0.1128608
234	0xbdf2f210	-0.11862576
235	0xbd8d914a	-0.06912477
236	0xbc333b94	-0.0109394975
237	0x39af21e1	0.00033403843
238	0xbda0cce3	-0.07851579
239	0xbd42bdc2	-0.04754425
240	0xbdeacaea	-0.11464484
241	0xbd8bce38	-0.068264425
242	0x3cd0bd11	0.025480779
243	0xbd5d7058	-0.054062217
244	0x3de0a7d7	0.10969513
245	0xbda7d170	-0.08194244
246	0xbca03ae4	-0.019559331
247	0xbdce3f4c	-0.10070667
248	0xbdd8aa30	-0.10579336
249	0x3cb910fc	0.022591107
250	0xbcbae846	-0.022815835
251	0xbcc03c1e	-0.023466166
252	0x3e0054de	0.12532374
253	0x3ca0e1e1	0.019638957
254	0x3e10b67e	0.14132115
255	0xbd347568	-0.04405728

weight f4 [128, 256]
0	0xbd7cdb22	-0.06173242
1	0x3d1f0f78	0.03883311
2	0xbd3906e4	-0.045172587
3	0xbd215561	-0.039388064
4	0xbb3d8b1a	-0.0028922022
5	0xbb7ddbc2	-0.0038735722
6	0xbd3a8852	-0.04554016
7	0x3d4d7c96	0.050167643
8	0xbd0c8e5d	-0.034315456
9	0x3ba3938a	0.0049919533
10	0x3c57be79	0.013167971
11	0x3d485843	0.048912298
12	0x3d5720d0	0.052521527
13	0x3d1a4188	0.03766015
14	0x3d413cd8	0.047177166
15	0x3d3c1a2c	0.045923397
16	0x3c028c75	0.007968058
17	0x3cfab2e6	0.030602884
18	0xbc3d2e73	-0.011546719
19	0x3d675314	0.056475714
20	0x3d5dea76	0.054178677
21	0xbd4461b1	-0.04794473
22	0xbd7c7124	-0.061631337
23	0x3cdd288c	0.026996873
24	0x3b24c01d	0.0025138923
25	0x3c2f41e4	0.010696862
26	0xbc85883c	-0.016300313
27	0xbd2edc34	-0.04269047
28	0xba3bfed4	-0.0007171456
29	0xba7a6825	-0.0009552262
30	0x3d3c11c8	0.045915395
31	0x3cccfd59	0.02502315
32	0xbd52eea7	-0.051497128
33	0xbc02de4b	-0.007987569
34	0x3d74b026	0.0597383
35	0xbd0b5879	-0.03401992
36	0x3d4e34bb	0.050343256
37	0x3cc6c9f8	0.024266228
38	0xbb1daa6b	-0.0024057876
39	0x3b0455fb	0.002019285
40	0xbcb917b5	-0.022594312
41	0x3d538794	0.05164297
42	0x3c1cbdcc	0.0095667355
43	0xbc94d81a	-0.018169452
44	0x3bfc4021	0.0076980744
45	0xbd4c7b3d	-0.049922217
46	0xbc328574	-0.0108960755
47	0x3d7e88bc	0.06214212
48	0x3d0b1281	0.033953194
49	0xbb8e6f24	-0.004346745
50	0x3c620496	0.013795039
51	0x3cf91464	0.03040523
52	0x3a005be6	0.00048965064
53	0x3d7338fb	0.059380513
54	0xbc81304c	-0.0157701
55	0x3cba6332	0.022752378
56	0x3b8fb1d2	0.0043852115
57	0xbbcc67ac	-0.0062379446
58	0xbbff93eb	-0.0077996156
59	0xbd48c96b	-0.049020212
60	0xbce2b76b	-0.027675351
61	0x3d149148	0.036271363
62	0xbc806535	-0.01567326
63	0x3c4e6413	0.012597102
64	0xbd35580c	-0.04427342
65	0xbc9a045e	-0.01880091
66	0xbd727328	-0.059191853
67	0xbd4ef921	-0.050530557
68	0x3c668577	0.014069906
69	0x3c0a553d	0.008443174
70	0xbd57241b	-0.052524667
71	0xbd177c74	-0.036983922
72	0xbcedbffe	-0.029022213
73	0xbd558d76	-0.05213686
74	0xbd67cbb0	-0.056590736
75	0x3d278c32	0.040905185
76	0xbba5a53d	-0.0050550983
77	0x3d5b85d4	0.053594425
78	0xbca8b313	-0.020593202
79	0xbbe72c29	-0.007054825
80	0xbcb21208	-0.021737114
81	0xbd4227d2	-0.047401257
82	0xba1873a2	-0.00058155705
83	0x3d712535	0.058873374
84	0xbd413dac	-0.047177956
85	0x3d72f5b6	0.05931636
86	0xbd1a7481	-0.037708763
87	0x3d2df436	0.042469226
88	0xbd7ed6e8	-0.06221667
89	0x3c751c19	0.014960312
90	0xbc9939ef	-0.018704383
91	0x3cbf7f42	0.023376111
92	0x3d23cfc7	0.039993074
93	0x3c8e92d1	0.017403992
94	0xbd5bc025	-0.05365004
95	0xbce4ed94	-0.027945317
96	0x3cd82ec3	0.026389485
97	0x3d07c27b	0.033144455
98	0x3d2ade46	0.041715883
99	0x3cad15b7	0.021128519
100	0xbd583d04	-0.052792564
101	0xbd766d5a	-0.06016288
102	0xbcfa702b	-0.030571064
103	0xbd210d87	-0.03931954
104	0x3c8d1ff3	0.017227149
105	0xbd5ee5c0	-0.054418325
106	0xbbd3f061	-0.0064678644
107	0x3d3c2e7b	0.045942765
108	0x3c6e161e	0.01453164
109	0x3cfd1513	0.030893838
110	0x3c862ee4	0.016379781
111	0xbc1c6249	-0.009544917
112	0x3cbc3b24	0.02297742
113	0x3c14e020	0.009086639
114	0xbd090d78	-0.03346011
115	0x3bd89281	0.0066092615
116	0x3cdd2dc2	0.026999358
117	0xbd210526	-0.03931155
118	0xbc6185c9	-0.013764807
119	0xbb3ccdaf	-0.002880912
120	0xbc94ae3c	-0.018149488
121	0xbcfe6ab6	-0.031056743
122	0xbc87a7fa	-0.01655959
123	0xbcbace94	-0.022803582
124	0xbc49f5c4	-0.0123266615
125	0x3d107cbc	0.035275206
126	0xbd03285b	-0.032020908
127	0xbc77a778	-0.015115611
128	0xbd67c5d4	-0.056585148
129	0xbcfe98dd	-0.03107875
130	0xbd1d4914	-0.03839977
131	0x3cc49e61	0.024001302
132	0xbd6f46c8	-0.05841711
133	0x3d186651	0.03720695
134	0x3cb553b1	0.022134634
135	0x3d220a1e	0.03956043
136	0xbd2cac4a	-0.042156495
137	0x388c93f2	6.703277e-05
138	0xbcc3b802	-0.023891453
139	0x3d4401ba	0.04785321
140	0xbc96216c	-0.018326484
141	0x3d236bfc	0.039897904
142	0xb87b1942	-5.9866587e-05
143	0x3d34966a	0.04408876
144	0xbd15f688	-0.036612064
145	0x3cc45b65	0.023969362
146	0x3d286f94	0.041122034
147	0x3d2eeecc	0.042708203
148	0xbd6f1d69	-0.058377657
149	0xbd064155	-0.03277715
150	0x3d51de32	0.051237293
151	0xbc3276b4	-0.010892559
152	0xbd03a0fe	-0.032135956
153	0xbcedcff2	-0.02902982
154	0xbcce52d9	-0.02518599
155	0x3cb43e4c	0.022002362
156	0xbd1210d5	-0.035660584
157	0xbc0fa4c0	-0.008767307
158	0x3d2f2a28	0.042764813
159	0x3d10156e	0.035176687
160	0x3d46be90	0.04852158
161	0xbc664738	-0.014055066
162	0xbd2202fc	-0.039553627
163	0xbcb77f77	-0.022399647
164	0xbbbbe7fb	-0.0057344413
165	0xbd73df57	-0.059539165
166	0xbc51d617	-0.012807391
167	0x3d636f9f	0.055526372
168	0xbd3dbefa	-0.046324708
169	0xbc29b964	-0.010359142
170	0x3d0b8f38	0.03407213
171	0xbc47beda	-0.012191499
172	0xbd75a899	-0.05997524
173	0x3cee35a6	0.029078316
174	0xbcaa26c3	-0.020770436
175	0xbd746bf6	-0.059673272
176	0x3c87e1e2	0.016587202
177	0xbafa5f64	-0.0019101915
178	0xbd1fb9d6	-0.038995586
179	0x3d47cdaa	0.04878012
180	0xbc9d3eb4	-0.019194938
181	0xbc2322be	-0.009957014
182	0x3d3dddda	0.046354152
183	0x3d704913	0.05866344
184	0x3c2485e6	0.0100416895
185	0x3cec6a7c	0.02885937
186	0xbc7bdd5b	-0.0153725995
187	0xbd2eb3c7	-0.042651918
188	0xbd48cb41	-0.049021963
189	0xbd2af507	-0.041737583
190	0xbd40c9f8	-0.047067612
191	0x3d36ba77	0.04461142
192	0x3d77b083	0.06047107
193	0x3d0485eb	0.032354277
194	0x3c6a5252	0.014301853
195	0xbc9a85fc	-0.018862717
196	0x3d6ca16a	0.057771124
197	0xbd0ba55a	-0.03409324
198	0xbd4cd1a4	-0.050004616
199	0x3d7223ad	0.059116054
200	0x3d609313	0.05482776
201	0x3b875344	0.004129799
202	0x3b0004ff	0.0019534228
203	0xbd7973fc	-0.060901627
204	0x3d029cd0	0.03188783
205	0x3d7f6e72	0.06236119
206	0xbd0e03ce	-0.034671597
207	0x3d4d78bc	0.05016397
208	0x3d3b970a	0.04579834
209	0x3d470d91	0.048596922
210	0xbd29b4d9	-0.041432235
211	0xbcfdb41d	-0.030969674
212	0xbcef1f26	-0.029189657
213	0x3d529524	0.051411763
214	0xbd6635f2	-0.05620379
215	0x3c3f96e9	0.011693695
216	0x3d149110	0.036271155
217	0xbd298fa4	-0.041396752
218	0x3cf6c56a	0.030123431
219	0xbcf6ffd9	-0.030151295
220	0x3d6ed9db	0.058313232
221	0xbd7b9626	-0.06142249
222	0xbd4b289a	-0.049599268
223	0x3d6792f3	0.056536626
224	0xbd02b87d	-0.031914223
225	0x3cdc8a85	0.02692152
226	0x3d5586b4	0.052130416
227	0xbacebced	-0.0015772857
228	0x3d67e22e	0.056612186
229	0x3d344d7f	0.04401922
230	0xbc1a0814	-0.00940134
231	0xbbd8c59a	-0.006615353
232	0x3d7a2aec	0.06107609
233	0x3d4ecdae	0.05048912
234	0x3c1128bc	0.0088598095
235	0xbd7070f8	-0.058701485
236	0xb925ba18	-0.00015804952
237	0xbd0a3618	-0.033742994
238	0x3d374bdf	0.04475009
239	0xbd586746	-0.052832864
240	0x3d233cb8	0.039852828
241	0xbc15c0cc	-0.009140205
242	0x3c7ba5b9	0.015359336
243	0xbd3e7eba	-0.046507575
244	0xbd4ada76	-0.049524747
245	0x3d021646	0.031759523
246	0x3d63ffdc	0.05566393
247	0xbd4d401a	-0.05010996
248	0xbd0bf850	-0.034172356
249	0xbc8137f8	-0.015773758
250	0x3d63c4c0	0.055607557
251	0x3c68a856	0.014200291
252	0x3a873bf8	0.0010317555
253	0x3d48c7df	0.049018737
254	0xbc2f7ec8	-0.010711379
255	0x3d5e28c4	0.054238096

bias f4 [128]
0	0xbc8af3ba	-0.016961921
1	0xbd1f611a	-0.038910963
2	0xbcd6035d	-0.02612465
3	0x3daaa8f6	0.08333008
4	0x3c9431e0	0.018090189
5	0xbce52022	-0.027969424
6	0x3c2d12fc	0.010563608
7	0x3c7b6475	0.015343775
8	0xbcb01ba7	-0.02149756
9	0x3d87a9c2	0.066241756
10	0x3d5bd159	0.053666446
11	0x3c80b6cf	0.01571217
12	0x3b24298c	0.0025049178
13	0xbd6e0f58	-0.0581201
14	0x3e091abf	0.13389109
15	0x3cc425b1	0.023943754
16	0x3d0f2b73	0.034953546
17	0x3d636cb4	0.05552359
18	0x3d4ec5b8	0.050481528
19	0x3ceb3603	0.028712278
20	0x3d33a835	0.043861587
21	0xbcc2afa3	-0.02376539
22	0xbd18d348	-0.03731087
23	0xbd032e83	-0.03202678
24	0x3dbedd45	0.093195476
25	0x3d2b7daf	0.041867908
26	0xbd407519	-0.046986673
27	0x3d729497	0.059223738
28	0x3aab8a23	0.0013087433
29	0x3d8398e9	0.0642565
30	0xbd36e09b	-0.044647794
31	0x3c95f39d	0.01830464
32	0x3b927131	0.00446906
33	0xbd432506	-0.04764273
34	0xbca71a40	-0.02039826
35	0x3dd5af8a	0.10433872
36	0xbd0dac2a	-0.034588017
37	0x3d315445	0.043293256
38	0xbd54f8cd	-0.051995087
39	0x3cb5cd6e	0.022192683
40	0xbc0a1039	-0.008426719
41	0x3bc1254a	0.005894338
42	0xbbce32ad	-0.006292662
43	0xbd5f6c55	-0.054546673
44	0xbd2e3d0f	-0.0425387
45	0xbd732c2f	-0.05936831
46	0x3d783ce7	0.060604956
47	0x3c524f09	0.012836226
48	0x3ca235ed	0.019801104
49	0xbd305590	-0.04305035
50	0x3dca6e84	0.098843604
51	0x3d02d1cd	0.031938363
52	0xbd510a0a	-0.051034965
53	0x3d2bd474	0.041950658
54	0x3d9d93ea	0.07694228
55	0x3da2c5cd	0.07947884
56	0x3c03228b	0.008003841
57	0xbd424fdd	-0.047439445
58	0xbd3621f4	-0.044465974
59	0x3c99bfb0	0.018768162
60	0xbca09849	-0.019603865
61	0xbb102be8	-0.0021998826
62	0xbd23e19b	-0.040010076
63	0x3d2e99cc	0.04262714
64	0x3b0f3fe0	0.002185814
65	0x3d9f1298	0.07767218
66	0xbd7578b9	-0.059929583
67	0x3c0140c9	0.007888981
68	0x3da181ba	0.078860715
69	0x3cc5d132	0.024147604
70	0xbd53c414	-0.051700667
71	0x3d9b32e7	0.07578068
72	0x3d31b9ad	0.043389965
73	0x3dec1f2a	0.115293816
74	0x3cf1875e	0.029483493
75	0x3d131f39	0.035918448
76	0x3d426f3a	0.047469355
77	0xbd706237	-0.058687415
78	0xbd71d4b2	-0.059040733
79	0xbc25bff6	-0.010116568
80	0xbca0b2e0	-0.019616544
81	0xbb9b459f	-0.004738524
82	0xbcc22608	-0.023699775
83	0x3d99fb8b	0.07518681
84	0xbbdf01e6	-0.0068056462
85	0xbd730793	-0.059333395
86	0xbd13007a	-0.035889126
87	0x3d449201	0.047990803
88	0xbc8f193c	-0.017468087
89	0x3d068012	0.03283698
90	0x3c9dfdcc	0.019286059
91	0xbd43aa4c	-0.04776983
92	0xbd5796e9	-0.052634154
93	0x3d61badb	0.05510984
94	0x3c043ae7	0.008070684
95	0x3d4a9a30	0.04946345
96	0xbd4df3cf	-0.050281342
97	0x3d791ddb	0.060819488
98	0xbd13fb8f	-0.036128577
99	0x3cc1a69d	0.023639018
100	0xbcaf7218	-0.021416709
101	0x3d14894e	0.036263756
102	0xbc411739	-0.011785322
103	0x3d2670ea	0.040635027
104	0xbbcd2e9c	-0.00626166
105	0x3cef7873	0.02923224
106	0x3d146d80	0.03623724
107	0xbc86de84	-0.016463526
108	0x3d828626	0.06373243
109	0xbd465687	-0.048422363
110	0x3d1330e2	0.03593529
111	0x3b87b16f	0.004141025
112	0x3d067309	0.03282455
113	0x3dd5a90a	0.10432632
114	0xbd57e55d	-0.052708972
115	0xbc4dd091	-0.012561933
116	0x3b86d646	0.004114899
117	0x3cdb8762	0.026797954
118	0x3d2e4e9e	0.042555444
119	0xbd127ba5	-0.035762448
120	0x3dc83759	0.09776182
121	0x3d46e798	0.04856071
122	0xbc75426d	-0.01496945
123	0x3cb63bc5	0.022245297
124	0x3cfcd3e0	0.030862749
125	0x3d57bc0c	0.05266957
126	0x3d10d7d0	0.035362065
127	0x3d3db33f	0.04631352

weight f4 [64, 128]
0	0x3d8cb5c8	0.068706095
1	0x3cf85077	0.030311806
2	0xbd74278a	-0.05960802
3	0xbd8dfd54	-0.06933084
4	0x3d905f3c	0.070494145
5	0x3d6437c7	0.055717256
6	0xbd38b9b2	-0.045098968
7	0x3d057e4a	0.03259114
8	0xbd93ab19	-0.07210369
9	0x3ba453c6	0.0050148694
10	0xbaad8f17	-0.0013241497
11	0xbdaa4685	-0.08314232
12	0x3ce758ab	0.028240522
13	0x3d04972f	0.032370742
14	0x3da4fadf	0.08055662
15	0x3ca553ac	0.0201815
16	0x3d9b5051	0.075836785
17	0x3d349100	0.044083595
18	0xb6bfac5f	-5.71231e-06
19	0x3c93656b	0.017992696
20	0xbce3847b	-0.027773133
21	0x3d981c49	0.0742727
22	0x3aea86fc	0.0017893012
23	0x3da4fd19	0.08056087
24	0xbdae968e	-0.0852481
25	0xbd4c0432	-0.04980869
26	0x3d88129b	0.06644174
27	0x3c1a2c6e	0.009410007
28	0xbd1366fe	-0.035986893
29	0x3d3b3877	0.045708146
30	0xbcfc06e8	-0.030765012
31	0x3db0864f	0.08619367
32	0xbce544db	-0.027986934
33	0x3d9b04f8	0.07569307
34	0x3bf1ca75	0.007378871
35	0xbca083e0	-0.019594133
36	0xbbfc5b7c	-0.0077013355
37	0xbda46287	-0.08026605
38	0x3d22f1f6	0.039781533
39	0xbd8584db	-0.06519481
40	0x3d87db95	0.06633679
41	0xbb5b07b9	-0.003342135
42	0x3d2a09c8	0.041513234
43	0xbdaee768	-0.08540231
44	0x3d714834	0.05890675
45	0x3c7081f7	0.0146794235
46	0x3d7edd12	0.062222548
47	0xbd6d37fe	-0.057914726
48	0xbd58e09b	-0.052948575
49	0xbd83cc62	-0.06435467
50	0x3da3e5fb	0.0800285
51	0xbd370e0d	-0.044691134
52	0xbd1f9a5b	-0.038965564
53	0x3db38b03	0.08766749
54	0xbd8bf7cf	-0.06834375
55	0x3b90eef2	0.0044230158
56	0xbd2de4a7	-0.042454388
57	0x3c7e4571	0.015519486
58	0xbd848c09	-0.06472022
59	0x3d6a053f	0.05713391
60	0xbd953c97	-0.07286947
61	0xbd7b297d	-0.061318863
62	0xbd03d7fb	-0.032188397
63	0x3c8774c8	0.016535178
64	0xbceb0928	-0.02869089
65	0x3d81e2c7	0.063420825
66	0xbce7554f	-0.02823892
67	0xbd0f433d	-0.034976233
68	0x3ca8277f	0.020526646
69	0x3d4b1eb2	0.04958982
70	0x3d8fe8a3	0.07026794
71	0x3d9c27cf	0.076247804
72	0x3d0d181e	0.034446828
73	0xbd3d612b	-0.046235245
74	0xbd907bf8	-0.07054895
75	0x3da61bc9	0.08110768
76	0x3d504738	0.05084917
77	0xbd6c4f73	-0.057692956
78	0xbd9f77be	-0.07786511
79	0xbc329fef	-0.010902389
80	0xbda19922	-0.07890536
81	0x3c10d3ed	0.00883959
82	0xbd011dae	-0.031522445
83	0x3d3d300e	0.046188407
84	0xbd4bf7a0	-0.0497967
85	0x3a03e36d	0.00050311425
86	0xbd7f30c0	-0.06230235
87	0x3cb16fb8	0.021659717
88	0x3c68478d	0.014177215
89	0xbc48fe31	-0.012267635
90	0xbaf07b0e	-0.001834722
91	0x3bb05d53	0.005382219
92	0x3b981ad8	0.004641872
93	0x3cb118ff	0.021618364
94	0xbdb3fb3d	-0.08788154
95	0xbdb08025	-0.08618192
96	0xbcc4ea6d	-0.024037564
97	0x3c718bd0	0.014742807
98	0x3bc2efcb	0.0059489957
99	0xbd337d66	-0.04382076
100	0xbd34db93	-0.044154715
101	0x3bcea01e	0.0063057085
102	0xbce83e5a	-0.028350044
103	0x3db277c5	0.087142505
104	0xbd26945c	-0.04066883
105	0xbd319a50	-0.043360054
106	0x3d9fe04d	0.07806454
107	0xbd9984af	-0.074960105
108	0xbda18199	-0.07886047
109	0x3d62394e	0.05523043
110	0x3d9ca44a	0.07648523
111	0xbd2647eb	-0.04059593
112	0x3d1c70ba	0.038193442
113	0x3cbdc8e3	0.02316708
114	0x3c35fc68	0.011107542
115	0xbda18465	-0.078865804
116	0x3d09a5ad	0.033605266
117	0xbd19281c	-0.037391767
118	0x3d7a1ab9	0.06106064
119	0x3b25a6d4	0.002527644
120	0xbd3dcf39	-0.0463402
121	0xbc63848a	-0.01388658
122	0x3c430649	0.011903354
123	0x3c8c01e2	0.017090742
124	0x3da0e889	0.078568526
125	0xbcbad678	-0.022807345
126	0xbd4d29c3	-0.050088655
127	0x3d364056	0.04449495
128	0xbc22cb88	-0.009936221
129	0xbd14903f	-0.036270376
130	0x3d267624	0.04064001
131	0xbc2e216d	-0.0106280865
132	0x3d969ca0	0.073540926
133	0x3d0c11a0	0.034196496
134	0x3d7df9e9	0.06200591
135	0xbda1bdf8	-0.07897562
136	0x3c790171	0.015198098
137	0x3d6d6437	0.0579569
138	0xbbceab1a	-0.006307018
139	0xbd116363	-0.035495173
140	0xbd44d3e3	-0.048053633
141	0x3ba8fc0d	0.005157
142	0x3d88a08e	0.066712484
143	0x3d973738	0.07383579
144	0xbcc48350	-0.023988396
145	0xbd3a85eb	-0.04553787
146	0x3d9a5d47	0.075373225
147	0x3d1b093b	0.0378506
148	0x3da00df2	0.0781516
149	0x3dacc224	0.08435467
150	0xbdab3339	-0.08359379
151	0xbd4bc3c8	-0.04974726
152	0x3d85701d	0.065155245
153	0xbdaf26ac	-0.08552298
154	0xbae46ad2	-0.0017426854
155	0x3ccf3695	0.025294581
156	0x3d15ae0f	0.03654295
157	0x3d602766	0.054725073
158	0xbd74a136	-0.059724055
159	0x3c55287d	0.013010141
160	0x3d0a1cc5	0.033718843
161	0x3c6ecaf4	0.014574755
162	0xbcad64ce	-0.021166231
163	0xbce26245	-0.02763475
164	0x3c5c0111	0.013427989
165	0x3c2e4d4d	0.010638547
166	0x3bc75677	0.0060833055
167	0xbd5aea45	-0.053446073
168	0xbcd8fa74	-0.026486613
169	0x3caa1c9a	0.020765591
170	0x3d6be101	0.057587627
171	0x3b791371	0.0038005973
172	0x3d96e269	0.07367403
173	0xbd8cf203	-0.068820976
174	0x3dd0dc40	0.10198259
175	0xbd946ec1	-0.07247687
176	0xbce68fc9	-0.028144734
177	0x3c45d6be	0.012075124
178	0x3dd6f36c	0.10495648
179	0xbc6ce1a3	-0.014458093
180	0xbc13e9c4	-0.009027902
181	0x3c3fdbf4	0.011710156
182	0xbcca8615	-0.024722138
183	0x3d7f60e9	0.06234828
184	0xbd9cf34e	-0.07663594
185	0xbca2d8a3	-0.019878691
186	0xbc4e39d6	-0.012587031
187	0x3d3259b6	0.043542586
188	0xbd5c8f7e	-0.053847782
189	0x3a0c998b	0.0005363456
190	0x3ab70b87	0.0013965227
191	0x3cee3838	0.029079542
192	0x3d3914c7	0.04518583
193	0x3de5d9b7	0.112231664
194	0x3d8f843b	0.07007643
195	0xb9905fcf	-0.00027537203
196	0x3cfb5d4a	0.030684132
197	0x3d1fa4af	0.038975414
198	0x3d1c7f5e	0.038207404
199	0xbc7173a5	-0.014737044
200	0x3dd16741	0.10224772
201	0x3d56808e	0.052368693
202	0xbc775845	-0.015096729
203	0xbd76f409	-0.060291324
204	0x3c866b70	0.016408652
205	0xbd40739f	-0.046985265
206	0x3d1ffdc2	0.03906036
207	0x3c0205de	0.007935969
208	0xbc2708ca	-0.010194967
209	0xba57745b	-0.00082189374
210	0xbd0e4898	-0.0347372
211	0x3d566793	0.05234487
212	0x3d81ffe8	0.06347638
213	0x3cf89598	0.03034477
214	0xbd65e3f9	-0.056125615
215	0xbb79546b	-0.0038044702
216	0x3cbff43c	0.02343189
217	0xbd7374db	-0.059437614
218	0x3d60ea85	0.054911155
219	0xbd49a698	-0.04923114
220	0xbd08f711	-0.033438746
221	0xbd54736a	-0.05186788
222	0x3d8c3206	0.06845479
223	0x3d3a0b8e	0.045421176
224	0xbcd95f6b	-0.026534757
225	0x3dbee4b5	0.09320966
226	0x3d195384	0.037433162
227	0xbcc5e84c	-0.02415862
228	0x3d1cc39c	0.038272485
229	0x3db73ae4	0.08946779
230	0x3db17ff6	0.08666985
231	0xbd9a8644	-0.075451404
232	0x3c028254	0.007965643
233	0xbd98d94f	-0.07463323
234	0x3d5ddd80	0.054166317
235	0xbd84fc3d	-0.06493423
236	0x3cfb0ef9	0.030646788
237	0xbdaefa7e	-0.08543871
238	0x3d2b2e65	0.041792292
239	0xbd842591	-0.06452478
240	0x3d974ff8	0.073883
241	0x3d9dc276	0.07703106
242	0x3d460df1	0.04835314
243	0x3d140572	0.036138006
244	0xbcfc6852	-0.030811463
245	0xbb2dde2b	-0.0026530128
246	0xbc786b4c	-0.0151623
247	0x393801b1	0.00017548238
248	0x3ddf8324	0.10913685
249	0x3d3c43cd	0.045963097
250	0xbd4505aa	-0.048101105
251	0x3db88a02	0.09010698
252	0xbd10c79c	-0.035346612
253	0x3c94d9c4	0.018170245
254	0xbda927a1	-0.08259512
255	0xbd4a5d0f	-0.049405154

bias f4 [64]
0	0xbd4bb264	-0.049730673
1	0x3e1db55d	0.15401216
2	0x3df92278	0.121647775
3	0xbb650d32	-0.0034950492
4	0xbd777be1	-0.060420875
5	0x3e07df4d	0.13268776
6	0x3dbe23f9	0.09284205
7	0x3d59bd93	0.053159308
8	0xbdb906d4	-0.090345055
9	0xbd61542a	-0.055011906
10	0xbda98d27	-0.08278876
11	0xbd4bdded	-0.04977219
12	0xbb917734	-0.004439259
13	0x3d2647b8	0.04059574
14	0x3c614eda	0.01375171
15	0xbd1aa15c	-0.03775154
16	0x3d952610	0.072826505
17	0x3d14b2bc	0.036303267
18	0x3d52c1c4	0.05145432
19	0x3e4aa3c7	0.19789039
20	0xbc31cb63	-0.010851714
21	0x3c6421fb	0.013924117
22	0x3dc87b43	0.09789135
23	0xbd127bb2	-0.035762496
24	0xbb82fe74	-0.0039976183
25	0xbc481f40	-0.012214482
26	0xbda35e16	-0.0797693
27	0x3d0154fc	0.031575188
28	0xbc94cadb	-0.018163135
29	0xbd882c99	-0.06649131
30	0x3dea47b3	0.11439457
31	0xbd875bd6	-0.06609313
32	0x3e0c7916	0.13718066
33	0xbd70ed00	-0.05881977
34	0x3ae0910a	0.0017133069
35	0x3c3ecad4	0.011645038
36	0xbd8b13a3	-0.06790855
37	0xbdaa4749	-0.08314378
38	0x3e6636c5	0.2248183
39	0xbb2f91a7	-0.0026789696
40	0x3df5e239	0.12006039
41	0x3d2bbfbb	0.041930895
42	0xbda17b46	-0.07884841
43	0xbd3dc400	-0.0463295
44	0x3cc111f6	0.023568135
45	0x3d56e378	0.052463025
46	0x3b93036a	0.004486491
47	0x3dfeb6c6	0.12437205
48	0xbb802e43	-0.003911765
49	0x3d871cdb	0.065973006
50	0xbd9a4f9f	-0.07534718
51	0x3d855438	0.06510204
52	0x3e21508b	0.15753381
53	0x3d8f2078	0.06988615
54	0x3da6db97	0.08147352
55	0x3ac9596e	0.0015361735
56	0x3ca4b917	0.020107789
57	0xbb68a95a	-0.0035501332
58	0xbda6b30d	-0.0813962
59	0x3e097588	0.13423741
60	0x3e49d417	0.19709812
61	0x3b3d7155	0.0028906662
62	0x3c77e198	0.015129469
63	0x3dc4b9a1	0.096057184

weight f4 [2, 64]
0	0xbce90663	-0.028445428
1	0x3e0efe9a	0.1396431
2	0x3b07c81f	0.0020718647
3	0xbdb87cb5	-0.09008161
4	0x3de68dfd	0.11257551
5	0x3e3d958a	0.18514076
6	0x3d8aa3b4	0.06769505
7	0xbd8d9f7e	-0.06915186
8	0xbd9083fb	-0.07056423
9	0xbc89d5f7	-0.01682566
10	0x3d952fa1	0.07284475
11	0xbd82d8a9	-0.06388981
12	0x3ddfdc06	0.10930638
13	0x3e571a5a	0.21006146
14	0xbd272a9b	-0.040812116
15	0x3b53b20e	0.0032302174
16	0x3dd09f7c	0.10186669
17	0xbdb84fc2	-0.089995876
18	0xbddb6684	-0.10712913
19	0x3e6340b4	0.22192651
20	0x3e0768e2	0.13223603
21	0xbbe8b09e	-0.0071011325
22	0x3e2951ee	0.1653516
23	0x3d77318e	0.060349993
24	0xbd891adf	-0.066945784
25	0x3d8608a9	0.065446205
26	0xbdad2211	-0.08453763
27	0x3c92f3a5	0.017938444
28	0x3d6107e3	0.054939162
29	0x3ce38257	0.027772112
30	0x3e75aa41	0.23990728
31	0x3c605428	0.013691939
32	0x3e846434	0.258577
33	0xbd01eb63	-0.031718623
34	0x3dc42cbc	0.09578845
35	0xbcfd82d2	-0.030946169
36	0x3c8df2a7	0.01732762
37	0x3db30002	0.08740236
38	0x3e7e0610	0.24807
39	0x3cefe5c6	0.02928437
40	0x3da73692	0.08164705
41	0xbde6ce82	-0.11269857
42	0xbdad1f87	-0.08453279
43	0xbd336aa9	-0.04380289
44	0x3e17cea2	0.14824918
45	0x3d7cb2d9	0.061694
46	0x3d5c3b88	0.05376771
47	0x3e1f7660	0.155725
48	0xbdbe1c88	-0.09282786
49	0x3d81e4cf	0.0634247
50	0xbd5efe81	-0.054441933
51	0x3d3c9183	0.04603721
52	0x3d928995	0.07155148
53	0x3c3feda2	0.011714371
54	0x3e0626c5	0.13100727
55	0xbd59d8f5	-0.053185422
56	0xbc02c745	-0.00798208
57	0xbd0c8f3e	-0.034316294
58	0xbd7529b6	-0.05985423
59	0x3e6163d0	0.22010732
60	0x3e5c581f	0.2151799
61	0x3d2d696f	0.042336877
62	0xbdf43144	-0.11923459
63	0x3dedae01	0.11605454
64	0xbd083efd	-0.033263195
65	0xbe78893a	-0.24271098
66	0xbe42cba7	-0.19023
67	0x3dd4f1a9	0.103976555
68	0x3d89b738	0.06724399
69	0xbe3d3b02	-0.18479541
70	0xbd5de10f	-0.05416971
71	0xbdf029c5	-0.11726717
72	0x3df212f6	0.11820023
73	0x3db49439	0.08817334
74	0xbc1bd60a	-0.00951148
75	0x3dd0322c	0.101658195
76	0x3dad8c90	0.08474076
77	0xbde4f1fd	-0.11178968
78	0x3d8ab42f	0.067726485
79	0xbd965f64	-0.07342413
80	0xbd6231bf	-0.055223223
81	0xbd33b9c1	-0.04387832
82	0x3d99727b	0.074925385
83	0xbe258b3c	-0.16166395
84	0x3d8cc071	0.06872643
85	0xbd878f2c	-0.06619105
86	0xbe41aad7	-0.18912826
87	0x3bf3a50c	0.0074354466
88	0x3db13655	0.08652941
89	0x3ce4bbbd	0.027921552
90	0xbd581518	-0.05275449
91	0x3de5310d	0.11190996
92	0xbe1528cf	-0.14566348
93	0xbdb85856	-0.09001224
94	0xbe3d9874	-0.18515188
95	0x3ce63e4f	0.028105883
96	0xbd8a1c33	-0.0674366
97	0x3d7a1e51	0.06106407
98	0x3c209386	0.009800797
99	0xbd00b42d	-0.03142183
100	0xbd0fb580	-0.0350852
101	0xbde675a1	-0.11252905
102	0xbe38a332	-0.18031004
103	0xbdae1c57	-0.08501499
104	0xbd73b6d2	-0.059500523
105	0xbd82a720	-0.06379533
106	0x3c0254a2	0.007954748
107	0x3db09a72	0.08623208
108	0x3d49805f	0.04919469
109	0xbe403189	-0.18768896
110	0x3d12b046	0.03581264
111	0xbcfcb8fb	-0.030849924
112	0xbd243142	-0.04008604
113	0xbe05eda2	-0.13078931
114	0xbdfa2ab3	-0.122151755
115	0xbe183552	-0.1486409
116	0xbe5012fe	-0.20319745
117	0xbe3e5741	-0.18587972
118	0xbe1639e8	-0.14670527
119	0xbcd77904	-0.026302822
120	0x3cab1ca3	0.020887678
121	0x3da949d0	0.08266032
122	0x3c72dbfa	0.014822954
123	0x3c0e7c9b	0.0086967
124	0xbde76059	-0.11297674
125	0x3c6781f9	0.014130109
126	0xbc1a3c6b	-0.009413819
127	0x3c9c03a1	0.0190447

bias f4 [2]
0	0x3f466ae5	0.7750686
1	0xbf2a1110	-0.66432285
