AutoBalance/results/tvarit_wheel/New_Experiments/test/dyly_LA_init/1/retrain/epoch_80.pth (torch, 236367 bytes, 8 tensors)

weight f4 [256, 64]
000000 ed 8e 81 3d 07 37 27 3c 12 69 e8 3d 6c 37 6b bd
       0.06326089 0.010205991 0.113481656 -0.0574259
000010 ba 00 42 bd db 50 c4 bd 91 4e 06 3d 37 c1 4f bd
       -0.047363974 -0.095857345 0.03278977 -0.050721373
000020 26 f0 6e bd 5f 68 5e bc ee ee d2 3c cb f1 ff 3c
       -0.058334492 -0.013574689 0.025748696 0.031243226
000030 a9 89 0d bd 88 64 9d 3c 5c 91 a4 3d 0a 7f fc 3d
       -0.03455511 0.019212976 0.080355376 0.12328918
000040 77 2e ab bd bb 4b c3 bd 9f 13 a3 3d 56 36 c5 3d
       -0.08358472 -0.09535929 0.07962727 0.096295044
000050 c2 63 9f bd 13 0f 8b 3d c5 aa 22 3c cd 8c e9 bd
       -0.07782699 0.067899846 0.00992841 -0.11403809
000060 09 c5 b7 bb ca 3c 9a bd 48 df 2e bd 66 b5 e1 3d
       -0.005608205 -0.07531126 -0.042693406 0.11020927
000070 cd 7c cd 3d ee 7c 88 bd 4f bc 74 3d cc d9 ac bb
       0.100335695 -0.066644534 0.059749898 -0.005274987
000080 92 a4 83 bd 2d 96 d6 3c e6 d3 e2 3d 63 06 df bd
       -0.06427874 0.026194656 0.11075573 -0.1088989
000090 42 2f 9e bd 9a 99 37 bd a3 d9 ed bd 1e e3 cf 3d
       -0.077238575 -0.04482422 -0.116137765 0.10150741
0000a0 8c 87 c4 bd 7c 28 39 bd 81 25 f4 bd 2a 1f 8f bd
       -0.09596166 -0.045204625 -0.11921216 -0.06988366
0000b0 87 44 06 bd 24 51 11 3d 7c 4f 09 bd 82 28 a1 bd
       -0.032780197 0.035477772 -0.033523068 -0.078690544
0000c0 63 6d d0 bc e1 ce 1c 3d b6 a2 9a 3d 0a 98 a3 bc
       -0.025442785 0.038283233 0.07550566 -0.019969959
0000d0 be 83 2e bd 37 fc 6d bd 7f 9c e7 3d 35 9e e1 3d
       -0.042606108 -0.05810186 0.11309146 0.11016504
0000e0 57 d7 c4 3b 45 92 80 3c c5 41 ad bd 92 80 99 bd
       0.006007116 0.015694747 -0.0845981 -0.07495226
0000f0 a0 b3 37 3d a0 7b 91 bd 83 e9 8f bc b1 15 e2 3a
       0.044849038 -0.07103658 -0.017567402 0.0017248896
000100 dc 14 e3 3d 18 64 01 bd 14 97 3d 3d 00 5a 39 3d
       0.11087963 -0.031589597 0.046286657 0.045251846
000110 16 11 c2 3d 68 db 0f 3d e0 8d 8a 3d 74 de a8 3b
       0.09475915 0.03512135 0.06765342 0.0051534716
000120 34 71 d9 bd 6e 47 d5 bd a4 23 fa bd 22 61 3f bd
       -0.10617295 -0.10414015 -0.12213829 -0.046723492
000130 d8 5c 0e bd c0 7d c7 bd 88 a5 9b bd 94 cc b6 38
       -0.03475651 -0.09740782 -0.07599932 8.716542e-05
000140 a0 8c c4 3d 44 45 a0 bc fa f6 cc bb 70 e2 3c 3d
       0.095971346 -0.019564278 -0.006255028 0.046114385
000150 f0 92 2e 3d b8 e9 bd 3d 8a 9e 5b bd 6a e5 d2 3d
       0.0426206 0.09273094 -0.05361799 0.102976635
000160 0e f7 81 bd 7e db b6 3d c0 3f 83 3d ac 1a 8f 3c
       -0.0634595 0.089285836 0.06408644 0.017468773
000170 f0 74 3a 3d c2 18 bd 3d fa 1b 51 bd 0e 74 b3 3d
       0.045521677 0.09233238 -0.05105207 0.0876237
000180 52 d7 c5 3c 14 59 b6 3d a4 d1 9f bc c2 6f e7 bb
       0.024150524 0.08903709 -0.019509144 -0.007062883
000190 7a c1 70 3d d2 38 cb bd 18 8d b0 3d fa 74 42 3b
       0.058778264 -0.09922947 0.086206615 0.0029671774
0001a0 1c 82 05 3d a4 3c 1c 3c 22 44 66 3d 7a e0 ca bd
       0.032594785 0.009535942 0.05621732 -0.09906097
0001b0 16 1a 6e 3d 5c 1a 1e 3d 48 e1 14 3d 4e 66 ce 3d
       0.058130346 0.038599357 0.036347657 0.10078107
0001c0 4e fb cb 3d da d3 d9 bb 0a 32 ce bd 6e 37 9a 3d
       0.09960042 -0.006647569 -0.10068138 0.075301036
0001d0 06 43 8c bd 8a ff 85 3d ea 3b be 3d 1e cc c0 bd
       -0.06848721 0.06542881 0.092887715 -0.09413932
0001e0 ec bd aa bd ba 70 61 bd 5a 04 d0 bc be 4a c9 bd
       -0.08337006 -0.055039145 -0.0253927 -0.09828709
0001f0 06 ff 64 3d 62 bc e3 bc 10 3a c0 bd 86 c2 cb 3d
       0.05590727 -0.027799789 -0.093860745 0.09949212
000200 02 9d 66 bd 0a 9c ef 3c ca e2 68 bd 3a 6c 7b 3d
       -0.056302078 0.02924921 -0.056856908 0.06138251
000210 f8 46 9c 3d 3f e0 7c 3c 3a ec cd bd e1 ec 41 3d
       0.07630724 0.015434324 -0.10054822 0.047345046
000220 8e 79 a1 bd 8b 6f 9e 3c a8 e8 dc bd 2a 49 65 bd
       -0.07884513 0.019340297 -0.10786563 -0.055977978
000230 db be 65 3d 39 ef 83 3c 43 b4 eb 3d 24 91 d7 3d
       0.056090217 0.016105281 0.115089916 0.1052573
000240 b8 ec 9c bd c0 23 d2 3b b5 ec be bd 3f c3 e5 bd
       -0.07662338 0.006412953 -0.09322492 -0.11218881
000250 75 fb 24 3d 86 1d cd bd c2 44 7b bd 11 66 84 3d
       0.04027887 -0.10015397 -0.06134487 0.0646478
000260 8e c0 10 bd dd 44 ec ba f2 85 45 3d 63 b7 7f 3d
       -0.035339884 -0.0018025894 0.048223443 0.06243075
000270 6d 5d c9 bc 70 19 58 bd 4b 7d b6 bd 30 0e 58 3c
       -0.024580682 -0.052758634 -0.089106165 0.013186976
000280 82 d6 95 bd 00 4f 6c bd 91 29 ee 3d a7 26 75 bc
       -0.07316305 -0.057692528 0.11629022 -0.014962829
000290 e1 91 7e bd 4f 66 9d 3d 34 16 e3 3c ca 45 5e bd
       -0.06215084 0.076855294 0.027720548 -0.054265775
0002a0 11 82 d1 3d 2a d1 ca bc c8 53 15 3d 4c ee e6 3d
       0.10229886 -0.02475794 0.036456853 0.1127592
0002b0 e7 00 ff 3d 8c 7e 93 bc 04 42 e6 3d 1b 59 8f bd
       0.12451344 -0.018004678 0.1124306 -0.069994174
0002c0 6e 7b df 3d 00 36 03 bd c2 f7 fe bd c2 55 e4 bd
       0.10912214 -0.03203392 -0.124496 -0.111491695
0002d0 f8 93 91 3d 99 77 34 bd d2 5e 6b bd ca 1c f3 bc
       0.07108301 -0.04405937 -0.057463475 -0.029676814
0002e0 72 a6 80 bd 4b 4f 71 3b 6a f5 74 bd 5c 2d 52 bd
       -0.06281747 0.0036820944 -0.059804358 -0.05131279
0002f0 44 4c d1 bd 33 10 85 3d c5 07 69 3d 4e 73 5f 3d
       -0.10219625 0.064972304 0.056892175 0.054553322
000300 b6 de e4 3d 1d 03 40 bc 84 42 b0 3d 97 19 88 3d
       0.11175291 -0.011719492 0.08606437 0.06645506
000310 22 28 9a bd 60 a6 5c 3d bc 86 84 3d 7c 8d 83 bd
       -0.07527186 0.053869605 0.06471011 -0.064234704
000320 61 fb e0 3d bb 21 8f bd 76 bc b8 3d 05 6e e0 3b
       0.10985447 -0.069888555 0.09020321 0.006849053
000330 56 ea 98 bc a8 b5 00 be e8 21 81 3d f0 fa 4a 3d
       -0.018666428 -0.12569296 0.06305295 0.04955572
000340 98 a6 f1 bb cf 97 21 3d 9b 6c 9d 3d 6b 2c ae 3c
       -0.007374596 0.039451417 0.076867305 0.021261415
000350 27 1e d0 bd 07 59 16 3c 92 ee 18 3d 6f ff b8 3d
       -0.10162001 0.009176499 0.037336893 0.09033095
000360 32 f5 d7 bd 5f 6b fb 3d ad 5d 6a 3d ab 20 de 3d
       -0.10544814 0.12276339 0.057218242 0.10846075
000370 46 9e 9a 3d 53 d8 b4 3d e6 d4 d0 bd 37 3f 5d 3c
       0.075497195 0.08830323 -0.10196857 0.013503841
000380 60 9c ce bc b0 57 cd bd 31 8a e7 bc 60 4d 9e bd
       -0.02522105 -0.10026491 -0.028264137 -0.07729602
000390 9d bc d1 bd be 14 db bd 1a 05 c8 3c 68 20 3c 3d
       -0.10241053 -0.10697316 0.024416495 0.045929343
0003a0 fe 8d 17 bd 3b 15 be bd 0a 07 dd bd a0 90 d5 3d
       -0.03700065 -0.09281393 -0.10792358 0.10427976
0003b0 a5 48 a4 3d 5a 45 51 bc db 12 8b bd 7c f0 a0 bd
       0.08021668 -0.012772882 -0.06790706 -0.07858369
0003c0 76 e4 c0 3d 80 43 fd 3c b4 2c 91 bc b9 e2 9f 3d
       0.094185755 0.030915976 -0.017721511 0.07806916
0003d0 33 80 ef bd 3f cd ee bd 4d 62 c0 bd 28 a5 8b 3d
       -0.11694374 -0.11660241 -0.093937494 0.068186104
0003e0 48 ec d8 3d f3 22 5e bd 17 13 39 3d 96 03 e3 3a
       0.10591942 -0.05423255 0.04518422 0.0017319794
0003f0 e2 b7 ee 3c 8b 32 23 3d e1 45 f8 3d 8c 45 cc bd
       0.029140417 0.039843123 0.12122703 -0.099742025

bias f4 [256]
000000 11 72 b5 3d 7e 99 de bd 60 a9 24 3d cd a5 51 bc
       0.08859647 -0.1086912 0.04020059 -0.012795878
000010 e2 87 1f 3d 0c 18 48 bd 3c 46 ad 3d ca 20 c2 bd
       0.038947947 -0.048851058 0.08460662 -0.0947891
000020 44 f8 b2 3d a6 0f 85 3d 6b 20 97 bd 88 d6 db 3d
       0.08738759 0.06497125 -0.0737923 0.10734278
000030 74 10 bc bb 4a 24 89 3c 62 b4 b4 bd 58 48 ba 3d
       -0.005739266 0.016740937 -0.08823468 0.0909583
000040 6e c3 88 bd cd 8e 68 3c 38 5b 5f 3d 88 78 83 bd
       -0.066779 0.014194203 0.054530352 -0.06419474
000050 d2 e0 d2 3d fb 53 00 bd 66 29 9e bd c0 c2 68 3d
       0.10296787 -0.03133009 -0.0772274 0.056826353
000060 b1 23 08 3e cc 29 81 bd c6 ee 3e 3d 0f cd e1 3d
       0.13294865 -0.063068 0.04661443 0.1102544
000070 1d 98 80 3d a0 25 03 3d 12 6c 8d 3c 81 17 2b 3d
       0.06279013 0.032018304 0.017263446 0.041770462
000080 e7 f2 dc 3d a4 9e 01 be c5 a7 39 bc 6b 3d a4 3d
       0.107885174 -0.12658173 -0.011331503 0.08019527
000090 e5 3e a7 3c 6a b7 e3 bc 2b 95 19 3d 8d 66 08 bd
       0.020415733 -0.02779742 0.037495773 -0.033300925
0000a0 01 10 e1 bd b3 41 a1 bd 30 04 06 bd 71 fd 44 bd
       -0.10989381 -0.07873859 -0.032718837 -0.048093263
0000b0 08 84 81 3d 8d 2c e1 bb 0e 63 e9 bd ec 61 b3 3c
       0.06324011 -0.006871766 -0.11395846 0.021897279
0000c0 3c 9d f4 3d a4 59 00 bd 65 7b 3e 3d b1 fa b0 bd
       0.119440526 -0.031335488 0.046504397 -0.086415656
0000d0 b3 6e 6f 3d 77 fb 44 bd 5c 40 a1 3d 19 7b 01 be
       0.05845518 -0.048091378 0.07873604 -0.12644614
0000e0 fb 80 b9 3d c9 5e 05 bd 9b 65 0c bd 4c ce f7 3d
       0.09057804 -0.032561097 -0.034276586 0.12099895
0000f0 da 37 74 bc 3d 91 ae bb 89 8e ff 3c c3 df d1 3b
       -0.014905894 -0.0053273723 0.031195896 0.0064048483
000100 3d e8 a6 3c 75 15 f5 3d 10 d9 ed bd 04 36 0d 3e
       0.020374412 0.11966983 -0.11613667 0.13790137
000110 16 64 92 3d 91 ef 8c bd 4e e3 24 3d fd 88 3a 3c
       0.07147996 -0.06881631 0.040255837 0.0113852
000120 82 d7 c1 3c 0a cb a3 bd 57 24 a9 bd 9c 1e 10 3c
       0.023662332 -0.07997711 -0.082588844 0.00879636
000130 4d 0d 08 3e 3a d3 04 3e 87 a9 49 3d 19 f2 b4 3d
       0.13286324 0.12971202 0.04923394 0.08835239
000140 d2 90 b3 3d 92 1e d3 3d 53 0e ca bd c5 80 47 3d
       0.08767857 0.10308565 -0.098660134 0.04870679
000150 d0 18 05 3e 68 dd 20 3c e5 ae 29 bd ee 5a f7 3d
       0.12997746 0.009818412 -0.041426558 0.1207789
000160 dc 73 92 3c d4 86 8a 3d 10 b0 b5 bd a2 b9 31 bd
       0.017877512 0.06763998 -0.08871472 -0.043389924
000170 18 a1 ee 3d e4 0c 3e 3c 8f 9f b1 3d 4b 30 4f 3d
       0.1165182 0.011599753 0.086730115 0.050583165
000180 e9 02 61 bd cf 8d 4d bd 6a f7 c6 bd bb e4 c2 bd
       -0.054934416 -0.050184067 -0.09715159 -0.09516283
000190 4c 18 9c bd 02 2a a0 bd 0d 59 30 3d d7 93 60 3d
       -0.07621822 -0.07820512 0.043053675 0.05482849
0001a0 cc 63 7e 3a 5e 7e 58 bd be c0 09 3e 86 3b bf bc
       0.0009704202 -0.05285489 0.13452432 -0.023343813
0001b0 bf e9 6c bd cb 28 14 bd 00 9c dc bd 1b 6a 07 3e
       -0.057840105 -0.036171716 -0.10771942 0.1322407
0001c0 d6 3a 80 bd 08 c7 4a 3d 03 e9 be 3c cf 3c e5 3c
       -0.06261222 0.049506217 0.023304468 0.027983097
0001d0 c0 47 9b 3d f7 2a ca bd e4 5f ab 3d ff 68 47 bd
       0.075820446 -0.09871476 0.08367899 -0.048684116
0001e0 c4 26 6f 3c 92 5d 94 bd ed 24 df 3d 94 ec a6 3b
       0.014596645 -0.072444096 0.10895715 0.0050941203
0001f0 b9 2a 17 bd 10 f1 e2 3d af 63 b7 3d 3d 23 ad bd
       -0.036905978 0.11081135 0.0895456 -0.08453987
000200 e4 13 2f 3d 61 ac f9 3d c6 95 f3 bd ca 01 0b 3d
       0.04274358 0.12191082 -0.118938014 0.033937253
000210 38 65 ac bd 1a b6 7c bd 9b 88 49 3c 78 21 9d bc
       -0.084177434 -0.061697103 0.012300636 -0.019180998
000220 a8 b7 9e bd a0 f3 0e 3d 24 de 16 3c 88 5b db 3d
       -0.077498734 0.034900308 0.009208236 0.107108176
000230 ea f9 6f bd 6e ed fa bd 02 dd 90 bd 2f 36 22 3d
       -0.058587946 -0.12252317 -0.07073404 0.039602455
000240 3e d1 d7 bd b8 31 25 bd 44 9d 0c bd c5 33 45 bd
       -0.10537957 -0.04033062 -0.034329668 -0.048145074
000250 66 32 07 3e 02 ad ea 3d ac b6 9a bc 46 e2 51 bd
       0.13202819 0.1145878 -0.018885933 -0.05124118
000260 dd 0b e2 3d 84 5f ad bd 39 75 04 3d aa 2d fb bd
       0.11037419 -0.08465484 0.032338355 -0.12264569
000270 81 22 ba ba ab 9e c0 3b 14 3a 30 bc 85 ee b2 bd
       -0.0014200957 0.0058782897 -0.010756034 -0.087369
000280 dc 2e 05 3e 36 b5 0d 3e e8 5c 0f 3d 41 71 16 3d
       0.13006157 0.13838658 0.03500071 0.0367291
000290 52 27 0c bd ff f4 8f 3d e3 51 d6 3d 1e 7e 93 3d
       -0.034217186 0.07029151 0.104648374 0.07201789
0002a0 be e2 a3 bd fe c5 50 bd 0a 6f de bd c0 05 d9 bd
       -0.08002232 -0.05097007 -0.10861023 -0.105968
0002b0 c5 fe 75 3d e9 f8 e9 3d 33 dd 2c bd 3a 1c d4 b8
       0.06005742 0.11424429 -0.04220314 -0.00010114205
0002c0 15 18 bc 3d 51 30 97 bc c5 c6 c6 3d d6 7a f2 bd
       0.09184281 -0.018455656 0.09705881 -0.11839835
0002d0 82 a7 64 3c 4f 13 38 3d 66 3c 66 3d 8a b7 e1 bd
       0.013955953 0.04494029 0.056209944 -0.110213354
0002e0 86 90 60 3b 4d ff 94 bd e4 25 d6 3c 3d 45 c9 bd
       0.003426583 -0.07275257 0.026141115 -0.09827659
0002f0 30 b2 b1 3d f3 c9 da 3c 74 85 04 bd d5 24 20 3d
       0.08676565 0.026707625 -0.032353833 0.039097626
000300 69 bf df 3d 6a 0d 8c bd 28 9c a4 bd 51 92 b4 bb
       0.109251805 -0.06838496 -0.08037597 -0.0055106063
000310 98 10 63 3d 32 8e 6b bc b1 75 64 3c 32 60 76 3d
       0.055435747 -0.014377164 0.013944075 0.060150333
000320 47 ea aa 3d 3f 8e ba bd f0 0c 1a 3d 1e 49 d8 bd
       0.08345466 -0.091091625 0.037609994 -0.10560821
000330 68 d5 da bd 44 99 d6 3d 7d 28 b6 3d fc f4 1c bd
       -0.10685235 0.10478452 0.08894441 -0.038319573
000340 4c 7b 6a 3c ad a2 95 3d da 35 c5 bd b4 68 34 bd
       0.014311623 0.073064186 -0.09629412 -0.044045165
000350 a8 38 be 3d 2c aa 60 3d f0 5e 4e bd 4c 09 b3 3a
       0.0928815 0.05484979 -0.05038351 0.0013659387
000360 5a 5d e2 bd 65 53 c1 bc 00 69 0d bd bd d6 a0 bd
       -0.11052962 -0.023599336 -0.034523964 -0.07853458
000370 db 91 e3 bc 80 02 92 bd 74 d5 e3 3d 7f 12 ce 3d
       -0.02777951 -0.07129383 0.11124697 0.100621216
000380 83 5e 14 bd b7 24 66 3d 3e 0c e1 bd 3d a1 9f bd
       -0.036222946 0.056187358 -0.10988663 -0.07794426
000390 59 05 63 3d b1 28 6c bd 9e ed a3 bd 14 c7 84 bb
       0.05542502 -0.057655994 -0.08004306 -0.0040520523
0003a0 31 6a 79 bd d0 5b e7 bd 50 2a f3 bd 6a ad 8d bd
       -0.060892288 -0.11296809 -0.11873305 -0.06917842
0003b0 23 f4 3e bc 6d 98 7b 37 2b f1 a0 bd e2 d9 42 bd
       -0.011654886 1.4996255e-05 -0.07858499 -0.04757107
0003c0 f9 94 ea bd 58 ea 8b bd 12 c3 c8 3c 10 00 5f bd
       -0.114541955 -0.06831807 0.02450708 -0.05444342
0003d0 7e 6a e1 3d 90 ed a7 bd 04 57 a0 bc 6c 5b ce bd
       0.1100664 -0.08199608 -0.019572742 -0.10076031
0003e0 50 c6 d8 bd 1c 2d b9 3c 8a ba bb bc 77 ea bf bc
       -0.105847 0.022604518 -0.022916097 -0.023427231
0003f0 46 35 ff 3d 51 9b 82 3c f4 68 10 3e 9f 24 36 bd
       0.12461333 0.015943201 0.14102536 -0.04446852

weight f4 [128, 256]
000000 5d 42 7d bd 98 2b 1f 3d c6 26 39 bd 5a 87 21 bd
       -0.061830867 0.038859934 -0.045202993 -0.039435722
000010 0c 32 41 bb 6a 8b 7e bb 29 c2 3a bd b6 98 4d 3d
       -0.0029479293 -0.0038840421 -0.04559532 0.050194465
000020 14 bd 0c bd 4d 5a a2 3b d9 d5 57 3c a4 51 48 3d
       -0.034360006 0.0049546123 0.013173544 0.048905984
000030 f0 3c 57 3d a8 5d 1a 3d f8 58 41 3d 72 38 3c 3d
       0.05254835 0.037686974 0.047203988 0.045952268
000040 1f 8d 02 3c f3 e9 fa 3c 6c bc 3d bc 54 8b 67 3d
       0.007968216 0.030629134 -0.011580568 0.056529358
000050 d8 08 5e 3d fe a1 44 bd a3 a6 7c bd 5c 46 dd 3c
       0.054207653 -0.04800605 -0.061682355 0.027011089
000060 32 45 22 3b 04 5e 2f 3c f9 bd 85 bc e8 17 2f bd
       0.0024760482 0.010703567 -0.016325938 -0.04274741
000070 02 5c 60 ba f0 cf 81 ba 0f 54 3c 3d 36 13 cd 3c
       -0.0008558632 -0.0009903889 0.045978602 0.025033575
000080 c7 1e 53 bd f3 fa 02 bc 21 be 74 3d 85 b6 0b bd
       -0.051543023 -0.007994401 0.059751634 -0.03410961
000090 cf 2d 4e 3d 0d e9 c6 3c 40 7b 1e bb 03 68 04 3b
       0.050336655 0.02428105 -0.002418235 0.0020203597
0000a0 2d 30 b9 bc 70 7f 53 3d ec d9 1c 3c ba 26 95 bc
       -0.02260598 0.051635206 0.009573441 -0.018206943
0000b0 58 bc fb 3b 89 95 4c bd 94 a1 32 bc fc c0 7e 3d
       0.0076823644 -0.049947295 -0.010902781 0.062195763
0000c0 ec f5 0a 3d 44 8b 8e bb 5b 47 62 3c ef 5a f9 3c
       0.033925936 -0.004350098 0.013810958 0.030438868
0000d0 29 9d 00 3a 1a 6c 73 3d 96 4c 81 bc 15 cb ba 3c
       0.0004906231 0.059429266 -0.01578359 0.022801915
0000e0 26 4f 8e 3b 57 96 ce bb a3 c9 00 bc 25 0f 49 bd
       0.0043429313 -0.006304543 -0.007860574 -0.04908671
0000f0 82 85 e3 bc 8d 9c 14 3d 0c 8c 80 bc 82 c0 4d 3c
       -0.027773622 0.03628211 -0.01569178 0.0125581045
000100 31 c7 35 bd f5 1a 9a bc 68 ab 72 bd 75 8c 4f bd
       -0.044379417 -0.018811682 -0.059245497 -0.05067106
000110 60 0b 66 3c 14 0d 0a 3c bc 45 57 bd b7 c0 17 bd
       0.014040798 0.00842597 -0.05255674 -0.03704902
000120 3e f8 ed bc 7e b8 55 bd 84 ff 67 bd 74 a5 27 3d
       -0.029049035 -0.0521779 -0.056640163 0.040929273
000130 6d 0e a8 bb 25 29 5b 3d 6c aa a8 bc e6 fa e7 bb
       -0.005128673 0.053506035 -0.020589076 -0.00707947
000140 28 2e b2 bc c6 44 42 bd 06 e4 1b ba c5 3f 71 3d
       -0.021750525 -0.04742887 -0.0005946759 0.058898706
000150 b4 6a 41 bd 0e 18 73 3d 86 94 1a bd 56 10 2e 3d
       -0.0472209 0.059349112 -0.0377393 0.042496048
000160 28 0f 7f bd c4 46 75 3c 8c 4d 99 bc cb 38 bf 3c
       -0.062270314 0.014970485 -0.018713735 0.02334251
000170 e0 e9 23 3d 90 41 8e 3c 95 de 5b bd 35 3d e5 bc
       0.040017962 0.017365247 -0.053679068 -0.027983287
000180 a9 11 d8 3c c9 e1 07 3d 66 fa 2a 3d 66 34 ad 3c
       0.026375609 0.03317431 0.041742705 0.02114315
000190 24 59 58 bd 9a a5 76 bd 91 61 fb bc 04 32 21 bd
       -0.052819386 -0.060216524 -0.030686172 -0.03935434
0001a0 f5 31 8d 3c e0 01 5f bd ba c1 d5 bb 19 1c 3c 3d
       0.017235735 -0.054445148 -0.006523338 0.045925234
0001b0 0e 3d 6d 3c 29 45 fd 3c 04 4b 86 3c 96 9b 1d bc
       0.014479889 0.030916767 0.016393192 -0.009619614
0001c0 44 57 bc 3c 37 07 15 3c 7b 1c 09 bd 5f ab d8 3b
       0.02299083 0.009095958 -0.033474427 0.006612226
0001d0 13 17 dd 3c 63 2b 21 bd de 35 62 bc c7 53 3d bb
       0.026988542 -0.039348017 -0.013806788 -0.0028889047
0001e0 78 32 95 bc f6 a2 fe bc 14 e1 87 bc b4 ea ba bc
       -0.018212542 -0.031083565 -0.016586818 -0.022816993
0001f0 b2 3b 4a bc 40 b3 10 3d fb 41 03 bd 3d d4 77 bc
       -0.012343334 0.035327196 -0.032045346 -0.015126285
000200 8d e1 67 bd 81 fc fe bc 34 65 1d bd fc bd c4 3c
       -0.056611586 -0.031126263 -0.038426593 0.024016373
000210 08 7f 6f bd 47 6a 18 3d 5d 73 b5 3c fe 25 22 3d
       -0.058470756 0.03721073 0.022149736 0.039587013
000220 6a c8 2c bd 46 a5 2e 38 22 d4 c3 bc da 1d 44 3d
       -0.042183317 4.1638756e-05 -0.023904864 0.04788003
000230 a3 39 96 bc 1c 88 23 3d 82 51 7b b8 0a be 34 3d
       -0.01833803 0.039924726 -5.9918973e-05 0.044126548
000240 a8 12 16 bd 9e 77 c4 3c b4 8b 28 3d 51 f6 2e 3d
       -0.036638886 0.02398282 0.041148856 0.042715374
000250 e5 8e 6f bd fa 8c 06 bd 52 fa 51 3d d4 92 32 bc
       -0.058485884 -0.03284929 0.051264115 -0.010899264
000260 f4 d0 03 bd 32 08 ee bc cb 9c ce bc 6c 5a b4 3c
       -0.032181695 -0.029056642 -0.02522125 0.022015773
000270 cc 2e 12 bd aa 5f 0f bc d5 44 2f 3d e7 30 10 3d
       -0.03568916 -0.008750835 0.042790253 0.035202887
000280 f3 44 46 3d 3a 18 68 bc 6b 1b 22 bd 64 2f b8 bc
       0.0484056 -0.014165932 -0.03957693 -0.022483535
000290 3d 0d bc bb 21 13 74 bd fc c8 53 bc 49 95 63 3d
       -0.005738883 -0.059588555 -0.012926336 0.05556229
0002a0 1a db 3d bd 84 d5 29 bc 58 ab 0b 3d fa da 47 bc
       -0.04635153 -0.0103658475 0.034098953 -0.012198204
0002b0 f0 19 76 bd 5d c9 ed 3c c6 9b aa bc 36 a4 74 bd
       -0.06008333 0.029026682 -0.020826232 -0.059726916
0002c0 35 f9 87 3c fa 59 fa ba f0 f2 1f bd ca e9 47 3d
       0.016598323 -0.0019100301 -0.039050043 0.048806943
0002d0 26 60 9d bc d8 59 24 bc c2 f6 3d 3d 82 46 70 3d
       -0.019210886 -0.010031186 0.046377905 0.05866099
0002e0 6f a5 24 3c 3f 81 ec 3c d2 00 7c bc d7 03 2f bd
       0.010049208 0.028870223 -0.015381055 -0.04272827
0002f0 4e 2d 49 bd e3 14 2b bd 18 e6 40 bd c1 dc 36 3d
       -0.04911547 -0.041767966 -0.047094434 0.04464412
000300 15 82 77 3d 32 a2 04 3d 92 8a 6a 3c 71 d7 9a bc
       0.06042679 0.032381244 0.014315264 -0.018901559
000310 6e a8 6c 3d 7a c1 0b bd 30 f4 4c bd ce 59 72 3d
       0.057777815 -0.03412006 -0.050037563 0.059167676
000320 48 b2 60 3d dc 60 87 3b 11 69 f8 3a 3c ac 79 bd
       0.054857522 0.0041314196 0.0018952211 -0.06095527
000330 f0 b8 02 3d b2 a6 7f 3d 45 31 0e bd dc 94 4d 3d
       0.03191465 0.062414832 -0.034714956 0.05019079
000340 04 bc 3b 3d c6 1f 47 3d b5 ce 29 bd 11 ea fd bc
       0.045833603 0.048614286 -0.041456897 -0.0309954
000350 66 57 ef bc 1b 9c 52 3d 9a 65 66 bd c4 a7 3f 3c
       -0.02921648 0.051418405 -0.05624924 0.011697713
000360 30 ad 14 3d 8e c7 29 bd aa fd f6 3c 51 37 f7 bc
       0.036297977 -0.041450076 0.030150253 -0.030177744
000370 96 a7 6e 3d 66 ce 7b bd 36 7a 4b bd c9 46 67 3d
       0.05826529 -0.061476134 -0.049677096 0.05646399
000380 05 f5 02 bd 81 d0 dc 3c d4 a2 55 3d 78 09 d3 ba
       -0.03197195 0.026954891 0.052157238 -0.0016100844
000390 55 c6 67 3d 56 83 34 3d 34 24 1a bc ba e1 d8 bb
       0.05658563 0.044070564 -0.009408046 -0.0066187056
0003a0 33 5c 7a 3d ce e9 4e 3d dc 44 11 3c 38 a9 70 bd
       0.061123084 0.050515942 0.008866515 -0.05875513
0003b0 d4 05 2e b9 55 65 0a bd 54 68 37 3d 66 83 58 bd
       -0.00016596104 -0.033788044 0.04477723 -0.052859686
0003c0 39 2b 23 3d ec dc 15 bc 68 c7 79 3c 0b b0 3e bd
       0.039836142 -0.00914691 0.015245296 -0.046554606
0003d0 11 44 4b bd 66 32 02 3d fc 1b 64 3d 3a 5c 4d bd
       -0.04962546 0.031786345 0.05569075 -0.050136782
0003e0 70 14 0c bd 18 54 81 bc 92 e9 63 3d 12 d5 68 3c
       -0.03419918 -0.01578717 0.055642672 0.014210956
0003f0 5b 5d 80 3a ee f1 48 3d 0f f4 30 bc 65 54 5e 3d
       0.0009793447 0.049058847 -0.010800376 0.054279704

bias f4 [128]
000000 20 25 8d bc 24 b6 1f bd b3 28 d6 bc cf 03 a8 3d
       -0.017229617 -0.038992062 -0.026142454 0.082038514
000010 d2 39 9c 3c ed 04 f4 bc 04 9d 13 3c 51 bc 85 3c
       0.01907054 -0.029787505 0.009009603 0.016325148
000020 e5 35 a5 bc 38 3e 86 3d 20 d6 5a 3d 48 a8 60 3c
       -0.0201673 0.06554836 0.05342686 0.013711996
000030 7e ba 8e 3a b1 d9 72 bd 3f 38 0d 3e 22 90 c5 3c
       0.0010889319 -0.059289638 0.13790987 0.02411658
000040 a8 4e 0a 3d 6d 23 59 3d 66 60 50 3d ca 5a ee 3c
       0.03376642 0.0530123 0.050873183 0.029096026
000050 ed 9e 34 3d 6d 7e ba bc 0d b1 1b bd c5 ba 04 bd
       0.044096876 -0.022765363 -0.038010646 -0.03240468
000060 c1 0e b8 3d b1 3b 29 3d 98 95 3d bd 67 ed 74 3d
       0.08987189 0.04131669 -0.04628524 0.059796717
000070 f1 93 79 39 6c e3 7f 3d c7 fc 36 bd d9 3d 85 3c
       0.00023801603 0.062472746 -0.04467466 0.016264843
000080 4f ca 40 3b 72 03 41 bd d1 c8 a7 bc 0d 2e d1 3d
       0.002941746 -0.047122426 -0.020481499 0.102138616
000090 db 4f 0d bd 0b cc 2f 3d 7e e4 55 bd 91 2f b6 3c
       -0.034499984 0.0429192 -0.05221986 0.022239478
0000a0 86 cc 03 bc 6c ef c0 3b 21 66 08 bc 23 01 60 bd
       -0.008044368 0.0058879163 -0.008325131 -0.054688584
0000b0 cd 5a 2e bd 37 19 71 bd 1c 69 73 3d 0f 90 47 3c
       -0.042567063 -0.058861937 0.059426412 0.012180342
0000c0 ac 1d 9b 3c 5c ac 34 bd e2 c7 c8 3d 5f 28 fe 3c
       0.018935047 -0.044109687 0.098037496 0.03102511
0000d0 75 f1 51 bd ef bb 29 3d f9 ef 98 3d fa a8 9d 3d
       -0.051255662 0.041438993 0.07467646 0.07698245
0000e0 6e f3 f8 3b 3b b9 40 bd f3 40 36 bd ca 94 95 3c
       0.0075973785 -0.04705165 -0.044495534 0.018259425
0000f0 8e 7b ab bc 76 03 0e bb f3 e6 24 bd 82 52 29 3d
       -0.020932939 -0.0021669543 -0.040259313 0.04133845
000100 b2 e0 27 3b 99 4e 99 3d 92 bd 75 bd 1d 77 c9 3b
       0.0025616107 0.074856944 -0.05999524 0.0061482326
000110 a9 2a 9f 3d b1 23 ba 3c 8e 56 53 bd 4f f4 97 3d
       0.07771809 0.022722097 -0.051596217 0.07419645
000120 be 95 2f 3d c2 ae e5 3d 24 ed f1 3c ba ac 09 3d
       0.042867415 0.11214973 0.029532023 0.03361199
000130 8c 9e 3c 3d 2c 79 6f bd ed 39 72 bd a3 95 30 bc
       0.04604964 -0.058465168 -0.059137274 -0.010777864
000140 6c 1b a2 bc 05 5a 87 bb 56 36 c2 bc 6b 88 93 3d
       -0.019788466 -0.004130604 -0.02370755 0.07203754
000150 a8 de 04 bc f3 0a 73 bd 6b 6e 0f bd 81 ca 47 3d
       -0.008109726 -0.059336614 -0.035017412 0.048777107
000160 ec ca 8b bc 80 02 08 3d 10 d7 9d 3c 62 14 43 bd
       -0.017064534 0.03320551 0.019267589 -0.04762686
000170 b5 e0 57 bd 3d ef 61 3d fd 7e 7a 3b c2 d3 4c 3d
       -0.05270453 0.055159796 0.0038222664 0.050006635
000180 de 5d 4f bd d4 4b 6f 3d 6f 42 14 bd 36 5c c2 3c
       -0.050626628 0.058421925 -0.03619617 0.02372561
000190 47 7d af bc fe 1d 0f 3d 65 3a 42 bc 6c 06 28 3d
       -0.021422042 0.034940712 -0.011854743 0.04102175
0001a0 1c 99 cd bb 90 d4 f9 3c d4 25 17 3d 34 42 86 bc
       -0.0062743556 0.030496866 0.03690131 -0.01638899
0001b0 63 a1 7f 3d da 05 46 bd 40 88 16 3d 4e 6d 61 3b
       0.06240977 -0.048345424 0.036751032 0.0034397426
0001c0 2c 96 fe 3c b8 ac d0 3d 02 c6 58 bd ef ab 57 bc
       0.031077467 0.101891935 -0.05292321 -0.013163551
0001d0 02 97 81 3b 20 4b cd 3c a1 c8 2e 3d 85 0c 11 bd
       0.003954769 0.025060236 0.042671803 -0.03541233
0001e0 a7 98 c9 3d 70 59 49 3d 0d e9 95 bc 2f 35 a9 3c
       0.09843569 0.04915756 -0.018299604 0.020655243
0001f0 ed 9f ed 3c c0 e7 53 3d 06 00 11 3d 17 e1 3d 3d
       0.029006923 0.051734686 0.035400413 0.04635724

weight f4 [64, 128]
000000 0b d2 8c 3d 8a 88 f8 3c ca 5f 74 bd 08 1c 8e bd
       0.06876 0.030338544 -0.059661664 -0.0693894
000010 5d 7b 90 3d cb 5b 64 3d 67 e9 38 bd 76 9a 05 3d
       0.0705478 0.055751603 -0.045144465 0.03261801
000020 30 c7 93 bd 56 40 a4 3b bc ab ad ba 22 62 aa bd
       -0.072157264 0.0050125523 -0.0013250033 -0.083194986
000030 68 70 e7 3c e4 b3 04 3d cd 17 a5 3d c2 71 a5 3c
       0.028251842 0.03239812 0.0806118 0.020195846
000040 5e 62 9b 3d e2 a8 34 3d 08 12 70 35 c8 80 93 3c
       0.075871214 0.04410637 8.9433206e-07 0.018005744
000050 f8 b5 e3 bc d1 38 98 3d 26 cd ea 3a 50 19 a5 3d
       -0.02779673 0.07432712 0.0017913922 0.080614686
000060 8f be ae bd 88 2d 4c bd f8 2f 88 3d e0 48 1a 3c
       -0.0853244 -0.04984811 0.06649774 0.009416789
000070 1d 8c 13 bd ab 4b 3b 3d 28 3f fc bc 8b a2 b0 3d
       -0.036022294 0.04572646 -0.030791834 0.086247526
000080 0e 80 e5 bc 1b 21 9b 3d 2c e8 f1 3b c6 b9 a0 bc
       -0.028015163 0.07574674 0.0073824134 -0.019619834
000090 49 89 fc bb d3 7f a4 bd 4b 0e 23 3d 65 a0 85 bd
       -0.0077067954 -0.08032193 0.039808553 -0.065247335
0000a0 bc f7 87 3d d1 2a 5b bb 97 21 2a 3d 88 03 af bd
       0.066390485 -0.0033442269 0.04153594 -0.085455954
0000b0 74 80 71 3d 15 a8 70 3c 99 ed 7e 3d 12 69 6d bd
       0.058960393 0.014688511 0.06223831 -0.05796153
0000c0 e8 0c 59 bd 8b e6 83 bd e8 f9 a3 3d f5 38 37 bd
       -0.052990824 -0.06440457 0.0800665 -0.044732053
0000d0 33 b4 1f bd 31 a8 b3 3d 6a 19 8c bd e9 59 90 3b
       -0.03899021 0.08772314 -0.06840785 0.0044052494
0000e0 d9 00 2e bd 09 6c 7e 3c 29 a8 84 bd 16 29 6a 3d
       -0.042481277 0.015528687 -0.064773865 0.05716809
0000f0 79 57 95 bd 67 5c 7b bd 69 f1 03 bd e0 79 87 3c
       -0.07292075 -0.06136742 -0.03221265 0.016537607
000100 52 3c eb bc e0 e7 81 3d 39 8d e7 bc 05 56 0f bd
       -0.028715286 0.06343055 -0.028265582 -0.034994144
000110 1b 14 a8 3c 1e 3e 4b 3d 1a 05 90 3d 0f 3c 9c 3d
       0.0205174 0.049619786 0.07032223 0.07628643
000120 14 1f 0d 3d ab 96 3d bd bf 96 90 bd 58 34 a6 3d
       0.034453467 -0.046286266 -0.070600025 0.081154525
000130 49 63 50 3d 96 84 6c bd d5 93 9f bd b4 c7 32 bc
       0.050875936 -0.05774363 -0.077918686 -0.010911871
000140 41 b5 a1 bd 0c e8 10 3c ce 39 01 bd cd 3c 3d 3d
       -0.078958996 0.008844387 -0.031549267 0.046200562
000150 09 1f 4c bd a0 02 04 3a c5 66 7f bd e3 8c b1 3c
       -0.049834285 0.00050357915 -0.062353868 0.021673625
000160 34 6f 68 3c 5c 2c 49 bc b1 ae f0 ba 03 7c b0 3b
       0.014186669 -0.0122786425 -0.0018362609 0.005385877
000170 ae 39 98 3b 3b 35 b1 3c 87 26 b4 bd 42 9c b0 bd
       0.004645548 0.021631828 -0.08796411 -0.08623554
000180 86 09 c5 bc 52 93 71 3c 72 0c c3 3b d7 9f 33 bd
       -0.024052393 0.014744597 0.0059524113 -0.043853607
000190 b3 f7 34 bd 52 ea ce 3b 74 72 e8 bc e8 93 b2 3d
       -0.044181537 0.0063145543 -0.028374888 0.08719617
0001a0 7c b0 26 bd d3 b7 31 bd d5 ff 9f 3d cf a0 99 bd
       -0.040695652 -0.0433882 0.07812468 -0.07501375
0001b0 09 a2 a1 bd 70 5d 62 3d 7a c0 9c 3d c3 62 26 bd
       -0.07892234 0.05526489 0.076538995 -0.04062153
0001c0 4c 6f 1c 3d b7 d0 bd 3c 90 21 36 3c 85 a0 a1 bd
       0.03819208 0.023170812 0.0111164 -0.07891945
0001d0 d0 b3 09 3d a2 55 19 bd d8 52 7a 3d a6 62 25 3b
       0.03361875 -0.03743518 0.061114162 0.00252358
0001e0 a1 06 3e bd da f7 63 bc c0 15 43 3c a9 f0 8b 3c
       -0.04639304 -0.013914073 0.011907041 0.01708253
0001f0 db f7 a0 3d 16 11 bb bc e3 45 4d bd 04 61 36 3d
       0.07859775 -0.022835296 -0.050115477 0.044526115
000200 a5 28 21 bc dd b7 14 bd 14 94 26 3d 05 6f 30 bc
       -0.009836351 -0.03630816 0.040668562 -0.010768657
000210 0d e8 95 3d de 80 09 3d ba b2 7d 3d fb 1a a2 bd
       0.07319651 0.033570163 0.061938025 -0.07915302
000220 ba 68 74 3c f8 5e 6d 3d d9 4a cd bb 3e f4 0e bd
       0.014917547 0.057951897 -0.006265026 -0.034900896
000230 fd 15 48 bd 11 21 af 3b 3d 99 96 3d 97 3a 97 3d
       -0.048849095 0.005344518 0.07353447 0.07384222
000240 10 75 c0 bc 1e 7f 3b bd b4 bd 9c 3d 08 23 1c 3d
       -0.02349332 -0.045775525 0.076533705 0.038119346
000250 0b df 9f 3d 77 9d ad 3d 08 25 ab bd 0f 7c 4b bd
       0.07806214 0.084773 -0.083566725 -0.04967886
000260 09 2e 84 3d f7 d5 af bd e0 ca a3 ba 99 74 ce 3c
       0.06454093 -0.085857324 -0.0012496375 0.025202082
000270 88 c3 14 3d f0 18 5c 3d 76 d9 74 bd 39 64 4d 3c
       0.036319286 0.05373472 -0.0597777 0.012536102
000280 33 25 0b 3d d3 b2 6e 3c 31 24 af bc 6e 04 d9 bc
       0.033971023 0.014569002 -0.021379562 -0.02649137
000290 ce 97 5d 3c 2f 4b 1e 3c 44 3b c7 3b ab 0a 5c bd
       0.013524963 0.00966148 0.006080063 -0.05372111
0002a0 26 75 d9 bc 6e 72 ab 3c bf ac 67 3d 52 41 78 3b
       -0.026545119 0.020928588 0.056561228 0.003788073
0002b0 7a fe 96 3d 9a 4d 8d bd 2d d6 cd 3d e8 fc 93 bd
       0.07372756 -0.06899567 0.100506164 -0.072259724
0002c0 76 69 e3 bc 8f 0f 41 3c 9a 53 d8 3d 21 b5 78 bc
       -0.027760249 0.011783495 0.10562821 -0.015179903
0002d0 bc bc 0a bc d9 dd 43 3c 27 05 d4 bc 14 1e 80 3d
       -0.008467849 0.011954748 -0.025881363 0.06255737
0002e0 c4 c4 9c bd 7d 2b a0 bc b8 5e 4e bc dc c6 30 3d
       -0.076547176 -0.019551987 -0.012595825 0.043158397
0002f0 4f 94 5a bd fd df 93 39 0c e5 e3 3a 0d bd ea 3c
       -0.053364094 0.0002820491 0.0017386987 0.0286546
000300 6f 61 37 3d 59 43 e3 3d 92 a0 8f 3d 27 cd 87 3a
       0.044770654 0.1109683 0.07013048 0.0010360823
000310 dc 7c f8 3c 95 ac 1e 3d c2 4a 1d 3d 03 93 6f bc
       0.030332975 0.038738806 0.038401373 -0.014622453
000320 62 80 d2 3d 08 a3 53 3d b0 6c 75 bc e5 d5 74 bd
       0.10278393 0.05166915 -0.014979526 -0.0597743
000330 7c b6 9b 3c bc 6e 40 bd fd 27 20 3d 5f 72 ff 3b
       0.019007914 -0.046980605 0.039100636 0.0077956165
000340 37 e9 26 bc b1 d0 79 ba dd 64 0e bd 6f 8d 56 3d
       -0.010187439 -0.00095296936 -0.03476416 0.052380975
000350 7f 63 82 3d 9b d6 f8 3c bf 92 66 bd 64 cd 7e bb
       0.063666336 0.03037577 -0.05629229 -0.0038879747
000360 ac fb bf 3c 4b 28 74 bd 5b 0d 61 3d b9 af 49 bd
       0.023435436 -0.05960874 0.054944377 -0.049239848
000370 05 0d 09 bd 46 af 54 bd 66 7c 89 3d d9 04 3a 3d
       -0.033459682 -0.051924966 0.0671318 0.04541478
000380 98 43 da bc 8d 07 c2 3d 9e 6d 19 3d 32 ed c6 bc
       -0.02664356 0.094740964 0.037458055 -0.024283025
000390 aa dd 1c 3d 71 fd b9 3d 34 90 b1 3d c6 ba 9a bd
       0.038297333 0.09081543 0.08670083 -0.075551555
0003a0 57 99 02 3c 24 5b 99 bd b0 a5 62 3d d5 17 85 bd
       0.007971129 -0.07488087 0.055333793 -0.06498686
0003b0 7e 28 fe 3c f4 43 af bd ac 8a 2a 3d c2 15 84 bd
       0.031025168 -0.08557883 0.041636154 -0.064494625
0003c0 5b 08 95 3d 1e 77 9d 3d 49 fa 46 3d 86 f3 13 3d
       0.07276984 0.076887354 0.048578534 0.036120914
0003d0 ad 4c 01 bd 43 b8 67 bb 81 dc 78 bc 7a 87 0c b9
       -0.031567264 -0.0035357631 -0.015189291 -0.0001340191
0003e0 3f 5f e2 3d 13 90 3f 3d 7e f4 41 bd b3 08 b7 3d
       0.11053323 0.04676826 -0.047352307 0.08937206
0003f0 4f 9c 14 bd 80 99 96 3c 9e 44 a9 bd 90 67 49 bd
       -0.03628188 0.018383741 -0.08265041 -0.04917103

bias f4 [64]
000000 03 3e 4c bd 37 c2 18 3e 30 96 e9 3d 2f af 1b bb
       -0.049863826 0.14917837 0.11405599 -0.002375554
000010 cb ef 79 bd 3e 8a 00 3e 19 c6 b3 3d 4e 57 52 3d
       -0.0610197 0.12552735 0.087780185 0.05135279
000020 29 6e b7 bd b1 05 56 bd 14 3c aa bd c1 87 41 bd
       -0.08956558 -0.05225152 -0.0831224 -0.047248606
000030 88 56 ad bb 81 ed 00 3d 84 8b 80 3c 63 e1 1e bd
       -0.0052898563 0.0314765 0.015691526 -0.038789164
000040 1a db 87 3d 20 c6 18 3d 31 a6 53 3d ab d1 42 3e
       0.06633587 0.03729832 0.051672164 0.19025294
000050 8e 31 50 bc c0 12 5d 3c bf c1 b9 3d be 4f 15 bd
       -0.012707127 0.01349324 0.09070157 -0.036453
000060 34 2c 02 bb 2a d0 5a bc 82 59 a3 bd cf 81 07 3d
       -0.0019862773 -0.013355294 -0.07976057 0.03308278
000070 8f a1 d7 bc 33 fd 8f bd dd 1f e8 3d d8 61 87 bd
       -0.026322154 -0.07030716 0.113342024 -0.06610459
000080 b5 be 06 3e a9 68 6b bd ac 56 1a 3a 71 dc 3f 3c
       0.13158686 -0.05747286 0.0005887549 0.011710272
000090 ab 6f 8f bd c1 f5 aa bd 97 13 64 3e a1 92 cd bb
       -0.07003721 -0.08347655 0.22273098 -0.006273583
0000a0 e3 95 ea 3d 95 6f 2c 3d 61 9a 9f bd f7 75 37 bd
       0.1145437 0.0420986 -0.07793117 -0.044790234
0000b0 88 38 9c 3c cb bd 31 3d ef ed 80 3b 23 ed ef 3d
       0.019069925 0.04339389 0.003934614 0.11715152
0000c0 5a dc 3f bb c0 b4 6c 3d 68 d9 9b bd da 97 68 3d
       -0.0029275627 0.057789564 -0.07609826 0.056785442
0000d0 e4 4a 18 3e 9a 6e 7c 3d 92 e4 92 3d ce 1d eb 3a
       0.14872319 0.061628915 0.071725026 0.001793796
0000e0 d0 3c ad 3c 1a 52 a2 ba 9f 6f a5 bd 15 a7 00 3e
       0.021147162 -0.0012384087 -0.08077931 0.12563737
0000f0 04 3a 43 3e 92 61 2f 3b ab 1d 80 3c 09 07 bc 3d
       0.190651 0.0026761037 0.015639147 0.09181029

weight f4 [2, 64]
000000 58 bc f3 bc 94 fb 0d 3e 30 fb cd bb c1 0b b9 bd
       -0.029752895 0.138655 -0.0062860474 -0.09035445
000010 78 ad e5 3d 70 33 3c 3e 4f f0 7d 3d 6e 6b 97 bd
       0.11214727 0.18378997 0.061996754 -0.073935375
000020 41 e6 90 bd 5a 6c 99 bc da 15 95 3d 0a a9 84 bd
       -0.070751674 -0.018728424 0.072795585 -0.06477554
000030 1b 43 d7 3d ad 0a 52 3e a3 cd 2b bd a3 9e 35 3b
       0.10510846 0.20511885 -0.041944157 0.0027712963
000040 07 91 be 3d 60 22 bb bd b7 9d db bd 34 14 5c 3e
       0.093050055 -0.09137416 -0.10723441 0.21492082
000050 0b 41 05 3e 25 be f5 bb f6 82 27 3e e6 42 75 3d
       0.13013093 -0.0074994736 0.16358551 0.059878252
000060 74 4e 8a bd d9 d9 81 3d b7 3e ad bd 2a 77 8c 3c
       -0.06753245 0.06340379 -0.084592275 0.017146666
000070 8c 5f 45 3d 34 54 cb 3c 6e 0a 7e 3e 7e 86 5f 3c
       0.048186824 0.024820425 0.24808666 0.013642905
000080 64 c4 83 3e b1 71 05 bd f5 ec c2 3d 83 3d 08 bd
       0.25735772 -0.032579128 0.09517852 -0.033261787
000090 74 3c 58 3c bc 0a b3 3d d8 a3 80 3e 3b f3 dd 3c
       0.013198007 0.08742282 0.25125003 0.02709352
0000a0 e4 f6 9f 3d 45 23 e7 bd 2d 35 ae bd 00 64 36 bd
       0.078107625 -0.11286024 -0.08506236 -0.04452896
0000b0 16 99 11 3e aa 50 5a 3d 60 ef 4b 3d b4 d8 14 3e
       0.14218554 0.053299583 0.049788833 0.1453579
0000c0 0b 5c c0 bd 6a 08 69 3d e9 75 61 bd 62 09 1a 3d
       -0.09392556 0.05689279 -0.05504409 0.037606604
0000d0 93 13 84 3d e3 1e 41 3b 0b 1b fe 3d 0d b4 5b bd
       0.06449046 0.0029467873 0.12407502 -0.053638507
0000e0 f9 19 30 bc 3b 70 11 bd 45 3e 77 bd 75 20 58 3e
       -0.01074838 -0.035507422 -0.06036212 0.21106131
0000f0 49 45 56 3e 0c 08 2c 3d f1 ad f4 bd 3a ab de 3d
       0.20924868 0.04199986 -0.11947239 0.108725026
000100 de 15 03 bd fe 9a 77 be da 63 3a be ed 85 d5 3d
       -0.032003276 -0.24180219 -0.18202153 0.10425935
000110 b2 de 8a 3d 6d d9 3b be c8 85 46 bd ae a9 e6 bd
       0.06780757 -0.1834466 -0.048467427 -0.112628326
000120 89 87 f2 3d 01 96 b8 3d 04 3b 1a bc 95 10 d2 3d
       0.118422575 0.09012986 -0.0094134845 0.10257069
000130 d2 6f b6 3d 05 af da bd 0f 09 8d 3d a9 8b 95 bd
       0.08908047 -0.106779136 0.068864934 -0.07302029
000140 73 f9 3d bd 53 80 2e bd a1 9b 99 3d d0 54 1e be
       -0.04638047 -0.04260285 0.07500387 -0.15462041
000150 4b 62 91 3d 82 df 86 bd ff e0 3f be 9b 61 02 3c
       0.07098826 -0.065855995 -0.18738173 0.007957841
000160 32 71 b2 3d 8e 04 f6 3c 22 49 58 bd 8b fc e6 3d
       0.087129965 0.030031469 -0.05280412 0.112786375
000170 b5 52 0e be 7d 66 b2 bd ad eb 45 be 49 e2 e6 3c
       -0.13898738 -0.08710954 -0.19328184 0.028184073
000180 a3 52 87 bd b0 ba 7d 3d b3 14 2c 3c 9c d7 ee bc
       -0.066075586 0.061945617 0.010502982 -0.029155545
000190 62 bb fd bc 57 88 e6 bd a5 d6 3b be c8 b6 a9 bd
       -0.03097314 -0.112564735 -0.18343599 -0.08286816
0001a0 b7 29 65 bd 2c 97 82 bd 2d 43 0a 3c d2 27 b2 3d
       -0.055947986 -0.0637649 0.0084388675 0.08699001
0001b0 46 ec 62 3d fa b3 37 be 0e 3f 23 3d 5b 1d a7 bc
       0.05540111 -0.1793975 0.039855056 -0.02039974
0001c0 56 1c 20 bd 22 98 fe bd 58 34 f9 bd e2 a9 0f be
       -0.039089523 -0.12431361 -0.12168187 -0.14029649
0001d0 0f f4 48 be a5 81 35 be b5 25 0f be 4c 43 d4 bc
       -0.19624351 -0.17725237 -0.13979228 -0.025910996
0001e0 5b d4 c1 3c 8f c5 ab 3d 32 99 7a 3c 13 ae 92 3c
       0.02366083 0.08387291 0.015295314 0.01790527
0001f0 f1 14 db bd dc c9 6d 3c fb e1 17 bc 80 d4 d8 3c
       -0.10697354 0.014513459 -0.009270187 0.026468515

bias f4 [2]
000000 65 ef 38 3f 85 93 1c bf
       0.7224029 -0.61162597
