AutoBalance/results/tvarit_wheel/New_Experiments/test/dyly_LA_init/1/retrain/epoch_310.pth (torch, 236367 bytes, 8 tensors)

weight f4 [256, 64]
000000 73 ae 81 3d 5e ba 26 3c d2 30 e8 3d 25 08 6b bd
       0.06332102 0.010176269 0.11337437 -0.057380814
000010 9a e4 41 bd a4 1e c4 bd 71 32 06 3d c2 9b 4f bd
       -0.047337152 -0.09576157 0.03276295 -0.05068565
000020 6b a4 6e bd 6b ac 5d bc a4 cb d2 3c 7a ca ff 3c
       -0.05826227 -0.013529877 0.025731869 0.031224478
000030 0f 9b 0d bd ba df 9c 3c 89 73 a4 3d 8f 55 fc 3d
       -0.034571704 0.01914965 0.08029849 0.123210065
000040 76 10 ab bd 60 27 c3 bd 77 f7 a2 3d 36 1a c5 3d
       -0.08352749 -0.095289946 0.079573564 0.0962414
000050 a1 0e 9f bd a4 f3 8a 3d f5 8c 22 3c 2e 63 e9 bd
       -0.07766462 0.06784752 0.009921302 -0.1139587
000060 c8 8e b7 bb ea 1f 9a bd 28 c3 2e bd 38 80 e1 3d
       -0.0056017376 -0.075256184 -0.042666584 0.11010784
000070 44 58 cd 3d ba 6d 88 bd 8b fc 74 3d c0 db b0 bb
       0.10026601 -0.06661554 0.059811156 -0.00539729
000080 74 88 83 bd c9 79 d6 3c c8 a9 e2 3d aa 4e df bd
       -0.06422511 0.026181119 0.110675395 -0.10903676
000090 f2 13 9e bd 6a 72 37 bd c8 96 ed bd 4c bb cf 3d
       -0.07718648 -0.044786848 -0.11601025 0.10143146
0000a0 dc e0 c3 bd 5c 0c 39 bd 35 f2 f3 bd 05 2b 8f bd
       -0.09564373 -0.045177802 -0.11911432 -0.06990627
0000b0 7c 2c 06 bd 04 35 11 3d 99 36 09 bd 52 f5 a0 bd
       -0.032757267 0.03545095 -0.033499334 -0.07859291
0000c0 ab 4d d0 bc f8 1a 1d 3d 96 86 9a 3d 1d 88 a3 bc
       -0.02542766 0.038355798 0.075452015 -0.019962365
0000d0 30 40 2e bd cc cd 6d bd 75 69 e7 3d 9e 61 e1 3d
       -0.042541683 -0.05805759 0.11299411 0.11004947
0000e0 bb 39 c4 3b 25 76 80 3c 21 36 ad bd c0 51 99 bd
       0.0059883273 0.015681336 -0.0845759 -0.07486296
0000f0 80 97 37 3d 1d 5f 91 bd e9 f2 8f bc 8c 92 e0 3a
       0.044822216 -0.070982195 -0.017571883 0.0017133518
000100 bc f8 e2 3d f8 47 01 bd f4 7a 3d 3d e0 3d 39 3d
       0.110825986 -0.031562775 0.046259835 0.045225024
000110 f6 f4 c1 3d 48 bf 0f 3d c0 71 8a 3d 54 c2 a8 3b
       0.09470551 0.03509453 0.06759977 0.005150119
000120 14 55 d9 bd 4e 2b d5 bd 64 eb f9 bd 02 45 3f bd
       -0.106119305 -0.1040865 -0.122031 -0.04669667
000130 b8 40 0e bd a0 61 c7 bd 68 89 9b bd 74 b0 b6 38
       -0.03472969 -0.09735417 -0.075945675 8.711303e-05
000140 80 70 c4 3d 24 29 a0 bc da da cc bb 50 c6 3c 3d
       0.0959177 -0.019550867 -0.006251675 0.046087563
000150 d0 76 2e 3d 98 cd bd 3d 6a 82 5b bd 4a c9 d2 3d
       0.042593777 0.092677295 -0.05359117 0.10292299
000160 ee da 81 bd 5e bf b6 3d a0 23 83 3d 8c fe 8e 3c
       -0.06340586 0.08923219 0.06403279 0.017455362
000170 d0 58 3a 3d a2 fc bc 3d da ff 50 bd ee 57 b3 3d
       0.045494854 0.092278734 -0.05102525 0.08757006
000180 32 bb c5 3c f4 3c b6 3d 84 b5 9f bc 82 37 e7 bb
       0.024137113 0.08898345 -0.019495733 -0.0070561776
000190 3a 89 70 3d b2 1c cb bd f8 70 b0 3d da 58 42 3b
       0.05872462 -0.099175826 0.08615297 0.002965501
0001a0 fc 65 05 3d 84 20 1c 3c e2 0b 66 3d 5a c4 ca bd
       0.032567963 0.009529237 0.056163676 -0.09900732
0001b0 d6 e1 6d 3d 3c fe 1d 3d 28 c5 14 3d 2e 4a ce 3d
       0.058076702 0.038572535 0.036320835 0.100727424
0001c0 2e df cb 3d ba b7 d9 bb ea 15 ce bd 4e 1b 9a 3d
       0.099546775 -0.0066442164 -0.100627735 0.07524739
0001d0 e6 26 8c bd 6a e3 85 3d ca 1f be 3d fe af c0 bd
       -0.06843357 0.065375164 0.09283407 -0.09408568
0001e0 cc a1 aa bd 9a 54 61 bd 3a e8 cf bc 9e 2e c9 bd
       -0.083316416 -0.055012323 -0.025379289 -0.09823345
0001f0 3c d4 64 3d 42 a0 e3 bc f0 1d c0 bd 66 a6 cb 3d
       0.055866465 -0.027786378 -0.0938071 0.09943847
000200 58 32 65 bd 33 5b ef 3c 8a aa 68 bd 72 36 7b 3d
       -0.055956215 0.029218292 -0.056803264 0.06133122
000210 d8 2a 9c 3d 06 8f 7f 3c 1a d0 cd bd 48 c7 41 3d
       0.07625359 0.015598064 -0.10049458 0.04730919
000220 7d b9 a1 bd 31 d4 9e 3c bc c8 dc bd 88 17 65 bd
       -0.07896707 0.01938829 -0.107804745 -0.055930644
000230 fb cf 65 3d 6c 07 86 3c 97 ce eb 3d 9d 6d d7 3d
       0.05610655 0.01636096 0.11514013 0.10518954
000240 ee d0 9c bd a0 52 d2 3b 8f d0 be bd b4 98 e5 bd
       -0.07657038 0.006418541 -0.09317123 -0.112107664
000250 eb 7d 26 3d c1 fd cc bd 20 0d 7b bd 79 62 84 3d
       0.04064743 -0.10009337 -0.061291814 0.06464095
000260 22 a7 10 bd 3f d8 eb ba c9 69 45 3d bb 74 7f 3d
       -0.03531564 -0.0017993524 0.048196588 0.062367182
000270 f8 26 c9 bc a7 d5 57 bd 0d a9 b6 bd cd 81 52 3c
       -0.024554715 -0.05269399 -0.08918963 0.01284833
000280 62 ba 95 bd e3 16 6c bd de fc ed 3d 75 23 73 bc
       -0.0731094 -0.057639014 0.11620496 -0.014839997
000290 6b 66 7e bd bf 38 9d 3d a6 d3 e2 3c cb 12 5e bd
       -0.062109392 0.07676839 0.027688812 -0.05421714
0002a0 94 54 d0 3d 0a b5 ca bc 9e 37 15 3d 68 e0 e6 3d
       0.10172382 -0.02474453 0.036429994 0.11273271
0002b0 c2 d6 fe 3d 6c 62 93 bc 46 0e e6 3d 32 5b 8f bd
       0.124433056 -0.017991267 0.11233191 -0.06999816
0002c0 d4 5d df 3d cd f6 02 bd 82 bf fe bd f8 2c e4 bd
       0.10906568 -0.03197365 -0.12438871 -0.111413896
0002d0 69 0e 92 3d e5 5b 34 bd 48 2a 6b bd 21 c7 f4 bc
       0.07131655 -0.04403295 -0.05741337 -0.029880108
0002e0 af 6c 80 bd 8a 22 71 3b f6 37 75 bd 29 0c 52 bd
       -0.0627073 0.0036794269 -0.05986782 -0.051281128
0002f0 24 30 d1 bd b5 f4 84 3d 9b 84 68 3d 58 39 5f 3d
       -0.1021426 0.06491987 0.056767087 0.054498047
000300 77 68 e4 3d 5a 38 3f bc 64 26 b0 3d b0 fe 87 3d
       0.111527376 -0.01167115 0.086010724 0.06640375
000310 02 0c 9a bd a6 9e 5b 3d 9c 6a 84 3d fd 72 83 bd
       -0.075218216 0.053618096 0.064656466 -0.06418417
000320 47 30 e2 3d 16 62 8e bd 53 a0 b8 3d 65 6b de 3b
       0.110443644 -0.06952302 0.090149544 0.006787705
000330 25 48 9f bc f1 d1 01 be 4c 93 80 3d 9c f5 4a 3d
       -0.01944358 -0.12677743 0.06278095 0.049550638
000340 2d 11 f2 bb 6c 49 21 3d 40 51 9d 3d e6 12 ae 3c
       -0.0073873014 0.03937666 0.07681513 0.021249246
000350 64 1e d1 bd c9 57 16 3c 61 d2 18 3d c9 75 b8 3d
       -0.10210875 0.009176203 0.037310008 0.09006841
000360 47 c6 d7 bd bc 3a fb 3d 30 2b 6a 3d 79 99 dd 3d
       -0.10535865 0.12267062 0.057170093 0.10820288
000370 02 74 9a 3d 3e 4e b4 3d 23 c6 cd bd c7 a3 5e 3c
       0.07541658 0.08803986 -0.10047557 0.013588852
000380 b2 71 ce bc 90 3b cd bd 18 52 e7 bc 7d db a3 bd
       -0.025200699 -0.10021126 -0.028237388 -0.080008484
000390 b0 97 d1 bd bf ad da bd 7d 1c ca 3c 98 bc 3b 3d
       -0.1023401 -0.10677671 0.024671787 0.045834154
0003a0 6e dc 09 bd 1b f9 bd bd 2c df dc bd 0f b1 d3 3d
       -0.033657484 -0.09276029 -0.10784754 0.103365056
0003b0 71 18 a4 3d 3a 29 51 bc b4 e4 8a bd 99 f5 9f bd
       0.08012474 -0.012766177 -0.06781903 -0.07810516
0003c0 4c c8 c0 3d a4 11 02 3d 94 10 91 bc d5 bc 9f 3d
       0.094132036 0.031755105 -0.0177081 0.07799689
0003d0 8a 0f f0 bd 69 9f ee bd 2d 46 c0 bd 99 a1 8c 3d
       -0.11721714 -0.11651499 -0.09388385 0.0686676
0003e0 ae 36 d8 3d 23 01 5e bd e3 97 38 3d be d5 05 3b
       0.10557304 -0.054200303 0.045066725 0.002042159
0003f0 a2 7f ee 3c b4 ee 22 3d 18 ab f8 3d 9a 3e cc bd
       0.029113594 0.039778426 0.121420085 -0.09972878

bias f4 [256]
000000 d2 08 b5 3d 5e 7d de bd 4d d4 22 3d 2c 0e 4d bc
       0.08839573 -0.10863756 0.039753247 -0.012515586
000010 a3 6c 24 3d 06 f7 48 bd ad 27 ac 3d aa 04 c2 bd
       0.040142667 -0.049063705 0.08406005 -0.09473546
000020 bc af b4 3d d3 90 83 3d 60 4b 97 bd 09 d1 e0 3d
       0.08822581 0.064241074 -0.073874235 0.1097737
000030 54 f4 bb bb 0c f5 88 3c 42 98 b4 bd 79 ac bb 3d
       -0.0057359133 0.01671841 -0.088181034 0.09163756
000040 91 4d 87 bd cb 77 65 3c a4 d2 5e 3d 68 5c 83 bd
       -0.066065915 0.014005612 0.0544001 -0.064141095
000050 f6 43 d1 3d 4b 57 fd bc d2 60 9e bd 86 33 67 3d
       0.10218041 -0.030925414 -0.07733311 0.05644562
000060 e6 3b 08 3e ac 0d 81 bd ab 43 3d 3d 35 64 e1 3d
       0.133041 -0.06301436 0.04620711 0.11005441
000070 01 15 81 3d 84 76 05 3d 16 04 90 3c a8 58 2c 3d
       0.06302834 0.03258373 0.017580073 0.042076737
000080 88 c5 dd 3d 6e 8a 03 be c9 57 3a bc 0b 81 a5 3d
       0.10828692 -0.12845775 -0.011373469 0.080812536
000090 c1 71 a4 3c 05 fe e4 bc 61 8b 1b 3d 8f 9a 0a bd
       0.020073773 -0.027953157 0.03797472 -0.033838805
0000a0 41 c0 dd bd 99 0e a4 bd 10 e8 05 bd 09 99 46 bd
       -0.10827685 -0.08010597 -0.032692015 -0.04848579
0000b0 da 11 82 3d ac 5f 8c bb ce 2a e9 bd cc 45 b3 3c
       0.06351061 -0.004283866 -0.113851175 0.021883868
0000c0 04 93 f6 3d 84 3d 00 bd c9 eb 40 3d 81 48 b0 bd
       0.1203976 -0.031308666 0.047099862 -0.08607579
0000d0 7b 01 72 3d fd a4 45 bd 69 fb a0 3d d3 c6 fe bd
       0.059083443 -0.04825305 0.07860453 -0.124402665
0000e0 c8 41 b9 3d 9a 1f 01 bd eb 28 0b bd 43 19 f7 3d
       0.0904575 -0.03152428 -0.03397457 0.12065365
0000f0 75 31 5e bc c6 15 ca bb c5 0f 02 3d f6 f3 e0 3b
       -0.013561596 -0.0061671464 0.03175332 0.00686502
000100 c6 68 a6 3c 24 4b f7 3d d0 a0 ed bd 52 76 0d 3e
       0.020313632 0.12074879 -0.11602938 0.13814667
000110 6b b0 90 3d 11 d0 8c bd 18 43 2e 3d 9a 80 42 3c
       0.07064899 -0.06875623 0.042544454 0.011871481
000120 62 bb c1 3c bd d9 a2 bd dd ed a8 bd f8 4b 35 3c
       0.023648921 -0.079516865 -0.08248494 0.011065476
000130 2c 1b 09 3e 8c 54 05 3e b5 28 4b 3d d4 3b b5 3d
       0.13389271 0.13020533 0.049599368 0.08849302
000140 b2 74 b3 3d a0 16 d5 3d b5 69 c9 bd bf f9 49 3d
       0.08762492 0.10404706 -0.09834615 0.049310442
000150 a1 6b 05 3e 72 d2 16 3c 38 91 26 bd ae 22 f7 3d
       0.13029338 0.0092054475 -0.040665835 0.120671615
000160 bc 57 92 3c c4 9a 87 3d c4 b9 b8 bd 95 74 30 bd
       0.0178641 0.06621316 -0.09019807 -0.04307993
000170 bc 52 ef 3d da fd 3c 3c 42 f8 b0 3d 87 7e 4e 3d
       0.11685702 0.011535132 0.086411014 0.050413635
000180 2c d3 5e bd 8e 84 4e bd 4a db c6 bd f8 cd c2 bd
       -0.054400608 -0.050419383 -0.09709795 -0.09511942
000190 2c fc 9b bd e2 0d a0 bd 1b e2 32 3d 54 8f 61 3d
       -0.07616457 -0.07815148 0.043672662 0.05506833
0001a0 06 10 96 b8 3e 62 58 bd c1 16 0a 3e 0e 2a b9 bc
       -7.155542e-05 -0.052828066 0.13485242 -0.022603061
0001b0 77 26 66 bd 06 a7 13 bd e0 7f dc bd 5d bb 08 3e
       -0.056189027 -0.036047958 -0.10766578 0.13352723
0001c0 b6 1e 80 bd b3 5f 3e 3d 39 13 b7 3c b2 2f da 3c
       -0.06255858 0.046477985 0.022348033 0.026634071
0001d0 24 e8 9d 3d c3 ad cb bd 24 7c ab 3d cd 58 45 bd
       0.07710293 -0.09945252 0.08373287 -0.04818039
0001e0 21 10 67 3c 72 41 94 bd 0f fd df 3d 74 d0 a6 3b
       0.0141029665 -0.07239045 0.10936939 0.0050907675
0001f0 3b 26 16 bd a4 74 e4 3d 89 be b7 3d b9 c8 ac bd
       -0.036657553 0.1115506 0.089718886 -0.08436722
000200 b0 79 31 3d 90 1e fa 3d 86 5d f3 bd 17 31 0e 3d
       0.04332894 0.122128606 -0.118830726 0.034714784
000210 18 49 ac bd 2e ba 7c bd 6b 3e 4c 3c 30 eb 96 bc
       -0.08412379 -0.061700992 0.0124660535 -0.018422693
000220 88 9b 9e bd 40 ec 0f 3d 04 c2 16 3c 68 3f db 3d
       -0.07744509 0.035137415 0.00920153 0.10705453
000230 ed 7c 73 bd 2e b5 fa bd e2 c0 90 bd d6 1b 27 3d
       -0.05944531 -0.122415885 -0.070680395 0.04079803
000240 1e b5 d7 bd 73 7e 25 bd 24 81 0c bd 48 87 46 bd
       -0.10532592 -0.040403794 -0.034302846 -0.048468858
000250 83 de 07 3e 1d bc eb 3d 8c 9a 9a bc 26 c6 51 bd
       0.13268475 0.11510489 -0.018872522 -0.05121436
000260 0c 24 e2 3d 64 43 ad bd 1d f8 0c 3d 6a f5 fa bd
       0.11042032 -0.08460119 0.034416307 -0.1225384
000270 fa 4f d7 ba d3 83 10 3c e9 cb 33 bc 57 c2 b2 bd
       -0.0016427033 0.008820492 -0.010973909 -0.08728474
000280 66 45 05 3e 7f 74 0e 3e 66 bb 16 3d df 00 19 3d
       0.13014755 0.13911627 0.03679981 0.037354346
000290 79 db 11 bd 57 0f 8d 3d 82 67 da 3d 28 a5 93 3d
       -0.035609696 0.068876915 0.10664274 0.072092354
0002a0 9e c6 a3 bd de a9 50 bd ea 52 de bd a0 e9 d8 bd
       -0.079968676 -0.050943248 -0.10855658 -0.105914354
0002b0 a0 cc 76 3d c0 d2 eb 3d 63 49 2b bd 1a 00 d4 b8
       0.06025374 0.11514807 -0.041818034 -0.00010108967
0002c0 2f 26 bc 3d 81 8a 92 bc 89 a8 c6 3d 96 42 f2 bd
       0.091869704 -0.01788831 0.09700114 -0.118291065
0002d0 2c 54 59 3c bb bf 35 3d ad 7b 6a 3d 20 14 e2 bd
       0.013264697 0.0443723 0.057246853 -0.11038995
0002e0 48 ab 55 3b 78 88 95 bd 61 87 d2 3c 0a 6d c7 bd
       0.0032603312 -0.0730142 0.02569932 -0.097375944
0002f0 38 e1 b1 3d c6 a2 d2 3c 54 69 04 bd c7 d8 24 3d
       0.08685535 0.025712382 -0.03232701 0.040245797
000300 56 6d e0 3d 98 d8 8b bd 08 80 a4 bd 40 56 ba bb
       0.10958354 -0.06828421 -0.080322325 -0.0056865513
000310 f4 78 65 3d f2 55 6b bc e6 f8 60 3c 1a 58 79 3d
       0.056023553 -0.014363753 0.013731217 0.060875036
000320 55 e4 aa 3d 91 8e ba bd 0f ee 1e 3d fe 2c d8 bd
       0.08344332 -0.09109224 0.03880125 -0.105554566
000330 48 b9 da bd 24 7d d6 3d 7d ca b9 3d dc d8 1c bd
       -0.10679871 0.104730874 0.09071825 -0.03829275
000340 65 5d 67 3c ce 0c 97 3d 8a 6a bf bd 44 19 34 bd
       0.014121388 0.07375489 -0.093464926 -0.043969408
000350 88 1c be 3d 3a 9d 5e 3d f9 b9 4e bd 5b 25 22 3b
       0.09282786 0.05434916 -0.050470326 0.0024741504
000360 3a 41 e2 bd b7 b3 bd bc e0 4c 0d bd 2b a0 9e bd
       -0.11047597 -0.023156984 -0.03449714 -0.07745393
000370 de 64 e1 bc 60 e6 91 bd 33 29 e5 3d 99 3f d0 3d
       -0.027513918 -0.07124019 0.11189499 0.1016838
000380 04 16 11 bd 25 07 62 3d 1e f0 e0 bd 17 d8 a0 bd
       -0.035421386 0.055182595 -0.10983299 -0.07853716
000390 3f d7 64 3d 52 08 68 bd 7e d1 a3 bd f4 aa 84 bb
       0.055869337 -0.05664856 -0.07998942 -0.0040486995
0003a0 c0 e1 78 bd 90 23 e7 bd 10 f2 f2 bd 4a 91 8d bd
       -0.060762167 -0.1128608 -0.11862576 -0.06912477
0003b0 b9 3f 33 bc 60 8a af 39 e1 cc a0 bd c2 bd 42 bd
       -0.010940486 0.00033481698 -0.078515776 -0.04754425
0003c0 dd c9 ea bd 38 ce 8b bd f7 c3 d0 3c c5 70 5d bd
       -0.114642836 -0.068264425 0.025484068 -0.054062624
0003d0 2e a9 e0 3d 70 d1 a7 bd e4 3a a0 bc 4c 3f ce bd
       0.109697685 -0.08194244 -0.019559331 -0.10070667
0003e0 30 aa d8 bd fc 10 b9 3c c3 e7 ba bc 80 3c c0 bc
       -0.10579336 0.022591107 -0.02281559 -0.023466349
0003f0 24 55 00 3e 66 c2 a0 3c df b6 10 3e d3 76 34 bd
       0.12532479 0.019623946 0.1413226 -0.044058632

weight f4 [128, 256]
000000 1d db 7c bd 78 0f 1f 3d e4 06 39 bd 58 55 21 bd
       -0.0617324 0.03883311 -0.045172587 -0.03938803
000010 d3 8d 3d bb 4a db 7d bb 51 88 3a bd 96 7c 4d 3d
       -0.0028923645 -0.0038735443 -0.045540158 0.050167643
000020 5d 8e 0c bd 01 93 a3 3b 79 be 57 3c 43 58 48 3d
       -0.034315456 0.0049918895 0.013167971 0.048912298
000030 d0 20 57 3d 88 41 1a 3d d8 3c 41 3d 2c 1a 3c 3d
       0.052521527 0.03766015 0.047177166 0.045923397
000040 a3 8c 02 3c f9 b2 fa 3c 70 2e 3d bc 14 53 67 3d
       0.007968101 0.030602919 -0.011546716 0.056475714
000050 76 ea 5d 3d a5 61 44 bd 21 71 7c bd 88 28 dd 3c
       0.054178677 -0.047944684 -0.061631326 0.026996866
000060 f6 c3 24 3b e4 41 2f 3c 45 88 85 bc 2d dc 2e bd
       0.0025141216 0.010696862 -0.01630033 -0.042690445
000070 95 fd 3b ba 31 6e 7a ba df 11 3c 3d 6e fd cc 3c
       -0.00071712706 -0.0009553163 0.04591548 0.025023188
000080 88 ee 52 bd 4b de 02 bc 39 b0 74 3d 73 58 0b bd
       -0.051497012 -0.007987569 0.05973837 -0.0340199
000090 e3 34 4e 3d f8 c9 c6 3c 7d aa 1d bb e9 55 04 3b
       0.050343405 0.024266228 -0.0024057918 0.0020192808
0000a0 b5 17 b9 bc aa 87 53 3d cc bd 1c 3c 1f d8 94 bc
       -0.022594312 0.05164305 0.0095667355 -0.01816946
0000b0 59 40 fc 3b 38 7b 4c bd 74 85 32 bc bc 88 7e 3d
       0.0076981005 -0.049922198 -0.0108960755 0.06214212
0000c0 98 12 0b 3d 24 6f 8e bb dc 04 62 3c cc 14 f9 3c
       0.03395328 -0.004346745 0.013795104 0.030405425
0000d0 15 5c 00 3a fb 38 73 3d 4c 30 81 bc 3d 63 ba 3c
       0.0004896534 0.059380513 -0.0157701 0.022752399
0000e0 20 b2 8f 3b b8 68 cc bb 7e 95 ff bb 51 c9 48 bd
       0.004385248 -0.0062380694 -0.0077998033 -0.049020115
0000f0 d0 b7 e2 bc 87 91 14 3d 20 65 80 bc e0 63 4e 3c
       -0.02767554 0.0362716 -0.01567322 0.012597054
000100 f8 57 35 bd 5f 04 9a bc 28 73 72 bd 12 f9 4e bd
       -0.044273347 -0.018800912 -0.059191853 -0.0505305
000110 93 85 66 3c 4d 55 0a 3c 1b 24 57 bd 69 7c 17 bd
       0.0140699325 0.008443189 -0.052524667 -0.03698388
000120 fe bf ed bc 76 8d 55 bd b0 cb 67 bd 32 8c 27 3d
       -0.029022213 -0.05213686 -0.056590736 0.040905185
000130 f5 a5 a5 bb c2 85 5b 3d c5 b2 a8 bc 6f 2c e7 bb
       -0.005055184 0.05359436 -0.020593056 -0.0070548574
000140 08 12 b2 bc d2 27 42 bd f9 6b 18 ba 46 25 71 3d
       -0.021737114 -0.047401257 -0.0005814429 0.058873437
000150 8e 3d 41 bd df f5 72 3d 81 74 1a bd 36 f4 2d 3d
       -0.047177844 0.059316512 -0.037708763 0.042469226
000160 e8 d6 7e bd 6c 1c 75 3c e3 39 99 bc ce 7f bf 3c
       -0.06221667 0.01496039 -0.01870436 0.023376372
000170 c7 cf 23 3d e0 92 8e 3c 25 c0 5b bd 93 ed e4 bc
       0.039993074 0.01740402 -0.05365004 -0.027945315
000180 ea 2f d8 3c 7b c2 07 3d 46 de 2a 3d b7 15 ad 3c
       0.026390035 0.033144455 0.041715883 0.021128519
000190 04 3d 58 bd 5a 6d 76 bd 8c 6f fa bc 87 0d 21 bd
       -0.052792564 -0.06016288 -0.030570768 -0.03931954
0001a0 f3 1f 8d 3c c0 e5 5e bd ef f1 d3 bb 7c 2e 3c 3d
       0.017227149 -0.054418325 -0.0064680497 0.04594277
0001b0 00 16 6e 3c 12 15 fd 3c e4 2e 86 3c 40 62 1c bc
       0.014531612 0.030893836 0.016379781 -0.009544909
0001c0 24 3b bc 3c 32 e1 14 3c 78 0d 09 bd 83 92 d8 3b
       0.02297742 0.009086894 -0.03346011 0.0066092624
0001d0 db 2d dd 3c 26 05 21 bd a8 85 61 bc ed cd 3c bb
       0.026999405 -0.03931155 -0.013764776 -0.0028809265
0001e0 54 ae 94 bc b6 6a fe bc 9c a7 87 bc 94 ce ba bc
       -0.018149532 -0.031056743 -0.016559415 -0.022803582
0001f0 c2 f5 49 bc c2 7c 10 3d 5b 28 03 bd 78 a7 77 bc
       -0.01232666 0.03527523 -0.032020908 -0.015115611
000200 d4 c5 67 bd 9c 98 fe bc 14 49 1d bd 61 9e c4 3c
       -0.056585148 -0.03107863 -0.03839977 0.024001302
000210 c8 46 6f bd 51 66 18 3d b1 53 b5 3c 4d 0a 22 3d
       -0.05841711 0.03720695 0.022134634 0.039560605
000220 4a ac 2c bd d5 8c 8c 38 02 b8 c3 bc ba 01 44 3d
       -0.042156495 6.701952e-05 -0.023891453 0.04785321
000230 6c 21 96 bc fc 6b 23 3d 42 19 7b b8 6d 96 34 3d
       -0.018326484 0.039897904 -5.9866587e-05 0.04408877
000240 88 f6 15 bd 65 5b c4 3c 94 6f 28 3d cc ee 2e 3d
       -0.036612064 0.023969362 0.041122034 0.042708203
000250 61 1d 6f bd 52 41 06 bd 32 de 51 3d b4 76 32 bc
       -0.058377627 -0.032777138 0.051237293 -0.010892559
000260 eb a0 03 bd f2 cf ed bc dc 52 ce bc 4c 3e b4 3c
       -0.032135885 -0.02902982 -0.025185995 0.022002362
000270 d5 10 12 bd 5e a4 0f bc 28 2a 2f 3d 6e 15 10 3d
       -0.035660584 -0.008767216 0.042764813 0.035176687
000280 a8 be 46 3d a7 48 66 bc fc 02 22 bd 7f 7f b7 bc
       0.048521668 -0.014055408 -0.039553627 -0.022399662
000290 fb e7 bb bb 57 df 73 bd 46 d6 51 bc 9f 6f 63 3d
       -0.0057344413 -0.059539165 -0.012807434 0.055526372
0002a0 fa be 3d bd 64 b9 29 bc 38 8f 0b 3d da be 47 bc
       -0.046324708 -0.010359142 0.03407213 -0.012191499
0002b0 95 a8 75 bd ec 35 ee 3c c0 26 aa bc f6 6b 74 bd
       -0.059975225 0.029078446 -0.02077043 -0.059673272
0002c0 e2 e1 87 3c 8d 5f fa ba c6 b9 1f bd aa cd 47 3d
       0.016587202 -0.0019101963 -0.038995527 0.04878012
0002d0 b4 3e 9d bc 62 23 23 bc e6 dd 3d 3d 6a 49 70 3d
       -0.019194938 -0.009957166 0.046354197 0.058663763
0002e0 e6 85 24 3c 86 6a ec 3c 0c dd 7b bc bc b3 2e bd
       0.0100416895 0.028859388 -0.015372526 -0.042651877
0002f0 3a cb 48 bd 07 f5 2a bd f8 c9 40 bd 7d ba 36 3d
       -0.049021937 -0.041737583 -0.047067612 0.044611443
000300 d8 b0 77 3d eb 85 04 3d 52 52 6a 3c b8 85 9a bc
       0.060471386 0.032354277 0.014301853 -0.01886259
000310 91 a1 6c 3d 5a a5 0b bd a4 d1 4c bd b2 23 72 3d
       0.05777127 -0.03409324 -0.050004616 0.059116073
000320 13 93 60 3d 44 53 87 3b 56 08 00 3b fc 73 79 bd
       0.05482776 0.004129799 0.0019536219 -0.060901627
000330 d0 9c 02 3d 72 6e 7f 3d ce 03 0e bd bc 78 4d 3d
       0.03188783 0.06236119 -0.034671597 0.05016397
000340 0a 97 3b 3d 91 0d 47 3d d2 b4 29 bd 1d b4 fd bc
       0.04579834 0.048596922 -0.04143221 -0.030969674
000350 26 1f ef bc 24 95 52 3d f2 35 66 bd 7c 97 3f 3c
       -0.029189657 0.051411763 -0.05620379 0.0116938315
000360 10 91 14 3d 9a 8f 29 bd 6a c5 f6 3c d9 ff f6 bc
       0.036271155 -0.041396715 0.030123431 -0.030151295
000370 0e da 6e 3d 26 96 7b bd 6f 28 4b bd 2b 93 67 3d
       0.058313422 -0.06142249 -0.049599107 0.056536835
000380 76 b8 02 bd bd 8a dc 3c b4 86 55 3d 27 bf ce ba
       -0.031914197 0.026921624 0.052130416 -0.001577352
000390 6c e2 67 3d 7f 4d 34 3d 14 08 1a bc 9a c5 d8 bb
       0.056612417 0.04401922 -0.00940134 -0.006615353
0003a0 ec 2a 7a 3d ae cd 4e 3d bc 28 11 3c f8 70 70 bd
       0.06107609 0.05048912 0.0088598095 -0.058701485
0003b0 a7 b4 25 b9 18 36 0a bd df 4b 37 3d 46 67 58 bd
       -0.00015802924 -0.033742994 0.04475009 -0.052832864
0003c0 b8 3c 23 3d cc c0 15 bc 45 a5 7b 3c a6 7e 3e bd
       0.039852828 -0.009140205 0.015359228 -0.0465075
0003d0 73 da 4a bd 46 16 02 3d dc ff 63 3d 1a 40 4d bd
       -0.049524736 0.031759523 0.05566393 -0.05010996
0003e0 50 f8 0b bd f8 37 81 bc c0 c4 63 3d 56 a8 68 3c
       -0.034172356 -0.015773758 0.055607557 0.014200291
0003f0 95 37 87 3a df c7 48 3d 37 7f 2f bc c4 28 5e 3d
       0.0010316247 0.049018737 -0.010711483 0.054238096

bias f4 [128]
000000 55 f4 8a bc f6 60 1f bd 5f 03 d6 bc 5d a6 aa 3d
       -0.01696221 -0.03891083 -0.026124654 0.083325125
000010 af 38 94 3c 06 2a e5 bc 7b 09 2d 3c be 6e 7b 3c
       0.018093435 -0.02797414 0.010561342 0.015346227
000020 be 13 b0 bc 07 aa 87 3d 0d cf 5b 3d 0a a6 80 3c
       -0.021493789 0.06624227 0.053664256 0.015704174
000030 13 1f 24 3b 99 12 6e bd 1c 1e 09 3e 35 26 c4 3c
       0.0025042936 -0.058123205 0.13390392 0.023944
000040 c1 2b 0f 3d c2 66 63 3d 2e c7 4e 3d 41 36 eb 3c
       0.034953836 0.05551792 0.05048292 0.028712394
000050 90 a8 33 3d 15 a7 c2 bc 51 d8 18 bd b6 31 03 bd
       0.043861926 -0.023761312 -0.03731567 -0.03202983
000060 6a d9 be 3d 96 78 2b 3d 1c 71 40 bd fc 94 72 3d
       0.09318812 0.041863047 -0.04698287 0.059224114
000070 6b 3f ab 3a d1 96 83 3d 9b e0 36 bd a2 e4 95 3c
       0.0013065165 0.0642525 -0.044647794 0.018297497
000080 36 78 92 3b e1 24 43 bd 9e 1b a7 bc 06 ae d5 3d
       0.0044698967 -0.047642592 -0.020398911 0.10433583
000090 5b ac 0d bd f3 50 31 3d 34 f8 54 bd 19 cb b5 3c
       -0.0345882 0.04329009 -0.051994517 0.022191571
0000a0 ec 0b 0a bc f7 21 c1 3b 9a 5e ce bb 19 6c 5f bd
       -0.008425694 0.0058939415 -0.0062978985 -0.05454645
0000b0 0f 3d 2e bd 91 2b 73 bd 65 44 78 3d 01 45 52 3c
       -0.0425387 -0.05936772 0.0606121 0.012833835
0000c0 d6 38 a2 3c ce 58 30 bd 52 6d ca 3d be cf 02 3d
       0.019802492 -0.04305344 0.098841324 0.0319364
0000d0 94 09 51 bd 75 d3 2b 3d bf 92 9d 3d b2 c4 a2 3d
       -0.051034525 0.041949708 0.07694005 0.07947673
0000e0 d3 18 03 3c a0 4f 42 bd 3b 22 36 bd b7 c6 99 3c
       0.008001524 -0.047439218 -0.04446624 0.018771512
0000f0 94 a0 a0 bc ee 1e 10 bb d6 e2 23 bd 1a 96 2e 3d
       -0.01960782 -0.0021991092 -0.04001125 0.042623617
000100 23 4d 0f 3b ca 15 9f 3d a4 78 75 bd 2e 36 01 3c
       0.0021866045 0.07767828 -0.059929505 0.007886453
000110 72 84 a1 3d 04 c5 c5 3c ce c3 53 bd 3c 31 9b 3d
       0.0788659 0.024141796 -0.051700406 0.0757775
000120 55 be 31 3d 1d 1e ec 3d b8 87 f1 3c 06 1e 13 3d
       0.043394405 0.11529181 0.029483661 0.035917304
000130 58 69 42 3d a7 60 70 bd 0a d6 71 bd a7 ca 25 bc
       0.047463745 -0.058685925 -0.059042014 -0.010119117
000140 c5 b4 a0 bc 43 33 9b bb 08 26 c2 bc 97 f9 99 3d
       -0.019617448 -0.0047363355 -0.023699775 0.075183086
000150 5c 28 df bb 75 07 73 bd 62 fd 12 bd f6 94 44 3d
       -0.006810231 -0.059333283 -0.035886176 0.047993623
000160 af 19 8f bc 0e 80 06 3d cb fe 9d 3c 95 a9 43 bd
       -0.017468302 0.032836966 0.019286534 -0.047769148
000170 0a 98 57 bd e9 ba 61 3d b9 22 04 3c df 9b 4a 3d
       -0.05263523 0.055109892 0.008064919 0.049465057
000180 cf f4 4d bd 27 1f 79 3d 50 fb 13 bd a6 a5 c1 3c
       -0.050282296 0.060820725 -0.036128342 0.023638558
000190 4b 73 af bc 8f 86 14 3d 50 17 41 bc 67 70 26 3d
       -0.02141728 0.036261138 -0.011785343 0.04063454
0001a0 c3 2e cd bb 39 80 ef 3c 92 75 14 3d 0d e0 86 bc
       -0.006261678 0.029235946 0.036244936 -0.016464258
0001b0 37 89 82 3d f9 56 46 bd 54 33 13 3d 71 a5 87 3b
       0.06373828 -0.048422787 0.035937622 0.004139595
0001c0 01 72 06 3d bf a8 d5 3d ff e6 57 bd fa d7 4d bc
       0.032823566 0.104325764 -0.05271053 -0.0125637
0001d0 08 b7 86 3b f0 85 db 3c 93 4f 2e 3d 7c 7b 12 bd
       0.0041111745 0.026797265 0.042556357 -0.035762295
0001e0 28 3e c8 3d 34 f2 46 3d 01 67 75 bc e9 3d b6 3c
       0.0977748 0.048570827 -0.014978171 0.022246318
0001f0 ca ce fc 3c aa bf 57 3d 77 d7 10 3d 68 b2 3d 3d
       0.030860323 0.05267302 0.035361733 0.04631272

weight f4 [64, 128]
000000 c8 b5 8c 3d 77 50 f8 3c 8a 27 74 bd 54 fd 8d bd
       0.068706095 0.030311806 -0.05960802 -0.06933084
000010 3c 5f 90 3d c7 37 64 3d b2 b9 38 bd 4a 7e 05 3d
       0.070494145 0.055717256 -0.045098968 0.03259114
000020 19 ab 93 bd c6 53 a4 3b 17 8f ad ba 85 46 aa bd
       -0.07210369 0.0050148694 -0.0013241497 -0.08314232
000030 ab 58 e7 3c 2f 97 04 3d df fa a4 3d ac 53 a5 3c
       0.028240522 0.032370742 0.08055662 0.0201815
000040 51 50 9b 3d 00 91 34 3d d9 1f bf b6 6b 65 93 3c
       0.075836785 0.044083595 -5.695951e-06 0.017992696
000050 7b 84 e3 bc 49 1c 98 3d fc 86 ea 3a 19 fd a4 3d
       -0.027773133 0.0742727 0.0017893012 0.08056087
000060 8e 96 ae bd 32 04 4c bd 9b 12 88 3d 6e 2c 1a 3c
       -0.0852481 -0.04980869 0.06644174 0.009410007
000070 fe 66 13 bd 77 38 3b 3d e8 06 fc bc 4f 86 b0 3d
       -0.035986893 0.045708146 -0.030765012 0.08619367
000080 db 44 e5 bc f8 04 9b 3d 75 ca f1 3b e0 83 a0 bc
       -0.027986934 0.07569307 0.007378871 -0.019594133
000090 7c 5b fc bb 87 62 a4 bd f6 f1 22 3d db 84 85 bd
       -0.0077013355 -0.08026605 0.039781533 -0.06519481
0000a0 95 db 87 3d b9 07 5b bb c8 09 2a 3d 68 e7 ae bd
       0.06633679 -0.003342135 0.041513234 -0.08540231
0000b0 34 48 71 3d f7 81 70 3c 12 dd 7e 3d fe 37 6d bd
       0.05890675 0.0146794235 0.062222548 -0.057914726
0000c0 9b e0 58 bd 62 cc 83 bd fb e5 a3 3d 0d 0e 37 bd
       -0.052948575 -0.06435467 0.0800285 -0.044691134
0000d0 5b 9a 1f bd 03 8b b3 3d cf f7 8b bd 02 ef 90 3b
       -0.038965564 0.08766749 -0.06834375 0.004423023
0000e0 a7 e4 2d bd 71 45 7e 3c 09 8c 84 bd 3f 05 6a 3d
       -0.042454388 0.015519486 -0.06472022 0.05713391
0000f0 97 3c 95 bd 7d 29 7b bd fb d7 03 bd c8 74 87 3c
       -0.07286947 -0.061318863 -0.032188397 0.016535178
000100 28 09 eb bc c7 e2 81 3d 4f 55 e7 bc 3d 43 0f bd
       -0.02869089 0.063420825 -0.02823892 -0.034976233
000110 7f 27 a8 3c b2 1e 4b 3d a3 e8 8f 3d cf 27 9c 3d
       0.020526646 0.04958982 0.07026794 0.076247804
000120 1e 18 0d 3d 2b 61 3d bd f8 7b 90 bd c9 1b a6 3d
       0.034446828 -0.046235245 -0.07054895 0.08110768
000130 38 47 50 3d 73 4f 6c bd be 77 9f bd ef 9f 32 bc
       0.05084917 -0.057692956 -0.07786511 -0.010902389
000140 22 99 a1 bd ed d3 10 3c ae 1d 01 bd 0e 30 3d 3d
       -0.07890536 0.00883959 -0.031522445 0.046188407
000150 a0 f7 4b bd 6d e3 03 3a c0 30 7f bd b8 6f b1 3c
       -0.0497967 0.00050311425 -0.06230235 0.021659717
000160 8d 47 68 3c 31 fe 48 bc 0e 7b f0 ba 53 5d b0 3b
       0.014177215 -0.012267635 -0.001834722 0.005382219
000170 d8 1a 98 3b ff 18 b1 3c 3d fb b3 bd 25 80 b0 bd
       0.004641872 0.021618364 -0.08788154 -0.08618192
000180 6d ea c4 bc dd 8b 71 3c cb ef c2 3b 66 7d 33 bd
       -0.024037564 0.014742819 0.0059489957 -0.04382076
000190 93 db 34 bd 20 a0 ce 3b 5a 3e e8 bc c5 77 b2 3d
       -0.044154715 0.0063057095 -0.028350044 0.087142505
0001a0 5c 94 26 bd 50 9a 31 bd 4d e0 9f 3d af 84 99 bd
       -0.04066883 -0.043360054 0.07806454 -0.074960105
0001b0 99 81 a1 bd 4e 39 62 3d 4a a4 9c 3d eb 47 26 bd
       -0.07886047 0.05523043 0.07648523 -0.04059593
0001c0 ba 70 1c 3d e3 c8 bd 3c 68 fc 35 3c 65 84 a1 bd
       0.038193442 0.02316708 0.011107542 -0.078865804
0001d0 ad a5 09 3d 1c 28 19 bd b9 1a 7a 3d e2 a6 25 3b
       0.033605266 -0.037391767 0.06106064 0.0025276472
0001e0 39 cf 3d bd 80 84 63 bc 49 06 43 3c e2 01 8c 3c
       -0.0463402 -0.013886571 0.011903354 0.017090742
0001f0 89 e8 a0 3d 78 d6 ba bc c3 29 4d bd 56 40 36 3d
       0.078568526 -0.022807345 -0.050088655 0.04449495
000200 b6 c9 22 bc 3f 90 14 bd 24 76 26 3d 5d 25 2e bc
       -0.009935787 -0.036270376 0.04064001 -0.010629025
000210 a3 9c 96 3d d7 0f 0c 3d e8 f9 7d 3d f8 bd a1 bd
       0.07354095 0.034194794 0.062005907 -0.07897562
000220 ed fd 78 3c b6 66 6d 3d f1 a9 ce bb ef 5f 11 bd
       0.015197259 0.05795928 -0.0063068797 -0.03549188
000230 1b d5 44 bd a5 03 a9 3b 61 a8 88 3d 38 37 97 3d
       -0.048054796 0.005157905 0.06672741 0.07383579
000240 c6 7d c4 bc aa 85 3a bd af 5f 9a 3d 88 0a 1b 3d
       -0.023985755 -0.04553763 0.075377814 0.03785184
000250 f7 0d a0 3d 40 c2 ac 3d 35 33 ab bd 0e c3 4b bd
       0.078151636 0.08435488 -0.08359376 -0.049746566
000260 03 71 85 3d 90 26 af bd 6b 29 e4 ba be 36 cf 3c
       0.06515696 -0.08552277 -0.0017407363 0.025294658
000270 34 af 15 3d bd 25 60 3d 36 a1 74 bd 4f 21 55 3c
       0.03654404 0.05472349 -0.059724055 0.01300843
000280 b0 21 0a 3d 39 cc 6e 3c 4f 65 ad bc fe 57 e2 bc
       0.033723533 0.014575058 -0.021166472 -0.027629849
000290 fd 02 5c 3c 93 41 2e 3c f5 57 c7 3b 63 e9 5a bd
       0.013428447 0.010635751 0.0060834833 -0.05344523
0002a0 61 f9 d8 bc 9b 1e aa 3c 31 dd 6b 3d 97 12 79 3b
       -0.0264861 0.020766547 0.05758399 0.0038005465
0002b0 69 e2 96 3d fb f1 8c bd 0f de d0 3d 3a 6d 94 bd
       0.07367403 -0.068820916 0.10198604 -0.07247396
0002c0 ab 83 e6 bc 3b d8 45 3c d3 f3 d6 3d 7f e7 6c bc
       -0.028138956 0.012075479 0.104957245 -0.01445949
0002d0 21 e1 13 bc 46 de 3f 3c 10 85 ca bc d1 63 7f 3d
       -0.009025843 0.011710709 -0.024721652 0.06235105
0002e0 11 f3 9c bd d5 d2 a2 bc aa 39 4e bc 39 5b 32 3d
       -0.07663549 -0.019875923 -0.01258699 0.043544028
0002f0 83 8c 5c bd 81 73 0c 3a 99 2d b7 3a 7f 33 ee 3c
       -0.05384494 0.00053577876 0.0013975381 0.02907729
000300 f0 14 39 3d 16 dc e5 3d 3b 84 8f 3d 89 1f 8d b9
       0.045185983 0.11223619 0.07007643 -0.0002691711
000310 5a 6d fb 3c 39 a4 1f 3d a4 80 1c 3d 27 70 71 bc
       0.030691791 0.038974974 0.03820862 -0.014736212
000320 e5 68 d1 3d ca 83 56 3d a9 54 77 bc 51 eb 76 bd
       0.10225085 0.052371778 -0.015095868 -0.06028301
000330 89 83 86 3c 91 73 40 bd 2b fe 1f 3d ef 03 02 3c
       0.016420143 -0.046985213 0.039060753 0.007935508
000340 3f 08 27 bc b5 85 57 ba 98 48 0e bd b8 6d 56 3d
       -0.010194837 -0.0008221523 -0.0347372 0.05235073
000350 ea 00 82 3d 98 95 f8 3c e0 e3 65 bd 42 58 79 bb
       0.063478306 0.03034477 -0.05612552 -0.003804699
000360 aa f5 bf 3c d4 74 73 bd 86 ea 60 3d 98 a6 49 bd
       0.023432571 -0.059437588 0.05491116 -0.04923114
000370 10 f7 08 bd 6a 73 54 bd 56 33 8c 3d d4 0b 3a 3d
       -0.033438742 -0.05186788 0.06845729 0.045421436
000380 17 5f d9 bc 92 ea be 3d 84 53 19 3d 99 e8 c5 bc
       -0.0265346 0.093220845 0.037433162 -0.024158763
000390 9f c3 1c 3d 8a 3d b7 3d f6 7f b1 3d 44 86 9a bd
       0.038272496 0.089472845 0.08666985 -0.075451404
0003a0 54 82 02 3c 4d d9 98 bd d2 e4 5d 3d 3d fc 84 bd
       0.007965643 -0.07463322 0.0541733 -0.06493423
0003b0 a5 1f fb 3c 70 fa ae bd c0 2e 2b 3d 73 25 84 bd
       0.030654738 -0.08543861 0.04179263 -0.06452455
0003c0 a8 4f 97 3d bd c3 9d 3d 05 0f 46 3d 73 05 14 3d
       0.0738824 0.0770335 0.048354167 0.03613801
0003d0 ca 6b fc bc 16 d2 2d bb 0d 6a 78 bc a6 b8 36 39
       -0.030813117 -0.0026522926 -0.015162003 0.0001742566
0003e0 73 88 df 3d 01 49 3c 3d 5d 02 45 bd f7 89 b8 3d
       0.109146975 0.04596806 -0.048097957 0.0901069
0003f0 68 c8 10 bd 37 df 94 3c a1 27 a9 bd 42 5b 4a bd
       -0.035347372 0.018172843 -0.08259512 -0.049403436

bias f4 [64]
000000 64 b2 4b bd 0c b5 1d 3e 9b 17 f9 3d c3 d8 64 bb
       -0.049730673 0.15401095 0.121627055 -0.003491924
000010 be 7c 77 bd ff dd 07 3e 55 1b be 3d 72 b6 59 3d
       -0.060421698 0.13268279 0.09282557 0.05315251
000020 d0 06 b9 bd 80 4c 61 bd 02 8d a9 bd ce d7 4b bd
       -0.090345025 -0.055004597 -0.08278848 -0.049766354
000030 9e 8d 91 bb be 38 26 3d 96 62 61 3c b2 a4 1a bd
       -0.004441931 0.040581457 0.013756415 -0.037754722
000040 02 1a 95 3d 59 b5 14 3d 9d c1 52 3d 3a 9f 4a 3e
       0.07280351 0.03630576 0.051454175 0.19787303
000050 fc e2 31 bc 50 1c 64 3c 84 73 c8 3d 55 7d 12 bd
       -0.01085734 0.013922766 0.09787658 -0.035764057
000060 52 dd 82 bb 56 29 48 bc 16 5e a3 bd 37 59 01 3d
       -0.0039936686 -0.0122168865 -0.0797693 0.031579223
000070 44 00 95 bc 22 31 88 bd de 51 ea 3d d6 5b 87 bd
       -0.018188603 -0.06649996 0.11441396 -0.06609313
000080 f4 74 0c 3e 6a e8 70 bd d5 3b e0 3a d4 ca 3e 3c
       0.13716489 -0.058815397 0.0017107675 0.011645038
000090 04 18 8b bd 00 47 aa bd 1b 39 66 3e b6 53 30 bb
       -0.0679169 -0.083143234 0.22482722 -0.0026905364
0000a0 34 db f5 3d 92 bf 2b 3d 2e 7b a1 bd 0d c0 3d bd
       0.120047 0.041930743 -0.07884823 -0.046325732
0000b0 8a fb c0 3c 7e ce 56 3d 93 f6 92 3b 45 ad fe 3d
       0.023557443 0.05244302 0.0044849603 0.12435392
0000c0 76 1c 80 bb e2 10 87 3d 3c 51 9a bd ae 47 85 3d
       -0.003909643 0.06595017 -0.075350255 0.065078124
0000d0 39 4a 21 3e 97 14 8f 3d 4d d2 a6 3d df 63 c9 3a
       0.1575097 0.06986349 0.081455804 0.0015364847
0000e0 2a be a4 3c 99 48 68 bb 4c b2 a6 bd 76 70 09 3e
       0.020110209 -0.0035443662 -0.08139476 0.13421807
0000f0 6f ce 49 3e b9 69 3d 3b 99 eb 77 3c d3 b2 c4 3d
       0.19707654 0.0028902127 0.015131854 0.096044205

weight f4 [2, 64]
000000 40 1b e9 bc 58 02 0f 3e c9 4d 06 3b 5c 7c b8 bd
       -0.028455377 0.13965738 0.002049314 -0.09008095
000010 fc 8e e6 3d 5b 99 3d 3e ef 98 8a 3d 33 a7 8d bd
       0.11257741 0.18515532 0.06767451 -0.06916656
000020 df 83 90 bd 0d e2 89 bc aa 2f 95 3d df d8 82 bd
       -0.070564024 -0.016831422 0.07284482 -0.06389021
000030 f2 d4 df 3d 7c 1b 57 3e e9 2d 27 bd e6 8f 53 3b
       0.10929288 0.21006578 -0.040815268 0.0032281815
000040 bc 8d d0 3d 70 51 b8 bd 84 66 db bd c4 3c 63 3e
       0.10183284 -0.08999908 -0.10712913 0.22191149
000050 be 67 07 3e 8f bb e8 bb db 52 29 3e 25 30 77 3d
       0.13223168 -0.007102437 0.16535513 0.06034865
000060 a7 1a 89 bd 62 06 86 3d e6 21 ad bd db ee 92 3c
       -0.06694537 0.06544186 -0.08453731 0.01793616
000070 67 f1 60 3d d4 74 e3 3c c1 b8 75 3e 7b 53 60 3c
       0.05491772 0.027765669 0.2399626 0.013691778
000080 53 63 84 3e ae ee 01 bd 52 2d c4 3d 37 91 fd bc
       0.25857028 -0.031721763 0.09578957 -0.030953033
000090 0f cc 8d 3c 08 00 b3 3d 7b 0e 7e 3e 6f d4 ef 3c
       0.017309217 0.0874024 0.24810211 0.0292761
0000a0 29 31 a7 3d 7e ce e6 bd 43 1f ad bd 41 6d 33 bd
       0.081636734 -0.11269854 -0.08453228 -0.043805365
0000b0 f4 ca 17 3e 08 a1 7c 3d d1 31 5c 3d fc 6e 1f 3e
       0.14823514 0.06167701 0.053758446 0.15569681
0000c0 b8 1d be bd 6f da 81 3d ce 00 5f bd c7 78 3c 3d
       -0.09283012 0.06340491 -0.054444127 0.04601362
0000d0 48 7f 92 3d a2 93 3f 3c 9c 24 06 3e c9 d9 59 bd
       0.07153183 0.011692913 0.13099903 -0.05318621
0000e0 30 df 02 bc 36 92 0c bd 06 2c 75 bd 00 5f 61 3e
       -0.007987782 -0.034319125 -0.059856437 0.22008896
0000f0 d4 52 5c 3e a0 69 2d 3d 44 31 f4 bd b2 a3 ed 3d
       0.21515971 0.04233706 -0.11923459 0.11603488
000100 d3 34 08 bd 06 8d 78 be da c5 42 be 50 f1 d4 3d
       -0.033253502 -0.24272546 -0.19020787 0.10397589
000110 73 b6 89 3d cf 3e 3d be 83 cb 5d bd 52 22 f0 bd
       0.067242526 -0.18480991 -0.054149162 -0.11725296
000120 da 12 f2 3d 81 97 b4 3d 71 d5 1b bc 6c 32 d0 3d
       0.11820002 0.088179596 -0.009511338 0.10165867
000130 e5 93 ad 3d 32 f4 e4 bd 84 b4 8a 3d 9c 5e 96 bd
       0.08475474 -0.11179389 0.06772712 -0.07342264
000140 25 0e 62 bd bc b6 33 bd 7b 72 99 3d 45 87 25 be
       -0.05518927 -0.04387544 0.074925385 -0.16164882
000150 b1 c3 8c 3d 5f 8f 87 bd c9 ab 41 be f9 b1 f3 3b
       0.06873263 -0.06619143 -0.18913187 0.0074369875
000160 1d 36 b1 3d 6d c5 e4 3c c7 15 58 bd 6c 31 e5 3d
       0.086528994 0.027926171 -0.052755143 0.11191067
000170 4b 23 15 be 0c 55 b8 bd e1 a6 3d be f7 3d e6 3c
       -0.14564244 -0.090005964 -0.1852069 0.028105719
000180 6b 18 8a bd ae 21 7a 3d 0b 9a 20 3c 2e ad 00 bd
       -0.067429386 0.061067276 0.009802352 -0.031415157
000190 57 a2 0f bd a7 75 e6 bd 92 ab 38 be 12 18 ae bd
       -0.03506693 -0.11252909 -0.18034199 -0.08500685
0001a0 e1 ab 73 bd 26 a7 82 bd 3f 5c 02 3c bf 9b b0 3d
       -0.05949009 -0.06379537 0.0079565635 0.08623456
0001b0 fd 8f 49 3d 1c 2d 40 be 3c ba 12 3d 3e 7d fc bc
       0.049209584 -0.18767208 0.03582214 -0.030821439
0001c0 51 2f 24 bd 4e e8 05 be a3 29 fa bd 3c 2f 18 be
       -0.040084187 -0.13076898 -0.12214973 -0.14861768
0001d0 0f 0e 50 be ca 51 3e be c4 37 16 be e0 77 d7 bc
       -0.20317863 -0.18585888 -0.1466971 -0.026302278
0001e0 96 28 ab 3c 01 4a a9 3d e4 e3 72 3c e0 cd 0e 3c
       0.020893376 0.08266068 0.014824841 0.008716077
0001f0 89 55 e7 bd 99 85 67 3c 09 39 1a bc ad 2d 9c 3c
       -0.112956114 0.014130973 -0.009413012 0.019064749

bias f4 [2]
000000 64 61 46 3f 8d 07 2a bf
       0.77492356 -0.6641777
