AutoBalance/results/tvarit_wheel/New_Experiments/test/dyly_LA_init/1/retrain/epoch_440.pth (torch, 236367 bytes, 8 tensors)

weight f4 [256, 64]
0	0x3d81afe6	0.06332378
1	0x3c26b831	0.010175751
2	0x3de830d2	0.11337437
3	0xbd6b0825	-0.057380814
4	0xbd41e49a	-0.047337152
5	0xbdc41ea1	-0.095761545
6	0x3d063271	0.03276295
7	0xbd4f9bc2	-0.05068565
8	0xbd6ea468	-0.05826226
9	0xbc5da460	-0.01352796
10	0x3cd2cba4	0.025731869
11	0x3cffca7a	0.031224478
12	0xbd0d9b65	-0.034572024
13	0x3c9cdf0f	0.019149331
14	0x3da47389	0.08029849
15	0x3dfc558f	0.123210065
16	0xbdab1076	-0.08352749
17	0xbdc32760	-0.095289946
18	0x3da2f777	0.079573564
19	0x3dc51a36	0.0962414
20	0xbd9f0c2f	-0.07765996
21	0x3d8af3a4	0.06784752
22	0x3c228cf5	0.009921302
23	0xbde9632e	-0.1139587
24	0xbbb78ec8	-0.0056017376
25	0xbd9a1fea	-0.075256184
26	0xbd2ec328	-0.042666584
27	0x3de18038	0.11010784
28	0x3dcd5844	0.10026601
29	0xbd886dba	-0.06661554
30	0x3d74fcee	0.059811525
31	0xbbb10619	-0.005402338
32	0xbd838874	-0.06422511
33	0x3cd679c9	0.026181119
34	0x3de2a9c8	0.110675395
35	0xbddf507d	-0.10904024
36	0xbd9e13f2	-0.07718648
37	0xbd37726a	-0.044786848
38	0xbded96c8	-0.11601025
39	0x3dcfbb4c	0.10143146
40	0xbdc3dfd9	-0.0956418
41	0xbd390c5c	-0.045177802
42	0xbdf3f235	-0.11911432
43	0xbd8f2b05	-0.06990627
44	0xbd062c7c	-0.032757267
45	0x3d113504	0.03545095
46	0xbd093699	-0.033499334
47	0xbda0f552	-0.07859291
48	0xbcd04dab	-0.02542766
49	0x3d1d1d7c	0.038358197
50	0x3d9a8696	0.075452015
51	0xbca3881d	-0.019962365
52	0xbd2e3d1c	-0.042538747
53	0xbd6dcdcc	-0.05805759
54	0x3de76975	0.11299411
55	0x3de1617c	0.11004922
56	0x3bc4393c	0.005988268
57	0x3c807625	0.015681336
58	0xbdad3621	-0.0845759
59	0xbd9951c0	-0.07486296
60	0x3d379780	0.044822216
61	0xbd915f1d	-0.070982195
62	0xbc8ff340	-0.017572045
63	0x3ae0823a	0.0017128654
64	0x3de2f8bc	0.110825986
65	0xbd0147f8	-0.031562775
66	0x3d3d7af4	0.046259835
67	0x3d393de0	0.045225024
68	0x3dc1f4f6	0.09470551
69	0x3d0fbf48	0.03509453
70	0x3d8a71c0	0.06759977
71	0x3ba8c254	0.005150119
72	0xbdd95514	-0.106119305
73	0xbdd52b4e	-0.1040865
74	0xbdf9eb64	-0.122031
75	0xbd3f4502	-0.04669667
76	0xbd0e40b8	-0.03472969
77	0xbdc761a0	-0.09735417
78	0xbd9b8968	-0.075945675
79	0x38b6b074	8.711303e-05
80	0x3dc47080	0.0959177
81	0xbca02924	-0.019550867
82	0xbbccdada	-0.006251675
83	0x3d3cc650	0.046087563
84	0x3d2e76d0	0.042593777
85	0x3dbdcd98	0.092677295
86	0xbd5b826a	-0.05359117
87	0x3dd2c94a	0.10292299
88	0xbd81daee	-0.06340586
89	0x3db6bf5e	0.08923219
90	0x3d8323a0	0.06403279
91	0x3c8efe8c	0.017455362
92	0x3d3a58d0	0.045494854
93	0x3dbcfca2	0.092278734
94	0xbd50ffda	-0.05102525
95	0x3db357ee	0.08757006
96	0x3cc5bb32	0.024137113
97	0x3db63cf4	0.08898345
98	0xbc9fb584	-0.019495733
99	0xbbe73782	-0.0070561776
100	0x3d70893a	0.05872462
101	0xbdcb1cb2	-0.099175826
102	0x3db070f8	0.08615297
103	0x3b4258da	0.002965501
104	0x3d0565fc	0.032567963
105	0x3c1c2084	0.009529237
106	0x3d660be2	0.056163676
107	0xbdcac45a	-0.09900732
108	0x3d6de1d6	0.058076702
109	0x3d1dfe3c	0.038572535
110	0x3d14c528	0.036320835
111	0x3dce4a2e	0.100727424
112	0x3dcbdf2e	0.099546775
113	0xbbd9b7ba	-0.0066442164
114	0xbdce15ea	-0.100627735
115	0x3d9a1b4e	0.07524739
116	0xbd8c26e6	-0.06843357
117	0x3d85e36a	0.065375164
118	0x3dbe1fca	0.09283407
119	0xbdc0affe	-0.09408568
120	0xbdaaa1cc	-0.083316416
121	0xbd61549a	-0.055012323
122	0xbccfe83a	-0.025379289
123	0xbdc92e9e	-0.09823345
124	0x3d64d43c	0.055866465
125	0xbce3a042	-0.027786378
126	0xbdc01df0	-0.0938071
127	0x3dcba666	0.09943847
128	0xbd652da8	-0.055951744
129	0x3cef5c4e	0.029218819
130	0xbd68aa8a	-0.056803264
131	0x3d7b3672	0.06133122
132	0x3d9c2ad8	0.07625359
133	0x3c7f9933	0.01560049
134	0xbdcdd01a	-0.10049458
135	0x3d41c748	0.04730919
136	0xbda1b97d	-0.07896707
137	0x3c9ed420	0.019388258
138	0xbddcc8bc	-0.107804745
139	0xbd651788	-0.055930644
140	0x3d65d02c	0.05610673
141	0x3c860914	0.01636175
142	0x3debce97	0.11514013
143	0x3dd76d9d	0.10518954
144	0xbd9cd0ee	-0.07657038
145	0x3bd2524e	0.006418503
146	0xbdbed08f	-0.09317123
147	0xbde598b4	-0.112107664
148	0x3d268304	0.04065229
149	0xbdccfdc1	-0.10009337
150	0xbd7b0d20	-0.061291814
151	0x3d846279	0.06464095
152	0xbd10a722	-0.03531564
153	0xbaebd840	-0.0017993525
154	0x3d4569c9	0.048196588
155	0x3d7f74bb	0.062367182
156	0xbcc926f8	-0.024554715
157	0xbd57d5a7	-0.05269399
158	0xbdb6a90d	-0.08918963
159	0x3c526df2	0.012843596
160	0xbd95ba62	-0.0731094
161	0xbd6c16e3	-0.057639014
162	0x3dedfcde	0.11620496
163	0xbc731bd9	-0.014838182
164	0xbd7e666b	-0.062109392
165	0x3d9d38bf	0.07676839
166	0x3ce2d1b9	0.027687894
167	0xbd5e12cb	-0.05421714
168	0x3dd053e0	0.10172248
169	0xbccab50a	-0.02474453
170	0x3d15379e	0.036429994
171	0x3de6e068	0.11273271
172	0x3dfed6c2	0.124433056
173	0xbc93626c	-0.017991267
174	0x3de60e46	0.11233191
175	0xbd8f5b32	-0.06999816
176	0x3ddf5dd4	0.10906568
177	0xbd02f73a	-0.031974055
178	0xbdfebf82	-0.12438871
179	0xbde42cf8	-0.111413896
180	0x3d920e63	0.0713165
181	0xbd345be5	-0.04403295
182	0xbd6b2a48	-0.05741337
183	0xbcf4cc41	-0.029882552
184	0xbd806caf	-0.0627073
185	0x3b71228a	0.0036794269
186	0xbd7537f4	-0.059867814
187	0xbd520c36	-0.051281177
188	0xbdd13024	-0.1021426
189	0x3d84f4b5	0.06491987
190	0x3d68849b	0.056767087
191	0x3d5f3958	0.054498047
192	0x3de46a7c	0.11153123
193	0xbc3f3a69	-0.011671641
194	0x3db02664	0.086010724
195	0x3d87feb0	0.06640375
196	0xbd9a0c02	-0.075218216
197	0x3d5b9db5	0.053617198
198	0x3d846a9c	0.064656466
199	0xbd8372fd	-0.06418417
200	0x3de23041	0.1104436
201	0xbd8e6184	-0.069521934
202	0x3db8a053	0.090149544
203	0x3bde6c4c	0.0067878123
204	0xbc9f6458	-0.019457027
205	0xbe01d1f1	-0.12677743
206	0x3d809362	0.06278111
207	0x3d4af59c	0.049550638
208	0xbbf212b6	-0.0073874844
209	0x3d21496c	0.03937666
210	0x3d9d5140	0.07681513
211	0x3cae12e6	0.021249246
212	0xbdd11df2	-0.1021079
213	0x3c1657c9	0.009176203
214	0x3d18d261	0.037310008
215	0x3db875c9	0.09006841
216	0xbdd7c647	-0.10535865
217	0x3dfb3abc	0.12267062
218	0x3d6a2b30	0.057170093
219	0x3ddd9979	0.10820288
220	0x3d9a7402	0.07541658
221	0x3db44e3e	0.08803986
222	0xbdcdc167	-0.10046654
223	0x3c5e87d6	0.0135821905
224	0xbcce71b2	-0.025200699
225	0xbdcd3b90	-0.10021126
226	0xbce75218	-0.028237388
227	0xbda3f3ec	-0.08005509
228	0xbdd197b0	-0.1023401
229	0xbddaadbf	-0.10677671
230	0x3cca27b8	0.024677143
231	0x3d3bbc98	0.045834154
232	0xbd09a31e	-0.033602826
233	0xbdbdf91b	-0.09276029
234	0xbddcdf2c	-0.10784754
235	0x3dd3af4f	0.10336172
236	0x3da41871	0.08012474
237	0xbc51293a	-0.012766177
238	0xbd8ae4b4	-0.06781903
239	0xbd9ff599	-0.07810516
240	0x3dc0c84c	0.094132036
241	0x3d0222dd	0.03177153
242	0xbc911094	-0.0177081
243	0x3d9fbcd5	0.07799689
244	0xbdf00ea3	-0.11721542
245	0xbdee9f69	-0.11651499
246	0xbdc0462d	-0.09388385
247	0x3d8ca1df	0.06866812
248	0x3dd836ae	0.10557304
249	0xbd5e0123	-0.054200303
250	0x3d389312	0.045062132
251	0x3b063d71	0.00204834
252	0x3cee7fa2	0.029113594
253	0x3d22eeb4	0.039778426
254	0x3df8aaf6	0.12141983
255	0xbdcc3e9a	-0.09972878

bias f4 [256]
0	0x3db50590	0.088389516
1	0xbdde7d5e	-0.10863756
2	0x3d22cde6	0.03974714
3	0xbc4d2376	-0.012520662
4	0x3d246f9d	0.040145505
5	0xbd49045f	-0.049076434
6	0x3dac214f	0.084047906
7	0xbdc204aa	-0.09473546
8	0x3db4b270	0.08823097
9	0x3d8388c3	0.064225696
10	0xbd974bce	-0.073875055
11	0x3de0dfb3	0.10980167
12	0xbbbbf454	-0.0057359133
13	0x3c88f50c	0.01671841
14	0xbdb49842	-0.088181034
15	0x3dbbaf7f	0.091643326
16	0xbd87461f	-0.066051714
17	0x3c65657d	0.0140012475
18	0x3d5ed516	0.054402433
19	0xbd835c68	-0.064141095
20	0x3dd13d30	0.10216749
21	0xbcfd6d5b	-0.030935934
22	0xbd9e6694	-0.07734409
23	0x3d672bc3	0.05643822
24	0x3e083af0	0.13303733
25	0xbd810dac	-0.06301436
26	0x3d3d3a9d	0.046198476
27	0x3de1629d	0.11005137
28	0x3d810d37	0.06301349
29	0x3d05767a	0.03258369
30	0x3c901eb1	0.01759276
31	0x3d2c5928	0.042077214
32	0x3dddc707	0.10828977
33	0xbe038a6e	-0.12845775
34	0xbc3a62e5	-0.011376117
35	0x3da57bb1	0.08080233
36	0x3ca46084	0.020065553
37	0xbce4ff91	-0.027953895
38	0x3d1b91a0	0.037980676
39	0xbd0a9b25	-0.033839364
40	0xbdddb819	-0.108261295
41	0xbda418e0	-0.08012557
42	0xbd05e810	-0.032692015
43	0xbd469b18	-0.048487753
44	0x3d820eec	0.06350502
45	0xbb8abe3f	-0.004234105
46	0xbde92ace	-0.113851175
47	0x3cb345cc	0.021883868
48	0x3df69421	0.12039972
49	0xbd003d84	-0.031308666
50	0x3d40e903	0.047097217
51	0xbdb04585	-0.0860701
52	0x3d72099c	0.059091195
53	0xbd45a6bc	-0.048254713
54	0x3da0fb75	0.078604616
55	0xbdfebb78	-0.124381006
56	0x3db93f08	0.090452254
57	0xbd0120f2	-0.03152556
58	0xbd0b2ca5	-0.033978123
59	0x3df71485	0.12064461
60	0xbc5df1da	-0.013546431
61	0xbbca737b	-0.006178317
62	0x3d021383	0.03175689
63	0x3be09010	0.006853111
64	0x3ca662e1	0.020310821
65	0x3df74930	0.12074506
66	0xbdeda0d0	-0.11602938
67	0x3e0d7140	0.13812733
68	0x3d90a9ec	0.0706366
69	0xbd8ccce0	-0.06875014
70	0x3d2e6a78	0.042582005
71	0x3c4282a3	0.0118719665
72	0x3cc1bb62	0.023648921
73	0xbda2d7ef	-0.07951342
74	0xbda8eddb	-0.08248492
75	0x3c35d215	0.011097451
76	0x3e091a66	0.13388976
77	0x3e0551a4	0.13019425
78	0x3d4b2b3a	0.04960177
79	0x3db53a38	0.08848995
80	0x3db374b2	0.08762492
81	0x3dd516aa	0.104047135
82	0xbdc967c9	-0.098342486
83	0x3d49f9b9	0.04931042
84	0x3e0569e8	0.13028681
85	0x3c169df8	0.009192936
86	0xbd268da1	-0.04066241
87	0x3df722ae	0.120671615
88	0x3c9257bc	0.0178641
89	0x3d878dc9	0.0661884
90	0xbdb8c17d	-0.0902128
91	0xbd30753f	-0.043080565
92	0x3def5a51	0.11687148
93	0x3c3cef5c	0.011531677
94	0x3db0f79b	0.08640977
95	0x3d4e7fc1	0.050414804
96	0xbd5eda00	-0.05440712
97	0xbd4e89e5	-0.050424475
98	0xbdc6db4a	-0.09709795
99	0xbdc2cdf6	-0.0951194
100	0xbd9bfc2c	-0.07616457
101	0xbda00de2	-0.07815148
102	0x3d32d9e0	0.043664813
103	0x3d61917e	0.055070393
104	0xb8b4fd41	-8.630241e-05
105	0xbd58623e	-0.052828066
106	0x3e0a12c5	0.13483723
107	0xbcb923c6	-0.022600066
108	0xbd662d12	-0.056195326
109	0xbd13a772	-0.03604836
110	0xbddc7fe0	-0.10766578
111	0x3e08ba2a	0.13352266
112	0xbd801eb6	-0.06255858
113	0x3d3e2710	0.04642397
114	0x3cb6f89e	0.022335347
115	0x3cda0590	0.02661398
116	0x3d9dec7e	0.07711123
117	0xbdcbae65	-0.099453725
118	0x3dab784d	0.08372555
119	0xbd455335	-0.048175056
120	0x3c66f003	0.014095309
121	0xbd944172	-0.07239045
122	0x3ddffeb8	0.109372556
123	0x3ba6d074	0.0050907675
124	0xbd16246f	-0.03665584
125	0x3de47b79	0.11156363
126	0x3db7be66	0.089718625
127	0xbdacc824	-0.08436611
128	0x3d318441	0.043339018
129	0x3dfa18e0	0.12211776
130	0xbdf35d86	-0.118830726
131	0x3d0e3cde	0.034726016
132	0xbdac4918	-0.08412379
133	0xbd7cbd96	-0.06170424
134	0x3c4c4d79	0.012469643
135	0xbc96d460	-0.018411815
136	0xbd9e9b88	-0.07744509
137	0x3d0fdf14	0.035124853
138	0x3c16c204	0.00920153
139	0x3ddb3f68	0.10705453
140	0xbd738702	-0.059454925
141	0xbdfab52e	-0.122415885
142	0xbd90c0e2	-0.070680395
143	0x3d2737e0	0.04082477
144	0xbdd7b51e	-0.10532592
145	0xbd257f65	-0.040404696
146	0xbd0c8124	-0.034302846
147	0xbd468f01	-0.048476223
148	0x3e07dbf9	0.13267507
149	0x3debb6b4	0.11509457
150	0xbc9a9a8c	-0.018872522
151	0xbd51c626	-0.05121436
152	0x3de22354	0.110418946
153	0xbdad4364	-0.08460119
154	0x3d0d1ae2	0.034449466
155	0xbdfaf56a	-0.1225384
156	0xbad78e07	-0.0016445526
157	0x3c115118	0.008869432
158	0xbc33d5c0	-0.010976255
159	0xbdb2c256	-0.08728473
160	0x3e05404a	0.13012806
161	0x3e0e70e8	0.13910258
162	0x3d16dfbf	0.036834475
163	0x3d190241	0.037355665
164	0xbd11f3f0	-0.035633028
165	0x3d8d0ac8	0.06886822
166	0x3dda6a20	0.10664773
167	0x3d93a525	0.07209233
168	0xbda3c69e	-0.079968676
169	0xbd50a9de	-0.050943248
170	0xbdde52ea	-0.10855658
171	0xbdd8e9a0	-0.105914354
172	0x3d76c4ee	0.0602464
173	0x3debd199	0.11514587
174	0xbd2b478b	-0.041816276
175	0xb8d4001a	-0.00010108967
176	0x3dbc258b	0.09186848
177	0xbc927717	-0.017879052
178	0x3dc6a60a	0.09699638
179	0xbdf24296	-0.118291065
180	0x3c5937dc	0.013257947
181	0x3d35b492	0.04436166
182	0x3d6a87c7	0.057258394
183	0xbde216fc	-0.1103954
184	0x3b557f4d	0.0032577098
185	0xbd958a39	-0.073017545
186	0x3cd28181	0.025696518
187	0xbdc76ad9	-0.097371764
188	0x3db1e221	0.08685709
189	0x3cd28906	0.025700103
190	0xbd046954	-0.03232701
191	0x3d24e6f7	0.040259328
192	0x3de06a9c	0.10957834
193	0xbd8bd89c	-0.06828424
194	0xbda48008	-0.080322325
195	0xbbbace8f	-0.0057008932
196	0x3d657e73	0.056028794
197	0xbc6b55f2	-0.014363753
198	0x3c60ecd5	0.01372834
199	0x3d795bb3	0.060878467
200	0x3daae4b4	0.08344403
201	0xbdba8e6f	-0.09109198
202	0x3d1eec5f	0.03879964
203	0xbdd82cfe	-0.105554566
204	0xbddab948	-0.10679871
205	0x3dd67d24	0.104730874
206	0x3db9cf48	0.09072739
207	0xbd1cd8dc	-0.03829275
208	0x3c676070	0.014122114
209	0x3d970e56	0.07375781
210	0xbdbf4e56	-0.09341113
211	0xbd341922	-0.04396928
212	0x3dbe1c88	0.09282786
213	0x3d5e92c6	0.054339193
214	0xbd4eb813	-0.050468516
215	0x3b236881	0.0024934115
216	0xbde2413a	-0.11047597
217	0xbcbdc1a7	-0.02316363
218	0xbd0d4ce0	-0.03449714
219	0xbd9e9f85	-0.0774527
220	0xbce16b77	-0.027517064
221	0xbd91e660	-0.07124019
222	0x3de52809	0.11189277
223	0x3dd0413f	0.10168695
224	0xbd111186	-0.035417102
225	0x3d61f715	0.055167276
226	0xbde0f01e	-0.10983299
227	0xbda0dd37	-0.078546934
228	0x3d64cdcd	0.05586033
229	0xbd67ef57	-0.056624737
230	0xbda3d17e	-0.07998942
231	0xbb84aaf4	-0.0040486995
232	0xbd78e200	-0.060762405
233	0xbde72390	-0.1128608
234	0xbdf2f210	-0.11862576
235	0xbd8d914a	-0.06912477
236	0xbc333809	-0.010938653
237	0x39af5b1f	0.00033446492
238	0xbda0cce4	-0.0785158
239	0xbd42bdc2	-0.04754425
240	0xbdeacdac	-0.1146501
241	0xbd8bce38	-0.068264425
242	0x3cd0b174	0.025475241
243	0xbd5d71b6	-0.05406352
244	0x3de0a49f	0.10968899
245	0xbda7d170	-0.08194244
246	0xbca03ae4	-0.019559331
247	0xbdce3f4c	-0.10070667
248	0xbdd8aa30	-0.10579336
249	0x3cb910fc	0.022591107
250	0xbcbae94a	-0.022816319
251	0xbcc03b70	-0.023465842
252	0x3e005485	0.12532242
253	0x3ca145a6	0.019686531
254	0x3e10b366	0.14130935
255	0xbd3473ee	-0.04405587

weight f4 [128, 256]
0	0xbd7cdb25	-0.06173243
1	0x3d1f0f78	0.03883311
2	0xbd3906e4	-0.045172587
3	0xbd21555d	-0.03938805
4	0xbb3d81e4	-0.0028916532
5	0xbb7ddc3c	-0.0038736006
6	0xbd3a8852	-0.04554016
7	0x3d4d7c96	0.050167643
8	0xbd0c8e5d	-0.034315456
9	0x3ba39699	0.004992318
10	0x3c57be79	0.013167971
11	0x3d485843	0.048912298
12	0x3d5720d0	0.052521527
13	0x3d1a4188	0.03766015
14	0x3d413cd8	0.047177166
15	0x3d3c1a2c	0.045923397
16	0x3c028beb	0.007967929
17	0x3cfab2ac	0.030602776
18	0xbc3d2e5b	-0.011546697
19	0x3d675314	0.056475714
20	0x3d5dea76	0.054178677
21	0xbd4461b1	-0.04794473
22	0xbd7c7124	-0.061631337
23	0x3cdd2882	0.026996855
24	0x3b24c0de	0.0025139372
25	0x3c2f41e4	0.010696862
26	0xbc858854	-0.016300358
27	0xbd2edc39	-0.04269049
28	0xba3bc1e1	-0.0007162374
29	0xba7a4c56	-0.0009548118
30	0x3d3c11ad	0.045915294
31	0x3cccfd53	0.025023138
32	0xbd52eeb5	-0.05149718
33	0xbc02de4b	-0.007987569
34	0x3d74b018	0.05973825
35	0xbd0b5877	-0.034019914
36	0x3d4e3488	0.050343066
37	0x3cc6c9f8	0.024266228
38	0xbb1daa74	-0.0024057897
39	0x3b0455f7	0.002019284
40	0xbcb917b5	-0.022594312
41	0x3d538792	0.05164296
42	0x3c1cbdcc	0.0095667355
43	0xbc94d81a	-0.018169452
44	0x3bfc3f6b	0.0076979897
45	0xbd4c7b40	-0.049922228
46	0xbc328574	-0.0108960755
47	0x3d7e88bc	0.06214212
48	0x3d0b1277	0.033953156
49	0xbb8e6f24	-0.004346745
50	0x3c620399	0.013794803
51	0x3cf91353	0.030404722
52	0x3a005af5	0.0004896366
53	0x3d7338fb	0.059380513
54	0xbc81304c	-0.0157701
55	0x3cba6329	0.022752361
56	0x3b8fb40f	0.0043854783
57	0xbbcc6292	-0.0062373364
58	0xbbff8ee9	-0.0077990186
59	0xbd48c994	-0.049020365
60	0xbce2b66d	-0.027674878
61	0x3d1490e2	0.036270984
62	0xbc806553	-0.015673315
63	0x3c4e6449	0.012597152
64	0xbd355821	-0.0442735
65	0xbc9a0394	-0.018800534
66	0xbd727328	-0.059191853
67	0xbd4ef930	-0.050530612
68	0x3c668580	0.014069915
69	0x3c0a54b6	0.008443048
70	0xbd57241b	-0.052524667
71	0xbd177c77	-0.036983933
72	0xbcedbffe	-0.029022213
73	0xbd558d76	-0.05213686
74	0xbd67cbb0	-0.056590736
75	0x3d278c32	0.040905185
76	0xbba5a1d6	-0.0050546927
77	0x3d5b85eb	0.05359451
78	0xbca8b3cd	-0.020593548
79	0xbbe72ba2	-0.007054762
80	0xbcb21208	-0.021737114
81	0xbd4227d2	-0.047401257
82	0xba186179	-0.00058128644
83	0x3d712524	0.05887331
84	0xbd413e02	-0.047178276
85	0x3d72f52d	0.05931585
86	0xbd1a7481	-0.037708763
87	0x3d2df436	0.042469226
88	0xbd7ed6e8	-0.06221667
89	0x3c751b78	0.014960162
90	0xbc9939f5	-0.018704394
91	0x3cbf7ed1	0.0233759
92	0x3d23cfc7	0.039993074
93	0x3c8e92b0	0.01740393
94	0xbd5bc025	-0.05365004
95	0xbce4ed98	-0.027945325
96	0x3cd82fa2	0.0263899
97	0x3d07c27b	0.033144455
98	0x3d2ade46	0.041715883
99	0x3cad15b7	0.021128519
100	0xbd583d04	-0.052792564
101	0xbd766d5a	-0.06016288
102	0xbcfa6e52	-0.030570183
103	0xbd210d87	-0.03931954
104	0x3c8d1ff3	0.017227149
105	0xbd5ee5c0	-0.054418325
106	0xbbd3ea7d	-0.006467162
107	0x3d3c2e7b	0.045942765
108	0x3c6e17a6	0.014532005
109	0x3cfd150f	0.03089383
110	0x3c862ee4	0.016379781
111	0xbc1c60d4	-0.00954457
112	0x3cbc3b24	0.02297742
113	0x3c14df76	0.00908648
114	0xbd090d78	-0.03346011
115	0x3bd89271	0.006609254
116	0x3cdd2d80	0.026999235
117	0xbd210526	-0.03931155
118	0xbc618598	-0.013764761
119	0xbb3ccd97	-0.0028809065
120	0xbc94adee	-0.018149342
121	0xbcfe6ab6	-0.031056743
122	0xbc87a865	-0.016559789
123	0xbcbace94	-0.022803582
124	0xbc49f5c4	-0.0123266615
125	0x3d107cb8	0.03527519
126	0xbd03285b	-0.032020908
127	0xbc77a778	-0.015115611
128	0xbd67c5d4	-0.056585148
129	0xbcfe9898	-0.031078622
130	0xbd1d4914	-0.03839977
131	0x3cc49e61	0.024001302
132	0xbd6f46c8	-0.05841711
133	0x3d186651	0.03720695
134	0x3cb553b1	0.022134634
135	0x3d2209e7	0.039560225
136	0xbd2cac4a	-0.042156495
137	0x388d0614	6.724536e-05
138	0xbcc3b802	-0.023891453
139	0x3d4401ba	0.04785321
140	0xbc96216c	-0.018326484
141	0x3d236bfc	0.039897904
142	0xb87b1942	-5.9866587e-05
143	0x3d349669	0.044088755
144	0xbd15f688	-0.036612064
145	0x3cc45b65	0.023969362
146	0x3d286f94	0.041122034
147	0x3d2eeecc	0.042708203
148	0xbd6f1d48	-0.058377534
149	0xbd064166	-0.032777213
150	0x3d51de32	0.051237293
151	0xbc3276b4	-0.010892559
152	0xbd03a135	-0.03213616
153	0xbcedcff2	-0.02902982
154	0xbcce52dc	-0.025185995
155	0x3cb43e4c	0.022002362
156	0xbd1210d5	-0.035660584
157	0xbc0fa538	-0.008767419
158	0x3d2f2a28	0.042764813
159	0x3d10156e	0.035176687
160	0x3d46beba	0.048521735
161	0xbc664148	-0.01405365
162	0xbd2202fc	-0.039553627
163	0xbcb77eac	-0.022399269
164	0xbbbbe7fb	-0.0057344413
165	0xbd73df57	-0.059539165
166	0xbc51d36f	-0.012806757
167	0x3d636f9f	0.055526372
168	0xbd3dbefa	-0.046324708
169	0xbc29b964	-0.010359142
170	0x3d0b8f38	0.03407213
171	0xbc47beda	-0.012191499
172	0xbd75a815	-0.05997475
173	0x3cee356b	0.029078206
174	0xbcaa26c4	-0.020770438
175	0xbd746bf6	-0.059673272
176	0x3c87e1e2	0.016587202
177	0xbafa5fe4	-0.0019102064
178	0xbd1fb9cd	-0.038995553
179	0x3d47cdaa	0.04878012
180	0xbc9d3eb4	-0.019194938
181	0xbc232119	-0.009956622
182	0x3d3dddcf	0.04635411
183	0x3d7048c3	0.05866314
184	0x3c2485e6	0.0100416895
185	0x3cec6a71	0.028859349
186	0xbc7bde1b	-0.015372778
187	0xbd2eb3cd	-0.04265194
188	0xbd48cb37	-0.049021926
189	0xbd2af507	-0.041737583
190	0xbd40c9f8	-0.047067612
191	0x3d36ba6e	0.044611387
192	0x3d77afca	0.06047038
193	0x3d0485eb	0.032354277
194	0x3c6a5252	0.014301853
195	0xbc9a85b2	-0.018862579
196	0x3d6ca13b	0.05777095
197	0xbd0ba55a	-0.03409324
198	0xbd4cd1a4	-0.050004616
199	0x3d72239b	0.059115987
200	0x3d609313	0.05482776
201	0x3b875344	0.004129799
202	0x3b000871	0.0019536281
203	0xbd7973fc	-0.060901627
204	0x3d029cd0	0.03188783
205	0x3d7f6e72	0.06236119
206	0xbd0e03ce	-0.034671597
207	0x3d4d78bc	0.05016397
208	0x3d3b970a	0.04579834
209	0x3d470d91	0.048596922
210	0xbd29b4dd	-0.04143225
211	0xbcfdb41d	-0.030969674
212	0xbcef1f26	-0.029189657
213	0x3d529524	0.051411763
214	0xbd6635f2	-0.05620379
215	0x3c3f9626	0.011693513
216	0x3d149110	0.036271155
217	0xbd298fb3	-0.041396808
218	0x3cf6c56a	0.030123431
219	0xbcf6ffd9	-0.030151295
220	0x3d6ed968	0.058312804
221	0xbd7b9626	-0.06142249
222	0xbd4b28a0	-0.04959929
223	0x3d679322	0.0565368
224	0xbd02b87d	-0.031914223
225	0x3cdc8a07	0.026921285
226	0x3d5586b4	0.052130416
227	0xbaceb3c3	-0.0015770126
228	0x3d67e1be	0.05661177
229	0x3d344d7f	0.04401922
230	0xbc1a0814	-0.00940134
231	0xbbd8c59a	-0.006615353
232	0x3d7a2aec	0.06107609
233	0x3d4ecdae	0.05048912
234	0x3c1128bc	0.0088598095
235	0xbd7070f8	-0.058701485
236	0xb925b50a	-0.00015803069
237	0xbd0a3618	-0.033742994
238	0x3d374bdf	0.04475009
239	0xbd586746	-0.052832864
240	0x3d233cb7	0.039852824
241	0xbc15c0cc	-0.009140205
242	0x3c7ba91d	0.015360144
243	0xbd3e7ece	-0.04650765
244	0xbd4ada70	-0.049524724
245	0x3d021646	0.031759523
246	0x3d63ffdc	0.05566393
247	0xbd4d401a	-0.05010996
248	0xbd0bf850	-0.034172356
249	0xbc8137f8	-0.015773758
250	0x3d63c4c0	0.055607557
251	0x3c68a856	0.014200291
252	0x3a8749b8	0.0010321653
253	0x3d48c7df	0.049018737
254	0xbc2f7b20	-0.010710508
255	0x3d5e28c4	0.054238096

bias f4 [128]
0	0xbc8aef1d	-0.016959721
1	0xbd1f6152	-0.03891117
2	0xbcd603b1	-0.026124807
3	0x3daaa9e1	0.08333183
4	0x3c941b1d	0.018079335
5	0xbce4fc74	-0.02795241
6	0x3c2d5106	0.0105783995
7	0x3c7b3759	0.01533302
8	0xbcb0347d	-0.021509403
9	0x3d87ab61	0.06624485
10	0x3d5bd63b	0.053671103
11	0x3c80ed97	0.015738292
12	0x3b24e08e	0.002515826
13	0xbd6e00ca	-0.05810622
14	0x3e09086c	0.13382119
15	0x3cc42343	0.023942595
16	0x3d0f2800	0.034950256
17	0x3d63828e	0.05554443
18	0x3d4ec4f2	0.05048079
19	0x3ceb270c	0.028705142
20	0x3d33a626	0.043859623
21	0xbcc2c841	-0.02377713
22	0xbd18c89a	-0.037300684
23	0xbd0325f0	-0.032018602
24	0x3dbee31b	0.09320661
25	0x3d2b89e5	0.041879553
26	0xbd407fc6	-0.046996854
27	0x3d7293fb	0.059223156
28	0x3aad6513	0.0013228975
29	0x3d8399d7	0.06425827
30	0xbd36e09b	-0.044647794
31	0x3c962326	0.018327307
32	0x3b92c91e	0.0044795414
33	0xbd4326ef	-0.04764455
34	0xbca71772	-0.020396922
35	0x3dd5b180	0.10434246
36	0xbd0dad2d	-0.03458898
37	0x3d315cad	0.043301273
38	0xbd54fa95	-0.051996786
39	0x3cb5d7f6	0.022197705
40	0xbc0a2369	-0.008431294
41	0x3bc102bf	0.00589022
42	0xbbcd6aeb	-0.006268849
43	0xbd5f6d78	-0.054547757
44	0xbd2e3d0f	-0.0425387
45	0xbd733124	-0.059373036
46	0x3d78338f	0.060596045
47	0x3c525fb3	0.012840199
48	0x3ca237d7	0.019802017
49	0xbd304d5b	-0.043042522
50	0x3dca6771	0.09883011
51	0x3d02d876	0.031944714
52	0xbd510c0e	-0.051036887
53	0x3d2bdc6b	0.041958254
54	0x3d9d931e	0.07694076
55	0x3da2c48f	0.07947647
56	0x3c034191	0.008011238
57	0xbd4249a2	-0.047433503
58	0xbd3621a9	-0.044465695
59	0x3c99b9ad	0.018765295
60	0xbca06f4d	-0.019584322
61	0xbb1045e9	-0.0022014326
62	0xbd23dff4	-0.0400085
63	0x3d2ead56	0.042645775
64	0x3b0efed5	0.0021819372
65	0x3d9f0e0a	0.077663496
66	0xbd7578f9	-0.05992982
67	0x3c0158c7	0.007894701
68	0x3da18151	0.07885993
69	0x3cc5f050	0.024162441
70	0xbd53c78b	-0.05170397
71	0x3d9b3241	0.075779445
72	0x3d31afd7	0.043380585
73	0x3dec2127	0.11529761
74	0x3cf17876	0.029476386
75	0x3d131b4a	0.035914697
76	0x3d42739b	0.04747353
77	0xbd706873	-0.05869336
78	0xbd71d209	-0.059038196
79	0xbc25b0ed	-0.010112983
80	0xbca0ad8e	-0.019614007
81	0xbb9b8535	-0.004746104
82	0xbcc225fc	-0.023699753
83	0x3d99fdad	0.07519088
84	0xbbde9b85	-0.0067934417
85	0xbd730897	-0.059334364
86	0xbd130ab9	-0.035898898
87	0x3d448a5f	0.047983523
88	0xbc8f1a03	-0.017468458
89	0x3d0680af	0.032837566
90	0x3c9df9c2	0.019284133
91	0xbd43abff	-0.04777145
92	0xbd5793e2	-0.052631266
93	0x3d61baef	0.055109914
94	0x3c04ae18	0.008098148
95	0x3d4a9631	0.04945964
96	0xbd4df05c	-0.050278053
97	0x3d791539	0.060811255
98	0xbd13fc7a	-0.036129452
99	0x3cc1a990	0.023640424
100	0xbcaf6e38	-0.021414861
101	0x3d149979	0.036279175
102	0xbc410eb6	-0.0117832925
103	0x3d267138	0.040635318
104	0xbbcd2f24	-0.006261723
105	0x3cef5141	0.02921355
106	0x3d145fe6	0.03622427
107	0xbc86dc5e	-0.016462501
108	0x3d827f22	0.06371905
109	0xbd4654da	-0.048420765
110	0x3d132b7f	0.035930153
111	0x3b87fe51	0.00415019
112	0x3d066747	0.032813337
113	0x3dd5a64c	0.10432109
114	0xbd57e0f6	-0.052704774
115	0xbc4db533	-0.012555408
116	0x3b870b32	0.0041212076
117	0x3cdb9412	0.026804004
118	0x3d2e4e25	0.042554993
119	0xbd1281e9	-0.035768423
120	0x3dc82a71	0.0977372
121	0x3d46d0b2	0.04853887
122	0xbc74cb98	-0.014941119
123	0x3cb631b4	0.022240497
124	0x3cfceea6	0.030875515
125	0x3d57b566	0.05266323
126	0x3d10d9c1	0.035363916
127	0x3d3db533	0.046315383

weight f4 [64, 128]
0	0x3d8cb5c8	0.068706095
1	0x3cf85077	0.030311806
2	0xbd74278a	-0.05960802
3	0xbd8dfd54	-0.06933084
4	0x3d905f3c	0.070494145
5	0x3d6437c7	0.055717256
6	0xbd38b9b2	-0.045098968
7	0x3d057e4a	0.03259114
8	0xbd93ab19	-0.07210369
9	0x3ba453c3	0.005014868
10	0xbaad8f18	-0.0013241498
11	0xbdaa4685	-0.08314232
12	0x3ce758ab	0.028240522
13	0x3d04972f	0.032370742
14	0x3da4fadf	0.08055662
15	0x3ca553ac	0.0201815
16	0x3d9b5051	0.075836785
17	0x3d349100	0.044083595
18	0xb6c2f8f8	-5.8106343e-06
19	0x3c93656b	0.017992696
20	0xbce3847b	-0.027773133
21	0x3d981c49	0.0742727
22	0x3aea86fc	0.0017893012
23	0x3da4fd19	0.08056087
24	0xbdae968e	-0.0852481
25	0xbd4c0432	-0.04980869
26	0x3d88129b	0.06644174
27	0x3c1a2c6e	0.009410007
28	0xbd1366fe	-0.035986893
29	0x3d3b3877	0.045708146
30	0xbcfc06e8	-0.030765012
31	0x3db0864f	0.08619367
32	0xbce544db	-0.027986934
33	0x3d9b04f8	0.07569307
34	0x3bf1ca75	0.007378871
35	0xbca083e1	-0.019594135
36	0xbbfc5b7c	-0.0077013355
37	0xbda46287	-0.08026605
38	0x3d22f1f6	0.039781533
39	0xbd8584db	-0.06519481
40	0x3d87db95	0.06633679
41	0xbb5b07b9	-0.003342135
42	0x3d2a09c8	0.041513234
43	0xbdaee768	-0.08540231
44	0x3d714834	0.05890675
45	0x3c7081f7	0.0146794235
46	0x3d7edd12	0.062222548
47	0xbd6d37fe	-0.057914726
48	0xbd58e09b	-0.052948575
49	0xbd83cc62	-0.06435467
50	0x3da3e5fb	0.0800285
51	0xbd370e0d	-0.044691134
52	0xbd1f9a5b	-0.038965564
53	0x3db38b03	0.08766749
54	0xbd8bf7cf	-0.06834375
55	0x3b90ee82	0.0044229636
56	0xbd2de4a7	-0.042454388
57	0x3c7e4571	0.015519486
58	0xbd848c09	-0.06472022
59	0x3d6a053f	0.05713391
60	0xbd953c97	-0.07286947
61	0xbd7b297d	-0.061318863
62	0xbd03d7fb	-0.032188397
63	0x3c8774c8	0.016535178
64	0xbceb0928	-0.02869089
65	0x3d81e2c7	0.063420825
66	0xbce7554f	-0.02823892
67	0xbd0f433d	-0.034976233
68	0x3ca8277f	0.020526646
69	0x3d4b1eb2	0.04958982
70	0x3d8fe8a3	0.07026794
71	0x3d9c27cf	0.076247804
72	0x3d0d181e	0.034446828
73	0xbd3d612b	-0.046235245
74	0xbd907bf8	-0.07054895
75	0x3da61bc9	0.08110768
76	0x3d504738	0.05084917
77	0xbd6c4f73	-0.057692956
78	0xbd9f77be	-0.07786511
79	0xbc329fef	-0.010902389
80	0xbda19922	-0.07890536
81	0x3c10d3ed	0.00883959
82	0xbd011dae	-0.031522445
83	0x3d3d300e	0.046188407
84	0xbd4bf7a0	-0.0497967
85	0x3a03e36d	0.00050311425
86	0xbd7f30c0	-0.06230235
87	0x3cb16fb8	0.021659717
88	0x3c68478d	0.014177215
89	0xbc48fe31	-0.012267635
90	0xbaf07b0e	-0.001834722
91	0x3bb05d53	0.005382219
92	0x3b981ad8	0.004641872
93	0x3cb118ff	0.021618364
94	0xbdb3fb3d	-0.08788154
95	0xbdb08025	-0.08618192
96	0xbcc4ea6d	-0.024037564
97	0x3c718b20	0.014742643
98	0x3bc2efcb	0.0059489957
99	0xbd337d66	-0.04382076
100	0xbd34db93	-0.044154715
101	0x3bcea016	0.006305705
102	0xbce83e5a	-0.028350044
103	0x3db277c5	0.087142505
104	0xbd26945c	-0.04066883
105	0xbd319a50	-0.043360054
106	0x3d9fe04d	0.07806454
107	0xbd9984af	-0.074960105
108	0xbda18199	-0.07886047
109	0x3d62394e	0.05523043
110	0x3d9ca44a	0.07648523
111	0xbd2647eb	-0.04059593
112	0x3d1c70ba	0.038193442
113	0x3cbdc8e3	0.02316708
114	0x3c35fc68	0.011107542
115	0xbda18465	-0.078865804
116	0x3d09a5ad	0.033605266
117	0xbd19281c	-0.037391767
118	0x3d7a1ab9	0.06106064
119	0x3b25a6ac	0.0025276346
120	0xbd3dcf39	-0.0463402
121	0xbc6384e5	-0.013886665
122	0x3c430649	0.011903354
123	0x3c8c01e2	0.017090742
124	0x3da0e889	0.078568526
125	0xbcbad678	-0.022807345
126	0xbd4d29c3	-0.050088655
127	0x3d364056	0.04449495
128	0xbc22d084	-0.009937409
129	0xbd149043	-0.03627039
130	0x3d267621	0.04064
131	0xbc2e2538	-0.010628991
132	0x3d969c9c	0.073540896
133	0x3d0c191f	0.034203645
134	0x3d7df911	0.062005106
135	0xbda1bdf8	-0.07897562
136	0x3c790d00	0.015200853
137	0x3d6d6126	0.057953976
138	0xbbceb20c	-0.006307846
139	0xbd116dd3	-0.035505127
140	0xbd44cf18	-0.048049062
141	0x3ba8e559	0.0051542935
142	0x3d887af5	0.06664077
143	0x3d973736	0.073835775
144	0xbcc49177	-0.023995144
145	0xbd3a899a	-0.045541383
146	0x3d9a55fd	0.07535932
147	0x3d1b03c4	0.037845388
148	0x3da00dee	0.07815157
149	0x3dacc188	0.08435351
150	0xbdab333d	-0.08359382
151	0xbd4bc592	-0.049748965
152	0x3d85732f	0.0651611
153	0xbdaf2727	-0.085523896
154	0xbae54881	-0.0017492921
155	0x3ccf3618	0.025294349
156	0x3d15b08b	0.036545318
157	0x3d6029ae	0.05472725
158	0xbd74a136	-0.059724055
159	0x3c5540f2	0.013015972
160	0x3d0a18bb	0.03371499
161	0x3c6ec657	0.014573655
162	0xbcad63fd	-0.021165842
163	0xbce28609	-0.027651804
164	0x3c5bfc2d	0.013426823
165	0x3c2e7aa4	0.010649357
166	0x3bc751d0	0.006082751
167	0xbd5aeb6f	-0.053447183
168	0xbcd8fd25	-0.026487896
169	0x3caa1664	0.02076263
170	0x3d6bee0e	0.057600074
171	0x3b791ac7	0.0038010345
172	0x3d96e269	0.07367403
173	0xbd8cf212	-0.06882109
174	0x3dd0df5b	0.10198852
175	0xbd947123	-0.072481416
176	0xbce6b0a2	-0.028160397
177	0x3c45d9ff	0.0120759
178	0x3dd6ebdf	0.104942076
179	0xbc6cba2f	-0.0144486865
180	0xbc1400ea	-0.009033421
181	0x3c3fd194	0.011707682
182	0xbcca7b2b	-0.024716934
183	0x3d7f59f7	0.062341657
184	0xbd9cf413	-0.07663741
185	0xbca2e5f3	-0.019885039
186	0xbc4e3a13	-0.012587088
187	0x3d325733	0.04354019
188	0xbd5c986c	-0.0538563
189	0x3a0d0a8e	0.0005380296
190	0x3ab6877c	0.0013925876
191	0x3cee4533	0.029085731
192	0x3d391411	0.045185152
193	0x3de5d82a	0.11222871
194	0x3d8f843b	0.07007643
195	0xb99a3cbd	-0.00029418422
196	0x3cfb51ca	0.030678649
197	0x3d1fa7ce	0.03897839
198	0x3d1c7b7f	0.038203713
199	0xbc71b0cd	-0.014751625
200	0x3dd16144	0.1022363
201	0x3d567ece	0.052367024
202	0xbc776153	-0.0150988875
203	0xbd770790	-0.060309947
204	0x3c8634cb	0.016382596
205	0xbd4073d7	-0.046985473
206	0x3d1ffc53	0.039058995
207	0x3c020c85	0.007937555
208	0xbc270bc1	-0.010195673
209	0xba5731d8	-0.00082090264
210	0xbd0e4898	-0.0347372
211	0x3d564fe7	0.052322295
212	0x3d81fb49	0.06346757
213	0x3cf89592	0.030344758
214	0xbd65e45a	-0.056125976
215	0xbb794a1c	-0.0038038557
216	0x3cbfefc6	0.023429763
217	0xbd7374ff	-0.059437748
218	0x3d60ea7e	0.05491113
219	0xbd49a69c	-0.049231157
220	0xbd08f71e	-0.033438794
221	0xbd54736e	-0.051867895
222	0x3d8c3594	0.06846157
223	0x3d3a0a82	0.045420177
224	0xbcd960e2	-0.026535455
225	0x3dbed42c	0.09317812
226	0x3d195384	0.037433162
227	0xbcc5e3c7	-0.024156464
228	0x3d1cc395	0.03827246
229	0x3db73467	0.08945542
230	0x3db17ff4	0.08666983
231	0xbd9a8644	-0.075451404
232	0x3c028254	0.007965643
233	0xbd98d95b	-0.07463332
234	0x3d5dc923	0.054146897
235	0xbd84fc3d	-0.06493423
236	0x3cfaef71	0.030631753
237	0xbdaefab4	-0.085439116
238	0x3d2b2ce9	0.041790877
239	0xbd842631	-0.06452597
240	0x3d9753c3	0.07389023
241	0x3d9dbabc	0.077016324
242	0x3d460b75	0.04835077
243	0x3d14056a	0.036137976
244	0xbcfc545d	-0.030801946
245	0xbb2d8f49	-0.002648311
246	0xbc786e34	-0.015162993
247	0x39398a2e	0.00017694451
248	0x3ddf7aa2	0.10912062
249	0x3d3c3ed8	0.04595837
250	0xbd4512fb	-0.048113804
251	0x3db8871d	0.09010146
252	0xbd10bbe3	-0.035335433
253	0x3c94c464	0.018160053
254	0xbda927a1	-0.08259512
255	0xbd4a6117	-0.049409

bias f4 [64]
0	0xbd4bb264	-0.049730673
1	0x3e1dba60	0.15403128
2	0x3df94763	0.12171819
3	0xbb659a09	-0.003503444
4	0xbd7776db	-0.060416084
5	0x3e07ebed	0.13273592
6	0x3dbe3cac	0.09288916
7	0x3d59cee6	0.05317583
8	0xbdb9066f	-0.0903443
9	0xbd616ea9	-0.055037174
10	0xbda98d8c	-0.08278951
11	0xbd4bf80b	-0.0497971
12	0xbb912100	-0.0044289827
13	0x3d2671ef	0.040636
14	0x3c610588	0.013734229
15	0xbd1a93a3	-0.037738454
16	0x3d95456e	0.07288633
17	0x3d14a9e6	0.03629484
18	0x3d52c341	0.05145574
19	0x3e4aaac5	0.19791706
20	0xbc318223	-0.01083425
21	0x3c6435ef	0.013928874
22	0x3dc89739	0.097944684
23	0xbd127552	-0.035756417
24	0xbb83aacd	-0.004018164
25	0xbc47fac3	-0.012205782
26	0xbda35e12	-0.07976927
27	0x3d014633	0.031561088
28	0xbc942646	-0.018084656
29	0xbd8818bd	-0.066453435
30	0x3dea3216	0.114353344
31	0xbd875bd6	-0.06609313
32	0x3e0c83fb	0.13722222
33	0xbd70f84e	-0.05883055
34	0x3ae1d23f	0.0017228796
35	0x3c3ecad4	0.011645038
36	0xbd8b08f2	-0.067888156
37	0xbdaa4872	-0.08314599
38	0x3e662d7a	0.22478285
39	0xbb2d66c7	-0.0026458965
40	0x3df5fc13	0.1201097
41	0x3d2bc017	0.041931238
42	0xbda17ad0	-0.07884753
43	0xbd3dd426	-0.0463449
44	0x3cc16811	0.023609193
45	0x3d572296	0.052523218
46	0x3b933af6	0.0044931127
47	0x3dfed6fe	0.1244335
48	0xbb8067ea	-0.0039186375
49	0x3d874518	0.066049755
50	0xbd9a4bbb	-0.07533976
51	0x3d85778a	0.06516941
52	0x3e2161a5	0.15759905
53	0x3d8f45c5	0.06995729
54	0x3da70431	0.08155096
55	0x3ac904a9	0.0015336472
56	0x3ca4a221	0.02009684
57	0xbb6a0b5d	-0.003571234
58	0xbda6b4fd	-0.081399895
59	0x3e0985d0	0.13429952
60	0x3e49e30a	0.19715515
61	0x3b3d9a20	0.0028930977
62	0x3c77cace	0.015124036
63	0x3dc4cd39	0.096094556

weight f4 [2, 64]
0	0xbce8ef2e	-0.028434362
1	0x3e0ef7a4	0.13961655
2	0x3b0c27dc	0.0021386063
3	0xbdb87df7	-0.09008401
4	0x3de68cc1	0.112573154
5	0x3e3d9434	0.18513566
6	0x3d8ab986	0.06773667
7	0xbd8d8ceb	-0.069116436
8	0xbd908461	-0.07056499
9	0xbc89ab7a	-0.0168054
10	0x3d952f8b	0.07284459
11	0xbd82d8cb	-0.06389006
12	0x3ddff222	0.10934855
13	0x3e571265	0.2100311
14	0xbd271fc3	-0.040801775
15	0x3b54239a	0.0032369853
16	0x3dd0c524	0.101938516
17	0xbdb849a0	-0.08998418
18	0xbddb6684	-0.10712913
19	0x3e63444a	0.22194019
20	0x3e076c9f	0.1322503
21	0xbbe88d65	-0.0070969337
22	0x3e295144	0.16534907
23	0x3d773667	0.060354616
24	0xbd891b85	-0.06694702
25	0x3d860f9c	0.06545946
26	0xbdad22a9	-0.084538765
27	0x3c9305d9	0.017947124
28	0x3d6141f2	0.05499453
29	0x3ce3bfbd	0.027801389
30	0x3e75813a	0.23975077
31	0x3c60547f	0.01369202
32	0x3e8462c8	0.25856614
33	0xbd01e408	-0.03171161
34	0x3dc42b3e	0.0957856
35	0xbcfd532c	-0.030923449
36	0x3c8e378b	0.01736047
37	0x3db30002	0.08740236
38	0x3e7de773	0.24795322
39	0x3cf0154c	0.02930703
40	0x3da74996	0.08168332
41	0xbde6ce8e	-0.11269866
42	0xbdad20ce	-0.084535226
43	0xbd3364a5	-0.043797154
44	0x3e17dd14	0.14830428
45	0x3d7cdd2f	0.061734375
46	0x3d5c628f	0.05380493
47	0x3e1f8d7a	0.15581313
48	0xbdbe17c0	-0.09281874
49	0x3d820765	0.06349067
50	0xbd5ef7e6	-0.054435633
51	0x3d3cdc4e	0.046108536
52	0x3d929e50	0.07159102
53	0x3c410f58	0.011783443
54	0x3e063073	0.1310442
55	0xbd59d3ea	-0.053180613
56	0xbc023fdd	-0.0079497965
57	0xbd0c83a8	-0.034305245
58	0xbd752436	-0.059848987
59	0x3e616fdd	0.22015329
60	0x3e5c658f	0.21523117
61	0x3d2d6a99	0.042337988
62	0xbdf4316c	-0.11923489
63	0x3dedcce6	0.11611347
64	0xbd0849e6	-0.0332736
65	0xbe788217	-0.24268375
66	0xbe42dcc4	-0.19029528
67	0x3dd4f2e9	0.10397894
68	0x3d89b792	0.067244664
69	0xbe3d39a7	-0.18479024
70	0xbd5e0cdf	-0.054211494
71	0xbdf03b6b	-0.11730083
72	0x3df21358	0.11820096
73	0x3db48875	0.088150896
74	0xbc1bdac8	-0.009512611
75	0x3dd0321a	0.10165806
76	0x3dad7595	0.084696926
77	0xbde4e28e	-0.111760244
78	0x3d8ab29e	0.0677235
79	0xbd966282	-0.073430076
80	0xbd627de4	-0.05529584
81	0xbd33c423	-0.043888222
82	0x3d99727b	0.074925385
83	0xbe258efe	-0.16167828
84	0x3d8cb59a	0.06870575
85	0xbd878e52	-0.06618942
86	0xbe41aa19	-0.18912543
87	0x3bf377b7	0.0074300426
88	0x3db136f7	0.08653062
89	0x3ce49e17	0.027907414
90	0xbd5812ce	-0.05275231
91	0x3de530a0	0.11190915
92	0xbe15373b	-0.1457185
93	0xbdb86751	-0.09004081
94	0xbe3d6f95	-0.18499596
95	0x3ce64054	0.028106846
96	0xbd8a1726	-0.067426965
97	0x3d7a16bc	0.061056837
98	0x3c20778a	0.009794125
99	0xbd00cb6a	-0.03144399
100	0xbd0fd7d9	-0.035117958
101	0xbde675a1	-0.11252905
102	0xbe3884b8	-0.18019378
103	0xbdae27ee	-0.0850371
104	0xbd73dd05	-0.059536953
105	0xbd82a712	-0.063795224
106	0x3c0243af	0.007950707
107	0x3db096e1	0.08622528
108	0x3d4944ff	0.049138065
109	0xbe403bb4	-0.18772775
110	0x3d128863	0.0357746
111	0xbcfd72ed	-0.03093859
112	0xbd24393b	-0.04009364
113	0xbe05feb3	-0.13085441
114	0xbdfa2dc0	-0.12215757
115	0xbe1847d2	-0.14871147
116	0xbe501d26	-0.20323619
117	0xbe3e6909	-0.18594755
118	0xbe16438a	-0.14674202
119	0xbcd7801f	-0.02630621
120	0x3caad8ed	0.020855391
121	0x3da94878	0.082657754
122	0x3c72ca07	0.014818675
123	0x3c0db279	0.008648508
124	0xbde77b3b	-0.11302801
125	0x3c676f3a	0.01412564
126	0xbc1a417f	-0.00941503
127	0x3c9b8562	0.0189845

bias f4 [2]
0	0x3f468a65	0.77554923
1	0xbf2a3099	-0.66480404
