AutoBalance/results/tvarit_wheel/New_Experiments/test/dyly_LA_init/1/retrain/epoch_170.pth (torch, 236367 bytes, 8 tensors)

weight f4 [256, 64]
0.063315555 0.010177618 0.11337437 -0.057380814 -0.047337152 -0.095763505 0.03276295 -0.05068565
-0.05826256 -0.013532315 0.025731869 0.031224493 -0.034571655 0.01914975 0.08029865 0.123210244
-0.08352749 -0.095289946 0.079573564 0.0962414 -0.07767394 0.06784752 0.009921302 -0.11395912
-0.0056018094 -0.075256184 -0.042666584 0.110109106 0.10026601 -0.06661555 0.059810136 -0.005388537
-0.06422511 0.026181119 0.110675395 -0.109030865 -0.07718648 -0.044786908 -0.11601202 0.10143146
-0.09564994 -0.045177802 -0.11911432 -0.06990586 -0.032757267 0.03545095 -0.03349935 -0.07859384
-0.02542766 0.038351826 0.075452015 -0.019962464 -0.04254654 -0.05805765 0.11299411 0.11005206
0.005988437 0.015681336 -0.08457553 -0.07486417 0.044822216 -0.0709822 -0.017571023 0.0017140183
0.110825986 -0.031562775 0.046259835 0.045225024 0.09470551 0.03509453 0.06759977 0.005150119
-0.106119305 -0.1040865 -0.122031 -0.04669667 -0.03472969 -0.09735417 -0.075945675 8.711303e-05
0.0959177 -0.019550867 -0.006251675 0.046087563 0.042593777 0.092677295 -0.05359117 0.10292299
-0.06340586 0.08923219 0.06403279 0.017455362 0.045494854 0.092278734 -0.05102525 0.08757006
0.024137113 0.08898345 -0.019495733 -0.0070561776 0.05872462 -0.099175826 0.08615297 0.002965501
0.032567963 0.009529237 0.056163676 -0.09900732 0.058076702 0.038572535 0.036320835 0.100727424
0.099546775 -0.0066442164 -0.100627735 0.07524739 -0.06843357 0.065375164 0.09283407 -0.09408568
-0.083316416 -0.055012323 -0.025379289 -0.09823345 0.055866465 -0.027786378 -0.0938071 0.09943847
-0.055965316 0.02921829 -0.056803264 0.06133122 0.07625359 0.015593448 -0.10049458 0.04730919
-0.07896621 0.019387538 -0.107804745 -0.055930644 0.056106213 0.016357522 0.11513992 0.10518971
-0.07657038 0.0064185443 -0.09317123 -0.112107664 0.04063717 -0.10009337 -0.061291814 0.06464095
-0.03531564 -0.0017993929 0.048196588 0.062367875 -0.02455478 -0.052694645 -0.08918929 0.012857877
-0.0731094 -0.057639014 0.11620496 -0.014841923 -0.06210941 0.07676839 0.027689964 -0.05421714
0.10173137 -0.02474453 0.036429994 0.112733334 0.124433056 -0.017991267 0.11233191 -0.069998115
0.10906568 -0.031974293 -0.12438871 -0.111414164 0.071313746 -0.04403295 -0.05741337 -0.029875234
-0.06270738 0.0036794269 -0.05986686 -0.051281396 -0.1021426 0.06491987 0.05676852 0.054498598
0.11152528 -0.011671506 0.086010724 0.06640375 -0.075218216 0.053620964 0.064656466 -0.06418417
0.11043729 -0.06952888 0.090149544 0.0067884787 -0.01942076 -0.12676516 0.06278357 0.04955062
-0.0073869424 0.03937757 0.07681513 0.021249246 -0.102104954 0.009176177 0.037310008 0.090071775
-0.1053587 0.12267062 0.057170093 0.108206294 0.07541658 0.088043 -0.100502916 0.013595772
-0.025200699 -0.10021126 -0.02823765 -0.07992969 -0.1023401 -0.10677836 0.024663465 0.04583471
-0.033746965 -0.09276029 -0.10784754 0.10337999 0.08012474 -0.012766177 -0.06781903 -0.07811087
0.094132036 0.031727616 -0.0177081 0.07799788 -0.117217205 -0.116515055 -0.09388385 0.068662144
0.10557716 -0.054200303 0.04507317 0.002032247 0.029113594 0.03977846 0.121417485 -0.0997286
00000000: 96ab 813d 06c0 263c d230 e83d 2508 6bbd
00000010: 9ae4 41bd a81f c4bd 7132 063d c29b 4fbd
00000020: b9a4 6ebd a5b6 5dbc a4cb d23c 82ca ff3c
00000030: 029b 0dbd f0df 9c3c 9e73 a43d a755 fc3d
00000040: 7610 abbd 6027 c3bd 77f7 a23d 361a c53d
00000050: 8413 9fbd a4f3 8a3d f58c 223c 6663 e9bd
00000060: 628f b7bb ea1f 9abd 28c3 2ebd e280 e13d
00000070: 4458 cd3d bc6d 88bd 79fb 743d 5392 b0bb
00000080: 7488 83bd c979 d63c c8a9 e23d 934b dfbd
00000090: f213 9ebd 7a72 37bd b697 edbd 4cbb cf3d
000000a0: 1ee4 c3bd 5c0c 39bd 35f2 f3bd ce2a 8fbd
000000b0: 7c2c 06bd 0435 113d 9d36 09bd cff5 a0bd
000000c0: ab4d d0bc ce16 1d3d 9686 9a3d 5288 a3bc
000000d0: 4845 2ebd dccd 6dbd 7569 e73d f962 e13d
000000e0: a73a c43b 2576 803c ef35 adbd 6352 99bd
000000f0: 8097 373d 1e5f 91bd 1bf1 8fbc e9a8 e03a
00000100: bcf8 e23d f847 01bd f47a 3d3d e03d 393d
00000110: f6f4 c13d 48bf 0f3d c071 8a3d 54c2 a83b
00000120: 1455 d9bd 4e2b d5bd 64eb f9bd 0245 3fbd
00000130: b840 0ebd a061 c7bd 6889 9bbd 74b0 b638
00000140: 8070 c43d 2429 a0bc dada ccbb 50c6 3c3d
00000150: d076 2e3d 98cd bd3d 6a82 5bbd 4ac9 d23d
00000160: eeda 81bd 5ebf b63d a023 833d 8cfe 8e3c
00000170: d058 3a3d a2fc bc3d daff 50bd ee57 b33d
00000180: 32bb c53c f43c b63d 84b5 9fbc 8237 e7bb
00000190: 3a89 703d b21c cbbd f870 b03d da58 423b
000001a0: fc65 053d 8420 1c3c e20b 663d 5ac4 cabd
000001b0: d6e1 6d3d 3cfe 1d3d 28c5 143d 2e4a ce3d
000001c0: 2edf cb3d bab7 d9bb ea15 cebd 4e1b 9a3d
000001d0: e626 8cbd 6ae3 853d ca1f be3d feaf c0bd
000001e0: cca1 aabd 9a54 61bd 3ae8 cfbc 9e2e c9bd
000001f0: 3cd4 643d 42a0 e3bc f01d c0bd 66a6 cb3d
00000200: e33b 65bd 325b ef3c 8aaa 68bd 7236 7b3d
00000210: d82a 9c3d a97b 7f3c 1ad0 cdbd 48c7 413d
00000220: 09b9 a1bd 9dd2 9e3c bcc8 dcbd 8817 65bd
00000230: a1cf 653d 3600 863c 7ace eb3d b46d d73d
00000240: eed0 9cbd a752 d23b 8fd0 bebd b498 e5bd
00000250: 2973 263d c1fd ccbd 200d 7bbd 7962 843d
00000260: 22a7 10bd 9bd9 ebba c969 453d 7575 7f3d
00000270: 1b27 c9bc 57d6 57bd e0a8 b6bd d8a9 523c
00000280: 62ba 95bd e316 6cbd defc ed3d 892b 73bc
00000290: 7066 7ebd bf38 9d3d 10d6 e23c cb12 5ebd
000002a0: 8958 d03d 0ab5 cabc 9e37 153d bce0 e63d
000002b0: c2d6 fe3d 6c62 93bc 460e e63d 2c5b 8fbd
000002c0: d45d df3d 7af7 02bd 82bf febd 1c2d e4bd
000002d0: f10c 923d e55b 34bd 482a 6bbd e8bc f4bc
000002e0: ba6c 80bd 8a22 713b f436 75bd 710c 52bd
000002f0: 2430 d1bd b5f4 843d 1c86 683d ec39 5f3d
00000300: 5e67 e43d d839 3fbc 6426 b03d b0fe 873d
00000310: 020c 9abd a8a1 5b3d 9c6a 843d fd72 83bd
00000320: f22c e23d 2865 8ebd 53a0 b83d e371 de3b
00000330: 4918 9fbc bace 01be ac94 803d 97f5 4a3d
00000340: 2a0e f2bb 604a 213d 4051 9d3d e612 ae3c
00000350: 671c d1bd ad57 163c 61d2 183d 8d77 b83d
00000360: 4dc6 d7bd bc3a fb3d 302b 6a3d 439b dd3d
00000370: 0274 9a3d e34f b43d 79d4 cdbd cdc0 5e3c
00000380: b271 cebc 903b cdbd a552 e7bc 2db2 a3bd
00000390: b097 d1bd 9dae dabd 090b ca3c 2dbd 3b3d
000003a0: 423a 0abd 1bf9 bdbd 2cdf dcbd e3b8 d33d
000003b0: 7118 a43d 3a29 51bc b4e4 8abd 98f8 9fbd
000003c0: 4cc8 c03d d1f4 013d 9410 91bc 5abd 9f3d
000003d0: 930f f0bd 729f eebd 2d46 c0bd bd9e 8c3d
000003e0: d738 d83d 2301 5ebd a59e 383d 722f 053b
000003f0: a27f ee3c bdee 223d bba9 f83d 823e ccbd

bias f4 [256]
0.0884068 -0.10863756 0.039766133 -0.012512224 0.040149838 -0.049037218 0.08408565 -0.09473546
0.08822157 0.064264186 -0.0738806 0.109725066 -0.0057359133 0.01671848 -0.088181034 0.091628
-0.06609177 0.014014381 0.054397214 -0.064141095 0.102200516 -0.030922664 -0.07731175 0.056458727
0.13306265 -0.06301436 0.046215665 0.110065326 0.06305551 0.032577533 0.017566387 0.042084027
0.10828479 -0.12843738 -0.011371374 0.0808323 0.020085337 -0.027951073 0.037962228 -0.03383504
-0.108317696 -0.080073774 -0.032692015 -0.048477314 0.06351337 -0.0043732696 -0.113851175 0.021883868
0.12039099 -0.031308666 0.047117822 -0.08608272 0.05906298 -0.048250012 0.07860544 -0.12442472
0.090465255 -0.031529732 -0.033961117 0.120664746 -0.013587141 -0.0061421734 0.031753547 0.0068746256
0.020322205 0.12075611 -0.11602938 0.13817711 0.070672326 -0.06876431 0.04248035 0.01186815
0.023648921 -0.079524115 -0.08248519 0.011011663 0.13390505 0.13021967 0.049601663 0.088493444
0.08762492 0.1040326 -0.09834088 0.0493124 0.13029815 0.009223598 -0.04067345 0.120671615
0.0178641 0.06625598 -0.09016859 -0.04307761 0.11683379 0.01154579 0.08641252 0.050412912
-0.054391585 -0.050409827 -0.09709795 -0.09512036 -0.07616457 -0.07815148 0.04369324 0.05506331
-4.5429195e-05 -0.052828066 0.13488092 -0.022611791 -0.05618508 -0.03604853 -0.10766578 0.13354865
-0.06255858 0.04656297 0.022373674 0.0266667 0.077081405 -0.09944523 0.08374745 -0.048185233
0.014117394 -0.07239045 0.10936391 0.0050907675 -0.036664087 0.111529246 0.089717664 -0.0843715
0.04330726 0.12214522 -0.118830726 0.03469619 -0.08412379 -0.06170012 0.012466741 -0.018434532
-0.07744509 0.03515504 0.00920153 0.10705453 -0.059425376 -0.122415885 -0.070680395 0.040752284
-0.10532592 -0.040401854 -0.034302846 -0.048465904 0.13271391 0.11513397 -0.018872522 -0.05121436
0.11043346 -0.08460119 0.034359027 -0.1225384 -0.0016343102 0.008738107 -0.010972336 -0.08728547
0.13017581 0.13913772 0.036743484 0.037360992 -0.035571605 0.06889682 0.106641494 0.07209157
-0.079968676 -0.050943248 -0.10855658 -0.105914354 0.060278643 0.115163706 -0.0418262 -0.00010108967
0.091870576 -0.01790691 0.0970094 -0.118291065 0.0132779665 0.04439035 0.057228003 -0.11037119
0.0032659753 -0.07300822 0.025702227 -0.097389154 0.086850934 0.025732307 -0.03232701 0.04021742
0.10958898 -0.06828434 -0.080322325 -0.0056628254 0.05602445 -0.014363753 0.013736077 0.060854286
0.083443925 -0.0910991 0.0387893 -0.105554566 -0.10679871 0.104730874 0.090696186 -0.03829275
0.0141321 0.07374149 -0.09354747 -0.043970633 0.09282786 0.054367892 -0.050471254 0.002439047
-0.11047597 -0.023148691 -0.03449714 -0.07746852 -0.027499098 -0.07124019 0.111894086 0.10168022
-0.035422467 0.055208948 -0.10983299 -0.07851828 0.05587821 -0.056686625 -0.07998942 -0.0040486995
-0.060763005 -0.1128608 -0.11862576 -0.06912477 -0.010947416 0.0003340691 -0.07851537 -0.04754425
-0.11463153 -0.068264425 0.025502395 -0.054071404 0.10971387 -0.08194244 -0.019559331 -0.10070667
-0.10579336 0.022591107 -0.022816235 -0.023466285 0.12532067 0.019519277 0.14134416 -0.044066574
00000000: a00e b53d 5e7d debd d0e1 223d 1200 4dbc
00000010: 2874 243d 40db 48bd 1935 ac3d aa04 c2bd
00000020: 83ad b43d f19c 833d b64e 97bd 89b7 e03d
00000030: 54f4 bbbb 32f5 883c 4298 b4bd 76a7 bb3d
00000040: 1f5b 87bd 939c 653c 9dcf 5e3d 685c 83bd
00000050: 814e d13d 8751 fdbc 9f55 9ebd 4441 673d
00000060: 9341 083e ac0d 81bd a34c 3d3d ee69 e13d
00000070: 3f23 813d 0570 053d 62e7 8f3c 4d60 2c3d
00000080: 6ac4 dd3d 1785 03be 004f 3abc 688b a53d
00000090: 018a a43c a6f9 e4bc 487e 1b3d 9c96 0abd
000000a0: abd5 ddbd b8fd a3bd 10e8 05bd 2690 46bd
000000b0: 4c13 823d a54d 8fbb ce2a e9bd cc45 b33c
000000c0: 8d8f f63d 843d 00bd 9efe 403d 234c b0bd
000000d0: 06ec 713d cea1 45bd e4fb a03d 63d2 febd
000000e0: d945 b93d 5225 01bd d01a 0bbd 141f f73d
000000f0: 9a9c 5ebc 4944 c9bb 0210 023d 8a44 e13b
00000100: c17a a63c fb4e f73d d0a0 edbd 4d7e 0d3e
00000110: a7bc 903d 4dd4 8cbd e0ff 2d3d a172 423c
00000120: 62bb c13c 8add a2bd ffed a8bd 436a 343c
00000130: 681e 093e 4e58 053e 1d2b 4b3d 0d3c b53d
00000140: b274 b33d 0b0f d53d f166 c9bd cdfb 493d
00000150: e16c 053e 931e 173c 3499 26bd ae22 f73d
00000160: bc57 923c 37b1 873d 4faa b8bd 2672 30bd
00000170: 8e46 ef3d 8e2a 3d3c 0cf9 b03d c57d 4e3d
00000180: b6c9 5ebd 897a 4ebd 4adb c6bd 77ce c2bd
00000190: 2cfc 9bbd e20d a0bd aff7 323d 118a 613d
000001a0: 3a8b 3eb8 3e62 58bd 391e 0a3e 5d3c b9bc
000001b0: 5422 66bd a0a7 13bd e07f dcbd fac0 083e
000001c0: b61e 80bd d0b8 3e3d ff48 b73c 2074 da3c
000001d0: dbdc 9d3d f1a9 cbbd c883 ab3d e15d 45bd
000001e0: a44c 673c 7241 94bd 30fa df3d 74d0 a63b
000001f0: 152d 16bd 7269 e43d e5bd b73d f7ca acbd
00000200: f462 313d 4627 fa3d 865d f3bd 981d 0e3d
00000210: 1849 acbd 44b9 7cbd 4d41 4c3c 0404 97bc
00000220: 889b 9ebd bbfe 0f3d 04c2 163c 683f db3d
00000230: 0668 73bd 2eb5 fabd e2c0 90bd deeb 263d
00000240: 1eb5 d7bd 6a7c 25bd 2481 0cbd 2f84 46bd
00000250: 28e6 073e 5ccb eb3d 8c9a 9abc 26c6 51bd
00000260: f02a e23d 6443 adbd 0dbc 0c3d 6af5 fabd
00000270: 5a36 d6ba 472a 0f3c 50c5 33bc b9c2 b2bd
00000280: cf4c 053e 1e7a 0e3e 5680 163d d707 193d
00000290: 88b3 11bd c719 8d3d db66 da3d bfa4 933d
000002a0: 9ec6 a3bd dea9 50bd ea52 debd a0e9 d8bd
000002b0: bde6 763d f3da eb3d f351 2bbd 1a00 d4b8
000002c0: a426 bc3d 83b1 92bc ddac c63d 9642 f2bd
000002d0: d48b 593c a8d2 353d e967 6a3d 4a0a e2bd
000002e0: f909 563b 5585 95bd 7a8d d23c f773 c7bd
000002f0: e7de b13d 8fcc d23c 5469 04bd 05bb 243d
00000300: 3070 e03d a9d8 8bbd 0880 a4bd 398f b9bb
00000310: e579 653d f255 6bbc 480d 613c 5842 793d
00000320: a6e4 aa3d 2a92 babd 87e1 1e3d fe2c d8bd
00000330: 48b9 dabd 247d d63d ecbe b93d dcd8 1cbd
00000340: 538a 673c c705 973d d195 bfbd 8d1a 34bd
00000350: 881c be3d deb0 5e3d f2ba 4ebd 6bd8 1f3b
00000360: 3a41 e2bd 53a2 bdbc e04c 0dbd d1a7 9ebd
00000370: ca45 e1bc 60e6 91bd ba28 e53d b83d d03d
00000380: 2617 11bd c722 623d 1ef0 e0bd 31ce a0bd
00000390: 8de0 643d 3c30 68bd 7ed1 a3bd f4aa 84bb
000003a0: a1e2 78bd 9023 e7bd 10f2 f2bd 4a91 8dbd
000003b0: ca5c 33bc ff25 af39 abcc a0bd c2bd 42bd
000003c0: f0c3 eabd 38ce 8bbd 66ea d03c fa79 5dbd
000003d0: aab1 e03d 70d1 a7bd e43a a0bc 4c3f cebd
000003e0: 30aa d8bd fc10 b93c 1de9 babc 5e3c c0bc
000003f0: 1054 003e e4e6 9f3c 86bc 103e 277f 34bd

weight f4 [128, 256]
-0.061733857 0.03883311 -0.045172483 -0.03938895 -0.0028943513 -0.0038738896 -0.045541532 0.050167643
-0.034316253 0.004990523 0.0131679885 0.048911873 0.052521527 0.03766015 0.047177166 0.04592339
0.007968548 0.030603245 -0.0115477545 0.056475714 0.05417899 -0.04794524 -0.061632205 0.026997173
0.0025137218 0.010696862 -0.016300498 -0.042691763 -0.00072268624 -0.0009570791 0.04591611 0.025023133
-0.051498678 -0.007987569 0.05973843 -0.034021534 0.050343648 0.024266228 -0.0024059904 0.0020192445
-0.022594323 0.051642235 0.0095667355 -0.018169943 0.0076979892 -0.049922235 -0.0108960755 0.06214212
0.033952553 -0.004346745 0.013794993 0.030406188 0.000489683 0.059380796 -0.015770167 0.022753252
0.004384287 -0.006240054 -0.0078017586 -0.049021453 -0.027678685 0.03627229 -0.015673332 0.012596016
-0.044273585 -0.018804345 -0.059191853 -0.050531633 0.014069365 0.008442841 -0.05252467 -0.036985204
-0.029022213 -0.052137017 -0.056590736 0.040905178 -0.005057879 0.053592186 -0.02059312 -0.007055225
-0.021737114 -0.04740126 -0.00058250054 0.058873504 -0.047180716 0.059316266 -0.037708938 0.042469226
-0.06221667 0.01496058 -0.018704703 0.023375383 0.03999311 0.017403414 -0.053650003 -0.027945893
0.02638787 0.03314459 0.041715883 0.021128485 -0.052792564 -0.06016288 -0.030572504 -0.039319567
0.017227134 -0.054418325 -0.006472098 0.04594169 0.014530177 0.030893767 0.016379781 -0.0095478
0.02297742 0.009087112 -0.03346001 0.006609251 0.026999319 -0.039311692 -0.013766674 -0.002881285
-0.018151121 -0.031056743 -0.016559893 -0.022803582 -0.012326774 0.03527598 -0.03202097 -0.0151156075
-0.056585226 -0.031079596 -0.03839977 0.024001319 -0.05841711 0.037206903 0.022134634 0.039560612
-0.042156495 6.643374e-05 -0.023891453 0.04785321 -0.018326486 0.039897904 -5.9866587e-05 0.044089265
-0.036612064 0.023969362 0.041122034 0.04270794 -0.058379516 -0.032778632 0.051237293 -0.010892559
-0.032136057 -0.02902982 -0.025186468 0.022002362 -0.035660587 -0.008766984 0.042764865 0.035176676
0.048518986 -0.014060109 -0.039553583 -0.022401165 -0.00573445 -0.059539165 -0.012810711 0.055526372
-0.046324708 -0.010359142 0.03407213 -0.012191499 -0.059977636 0.02907771 -0.020771245 -0.059673272
0.016587181 -0.0019101166 -0.038996566 0.04878012 -0.019194946 -0.009960457 0.04635463 0.058663547
0.010041678 0.028859263 -0.015372547 -0.042653397 -0.049022995 -0.041737583 -0.047067612 0.044611886
0.060471006 0.03235427 0.014301853 -0.018864363 0.057771362 -0.03409324 -0.050004702 0.05911658
0.05482776 0.0041297916 0.0019503348 -0.060901627 0.03188783 0.06236119 -0.034672163 0.05016397
0.045798343 0.04859713 -0.0414327 -0.030969724 -0.029189657 0.05141182 -0.0562038 0.011693766
0.036271155 -0.041397557 0.030123431 -0.030151313 0.05831241 -0.06142249 -0.04960064 0.05653552
-0.031915322 0.026922334 0.052130416 -0.0015784102 0.05661149 0.044019934 -0.00940134 -0.006615353
0.061076064 0.05048912 0.0088598095 -0.058701485 -0.00015818074 -0.033743247 0.04475009 -0.052832864
0.039852325 -0.009140205 0.015355801 -0.04650802 -0.049526416 0.031759523 0.05566393 -0.05010996
-0.034172356 -0.015773758 0.055607557 0.014200291 0.0010298345 0.049018893 -0.01071576 0.054238234
00000000: a4dc 7cbd 780f 1f3d c806 39bd 4f56 21bd
00000010: 28af 3dbb 15e1 7dbb c289 3abd 967c 4d3d
00000020: 338f 0cbd 8b87 a33b 8cbe 573c d157 483d
00000030: d020 573d 8841 1a3d d83c 413d 2a1a 3c3d
00000040: 838e 023c a8b3 fa3c cb32 3dbc 1453 673d
00000050: caea 5d3d 3a62 44bd 0d72 7cbd 2d29 dd3c
00000060: 41bd 243b e441 2f3c 9f88 85bc 8fdd 2ebd
00000070: a772 3dba 7ee4 7aba 8812 3c3d 50fd cc3c
00000080: 47f0 52bd 4bde 02bc 49b0 743d 2a5a 0bbd
00000090: 2435 4e3d f8c9 c63c d2ad 1dbb 4d55 043b
000000a0: bb17 b9bc cf86 533d ccbd 1c3c 22d9 94bc
000000b0: 6a3f fc3b 427b 4cbd 7485 32bc bc88 7e3d
000000c0: d511 0b3d 246f 8ebb 6504 623c 6616 f93c
000000d0: 125e 003a 4739 733d 7030 81bc 0765 ba3c
000000e0: 11aa 8f3b 5e79 ccbb e5a5 ffbb b8ca 48bd
000000f0: 69be e2bc 4192 143d 5c65 80bc 855f 4e3c
00000100: 3858 35bd 920b 9abc 2873 72bd 42fa 4ebd
00000110: 3283 663c d753 0a3c 1c24 57bd cc7d 17bd
00000120: febf edbc a08d 55bd b0cb 67bd 308c 273d
00000130: 90bc a5bb 7b83 5b3d e7b2 a8bc 842f e7bb
00000140: 0812 b2bc d327 42bd f3b2 18ba 5825 713d
00000150: 9140 41bd 9df5 723d b074 1abd 36f4 2d3d
00000160: e8d6 7ebd 381d 753c 9b3a 99bc bb7d bf3c
00000170: d1cf 233d 9b91 8e3c 1bc0 5bbd c9ee e4bc
00000180: 602b d83c 9fc2 073d 46de 2a3d a515 ad3c
00000190: 043d 58bd 5a6d 76bd 3073 fabc 8e0d 21bd
000001a0: eb1f 8d3c c0e5 5ebd e513 d4bb 5b2d 3c3d
000001b0: fb0f 6e3c ed14 fd3c e42e 863c 606e 1cbc
000001c0: 243b bc3c 1ce2 143c 5d0d 09bd 6a92 d83b
000001d0: ad2d dd3c 4c05 21bd 9e8d 61bc f1d3 3cbb
000001e0: a9b1 94bc b66a febc 9da8 87bc 94ce babc
000001f0: 3df6 49bc 8c7d 103d 6c28 03bd 74a7 77bc
00000200: e9c5 67bd a39a febc 1449 1dbd 6a9e c43c
00000210: c846 6fbd 4466 183d b153 b53c 4f0a 223d
00000220: 4aac 2cbd 5852 8b38 02b8 c3bc ba01 443d
00000230: 6d21 96bc fc6b 233d 4219 7bb8 f296 343d
00000240: 88f6 15bd 655b c43c 946f 283d 85ee 2e3d
00000250: 5c1f 6fbd e342 06bd 32de 513d b476 32bc
00000260: 19a1 03bd f2cf edbc da53 cebc 4c3e b43c
00000270: d610 12bd 65a3 0fbc 362a 2f3d 6b15 103d
00000280: d8bb 463d 5f5c 66bc f002 22bd a682 b7bc
00000290: 0ee8 bbbb 57df 73bd 04e4 51bc 9f6f 633d
000002a0: fabe 3dbd 64b9 29bc 388f 0b3d dabe 47bc
000002b0: 1cab 75bd 6134 ee3c 7528 aabc f66b 74bd
000002c0: d7e1 873c e15c faba ddba 1fbd aacd 473d
000002d0: b83e 9dbc 2f31 23bc 5ade 3d3d 3049 703d
000002e0: da85 243c 436a ec3c 23dd 7bbc 54b5 2ebd
000002f0: 56cc 48bd 07f5 2abd f8c9 40bd f4ba 363d
00000300: 72b0 773d e985 043d 5252 6a3c 7089 9abc
00000310: aaa1 6c3d 5aa5 0bbd bbd1 4cbd 3a24 723d
00000320: 1393 603d 3453 873b 60a2 ff3a fc73 79bd
00000330: d09c 023d 726e 7f3d 6604 0ebd bc78 4d3d
00000340: 0b97 3b3d c90d 473d 56b5 29bd 38b4 fdbc
00000350: 261f efbc 3395 523d f535 66bd 3697 3f3c
00000360: 1091 143d 7c90 29bd 6ac5 f63c e3ff f6bc
00000370: fed8 6e3d 2696 7bbd 0a2a 4bbd ca91 673d
00000380: a4b9 02bd 3a8c dc3c b486 553d a8e2 ceba
00000390: 73e1 673d 3f4e 343d 1408 1abc 9ac5 d8bb
000003a0: e52a 7a3d aecd 4e3d bc28 113c f870 70bd
000003b0: 52dd 25b9 5c36 0abd df4b 373d 4667 58bd
000003c0: 313c 233d ccc0 15bc e696 7b3c 327f 3ebd
000003d0: 36dc 4abd 4616 023d dcff 633d 1a40 4dbd
000003e0: 50f8 0bbd f837 81bc c0c4 633d 56a8 683c
000003f0: 83fb 863a 09c8 483d 2891 2fbc e928 5e3d

bias f4 [128]
-0.016972357 -0.038909946 -0.026124952 0.08327822 0.018116834 -0.02800892 0.010544225 0.01536212
-0.021465706 0.06623798 0.053648412 0.015644059 0.0024809754 -0.058152556 0.13403758 0.023947604
0.034965195 0.055491183 0.050492793 0.028712997 0.043869887 -0.023732977 -0.037342265 -0.032053683
0.09316898 0.041832015 -0.0469598 0.05923293 0.0012768703 0.064234234 -0.044647794 0.018246202
0.0044505056 -0.04763117 -0.020401983 0.10433226 -0.034589794 0.04326392 -0.051994074 0.02218171
-0.008408079 0.005892576 -0.006346953 -0.054546736 -0.042538684 -0.05935754 0.060614694 0.012822871
0.019803934 -0.043074474 0.098850176 0.031924006 -0.05104544 0.0419295 0.076918274 0.07949469
0.007989533 -0.047447324 -0.04446812 0.018769192 -0.019638278 -0.0021911226 -0.040018633 0.042592194
0.0021914847 0.077683076 -0.059930027 0.0078577725 0.07886927 0.024120243 -0.051696297 0.075766474
0.043410692 0.11525509 0.029495535 0.03591677 0.04750203 -0.05867543 -0.059049744 -0.010138274
-0.019625787 -0.0047283117 -0.023699783 0.07517246 -0.006830995 -0.059332922 -0.035870302 0.048013326
-0.017468387 0.032837886 0.019286577 -0.047765415 -0.05263887 0.05511105 0.007977414 0.049478453
-0.05028567 0.060808565 -0.036127154 0.023635745 -0.021419594 0.036239263 -0.011787215 0.04063738
-0.006261825 0.02926561 0.036291305 -0.016465776 0.063802764 -0.048423834 0.0359585 0.0041049775
0.032824945 0.104352936 -0.052721582 -0.012579817 0.0041029924 0.026774319 0.042557444 -0.035750125
0.09787512 0.048612557 -0.015038315 0.02225422 0.030813841 0.052681822 0.03536042 0.046311907
00000000: 9d09 8bbc 0960 1fbd ff03 d6bc c58d aa3d
00000010: c169 943c f672 e5bc afc1 2c3c 67b1 7b3c
00000020: d9d8 afbc c7a7 873d 70be 5b3d f827 803c
00000030: dc97 223b 6031 6ebd 2641 093e c42d c43c
00000040: aa37 0f3d b94a 633d 88d1 4e3d 8537 eb3c
00000050: e9b0 333d a96b c2bc 34f4 18bd b94a 03bd
00000060: 61cf be3d 0c58 2b3d eb58 40bd 3b9e 723d
00000070: a85c a73a 3d8d 833d 9be0 36bd 0f79 953c
00000080: 8cd5 913b e718 43bd 0f22 a7bc 27ac d53d
00000090: 07ae 0dbd 8235 313d bdf7 54bd 6bb6 b53c
000000a0: 0ac2 09bc 8316 c13b 1afa cfbb 666c 5fbd
000000b0: 0b3d 2ebd e420 73bd 1d47 783d 0517 523c
000000c0: dc3b a23c dc6e 30bd f671 ca3d bfc2 023d
000000d0: 0615 51bd 44be 2b3d 5487 9d3d 1dce a23d
000000e0: 88e6 023c 2058 42bd 3424 36bd d9c1 993c
000000f0: 74e0 a0bc f098 0fbb 94ea 23bd 2775 2e3d
00000100: 039f 0f3b 4e18 9f3d 3079 75bd e3bd 003c
00000110: 3686 a13d d197 c53c 7fbf 53bd 742b 9b3d
00000120: 69cf 313d dc0a ec3d 9fa0 f13c 771d 133d
00000130: 7d91 423d a655 70bd 25de 71bd 011b 26bc
00000140: 42c6 a0bc f4ef 9abb 0c26 c2bc 05f4 993d
00000150: 8ad6 dfbb 1407 73bd bdec 12bd 9fa9 443d
00000160: dd19 8fbc 0581 063d e2fe 9d3c aba5 43bd
00000170: db9b 57bd 20bc 613d b3b3 023c eba9 4a3d
00000180: 59f8 4dbd 6712 793d 11fa 13bd c09f c13c
00000190: 2578 afbc 9f6f 143d 2a1f 41bc 6273 263d
000001a0: ff2f cdbb 6fbe ef3c 31a6 143d 3ce3 86bc
000001b0: 06ab 823d 1258 46bd 3849 133d 0c83 863b
000001c0: 7373 063d feb6 d53d 96f2 57bd 941b 4ebc
000001d0: 6572 863b d155 db3c b750 2e3d b96e 12bd
000001e0: c072 c83d f61d 473d 4463 76bc 7b4e b63c
000001f0: 4f6d fc3c e5c8 573d 16d6 103d 8eb1 3d3d

weight f4 [64, 128]
0.068706095 0.030311806 -0.05960802 -0.06933084 0.070494145 0.055717256 -0.045098994 0.03259114
-0.07210369 0.0050148885 -0.0013241457 -0.08314232 0.028240547 0.032370742 0.08055697 0.0201815
0.0758368 0.04408368 -5.5230807e-06 0.017992703 -0.027773133 0.0742727 0.0017893238 0.08056087
-0.08524806 -0.04980869 0.06644174 0.009410007 -0.03598691 0.045708183 -0.030765012 0.08619367
-0.02798721 0.07569307 0.007378893 -0.019594569 -0.0077013355 -0.08026605 0.039781533 -0.06519481
0.06633679 -0.0033421516 0.041513234 -0.08540231 0.05890675 0.014679426 0.062222738 -0.057914726
-0.052948643 -0.06435467 0.080028586 -0.044691134 -0.038965564 0.08766749 -0.06834375 0.0044230344
-0.042454388 0.015519607 -0.06472022 0.05713398 -0.07286947 -0.061318863 -0.032188397 0.016535243
-0.02869089 0.063420966 -0.02823892 -0.034976233 0.020526517 0.049589843 0.07026794 0.07624782
0.034447152 -0.0462358 -0.07054895 0.08110802 0.050849613 -0.057692956 -0.07786511 -0.010902389
-0.07890536 0.008839591 -0.031522445 0.04618842 -0.0497967 0.00050311466 -0.06230235 0.021659717
0.01417722 -0.012267635 -0.0018347215 0.005382219 0.0046418747 0.021618364 -0.08788154 -0.08618192
-0.024037564 0.014742868 0.0059489957 -0.04382076 -0.044154715 0.00630586 -0.028350044 0.087142505
-0.04066883 -0.043360054 0.07806454 -0.074960105 -0.07886049 0.05523043 0.07648523 -0.04059593
0.038193513 0.023167027 0.011107547 -0.078865804 0.03360527 -0.03739205 0.06106064 0.0025276104
-0.046340674 -0.013887243 0.011903287 0.017090604 0.078568585 -0.022807753 -0.050088655 0.04449495
-0.009933795 -0.03626999 0.04064001 -0.010626001 0.073537394 0.03418185 0.06201551 -0.078976884
0.015191474 0.057963554 -0.006305175 -0.035470713 -0.048071675 0.005163835 0.06687683 0.07383704
-0.023948476 -0.045522798 0.07541496 0.03786234 0.07815061 0.08436022 -0.08359216 -0.0497416
0.06518744 -0.0855231 -0.0017251081 0.025293654 0.03654924 0.05470319 -0.059724055 0.012998293
0.033742893 0.014575416 -0.02116897 -0.02756084 0.013430381 0.01061124 0.006085059 -0.05344771
-0.026484951 0.020772561 0.057556782 0.0038002674 0.07367403 -0.06882305 0.10196333 -0.0724734
-0.028097844 0.012074044 0.10499749 -0.014476706 -0.009009567 0.011716974 -0.024733523 0.06238824
-0.076631404 -0.019858982 -0.012586852 0.043555062 -0.05383317 0.0005326271 0.0014038222 0.029062731
0.04518282 0.112258136 0.07007643 -0.00022183076 0.030708067 0.0389752 0.038218457 -0.014692522
0.10229119 0.05238105 -0.015087898 -0.06024715 0.01653277 -0.04698379 0.039062116 0.007932572
-0.010192131 -0.0008234726 -0.0347372 0.052407663 0.063500606 0.030344773 -0.056125768 -0.003806723
0.023437513 -0.05943872 0.054911442 -0.049231034 -0.03343836 -0.051867854 0.068454035 0.045421667
-0.026534915 0.09330342 0.037433166 -0.024161564 0.03827258 0.0895184 0.08667125 -0.07545122
0.007965641 -0.074635506 0.054231506 -0.06493416 0.030705411 -0.08544013 0.041794114 -0.06452083
0.07386413 0.07709451 0.048359524 0.03613793 -0.03082626 -0.0026611378 -0.015162012 0.00017598605
0.10923725 0.045966793 -0.048065905 0.09011712 -0.035344984 0.018205784 -0.08259492 -0.04939673
00000000: c8b5 8c3d 7750 f83c 8a27 74bd 54fd 8dbd
00000010: 3c5f 903d c737 643d b9b9 38bd 4a7e 053d
00000020: 19ab 93bd ef53 a43b f58e adba 8546 aabd
00000030: b858 e73c 2f97 043d 0dfb a43d ac53 a53c
00000040: 5350 9b3d 1791 343d e752 b9b6 6f65 933c
00000050: 7b84 e3bc 491c 983d be87 ea3a 19fd a43d
00000060: 8996 aebd 3204 4cbd 9b12 883d 6e2c 1a3c
00000070: 0367 13bd 8138 3b3d e806 fcbc 4f86 b03d
00000080: 6f45 e5bc f804 9b3d a4ca f13b ca84 a0bc
00000090: 7c5b fcbb 8762 a4bd f6f1 223d db84 85bd
000000a0: 95db 873d 0008 5bbb c809 2a3d 68e7 aebd
000000b0: 3448 713d fa81 703c 45dd 7e3d fe37 6dbd
000000c0: ade0 58bd 62cc 83bd 07e6 a33d 0d0e 37bd
000000d0: 5b9a 1fbd 038b b33d cff7 8bbd 1aef 903b
000000e0: a7e4 2dbd f345 7e3c 098c 84bd 5205 6a3d
000000f0: 973c 95bd 7d29 7bbd fbd7 03bd eb74 873c
00000100: 2809 ebbc dae2 813d 4f55 e7bc 3d43 0fbd
00000110: 3a27 a83c b81e 4b3d a3e8 8f3d d127 9c3d
00000120: 7518 0d3d c061 3dbd f87b 90bd f61b a63d
00000130: af47 503d 734f 6cbd be77 9fbd ef9f 32bc
00000140: 2299 a1bd efd3 103c ae1d 01bd 1230 3d3d
00000150: a0f7 4bbd 74e3 033a c030 7fbd b86f b13c
00000160: 9247 683c 31fe 48bc 0a7b f0ba 535d b03b
00000170: de1a 983b ff18 b13c 3dfb b3bd 2580 b0bd
00000180: 6dea c4bc 128c 713c cbef c23b 667d 33bd
00000190: 93db 34bd 63a1 ce3b 5a3e e8bc c577 b23d
000001a0: 5c94 26bd 509a 31bd 4de0 9f3d af84 99bd
000001b0: 9c81 a1bd 4e39 623d 4aa4 9c3d eb47 26bd
000001c0: cd70 1c3d c7c8 bd3c 6efc 353c 6584 a1bd
000001d0: aea5 093d 6828 19bd b91a 7a3d 44a6 253b
000001e0: b8cf 3dbd 5287 63bc 0106 433c 9801 8c3c
000001f0: 91e8 a03d 53d7 babc c329 4dbd 5640 363d
00000200: 5bc1 22bc d78f 14bd 2476 263d ae18 2ebc
00000210: c69a 963d 4402 0c3d fa03 7e3d a2be a1bd
00000220: a9e5 783c 316b 6d3d a49b cebb bd49 11bd
00000230: cee6 44bd 6335 a93b b8f6 883d e037 973d
00000240: 982f c4bc 1d76 3abd 2973 9a3d 8b15 1b3d
00000250: 6d0d a03d 0dc5 ac3d 5e32 abbd d9bd 4bbd
00000260: fe80 853d bc26 afbd 061d e2ba a334 cf3c
00000270: a8b4 153d 7410 603d 36a1 74bd cbf6 543c
00000280: fd35 0a3d bacd 6e3c 8c6a adbc 45c7 e1bc
00000290: 1a0b 5c3c c4da 2d3c 2d65 c73b fceb 5abd
000002a0: f8f6 d8bc 382b aa3c a9c0 6b3d e80d 793b
000002b0: 69e2 963d 19f3 8cbd 26d2 d03d ef6c 94bd
000002c0: 732d e6bc 36d2 453c ed08 d73d b52f 6dbc
000002d0: dd9c 13bc 8df8 3f3c f59d cabc d08a 7f3d
000002e0: edf0 9cbd 4eaf a2bc 1539 4ebc cb66 323d
000002f0: 2c80 5cbd 00a0 0b3a 7500 b83a f714 ee3c
00000300: 9f11 393d 98e7 e53d 3b84 8f3d 3e9b 68b9
00000310: 7c8f fb3c 76a4 1f3d f58a 1c3d e7b8 70bc
00000320: 0b7e d13d 838d 563d 3b33 77bc b7c5 76bd
00000330: bb6f 873c 1372 40bd 99ff 1f3d 9ef7 013c
00000340: e5fc 26bc 50de 57ba 9848 0ebd 6ba9 563d
00000350: 9b0c 823d 9a95 f83c 22e4 65bd 377a 79bb
00000360: 0700 c03c 0476 73bd d2ea 603d 7ba6 49bd
00000370: a9f6 08bd 6373 54bd a131 8c3d 120c 3a3d
00000380: c05f d9bc dd15 bf3d 8553 193d 79ee c5bc
00000390: b5c3 1c3d 6c55 b73d b280 b13d 2b86 9abd
000003a0: 5282 023c 80da 98bd db21 5e3d 33fc 84bd
000003b0: ea89 fb3c 3cfb aebd 4e30 2b3d 7f23 84bd
000003c0: 1446 973d bae3 9d3d a314 463d 5e05 143d
000003d0: 5a87 fcbc 7c66 2ebb 166a 78bc e588 3839
000003e0: c8b7 df3d ad47 3c3d c1e0 44bd 538f b83d
000003f0: e7c5 10bd 4c24 953c 8727 a9bd 3a54 4abd

bias f4 [64]
-0.04973241 0.15399013 0.121451855 -0.0034636678 -0.060433157 0.13259539 0.092702575 0.05310752
-0.090334706 -0.05495178 -0.08279305 -0.049718075 -0.004464417 0.040419362 0.013781346 -0.037773278
0.072637506 0.036322653 0.051455457 0.19777209 -0.010902052 0.01391158 0.09774177 -0.03578345
-0.003954752 -0.012242235 -0.07976914 0.031612467 -0.01838632 -0.066581696 0.11447432 -0.06609358
0.13708629 -0.05878974 0.0016849788 0.011645073 -0.067962706 -0.08314447 0.22492182 -0.0027860769
0.11991087 0.041931283 -0.07883671 -0.046295706 0.023459706 0.052299645 0.004467338 0.124194555
-0.0038907928 0.065782614 -0.07537099 0.064902686 0.15731926 0.06971947 0.081321254 0.0015399321
0.020130945 -0.003497581 -0.081379786 0.13401976 0.19697808 0.002885778 0.015142169 0.09595063
00000000: 36b4 4bbd 97af 1d3e c0bb f83d b4fe 62bb
00000010: c288 77bd 16c7 073e d9da bd3d 4587 593d
00000020: 6701 b9bd 1e15 61bd 678f a9bd 2ea5 4bbd
00000030: 3f4a 92bb c68e 253d 28cb 613c 27b8 1abd
00000040: f9c2 943d 10c7 143d f5c2 523d c484 4a3e
00000050: 859e 32bc 65ed 633c d62c c83d ab91 12bd
00000060: dd96 81bb a893 48bc 015e a3bd 137c 013d
00000070: e89e 96bc fc5b 88bd 8371 ea3d 125c 87bd
00000080: 5960 0c3e 83cd 70bd 82da dc3a faca 3e3c
00000090: 0830 8bbd a647 aabd e851 663e 9d96 36bb
000000a0: d593 f53d 23c0 2b3d 2475 a1bd 91a0 3dbd
000000b0: 922e c03c 2738 563d bf62 923b b759 fe3d
000000c0: acfc 7ebb 09b9 863d 1b5c 9abd b3eb 843d
000000d0: 4d18 213e 15c9 8e3d c28b a63d 8cd7 c93a
000000e0: a7e9 a43c ac37 65bb 72aa a6bd 7a3c 093e
000000f0: 9fb4 493e 521f 3d3b dc16 783c c481 c43d

weight f4 [2, 64]
-0.02849325 0.13977861 0.0018570701 -0.09008525 0.112578645 0.18521038 0.067564204 -0.06926092
-0.07056575 -0.01686247 0.07284334 -0.06389435 0.10919915 0.2100577 -0.04083119 0.003222026
0.101608776 -0.09001711 -0.10712932 0.22183141 0.13218878 -0.0071139485 0.16536509 0.060324404
-0.066948764 0.06539724 -0.08453529 0.017914943 0.054769948 0.027705327 0.24028407 0.013690242
0.25861752 -0.03173827 0.09578479 -0.030986039 0.017232852 0.08740272 0.24839455 0.029215379
0.081545606 -0.11269979 -0.084537074 -0.043819547 0.14809528 0.061612505 0.053668566 0.15548755
-0.0928583 0.06327373 -0.054456796 0.045838073 0.07139552 0.011580432 0.13097537 -0.053193476
-0.008048291 -0.03434604 -0.059869196 0.2198983 0.21510391 0.04233531 -0.11923728 0.11586938
-0.033216767 -0.2428485 -0.19001985 0.10398033 0.0672453 -0.18486495 -0.054038875 -0.11716255
0.11820219 0.08821376 -0.009507857 0.10166365 0.08485228 -0.11178407 0.067733295 -0.07341918
-0.05496472 -0.04386084 0.07492552 -0.16156785 0.06878622 -0.066187635 -0.18914236 0.007462714
0.08653262 0.02797197 -0.052760623 0.11192436 -0.14549692 -0.08994652 -0.18552686 0.028106246
-0.067471944 0.061084263 0.009820536 -0.0313836 -0.03499089 -0.11252946 -0.1806327 -0.08494705
-0.059398875 -0.0637959 0.007969985 0.08625037 0.049353197 -0.18760988 0.035913788 -0.030610297
-0.040058963 -0.13063893 -0.12213991 -0.14844461 -0.203045 -0.18575034 -0.14667381 -0.02629769
0.02095399 0.08267722 0.014835544 0.008910388 -0.11289746 0.014137258 -0.009410972 0.019232538
00000000: ad6a e9bc 2022 0f3e ef68 f33a 9e7e b8bd
00000010: a28f e63d caa7 3d3e 1a5f 8a3d abd8 8dbd
00000020: c784 90bd 2a23 8abc e42e 953d 0adb 82bd
00000030: cea3 df3d 5e19 573e 9b3e 27bd a028 533b
00000040: 4318 d03d e45a b8bd 9e66 dbbd c627 633e
00000050: 7f5c 073e 201c e9bb 7755 293e b916 773d
00000060: 6f1c 89bd fdee 853d d720 adbd 5cc2 923c
00000070: 7456 603d 48f6 e23c 070d 763e 094d 603c
00000080: 8469 843e fdff 01bd d12a c43d 6fd6 fdbc
00000090: e92b 8d3c 3200 b33d 245b 7e3e 1755 ef3c
000000a0: 6201 a73d 26cf e6bd c621 adbd 207c 33bd
000000b0: 4aa6 173e 655d 7c3d 92d3 5b3d 2138 1f3e
000000c0: 7e2c bebd a895 813d 170e 5fbd b4c0 3b3d
000000d0: d037 923d dabb 3d3c 681e 063e 67e1 59bd
000000e0: fbdc 03bc 6fae 0cbd 6739 75bd 052d 613e
000000f0: 3344 5c3e ca67 2d3d ad32 f4bd ed4c ed3d
00000100: 4e0e 08bd 47ad 78be 9094 42be a4f3 d43d
00000110: e7b7 893d 3d4d 3dbe de57 5dbd ebf2 efbd
00000120: fd13 f23d 6aa9 b43d d8c6 1bbc 0835 d03d
00000130: 08c7 ad3d 0cef e4bd c1b7 8a3d cc5c 96bd
00000140: b022 61bd 6da7 33bd 8d72 993d 0b72 25be
00000150: cadf 8c3d 628d 87bd 89ae 41be c889 f43b
00000160: 0438 b13d 7925 e53c 861b 58bd 9938 e53d
00000170: 25fd 14be e235 b8bd c1fa 3dbe 123f e63c
00000180: bb2e 8abd 7e33 7a3d 50e6 203c 178c 00bd
00000190: 9c52 0fbd d875 e6bd c7f7 38be b8f8 adbd
000001a0: 3c4c 73bd 6da7 82bd 8a94 023c 09a4 b03d
000001b0: 9426 4a3d ce1c 40be 561a 133d 72c2 fabc
000001c0: de14 24bd 36c6 05be 7d24 fabd dd01 18be
000001d0: 07eb 4fbe 5635 3ebe a931 16be 416e d7bc
000001e0: b4a7 ab3c ad52 a93d c810 733c e0fc 113c
000001f0: c936 e7bd f59f 673c 7a30 1abc 8e8d 9d3c

bias f4 [2]
0.77380455 -0.6630575
00000000: 0e18 463f 23be 29bf
