AutoBalance/results/tvarit_wheel/New_Experiments/test/dyly_LA_init/1/retrain/epoch_240.pth (torch, 236367 bytes, 8 tensors)

weight f4 [256, 64]
000000 9b ad 81 3d 0e bd 26 3c d2 30 e8 3d 25 08 6b bd
       0.06331941 0.01017691 0.11337437 -0.057380814
000010 9a e4 41 bd a4 1e c4 bd 71 32 06 3d c2 9b 4f bd
       -0.047337152 -0.09576157 0.03276295 -0.05068565
000020 6e a4 6e bd e5 af 5d bc a4 cb d2 3c 7a ca ff 3c
       -0.05826228 -0.013530706 0.025731869 0.031224478
000030 01 9b 0d bd cf df 9c 3c 89 73 a4 3d 8f 55 fc 3d
       -0.03457165 0.019149689 0.08029849 0.123210065
000040 76 10 ab bd 60 27 c3 bd 77 f7 a2 3d 36 1a c5 3d
       -0.08352749 -0.095289946 0.079573564 0.0962414
000050 02 10 9f bd a4 f3 8a 3d f5 8c 22 3c 2e 63 e9 bd
       -0.07766725 0.06784752 0.009921302 -0.1139587
000060 c8 8e b7 bb ea 1f 9a bd 28 c3 2e bd 38 80 e1 3d
       -0.0056017376 -0.075256184 -0.042666584 0.11010784
000070 44 58 cd 3d ba 6d 88 bd 5b fc 74 3d 4a c3 b0 bb
       0.10026601 -0.06661554 0.059810977 -0.005394374
000080 74 88 83 bd c9 79 d6 3c c8 a9 e2 3d 04 4e df bd
       -0.06422511 0.026181119 0.110675395 -0.10903552
000090 f2 13 9e bd 6a 72 37 bd c8 96 ed bd 4c bb cf 3d
       -0.07718648 -0.044786848 -0.11601025 0.10143146
0000a0 5f e1 c3 bd 5c 0c 39 bd 35 f2 f3 bd 05 2b 8f bd
       -0.095644705 -0.045177802 -0.11911432 -0.06990627
0000b0 7c 2c 06 bd 04 35 11 3d 99 36 09 bd 52 f5 a0 bd
       -0.032757267 0.03545095 -0.033499334 -0.07859291
0000c0 ab 4d d0 bc 9e 19 1d 3d 96 86 9a 3d 1d 88 a3 bc
       -0.02542766 0.03835451 0.075452015 -0.019962365
0000d0 95 41 2e bd cc cd 6d bd 75 69 e7 3d b3 61 e1 3d
       -0.042543013 -0.05805759 0.11299411 0.11004963
0000e0 24 3a c4 3b 25 76 80 3c 21 36 ad bd c0 51 99 bd
       0.005988376 0.015681336 -0.0845759 -0.07486296
0000f0 80 97 37 3d 1d 5f 91 bd 6c f2 8f bc c0 9a e0 3a
       0.044822216 -0.070982195 -0.01757165 0.0017135963
000100 bc f8 e2 3d f8 47 01 bd f4 7a 3d 3d e0 3d 39 3d
       0.110825986 -0.031562775 0.046259835 0.045225024
000110 f6 f4 c1 3d 48 bf 0f 3d c0 71 8a 3d 54 c2 a8 3b
       0.09470551 0.03509453 0.06759977 0.005150119
000120 14 55 d9 bd 4e 2b d5 bd 64 eb f9 bd 02 45 3f bd
       -0.106119305 -0.1040865 -0.122031 -0.04669667
000130 b8 40 0e bd a0 61 c7 bd 68 89 9b bd 74 b0 b6 38
       -0.03472969 -0.09735417 -0.075945675 8.711303e-05
000140 80 70 c4 3d 24 29 a0 bc da da cc bb 50 c6 3c 3d
       0.0959177 -0.019550867 -0.006251675 0.046087563
000150 d0 76 2e 3d 98 cd bd 3d 6a 82 5b bd 4a c9 d2 3d
       0.042593777 0.092677295 -0.05359117 0.10292299
000160 ee da 81 bd 5e bf b6 3d a0 23 83 3d 8c fe 8e 3c
       -0.06340586 0.08923219 0.06403279 0.017455362
000170 d0 58 3a 3d a2 fc bc 3d da ff 50 bd ee 57 b3 3d
       0.045494854 0.092278734 -0.05102525 0.08757006
000180 32 bb c5 3c f4 3c b6 3d 84 b5 9f bc 82 37 e7 bb
       0.024137113 0.08898345 -0.019495733 -0.0070561776
000190 3a 89 70 3d b2 1c cb bd f8 70 b0 3d da 58 42 3b
       0.05872462 -0.099175826 0.08615297 0.002965501
0001a0 fc 65 05 3d 84 20 1c 3c e2 0b 66 3d 5a c4 ca bd
       0.032567963 0.009529237 0.056163676 -0.09900732
0001b0 d6 e1 6d 3d 3c fe 1d 3d 28 c5 14 3d 2e 4a ce 3d
       0.058076702 0.038572535 0.036320835 0.100727424
0001c0 2e df cb 3d ba b7 d9 bb ea 15 ce bd 4e 1b 9a 3d
       0.099546775 -0.0066442164 -0.100627735 0.07524739
0001d0 e6 26 8c bd 6a e3 85 3d ca 1f be 3d fe af c0 bd
       -0.06843357 0.065375164 0.09283407 -0.09408568
0001e0 cc a1 aa bd 9a 54 61 bd 3a e8 cf bc 9e 2e c9 bd
       -0.083316416 -0.055012323 -0.025379289 -0.09823345
0001f0 3c d4 64 3d 42 a0 e3 bc f0 1d c0 bd 66 a6 cb 3d
       0.055866465 -0.027786378 -0.0938071 0.09943847
000200 88 35 65 bd e0 5a ef 3c 8a aa 68 bd 72 36 7b 3d
       -0.055959255 0.029218137 -0.056803264 0.06133122
000210 d8 2a 9c 3d 55 88 7f 3c 1a d0 cd bd 48 c7 41 3d
       0.07625359 0.015596469 -0.10049458 0.04730919
000220 7d b9 a1 bd 0c d4 9e 3c bc c8 dc bd 88 17 65 bd
       -0.07896707 0.019388221 -0.107804745 -0.055930644
000230 f2 cf 65 3d d3 06 86 3c 97 ce eb 3d 9d 6d d7 3d
       0.056106515 0.016360676 0.11514013 0.10518954
000240 ee d0 9c bd c8 52 d2 3b 8f d0 be bd b4 98 e5 bd
       -0.07657038 0.0064185597 -0.09317123 -0.112107664
000250 06 7a 26 3d c1 fd cc bd 20 0d 7b bd 79 62 84 3d
       0.040643714 -0.10009337 -0.061291814 0.06464095
000260 22 a7 10 bd 3f d8 eb ba c9 69 45 3d bb 74 7f 3d
       -0.03531564 -0.0017993524 0.048196588 0.062367182
000270 f8 26 c9 bc a7 d5 57 bd 0d a9 b6 bd 19 90 52 3c
       -0.024554715 -0.05269399 -0.08918963 0.012851738
000280 62 ba 95 bd e3 16 6c bd de fc ed 3d f4 25 73 bc
       -0.0731094 -0.057639014 0.11620496 -0.014840592
000290 6b 66 7e bd bf 38 9d 3d a2 d4 e2 3c cb 12 5e bd
       -0.062109392 0.07676839 0.027689282 -0.05421714
0002a0 db 54 d0 3d 0a b5 ca bc 9e 37 15 3d 68 e0 e6 3d
       0.10172435 -0.02474453 0.036429994 0.11273271
0002b0 c2 d6 fe 3d 6c 62 93 bc 46 0e e6 3d 32 5b 8f bd
       0.124433056 -0.017991267 0.11233191 -0.06999816
0002c0 d4 5d df 3d a9 f6 02 bd 82 bf fe bd f8 2c e4 bd
       0.10906568 -0.031973515 -0.12438871 -0.111413896
0002d0 61 0e 92 3d e5 5b 34 bd 48 2a 6b bd fa c3 f4 bc
       0.07131649 -0.04403295 -0.05741337 -0.029878605
0002e0 af 6c 80 bd 8a 22 71 3b f0 37 75 bd 26 0c 52 bd
       -0.0627073 0.0036794269 -0.0598678 -0.051281117
0002f0 24 30 d1 bd b5 f4 84 3d 9b 84 68 3d 58 39 5f 3d
       -0.1021426 0.06491987 0.056767087 0.054498047
000300 b5 67 e4 3d ab 39 3f bc 64 26 b0 3d b0 fe 87 3d
       0.11152593 -0.011671464 0.086010724 0.06640375
000310 02 0c 9a bd f5 9e 5b 3d 9c 6a 84 3d fd 72 83 bd
       -0.075218216 0.05361839 0.064656466 -0.06418417
000320 47 30 e2 3d 53 62 8e bd 53 a0 b8 3d d2 6a de 3b
       0.110443644 -0.069523476 0.090149544 0.0067876363
000330 28 3a 9f bc f1 d1 01 be 48 93 80 3d 9c f5 4a 3d
       -0.01943691 -0.12677743 0.06278092 0.049550638
000340 38 10 f2 bb 6c 49 21 3d 40 51 9d 3d e6 12 ae 3c
       -0.0073871873 0.03937666 0.07681513 0.021249246
000350 63 1e d1 bd c9 57 16 3c 61 d2 18 3d c9 75 b8 3d
       -0.10210874 0.009176203 0.037310008 0.09006841
000360 47 c6 d7 bd bc 3a fb 3d 30 2b 6a 3d 79 99 dd 3d
       -0.10535865 0.12267062 0.057170093 0.10820288
000370 02 74 9a 3d 3e 4e b4 3d df c8 cd bd 74 b1 5e 3c
       0.07541658 0.08803986 -0.10048079 0.013592113
000380 b2 71 ce bc 90 3b cd bd 18 52 e7 bc 38 ce a3 bd
       -0.025200699 -0.10021126 -0.028237388 -0.079983175
000390 b0 97 d1 bd bf ad da bd 37 17 ca 3c 98 bc 3b 3d
       -0.1023401 -0.10677671 0.024669273 0.045834154
0003a0 63 f9 09 bd 1b f9 bd bd 2c df dc bd 3a b2 d3 3d
       -0.0336851 -0.09276029 -0.10784754 0.103367284
0003b0 71 18 a4 3d 3a 29 51 bc b4 e4 8a bd 9a f5 9f bd
       0.08012474 -0.012766177 -0.06781903 -0.07810517
0003c0 4c c8 c0 3d 65 08 02 3d 94 10 91 bc d5 bc 9f 3d
       0.094132036 0.031746287 -0.0177081 0.07799689
0003d0 24 10 f0 bd 69 9f ee bd 2d 46 c0 bd 8e a1 8c 3d
       -0.117218286 -0.11651499 -0.09388385 0.068667516
0003e0 ae 36 d8 3d 23 01 5e bd b7 9a 38 3d be a4 05 3b
       0.10557304 -0.054200303 0.045069423 0.0020392383
0003f0 a2 7f ee 3c b4 ee 22 3d 25 ab f8 3d 9a 3e cc bd
       0.029113594 0.039778426 0.12142018 -0.09972878

bias f4 [256]
000000 95 0a b5 3d 5e 7d de bd 22 d9 22 3d e6 03 4d bc
       0.08839909 -0.10863756 0.039757855 -0.0125131365
000010 19 6e 24 3d 6f ef 48 bd a9 2a ac 3d aa 04 c2 bd
       0.04014406 -0.049056467 0.08406574 -0.09473546
000020 87 ad b4 3d f6 94 83 3d 38 4b 97 bd 0e ca e0 3d
       0.0882216 0.064248964 -0.07387394 0.10976039
000030 54 f4 bb bb 0c f5 88 3c 42 98 b4 bd 9c aa bb 3d
       -0.0057359133 0.01671841 -0.088181034 0.091634005
000040 52 52 87 bd 3e 8a 65 3c fa d2 5e 3d 68 5c 83 bd
       -0.06607498 0.01401001 0.05440042 -0.064141095
000050 89 48 d1 3d 69 50 fd bc b5 5d 9e bd 8c 39 67 3d
       0.10218913 -0.030922132 -0.07732717 0.056451365
000060 97 3d 08 3e ac 0d 81 bd da 47 3d 3d bb 64 e1 3d
       0.13304745 -0.06301436 0.0462111 0.11005541
000070 eb 1a 81 3d 6b 75 05 3d 38 f9 8f 3c 72 58 2c 3d
       0.06303962 0.03258268 0.017574891 0.042076536
000080 9a c5 dd 3d 6e 8a 03 be c8 55 3a bc 23 84 a5 3d
       0.10828705 -0.12845775 -0.011372991 0.08081844
000090 56 7f a4 3c da fd e4 bc 50 87 1b 3d bf 9a 0a bd
       0.02008025 -0.027953077 0.03797084 -0.033838984
0000a0 5b c5 dd bd 6f 08 a4 bd 10 e8 05 bd c2 96 46 bd
       -0.10828658 -0.08009421 -0.032692015 -0.048483618
0000b0 25 13 82 3d 40 45 8d bb ce 2a e9 bd cc 45 b3 3c
       0.06351308 -0.0043112338 -0.113851175 0.021883868
0000c0 8b 92 f6 3d 84 3d 00 bd 96 f0 40 3d 90 49 b0 bd
       0.120396696 -0.031308666 0.04710444 -0.08607781
0000d0 9f fc 71 3d 15 a3 45 bd 6b fb a0 3d 75 cb fe bd
       0.05907881 -0.04825123 0.07860454 -0.1244115
0000e0 40 43 b9 3d 86 20 01 bd d2 24 0b bd 90 1b f7 3d
       0.0904603 -0.031525157 -0.03397066 0.12065804
0000f0 71 51 5e bc 0c c9 c9 bb 98 0e 02 3d 68 20 e1 3b
       -0.013569222 -0.006158 0.0317522 0.006870318
000100 3c 70 a6 3c 12 4b f7 3d d0 a0 ed bd 90 79 0d 3e
       0.02031719 0.120748654 -0.11602938 0.13815904
000110 68 b4 90 3d a1 d1 8c bd 86 2d 2e 3d 5e 7f 42 3c
       0.0706566 -0.06875921 0.042523883 0.011871187
000120 62 bb c1 3c b4 da a2 bd dd ed a8 bd c3 06 35 3c
       0.023648921 -0.079518706 -0.08248494 0.011048975
000130 c2 1b 09 3e 3f 56 05 3e 22 26 4b 3d 29 3c b5 3d
       0.13389495 0.13021182 0.049596913 0.08849365
000140 b2 74 b3 3d 86 16 d5 3d 71 69 c9 bd 93 fa 49 3d
       0.08762492 0.10404687 -0.098345645 0.04931123
000150 73 6c 05 3e 8e ed 16 3c f4 93 26 bd ae 22 f7 3d
       0.13029651 0.009211911 -0.040668443 0.120671615
000160 bc 57 92 3c 12 a2 87 3d 3c b5 b8 bd 0d 70 30 bd
       0.0178641 0.06622709 -0.09018943 -0.04307561
000170 92 4e ef 3d 87 08 3d 3c 8b f8 b0 3d b5 7f 4e 3d
       0.11684908 0.011537678 0.08641156 0.05041476
000180 95 ce 5e bd 3b 83 4e bd 4a db c6 bd f3 cd c2 bd
       -0.05439623 -0.05041812 -0.09709795 -0.09511938
000190 2c fc 9b bd e2 0d a0 bd 0a e7 32 3d 0c 8f 61 3d
       -0.07616457 -0.07815148 0.043677367 0.05506806
0001a0 c7 ba 85 b8 3e 62 58 bd 4c 19 0a 3e 11 30 b9 bc
       -6.376724e-05 -0.052828066 0.13486212 -0.022605928
0001b0 07 25 66 bd eb a6 13 bd e0 7f dc bd 9b bb 08 3e
       -0.056187656 -0.036047857 -0.10766578 0.13352816
0001c0 b6 1e 80 bd 80 7f 3e 3d 4d 25 b7 3c a8 45 da 3c
       -0.06255858 0.046508312 0.022356654 0.026644543
0001d0 63 e5 9d 3d 97 ad cb bd ec 7d ab 3d 02 5b 45 bd
       0.07709768 -0.09945219 0.08373627 -0.048182495
0001e0 ce 23 67 3c 72 41 94 bd 10 fc df 3d 74 d0 a6 3b
       0.014107658 -0.07239045 0.10936749 0.0050907675
0001f0 c7 27 16 bd 82 70 e4 3d be be b7 3d 15 c9 ac bd
       -0.03665903 0.11154272 0.08971928 -0.08436791
000200 27 72 31 3d c8 22 fa 3d 86 5d f3 bd 30 2c 0e 3d
       0.043321755 0.12213665 -0.118830726 0.03471011
000210 18 49 ac bd 95 ba 7c bd e6 3e 4c 3c 3d f3 96 bc
       -0.08412379 -0.061701376 0.012466168 -0.018426532
000220 88 9b 9e bd 7a f3 0f 3d 04 c2 16 3c 68 3f db 3d
       -0.07744509 0.035144307 0.00920153 0.10705453
000230 b0 77 73 bd 2e b5 fa bd e2 c0 90 bd 11 0d 27 3d
       -0.059440315 -0.122415885 -0.070680395 0.040783945
000240 1e b5 d7 bd ea 7d 25 bd 24 81 0c bd 5f 83 46 bd
       -0.10532592 -0.040403284 -0.034302846 -0.04846513
000250 20 e0 07 3e c1 c0 eb 3d 8c 9a 9a bc 26 c6 51 bd
       0.1326909 0.11511374 -0.018872522 -0.05121436
000260 39 25 e2 3d 64 43 ad bd 45 e4 0c 3d 6a f5 fa bd
       0.11042256 -0.08460119 0.034397382 -0.1225384
000270 fb ef d6 ba 2f 10 10 3c 06 cc 33 bc 55 c2 b2 bd
       -0.0016398424 0.008792921 -0.010973936 -0.08728472
000280 3f 49 05 3e df 75 0e 3e 91 a7 16 3d 7f 00 19 3d
       0.13016222 0.13912152 0.036780898 0.03735399
000290 f4 ce 11 bd cf 11 8d 3d 89 65 da 3d 2a a5 93 3d
       -0.035597757 0.06888162 0.106638975 0.07209237
0002a0 9e c6 a3 bd de a9 50 bd ea 52 de bd a0 e9 d8 bd
       -0.079968676 -0.050943248 -0.10855658 -0.105914354
0002b0 f9 d0 76 3d da d4 eb 3d 72 4a 2b bd 1a 00 d4 b8
       0.060257886 0.115152076 -0.041819043 -0.00010108967
0002c0 47 26 bc 3d cf 94 92 bc 42 aa c6 3d 96 42 f2 bd
       0.09186988 -0.017893223 0.09700443 -0.118291065
0002d0 29 62 59 3c 71 c5 35 3d b9 77 6a 3d e9 10 e2 bd
       0.013268032 0.044377748 0.057243083 -0.110383816
0002e0 90 c5 55 3b d8 86 95 bd a8 8a d2 3c a8 6f c7 bd
       0.0032618977 -0.0730111 0.025700882 -0.097380936
0002f0 e1 e0 b1 3d fc b0 d2 3c 54 69 04 bd b9 cf 24 3d
       0.0868547 0.025719158 -0.03232701 0.040237162
000300 ad 6e e0 3d 97 d8 8b bd 08 80 a4 bd 5c 26 ba bb
       0.1095861 -0.068284206 -0.080322325 -0.0056808423
000310 05 77 65 3d f2 55 6b bc 6c 00 61 3c a9 51 79 3d
       0.05602171 -0.014363753 0.013733011 0.060868893
000320 1e e4 aa 3d 9a 8e ba bd 69 ed 1e 3d fe 2c d8 bd
       0.08344291 -0.0910923 0.03880063 -0.105554566
000330 48 b9 da bd 24 7d d6 3d e8 c7 b9 3d dc d8 1c bd
       -0.10679871 0.104730874 0.09071332 -0.03829275
000340 58 5d 67 3c d5 0a 97 3d 7f 79 bf bd 56 19 34 bd
       0.014121376 0.07375113 -0.093493454 -0.043969475
000350 88 1c be 3d 87 a1 5e 3d ef ba 4e bd 2c 59 21 3b
       0.09282786 0.054353263 -0.050471243 0.00246198
000360 3a 41 e2 bd 54 b2 bd bc e0 4c 0d bd 7b a0 9e bd
       -0.11047597 -0.023156323 -0.03449714 -0.07745453
000370 de 5c e1 bc 60 e6 91 bd da 29 e5 3d 6f 40 d0 3d
       -0.027510103 -0.07124019 0.11189623 0.1016854
000380 df 17 11 bd 03 0e 62 3d 1e f0 e0 bd ff d4 a0 bd
       -0.035423156 0.055189144 -0.10983299 -0.07853126
000390 16 e0 64 3d 9c 15 68 bd 7e d1 a3 bd f4 aa 84 bb
       0.055877768 -0.056661233 -0.07998942 -0.0040486995
0003a0 81 e1 78 bd 90 23 e7 bd 10 f2 f2 bd 4a 91 8d bd
       -0.060761932 -0.1128608 -0.11862576 -0.06912477
0003b0 f5 50 33 bc 83 ee ae 39 e1 cc a0 bd c2 bd 42 bd
       -0.010944595 0.0003336557 -0.078515776 -0.04754425
0003c0 47 c8 ea bd 38 ce 8b bd 23 d2 d0 3c 61 73 5d bd
       -0.11463981 -0.068264425 0.025490826 -0.054065112
0003d0 af ac e0 3d 70 d1 a7 bd e4 3a a0 bc 4c 3f ce bd
       0.10970437 -0.08194244 -0.019559331 -0.10070667
0003e0 30 aa d8 bd fc 10 b9 3c 1f e7 ba bc e4 3c c0 bc
       -0.10579336 0.022591107 -0.022815285 -0.023466535
0003f0 4b 55 00 3e cc 7a a0 3c 67 b9 10 3e c0 79 34 bd
       0.12532537 0.019589804 0.14133225 -0.044061422

weight f4 [128, 256]
000000 17 db 7c bd 78 0f 1f 3d e4 06 39 bd 57 55 21 bd
       -0.061732378 0.03883311 -0.045172587 -0.039388027
000010 36 95 3d bb cd dc 7d bb 4e 88 3a bd 96 7c 4d 3d
       -0.0028928048 -0.0038736344 -0.045540147 0.050167643
000020 5d 8e 0c bd 3e 8f a3 3b 79 be 57 3c 47 58 48 3d
       -0.034315456 0.004991441 0.013167971 0.048912313
000030 d0 20 57 3d 88 41 1a 3d d8 3c 41 3d 2c 1a 3c 3d
       0.052521527 0.03766015 0.047177166 0.045923397
000040 50 8d 02 3c 71 b3 fa 3c 51 2e 3d bc 14 53 67 3d
       0.007968262 0.030603142 -0.011546687 0.056475714
000050 76 ea 5d 3d 9e 61 44 bd 20 71 7c bd 98 28 dd 3c
       0.054178677 -0.047944658 -0.061631322 0.026996896
000060 27 c1 24 3b e4 41 2f 3c 35 88 85 bc 15 dc 2e bd
       0.0025139542 0.010696862 -0.0163003 -0.042690355
000070 a5 43 3c ba 14 75 7a ba ff 11 3c 3d ca fd cc 3c
       -0.00071817107 -0.0009554189 0.0459156 0.02502336
000080 5f ee 52 bd 4b de 02 bc 4d b0 74 3d 35 58 0b bd
       -0.05149686 -0.007987569 0.059738446 -0.034019668
000090 2a 35 4e 3d f8 c9 c6 3c 49 aa 1d bb ea 55 04 3b
       0.05034367 0.024266228 -0.0024057797 0.002019281
0000a0 b5 17 b9 bc c4 87 53 3d cc bd 1c 3c 18 d8 94 bc
       -0.022594312 0.051643148 0.0095667355 -0.018169448
0000b0 e9 40 fc 3b 37 7b 4c bd 74 85 32 bc bc 88 7e 3d
       0.0076981676 -0.049922194 -0.0108960755 0.06214212
0000c0 cd 12 0b 3d 24 6f 8e bb db 05 62 3c 67 15 f9 3c
       0.033953477 -0.004346745 0.013795341 0.030405713
0000d0 53 5c 00 3a fb 38 73 3d 4c 30 81 bc 6c 63 ba 3c
       0.000489657 0.059380513 -0.0157701 0.022752486
0000e0 aa b0 8f 3b 1d 6c cc bb 6f 98 ff bb 04 c9 48 bd
       0.0043850737 -0.006238474 -0.007800154 -0.04901983
0000f0 a9 b8 e2 bc 04 92 14 3d 00 65 80 bc 2f 64 4e 3c
       -0.027675943 0.036272064 -0.01567316 0.012597128
000100 9e 57 35 bd 27 05 9a bc 28 73 72 bd da f8 4e bd
       -0.04427301 -0.018801285 -0.059191853 -0.050530292
000110 78 85 66 3c 7b 55 0a 3c 1b 24 57 bd 54 7c 17 bd
       0.014069907 0.008443232 -0.052524667 -0.036983803
000120 fe bf ed bc 76 8d 55 bd b0 cb 67 bd 32 8c 27 3d
       -0.029022213 -0.05213686 -0.056590736 0.040905185
000130 9b a4 a5 bb c7 85 5b 3d 2d b2 a8 bc 1b 2c e7 bb
       -0.005055023 0.053594377 -0.020592773 -0.0070548183
000140 08 12 b2 bc d2 27 42 bd 48 71 18 ba 60 25 71 3d
       -0.021737114 -0.047401257 -0.000581522 0.058873534
000150 48 3d 41 bd 4f f6 72 3d 81 74 1a bd 36 f4 2d 3d
       -0.047177583 0.05931693 -0.037708763 0.042469226
000160 e8 d6 7e bd b4 1c 75 3c d2 39 99 bc 01 80 bf 3c
       -0.06221667 0.014960457 -0.018704329 0.023376467
000170 c7 cf 23 3d 44 93 8e 3c 25 c0 5b bd 8c ed e4 bc
       0.039993074 0.017404206 -0.05365004 -0.027945302
000180 18 30 d8 3c 7b c2 07 3d 46 de 2a 3d b7 15 ad 3c
       0.02639012 0.033144455 0.041715883 0.021128519
000190 04 3d 58 bd 5a 6d 76 bd ca 6f fa bc 87 0d 21 bd
       -0.052792564 -0.06016288 -0.030570883 -0.03931954
0001a0 f3 1f 8d 3c c0 e5 5e bd 20 f7 d3 bb 7c 2e 3c 3d
       0.017227149 -0.054418325 -0.0064686686 0.04594277
0001b0 7d 14 6e 3c 14 15 fd 3c e4 2e 86 3c 89 63 1c bc
       0.014531252 0.03089384 0.016379781 -0.009545215
0001c0 24 3b bc 3c cc e1 14 3c 78 0d 09 bd 91 92 d8 3b
       0.02297742 0.009087037 -0.03346011 0.006609269
0001d0 88 2e dd 3c 26 05 21 bd 6d 86 61 bc 78 ce 3c bb
       0.026999727 -0.03931155 -0.01376496 -0.0028809588
0001e0 65 ae 94 bc b6 6a fe bc 83 a7 87 bc 94 ce ba bc
       -0.018149564 -0.031056743 -0.016559368 -0.022803582
0001f0 bf f5 49 bc c5 7c 10 3d 5b 28 03 bd 78 a7 77 bc
       -0.012326657 0.03527524 -0.032020908 -0.015115611
000200 d1 c5 67 bd ae 98 fe bc 14 49 1d bd 61 9e c4 3c
       -0.056585137 -0.031078663 -0.03839977 0.024001302
000210 c8 46 6f bd 51 66 18 3d b1 53 b5 3c 9c 0a 22 3d
       -0.05841711 0.03720695 0.022134634 0.0395609
000220 4a ac 2c bd cb 32 8c 38 02 b8 c3 bc ba 01 44 3d
       -0.042156495 6.685181e-05 -0.023891453 0.04785321
000230 6c 21 96 bc fc 6b 23 3d 42 19 7b b8 71 96 34 3d
       -0.018326484 0.039897904 -5.9866587e-05 0.044088785
000240 88 f6 15 bd 65 5b c4 3c 94 6f 28 3d cc ee 2e 3d
       -0.036612064 0.023969362 0.041122034 0.042708203
000250 8e 1d 6f bd 42 41 06 bd 32 de 51 3d b4 76 32 bc
       -0.058377795 -0.03277708 0.051237293 -0.010892559
000260 89 a0 03 bd f2 cf ed bc cd 52 ce bc 4c 3e b4 3c
       -0.03213552 -0.02902982 -0.025185967 0.022002362
000270 d5 10 12 bd 13 a4 0f bc 28 2a 2f 3d 6e 15 10 3d
       -0.035660584 -0.008767146 0.042764813 0.035176687
000280 39 be 46 3d 81 4c 66 bc fc 02 22 bd 61 7f b7 bc
       0.048521254 -0.014056326 -0.039553627 -0.022399606
000290 fb e7 bb bb 57 df 73 bd e8 d7 51 bc 9f 6f 63 3d
       -0.0057344413 -0.059539165 -0.012807824 0.055526372
0002a0 fa be 3d bd 64 b9 29 bc 38 8f 0b 3d da be 47 bc
       -0.046324708 -0.010359142 0.03407213 -0.012191499
0002b0 05 a9 75 bd e8 36 ee 3c b2 26 aa bc f6 6b 74 bd
       -0.059975643 0.029078916 -0.020770404 -0.059673272
0002c0 e2 e1 87 3c cf 5e fa ba bc b9 1f bd aa cd 47 3d
       0.016587202 -0.0019101741 -0.03899549 0.04878012
0002d0 b4 3e 9d bc 68 25 23 bc f6 dd 3d 3d e9 49 70 3d
       -0.019194938 -0.009957649 0.046354257 0.058664236
0002e0 e6 85 24 3c 93 6a ec 3c ae dc 7b bc b8 b3 2e bd
       0.0100416895 0.028859412 -0.015372438 -0.042651862
0002f0 25 cb 48 bd 07 f5 2a bd f8 c9 40 bd 90 ba 36 3d
       -0.04902186 -0.041737583 -0.047067612 0.044611514
000300 0f b1 77 3d eb 85 04 3d 52 52 6a 3c 5e 86 9a bc
       0.06047159 0.032354277 0.014301853 -0.0188629
000310 d4 a1 6c 3d 5a a5 0b bd a4 d1 4c bd c5 23 72 3d
       0.05777152 -0.03409324 -0.050004616 0.059116144
000320 13 93 60 3d 44 53 87 3b 1c 03 00 3b fc 73 79 bd
       0.05482776 0.004129799 0.0019533103 -0.060901627
000330 d0 9c 02 3d 72 6e 7f 3d cd 03 0e bd bc 78 4d 3d
       0.03188783 0.06236119 -0.034671593 0.05016397
000340 0a 97 3b 3d 91 0d 47 3d d2 b4 29 bd 1d b4 fd bc
       0.04579834 0.048596922 -0.04143221 -0.030969674
000350 26 1f ef bc 24 95 52 3d f2 35 66 bd c0 98 3f 3c
       -0.029189657 0.051411763 -0.05620379 0.011694133
000360 10 91 14 3d 87 8f 29 bd 6a c5 f6 3c d9 ff f6 bc
       0.036271155 -0.041396644 0.030123431 -0.030151295
000370 5b da 6e 3d 26 96 7b bd 46 28 4b bd 99 93 67 3d
       0.05831371 -0.06142249 -0.049598955 0.056537244
000380 72 b8 02 bd 54 8b dc 3c b4 86 55 3d f0 c5 ce ba
       -0.031914182 0.026921906 0.052130416 -0.0015775543
000390 f3 e2 67 3d 7f 4d 34 3d 14 08 1a bc 9a c5 d8 bb
       0.05661292 0.04401922 -0.00940134 -0.006615353
0003a0 ec 2a 7a 3d ae cd 4e 3d bc 28 11 3c f8 70 70 bd
       0.06107609 0.05048912 0.0088598095 -0.058701485
0003b0 fc b5 25 b9 18 36 0a bd df 4b 37 3d 46 67 58 bd
       -0.0001580342 -0.033742994 0.04475009 -0.052832864
0003c0 bb 3c 23 3d cc c0 15 bc 1b a1 7b 3c 70 7e 3e bd
       0.03985284 -0.009140205 0.015358235 -0.0465073
0003d0 6f da 4a bd 46 16 02 3d dc ff 63 3d 1a 40 4d bd
       -0.04952472 0.031759523 0.05566393 -0.05010996
0003e0 50 f8 0b bd f8 37 81 bc c0 c4 63 3d 56 a8 68 3c
       -0.034172356 -0.015773758 0.055607557 0.014200291
0003f0 63 28 87 3a df c7 48 3d 0b 83 2f bc c4 28 5e 3d
       0.0010311719 0.049018737 -0.010712395 0.054238096

bias f4 [128]
000000 6d f8 8a bc 02 60 1f bd 3b 03 d6 bc 05 a3 aa 3d
       -0.016964162 -0.03890992 -0.026124587 0.08331875
000010 7d 48 94 3c b6 41 e5 bc 31 eb 2c 3c f2 87 7b 3c
       0.018100971 -0.027985435 0.010554121 0.015352236
000020 28 02 b0 bc b6 a8 87 3d b5 cb 5b 3d 22 80 80 3c
       -0.021485403 0.06623976 0.053661067 0.015686098
000030 d2 a0 23 3b 6b 1b 6e bd c4 2b 09 3e d2 26 c4 3c
       0.0024967683 -0.058131617 0.13395602 0.023944292
000040 c4 2d 0f 3d 3d 5b 63 3d 2c ca 4e 3d f7 36 eb 3c
       0.034955755 0.055506933 0.050485775 0.028712733
000050 09 ab 33 3d a8 93 c2 bc d6 e0 18 bd ef 34 03 bd
       0.043864284 -0.023752049 -0.037323795 -0.032032903
000060 57 d9 be 3d 8b 70 2b 3d e5 67 40 bd 21 96 72 3d
       0.09318798 0.041855376 -0.04697408 0.059225205
000070 0e 54 aa 3a ef 95 83 3d 9b e0 36 bd 1e c1 95 3c
       0.0012995021 0.06425082 -0.044647794 0.018280562
000080 6c 59 92 3b 1a 23 43 bd 40 1e a7 bc 64 ae d5 3d
       0.0044662263 -0.047640897 -0.020400167 0.10433653
000090 e3 ac 0d bd e8 4a 31 3d 30 f5 54 bd 76 c0 b5 3c
       -0.034588706 0.043284327 -0.05199164 0.0221865
0000a0 32 00 0a bc 48 33 c1 3b f9 d7 ce bb d2 6a 5f bd
       -0.008422898 0.005896006 -0.006312367 -0.05454523
0000b0 0b 3d 2e bd 43 29 73 bd f9 48 78 3d d2 51 52 3c
       -0.042538684 -0.059365522 0.060616467 0.01283689
0000c0 d0 3d a2 3c 91 5e 30 bd 58 70 ca 3d 11 cc 02 3d
       0.019804865 -0.043058936 0.09884709 0.031932894
0000d0 3e 09 51 bd 19 ce 2b 3d e7 8d 9d 3d 07 c5 a2 3d
       -0.051034205 0.041944597 0.07693081 0.07947736
0000e0 26 03 03 3c 78 52 42 bd ca 22 36 bd 40 bd 99 3c
       0.007996356 -0.04744193 -0.04446677 0.018767
0000f0 17 bb a0 bc 7d fc 0f bb 62 e5 23 bd 29 8c 2e 3d
       -0.019620461 -0.0021970563 -0.04001368 0.042614136
000100 ce 80 0f 3b de 15 9f 3d 59 78 75 bd d0 28 01 3c
       0.0021896842 0.07767843 -0.059929226 0.007883266
000110 cd 81 a1 3d de b3 c5 3c 0a c2 53 bd ba 31 9b 3d
       0.07886086 0.024133619 -0.051698722 0.07577844
000120 ec c8 31 3d 4c 1b ec 3d 39 91 f1 3c a0 16 13 3d
       0.043404505 0.11528644 0.029488193 0.03591025
000130 17 6f 42 3d 34 5d 70 bd 6d d6 71 bd 8a d0 25 bc
       0.047469225 -0.058682635 -0.059042383 -0.01012052
000140 8a b8 a0 bc bf 14 9b bb 02 26 c2 bc da f7 99 3d
       -0.019619245 -0.0047326977 -0.023699764 0.07517977
000150 9f 74 df bb 0c 07 73 bd d2 f6 12 bd e8 9a 44 3d
       -0.0068193222 -0.059332892 -0.035879917 0.047999293
000160 4b 1a 8f bc 4b 7f 06 3d 7a 02 9e 3c a3 a7 43 bd
       -0.017468592 0.03283624 0.01928829 -0.047767293
000170 fa 9a 57 bd e4 ba 61 3d bf ba 03 3c 53 9f 4a 3d
       -0.05263803 0.055109873 0.008040129 0.04946835
000180 a1 f6 4d bd 26 1d 79 3d 71 fa 13 bd 04 a1 c1 3c
       -0.05028403 0.060818814 -0.03612751 0.023636349
000190 9f 76 af bc d6 79 14 3d 0d 16 41 bc e4 6f 26 3d
       -0.021418868 0.036249004 -0.0117850425 0.04063405
0001a0 0b 2f cd bb f1 90 ef 3c 3d 86 14 3d e5 e1 86 bc
       -0.0062617115 0.029243918 0.036260832 -0.016465137
0001b0 35 8e 82 3d 4f 55 46 bd 89 36 13 3d a1 72 87 3b
       0.0637478 -0.0484212 0.03594068 0.004133538
0001c0 8a 76 06 3d 26 ae d5 3d df eb 57 bd 95 ea 4d bc
       0.03282789 0.10433607 -0.05271518 -0.012568136
0001d0 d8 93 86 3b 78 76 db 3c 09 50 2e 3d 52 77 12 bd
       0.00410698 0.026789889 0.042556796 -0.035758324
0001e0 6c 50 c8 3d 98 09 47 3d 38 a3 75 bc 2f 3f b6 3c
       0.09780964 0.048593134 -0.014992528 0.022246925
0001f0 a9 ba fc 3c d2 c3 57 3d 66 d5 10 3d 23 af 3d 3d
       0.030850725 0.052676983 0.035359763 0.0463096

weight f4 [64, 128]
000000 c8 b5 8c 3d 77 50 f8 3c 8a 27 74 bd 54 fd 8d bd
       0.068706095 0.030311806 -0.05960802 -0.06933084
000010 3c 5f 90 3d c7 37 64 3d b2 b9 38 bd 4a 7e 05 3d
       0.070494145 0.055717256 -0.045098968 0.03259114
000020 19 ab 93 bd c7 53 a4 3b 17 8f ad ba 85 46 aa bd
       -0.07210369 0.00501487 -0.0013241497 -0.08314232
000030 ab 58 e7 3c 2f 97 04 3d df fa a4 3d ac 53 a5 3c
       0.028240522 0.032370742 0.08055662 0.0201815
000040 51 50 9b 3d 00 91 34 3d ac 07 bd b6 6b 65 93 3c
       0.075836785 0.044083595 -5.633532e-06 0.017992696
000050 7b 84 e3 bc 49 1c 98 3d fd 86 ea 3a 19 fd a4 3d
       -0.027773133 0.0742727 0.0017893013 0.08056087
000060 8e 96 ae bd 32 04 4c bd 9b 12 88 3d 6e 2c 1a 3c
       -0.0852481 -0.04980869 0.06644174 0.009410007
000070 fe 66 13 bd 77 38 3b 3d e8 06 fc bc 4f 86 b0 3d
       -0.035986893 0.045708146 -0.030765012 0.08619367
000080 db 44 e5 bc f8 04 9b 3d 75 ca f1 3b e0 83 a0 bc
       -0.027986934 0.07569307 0.007378871 -0.019594133
000090 7c 5b fc bb 87 62 a4 bd f6 f1 22 3d db 84 85 bd
       -0.0077013355 -0.08026605 0.039781533 -0.06519481
0000a0 95 db 87 3d b9 07 5b bb c8 09 2a 3d 68 e7 ae bd
       0.06633679 -0.003342135 0.041513234 -0.08540231
0000b0 34 48 71 3d f7 81 70 3c 12 dd 7e 3d fe 37 6d bd
       0.05890675 0.0146794235 0.062222548 -0.057914726
0000c0 9b e0 58 bd 62 cc 83 bd fb e5 a3 3d 0d 0e 37 bd
       -0.052948575 -0.06435467 0.0800285 -0.044691134
0000d0 5b 9a 1f bd 03 8b b3 3d cf f7 8b bd 78 ef 90 3b
       -0.038965564 0.08766749 -0.06834375 0.004423078
0000e0 a7 e4 2d bd 71 45 7e 3c 09 8c 84 bd 3f 05 6a 3d
       -0.042454388 0.015519486 -0.06472022 0.05713391
0000f0 97 3c 95 bd 7d 29 7b bd fb d7 03 bd c8 74 87 3c
       -0.07286947 -0.061318863 -0.032188397 0.016535178
000100 28 09 eb bc c7 e2 81 3d 4f 55 e7 bc 3d 43 0f bd
       -0.02869089 0.063420825 -0.02823892 -0.034976233
000110 7f 27 a8 3c b2 1e 4b 3d a3 e8 8f 3d cf 27 9c 3d
       0.020526646 0.04958982 0.07026794 0.076247804
000120 1e 18 0d 3d 2b 61 3d bd f8 7b 90 bd c9 1b a6 3d
       0.034446828 -0.046235245 -0.07054895 0.08110768
000130 38 47 50 3d 73 4f 6c bd be 77 9f bd ef 9f 32 bc
       0.05084917 -0.057692956 -0.07786511 -0.010902389
000140 22 99 a1 bd ed d3 10 3c ae 1d 01 bd 0e 30 3d 3d
       -0.07890536 0.00883959 -0.031522445 0.046188407
000150 a0 f7 4b bd 6d e3 03 3a c0 30 7f bd b8 6f b1 3c
       -0.0497967 0.00050311425 -0.06230235 0.021659717
000160 8d 47 68 3c 31 fe 48 bc 0e 7b f0 ba 53 5d b0 3b
       0.014177215 -0.012267635 -0.001834722 0.005382219
000170 d8 1a 98 3b ff 18 b1 3c 3d fb b3 bd 25 80 b0 bd
       0.004641872 0.021618364 -0.08788154 -0.08618192
000180 6d ea c4 bc 02 8c 71 3c cb ef c2 3b 66 7d 33 bd
       -0.024037564 0.014742853 0.0059489957 -0.04382076
000190 93 db 34 bd 25 a0 ce 3b 5a 3e e8 bc c5 77 b2 3d
       -0.044154715 0.006305712 -0.028350044 0.087142505
0001a0 5c 94 26 bd 50 9a 31 bd 4d e0 9f 3d af 84 99 bd
       -0.04066883 -0.043360054 0.07806454 -0.074960105
0001b0 99 81 a1 bd 4e 39 62 3d 4a a4 9c 3d eb 47 26 bd
       -0.07886047 0.05523043 0.07648523 -0.04059593
0001c0 ba 70 1c 3d e3 c8 bd 3c 68 fc 35 3c 65 84 a1 bd
       0.038193442 0.02316708 0.011107542 -0.078865804
0001d0 ad a5 09 3d 1c 28 19 bd b9 1a 7a 3d f0 a6 25 3b
       0.033605266 -0.037391767 0.06106064 0.0025276504
0001e0 39 cf 3d bd 59 84 63 bc 49 06 43 3c e2 01 8c 3c
       -0.0463402 -0.013886535 0.011903354 0.017090742
0001f0 89 e8 a0 3d 78 d6 ba bc c3 29 4d bd 56 40 36 3d
       0.078568526 -0.022807345 -0.050088655 0.04449495
000200 5f c1 22 bc 39 90 14 bd 24 76 26 3d c0 26 2e bc
       -0.009933799 -0.036270354 0.04064001 -0.010629356
000210 a8 9c 96 3d 1d 0c 0c 3d 13 fb 7d 3d f7 bd a1 bd
       0.073540986 0.03419124 0.06200702 -0.07897561
000220 9d f6 78 3c f4 68 6d 3d 31 a5 ce bb 65 59 11 bd
       0.015195516 0.05796142 -0.0063063134 -0.035485644
000230 76 d9 44 bd e2 12 a9 3b e3 c4 88 3d 38 37 97 3d
       -0.04805895 0.0051597217 0.06678178 0.07383579
000240 49 74 c4 bc d3 83 3a bd 7b 65 9a 3d 11 0e 1b 3d
       -0.02398123 -0.045535874 0.07538887 0.03785521
000250 06 0e a0 3d ba c2 ac 3d 33 33 ab bd 07 c2 4b bd
       0.07815175 0.08435579 -0.08359375 -0.049745586
000260 47 75 85 3d 62 26 af bd f7 ab e3 ba 1c 37 cf 3c
       0.065165095 -0.08552243 -0.0017369975 0.025294833
000270 fa ae 15 3d b1 20 60 3d 36 a1 74 bd 08 13 55 3c
       0.036543824 0.054718677 -0.059724055 0.013005026
000280 51 27 0a 3d c6 ce 6e 3c ec 64 ad bc b9 2e e2 bc
       0.0337289 0.014575666 -0.021166287 -0.02761017
000290 4f 06 5c 3c 07 20 2e 3c 78 5b c7 3b e7 e8 5a bd
       0.013429238 0.010627753 0.006083902 -0.05344477
0002a0 5c f9 d8 bc 04 24 aa 3c ca d4 6b 3d f2 10 79 3b
       -0.026486091 0.020769127 0.05757598 0.0038004485
0002b0 69 e2 96 3d f7 f1 8c bd ff da d0 3d 66 6a 94 bd
       0.07367403 -0.06882089 0.1019802 -0.072468564
0002c0 9d 6e e6 bc 3d d0 45 3c 6a f8 d6 3d b4 fa 6c bc
       -0.028128916 0.012073574 0.104966 -0.014464069
0002d0 64 cc 13 bc f4 e5 3f 3c eb 82 ca bc 83 6b 7f 3d
       -0.0090208985 0.01171254 -0.02472063 0.06235839
0002e0 ad f2 9c bd f8 ca a2 bc 5c 39 4e bc ce 5a 32 3d
       -0.07663474 -0.019872174 -0.012586918 0.04354363
0002f0 fd 86 5c bd b9 1b 0c 3a c5 8a b7 3a 40 2b ee 3c
       -0.053839672 0.0005344707 0.0014003149 0.029073358
000300 45 15 39 3d 17 dd e5 3d 3b 84 8f 3d 20 4f 85 b9
       0.0451863 0.1122381 0.07007643 -0.0002542669
000310 ed 6b fb 3c 9a a2 1f 3d 80 83 1c 3d 21 3f 71 bc
       0.030691111 0.03897343 0.038211346 -0.014724524
000320 a0 6d d1 3d 25 82 56 3d 04 4c 77 bc 81 e2 76 bd
       0.102259874 0.05237021 -0.015093807 -0.060274605
000330 05 bb 86 3c 61 73 40 bd ae fe 1f 3d e3 ff 01 3c
       0.0164466 -0.046985034 0.03906124 0.007934543
000340 5b 05 27 bc 54 a2 57 ba 98 48 0e bd 32 7d 56 3d
       -0.010194148 -0.0008225788 -0.0347372 0.05236549
000350 50 04 82 3d 9a 95 f8 3c 9c e3 65 bd 14 61 79 bb
       0.06348479 0.030344773 -0.05612527 -0.0038052248
000360 cb f9 bf 3c b5 74 73 bd 94 ea 60 3d 97 a6 49 bd
       0.02343454 -0.059437472 0.05491121 -0.049231138
000370 05 f7 08 bd 6a 73 54 bd 98 32 8c 3d 82 0c 3a 3d
       -0.0334387 -0.05186788 0.068455875 0.045422085
000380 00 5e d9 bc 9a f1 be 3d 85 53 19 3d 7d eb c5 bc
       -0.02653408 0.093234256 0.037433166 -0.024160141
000390 9f c3 1c 3d 9c 42 b7 3d f6 7f b1 3d 44 86 9a bd
       0.038272496 0.089482516 0.08666985 -0.075451404
0003a0 54 82 02 3c 40 d9 98 bd fb f7 5d 3d 3d fc 84 bd
       0.007965643 -0.07463312 0.05419157 -0.06493423
0003b0 d7 37 fb 3c 52 fa ae bd 76 2f 2b 3d 1c 25 84 bd
       0.030666275 -0.085438386 0.04179331 -0.064523906
0003c0 f6 50 97 3d 6f cd 9d 3d 4d 10 46 3d 74 05 14 3d
       0.07388489 0.07705199 0.04835539 0.036138013
0003d0 5b 73 fc bc 1e 04 2e bb 45 66 78 bc 6b 58 36 39
       -0.030816725 -0.0026552747 -0.015161102 0.00017389811
0003e0 4a 94 df 3d ac 4f 3c 3d 4f f7 44 bd 69 8b b8 3d
       0.10916956 0.04597442 -0.048087414 0.090109654
0003f0 4c d0 10 bd a6 f3 94 3c a1 27 a9 bd 7e 58 4a bd
       -0.035354897 0.018182587 -0.08259512 -0.0494008

bias f4 [64]
000000 64 b2 4b bd 31 b2 1d 3e b1 fe f8 3d ba 7b 64 bb
       -0.049730673 0.15400006 0.121579535 -0.0034863786
000010 8c 80 77 bd 27 d4 07 3e c8 06 be 3d 56 a9 59 3d
       -0.060425326 0.13264523 0.09278637 0.053140007
000020 0d 05 b9 bd ca 39 61 bd b4 8c a9 bd 1a c5 4b bd
       -0.090341665 -0.054986753 -0.0827879 -0.049748518
000030 03 cc 91 bb 53 11 26 3d 73 93 61 3c 5e ab 1a bd
       -0.004449369 0.040543865 0.013768065 -0.037761085
000040 c3 06 95 3d 13 bc 14 3d 3f c0 52 3d ab 9a 4a 3e
       0.0727668 0.036312174 0.05145287 0.19785564
000050 28 13 32 bc 61 0e 64 3c fc 61 c8 3d 9c 83 12 bd
       -0.010868825 0.013919444 0.09784314 -0.035770044
000060 9b 70 82 bb 73 48 48 bc 18 5e a3 bd f2 62 01 3d
       -0.003980709 -0.0122243045 -0.07976931 0.031588502
000070 f5 6f 95 bc c2 3e 88 bd a0 60 ea 3d d6 5b 87 bd
       -0.018241862 -0.06652595 0.11444211 -0.06609313
000080 fd 70 0c 3e 82 df 70 bd ef 12 df 3a d4 ca 3e 3c
       0.13714977 -0.058806904 0.0017019192 0.011645038
000090 e1 1f 8b bd 43 46 aa bd 2a 40 66 3e 8a f8 31 bb
       -0.0679319 -0.083141826 0.22485414 -0.0027156197
0000a0 6d c5 f5 3d 30 bf 2b 3d 99 7a a1 bd f9 b4 3d bd
       0.120005466 0.041930377 -0.07884712 -0.046315167
0000b0 65 c6 c0 3c 92 96 56 3d 77 ca 92 3b a9 96 fe 3d
       0.023532102 0.05238969 0.004479702 0.1243108
0000c0 29 e2 7f bb 9f f3 86 3d 55 54 9a bd 34 2a 85 3d
       -0.0039044714 0.06589436 -0.07535616 0.0650219
0000d0 38 3c 21 3e 34 f8 8e 3d cf bc a6 3d 76 99 c9 3a
       0.15745628 0.06980935 0.08141481 0.0015380818
0000e0 8b cb a4 3c e1 68 67 bb 39 b1 a6 bd 77 60 09 3e
       0.020116588 -0.0035310315 -0.08139271 0.13415705
0000f0 95 c5 49 3e 12 50 3d 3b 77 fa 77 3c 64 a7 c4 3d
       0.19704278 0.0028886837 0.015135399 0.0960224

weight f4 [2, 64]
000000 99 36 e9 bc 8d 09 0f 3e e2 6d 03 3b a7 7b b8 bd
       -0.028468417 0.13968487 0.002005451 -0.0900796
000010 a0 8f e6 3d 6a 9a 3d 3e c5 7f 8a 3d 84 b4 8d bd
       0.11257863 0.18515936 0.06762651 -0.06919196
000020 99 83 90 bd 20 fe 89 bc c6 2f 95 3d 07 d9 82 bd
       -0.0705635 -0.016844809 0.07284503 -0.06389051
000030 59 c4 df 3d 58 1f 57 3e 66 36 27 bd b2 69 53 3b
       0.10926122 0.2100805 -0.040823363 0.0032259044
000040 3d 76 d0 3d d0 55 b8 bd 84 66 db bd 89 39 63 3e
       0.10178802 -0.090007424 -0.10712913 0.22189917
000050 77 65 07 3e 66 d4 e8 bb 4a 58 29 3e e0 29 77 3d
       0.132223 -0.007105398 0.16537586 0.06034267
000060 44 1a 89 bd ca 00 86 3d 5a 21 ad bd e2 e3 92 3c
       -0.06694463 0.06543119 -0.08453627 0.017930929
000070 23 cb 60 3d ab 49 e3 3c eb d5 75 3e 77 52 60 3c
       0.054881226 0.027745089 0.24007384 0.013691536
000080 15 67 84 3e 3a f4 01 bd f9 2d c4 3d bb ae fd bc
       0.25859895 -0.031727053 0.09579081 -0.030967107
000090 04 9c 8d 3c 0b 00 b3 3d e0 23 7e 3e 04 ae ef 3c
       0.017286308 0.087402426 0.24818373 0.029257782
0000a0 74 23 a7 3d 6f ce e6 bd ad 1e ad bd 45 70 33 bd
       0.08161059 -0.11269843 -0.084531166 -0.04380824
0000b0 d2 c2 17 3e 44 76 7c 3d 42 14 5c 3d fe 5f 1f 3e
       0.14820412 0.061636224 0.053730257 0.15563962
0000c0 e3 20 be bd 9f c1 81 3d 16 06 5f bd fc 3c 3c 3d
       -0.092836164 0.063357584 -0.054449163 0.045956597
0000d0 8e 69 92 3d 43 ae 3e 3c ac 23 06 3e a1 dd 59 bd
       0.07149039 0.011638227 0.13099545 -0.053189877
0000e0 7f 35 03 bc 71 9a 0c bd 4d 31 75 bd 23 50 61 3e
       -0.00800836 -0.034326974 -0.05986147 0.22003226
0000f0 0e 4c 5c 3e 6a 69 2d 3d 39 31 f4 bd 45 90 ed 3d
       0.21513388 0.04233686 -0.11923451 0.11599783
000100 83 27 08 bd 5f 94 78 be b9 ba 42 be 9e f0 d4 3d
       -0.033240806 -0.24275349 -0.19016542 0.103974566
000110 7c b6 89 3d e0 3f 3d be 9b 99 5d bd 9c 15 f0 bd
       0.06724259 -0.18481398 -0.054101568 -0.11722872
000120 97 12 f2 3d 37 9f b4 3d c6 d3 1b bc c1 32 d0 3d
       0.11819952 0.0881943 -0.00951094 0.101659305
000130 1b a5 ad 3d 68 fb e4 bd fe b5 8a 3d 00 5e 96 bd
       0.08478757 -0.111807644 0.067729935 -0.07342148
000140 f5 de 61 bd 6f af 33 bd 7b 72 99 3d f1 83 25 be
       -0.05514427 -0.04386848 0.074925385 -0.16163613
000150 b3 ca 8c 3d ce 8f 87 bd 3f b1 41 be 98 e7 f3 3b
       0.06874599 -0.066192254 -0.1891527 0.0074433796
000160 bd 35 b1 3d e9 db e4 3c 01 18 58 bd c5 31 e5 3d
       0.08652828 0.027936893 -0.052757267 0.111911334
000170 d6 19 15 be 50 4a b8 bd e3 c3 3d be 18 3d e6 3c
       -0.14560637 -0.08998549 -0.18531756 0.028105304
000180 e9 26 8a bd 58 27 7a 3d 85 b2 20 3c d0 9e 00 bd
       -0.06745703 0.061072677 0.009808187 -0.031401455
000190 6c 8a 0f bd aa 75 e6 bd d4 c0 38 be 8e 0e ae bd
       -0.03504412 -0.112529114 -0.18042308 -0.0849887
0001a0 a2 90 73 bd 3a a7 82 bd 11 6f 02 3c 9a 9d b0 3d
       -0.059464104 -0.06379552 0.007961051 0.0862381
0001b0 8f b1 49 3d a0 22 40 be 5e d8 12 3d 50 03 fc bc
       0.0492416 -0.18763208 0.035850875 -0.030763298
0001c0 05 2a 24 bd 03 dc 05 be 1b 27 fa bd 71 20 18 be
       -0.040079135 -0.13072209 -0.1221449 -0.14856125
0001d0 70 03 50 be bd 43 3e be db 36 16 be ae 72 d7 bc
       -0.20313811 -0.18580528 -0.14669363 -0.0262998
0001e0 b3 53 ab 3c 04 4b a9 3d b9 f4 72 3c 6c bd 0f 3c
       0.020913934 0.08266261 0.014828854 0.008773189
0001f0 9c 47 e7 bd 2f 90 67 3c 74 36 1a bc 2c 7d 9c 3c
       -0.11292955 0.014133497 -0.009412397 0.019102655

bias f4 [2]
000000 32 4b 46 3f 51 f1 29 bf
       0.7745849 -0.66383845
