AutoBalance/results/tvarit_wheel/New_Experiments/test_big_data/dyly_LA_init/1/retrain/epoch_330.pth (torch, 236367 bytes, 8 tensors)

weight f4 [256, 64]
-0.08942817 0.077707365 -0.033920012 -0.08738241 -0.08699806 0.04901678 -0.11512835 0.041264296
-0.015933111 0.103349894 0.1106133 0.004951896 -0.07230544 0.079674914 0.030987073 -0.0099693835
0.12235241 -0.0048924237 -0.03978637 0.017763201 0.10080491 -0.10156665 -0.08497314 -0.020495895
-0.09782176 0.107103005 0.09263514 0.11222917 0.07237062 0.08424835 -0.11235236 0.09880995
-0.08863767 -0.029168203 -0.049416244 -0.055667665 0.06562255 0.0574841 -0.070679545 -0.10433967
0.031414147 0.081872165 0.032158315 -0.026426226 -0.04808721 0.0009893343 0.050431043 0.043709382
-0.109787904 -0.058113463 0.024701776 0.0072468584 -0.115134016 0.06567331 0.0022755547 -0.055561878
-0.10331145 -0.03277898 0.02547389 -0.05533705 -0.09540619 -0.10604044 -0.0416413 -0.020698652
-0.03471217 0.016992766 -0.09034253 0.09116039 0.081764415 -0.10367357 0.074227005 0.09623729
-0.051629856 0.043955397 0.0052981605 -0.033264026 -0.086400166 -0.08463501 -0.0024933189 -0.0094301365
-0.06254093 -0.055777617 -0.10506119 0.017460903 -0.038449273 -0.07869712 -0.07852043 -0.11628935
-0.03378305 -0.053926345 -0.021612782 -0.064224 -0.03433168 0.037287 -0.01651282 0.108030625
0.0708066 0.12131339 0.09339766 0.07542516 -0.09564541 0.0815633 -0.024731979 -0.03721503
-0.055344913 0.0835886 -0.11226991 -0.107664466 0.10323694 -0.018593816 0.07948275 0.059504684
-0.13488132 0.05890889 -0.065481305 0.09313077 0.087809876 -0.023321267 0.08154003 0.03649974
0.021154359 -0.043472193 -0.010146574 -0.0026994678 -0.022688944 -0.0060425783 -0.073926836 -0.035956457
0.1217116 0.05664167 0.00705497 0.024988588 0.06626646 -0.07470072 -0.11298327 -0.08535207
0.011359438 -0.09832686 0.1192366 0.07841438 -0.034796223 0.11165549 0.053788602 0.04919249
-0.08716961 0.11006844 0.076771855 -0.07680838 0.013253823 -0.087518424 0.044524375 -0.09325503
-0.055540442 0.035186693 -0.119387925 -0.082281925 -0.0495449 0.12175883 0.06833804 -0.0051033148
-0.016339257 0.09307299 -0.042015567 -0.07860261 -0.030504078 -0.057000592 0.03578484 0.032723155
0.039780922 -0.105285086 0.04124172 -0.05353783 -0.057071045 0.000727695 0.111792594 0.007397196
0.0138852345 0.029667903 -0.018603846 0.10754747 -0.04531051 -0.019970924 0.10579622 0.09911838
-0.065146804 -0.040507223 0.011113165 0.01606334 0.045021337 0.06813495 -0.12208808 0.07541329
-0.12395247 0.09176858 -0.115760684 -0.08817269 -0.005947748 -0.08538164 0.06561881 0.05103201
0.06136191 0.103351854 0.0754338 -0.005669195 -0.04107638 0.056429714 0.11263509 0.0951896
-0.001316668 -0.11252701 0.097831085 0.061805878 -0.05798778 -0.07160559 0.03500776 -0.02347652
-0.008043185 0.10862161 -0.029108787 -0.10037197 -0.032587662 0.12071788 -0.08954425 -0.082511865
-0.06100686 -0.07862126 -0.0073654726 -0.122052945 -0.0639119 0.019993098 0.03818737 -0.011923371
0.1201539 0.044829737 -0.08207017 0.11476666 -0.09848514 -0.0016798858 -0.1040937 -0.12018334
0.08634442 -0.08661631 0.049224094 0.04378729 -0.104590476 0.042650796 0.06211232 0.024093077
0.012319908 -0.10358475 -0.03619182 0.10592956 -0.027639821 -0.043556787 -0.05813761 -0.1157632
00000000: 1e26 b7bd 0a25 9f3d b6ef 0abd 8df5 b2bd
00000010: 0a2c b2bd d2c5 483d 6ac8 ebbd c004 293d
00000020: 2886 82bc 1ca9 d33d 3a89 e23d 8443 a23b
00000030: e014 94bd 9a2c a33d 9ad8 fd3c a056 23bc
00000040: e693 fa3d a050 a0bb 08f7 22bd 2284 913c
00000050: ce72 ce3d 2d02 d0bd 6606 aebd 02e7 a7bc
00000060: c656 c8bd d258 db3d 7eb7 bd3d 68d8 e53d
00000070: 0c37 943d 668a ac3d fe18 e6bd df5c ca3d
00000080: ab87 b5bd 28f2 eebc b068 4abd c703 64bd
00000090: 1e65 863d 7374 6b3d 70c0 90bd 09b0 d5bd
000000a0: 1fac 003d 98ac a73d 70b8 033d d07b d8bc
000000b0: 18f7 44bd 8dac 813a c890 4e3d 9c08 333d
000000c0: 7bd8 e0bd 6208 6ebd 615b ca3c 0e77 ed3b
000000d0: 62cb ebbd ba7f 863d 7921 153b da94 63bd
000000e0: f494 d3bd 4043 06bd 9fae d03c 1aa9 62bd
000000f0: 5264 c3bd bb2b d9bd 1190 2abd 3890 a9bc
00000100: 592e 0ebd 6a34 8b3c 8105 b9bd 4cb2 ba3d
00000110: 1a74 a73d cf52 d4bd 5404 983d 0e18 c53d
00000120: d479 53bd 930a 343d 319c ad3b dc3f 08bd
00000130: 92f2 b0bd 1f55 adbd f366 23bb dc80 1abc
00000140: 7615 80bd 1277 64bd 522a d7bd 2b0a 8f3c
00000150: fc7c 1dbd f52b a1bd 52cf a0bd 1c29 eebd
00000160: 1860 0abd dfe1 5cbd 4a0d b1bc df87 83bd
00000170: 609f 0cbd 41ba 183d e545 87bc 293f dd3d
00000180: 0d03 913d 2873 f83d 4647 bf3d 8278 9a3d
00000190: bee1 c3bd a90a a73d b89a cabc ca6e 18bd
000001a0: 59b1 62bd 8030 ab3d c4ed e5bd 307f dcbd
000001b0: e46d d33d 0f52 98bc dac7 a23d 2fbb 733d
000001c0: 541e 0abe 734a 713d 101b 86bd 58bb be3d
000001d0: aad5 b33d 3e0c bfbc 76fe a63d c080 153d
000001e0: e84b ad3c e60f 32bd d13d 26bc 8ee9 30bb
000001f0: 2ade b9bc d200 c6bb f466 97bd 1447 13bd
00000200: ee43 f93d 1901 683d 612d e73b deb4 cc3c
00000210: b6b6 873d b1fc 98bd c663 e7bd 11cd aebd
00000220: f01c 3a3c 985f c9bd 5232 f43d b897 a03d
00000230: 7c86 0ebd a2ab e43d 7051 5c3d 107e 493d
00000240: fb85 b2bd 906b e13d 903a 9d3d b64d 9dbd
00000250: 9026 593c dc3c b3bd 315f 363d 7efc bebd
00000260: 607e 63bd ec1f 103d a881 f4bd 6d83 a8bd
00000270: 98ef 4abd b25c f93d d0f4 8b3d b539 a7bb
00000280: e8d9 85bc 0d9d be3d 8418 2cbd 68fa a0bd
00000290: b0e3 f9bc 7479 69bd 2093 123d b708 063d
000002a0: 52f1 223d b59f d7bd 14ed 283d 7c4a 5bbd
000002b0: 54c3 69bd c9c2 3e3a 84f3 e43d 2d64 f23b
000002c0: e57e 633c 1a0a f33c 1867 98bc d941 dc3d
000002d0: 8397 39bd 109a a3bc b0ab d83d 94fe ca3d
000002e0: b06b 85bd e7ea 25bd fe13 363c 4497 833c
000002f0: 4b68 383d 568a 8b3d 5109 fabd 4872 9a3d
00000300: cbda fdbd 2af1 bb3d f013 edbd e293 b4bd
00000310: 54e5 c2bb 92dc aebd 2863 863d f106 513d
00000320: a056 7b3d 23aa d33d 097d 9a3d a8c4 b9bb
00000330: b53f 28bd d822 673d 3aad e63d c4f2 c23d
00000340: 0c94 acba 9074 e6bd aa5b c83d 2928 7d3d
00000350: 9884 6dbd f4a5 92bd 4c64 0f3d d551 c0bc
00000360: 90c7 03bc 0275 de3d 8d75 eebc d28f cdbd
00000370: a47a 05bd f03a f73d fa62 b7bd fbfb a8bd
00000380: 54e2 79bd 2f04 a1bd 105a f1bb e5f6 f9bd
00000390: 3ee4 82bd 91c8 a33c 5c6a 1c3d 3e5a 43bc
000003a0: 3f13 f63d 639f 373d 6814 a8bd c80a eb3d
000003b0: 94b2 c9bd 9d2f dcba 142f d5bd af22 f6bd
000003c0: 58d5 b03d e463 b1bd 349f 493d 4d5a 333d
000003d0: 8833 d6bd 9ab2 2e3d 7d69 7e3d d85e c53c
000003e0: 70d9 493c 3e24 d4bd e03d 14bd 99f1 d83d
000003f0: e86c e2bc 9a68 32bd b421 6ebd 4215 edbd

bias f4 [256]
-0.09565629 0.03993808 -0.0019425685 0.04933428 -0.067851745 0.110323474 0.11263244 -0.060820382
-0.053516537 -0.001432281 0.040629048 -0.076374106 0.029614579 -0.047690295 0.055640936 0.029019387
0.07711382 0.08383169 -0.114987895 -0.064762056 0.026333705 -0.06954035 -0.073955014 0.01679428
0.071146145 0.13148068 0.03488327 -0.0939072 -0.020289423 0.0057449914 -0.118725866 0.052612267
0.11987856 -0.038842887 -0.03627956 0.005529933 0.12083871 -0.06155242 0.051307265 0.1173473
0.008930966 -0.11957133 0.055184167 0.03368455 0.0655265 0.018897234 -0.052320976 0.019131478
-0.064925395 0.0069173006 -0.03331374 0.06619098 0.014862941 -0.02166198 -0.043514 -0.072899
-0.104284585 0.09252704 -0.07208429 0.065652914 0.04220815 -0.05275449 0.028955013 0.02975028
-0.017401457 0.08968412 0.034622196 -0.11440614 -0.012691444 -0.1182213 -0.119115025 0.012076223
-0.019066457 -0.066473246 -0.0856901 -0.011843279 -0.074543394 0.103321895 -0.03342573 0.008858866
0.09800875 -0.08751857 -0.009356833 -0.06647682 -0.026102332 -0.10626227 0.028531145 0.08222599
-0.06040843 0.0060453326 0.0803658 -0.082244635 0.084835306 0.036605507 -0.10742624 -0.110604465
0.111100875 0.10371978 -0.07091457 -0.0392026 0.104339115 0.07699676 -0.0077764625 -0.110388726
-0.09903915 0.018743366 0.1317739 -0.12401436 0.09605973 0.08037104 0.0010892277 0.056661557
0.059438944 -0.07397327 0.08918738 0.1339981 -0.055354226 0.0143256 -0.123072445 -0.021482147
-0.082038686 -0.10925728 -0.02973867 0.018874008 -0.052853715 -0.070474155 -0.0032644568 -0.0993232
-0.0047954083 -0.069375396 0.08492455 -0.09665279 0.08250694 0.120900676 0.09167997 -0.094487414
-0.10026562 -0.09407412 -0.029783452 -0.108195186 0.060556665 0.08366152 -0.07576679 0.022178726
-0.09991722 0.039881993 -0.06679446 -0.09532626 0.082155086 0.11784691 0.014332425 -0.08996762
-0.042010397 -0.059336707 -0.034284864 -0.0743396 -0.08352796 -0.09533604 0.011017688 0.033381954
-0.026485354 -0.04064482 0.08451196 0.14063486 -0.037621636 0.12286504 -0.08928618 -0.04290386
0.12221821 0.06842864 0.08892948 0.047509514 0.08834651 0.08721439 -0.1163975 -0.033804096
-0.0115104 0.08345636 -0.022370681 0.12456846 -0.08194668 -0.017201291 -0.08006176 -0.116804466
-0.0015733141 -0.019500956 0.0792619 -0.020825358 0.057153385 0.086908564 0.09743696 -0.0597028
0.115159295 -0.016167685 -0.0050040404 -0.102494076 0.027413912 -0.025859201 -0.0060970876 -0.021499595
-0.0046882313 -0.0111387335 0.0104188565 -0.05264765 0.050511003 0.016049778 -0.037776463 0.022063503
-0.031092318 0.09955814 -0.07585153 0.0049040853 -0.02421084 -0.042595435 0.080942556 -0.08159681
0.020815032 -0.002705882 0.007588782 -0.10913376 0.111608304 -0.04840536 -0.053007632 0.07417458
0.08117859 0.0009032065 -0.091803476 -0.031022798 0.0875187 0.055433303 0.11327846 -0.012572554
-0.01152157 0.0067831744 -0.124262996 -0.062699795 0.061816756 0.0061781933 0.027488561 0.06977397
-0.045703165 -0.047702044 -0.104282916 0.009531601 -0.02589868 -0.119118825 -0.11577651 -0.0405693
-0.10456418 0.117488645 0.0687884 -0.1115742 -0.021624515 -0.12330104 0.09202485 -0.041372288
00000000: 72e7 c3bd 1d96 233d c89d feba be12 4a3d
00000010: dbf5 8abd 46f1 e13d d6ab e63d cb1e 79bd
00000020: 2834 5bbd 60bb bbba a56a 263d 076a 9cbd
00000030: 469a f23c e656 43bd c0e7 633d 11ba ed3c
00000040: daed 9d3d f3af ab3d c67e ebbd f8a1 84bd
00000050: c8b9 d73c 2c6b 8ebd ba75 97bd 2894 893c
00000060: 12b5 913d dfa2 063e c2e1 0e3d 6b52 c0bd
00000070: 0136 a6bc 7b40 bc3b 8c26 f3bd f67f 573d
00000080: e482 f53d b819 1fbd e099 14bd 7134 b53b
00000090: 497a f73d 641e 7cbd 9127 523d c853 f03d
000000a0: 3053 123c d0e1 f4bd cb08 623d d0f8 093d
000000b0: c232 863d 5fce 9a3c 854e 56bd 9eb9 9c3c
000000c0: 9bf7 84bd 86aa e23b fd73 08bd 238f 873d
000000d0: b183 733c 7774 b1bc bc3b 32bd 124c 95bd
000000e0: 2893 d5bd d17e bd3d eea0 93bd 0975 863d
000000f0: 74e2 2c3d 1815 58bd 1033 ed3c dcb6 f33c
00000100: 808d 8ebc 4fac b73d 01d0 0d3d c44d eabd
00000110: c6ef 4fbc 021e f2bd 94f2 f3bd 5adb 453c
00000120: 4231 9cbc 2023 88bd 4b7e afbd 500a 42bc
00000130: 35aa 98bd 6e9a d33d 6be9 08bd c724 113c
00000140: d0b8 c83d f03c b3bd 674d 19bc 0025 88bd
00000150: 8fd4 d5bc 08a0 d9bd 26ba e93c 1a66 a83d
00000160: d46e 77bd ed17 c63b d396 a43d e06f a8bd
00000170: 22be ad3d a8ef 153d 4a02 dcbd 9884 e2bd
00000180: db88 e33d 096b d43d a83b 91bd e892 20bd
00000190: bfaf d53d 7ab0 9d3d b2d1 febb 7c13 e2bd
000001a0: 0ad5 cabd b08b 993c bdef 063e 3efb fdbd
000001b0: f7ba c43d 9299 a43d 6bc4 8e3a f315 683d
000001c0: 4076 733d 4c7f 97bd e0a7 b63d cc36 093e
000001d0: 1dbb 62bd ecb5 6a3c 680d fcbd 54fb afbc
000001e0: e603 a8bd 48c2 dfbd 839e f3bc aa9d 9a3c
000001f0: 237d 58bd c154 90bd 7ff0 55bb f669 cbbd
00000200: cd22 9dbb b014 8ebd ecec ad3d e6f1 c5bd
00000210: 66f9 a83d c69a f73d b5c2 bb3d 9e82 c1bd
00000220: 1058 cdbd efa9 c0bd 6dfc f3bc 7095 ddbd
00000230: 440a 783d bb56 ab3d 9e2b 9bbd 29b0 b53c
00000240: 66a1 ccbd 4d5b 233d 89cb 88bd 6a3a c3bd
00000250: ed40 a83d b959 f13d 8cd2 6a3c f240 b8bd
00000260: 1813 2cbd 0c0b 73bd 496e 0cbd 5c3f 98bd
00000270: b510 abbd 8b3f c3bd 8883 343c 84bb 083d
00000280: d0f7 d8bc 2f7b 26bd 9b14 ad3d 9602 103e
00000290: 2519 1abd aba0 fb3d acdb b6bd f5bb 2fbd
000002a0: 8a4d fa3d 5124 8c3d a920 b63d 5699 423d
000002b0: 04ef b43d 759d b23d d061 eebd 2a76 0abd
000002c0: 1e96 3cbc 2beb aa3d b842 b7bc c01d ff3d
000002d0: a9d3 a7bd b9e9 8cbc 6cf7 a3bd 2e37 efbd
000002e0: a937 ceba 78c0 9fbc 1054 a23d f199 aabc
000002f0: ab19 6a3d 1efd b13d 078d c73d ec8a 74bd
00000300: a3d8 eb3d 1872 84bc eff8 a3bb 6ae8 d1bd
00000310: 2493 e03c add6 d3bc 14ca c7bb eb1f b0bc
00000320: bc9f 99bb 3c7f 36bc dab3 2a3c 10a5 57bd
00000330: a0e4 4e3d d37a 833c 7ebb 1abd 85be b43c
00000340: 51b5 febc 23e5 cb3d 0c58 9bbd 73b2 a03b
00000350: d055 c6bc 8d78 2ebd 36c5 a53d 3a1c a7bd
00000360: 4984 aa3c 2b55 31bb 51ab f83b 8581 dfbd
00000370: e592 e43d b344 46bd 881e 59bd d8e8 973d
00000380: f640 a63d 2ac5 6c3a 7603 bcbd 8623 febc
00000390: 013d b33d 080e 633d 8afe e73d 1dfd 4dbc
000003a0: f8c4 3cbc 6445 de3b 997d febd c068 80bd
000003b0: 9133 7d3d 7172 ca3b b12f e13c a8e5 8e3d
000003c0: 3e33 3bbd 3863 43bd 4892 d5bd 6f2a 1c3c
000003d0: 7829 d4bc 92f4 f3bd 3c1c edbd ff2b 26bd
000003e0: bf25 d6bd e39d f03d efe0 8c3d 0481 e4bd
000003f0: e525 b1bc 4185 fcbd 8677 bc3d fd75 29bd

weight f4 [128, 256]
-0.0242109 -0.015365529 0.0555343 -0.038263794 0.04191647 -0.006408949 0.020524416 -0.049471766
0.03833101 0.055590227 -0.03423573 0.048795633 -0.020413129 -0.043148525 0.042168792 0.062393483
0.011511553 0.014705415 0.04758399 -0.012147687 -0.013165279 0.036349975 -0.048617676 0.059969403
-0.014480157 0.017614178 0.03330776 0.0019865325 0.061946284 0.043261174 -0.036658324 -0.009449457
-0.03279377 -0.010183577 0.04222663 0.049363364 -0.026365744 -0.007901147 -0.013559983 -0.030914886
-0.049352992 0.051723313 0.003722087 0.04780017 0.011269267 -0.027422123 -0.019224478 0.020324009
0.027985768 0.03917403 -0.057043545 -0.022155624 0.04032747 -0.0074270177 0.00757177 -0.02574911
-0.011665919 0.029824547 -0.043799505 0.046761252 -0.009112717 0.053789802 0.0504608 -0.049655464
0.016590834 0.0038914504 0.027949223 -0.020667313 0.0030515408 0.017928503 0.05716996 -0.04145775
-0.030342204 -0.05552177 0.004194618 -0.05151941 -0.019621404 0.060776815 0.054853626 -0.006136408
-0.037328903 0.046443142 0.053229976 -0.043007478 0.0008344553 -0.048623987 -0.004762336 -0.005508755
0.06017868 0.018627651 -0.044572756 0.042754523 0.01733259 0.048687566 0.0127198845 0.05784642
-0.02378868 0.026169961 0.061454635 -0.0435355 0.05520099 -0.022100264 -0.014757293 0.007176481
-0.019657768 0.023271378 0.054275595 -0.04462242 0.020305723 -0.056352288 -0.012277502 0.060130358
0.0021851223 0.00064295303 -0.0042342297 -0.046007957 0.027882138 -0.024184797 -0.058368698 -0.009882886
-0.01204779 0.026916016 -0.023607148 -0.022436924 0.01954446 0.059292533 -0.061949994 0.042439908
-0.02398475 0.041149013 -0.021007529 0.015148371 0.05585693 0.013818822 -0.032693833 -0.041657954
-0.016068483 0.0009308051 0.012521302 -0.007543662 0.036743846 -0.0039431336 -0.006131004 -0.024265688
-0.053060792 -0.017846785 0.040367275 0.03809302 -0.008950577 -0.00034991742 0.040104337 -0.057867803
0.05253777 -0.021582356 0.04064983 -0.025352629 0.021910954 0.041805785 0.048051465 0.0017993452
0.017570727 -0.02571373 0.04492485 0.025386147 -0.037854135 -0.005296724 0.035478212 0.025570877
0.028925413 0.019082751 0.061497387 0.049716216 -0.047056027 0.00696514 0.00993567 -0.03698826
0.023242922 0.043748256 -0.0480183 -0.006004961 -0.033928685 -0.03804455 0.032036815 -0.013733434
0.0042028497 -0.05620574 0.06446221 -0.06017529 -0.013692923 0.011108521 0.031470858 0.03061278
-0.020569656 0.02008264 0.016554425 -0.04917776 -0.04948715 0.023817047 0.06642265 -0.0019556766
-0.044402204 -0.014034016 0.0031711785 -0.04010573 -0.039009817 0.031567916 0.06190383 -0.002586351
-0.040610872 -0.012001159 0.051311158 -0.008159111 -0.002867587 -0.06150631 -0.038213525 0.048695046
0.014314563 0.05688794 0.04372762 -0.046434496 0.034688674 0.014194515 -0.03594204 0.058517236
-0.055341106 0.05816203 -0.06242252 0.03182134 -0.05594262 -0.005252455 0.0030466267 -0.005536986
0.04916653 0.026236136 0.028225897 0.045449283 -0.024103567 0.015951248 0.009202023 -0.016657762
0.039341718 -0.04351101 0.052015573 0.031450503 0.056286678 0.033267945 -0.057056237 0.022622723
0.0070245173 0.03840184 0.015754389 -0.050292365 0.057166684 -0.042059977 0.0041965083 0.05837816
00000000: f055 c6bc b3bf 7bbc ef77 633d 7fba 1cbd
00000010: 9bb0 2b3d 2902 d2bb d222 a83c e8a2 4abd
00000020: fa00 1d3d 94b2 633d c43a 0cbd eedd 473d
00000030: 6f39 a7bc 82bc 30bd 2fb9 2c3d 4f90 7f3d
00000040: f49a 3c3c fbee 703c 6ee7 423d 1807 47bc
00000050: 2fb3 57bc b6e3 143d 5423 47bd 7aa2 753d
00000060: 2e3e 6dbc 9c4b 903c b86d 083d 7c30 023b
00000070: 63bb 7d3d a132 313d 0a27 16bd e5d1 1abc
00000080: c352 06bd 05d9 26bc d5f5 2c3d 3d31 4a3d
00000090: f9fc d7bc d073 01bc b12a 5ebc 3741 fdbc
000000a0: 5d26 4abd d3db 533d 42ee 733b 1cca 433d
000000b0: bba2 383c 5ca4 e0bc a77c 9dbc 897e a63c
000000c0: 6942 e53c f374 203d 7ea6 69bd b67f b5bc
000000d0: 6b2e 253d 575e f3bb 9c1c f83b ccef d2bc
000000e0: 6922 3fbc 9c52 f43c 1c67 33bd ba88 3f3d
000000f0: 814d 15bc b252 5c3d fcaf 4e3d 8763 4bbd
00000100: 80e9 873c b407 7f3b c5f5 e43c 7f4e a9bc
00000110: 5cfc 473b ccde 923c 0c2b 6a3d 9acf 29bd
00000120: 3790 f8bc cc6a 63bd 0273 893b 0406 53bd
00000130: 11bd a0bc 1cf1 783d 32ae 603d ec13 c9bb
00000140: 31e6 18bd 2a3b 3e3d ad07 5a3d 9c28 30bd
00000150: 59bf 5a3a f229 47bd 5f0d 9cbb c982 b4bb
00000160: eb7d 763d 0499 983c ec91 36bd 5e1f 2f3d
00000170: 13fd 8d3c 9d6c 473d 1067 503c 5ef0 6c3d
00000180: 7ae0 c2bc 6362 d63c dbb7 7b3d 4852 32bd
00000190: 6f1a 623d 9d0b b5bc 93c8 71bc b028 eb3b
000001a0: 5409 a1bc 9ea3 be3c 1650 5e3d 00c6 36bd
000001b0: 3058 a63c a8d1 66bd 9327 49bc 404b 763d
000001c0: 4534 0f3b d98b 283a 4bbf 8abb d772 3cbd
000001d0: 1569 e43c 321f c6bc 0414 6fbd d4eb 21bc
000001e0: 1864 45bc fa7e dc3c c763 c1bc a4cd b7bc
000001f0: b41b a03c badc 723d 47bf 7dbd 78d5 2d3d
00000200: ab7b c4bc de8b 283d fb17 acbc e030 783c
00000210: 3cca 643d 5768 623c f8e9 05bd 88a1 2abd
00000220: 0da2 83bc 4601 743a 2626 4d3c d330 f7bb
00000230: b780 163d 6735 81bb 97e6 c8bb d6c8 c6bc
00000240: 4656 59bd 6c33 92bc 2858 253d 6d07 1c3d
00000250: 71a5 12bc 1f75 b7b9 7244 243d ca06 6dbd
00000260: d831 573d 7bcd b0bc 7080 263d 51b0 cfbc
00000270: 9a7e b33c 8b3c 2b3d 9dd1 443d 02d8 eb3a
00000280: 7cf0 8f3c 9aa5 d2bc 1f03 383d 9cf6 cf3c
00000290: f00c 1bbd 2490 adbb 9a51 113d 047a d13c
000002a0: fdf4 ec3c 6e53 9c3c afe4 7b3d 3ba3 4b3d
000002b0: d2bd 40bd d43b e43b 38c9 223c 0081 17bd
000002c0: f167 be3c 5f31 333d d6ae 44bd 44c5 c4bb
000002d0: cef8 0abd 9ad4 1bbd 0939 033d 3202 61bc
000002e0: 0fb8 893b fd37 66bd c304 843d 5d7a 76bd
000002f0: 4858 60bc 8400 363c 96e7 003d a7c7 fa3c
00000300: b281 a8bc 5984 a43c 259d 873c 9e6e 49bd
00000310: 0ab3 4abd f81b c33c 9908 883d cf2a 00bb
00000320: 16df 35bd eeee 65bc 8cd3 4f3b e845 24bd
00000330: c2c8 1fbd 5c4d 013d df8e 7d3d c57f 29bb
00000340: 9657 26bd 82a0 44bc a62b 523d cbad 05bc
00000350: 20ee 3bbb 0aee 7bbd c985 1cbd 7574 473d
00000360: a187 6a3c 5403 693d bc1b 333d 1932 3ebd
00000370: b615 0e3d 1c90 683c f637 13bd c5af 6f3d
00000380: 5bad 62bd 4f3b 6e3d c2ae 7fbd 1857 023d
00000390: 1724 65bd c91c acbb eaa9 473b 9b6f b5bb
000003a0: d862 493d 2aed d63c ff39 e73c 0729 3a3d
000003b0: d874 c5bc 31ac 823c 15c4 163c dc75 88bc
000003c0: c824 213d 9a38 32bd 480e 553d 3ed2 003d
000003d0: dc8c 663d f843 083d cdb3 69bd 4a53 b93c
000003e0: ec2d e63b 3f4b 1d3d 590f 813c 5eff 4dbd
000003f0: 9d27 6a3d 1547 2cbd dd82 893b f01d 6f3d

bias f4 [128]
0.06454338 -0.036298897 -0.0097143315 -0.061654262 -0.007566743 -0.01968115 -0.019470518 0.01796062
0.07373599 -0.0069397194 0.030868743 -0.0038621675 -0.0010435589 0.029667675 -0.029213179 0.0320964
0.022476008 -0.058908593 0.061207842 0.02216408 0.04289513 -0.017875044 0.037741475 0.08077581
0.0022831664 -0.050865192 0.028823731 -0.011672914 0.039809242 0.0011069174 -0.032360952 -0.024434414
0.01684135 0.0137934955 -0.025057098 0.09336695 0.043074787 -0.0057394705 -0.05821755 0.017173028
-0.0009858124 -0.032007754 -0.016952824 -0.03909689 0.052795764 -0.0072463797 -0.015635798 -0.038400773
-0.017461639 0.0356036 0.052618943 0.020140283 -0.00959569 0.053379636 0.017399635 0.043393526
0.08461344 0.019725744 0.0039146724 0.050757274 -0.048391353 0.00462731 -0.046177574 -0.037475374
0.016888449 0.06184965 0.07640219 0.056213893 0.061922383 -0.027727488 0.017442968 0.03294826
-0.054803334 0.03303074 -0.05072222 -0.00490305 -0.008414978 -0.039280776 0.033341758 -0.011006453
-0.0258108 0.08393702 -0.02818587 0.044509176 -0.018759603 -0.057944037 0.03640087 0.020397127
0.068463236 0.032440312 -0.060114034 -0.0069259047 0.026567267 0.06760679 0.02339242 0.013827868
-0.014190406 0.024042504 -0.017478375 0.10100562 -0.041833367 0.016327063 -0.051188517 -0.054278806
0.024126451 0.07960028 0.002306612 0.039297827 0.019283162 -0.052177653 0.06647168 0.06367516
-0.027144415 -0.0187219 -0.049408108 -0.019929437 0.069317564 -0.015017468 0.020420332 0.029140072
0.046749298 -0.014527673 -0.060141742 -0.03294986 0.05327945 0.017035924 0.008803756 0.038776122
00000000: 522f 843d 27ae 14bd dc28 1fbc 2e89 7cbd
00000010: 71f2 f7bb 5d3a a1bc a380 9fbc 2622 933c
00000020: e502 973d 9666 e3bb 72e0 fc3c 6b1c 7dbb
00000030: 07c8 88ba a009 f33c 7a50 efbc 8477 033d
00000040: 9b1f b83c 234a 71bd 13b5 7a3d 7291 b53c
00000050: ceb2 2f3d af6e 92bc ce96 1a3d ca6d a53d
00000060: 2da1 153b 0558 50bd bf1f ec3c c03f 3fbc
00000070: 040f 233d fc15 913a eb8c 04bd ae2a c8bc
00000080: dff6 893c 1dfe 613c 8b44 cdbc 2c37 bf3d
00000090: 306f 303d 2b12 bcbb 8775 6ebd 73ae 8c3c
000000a0: 6036 81ba 901a 03bd a6e0 8abc 0f24 20bd
000000b0: 5f40 583d 0a73 edbb a516 80bc 214a 1dbd
000000c0: b60b 8fbc 15d5 113d f686 573d 3cfd a43c
000000d0: 3e37 1dbc 9ba4 5a3d ae89 8e3c 69bd 313d
000000e0: d049 ad3d e297 a13c a746 803b dce6 4f3d
000000f0: 0336 46bd b1a0 973b b224 3dbd c77f 19bd
00000100: a559 8a3c 0f56 7d3d c078 9c3d 8a40 663d
00000110: 53a2 7d3d c224 e3bc 8ee4 8e3c c1f4 063d
00000120: 7679 60bd 3e4b 073d 1ac2 4fbd c4a9 a0bb
00000130: fade 09bc e1e4 20bd 5e91 083d 6954 34bc
00000140: 2c71 d3bc 2ce7 ab3d 0ee6 e6bc 414f 363d
00000150: bdad 99bc ba56 6dbd 1419 153d e017 a73c
00000160: 7436 8c3d 22e0 043d 223a 76bd b3f2 e2bb
00000170: 99a3 d93c 6e75 8a3d 76a1 bf3c 488e 623c
00000180: e07e 68bc c9f4 c43c cf2e 8fbc 09dc ce3d
00000190: 7759 2bbd 55c0 853c 0dab 51bd 7453 5ebd
000001a0: d6a4 c53c 7905 a33d 872a 173b c2f6 203d
000001b0: b9f7 9d3c 3cb8 55bd 4e22 883d 1f68 823d
000001c0: f75d debc ac5e 99bc 2860 4abd 0f43 a3bc
000001d0: 5ef6 8d3d d30b 76bc 8a48 a73c 29b7 ee3c
000001e0: 317c 3f3d 7a05 6ebc 3057 76bd 6ff6 06bd
000001f0: 8d3b 5a3d ec8e 8b3c a13d 103c b6d3 1e3d

weight f4 [64, 128]
0.108633675 -0.026460184 -0.020875713 -0.079268724 -0.049538173 0.008743489 -0.048349876 0.0545594
0.07672743 -0.03995945 -0.030329226 0.030770585 0.018049471 -0.05778587 0.08073353 0.037722368
-0.028935967 -0.08727709 0.060435724 -0.062414583 0.08344631 -0.017979478 0.013120788 -0.041976664
-0.04242039 0.027710985 -0.06696567 -0.041628752 0.038257513 0.05254974 -0.01879779 -0.05758671
0.03597414 0.012836113 0.035189994 0.07268525 0.09944158 0.07967146 0.058314122 -0.017484501
0.043976974 -0.04763542 0.032242678 -0.025770796 -0.06273679 -0.08370327 -0.07218628 -0.06694535
-0.019252308 -0.08583189 0.02603629 0.047009222 -0.037634924 0.0653805 -0.048725642 -0.00977489
0.07586169 0.07024371 0.07887614 0.03523385 0.07817499 0.024275826 0.0048611746 -0.029844113
-0.033605907 0.09134394 0.07887551 -0.052928634 0.02422702 -0.028759647 0.049918126 0.10813682
0.016608749 0.008921732 0.05714379 0.046871785 0.04009212 -0.053238604 0.034171853 -0.0007291613
-0.06012804 0.0259476 0.051749263 -0.078003146 -0.0063928314 -0.06577377 0.06832819 0.0118856905
-0.03435179 0.001966211 -0.033595555 -0.037188653 0.035657708 0.09121084 0.02143089 0.023862183
-0.036024664 0.037836004 -0.015629405 0.08845992 0.07136774 0.09461436 -0.034748923 -0.072583325
0.03553146 0.043922994 -0.03171962 0.0362802 -0.080955625 0.04436935 0.11012711 -0.03307048
0.024833767 -0.060057443 0.0559738 0.038060855 0.024048213 0.058098614 -0.08353631 0.030055128
0.10357023 -0.029969115 0.0010380406 -0.042071577 -0.008448632 -0.0110093905 -0.061054192 0.04824857
0.002789875 -0.064018145 0.008339212 0.031104416 -0.08037233 -0.01607681 0.00945683 -0.023298476
0.009965956 0.07788526 -0.045158137 0.05448701 0.049239714 0.021246629 0.08082359 0.07751155
-0.025513725 0.056405403 0.12012372 -0.029111216 0.034327973 -0.02122182 0.03762878 -0.030744627
-0.07892967 -0.052335557 -0.074477 -0.03938135 0.05351036 0.07493904 -0.0486639 -0.06763739
0.063465275 0.034085162 -0.065142885 0.017393034 0.04727896 0.03163418 -0.043731667 -0.03656586
-0.055612694 0.017210335 -0.04271575 -0.017662823 -0.030627487 -0.033423282 0.020096788 -0.035165373
-0.0032435698 0.056728818 0.01812539 0.044102807 -0.0030291623 0.0636079 0.07486276 0.08478473
0.0904406 -0.0419987 -0.0010268625 -0.0054492904 -0.05852361 0.0040088985 -0.084425315 0.052623667
0.020264702 0.00032429004 0.083997875 0.051354576 -0.049291283 0.0057954844 -0.054824404 0.026768586
0.032231394 0.073102124 0.01001926 -0.056036044 0.07248088 0.058236856 -0.023173288 -0.06653777
-0.06359597 -0.048014373 -0.01815961 -0.06330046 0.0050299787 0.025456395 -0.04716885 0.1082817
0.10004662 0.017004551 0.05677551 -0.023065243 -0.085114606 -0.014181091 0.00057222595 -0.04127368
0.043583196 -0.03997244 0.07529239 0.06204046 -0.07332107 0.009217534 0.02535484 -0.011143864
0.085644685 -0.06350738 -0.008185762 0.029973052 0.05391453 -0.04905732 0.09147919 0.05771764
-0.02223947 -0.038816996 0.03671525 -0.04688542 -0.037820693 -0.047381595 0.0014463313 -0.02131075
-0.018319529 -0.02231788 -0.010651665 0.044428848 0.010352021 -0.028779743 0.06989966 -0.055930953
00000000: 557b de3d 07c3 d8bc 8b03 abbc a457 a2bd
00000010: 8ae8 4abd da40 0f3c 850a 46bd ad79 5f3d
00000020: 4523 9d3d 85ac 23bd ff74 f8bc 9812 fc3c
00000030: 7cdc 933c e0b0 6cbd 9f57 a53d c582 1a3d
00000040: 1f0b edbc 55be b2bd 738b 773d 6fa6 7fbd
00000050: e6e5 aa3d b349 93bc 93f8 563c b9ef 2bbd
00000060: 01c1 2dbd 2602 e33c 4c25 89bd e982 2abd
00000070: e9b3 1c3d 653e 573d d3fd 99bc 0be0 6bbd
00000080: 9f59 133d 8f4e 523c 6223 103d 01dc 943d
00000090: 07a8 cb3d ca2a a33d cada 6e3d a83b 8fbc
000000a0: 3321 343d 5c1d 43bd e610 043d 471d d3bc
000000b0: 257c 80bd 9f6c abbd 66d6 93bd a51a 89bd
000000c0: 04b7 9dbc a1c8 afbd 0f4a d53c be8c 403d
000000d0: 1427 1abd 36e6 853d 8a94 47bd dc26 20bc
000000e0: 605d 9b3d efdb 8f3d d089 a13d 5f51 103d
000000f0: 361a a03d 19de c63c 7d4a 9f3b a47b f4bc
00000100: 59a6 09bd 8812 bb3d 7c89 a13d b2cb 58bd
00000110: be77 c63c 5a99 ebbc f376 4c3d d676 dd3d
00000120: 120f 883c 752c 123c 9b0f 6a3d a1fc 3f3d
00000130: a337 243d b910 5abd c9f7 0b3d 3025 3fba
00000140: d248 76bd 1090 d43c 09f7 533d 1dc0 9fbd
00000150: f57a d1bb 66b4 86bd a6ef 8b3d 33bc 423c
00000160: 76b4 0cbd 8cdb 003b 7e9b 09bd 2153 18bd
00000170: d10d 123d c0cc ba3d d58f af3c a07a c33c
00000180: 998e 13bd edf9 1a3d 3d09 80bc 792a b53d
00000190: 4029 923d 2cc5 c13d e354 0ebd 91a6 94bd
000001a0: 7089 113d 99e8 333d 6fec 01bd 8c9a 143d
000001b0: 10cc a5bd a3bc 353d 528a e13d e974 07bd
000001c0: 2f70 cb3c cbfe 75bd c944 653d b3e5 1b3d
000001d0: c200 c53c d0f8 6d3d 1615 abbd 2c36 f63c
000001e0: a11c d43d ca81 f5bc dd0e 883a 3f53 2cbd
000001f0: 226c 0abc bb60 34bc f613 7abd 4ba0 453d
00000200: 56d6 363b f21b 83bd 31a1 083c b0ce fe3c
00000210: 409a a4bd 84b3 83bc d2f0 1a3c 72dc bebc
00000220: 4048 233c 4f82 9f3d bdf7 38bd c52d 5f3d
00000230: 95af 493d 690d ae3c d786 a53d 60be 9e3d
00000240: 2902 d1bc 5a09 673d 6d03 f63d a57a eebc
00000250: 7d9b 0c3d 62d9 adbc a320 1a3d 28dc fbbc
00000260: e1a5 a1bd cf5d 56bd 6687 98bd 574e 21bd
00000270: ae2d 5b3d a479 993d cc53 47bd 7985 8abd
00000280: 15fa 813d e29c 0b3d a269 85bd d67b 8e3c
00000290: 95a7 413d d892 013d fa1f 33bd 15c6 15bd
000002a0: 23ca 63bd b0fc 8c3c b6f6 2ebd a0b1 90bc
000002b0: 7fe6 fabc dae6 08bd 05a2 a43c 9109 10bd
000002c0: 1292 54bb 7a5c 683d b37b 943c 25a5 343d
000002d0: e984 46bb dc44 823d a651 993d 9ea3 ad3d
000002e0: ec38 b93d d406 2cbd ca97 86ba f68f b2bb
000002f0: 74b6 6fbd 145d 833b 2ee7 acbd ea8b 573d
00000300: 2902 a63c 7905 aa39 1407 ac3d 2d59 523d
00000310: a8e5 49bd 0ce8 bd3b 8e8f 60bd cb49 db3c
00000320: 1105 043d 91b6 953d d327 243c 0d86 65bd
00000330: db70 943d c589 6e3d e8d5 bdbc f444 88bd
00000340: 9b3e 82bd b8aa 44bd 76c3 94bc aca3 81bd
00000350: 85d2 a43b ee89 d03c 2034 41bd ccc2 dd3d
00000360: 3ee5 cc3d 214d 8b3c 708d 683d 52f3 bcbc
00000370: 9150 aebd cf57 68bc 6f01 163a 970e 29bd
00000380: 4b84 323d 24ba 23bd e632 9a3d 231e 7e3d
00000390: 5b29 96bd 2405 173c f4b4 cf3c c194 36bc
000003a0: 7b66 af3d 2810 82bd 931d 06bc 0c8a f53c
000003b0: 7bd5 5c3d 54f0 48bd 7159 bb3d 5569 6c3d
000003c0: 8d2f b6bc 92fe 1ebd bb62 163d ed0a 40bd
000003d0: dfe9 1abd 3413 42bd d392 bd3a e293 aebc
000003e0: d612 96bc fdd3 b6bc 5284 2ebc 06fb 353d
000003f0: 869b 293c 7fc3 ebbc 8e27 8f3d db17 65bd

bias f4 [64]
0.12262423 0.18879275 -0.04486117 0.114077814 0.022248525 -0.085320726 -0.006023383 -0.019652031
0.008276029 -0.044376776 0.082723804 -0.03315885 -0.012323978 0.045360222 0.002869041 -0.0252072
-0.024209676 -0.0066346447 0.113633685 0.033460252 0.04056239 -0.06132998 -0.058515538 0.0013924959
-0.026514055 0.02183122 0.110153064 0.00641327 -0.070469484 0.025402939 0.030341167 -0.026719075
-0.033079658 -0.039655183 -0.018004509 -0.022569146 -0.074141234 -0.06370516 0.14989968 -0.054827232
-0.012036608 0.006810869 0.17355628 -0.08469609 -0.0012990291 -0.03743842 0.17263757 0.009536619
0.20582965 0.072125465 -0.043131363 -0.008407908 0.1627692 0.15017115 -0.015448064 -0.048921116
-0.046270743 0.03137415 0.028152298 -0.027611865 0.09771673 0.18311372 0.21756965 0.035323374
00000000: 6a22 fb3d e352 413e 59c0 37bd a1a1 e93d
00000010: 8a42 b63c a2bc aebd cc5f c5bb 4cfd a0bc
00000020: 2e98 073c 6cc4 35bd 196b a93d 93d1 07bd
00000030: 83ea 49bc a4cb 393d 8506 3c3b 547f cebc
00000040: 5f53 c6bc 6f67 d9bb c7b8 e83d 9e0d 093d
00000050: c024 263d 2535 7bbd fdad 6fbd 6984 b63a
00000060: 0134 d9bc 63d7 b23c ee97 e13d 6826 d23b
00000070: 4e52 90bd d319 d03c 0a8e f83c f6e1 dabc
00000080: 897e 07bd 796d 22bd 317e 93bc eee2 b8bc
00000090: 5cd7 97bd da77 82bd 4d7f 193e 8592 60bd
000000a0: 3135 45bc b62d df3b bdb8 313e 2575 adbd
000000b0: 2f44 aaba 0759 19bd e7c7 303e 7b3f 1c3c
000000c0: 02c5 523e 84b6 933d 83aa 30bd 52c1 09bc
000000d0: f8ac 263e 77c6 193e e019 7dbc 8261 48bd
000000e0: 6486 3dbd 2e82 003d a69f e63c 4732 e2bc
000000f0: b51f c83d 2a82 3b3e 94ca 5e3e 3eaf 103d

weight f4 [2, 64]
0.2183801 0.23813905 -0.046007995 0.1730435 0.07588098 -0.032064218 -0.049195107 0.021654807
-0.094127685 -0.09706398 0.24056979 -0.10155975 -0.001898407 0.015753305 -0.09815783 -0.101255484
-0.056179065 -0.06647072 0.045165904 -0.081418104 0.013398836 0.052960474 -0.077564806 0.17915103
0.12108416 0.06225174 0.15751472 -0.01232031 -0.11744464 0.033913247 -0.024072599 0.077997185
0.11117825 0.000759746 -0.062464323 -0.011066061 -0.08532469 -0.10190575 0.19185047 0.005728142
0.022700232 -0.0021819368 0.20412315 0.0965006 -0.037205294 0.0019081823 0.22998507 -0.041064367
0.25560015 0.16400924 0.12546188 0.051215205 0.21634714 0.19253002 0.002218046 -0.107213
-0.037873175 -0.06802733 0.11703494 0.09634524 0.09704308 0.20431852 0.2794845 0.015680045
-0.1516714 -0.10175573 0.022320895 0.013068632 0.07285287 0.10731273 0.064046495 0.09650787
-0.017344717 0.015463938 -0.10573401 0.11792565 -0.04092716 0.021092638 -0.07615328 -0.100305356
0.04445847 -0.08320984 -0.18184014 0.021286253 0.022950483 -0.0030864307 -0.124627165 -0.060304247
-0.124819845 -0.027883686 -0.21128316 -0.10243198 -0.10948423 -0.17463094 -0.08669207 0.08174379
-0.037684415 0.051725425 0.089626305 0.110941194 0.039696824 0.0699192 -0.1103778 -0.024160547
0.09082812 0.040405706 -0.17994942 0.064627156 0.09316096 0.034305748 -0.12729199 -0.028209219
-0.13926218 -0.11295333 -0.110778935 0.121336885 -0.23830175 -0.15667972 -0.019695217 0.03884262
-0.04668745 -0.16324252 -0.12791549 0.03919695 -0.16957048 -0.2239695 -0.14951153 -0.07821942
00000000: 089f 5f3e b9da 733e e172 3cbd 5132 313e
00000010: 7d67 9b3d c555 03bd cf80 49bd 6c65 b13c
00000020: 04c6 c0bd 7bc9 c6bd ed57 763e 8ffe cfbd
00000030: f8d3 f8ba 130d 813c f906 c9bd 095f cfbd
00000040: 051c 66bd cd21 88bd e2ff 383d 89be a6bd
00000050: cb86 5b3c 15ed 583d 4cda 9ebd 5e73 373e
00000060: f9fa f73d aefb 7e3d 8a4b 213e 20db 49bc
00000070: d186 f0bd 9ee8 0a3d e633 c5bc fdbc 9f3d
00000080: 6cb1 e33d b129 473a 97da 7fbd 6d4e 35bc
00000090: b6be aebd f6b3 d0bd 7374 443e 23b3 bb3b
000000a0: d6f5 b93c d3fe 0ebb a905 513e 1ba2 c53d
000000b0: 9464 18bd f91b fa3a 3581 6b3e 1c33 28bd
000000c0: 06de 823e 0af2 273e 1479 003e 09c7 513d
000000d0: 1b8a 5d3e 9726 453e a35c 113b 7d92 dbbd
000000e0: e720 1bbd ea51 8bbd 04b0 ef3d a750 c53d
000000f0: 86be c63d e038 513e 9818 8f3e 7073 803c
00000100: bf4f 1bbe 4f65 d0bd 4fda b63c d11d 563c
00000110: e333 953d c7c6 db3d cf2a 833d eba5 c53d
00000120: 8216 8ebc 755c 7d3c 138b d8bd 0183 f13d
00000130: 3da3 27bd 78ca ac3c 40f6 9bbd e56c cdbd
00000140: 161a 363d ec69 aabd 4d34 3abe 8260 ae3c
00000150: a702 bc3c b745 4abb 873c ffbd 9601 77bd
00000160: 8ca1 ffbd 546c e4bc 9d5a 58be dcc7 d1bd
00000170: 4539 e0bd 74d2 32be 9d8b b1bd 4a69 a73d
00000180: f95a 1abd 0ade 533d ff8d b73d 2335 e33d
00000190: 2399 223d cc31 8f3d c20d e2bd 57ec c5bc
000001a0: 1804 ba3d 7480 253d a944 38be 3e5b 843d
000001b0: 2ccb be3d 2f84 0c3d d558 02be 0517 e7bc
000001c0: bf9a 0ebe 1354 e7bd 11e0 e2bd 797f f83d
000001d0: 6005 74be a670 20be dd57 a1bc 7019 1f3d
000001e0: 573b 3fbd 0c29 27be 47fc 02be fb8c 203d
000001f0: e2a3 2dbe 4358 65be 8d19 19be 8131 a0bd

bias f4 [2]
0.86081064 -0.76310563
00000000: 165e 5c3f e45a 43bf
