AutoBalance/results/tvarit_wheel/New_Experiments/test_big_data/dyly_LA_init/1/retrain/epoch_30.pth (torch, 236367 bytes, 8 tensors)

weight f4 [256, 64]
000000 fe e0 b7 bd ed df 9f 3d b2 a8 0b bd fb 18 b4 bd
       -0.08978461 0.07806382 -0.034096427 -0.08793827
000010 ea e6 b2 bd 4a 40 4e 3d 73 32 ed bd d0 1b 23 3d
       -0.087354496 0.05035428 -0.11581888 0.039821446
000020 08 41 83 bc b7 cb d4 3d 35 ea e3 3d 8c 7e a2 3b
       -0.01602222 0.10390418 0.11128656 0.004958933
000030 ca ec 94 bd 7a e7 a3 3d 5a 4e ff 3c 80 11 24 bc
       -0.072717264 0.08003135 0.03116529 -0.010013938
000040 35 8a fb 3d 80 0b a1 bb e8 b1 23 bd 6f 54 91 3c
       0.1228222 -0.004914701 -0.039964586 0.017740456
000050 ae 2d cf 3d 04 be d0 bd ae a9 ae bd 2b a5 a8 bc
       0.101161346 -0.101924926 -0.085284576 -0.02058657
000060 a6 11 c9 bd b2 13 dc 3d 07 74 be 3d d6 bd e1 3d
       -0.09817819 0.10745944 0.09299474 0.110225365
000070 ec f1 94 3d 46 45 ad 3d 74 8e e7 bd ce 17 cb 3d
       0.072727054 0.084604785 -0.11306468 0.0991665
000080 37 f3 b5 bd 96 4c f0 bc 90 23 4b bd 80 36 65 bd
       -0.0888428 -0.029333394 -0.049594462 -0.05596018
000090 fe 1f 87 3d 57 d9 6c 3d 50 7b 91 bd ad 67 d6 bd
       0.06597899 0.05782446 -0.07103598 -0.10468993
0000a0 c6 e3 00 3d 7a 67 a8 3d 50 73 04 3d b0 36 d9 bc
       0.03146722 0.082228616 0.032336533 -0.026515335
0000b0 02 b2 45 bd 76 44 90 3a a8 4b 4f 3d a4 07 34 3d
       -0.048265465 0.0011006731 0.05060926 0.0439526
0000c0 38 11 dd bd ea 5c 70 bd 53 48 cb 3c d7 dd f7 3b
       -0.107943 -0.05868236 0.02481476 0.007564287
0000d0 f7 d8 ee bd 9a 3a 87 3d 04 20 16 3b 41 9a 64 bd
       -0.116624765 0.06602974 0.0022907266 -0.05581117
0000e0 d4 4f d4 bd dc 0f 09 bd b7 69 d1 3c 41 88 63 bd
       -0.103667885 -0.03346239 0.025563104 -0.055549864
0000f0 32 7d c4 bd 36 e8 d9 bd f2 3b 2c bd 18 4b aa bc
       -0.095941916 -0.10639994 -0.042049356 -0.02078776
000100 e7 fb 0e bd 4f 13 8e 3c 34 4e ba bd 0d 1c bc 3d
       -0.0349082 0.017343191 -0.09096947 0.09185038
000110 fa 2e a8 3d f5 15 e2 bd e2 7a 98 3d 11 09 a3 3d
       0.08212085 -0.11039344 0.07445313 0.07960714
000120 b4 34 54 bd 48 82 31 3d 84 e0 01 bb 93 70 f9 bc
       -0.051808074 0.043337137 -0.001981766 -0.030449187
000130 a9 aa a9 bd f8 9d ad bd a0 1e 24 bb cb 2d 1b bc
       -0.08284504 -0.08477396 -0.0025042668 -0.009471367
000140 68 b6 78 bd 44 8a 65 bd 32 e5 d7 bd bc 07 d3 3c
       -0.06072083 -0.056040064 -0.105417624 0.025760524
000150 dc 37 1e bd cf fe a0 bd 20 d7 a2 bd 9a 53 ef bd
       -0.03862749 -0.07861101 -0.07951188 -0.116858676
000160 f8 1a 0b bd 2c 9d 5d bd 49 7e b0 bc 9a cf 55 bd
       -0.033961266 -0.05410497 -0.021544592 -0.052199937
000170 40 5a 0d bd 6a ce 19 3d 8b e7 87 bc 50 06 de 3d
       -0.034509897 0.037550367 -0.0165899 0.10841048
000180 53 72 94 3d 79 08 fe 3d 26 02 c0 3d ca 20 97 3d
       0.07248368 0.1240396 0.0937541 0.07379301
000190 9e 9c c4 bd 1e b7 a8 3d 98 55 cb bc 16 de 20 bd
       -0.09600185 0.08238052 -0.024821088 -0.039274298
0001a0 d9 4b 65 bd 96 2e b2 3d e3 19 e7 bd 10 3a dd bd
       -0.055980537 0.08700292 -0.112842344 -0.1080209
0001b0 c9 28 d4 3d 01 d1 c6 bc ba 82 a3 3d 4d af 6d 3d
       0.10359342 -0.024269583 0.079839185 0.058028508
0001c0 28 c4 df bd 5d 1c 81 3d 88 d1 86 bd ec 0f a8 3d
       -0.10926086 0.06304238 -0.06582934 0.08206162
0001d0 d5 51 cc 3d 2f 3f c0 bc 86 ac a7 3d a0 3b 16 3d
       0.09976546 -0.023467628 0.08187203 0.036677957
0001e0 c8 06 ae 3c f0 38 4f bd c2 c5 26 bc b8 ac 7c bb
       0.021243468 -0.05059141 -0.010178985 -0.0038555097
0001f0 da 1f 01 bc 3a 0e c5 bb 03 18 99 bd f4 01 14 bd
       -0.007881129 -0.006013659 -0.07475283 -0.036134675
000200 ae b9 fa 3d a0 76 69 3d f2 54 e8 3b 18 79 cd 3c
       0.12242447 0.056997895 0.0070902044 0.025082156
000210 96 71 88 3d 76 e9 99 bd 5e 87 e8 bd 2c 86 af bd
       0.0666229 -0.07515232 -0.11353944 -0.08570513
000220 d0 d7 3a 3c 78 1a ca bd f5 a7 f5 3d 98 52 a1 3d
       0.011403993 -0.0986833 0.11994926 0.07877082
000230 5c 41 0f bd e6 ec e5 3d 50 0c 5d 3d f0 38 4a 3d
       -0.03497444 0.112268254 0.05396682 0.049370706
000240 db 40 b3 bd 70 26 e2 3d 70 f5 9d 3d 96 08 9e bd
       -0.087526046 0.110424876 0.07712829 -0.077164814
000250 70 e1 59 3c bc f7 b3 bd 11 1a 37 3d 5e b7 bf bd
       0.013298377 -0.08787486 0.044702593 -0.093611464
000260 40 39 64 bd cc da 10 3d 68 f7 f5 bd 4d 3e a9 bd
       -0.05571866 0.03536491 -0.120100796 -0.08263836
000270 78 aa 4b bd 72 d2 fa 3d b0 af 8c 3d 9b f4 a7 bb
       -0.04972312 0.122471705 0.06869447 -0.005125595
000280 c8 94 86 bc ed 57 bf 3d 64 d3 2c bd 48 b5 a1 bd
       -0.016428366 0.093429424 -0.042193785 -0.07895905
000290 70 59 fb bc 32 ef 6a bd 00 4e 13 3d 97 c3 06 3d
       -0.030682296 -0.05735702 0.03596306 0.032901373
0002a0 47 ad 23 3d 95 5a d8 bd f4 a7 29 3d 5c 05 5c bd
       0.039960172 -0.10564152 0.04141994 -0.05371605
0002b0 14 39 6b bd 0a 75 39 3a 44 69 e6 3d e6 a1 f3 3b
       -0.05742748 0.000707463 0.112505466 0.0074350713
0002c0 4f 3f 65 3c 72 7e f4 3c f8 21 99 bc 87 01 dd 3d
       0.013992145 0.02984545 -0.018692955 0.10791307
0002d0 47 52 3a bd f0 54 a4 bc 90 66 d9 3d 74 b9 cb 3d
       -0.045488622 -0.020060033 0.10615265 0.09947482
0002e0 90 26 86 bd 00 cb 26 bd de ce 36 3c 24 52 84 3c
       -0.06550324 -0.04072094 0.011157719 0.016152449
0002f0 5e 23 39 3d 36 45 8c 3d 10 7f fb bd 28 2d 9b 3d
       0.045199744 0.068491384 -0.122800946 0.07576972
000300 66 50 ff bd 9f ac bc 3d 1b 7a ee bd 58 5d b5 bd
       -0.12466507 0.09212612 -0.116443835 -0.088556945
000310 68 a0 c3 bb 8b 5b b0 bd d7 11 87 3d 8a 2a 53 3d
       -0.0059700496 -0.086112104 0.065951996 0.05155424
000320 60 cc 7c 3d 50 7c d4 3d 38 51 9b 3d 10 cb ba bb
       0.061718345 0.10375273 0.075838506 -0.0057004765
000330 c0 fa 28 bd e1 92 68 3d fa 22 e8 3d a4 ad c3 3d
       -0.04125476 0.0567807 0.11334796 0.09554604
000340 18 60 af ba 50 ea e7 bd 8a 16 c9 3d cb 4c 7e 3d
       -0.0013380079 -0.113239884 0.09818752 0.062084954
000350 58 fa 6e bd 3f 68 93 bd 9a 29 10 3d ff 0c c1 bc
       -0.058344215 -0.07197618 0.035195924 -0.023565767
000360 70 82 04 bc e2 2f df 3d 95 d2 ef bc b6 63 ce bd
       -0.008087739 0.10897805 -0.029275218 -0.10077612
000370 84 35 06 bd 33 b0 f8 3d ba 1e b8 bd c6 b6 a9 bd
       -0.03276588 0.12142982 -0.089902356 -0.082868144
000380 79 40 7b bd d7 c5 a1 bd d0 cf f2 bb c1 60 fb bd
       -0.061340783 -0.07899063 -0.007410027 -0.12274314
000390 1e 9f 83 bd 62 88 a4 3c 3c 25 1d 3d 0c 83 44 bc
       -0.064268336 0.020084564 0.038365588 -0.011994135
0003a0 76 75 f7 3d a7 46 38 3d 48 cf a8 bd 88 80 ec 3d
       0.12082951 0.044989254 -0.08242661 0.11547953
0003b0 74 6d ca bd 4e c8 e0 ba f4 e9 d5 bd 05 7c f7 bd
       -0.09884158 -0.0017149539 -0.10445014 -0.12084202
0003c0 08 4f b1 3d e4 32 b2 bd de 5e 4a 3d 56 46 34 3d
       0.08657652 -0.08701113 0.04940688 0.04401239
0003d0 fa 3d d7 bd 83 6d 2f 3d b9 de 7f 3d b8 19 c6 3c
       -0.10509868 0.042829048 0.062468264 0.024182186
0003e0 50 94 4a 3c 06 99 d5 bd c0 f8 14 bd 53 bd d9 3d
       0.012364462 -0.104295775 -0.03637004 0.10631814
0003f0 6e 3e e4 bc af 23 33 bd 74 13 6f bd 02 8b ee bd
       -0.0278618 -0.043735202 -0.05836816 -0.116476074

bias f4 [256]
000000 23 65 cb bd 4a f7 3c 3d 10 81 ea ba 9d 7b 4d 3d
       -0.099314 0.04613427 -0.0017891247 0.050166715
000010 bb 32 91 bd be a2 ec 3d 00 ee ec 3d 0a 45 7d bd
       -0.07089754 0.11554478 0.115688324 -0.06183342
000020 08 ef 5b bd 40 76 bc ba e7 5f 34 3d 7e 2a 92 bd
       -0.053694755 -0.0014378503 0.044036772 -0.07137011
000030 05 65 0c 3d 1a de 43 bd db 99 1e 3d f5 45 f1 3c
       0.034276027 -0.047819234 0.038720947 0.029452303
000040 d0 4f a7 3d 21 91 ae 3d 86 f4 ec bd 10 8f 8c bd
       0.0816952 0.08523775 -0.11570077 -0.068632245
000050 bb 30 83 3c 22 22 84 bd 16 c4 97 bd 08 4f 8a 3c
       0.016014447 -0.06451823 -0.07410447 0.016883388
000060 8d 98 97 3d e3 75 09 3e cd 1b 0b 3d 8e 52 bf bd
       0.074021436 0.13423876 0.03396206 -0.09341918
000070 fe 6a a8 bc cd 55 f2 3b 4c 9c f4 bd cf 25 64 3d
       -0.02055883 0.007395482 -0.11943874 0.05570012
000080 b9 3f f1 3d 68 e3 1f bd d7 cd f9 bc 70 1c 9b 3b
       0.11779732 -0.03903523 -0.03049366 0.0047336146
000090 47 87 f7 3d 24 94 7d bd d5 fa 51 3d 99 aa ff 3d
       0.12086349 -0.061908856 0.051264603 0.12483711
0000a0 fc 6a 13 3c 2a 04 fc bd 08 18 63 3d 91 41 20 3d
       0.008997675 -0.12305482 0.05544284 0.03912503
0000b0 f5 01 92 3d 23 d6 c6 3c 61 70 53 bd 29 e4 a1 3c
       0.071292795 0.02427203 -0.051620845 0.019762116
0000c0 dd ee 92 bd d3 c5 e8 3b c3 2c 09 bd 4e ce 8b 3d
       -0.07174466 0.0071036606 -0.033489954 0.06826459
0000d0 b6 b3 52 3c 61 da 09 bd f4 0b 33 bd f2 06 96 bd
       0.012860229 -0.033655528 -0.04371257 -0.073255435
0000e0 e6 d2 d5 bd 33 ce bd 3d 33 7c 8f bd 40 41 2a 3d
       -0.10440616 0.09267845 -0.07006111 0.041566133
0000f0 1a 78 22 3d f8 cf 58 bd 7a fd 13 3d 06 6c e1 3c
       0.03966532 -0.05293271 0.036130406 0.02751733
000100 60 48 8f bc 44 e2 bb 3d 10 e3 0f 3d 15 51 eb bd
       -0.017490566 0.09174016 0.035128653 -0.114900745
000110 a2 4f 4d bc c2 93 f3 bd 54 68 f5 bd 05 1b 47 3c
       -0.012531193 -0.11893417 -0.1198279 0.012152438
000120 27 9e a2 bc fc dd 88 bd 3e 41 df bd bf e6 91 bc
       -0.019850804 -0.06682965 -0.10901116 -0.017810224
000130 c7 3f 99 bd 88 2b d7 3d 92 6e f7 bc 4d a2 97 3c
       -0.07482868 0.1050635 -0.030204091 0.018510008
000140 8f 3f d1 3d 42 dd af bd 75 d2 19 bc ae df 88 bd
       0.10217201 -0.085871235 -0.009388556 -0.066832885
000150 50 25 05 bd c8 f0 fc bd 81 a6 ef 3c 83 ef a4 3d
       -0.032506287 -0.12350613 0.0292542 0.08053496
000160 dd f8 70 bd f2 34 d1 3b f7 c8 9e 3d 3c dc ae bd
       -0.058831085 0.0063844854 0.07753175 -0.085381
000170 bb c0 84 3d 70 59 39 3d 2a bd dc bd 78 3f e3 bd
       0.06482073 0.04525131 -0.10778268 -0.1109609
000180 50 fe ec 3d f5 6d d6 3d a9 f5 91 bd c8 4d 21 bd
       0.11571944 0.104701914 -0.07126934 -0.03938082
000190 b6 ce e3 3d 21 38 a9 3d 26 89 29 bb 5c ce e2 bd
       0.11123411 0.08262659 -0.00258691 -0.11074516
0001a0 ea 8f cb bd 72 b6 09 3c 6a 0e 16 3e fe 70 ff bd
       -0.09939559 0.008405315 0.14653936 -0.124727234
0001b0 50 71 da 3d 2c 23 a4 3d 7b 9c 8f 3a 6c b1 68 3d
       0.10666144 0.08014521 0.0010956669 0.056809828
0001c0 eb 20 81 3d 1c 94 bf bd f5 7d bd 3d 55 ff 04 3e
       0.06305107 -0.093544215 0.0925254 0.12988026
0001d0 fc 00 64 bd a2 8f 21 3c 3c bf fb bd aa ba c2 bc
       -0.055665 0.009860905 -0.122923344 -0.023770649
0001e0 c6 be a8 bd c8 7f e0 bd 42 0f f6 bc a8 c8 bd 3c
       -0.08239512 -0.10961872 -0.030036572 0.02316697
0001f0 16 79 5b bd 70 86 c1 bd 5f 89 8b bc d6 24 cc bd
       -0.053582273 -0.0944947 -0.017033277 -0.099679634
000200 e4 91 91 3b 62 ce 8e bd 14 01 61 3d c6 ac c6 bd
       0.0044424403 -0.06972958 0.05493267 -0.09700923
000210 09 5d b8 3d 7a 7f 04 3e d1 21 c3 3d 7e 3d c2 bd
       0.0900212 0.12939253 0.09527934 -0.09484385
000220 16 21 ce bd 01 47 b9 bd 78 0b 4f bd db 76 de bd
       -0.100649044 -0.09046746 -0.050548047 -0.10862514
000230 ed 79 72 3d 91 4c b4 3d e4 71 96 bd 91 40 54 3c
       0.05919831 0.088036664 -0.07345942 0.012954847
000240 f0 c5 cc bd 30 23 0d 3d b3 7e 89 bd a6 54 c5 bd
       -0.09998691 0.034457386 -0.06713619 -0.09635286
000250 d9 18 a8 3d 07 ea f6 3d 59 45 53 3c d2 fb b8 bd
       0.08207864 0.12056356 0.012894952 -0.09032406
000260 f8 cd 2c bd d5 24 67 bd b0 63 1b bd b0 68 93 bd
       -0.042188615 -0.05643161 -0.037936866 -0.07197702
000270 7a df ab bd 59 02 c3 bd 47 ce 5a 3c d1 52 a9 3c
       -0.08392234 -0.09521932 0.013354844 0.020669373
000280 b0 b2 d9 bc ea 49 27 bd 29 51 b1 3d 6d 5f 26 3e
       -0.026574463 -0.040841974 0.08658058 0.1624734
000290 79 bc 19 bd dd 9b 06 3e 18 fe b6 bd 29 54 46 bd
       -0.037533257 0.13145395 -0.08935183 -0.048420105
0002a0 e2 a6 ef 3d c6 fe 96 3d 4e cd c1 3d 00 1a 42 3d
       0.11701752 0.07372813 0.09462987 0.047388077
0002b0 19 ea b6 3d fb 21 b2 3d 90 d7 ef bd 45 11 0f bd
       0.08931369 0.086978875 -0.11711037 -0.03492858
0002c0 b8 78 3d bc 4d 26 a8 3d 2c 23 bf bc 8f db 09 3e
       -0.011564426 0.0821043 -0.023332201 0.13462661
0002d0 e2 d8 9b bd 1a 84 b6 bc d1 fe a4 bd be aa f0 bd
       -0.076097265 -0.022279788 -0.08056415 -0.117513165
0002e0 16 1c 1b ba 4d 5c 90 bc 64 ad b8 3d 8a 7d ad bc
       -0.0005916966 -0.017622137 0.09017447 -0.021178026
0002f0 1c b1 6e 3d 45 08 bd 3d de 98 d1 3d 29 e0 52 bd
       0.058274373 0.09230093 0.10234235 -0.051483307
000300 b4 6d f4 3d 39 89 90 bc 51 f8 9c 3a 4a a3 d2 bd
       0.11934987 -0.017643558 0.001197586 -0.10285051
000310 8a d4 97 3c c6 46 09 bd 72 cc ae 3b e1 f5 cb bc
       0.018533964 -0.03351476 0.0053344304 -0.024897518
000320 a5 f4 d0 bb b9 bd a0 bb 07 b8 91 3c ef ef 57 bd
       -0.00637682 -0.004905429 0.017787946 -0.052719053
000330 9a 7c 51 3d 5c 69 8a 3c d0 8b 02 bd ea 9a d2 3c
       0.05114422 0.016895942 -0.031871617 0.025708634
000340 50 00 1e bd f2 d5 cc 3d 4c 61 9c bd f6 61 2f 3c
       -0.038574517 0.10001744 -0.076357454 0.010704508
000350 b0 10 c7 bc 60 d5 28 bd 6b 4c b1 3d e1 1b a0 bd
       -0.02429995 -0.041219115 0.08657154 -0.078178175
000360 0f 80 c5 3c 38 8e 16 b9 4e ed d1 3b 81 61 e8 bd
       0.024108915 -0.00014358095 0.0064064628 -0.113467224
000370 85 fe f6 3d d9 06 29 bd 68 d9 59 bd 2b 61 90 3d
       0.120602645 -0.041266296 -0.05318585 0.07049783
000380 a3 86 9d 3d 0c b3 2e bb 5f 1f d2 bd 96 e3 fe bc
       0.076916955 -0.0026657013 -0.1025989 -0.03111438
000390 07 94 ad 3d 87 22 64 3d f3 1d f9 3d 3d 18 4b bc
       0.084754996 0.05569699 0.121639155 -0.012395916
0003a0 18 fb 3c bc f6 02 67 3c 96 88 00 be d3 30 93 bd
       -0.011534475 0.014099827 -0.12552103 -0.07187047
0003b0 41 53 5b 3d 84 95 07 3c 4e 63 0b 3d f2 4c 8f 3d
       0.053546194 0.008275393 0.03403025 0.06997098
0003c0 53 e3 37 bd a4 f1 3d bd fc 54 d6 bd b5 43 27 3c
       -0.044894528 -0.046373025 -0.10465428 0.010209014
0003d0 58 e4 d4 bc 52 6a f5 bd 93 ab db bd 4f bb 30 bd
       -0.025987789 -0.119831696 -0.107260846 -0.04314738
0003e0 ca 75 c5 bd a3 d0 fd 3d ac 7f a1 3d 16 96 e5 bd
       -0.09641607 0.1239331 0.078856796 -0.11210267
0003f0 69 d2 b1 bc 8e cc fd bd 30 05 bc 3d 6f 99 29 bd
       -0.021706777 -0.12392531 0.09180677 -0.04140609

weight f4 [128, 256]
000000 dc 5a ce bc 74 0c 98 bc db 34 64 3d f5 5d 1e bd
       -0.02518981 -0.018560626 0.05571447 -0.038663823
000010 f7 b3 2f 3d 41 25 e3 bb 77 db b5 3c ae 3f 4b bd
       0.042896237 -0.0069319312 0.022199376 -0.049621277
000020 da bb 1d 3d 74 6d 64 3d 6e bb 11 bd 5f d5 4a 3d
       0.038509227 0.055768445 -0.035579138 0.049519893
000030 f3 18 9f bc 62 77 31 bd e8 b0 1a 3d 75 18 80 3d
       -0.019421076 -0.043326743 0.037766367 0.06254665
000040 83 7c 49 3c cb bc 6e 3c 4e a2 43 3d 2d cc 43 bc
       0.012297752 0.014571379 0.047762208 -0.011950535
000050 f8 44 54 bc f0 3c 20 3d 4b 9c 47 bd 3a 18 77 3d
       -0.012955897 0.039120615 -0.048733037 0.06032584
000060 68 80 91 bc 12 ca 5b 3c 45 05 09 3d 0d 42 03 3b
       -0.017761424 0.013414877 0.03345229 0.0020028383
000070 8c a1 7e 3d 4e 46 33 3d ea e1 16 bd 1c c8 2c bc
       0.06216578 0.04376822 -0.036836542 -0.010545757
000080 fb 01 f1 bc 2a 94 27 bc f6 38 1d 3d 68 f8 4a 3d
       -0.02941989 -0.010228196 0.0383844 0.049553305
000090 ba b8 e2 bc b0 2e 02 bc 49 41 6a bc 98 8f e8 bc
       -0.027675975 -0.0079457015 -0.014297792 -0.028388783
0000a0 13 e2 4a bd f4 54 58 3d 87 67 70 3b bf a3 4c 3d
       -0.049532007 0.052815393 0.00366828 0.049960848
0000b0 4b b0 35 3c 21 8e ea bc 6a 46 9e bc 4f 9a ac 3c
       0.011089395 -0.028632225 -0.019320685 0.021069674
0000c0 35 6b f5 3c f6 3f 21 3d fb d0 6a bd 63 e0 9b bc
       0.029958347 0.03936764 -0.057328206 -0.019027894
0000d0 84 48 27 3d 71 9b 9e bb ef 5b f9 3b ac aa d3 bc
       0.04084064 -0.0048403074 0.0076098363 -0.025838219
0000e0 33 25 41 bc 7a 87 f4 3c 9e 85 33 bd 03 01 30 3d
       -0.011788654 0.029849757 -0.0438286 0.042969715
0000f0 a2 99 9f bb 92 0d 5d 3d c2 bb 4c 3d fa 1d 55 bd
       -0.0048706094 0.05396802 0.049983747 -0.05203054
000100 60 a4 88 3c 99 cc 0d ba b2 01 e4 3c 75 fd a9 bc
       0.016679943 -0.00054092106 0.02783284 -0.02075074
000110 d4 ed 62 3a ac 99 93 3c cc a0 6b 3d 7a 8a 2a bd
       0.0008656655 0.018017612 0.057526395 -0.041635968
000120 6c 06 fa bc a6 2a 64 bd 31 52 29 3b ea c8 4f bd
       -0.03052064 -0.055704735 0.0025836343 -0.050728716
000130 77 49 a1 bc 54 c5 79 3d 95 b4 5c 3d 97 a5 fc bb
       -0.019688351 0.060979202 0.053883154 -0.0077101695
000140 a4 9d 19 bd 95 1f 43 3d 8d c2 5a 3d 7c e3 30 bd
       -0.037503853 0.04763754 0.053408194 -0.043185696
000150 97 aa 25 3a 2d 04 41 bd 1e ae b8 bb a7 e7 99 bb
       0.00063196704 -0.047123123 -0.0056359908 -0.0046968046
000160 1c bb 76 3d 08 30 93 3c 05 0e 33 bd b8 90 2f 3d
       0.060237035 0.017967239 -0.043714542 0.042862624
000170 2f 55 a8 3c ec 4b 3e 3d f0 21 51 3c 1e 66 6e 3d
       0.020548431 0.046459123 0.012764439 0.058202855
000180 7b e8 cf bc bc b3 df 3c cf 2c 7d 3d 28 0d 33 bd
       -0.02537941 0.027307384 0.06181031 -0.04371372
000190 2f ff 59 3d 77 74 dc bc a1 e3 80 bc 70 9e ec 3b
       0.053221878 -0.026911004 -0.015733542 0.0072210357
0001a0 34 c4 a1 bc 41 c4 c2 3c 60 4a 57 3d e0 80 37 bd
       -0.019746877 0.023775222 0.052561164 -0.04480064
0001b0 d1 41 75 3c a2 62 5b bd f9 e3 49 bc 6f 00 78 3d
       0.014969305 -0.05356086 -0.012322419 0.06054729
0001c0 d7 21 8a 3a 75 be af 3a f0 88 b6 bb 8a 92 40 bd
       0.001053865 0.0013408201 -0.0055705234 -0.04701475
0001d0 77 69 e5 3c f3 0e d5 bc e0 80 70 bd 54 b7 18 bc
       0.028004391 -0.026008105 -0.058716655 -0.009321053
0001e0 f8 1e 46 bc c5 39 dd 3c 09 00 c2 bc 26 43 9b bc
       -0.012092344 0.027005086 -0.023681657 -0.018952917
0001f0 a8 e7 90 3c 42 c7 78 3d cc b6 6c bd 58 90 2e 3d
       0.017688587 0.060736902 -0.057791516 0.042618126
000200 11 6d be bc be 46 29 3d 46 18 99 bc a0 a6 79 3c
       -0.023245366 0.04132723 -0.018688332 0.01523748
000210 66 2c 6b 3d 95 02 53 3c 12 72 02 bd 68 5c 2b bd
       0.05741539 0.012879034 -0.031847067 -0.041836172
000220 7a 2b 84 bc a1 bf c9 3a d0 28 01 3c 8c a3 f8 bb
       -0.016134012 0.0015392193 0.007883266 -0.0075878557
000230 4b 80 25 3d 90 e2 63 bb 9f e7 02 bc 31 1c c5 bc
       0.040405553 -0.0034772493 -0.007989793 -0.024061294
000240 20 7c 58 bd 11 2b 9c bc 08 13 26 3d f7 1c 16 3d
       -0.05285275 -0.019063504 0.040545493 0.036648717
000250 0a 7a 14 bc 40 77 29 ba 0a 72 1a 3d 8a 7c 6e bd
       -0.0090622995 -0.0006464608 0.037706412 -0.05822424
000260 b8 ec 57 3d 71 ee ae bc ab 1c 13 3d 9c 8f bf bc
       0.052715987 -0.021353932 0.03591601 -0.023383908
000270 73 39 b4 3c e6 5b 2b 3d cc 28 45 3d 94 dc 71 3b
       0.02200005 0.041835688 0.04813461 0.0036905156
000280 5c ab 90 3c 0d 63 d3 bc af de 38 3d 0b 21 b5 3c
       0.017659836 -0.025804067 0.045134243 0.022110483
000290 1d cc 1b bd fa bf e9 bb d7 14 0f 3d 28 85 db 3c
       -0.038036454 -0.007133481 0.034931984 0.026796892
0002a0 c8 82 c9 3c 25 43 84 3c 86 ac 6a 3d 85 b3 4b 3d
       0.024598494 0.016145298 0.057293437 0.04973175
0002b0 88 f4 3a bd eb 83 99 3b 18 84 23 3c 8e 47 17 bd
       -0.04564336 0.0046849153 0.009980224 -0.036933474
0002c0 d1 22 bf 3c 44 c6 32 3d 62 0e 51 bd 73 72 01 bc
       0.023332031 0.043646112 -0.051039107 -0.007900822
0002d0 e0 93 0c bd 71 1c 1e bd 6c f2 03 3d 58 c4 61 bc
       -0.034320712 -0.038601343 0.032213613 -0.013779722
0002e0 8c 05 91 3b c2 dc 66 bd e8 da 77 3d 4f 32 69 bd
       0.00442571 -0.056362875 0.0605115 -0.056932744
0002f0 d3 ad 84 bc 50 e6 0f 3c c1 07 0f 3d 07 f0 ee 3c
       -0.016196167 0.008782938 0.034919504 0.029167188
000300 d3 a1 d7 bc 64 b1 86 3c 4e 14 85 3c 7e 29 4a bd
       -0.026322281 0.016442008 0.016245034 -0.049355976
000310 f6 6f 3b bd ce 19 cc 3c 14 81 80 3d c9 55 17 bb
       -0.04576107 0.024914648 0.0627462 -0.0023091903
000320 40 6d 36 bd de ef 50 bc a3 cd 45 3b 98 fb 24 bd
       -0.044537783 -0.012752501 0.0030182383 -0.040279
000330 14 8e 20 bd 74 dd 06 3d b5 3a 7e 3d a6 d3 39 bb
       -0.039197996 0.032926038 0.062067706 -0.0028354912
000340 83 a1 1f bd 5e d9 48 bc 5d 15 53 3d 1d 05 f6 bb
       -0.03897239 -0.012258856 0.051534045 -0.007507934
000350 00 a9 3c bb 2b 47 7c bd ab 69 19 bd 3c 76 4c 3d
       -0.0028787255 -0.06159131 -0.03745429 0.049917445
000360 23 54 88 3c 76 3e 6e 3d 9d 16 2d 3d d8 4d 3b bd
       0.016641682 0.058165036 0.042257894 -0.045728534
000370 37 3f 16 3d f2 ce 6a 3c d6 f2 13 bd 68 50 7d 3d
       0.03668138 0.014331566 -0.03612026 0.06184426
000380 9d bb 67 bd 7e 0d 6f 3d 0a 4a 7f bd 3c 12 03 3d
       -0.056575406 0.058362477 -0.06232647 0.03199981
000390 68 1a 75 bd c2 df ac bb 75 af c9 3b 7c e1 b6 bb
       -0.059839636 -0.0052756974 0.0061549493 -0.005581079
0003a0 8c 64 4a 3d 94 a6 d6 3c 00 a5 e7 3c 52 98 3e 3d
       0.049412295 0.026202478 0.02827692 0.046531983
0003b0 5f bb d5 bc f3 83 8f 3c b5 05 12 3c d9 30 89 bc
       -0.026090322 0.017518973 0.0089124935 -0.016746925
0003c0 f3 70 22 3d 37 82 25 bd 0f c9 55 3d ba 9e 07 3d
       0.039658498 -0.040407386 0.052193698 0.033110358
0003d0 9c 02 68 3d d8 fe 08 3d f7 57 6f bd 58 0d b7 3c
       0.056643113 0.033446163 -0.0584335 0.02234523
0003e0 27 28 01 3c bf 13 15 3d f3 c0 82 3c 3e ba 4e bd
       0.007883108 0.036395784 0.015961146 -0.050470583
0003f0 60 99 6b 3d e1 03 2c bd 0e 7f 21 3b cf 71 70 3d
       0.057519317 -0.041995887 0.002464238 0.058702286

bias f4 [128]
000000 18 15 90 3d 84 67 0a bd f0 ee e2 bb 7c 0d 82 bd
       0.07035273 -0.033790126 -0.006925456 -0.06350228
000010 bb 9d 09 bc 81 fe 8f bc 6f e7 a2 bc d8 06 a7 3c
       -0.008399422 -0.017577412 -0.019885747 0.020389006
000020 f6 fb ad 3d bc 33 db bb a3 51 f9 3c 0b 6b 29 3b
       0.08495323 -0.006689517 0.030434435 0.0025851156
000030 83 38 b1 3c 77 b4 f6 3c 76 c7 12 bd 2e 5b 3d 3d
       0.021633392 0.03011535 -0.035834752 0.046229534
000040 e7 26 cb 3c ad f9 70 bd 09 9f 94 3d 96 9c 99 3c
       0.024798824 -0.05883186 0.07256896 0.018751424
000050 3d ec 2e 3d d4 e6 93 bc e7 77 16 3d 08 bd b4 3d
       0.042705763 -0.018054403 0.03673544 0.08825117
000060 24 33 5e 3a ac 21 4d bd 78 c4 02 3d 72 77 a5 bc
       0.00084762485 -0.05008094 0.03192565 -0.020198558
000070 fd 07 28 3d 1b 14 a9 39 b0 b7 03 bd 96 c4 a5 bc
       0.041023243 0.00032249172 -0.0321576 -0.020235341
000080 66 e9 d4 3c f2 59 64 3c c8 66 e3 bc 52 d7 d1 3d
       0.0259902 0.01393746 -0.02775897 0.10246147
000090 5f 7b 70 3d 34 8d f5 bb 39 a7 6d bd 88 29 89 3c
       0.058711406 -0.0074936394 -0.058020804 0.016743436
0000a0 e8 03 2d bb ff 6f 03 bd d5 e8 ab bc 0e dd 20 bd
       -0.0026400033 -0.03208923 -0.020985046 -0.039273314
0000b0 53 1a 73 3d ae c4 cc bb 29 84 a2 bc 54 d8 1c bd
       0.059351277 -0.006249032 -0.01983841 -0.038292244
0000c0 de fb 81 bc d4 01 f6 3c eb 01 8d 3d 12 14 a0 3c
       -0.01586717 0.030030169 0.068851314 0.01954082
0000d0 ed b1 51 bc 30 e2 52 3d a1 33 1c 3c d3 6d 67 3d
       -0.0127987685 0.05148524 0.009533794 0.05650122
0000e0 08 6d e7 3d cc c0 a6 3c 50 bd d3 3b f3 08 50 3d
       0.11300093 0.020355605 0.006461777 0.050789785
0000f0 01 a4 37 bd 52 13 21 3b 7c ce 31 bd a9 67 1a bd
       -0.04483414 0.0024578166 -0.04340981 -0.037696514
000100 4e af c5 3b 2b 60 a4 3d 3f e7 b2 3d 48 a1 5f 3d
       0.006032861 0.08026155 0.08735513 0.05459717
000110 7d 1c 87 3d ca 9c 13 bd 1a 0d a1 3c e8 89 52 3d
       0.065972306 -0.036038198 0.019659568 0.05140105
000120 52 54 69 bd 20 30 0f 3d c7 7a 50 bd 85 26 b8 bb
       -0.05696518 0.034958005 -0.05089834 -0.0056198263
000130 b4 f2 b4 bb 5c b4 3a bd 98 54 08 3d f2 ff 1d bc
       -0.0055220965 -0.04558216 0.0332838 -0.009643542
000140 fd 8e ec bc 69 09 c5 3d eb ab 35 bd 79 30 36 3d
       -0.028876776 0.096209355 -0.044353407 0.04447982
000150 cf 3f a5 bc 0b 16 67 bd 09 77 14 3d 97 b7 0c 3d
       -0.020172028 -0.056417506 0.036246333 0.034354772
000160 a0 0b a2 3d cb 44 22 3d 17 a5 77 bd 41 58 ea bb
       0.079123735 0.039616387 -0.060460176 -0.007151634
000170 cf 7c d5 3c 8f 06 9a 3d c5 f5 bf 3c 39 f1 37 3c
       0.02606049 0.07520782 0.023432622 0.011226946
000180 ad d6 a6 bb 70 70 ee 3c 6a 5e b7 bc 61 c5 ee 3d
       -0.0050915093 0.029106349 -0.022383887 0.11658741
000190 5f d0 21 bd 73 b2 00 3d ca 7f 52 bd 2f 88 65 bd
       -0.03950536 0.031420182 -0.0513914 -0.056038078
0001a0 b6 93 de 3c 5e 26 ac 3d 91 f1 b2 3a 83 62 35 3d
       0.027170043 0.084057555 0.0013652315 0.0442834
0001b0 8c b2 d0 3c fe 94 57 bd 58 9a ab 3d 99 61 82 3d
       0.025475763 -0.052632324 0.08379048 0.063662715
0001c0 e5 9a 1f bd bc 68 77 bc 9a 97 54 bd b5 74 91 bc
       -0.03896608 -0.015100654 -0.05190239 -0.017755846
0001d0 3f 05 92 3d e6 94 ea bc 6d c1 b2 3c 27 b0 ec 3c
       0.07129907 -0.028635453 0.021820748 0.02889259
0001e0 2d e4 37 3d 60 e1 6a bc 76 69 7a bd 6a 24 09 bd
       0.04489534 -0.01433596 -0.06113573 -0.033481993
0001f0 91 e2 85 3d f0 9d 8f 3c 94 84 0b 3c 9d 7b 2d 3d
       0.06537355 0.017531365 0.008515496 0.042354215

weight f4 [64, 128]
000000 52 de d0 3d 9f e3 dc bc 97 47 e2 bc 1f 95 a2 bd
       0.10198654 -0.026964007 -0.027622027 -0.07938599
000010 f3 77 4b bd b2 fc 79 3b 64 03 44 bd c0 ce 37 3d
       -0.04967494 0.0038145003 -0.047854796 0.044874907
000020 fd d3 9c 3d 1c 79 24 bd 5b ae 09 bd d7 df b1 3c
       0.07657621 -0.04015456 -0.033613544 0.02171318
000030 bb 25 66 3c 25 d9 67 bd 7e ee a4 3d 6c 24 ea 3c
       0.014047082 -0.05660357 0.08053301 0.02858182
000040 f1 9c f7 bc cb 0e b4 bd 09 18 54 3d c7 12 80 bd
       -0.030226203 -0.08791884 0.051780734 -0.062535815
000050 38 2e ac 3d 76 e0 93 bc 38 4e 55 3c 51 b5 4e bd
       0.08407253 -0.018051367 0.013019137 -0.050465886
000060 1d fe 29 bd 3b 0f e9 3c 7b 35 8a bd 73 72 3b bd
       -0.041502107 0.028449645 -0.06748482 -0.045763444
000070 1e f2 19 3d 1a 75 54 3d 07 61 e4 bc 55 d6 73 bd
       0.037584417 0.05186949 -0.027878297 -0.059530575
000080 ab 27 f8 3c 23 66 53 3c 95 53 12 3d 23 b8 97 3d
       0.030292353 0.012902769 0.03572424 0.07408168
000090 be 34 c5 3d 83 8b a3 3d 08 89 6b 3d 0d a3 8f bc
       0.096292004 0.07985594 0.05750373 -0.017533803
0000a0 72 62 2f 3d 77 01 44 bd 51 91 06 3d b2 d7 d3 bc
       0.042818494 -0.04785296 0.03285343 -0.025859687
0000b0 d7 17 92 bd ec f2 ab bd 3c f8 93 bd 50 cf 89 bd
       -0.07133453 -0.08395943 -0.07225081 -0.06728995
0000c0 40 9f a1 bc 82 c0 ae bd 50 34 a9 3c 6d 16 4b 3d
       -0.019729257 -0.08532812 0.020654827 0.049581934
0000d0 4e 87 18 bd d9 b1 8a 3d 6a 86 3e bd 29 fb 8d bc
       -0.03723841 0.06772203 -0.046514906 -0.017331677
0000e0 81 40 98 3d 83 b6 99 3d c2 72 96 3d 86 0a 11 3d
       0.07434178 0.075055145 0.07346107 0.035410427
0000f0 f5 56 9f 3d d7 ee 93 3c 0d 80 97 3b 80 18 f6 bc
       0.077802576 0.018058224 0.004623419 -0.03004098
000100 39 2c 03 bd c5 13 b9 3d 82 c3 9d 3d e5 3b 4b bd
       -0.032024596 0.09036974 0.07703306 -0.049617667
000110 77 56 d0 3c 0d b7 0f bd bb a7 5a 3d 17 ee c2 3d
       0.025431855 -0.03508668 0.053382616 0.09518068
000120 c9 d7 89 3c d9 51 bd 3b 1c 85 6b 3d 23 b3 42 3d
       0.016826527 0.0057775793 0.05749999 0.04753412
000130 2a 33 1f 3d f0 ec 6e bd 8b 33 0c 3d 02 f7 86 ba
       0.038867153 -0.05833143 0.034228843 -0.0010297003
000140 a4 1e 76 bd 13 0e b5 3c 14 18 4f 3d 4b bd a0 bd
       -0.060087815 0.022101438 0.050560072 -0.07848605
000150 14 26 2e bc f2 e3 87 bd f0 44 8e 3d 69 12 df 3a
       -0.010629196 -0.06635274 0.069467425 0.0017019036
000160 56 1d 27 bd d8 b3 91 39 3a 56 0a bd 6a 16 19 bd
       -0.04079946 0.0002779055 -0.03377364 -0.03737489
000170 b8 9b 10 3d 54 74 b4 3d 4f 51 b0 3c e8 2f c3 3c
       0.035304755 0.0881125 0.021523146 0.023826554
000180 36 b5 3b bd a5 0a 16 3d a0 46 8b bc 5d 8c a7 3d
       -0.045827113 0.036631245 -0.01700145 0.08181069
000190 0d f5 91 3d 62 dc bd 3d 88 0f 0f bd bc 7b 95 bd
       0.07126818 0.0927055 -0.03492692 -0.07298991
0001a0 77 b0 0e 3d e4 8a 25 3d 11 5e 03 bd 5a 79 df 3c
       0.03483626 0.04041566 -0.03207213 0.027279545
0001b0 16 28 a6 bd a9 98 36 3d 45 4e d4 3d 25 91 e9 bc
       -0.081131145 0.04457918 0.10366491 -0.028511593
0001c0 ae 30 b7 3c 54 a7 78 bd 87 10 67 3d 7d fc 1a 3d
       0.02236208 -0.06070645 0.056412246 0.037838448
0001d0 58 e7 a0 3c 85 bb 5d 3d fa 1b ac bd d9 57 ea 3c
       0.019641563 0.05413391 -0.084037736 0.028606342
0001e0 d4 6c bc 3d e6 f1 f6 bc 6c c2 97 ba 9d ce 2c bd
       0.09200445 -0.030144643 -0.0011578328 -0.04218923
0001f0 09 05 88 bc 0b e1 34 bc 88 ac 82 bd 93 8a 59 3d
       -0.016603963 -0.011039983 -0.06380564 0.05311067
000200 19 47 d0 bb a2 af 84 bd d6 95 f7 3a 9d f3 00 3d
       -0.0063561318 -0.06478812 0.0018889259 0.031482328
000210 c4 40 a5 bd 7c cf ac bc 15 a4 27 3c 39 52 0e bd
       -0.08068994 -0.02109503 0.010231991 -0.034746382
000220 d7 75 fe 3b 6e 45 a0 3d 22 e3 48 bd f5 1a 39 3d
       0.0077655124 0.07825743 -0.049044736 0.045191724
000230 51 3e 31 3d 9b 9e b6 3c 73 35 a5 3d dc ca 8b 3d
       0.04327232 0.022292426 0.08066835 0.06825802
000240 7e f2 e3 bc a0 31 67 3d cb 48 e3 3d 9f 37 ee bc
       -0.02782559 0.05644381 0.110978685 -0.029079257
000250 ae 11 0e 3d 86 7f ae bc a9 16 1a 3d 8b 26 23 bd
       0.03468483 -0.021301042 0.037619267 -0.03983168
000260 cf 8f a0 bd 57 59 55 bd 09 ad 99 bd 13 3a 32 bd
       -0.07839929 -0.052087154 -0.07503707 -0.043512415
000270 56 8e 58 3d 9b 3f 98 3d f5 32 6e bd 94 96 8e bd
       0.052870117 0.07434007 -0.058154065 -0.06962314
000280 4a 5d 6c 3d 2d 69 0c 3d d4 5a 85 bd 22 ee 83 3c
       0.057706155 0.03427999 -0.06511465 0.016104762
000290 b4 09 29 3d d0 63 01 3d 67 3b 38 bd 38 51 16 bd
       0.04126902 0.03158933 -0.044978525 -0.03669855
0002a0 b5 35 6b bd e4 97 8d 3c 37 bb 2e bd 90 6a 91 bc
       -0.057424266 0.017284341 -0.04265901 -0.017751008
0002b0 68 40 22 bd 71 41 09 bd 7e 48 a7 3c 4e c2 10 bd
       -0.039612204 -0.033509675 0.02042031 -0.035341553
0002c0 fa b1 6d bb 1b b2 6c 3d 92 69 31 3c d4 d7 3b 3d
       -0.0036269412 0.057787042 0.010828393 0.045860127
0002d0 a4 9a 27 bb 08 e1 84 3d 8e 65 9e 3d 12 ac 9d 3d
       -0.002557435 0.06488234 0.07734214 0.076988354
0002e0 93 9f b2 3d 5c d4 1f bd 5e df ef bb e0 dd b3 bb
       0.087218426 -0.03902088 -0.0073203286 -0.005489096
0002f0 02 1f 74 bd 0e 74 6b bb dc 41 ae bd ba 46 58 3d
       -0.059599884 -0.0035927328 -0.085086554 0.052801825
000300 78 2d b3 3c 19 af a0 bb 6f 74 a5 3d 12 12 5f 3d
       0.021872267 -0.004903686 0.080788486 0.054460593
000310 ef 2b 49 bd 0d 19 1d b9 49 e9 58 bd 21 25 4e 3c
       -0.049114164 -0.00014982019 -0.052956853 0.012582094
000320 9c 25 05 3d 1e 8a 8e 3d 55 e4 24 3c 53 0f 65 bd
       0.03250657 0.069599375 0.010064204 -0.055922817
000330 aa 6c 92 3d c4 a0 5b 3d e2 bf bf bc 02 85 89 bd
       0.07149632 0.053620115 -0.023406927 -0.06714822
000340 4c 54 82 bd 2f 9e 5e bd 8a 56 a1 bc 1e b1 82 bd
       -0.063637346 -0.054350074 -0.019694585 -0.06381439
000350 4d c4 78 3a 64 70 cf 3c e2 5e 3f bd 27 b0 c8 3d
       0.00094897003 0.025322147 -0.046721347 0.097992234
000360 59 53 bd 3d 83 e0 71 3c df b1 69 3d 85 de bd bc
       0.09244413 0.014763 0.057054397 -0.023177395
000370 f0 54 b0 bd 3f 7d 99 bc e6 0d 14 3a db 18 2c bd
       -0.086099505 -0.01873648 0.0005647823 -0.04201589
000380 88 f9 09 3d ea fd 33 bd 3f 4f 98 3d f3 ee 59 3d
       0.033685237 -0.043943323 0.0743699 0.053206395
000390 c5 c3 97 bd dc 24 a0 3b 08 70 d0 3c b7 99 38 bc
       -0.07410387 0.0048872065 0.025444046 -0.011267117
0003a0 89 df ad 3d 03 98 8b bd 4a 10 0c bc e6 8c a7 3c
       0.084899016 -0.06816103 -0.0085488055 0.020452928
0003b0 f7 8a 5e 3d 00 8d 49 bd 48 86 aa 3d 46 70 7c 3d
       0.054331746 -0.049206734 0.08326393 0.06163051
0003c0 ba e1 cc bc c6 41 21 bd a9 9f 17 3d 14 92 42 bd
       -0.025009979 -0.039369367 0.0370175 -0.047502592
0003d0 c7 4b 31 bd 28 15 54 bd e2 cf b4 3a 37 1b bd bc
       -0.043285158 -0.05177799 0.0013794864 -0.023084266
0003e0 64 c7 fc bc 72 c7 b7 bc c4 68 52 bc ec fa 36 3d
       -0.030856796 -0.02243397 -0.012842361 0.04467289
0003f0 7b 17 ae 3a 15 06 ed bc 05 7b 89 3d a8 2d 57 bd
       0.0013282144 -0.028933564 0.06712917 -0.052533776

bias f4 [64]
000000 b3 b1 04 3e a0 73 3f 3e 2e a3 20 bd df 29 d4 3d
       0.12958412 0.18696451 -0.03921812 0.10359549
000010 3f d9 b8 3c 52 63 ae bd b9 85 b1 bb 60 58 96 bc
       0.022564529 -0.085150376 -0.0054175523 -0.018352687
000020 1c ac 1f 3c af 7a 0d bd c4 3b a8 3d c1 52 f2 bc
       0.009745624 -0.03454083 0.082145244 -0.029580476
000030 cd 0d 5d bc af 53 3a 3d 52 17 3a 3b 71 6f cc bc
       -0.01349206 0.045489963 0.0028395248 -0.024955483
000040 93 e4 ae bc 2f 06 e0 bb 2d ea cd 3d 96 06 0f 3d
       -0.021349227 -0.0068366746 0.10054431 0.03491839
000050 22 da 27 3d 74 6a 83 bd 7e a2 7d bd f4 80 40 bc
       0.040979512 -0.06416789 -0.061922543 -0.011749495
000060 e9 01 1c bd ae 8f 89 3c a3 ee e7 3d e1 dc d6 3b
       -0.03808776 0.016792145 0.11324813 0.0065570925
000070 4f 12 91 bd dc 75 7c 3c cd 7c e5 3c 92 b7 db bc
       -0.0708357 0.015408959 0.028013611 -0.026820932
000080 ac bc 2c bd a7 96 21 bd 14 f2 30 bc 59 60 b5 bc
       -0.04217212 -0.039450314 -0.010799903 -0.022140669
000090 f4 df 85 bd e5 ce 76 bd 63 0e 15 3e ae f3 69 bd
       -0.06536856 -0.060255904 0.1455627 -0.057117157
0000a0 ad 36 20 bc 4c 6c da 3b 61 94 44 3e 23 7f ae bd
       -0.009778661 0.006665742 0.19197227 -0.08520343
0000b0 8b 42 7e 3a bf 91 0c bd f7 15 36 3e ef 84 24 3c
       0.0009699247 -0.03431868 0.17781816 0.010041459
0000c0 a5 ed 60 3e 34 14 81 3d ff 24 7c bd 2f 73 f2 bb
       0.21965654 0.063026816 -0.06155872 -0.007398985
0000d0 cc 70 48 3e 41 db 1b 3e 3e c4 81 bc 42 c0 38 bd
       0.19574279 0.15220357 -0.015840646 -0.045105226
0000e0 da 85 3e bd 64 8a d5 3c 91 ca 8c 3c 40 51 e6 bc
       -0.04651437 0.026066966 0.017186435 -0.028114915
0000f0 c7 a3 bb 3d 0f c6 54 3e 38 5b 7d 3e cb 78 0f 3d
       0.091620974 0.20778678 0.24741828 0.035027307

weight f4 [2, 64]
000000 bc f4 4f 3e 5c ab 60 3e e5 e5 5d bd d4 63 1d 3e
       0.20308203 0.21940368 -0.054174323 0.15370113
000010 eb ff 8f 3d 74 5b 04 bd bf b4 4e bd 89 2f 9b 3c
       0.07031234 -0.03231378 -0.05046534 0.018943565
000020 31 a5 c3 bd 55 15 d5 bd 65 5b 59 3e 57 fc d2 bd
       -0.09552992 -0.104044594 0.2122627 -0.10302036
000030 f4 cd 09 bc 5c 6d 8b 3c bf 95 ca bd 42 18 db bd
       -0.008410919 0.01701992 -0.09891843 -0.10697986
000040 7b 9f 6d bd fd f3 90 bd 41 8b f4 3c bb 13 aa bd
       -0.05801342 -0.07077787 0.029851558 -0.083045445
000050 37 47 21 3c 8c 90 0a 3d be b3 b3 bd e2 82 13 3e
       0.009843639 0.033829257 -0.087745175 0.14405397
000060 f3 aa eb 3d f1 a6 31 3d d0 0b 0c 3e 10 ee 4b bc
       0.11507215 0.0433721 0.13676381 -0.012446895
000070 06 f3 f1 bd a7 13 b3 bb b7 b2 18 bd 2f f2 9f 3d
       -0.11813931 -0.005464989 -0.03727981 0.07809865
000080 c6 98 d6 3d 23 b5 11 3a 1b cf 85 bd fb e5 3a bc
       0.10478358 0.00055583025 -0.06533643 -0.011407371
000090 ab f2 b9 bd ec 52 d3 bd 00 cb 25 3e c8 22 f3 ba
       -0.09079488 -0.103185505 0.1619072 -0.0018549794
0000a0 4c 5a a4 3c d1 a4 5e bb 3b de 4e 3e b3 61 c6 3d
       0.020062588 -0.003397275 0.20201962 0.096866034
0000b0 e6 d2 1b bd 1a 5e b5 bb 69 0e 68 3e 92 b1 36 bd
       -0.038042925 -0.0055348994 0.22661747 -0.044602938
0000c0 b1 2b 78 3e c3 c1 02 3e 18 f2 d4 3d 0d 1d 50 3d
       0.24235417 0.12769227 0.10397738 0.050808955
0000d0 0f e1 68 3e db 9b 2e 3e a0 66 40 bc f1 43 df bd
       0.22742103 0.17051642 -0.011743218 -0.10901631
0000e0 99 51 1c bd 38 ac b0 bd 3e 89 88 3d 50 e1 c5 3d
       -0.038163755 -0.08626598 0.06666802 0.096621156
0000f0 0e e5 73 3d 01 1f 53 3e d0 e2 90 3e 05 5c 5f 3c
       0.059544615 0.20617296 0.28298044 0.013632779
000100 20 67 0b be dd e0 a8 bd c4 5b f8 3c 9a 0b 08 3d
       -0.13613558 -0.08246014 0.030317195 0.03321419
000110 9e 0b a2 3d 95 18 dd 3d b4 ea 85 3d ce 42 cc 3d
       0.07912372 0.10795704 0.06538907 0.099736795
000120 56 25 87 bc 2b d7 b4 3c a9 8c 9d bd 28 a8 f4 3d
       -0.016497295 0.022075256 -0.076928444 0.11946136
000130 8f f9 0d bd 40 f4 a3 3c 92 26 9c bd a7 cb c3 bd
       -0.034661826 0.020013928 -0.07624544 -0.09560328
000140 09 59 3d 3d e2 26 a3 bd 70 4d 2b be 5a 3e b9 3c
       0.04622749 -0.07966401 -0.16728759 0.02261274
000150 90 6e da 3c 36 8e 84 3c 16 8d ec bd a2 59 cb bc
       0.026664048 0.016181093 -0.115503475 -0.024823014
000160 f9 6e f3 bd e6 84 12 bc 79 80 43 be b8 a9 d2 bd
       -0.11886401 -0.008942818 -0.19091977 -0.102862775
000170 a8 fe e0 bd 2a 6f 0b be f3 c3 97 bd a4 c6 a8 3d
       -0.10986072 -0.13616624 -0.07410421 0.08241013
000180 b0 9d fd bc 03 b9 55 3d 4b af bd 3d c1 e6 e4 3d
       -0.03095898 0.052178394 0.0926195 0.11176825
000190 c9 01 38 3d a3 7c 91 3d 0b 42 a4 bd b0 eb 88 bc
       0.044923577 0.07103851 -0.08020409 -0.016713947
0001a0 dd 72 c0 3d 8e 36 2b 3d 82 02 36 be 81 20 85 3d
       0.093969084 0.041800074 -0.17774394 0.0650034
0001b0 c1 09 c1 3d 76 9d 2b 3d 56 d0 fc bd 35 0f cd bc
       0.094256885 0.041898213 -0.123444244 -0.025031665
0001c0 26 8a 00 be d0 dd 9c bd 4f 06 b7 bd 37 0c fb 3d
       -0.125527 -0.07659495 -0.0893675 0.12258189
0001d0 97 6a 7f be 8f d9 09 be 19 46 c1 bb f1 10 25 3d
       -0.24943005 -0.13461898 -0.005898249 0.04029936
0001e0 28 ae 3f bd d8 c2 15 be 16 84 9f bd f1 1c 22 3d
       -0.046796948 -0.14625108 -0.07788865 0.039578382
0001f0 38 d3 07 be a4 56 67 be a6 02 1c be de a6 9c bd
       -0.13264167 -0.22591645 -0.15235385 -0.07649015

bias f4 [2]
000000 d8 17 45 3f 46 18 2c bf
       0.7698951 -0.6722454
