AutoBalance/results/tvarit_wheel/New_Experiments/test_big_data/dyly_LA_init/1/retrain/epoch_430.pth (torch, 236367 bytes, 8 tensors)

weight f4 [256, 64]
000000 1e 26 b7 bd 0a 25 9f 3d b6 ef 0a bd 8d f5 b2 bd
       -0.08942817 0.077707365 -0.033920012 -0.08738241
000010 0a 2c b2 bd c1 c5 48 3d 6a c8 eb bd 65 05 29 3d
       -0.08699806 0.049016718 -0.11512835 0.04126491
000020 28 86 82 bc 1c a9 d3 3d 3a 89 e2 3d 84 43 a2 3b
       -0.015933111 0.103349894 0.1106133 0.004951896
000030 e0 14 94 bd 9a 2c a3 3d 9a d8 fd 3c a0 56 23 bc
       -0.07230544 0.079674914 0.030987073 -0.0099693835
000040 e6 93 fa 3d a0 50 a0 bb 08 f7 22 bd 22 84 91 3c
       0.12235241 -0.0048924237 -0.03978637 0.017763201
000050 ce 72 ce 3d 2d 02 d0 bd 66 06 ae bd 02 e7 a7 bc
       0.10080491 -0.10156665 -0.08497314 -0.020495895
000060 c6 56 c8 bd d2 58 db 3d 7e b7 bd 3d a8 d8 e5 3d
       -0.09782176 0.107103005 0.09263514 0.112229645
000070 0c 37 94 3d 66 8a ac 3d fe 18 e6 bd df 5c ca 3d
       0.07237062 0.08424835 -0.11235236 0.09880995
000080 ab 87 b5 bd 28 f2 ee bc b0 68 4a bd c7 03 64 bd
       -0.08863767 -0.029168203 -0.049416244 -0.055667665
000090 1e 65 86 3d 73 74 6b 3d 70 c0 90 bd 09 b0 d5 bd
       0.06562255 0.0574841 -0.070679545 -0.10433967
0000a0 1f ac 00 3d 98 ac a7 3d 70 b8 03 3d d0 7b d8 bc
       0.031414147 0.081872165 0.032158315 -0.026426226
0000b0 18 f7 44 bd 83 7f 81 3a c8 90 4e 3d 9c 08 33 3d
       -0.04808721 0.000987992 0.050431043 0.043709382
0000c0 8d d8 e0 bd 62 08 6e bd 61 5b ca 3c 84 5e ed 3b
       -0.10978804 -0.058113463 0.024701776 0.007243933
0000d0 62 cb eb bd ba 7f 86 3d 79 21 15 3b da 94 63 bd
       -0.115134016 0.06567331 0.0022755547 -0.055561878
0000e0 f4 94 d3 bd 37 43 06 bd 9f ae d0 3c 1a a9 62 bd
       -0.10331145 -0.032778945 0.02547389 -0.05533705
0000f0 52 64 c3 bd bb 2b d9 bd 11 90 2a bd 38 90 a9 bc
       -0.09540619 -0.10604044 -0.0416413 -0.020698652
000100 59 2e 0e bd 6a 34 8b 3c 81 05 b9 bd 4b b2 ba 3d
       -0.03471217 0.016992766 -0.09034253 0.09116038
000110 1a 74 a7 3d 4a 29 d4 bd 54 04 98 3d 08 60 c5 3d
       0.081764415 -0.10359438 0.074227005 0.09637457
000120 d4 79 53 bd 93 0a 34 3d d1 f0 af 3b 8b 47 08 bd
       -0.051629856 0.043955397 0.0053692837 -0.033271354
000130 df f6 b0 bd 1f 55 ad bd f3 66 23 bb dc 80 1a bc
       -0.08640837 -0.08463501 -0.0024933189 -0.0094301365
000140 9a 15 80 bd 12 77 64 bd 52 2a d7 bd 23 63 8e 3c
       -0.0625412 -0.055777617 -0.10506119 0.017381256
000150 fc 7c 1d bd f5 2b a1 bd 52 cf a0 bd 1c 29 ee bd
       -0.038449273 -0.07869712 -0.07852043 -0.11628935
000160 18 60 0a bd df e1 5c bd 4a 0d b1 bc b4 db 83 bd
       -0.03378305 -0.053926345 -0.021612782 -0.064383894
000170 60 9f 0c bd 41 ba 18 3d e5 45 87 bc 29 3f dd 3d
       -0.03433168 0.037287 -0.01651282 0.108030625
000180 0d 03 91 3d 22 73 f8 3d 46 47 bf 3d 83 78 9a 3d
       0.0708066 0.12131335 0.09339766 0.07542517
000190 be e1 c3 bd a9 0a a7 3d b8 9a ca bc a3 68 18 bd
       -0.09564541 0.0815633 -0.024731979 -0.037209164
0001a0 59 b1 62 bd 4a 30 ab 3d c4 ed e5 bd 30 7f dc bd
       -0.055344913 0.0835882 -0.11226991 -0.107664466
0001b0 e4 6d d3 3d 9a e1 97 bc da c7 a2 3d 70 bb 73 3d
       0.10323694 -0.018540192 0.07948275 0.059504926
0001c0 ac 4b 0a be 9d 1f 71 3d 10 1b 86 bd 25 ee be 3d
       -0.13505429 0.05886804 -0.065481305 0.09322766
0001d0 f6 90 b3 3d 3e 0c bf bc 76 fe a6 3d c0 80 15 3d
       0.087678835 -0.023321267 0.08154003 0.03649974
0001e0 e8 4b ad 3c d0 d9 31 bd d1 3d 26 bc 4e 33 30 bb
       0.021154359 -0.043420613 -0.010146574 -0.0026886049
0001f0 6d 05 bb bc d2 00 c6 bb f7 66 97 bd 14 47 13 bd
       -0.022829736 -0.0060425783 -0.07392686 -0.035956457
000200 ee 43 f9 3d 19 01 68 3d 61 2d e7 3b de b4 cc 3c
       0.1217116 0.05664167 0.00705497 0.024988588
000210 b6 b6 87 3d b1 fc 98 bd c6 63 e7 bd 11 cd ae bd
       0.06626646 -0.07470072 -0.11298327 -0.08535207
000220 f0 1c 3a 3c 98 5f c9 bd 52 32 f4 3d b8 97 a0 3d
       0.011359438 -0.09832686 0.1192366 0.07841438
000230 7c 86 0e bd a2 ab e4 3d 70 51 5c 3d 10 7e 49 3d
       -0.034796223 0.11165549 0.053788602 0.04919249
000240 fb 85 b2 bd 90 6b e1 3d 90 3a 9d 3d b6 4d 9d bd
       -0.08716961 0.11006844 0.076771855 -0.07680838
000250 90 26 59 3c dc 3c b3 bd 31 5f 36 3d 7e fc be bd
       0.013253823 -0.087518424 0.044524375 -0.09325503
000260 60 7e 63 bd ec 1f 10 3d a8 81 f4 bd 6d 83 a8 bd
       -0.055540442 0.035186693 -0.119387925 -0.082281925
000270 98 ef 4a bd b2 5c f9 3d d0 f4 8b 3d b5 39 a7 bb
       -0.0495449 0.12175883 0.06833804 -0.0051033148
000280 e8 d9 85 bc 0d 9d be 3d 84 18 2c bd 68 fa a0 bd
       -0.016339257 0.09307299 -0.042015567 -0.07860261
000290 b0 e3 f9 bc 74 79 69 bd 20 93 12 3d b7 08 06 3d
       -0.030504078 -0.057000592 0.03578484 0.032723155
0002a0 52 f1 22 3d b5 9f d7 bd 14 ed 28 3d 7c 4a 5b bd
       0.039780922 -0.105285086 0.04124172 -0.05353783
0002b0 54 c3 69 bd 19 c7 3e 3a 84 f3 e4 3d 2d 64 f2 3b
       -0.057071045 0.00072775927 0.111792594 0.007397196
0002c0 e5 7e 63 3c 1a 0a f3 3c 18 67 98 bc d9 41 dc 3d
       0.0138852345 0.029667903 -0.018603846 0.10754747
0002d0 83 97 39 bd 10 9a a3 bc b0 ab d8 3d 94 fe ca 3d
       -0.04531051 -0.019970924 0.10579622 0.09911838
0002e0 b0 6b 85 bd e7 ea 25 bd fe 13 36 3c 44 97 83 3c
       -0.065146804 -0.040507223 0.011113165 0.01606334
0002f0 4b 68 38 3d 56 8a 8b 3d 51 09 fa bd 48 72 9a 3d
       0.045021337 0.06813495 -0.12208808 0.07541329
000300 cb da fd bd 2a f1 bb 3d f0 13 ed bd e2 93 b4 bd
       -0.12395247 0.09176858 -0.115760684 -0.08817269
000310 54 e5 c2 bb a0 dc ae bd 28 63 86 3d 02 07 51 3d
       -0.005947748 -0.08538175 0.06561881 0.051032074
000320 a0 56 7b 3d 23 aa d3 3d 09 7d 9a 3d a6 c4 b9 bb
       0.06136191 0.103351854 0.0754338 -0.0056691943
000330 b5 3f 28 bd d8 22 67 3d 3a ad e6 3d c4 f2 c2 3d
       -0.04107638 0.056429714 0.11263509 0.0951896
000340 9c 84 ac ba 90 74 e6 bd aa 5b c8 3d 2a 28 7d 3d
       -0.0013162079 -0.11252701 0.097831085 0.06180588
000350 98 84 6d bd f4 a5 92 bd 4c 64 0f 3d d5 51 c0 bc
       -0.05798778 -0.07160559 0.03500776 -0.02347652
000360 90 c7 03 bc 02 75 de 3d 8d 75 ee bc c3 8f cd bd
       -0.008043185 0.10862161 -0.029108787 -0.10037186
000370 a4 7a 05 bd f0 3a f7 3d fa 62 b7 bd fb fb a8 bd
       -0.032587662 0.12071788 -0.08954425 -0.082511865
000380 54 e2 79 bd 2f 04 a1 bd 10 5a f1 bb e5 f6 f9 bd
       -0.06100686 -0.07862126 -0.0073654726 -0.122052945
000390 3e e4 82 bd 91 c8 a3 3c 5c 6a 1c 3d 3d 5a 43 bc
       -0.0639119 0.019993098 0.03818737 -0.01192337
0003a0 3f 13 f6 3d 63 9f 37 3d 68 14 a8 bd c8 0a eb 3d
       0.1201539 0.044829737 -0.08207017 0.11476666
0003b0 94 b2 c9 bd ac 34 dc ba 14 2f d5 bd af 22 f6 bd
       -0.09848514 -0.0016800365 -0.1040937 -0.12018334
0003c0 58 d5 b0 3d e4 63 b1 bd 34 9f 49 3d ee 59 33 3d
       0.08634442 -0.08661631 0.049224094 0.043786936
0003d0 88 33 d6 bd 9a b2 2e 3d 7d 69 7e 3d d8 5e c5 3c
       -0.104590476 0.042650796 0.06211232 0.024093077
0003e0 70 d9 49 3c 3e 24 d4 bd e0 3d 14 bd 99 f1 d8 3d
       0.012319908 -0.10358475 -0.03619182 0.10592956
0003f0 ce 6b e2 bc 9a 68 32 bd b4 21 6e bd 42 15 ed bd
       -0.027639296 -0.043556787 -0.05813761 -0.1157632

bias f4 [256]
000000 e7 e5 c3 bd 4f 1f 23 3d 3c c8 fe ba 2a 16 4a 3d
       -0.09565335 0.03982478 -0.0019438337 0.049337544
000010 94 e9 8a bd 20 c6 e1 3d 7c a2 e6 3d 4f 12 79 bd
       -0.06782833 0.110241175 0.1126146 -0.060808476
000020 28 34 5b bd 60 bb bb ba f1 56 26 3d df 8b 9c bd
       -0.053516537 -0.001432281 0.040610258 -0.07643866
000030 c4 f1 f1 3c e6 56 43 bd ed 65 64 3d a6 a9 ed 3c
       0.029534228 -0.047690295 0.055761266 0.029011559
000040 df e4 9d 3d 10 b0 ab 3d c6 7e eb bd e9 97 84 bd
       0.07709669 0.08383191 -0.114987895 -0.06474287
000050 af b6 d8 3c a8 82 8e bd 18 76 97 bd 28 94 89 3c
       0.026454298 -0.069585145 -0.073955715 0.01679428
000060 4a 93 91 3d 34 94 06 3e c2 e1 0e 3d 56 53 c0 bd
       0.07108171 0.13142473 0.03488327 -0.09390895
000070 2b 3b a6 bc 28 c7 bb 3b 8c 26 f3 bd c6 53 57 3d
       -0.020291885 0.0057305284 -0.118725866 0.052570127
000080 b2 96 f5 3d b8 19 1f bd cf e8 14 bd d2 90 b5 3b
       0.119916335 -0.038842887 -0.036354836 0.0055409456
000090 d3 6f f7 3d 64 1e 7c bd 6e 1c 52 3d 4c 2c f0 3d
       0.12081876 -0.06155242 0.051296644 0.11727199
0000a0 30 53 12 3c a3 d8 f4 bd 96 0b 62 3d ae a2 09 3d
       0.008930966 -0.11955383 0.05518683 0.03360241
0000b0 d8 04 86 3d f3 43 9a 3c 69 4d 56 bd 49 b1 9c 3c
       0.065438926 0.018831229 -0.052319918 0.019127505
0000c0 64 cb 84 bd 5b 8a e2 3b 43 79 08 bd 5b 81 87 3d
       -0.06484106 0.006913466 -0.03331877 0.066164695
0000d0 81 f5 73 3c 2c 54 b0 bc 1b 3d 32 bd 12 4c 95 bd
       0.014890076 -0.021524511 -0.043515306 -0.072899
0000e0 54 93 d5 bd d1 7e bd 3d a9 a3 93 bd 0e cb 86 3d
       -0.10428491 0.09252704 -0.0720895 0.06581698
0000f0 72 0d 2d 3d 18 15 58 bd 7a e2 ec 3c 43 fa f3 3c
       0.04224915 -0.05275449 0.028916586 0.02978242
000100 80 8d 8e bc a7 92 b7 3d 10 bd 0d 3d e0 4d ea bd
       -0.017401457 0.089635186 0.034604132 -0.11440635
000110 b1 61 50 bc 02 1e f2 bd 94 f2 f3 bd 5a db 45 3c
       -0.012718604 -0.1182213 -0.119115025 0.012076223
000120 42 31 9c bc 20 23 88 bd 61 37 af bd 10 ac 40 bc
       -0.019066457 -0.066473246 -0.085554846 -0.011759773
000130 2d aa 98 bd b9 9a d3 3d 4d 2b 09 bd 8f 2f 10 3c
       -0.074543335 0.103322454 -0.03348856 0.008800401
000140 cd ae c8 3d d9 3d b3 bd 67 4d 19 bc 00 25 88 bd
       0.097989656 -0.08752031 -0.009356833 -0.06647682
000150 e4 54 d5 bc bf 52 d9 bd ed 8e e9 3c f4 7d a8 3d
       -0.026041456 -0.10611486 0.028510535 0.08227149
000160 ce 9d 77 bd 72 96 c5 3b 89 ad a4 3d f9 70 a8 bd
       -0.06045323 0.0060298974 0.08040912 -0.08224673
000170 63 0d ae 3d 82 73 15 3d 4a 02 dc bd 98 84 e2 bd
       0.08498647 0.03648711 -0.10742624 -0.110604465
000180 9a 63 e3 3d df 63 d4 3d a8 3b 91 bd e8 92 20 bd
       0.11102982 0.103706114 -0.07091457 -0.0392026
000190 8c 73 d5 3d 4d 85 9d 3d a7 c8 00 bc 7c 13 e2 bd
       0.104224294 0.07691441 -0.007860339 -0.110388726
0001a0 0a d5 ca bd 8e 18 9a 3c e2 bf 06 3e 3e fb fd bd
       -0.09903915 0.018810537 0.13159135 -0.12401436
0001b0 db 6b c4 3d 8a 9e a4 3d 59 c4 8e 3a 29 17 68 3d
       0.09590884 0.080380514 0.0010892256 0.056662712
0001c0 cf 2e 73 3d c0 03 97 bd f7 8b b6 3d ba 34 09 3e
       0.059370812 -0.07373762 0.08913415 0.1339902
0001d0 c7 ba 62 bd 58 da 6a 3c 95 0d fc bd e7 da af bc
       -0.055353906 0.014334284 -0.12307278 -0.021466685
0001e0 e6 03 a8 bd 48 c2 df bd 12 a4 f3 bc 62 58 9a 3c
       -0.082038686 -0.10925728 -0.02974132 0.018840972
0001f0 0b 78 58 bd 8f bf 8f bd f4 18 49 bb f6 69 cb bd
       -0.052848857 -0.07018959 -0.003068504 -0.0993232
000200 45 fb a0 bb b0 14 8e bd fe 46 ae 3d e6 f1 c5 bd
       -0.004912766 -0.069375396 0.085096344 -0.09665279
000210 5c ca a8 3d 6a 64 f7 3d d2 b0 bb 3d 9e 82 c1 bd
       0.08241722 0.12079699 0.09164585 -0.094487414
000220 35 58 cd bd 91 c5 c0 bd 2f fb f2 bc 57 95 dd bd
       -0.1002659 -0.09412683 -0.02966079 -0.108195
000230 24 27 78 3d dc 2f ab 3d 6a 2c 9b bd ec ad b6 3c
       0.060584202 0.08358738 -0.07576831 0.02229973
000240 40 a1 cc bd f1 87 23 3d 89 cb 88 bd 50 38 c3 bd
       -0.099916935 0.039924566 -0.06679446 -0.09532225
000250 cd 40 a8 3d d6 59 f1 3d de f8 6a 3c f2 40 b8 bd
       0.08215485 0.11784713 0.014341561 -0.08996762
000260 18 13 2c bd 79 1f 73 bd 62 4e 0c bd 57 4c 98 bd
       -0.042010397 -0.059356187 -0.03425444 -0.07436436
000270 b5 10 ab bd 74 3f c3 bd c1 41 34 3c 0b 33 09 3d
       -0.08352796 -0.09533587 0.011002005 0.033495944
000280 d0 f7 d8 bc 23 7b 26 bd 46 0f ad 3d 23 af 0f 3e
       -0.026485354 -0.040644776 0.08450179 0.14031653
000290 25 19 1a bd 6a 54 fb 3d 9e db b6 bd c6 7a 2f bd
       -0.037621636 0.1227196 -0.089286074 -0.042841695
0002a0 2f 5d fa 3d 34 ff 8b 3d d6 fc b5 3d bf 97 42 3d
       0.122248046 0.068357855 0.08886115 0.047507998
0002b0 57 ec b4 3d bf 9e b2 3d d0 61 ee bd 3e 70 0a bd
       0.08834141 0.08721685 -0.1163975 -0.03379845
0002c0 1e 96 3c bc fb ea aa 3d ac 76 b7 bc 94 e2 fe 3d
       -0.0115104 0.083456 -0.022395454 0.1244556
0002d0 d2 d2 a7 bd 04 89 8c bc 6c f7 a3 bd 2e 37 ef bd
       -0.08194508 -0.017155178 -0.08006176 -0.116804466
0002e0 0b e6 cf ba 59 d5 9f bc e0 fe a1 3d 0d 68 aa bc
       -0.0015861405 -0.019510912 0.07909942 -0.020801568
0002f0 48 f6 69 3d 12 d3 b1 3d f5 92 c7 3d 0c 06 75 bd
       0.057119638 0.086828366 0.09744827 -0.05982022
000300 99 ae eb 3d 7b c1 84 bc 26 96 a6 bb 6a e8 d1 bd
       0.11507911 -0.01620554 -0.005083817 -0.102494076
000310 4a 7c e1 3c d5 14 d3 bc 96 5b cd bb 9a dc af bc
       0.027525086 -0.02576677 -0.0062670214 -0.021467496
000320 bb 0d 99 bb 4d b3 37 bc cb 3a 2a 3c 2d a5 57 bd
       -0.0046708263 -0.011212182 0.010389994 -0.05264776
000330 e9 e2 4e 3d fa 36 83 3c 34 ba 1a bd 89 a6 b4 3c
       0.050509367 0.016017426 -0.037775233 0.022052066
000340 c4 f2 fd bc 13 e5 cb 3d 62 57 9b bd df fa 9d 3b
       -0.030999549 0.09955802 -0.07585026 0.004821166
000350 d0 55 c6 bc b2 7f 2e bd e0 9e a5 3d 3a 24 a7 bd
       -0.02421084 -0.04260225 0.080869436 -0.081612065
000360 6f 47 aa 3c 1c 39 34 bb 2e aa f8 3b ee 78 df bd
       0.020786015 -0.002749986 0.0075886464 -0.109117374
000370 24 57 e4 3d 97 5c 46 bd 88 1e 59 bd 15 08 98 3d
       0.11149433 -0.048428144 -0.053007632 0.074234165
000380 30 43 a6 3d a6 d6 76 3a 75 c6 bb bd 0a 25 fe bc
       0.08118284 0.00094161404 -0.09168712 -0.031023521
000390 09 3d b3 3d 08 0e 63 3d 91 d2 e7 3d 60 ef 4d bc
       0.08751876 0.055433303 0.11319459 -0.0125692785
0003a0 a2 c2 3c bc 32 56 dd 3b 1c 7e fe bd 69 3d 80 bd
       -0.011521013 0.00675466 -0.12426397 -0.06261713
0003b0 64 4a 7d 3d 05 dd c9 3b 01 f2 e0 3c a8 e5 8e 3d
       0.061838523 0.006160381 0.027459146 0.06977397
0003c0 6b 3d 3b bd f8 3f 43 bd 48 92 d5 bd 0f 4e 1c 3c
       -0.04571287 -0.047668427 -0.104282916 0.009540095
0003d0 78 29 d4 bc 92 f4 f3 bd 61 21 ed bd 9b 25 26 bd
       -0.02589868 -0.119118825 -0.11578632 -0.040563207
0003e0 88 33 d6 bd 91 68 f0 3d 29 9e 8c 3d 04 81 e4 bd
       -0.104590476 0.117386945 0.06866104 -0.1115742
0003f0 e5 25 b1 bc 28 85 fc bd 1d 6c bc 3d 07 74 29 bd
       -0.021624515 -0.12330085 0.092003085 -0.041370418

weight f4 [128, 256]
000000 f0 55 c6 bc 33 50 7b bc ef 77 63 3d 7f ba 1c bd
       -0.0242109 -0.015338945 0.0555343 -0.038263794
000010 97 b0 2b 3d 59 d9 d1 bb 6c fd a7 3c e8 a2 4a bd
       0.041916456 -0.0064040837 0.020506583 -0.049471766
000020 fa 00 1d 3d 94 b2 63 3d df 3a 0c bd e4 dd 47 3d
       0.03833101 0.055590227 -0.03423583 0.048795596
000030 f1 4e a7 bc 82 bc 30 bd 3d bc 2c 3d 70 8f 7f 3d
       -0.020423384 -0.043148525 0.042171706 0.062392652
000040 a8 8b 3c 3c df ee 70 3c 6e e7 42 3d 61 09 47 bc
       0.011507906 0.014705389 0.04758399 -0.012148232
000050 ce bd 57 bc be c7 14 3d 54 23 47 bd 7a a2 75 3d
       -0.013167812 0.0363233 -0.048617676 0.059969403
000060 50 d2 6c bc 85 94 90 3c b8 6d 08 3d 7c 30 02 3b
       -0.014454439 0.017648945 0.03330776 0.0019865325
000070 63 bb 7d 3d 3d 2f 31 3d 0a 27 16 bd 90 be 1a bc
       0.061946284 0.04325794 -0.036658324 -0.009444848
000080 0a 6a 06 bd 05 d9 26 bc da 0b 2d 3d 3d 31 4a 3d
       -0.03281597 -0.010183577 0.04224763 0.049363364
000090 19 eb d7 bc d0 73 01 bc 60 14 5e bc 01 70 fd bc
       -0.02635722 -0.007901147 -0.0135546625 -0.030937197
0000a0 5d 26 4a bd aa db 53 3d 8d e9 73 3b b7 b3 43 3d
       -0.049352992 0.05172316 0.0037218065 0.04777881
0000b0 52 af 38 3c 64 96 e0 bc a7 7c 9d bc 38 6e a6 3c
       0.011272268 -0.027415462 -0.019224478 0.020316228
0000c0 bb 20 e5 3c f3 74 20 3d 7e a6 69 bd b0 b4 b5 bc
       0.027969709 0.03917403 -0.057043545 -0.022180885
0000d0 19 2e 25 3d a0 38 f4 bb 9c 1c f8 3b cc ef d2 bc
       0.040327165 -0.0074530393 0.00757177 -0.02574911
0000e0 a9 22 3f bc 9c 52 f4 3c 1c 67 33 bd 81 8a 3f 3d
       -0.0116659785 0.029824547 -0.043799505 0.046762947
0000f0 c7 ea 15 bc b2 52 5c 3d fc af 4e 3d a4 63 4b bd
       -0.009150214 0.053789802 0.0504608 -0.04965557
000100 80 e9 87 3c f4 92 80 3b 28 f6 e4 3c 7f 4e a9 bc
       0.016590834 0.003923768 0.027949408 -0.020667313
000110 3e 10 49 3b cc de 92 3c 0c 2b 6a 3d 9a cf 29 bd
       0.0030679847 0.017928503 0.05716996 -0.04145775
000120 37 90 f8 bc cc 6a 63 bd dd 07 8a 3b 2c 06 53 bd
       -0.030342204 -0.05552177 0.004212363 -0.051519558
000130 11 bd a0 bc 1c f1 78 3d e0 ac 60 3d 64 bd c8 bb
       -0.019621404 0.060776815 0.054852366 -0.0061260927
000140 31 e6 18 bd b2 3a 3e 3d ad 07 5a 3d 9c 28 30 bd
       -0.037328903 0.046442695 0.053229976 -0.043007478
000150 a9 54 5b 3a 55 31 47 bd f5 ea 9b bb 52 eb b4 bb
       0.00083668024 -0.04863103 -0.0047582337 -0.0055212164
000160 b0 79 76 3d cb 9c 98 3c 5d 93 36 bd 5e 1f 2f 3d
       0.060174644 0.018629452 -0.04457413 0.042754523
000170 00 b8 8d 3c 33 77 47 3d 10 67 50 3c 5e f0 6c 3d
       0.017299652 0.04869766 0.0127198845 0.05784642
000180 03 cf c2 bc 56 4f d6 3c db b7 7b 3d 48 52 32 bd
       -0.023780352 0.026160877 0.061454635 -0.0435355
000190 05 2a 62 3d 40 bf b4 bc eb ab 71 bc b0 28 eb 3b
       0.055215854 -0.022063851 -0.014750461 0.007176481
0001a0 54 09 a1 bc 43 9f be 3c 38 54 5e 3d 00 c6 36 bd
       -0.019657768 0.023269301 0.054279536 -0.04462242
0001b0 54 b2 a6 3c b0 ea 66 bd 93 27 49 bc 40 4b 76 3d
       0.020348705 -0.05637616 -0.012277502 0.060130358
0001c0 ed d2 0f 3b 3f a0 25 3a ed 71 8a bb e6 73 3c bd
       0.002194579 0.0006318129 -0.004225007 -0.046008967
0001d0 15 69 e4 3c 53 1d c6 bc 04 14 6f bd dc 0a 22 bc
       0.027882138 -0.024183905 -0.058368698 -0.009890284
0001e0 18 64 45 bc fa 7e dc 3c c7 63 c1 bc 62 0b b8 bc
       -0.01204779 0.026916016 -0.023607148 -0.022466365
0001f0 3b 26 a0 3c fb d8 72 3d 24 de 7d bd 78 d5 2d 3d
       0.01954948 0.05928896 -0.061979428 0.042439908
000200 b7 8b c4 bc de 8b 28 3d 8c 51 ac bc e0 30 78 3c
       -0.023992402 0.041149013 -0.021034978 0.015148371
000210 76 b9 64 3d 62 7a 62 3c 2f fa 05 bd 88 a1 2a bd
       0.05584093 0.013823124 -0.032709297 -0.041657954
000220 0d a2 83 bc 93 f9 72 3a 7f c9 4d 3c d3 30 f7 bb
       -0.016068483 0.0009268757 0.012560247 -0.007543662
000230 94 5a 16 3d cd 73 81 bb d9 84 c8 bb 5f ca c6 bc
       0.036707476 -0.003950572 -0.0061193523 -0.02426642
000240 46 56 59 bd 77 33 92 bc 28 58 25 3d 68 07 1c 3d
       -0.053060792 -0.017846806 0.040367275 0.038093
000250 71 a5 12 bc d1 55 b6 b9 4b 44 24 3d ca 06 6d bd
       -0.008950577 -0.00034777683 0.04010419 -0.057867803
000260 d8 31 57 3d 89 cd b0 bc 2d 92 26 3d fc d6 cf bc
       0.05253777 -0.021582382 0.040666748 -0.025371067
000270 9a 7e b3 3c 8b 3c 2b 3d 9d d1 44 3d 58 2a e9 3a
       0.021910954 0.041805785 0.048051465 0.0017789109
000280 7c f0 8f 3c 9a a5 d2 bc f6 00 38 3d 41 30 d0 3c
       0.017570727 -0.02571373 0.04492279 0.025413634
000290 f0 0c 1b bd 13 47 ad bb 9a 51 11 3d eb 6f d1 3c
       -0.037854135 -0.0052880137 0.035478212 0.025566062
0002a0 e5 3d ed 3c a9 87 9c 3c b1 08 7c 3d 2b a3 4b 3d
       0.028960178 0.019107657 0.061531726 0.049716156
0002b0 96 c7 40 bd 0a cb e4 3b 38 c9 22 3c 55 81 17 bd
       -0.04706534 0.006982212 0.00993567 -0.036988575
0002c0 f1 67 be 3c 95 2a 33 3d 37 ad 44 bd dc 2b c4 bb
       0.023242922 0.04374178 -0.048016753 -0.0059866738
0002d0 ce f8 0a bd 9a d4 1b bd 09 39 03 3d 32 02 61 bc
       -0.033928685 -0.03804455 0.032036815 -0.013733434
0002e0 65 a7 89 3b fd 37 66 bd ff 03 84 3d 5e 93 76 bd
       0.004200863 -0.05620574 0.06446075 -0.060199134
0002f0 62 11 60 bc e0 4b 36 3c e9 da 00 3d da de fa 3c
       -0.013676019 0.011126488 0.03145877 0.030623842
000300 b3 29 a8 bc 69 c0 a4 3c a1 99 87 3c 9e 6e 49 bd
       -0.020527696 0.02011128 0.016552748 -0.04917776
000310 a2 cc 4a bd ac 0f c3 3c ad 07 88 3d 8f e1 ff ba
       -0.04951156 0.023811184 0.06642089 -0.0019522178
000320 19 df 35 bd ed 1f 66 bc 83 d3 4f 3b e8 45 24 bd
       -0.044402216 -0.014045698 0.0031711764 -0.04010573
000330 d8 c8 1f bd a7 3b 01 3d df 8e 7d 3d eb 76 29 bb
       -0.0390099 0.03155103 0.06190383 -0.0025858234
000340 76 5b 26 bd 82 a0 44 bc a6 2b 52 3d ca c5 05 bc
       -0.040614568 -0.012001159 0.051311158 -0.008164832
000350 20 ee 3b bb 0a ee 7b bd 91 91 1c bd b5 73 47 3d
       -0.002867587 -0.06150631 -0.03822476 0.04869433
000360 a4 2a 6a 3c b5 f4 68 3d a3 1b 33 3d 12 33 3e bd
       0.014292393 0.056873996 0.04372753 -0.046435423
000370 32 00 0e 3d 14 90 68 3c f6 37 13 bd c4 9b 6f 3d
       0.034668155 0.014194507 -0.03594204 0.05849816
000380 5b ad 62 bd 4f 3b 6e 3d ca ae 7f bd 18 57 02 3d
       -0.055341106 0.05816203 -0.06242255 0.03182134
000390 7b 1f 65 bd c9 1c ac bb b8 ef 45 3b 6c 88 b5 bb
       -0.055938225 -0.005252455 0.0030202698 -0.0055399444
0003a0 d8 62 49 3d 2a ed d6 3c ff 39 e7 3c a4 28 3a 3d
       0.04916653 0.026236136 0.028225897 0.045448914
0003b0 5c 62 c5 bc d6 92 82 3c 15 c4 16 3c dc 75 88 bc
       -0.024094753 0.015939157 0.009202023 -0.016657762
0003c0 ba 24 21 3d c6 44 32 bd 48 0e 55 3d 1c bc 00 3d
       0.039341666 -0.04352262 0.052015573 0.031429395
0003d0 dc 8c 66 3d f8 43 08 3d cd b3 69 bd 4a 53 b9 3c
       0.056286678 0.033267945 -0.057056237 0.022622723
0003e0 64 09 e6 3b 6e 55 1d 3d c1 11 81 3c 5e ff 4d bd
       0.0070201624 0.03841155 0.015755536 -0.050292365
0003f0 9d 27 6a 3d 1b 47 2c bd c2 f1 89 3b f0 1d 6f 3d
       0.057166684 -0.04206 0.004209728 0.05837816

bias f4 [128]
000000 e0 06 84 3d ab a4 14 bd 0c 8f 1f bc 5a 7b 7c bd
       0.06446624 -0.036289852 -0.009738695 -0.061641075
000010 90 8d f7 bb 20 4d a1 bc f9 72 9f bc 5f f7 91 3c
       -0.0075547174 -0.019690096 -0.019464003 0.017818151
000020 9c a8 96 3d 0c 6c e3 bb ac c5 fc 3c b8 2d 81 bb
       0.073563784 -0.0069403704 0.030855976 -0.0039422177
000030 3c be af ba 50 eb f2 3c 50 db ee bc c9 dd 02 3d
       -0.0013408135 0.029653221 -0.02915731 0.031949792
000040 41 ea b7 3c c7 46 71 bd 06 10 7a 3d 0e f0 b5 3c
       0.022450568 -0.05890539 0.061050437 0.022209194
000050 bc c1 2f 3d ef 6c 92 bc aa ae 1a 3d c8 25 a5 3d
       0.04290937 -0.01787421 0.03776423 0.08063847
000060 2d 60 16 3b 08 62 50 bd f9 07 ec 3c d5 68 3e bc
       0.0022945509 -0.05087474 0.028812395 -0.011621674
000070 51 05 23 3d 33 54 92 3a 30 b6 04 bd 41 49 c8 bc
       0.039799992 0.0011164009 -0.03240031 -0.024448993
000080 fb 07 89 3c 10 fe 61 3c 48 08 cd bc 13 de be 3d
       0.016727438 0.013793483 -0.025028363 0.09319701
000090 66 7a 2f 3d 40 09 bc bb c5 72 6e bd 6d bf 8c 3c
       0.042841338 -0.0057384074 -0.05821492 0.017181123
0000a0 d5 ad 80 ba 28 19 03 bd aa 93 8a bc e7 23 20 bd
       -0.0009817431 -0.032006413 -0.016916115 -0.03909674
0000b0 81 b6 57 3d 56 d9 ed bb 50 1e 7f bc dd 47 1d bd
       0.052664284 -0.0072585745 -0.015571192 -0.038398612
0000c0 59 17 8f bc 97 0d 12 3d 0f 9e 56 3d 65 cf a4 3c
       -0.017467188 0.03565749 0.05239683 0.020118425
0000d0 1a 96 1c bc 0e 96 5a 3d ed 2e 8f 3c 1d 16 31 3d
       -0.009557271 0.05336576 0.01747843 0.04323398
0000e0 e3 a1 ac 3d 5f 73 a1 3c d9 29 7d 3b d2 e4 4f 3d
       0.08429315 0.019708334 0.003862968 0.05075533
0000f0 20 40 46 bd 8b d7 95 3b a7 1c 3d bd fc 7f 19 bd
       -0.048400998 0.004572814 -0.046169903 -0.03747557
000100 cc 43 8b 3c fa 65 7c 3d ad 27 9c 3d ab 52 66 3d
       0.017000102 0.06162069 0.07624755 0.056231182
000110 90 86 7d 3d c8 6f e2 bc 15 90 8e 3c cc e9 05 3d
       0.061895907 -0.027641192 0.017402688 0.03269367
000120 21 5e 60 bd a9 02 07 3d 0d c2 4f bd c5 1f a0 bb
       -0.05477727 0.03296152 -0.05072217 -0.0048865997
000130 cb ff 09 bc 44 bc 20 bd 03 a0 08 3d 27 5d 34 bc
       -0.008422802 -0.039242044 0.033355724 -0.011008537
000140 89 1a d3 bc ab 7e ab 3d 85 8e e5 bc 05 5d 36 3d
       -0.025769489 0.083737694 -0.02802206 0.044522304
000150 d0 7d 99 bc 0c 57 6d bd 38 4e 15 3d 90 42 a5 3c
       -0.01873675 -0.057944342 0.03645155 0.020173341
000160 bf cf 8b 3d ea 71 04 3d 58 3a 76 bd f8 d2 e2 bb
       0.06826734 0.0323352 -0.060114235 -0.006922122
000170 a3 a4 d9 3c 3b 40 8a 3d ec 9f bf 3c ca cf 62 3c
       0.026567763 0.06750532 0.023391686 0.013843486
000180 ad f2 6a bc 1d ef c3 3c 1b db 8e bc fa 4c ce 3d
       -0.014340085 0.023917729 -0.017438462 0.10073276
000190 de 51 2b bd 51 08 84 3c 08 ab 51 bd d5 60 5e bd
       -0.04182612 0.016117247 -0.0511885 -0.054291565
0001a0 0a 69 c5 3c 29 d9 a2 3d 06 8d 17 3b 4f 9c 20 3d
       0.024097938 0.07951576 0.0023124828 0.039211567
0001b0 52 a9 9d 3c 8e b6 55 bd 46 9c 87 3d 60 69 82 3d
       0.019245777 -0.05217605 0.06621604 0.06367755
0001c0 ab c6 dd bc e9 7f 99 bc f7 44 4a bd b8 4f a3 bc
       -0.027072271 -0.01873775 -0.049382176 -0.019935474
0001d0 a0 cc 8d 3d 6a e7 74 bc fc 4b a7 3c 9f ad ee 3c
       0.06923795 -0.014947752 0.020421974 0.029135523
0001e0 31 52 3f 3d bd 00 6e bc 1e 42 76 bd 24 f1 06 bd
       0.046709243 -0.014526543 -0.060121648 -0.032944813
0001f0 d3 91 59 3d 26 78 8b 3c 43 6b 0f 3c c0 ac 1e 3d
       0.053117584 0.017025065 0.0087536005 0.038738966

weight f4 [64, 128]
000000 79 95 de 3d 1b cb d8 bc 35 ab aa bc a4 57 a2 bd
       0.108683534 -0.026464036 -0.020833591 -0.079268724
000010 95 e8 4a bd 7d c4 0f 3c 63 0c 46 bd 6b ba 5f 3d
       -0.049538214 0.008774874 -0.048351657 0.05462114
000020 65 22 9d 3d 85 ac 23 bd 35 53 f8 bc 75 ab fc 3c
       0.07672576 -0.03995945 -0.030313114 0.030843476
000030 4f 2f 94 3c 55 c2 6c bd 92 57 a5 3d fc d6 1a 3d
       0.018088965 -0.057802517 0.08073343 0.03780268
000040 1f 04 ed bc 55 be b2 bd 63 ca 77 3d 48 a7 7f bd
       -0.02893263 -0.08727709 0.060495745 -0.06241539
000050 e0 e5 aa 3d bb 49 93 bc c0 e9 56 3c da b3 2b bd
       0.083446264 -0.017979493 0.013117254 -0.041919567
000060 7a ca 2d bd 5c f2 e2 3c 4c 25 89 bd 92 56 2a bd
       -0.042429425 0.027703457 -0.06696567 -0.041586466
000070 c5 b2 1c 3d 19 3d 57 3d 42 6f 99 bc 89 e0 6b bd
       0.038256425 0.0525485 -0.01872981 -0.05758718
000080 2f 84 13 3d 5d 4e 52 3c bf 22 10 3d e2 d8 94 3d
       0.036014732 0.012836066 0.035189386 0.072679296
000090 05 b7 cb 3d c9 2a a3 3d b5 da 6e 3d d8 3b 8f bc
       0.099470176 0.07967145 0.058314044 -0.01748459
0000a0 17 1a 34 3d 5c 1d 43 bd 6a 06 04 3d 4a 1d d3 bc
       0.043970194 -0.04763542 0.03223268 -0.025770802
0000b0 30 59 80 bd 9f 6c ab bd 68 d6 93 bd a5 1a 89 bd
       -0.06267011 -0.08370327 -0.07218629 -0.06694535
0000c0 bd b7 9d bc 27 c9 af bd bd 97 d5 3c 39 74 40 3d
       -0.019252652 -0.08583289 0.026073331 0.04698584
0000d0 c1 2a 1a bd 75 d7 85 3d 57 a8 47 bd b4 0f 1f bc
       -0.03763843 0.06535236 -0.048744526 -0.009708334
0000e0 da 64 9b 3d 5c c4 8f 3d b7 8c a1 3d 5f 51 10 3d
       0.07587595 0.070198745 0.07888167 0.03523385
0000f0 36 1a a0 3d 89 3f c7 3c 76 46 9f 3b be 7b f4 bc
       0.07817499 0.024322288 0.0048606945 -0.029844161
000100 8b b6 09 bd db 1a bb 3d ef 8e a1 3d a9 f3 58 bd
       -0.033621352 0.09135982 0.078885905 -0.052966747
000110 63 4e c6 3c 60 36 eb bc 11 51 4c 3d 2f ab dd 3d
       0.0242073 -0.028712451 0.049882 0.10823666
000120 ee 0d 88 3c 29 9c 12 3c 9b 0f 6a 3d 92 fb 3f 3d
       0.016608205 0.008948364 0.05714379 0.046870776
000130 40 37 24 3d 71 e3 59 bd 4b f7 0b 3d 2c ca 3e ba
       0.040091753 -0.05319542 0.034171384 -0.0007278051
000140 2e 4b 76 bd 03 d9 d4 3c 03 f5 53 3d 2f c0 9f bd
       -0.06013029 0.025982386 0.051747333 -0.07800328
000150 df 91 d0 bb 66 b4 86 bd fe ee 8b 3d 20 29 44 3c
       -0.0063650454 -0.06577377 0.068326935 0.011972696
000160 a5 8b 0c bd 4a 35 01 3b 7e 9b 09 bd 25 53 18 bd
       -0.034312863 0.00197156 -0.033595555 -0.037188668
000170 5d 0d 12 3d ea dd ba 3d d5 8f af 3c dc 7a c3 3c
       0.035657275 0.09124358 0.02143089 0.023862295
000180 11 3e 13 bd 50 08 1b 3d 08 f1 7f bc b0 42 b5 3d
       -0.035947863 0.037849724 -0.015621431 0.0885061
000190 40 29 92 3d 72 cc c1 3d e3 54 0e bd 91 a6 94 bd
       0.07136774 0.09462823 -0.034748923 -0.072583325
0001a0 ec 7d 11 3d 9e f6 33 3d ee ee 01 bd 1a e1 14 3d
       0.03552048 0.043936364 -0.031722 0.036347486
0001b0 10 cc a5 bd 9d bc 35 3d 08 a4 e1 3d e2 a3 07 bd
       -0.080955625 0.04436933 0.110176146 -0.033115275
0001c0 f8 a2 cb 3c d7 fe 75 bd b6 42 65 3d 9f e5 1b 3d
       0.024857983 -0.060057487 0.055971824 0.03806078
0001d0 79 3b c5 3c 86 2b 6e 3d 16 15 ab bd fa 4e f6 3c
       0.02407621 0.058146976 -0.08353631 0.030066956
0001e0 31 4d d4 3d d0 81 f5 bc ef 15 8a 3a 44 53 2c bd
       0.103662856 -0.029969126 0.0010535101 -0.042071596
0001f0 eb 60 09 bc 47 72 34 bc 41 fa 79 bd 35 6f 45 3d
       -0.008384923 -0.011013574 -0.061029676 0.04820176
000200 d6 a4 3a 3b f5 1b 83 bd 9d 4a 09 3c 26 cc fe 3c
       0.0028479598 -0.06401817 0.008379606 0.031103205
000210 40 9a a4 bd 73 6a 83 bc c0 d1 1a 3c d1 3f be bc
       -0.08037233 -0.01604197 0.009449422 -0.02322379
000220 41 a2 23 3c 4f 82 9f 3d 1f e3 38 bd 5b 7b 5f 3d
       0.009987415 0.07788526 -0.045138475 0.054561
000230 20 e0 49 3d 9c ec ad 3c d5 86 a5 3d e4 e8 9e 3d
       0.049286008 0.021230988 0.08082358 0.07759264
000240 97 f1 d0 bc 53 09 67 3d 08 25 f6 3d 62 80 ee bc
       -0.025505824 0.056405377 0.12018782 -0.029113952
000250 f4 99 0c 3d 62 d9 ad bc 7a 20 1a 3d 33 5b fb bc
       0.03432651 -0.02122182 0.03762863 -0.030683136
000260 3b a6 a1 bd bf 5f 56 bd 66 87 98 bd 81 25 21 bd
       -0.07893034 -0.052337404 -0.074477 -0.039342407
000270 f8 2c 5b 3d a2 79 99 3d b2 0e 47 bd 79 85 8a bd
       0.053509682 0.07493903 -0.048598 -0.06763739
000280 1b 10 82 3d e2 9c 0b 3d a2 69 85 bd 63 88 8e 3c
       0.06350728 0.034085162 -0.065142885 0.017399019
000290 72 d3 41 3d 78 92 01 3d 03 20 33 bd 15 c6 15 bd
       0.04732079 0.031633824 -0.0437317 -0.03656586
0002a0 ef cd 63 bd a6 fc 8c 3c 03 fd 2e bd a3 b1 90 bc
       -0.055616315 0.017210316 -0.04272176 -0.017662829
0002b0 13 66 fa bc de e6 08 bd 43 9e a4 3c 91 09 10 bd
       -0.03056625 -0.033423297 0.020094996 -0.035165373
0002c0 bc 70 54 bb f2 53 68 3d c4 cf 94 3c be 8f 34 3d
       -0.0032415828 0.05672068 0.018165477 0.044082396
0002d0 5d e3 46 bb e3 37 82 3d 67 4f 99 3d 73 c5 ad 3d
       -0.0030347921 0.06358316 0.07485848 0.08484926
0002e0 9a 45 b9 3d 21 21 2c bd 25 4f 81 ba 6b 90 b2 bb
       0.090464786 -0.04202378 -0.0009865506 -0.005449345
0002f0 81 b6 6f bd 6a 04 85 3b 2e e7 ac bd ea 8b 57 3d
       -0.05852366 0.004059364 -0.084425315 0.052623667
000300 cd d4 a5 3c 34 32 b9 39 83 0f ac 3d a5 31 52 3d
       0.020243073 0.00035323354 0.08401396 0.051316876
000310 4e f5 49 bd a1 64 bf 3b 66 aa 60 bd 5a 33 dc 3c
       -0.049306206 0.0058408533 -0.054850005 0.026879955
000320 02 05 04 3d 7d ba 95 3d d1 27 24 3c b8 86 65 bd
       0.03223134 0.073109604 0.010019259 -0.05603668
000330 d9 70 94 3d 40 b0 6e 3d 25 d9 bd bc f4 44 88 bd
       0.072480865 0.058273554 -0.023174832 -0.06653777
000340 a3 3e 82 bd fc 78 44 bd 03 8b 94 bc b8 a3 81 bd
       -0.06359603 -0.047966942 -0.018132692 -0.06330055
000350 42 b2 a5 3b 22 89 d0 3c f1 3a 41 bd 73 ee dd 3d
       0.0050566504 0.025456015 -0.04717535 0.10836496
000360 a3 fa cc 3d 9c 5d 8b 3c 70 8d 68 3d af f3 bc bc
       0.10008743 0.01701241 0.05677551 -0.023065416
000370 91 50 ae bd 79 c0 67 bc 33 ff 15 3a 15 17 29 bd
       -0.085114606 -0.01414501 0.00057219266 -0.04128178
000380 66 d1 32 3d 8f a5 23 bd 9f 32 9a 3d cc 58 7e 3d
       0.04365673 -0.03995281 0.075291865 0.062096402
000390 5b 29 96 bd b7 77 17 3c f4 b4 cf 3c 68 95 36 bc
       -0.07332107 0.009244851 0.02535484 -0.01114402
0003a0 ff 64 af 3d 54 01 82 bd 41 18 06 bc 62 13 f6 3c
       0.08564185 -0.063479096 -0.0081844935 0.03003854
0003b0 77 d5 5c 3d 57 f0 48 bd 37 74 bb 3d 1c 3b 6c 3d
       0.053914513 -0.04905733 0.091530256 0.05767356
0003c0 d7 f9 b5 bc 9a fe 1e bd 90 61 16 3d fb 0a 40 bd
       -0.02221386 -0.038817026 0.036714137 -0.04688547
0003d0 60 c8 1a bd 6a dc 41 bd b2 95 bd 3a 44 74 ae bc
       -0.03778875 -0.047329344 0.0014464168 -0.021295674
0003e0 8b 50 95 bc 01 d4 b6 bc 35 31 2e bc 03 fb 35 3d
       -0.018226882 -0.022317888 -0.010631849 0.044428837
0003f0 1a a2 2a 3c d9 c7 eb bc cc 2e 8f 3d 4f 3f 65 bd
       0.010414625 -0.028781818 0.06991348 -0.05596858

bias f4 [64]
000000 cf b9 fa 3d a2 2c 41 3e 5d d6 37 bd b6 9c e9 3d
       0.122424714 0.18864682 -0.044882167 0.11406843
000010 8a 42 b6 3c 35 bc ae bd bb 28 c5 bb 4c fe a0 bc
       0.022248525 -0.085319914 -0.0060168183 -0.019652508
000020 ad 74 07 3c ff fd 35 bd 9b 1f a9 3d 8d f2 07 bd
       0.008267564 -0.044431683 0.082579814 -0.0331903
000030 06 fe 49 bc a4 cb 39 3d 29 40 3c 3b 54 7f ce bc
       -0.01232863 0.045360222 0.0028724766 -0.0252072
000040 0c 78 c6 bc 4e 75 d9 bb 91 ac e8 3d 34 1e 09 3d
       -0.024227165 -0.0066362983 0.113610394 0.03347607
000050 e7 24 26 3d 49 27 7b bd c9 8d 6f bd dd 9e b6 3a
       0.040562537 -0.061316762 -0.058484826 0.0013932843
000060 95 aa d8 bc 13 e7 b2 3c b4 36 e1 3d fa 04 d2 3b
       -0.026448527 0.0218387 0.10996762 0.0064092847
000070 4e 52 90 bd c5 03 d0 3c fd 85 f8 3c f6 e1 da bc
       -0.070469484 0.025392422 0.030337328 -0.026719075
000080 d1 48 07 bd d2 6c 22 bd ea ce 93 bc a9 d7 b8 bc
       -0.033028428 -0.03965456 -0.018043 -0.022563772
000090 47 ef 97 bd 9a 72 82 bd b4 5b 19 3e 88 91 60 bd
       -0.074186854 -0.06369515 0.14976388 -0.05482629
0000a0 13 62 45 bc 2b cc df 3b 4b 6d 31 3e 25 75 ad bd
       -0.0120473085 0.0068297586 0.17326848 -0.08469609
0000b0 bb f5 ab ba fd 57 19 bd 20 92 30 3e de 3e 1c 3c
       -0.0013119498 -0.037437428 0.17243242 0.009536473
0000c0 18 83 52 3e a9 87 93 3d c5 41 30 bd 13 d9 09 bc
       0.20557821 0.072036095 -0.043031473 -0.008413571
0000d0 b5 43 26 3e 88 98 19 3e 77 04 7d bc f8 63 48 bd
       0.16236766 0.14999592 -0.015442959 -0.048923463
0000e0 64 86 3d bd 25 88 00 3d 2d 4e e6 3c a9 35 e2 bc
       -0.046270743 0.031379838 0.028113449 -0.027613478
0000f0 35 f1 c7 3d 36 33 3b 3e 19 6c 5e 3e 52 89 10 3d
       0.097628035 0.18281254 0.21720923 0.03528721

weight f4 [2, 64]
000000 d4 b6 5f 3e 43 ec 73 3e b0 3c 3c bd 53 47 31 3e
       0.21847087 0.23820595 -0.045956314 0.17312364
000010 bf 6e 9b 3d d0 55 03 bd 51 88 49 bd f0 8b b1 3c
       0.075894825 -0.03206426 -0.049202267 0.021673173
000020 41 c6 c0 bd fc ca c6 bd ad 8a 76 3e d3 fe cf bd
       -0.09412814 -0.09706685 0.24076338 -0.10156026
000030 92 f5 f3 ba e8 da 80 3c a2 07 c9 bd ac 5c cf bd
       -0.0018612614 0.015729383 -0.09815909 -0.10125098
000040 6e 1f 66 bd 80 1d 88 bd 5a 54 39 3d ce bf a6 bd
       -0.056182317 -0.06646252 0.04524646 -0.081420526
000050 a1 8c 5b 3c db 85 59 3d d3 ac 9e bd 8c ba 37 3e
       0.013400228 0.05310617 -0.07747807 0.17942256
000060 2c 1b f8 3d 92 92 7f 3d a2 6a 21 3e 79 e5 49 bc
       0.121145576 0.06239564 0.15763333 -0.012322777
000070 d1 86 f0 bd 32 0c 0c 3d 8e 8d c4 bc f2 bc 9f 3d
       -0.11744464 0.034191318 -0.02399328 0.0779971
000080 b3 ca e3 3d 8c 82 47 3a 25 de 7f bd 78 5d 35 bc
       0.11122646 0.00076107006 -0.062467713 -0.011069648
000090 14 c0 ae bd 09 b4 d0 bd 1a 8f 44 3e 77 5a bd 3b
       -0.0853273 -0.10190589 0.19195214 0.0057786065
0000a0 1e 21 ba 3c 7d 42 0f bb bb fe 50 3e 1a a2 c5 3d
       0.02272087 -0.0021859698 0.20409672 0.09650059
0000b0 41 65 18 bd ce 08 00 3b 5c 78 6b 3e 54 1d 28 bd
       -0.03720594 0.0019536498 0.22995132 -0.041043594
0000c0 e1 e4 82 3e 02 29 28 3e d9 b6 00 3e 3d c5 51 3d
       0.25565246 0.16421893 0.12569751 0.05121349
0000d0 09 73 5d 3e a8 41 45 3e 61 bb 17 3b 92 92 db bd
       0.21625914 0.19263327 0.0023152458 -0.107213154
0000e0 0e 21 1b bd 60 13 8b bd 57 62 f0 3d a6 50 c5 3d
       -0.03787332 -0.06790805 0.11737507 0.09634523
0000f0 cc 26 c7 3d 2c 39 51 3e 03 15 8f 3e 7b 74 80 3c
       0.09724197 0.20431966 0.27945718 0.015680542
000100 fe 67 1b be b6 8a d0 bd ba 7a b6 3c f8 af 54 3c
       -0.15176389 -0.10182707 0.022275317 0.012981407
000110 06 29 95 3d c7 c6 db 3d de 2b 83 3d c1 aa c5 3d
       0.07283215 0.10731273 0.064048514 0.09651709
000120 34 0f 8e bc 21 b9 7c 3c 3b f3 d8 bd 40 83 f1 3d
       -0.017341234 0.015424998 -0.105932675 0.11792612
000130 34 c8 27 bd 8c f9 ac 3c 6f f5 9b bd d4 6a cd bd
       -0.040962413 0.021115087 -0.07615172 -0.100301415
000140 80 1d 36 3d 59 6a aa bd d9 47 3a be 33 67 ae 3c
       0.044461727 -0.083210655 -0.1819147 0.021289444
000150 c6 fc bb 3c d0 e0 53 bb 8e 63 ff bd 90 23 78 bd
       0.02294768 -0.0032330044 -0.124701604 -0.06058079
000160 35 c1 ff bd 73 9b e5 bc 11 79 58 be db c7 d1 bd
       -0.12488023 -0.028028226 -0.21139933 -0.102431975
000170 45 39 e0 bd 43 19 33 be 67 b2 b1 bd 51 69 a7 3d
       -0.10948423 -0.17490105 -0.08676606 0.081743844
000180 c2 96 1a bd 16 de 53 3d a2 8e b7 3d 5f 35 e3 3d
       -0.03774143 0.05172547 0.08962752 0.11094164
000190 e0 96 22 3d df 31 8f 3d d5 43 e2 bd ff 4e c6 bc
       0.039694667 0.06991934 -0.11048094 -0.02420759
0001a0 e9 05 ba 3d 99 84 25 3d 19 3e 38 be 3e 5b 84 3d
       0.090831585 0.040409658 -0.17992438 0.064627156
0001b0 46 cb be 3d 12 4b 0c 3d f8 50 02 be 3d 3a e7 bc
       0.09316115 0.03425128 -0.127262 -0.028226012
0001c0 b9 a9 0e be 86 c2 e7 bd 92 56 e3 bd 97 7f f8 3d
       -0.13931932 -0.11316399 -0.11100496 0.12133711
0001d0 41 ee 73 be e7 8b 20 be 12 21 a2 bc 70 1a 1f 3d
       -0.23821355 -0.15678369 -0.01979116 0.038843572
0001e0 2e 3b 3f bd ad 44 27 be 60 54 03 be 1e 8d 20 3d
       -0.046687298 -0.16334791 -0.12825155 0.03919708
0001f0 ad d6 2d be 55 58 65 be 1e 14 19 be 00 31 a0 bd
       -0.16976424 -0.22396977 -0.1494908 -0.07821846

bias f4 [2]
000000 d2 66 5c 3f ca 63 43 bf
       0.8609439 -0.7632414
