AutoBalance/results/tvarit_wheel/New_Experiments/test_big_data/dyly_LA_init/1/retrain/epoch_450.pth (torch, 236367 bytes, 8 tensors)

weight f4 [256, 64]
0	0xbdb7261e	-0.08942817
1	0x3d9f250a	0.077707365
2	0xbd0aefb6	-0.033920012
3	0xbdb2f58d	-0.08738241
4	0xbdb22c0a	-0.08699806
5	0x3d48c5c0	0.049016714
6	0xbdebc86a	-0.11512835
7	0x3d29058c	0.041265056
8	0xbc828628	-0.015933111
9	0x3dd3a91c	0.103349894
10	0x3de2893a	0.1106133
11	0x3ba24384	0.004951896
12	0xbd9414e0	-0.07230544
13	0x3da32c9a	0.079674914
14	0x3cfdd89a	0.030987073
15	0xbc2356a0	-0.0099693835
16	0x3dfa93e6	0.12235241
17	0xbba050a0	-0.0048924237
18	0xbd22f708	-0.03978637
19	0x3c918422	0.017763201
20	0x3dce72ce	0.10080491
21	0xbdd0022d	-0.10156665
22	0xbdae0666	-0.08497314
23	0xbca7e702	-0.020495895
24	0xbdc856c6	-0.09782176
25	0x3ddb58d2	0.107103005
26	0x3dbdb77e	0.09263514
27	0x3de5d8b6	0.11222975
28	0x3d94370c	0.07237062
29	0x3dac8a66	0.08424835
30	0xbde618fe	-0.11235236
31	0x3dca5cdf	0.09880995
32	0xbdb587ab	-0.08863767
33	0xbceef228	-0.029168203
34	0xbd4a68b0	-0.049416244
35	0xbd6403c7	-0.055667665
36	0x3d86651e	0.06562255
37	0x3d6b7473	0.0574841
38	0xbd90c070	-0.070679545
39	0xbdd5b009	-0.10433967
40	0x3d00ac1f	0.031414147
41	0x3da7ac98	0.081872165
42	0x3d03b870	0.032158315
43	0xbcd87bd0	-0.026426226
44	0xbd44f718	-0.04808721
45	0x3a8175fb	0.000987708
46	0x3d4e90c8	0.050431043
47	0x3d33089c	0.043709382
48	0xbde0d88f	-0.10978805
49	0xbd6e0862	-0.058113463
50	0x3cca5b61	0.024701776
51	0x3bed59dc	0.007243378
52	0xbdebcb62	-0.115134016
53	0x3d867fba	0.06567331
54	0x3b152179	0.0022755547
55	0xbd6394da	-0.055561878
56	0xbdd394f4	-0.10331145
57	0xbd064336	-0.03277894
58	0x3cd0ae9f	0.02547389
59	0xbd62a91a	-0.05533705
60	0xbdc36452	-0.09540619
61	0xbdd92bbb	-0.10604044
62	0xbd2a9011	-0.0416413
63	0xbca99038	-0.020698652
64	0xbd0e2e59	-0.03471217
65	0x3c8b346a	0.016992766
66	0xbdb90581	-0.09034253
67	0x3dbab24b	0.09116038
68	0x3da7741a	0.081764415
69	0xbdd41fc1	-0.10357619
70	0x3d980454	0.074227005
71	0x3dc56dcc	0.09640083
72	0xbd5379d4	-0.051629856
73	0x3d340a93	0.043955397
74	0x3bb06bbc	0.0053839367
75	0xbd084909	-0.033272777
76	0xbdb0f7a0	-0.08640981
77	0xbdad551f	-0.08463501
78	0xbb2366f3	-0.0024933189
79	0xbc1a80dc	-0.0094301365
80	0xbd8015a1	-0.062541254
81	0xbd647712	-0.055777617
82	0xbdd72a52	-0.10506119
83	0x3c8e4178	0.017365202
84	0xbd1d7cfc	-0.038449273
85	0xbda12bf5	-0.07869712
86	0xbda0cf52	-0.07852043
87	0xbdee291c	-0.11628935
88	0xbd0a6018	-0.03378305
89	0xbd5ce1df	-0.053926345
90	0xbcb10d4a	-0.021612782
91	0xbd83ef32	-0.06442107
92	0xbd0c9f60	-0.03433168
93	0x3d18ba41	0.037287
94	0xbc8745e5	-0.01651282
95	0x3ddd3f29	0.108030625
96	0x3d91030d	0.0708066
97	0x3df87322	0.12131335
98	0x3dbf4746	0.09339766
99	0x3d9a7883	0.07542517
100	0xbdc3e1be	-0.09564541
101	0x3da70aa9	0.0815633
102	0xbcca9ab8	-0.024731979
103	0xbd186744	-0.037207857
104	0xbd62b159	-0.055344913
105	0x3dab3047	0.083588175
106	0xbde5edc4	-0.11226991
107	0xbddc7f30	-0.107664466
108	0x3dd36de4	0.10323694
109	0xbc97ca26	-0.01852901
110	0x3da2c7da	0.07948275
111	0x3d73bb81	0.05950499
112	0xbe0a53da	-0.1350855
113	0x3d711697	0.058859434
114	0xbd861b10	-0.065481305
115	0x3dbef8ef	0.09324824
116	0x3db38223	0.08765056
117	0xbcbf0c3e	-0.023321267
118	0x3da6fe76	0.08154003
119	0x3d1580c0	0.03649974
120	0x3cad4be8	0.021154359
121	0xbd31cf93	-0.04341085
122	0xbc263dd1	-0.010146574
123	0xbb300f5c	-0.0026864624
124	0xbcbb4162	-0.022858325
125	0xbbc600d2	-0.0060425783
126	0xbd9766f7	-0.07392686
127	0xbd134714	-0.035956457
128	0x3df943ee	0.1217116
129	0x3d680119	0.05664167
130	0x3be72d61	0.00705497
131	0x3cccb4de	0.024988588
132	0x3d87b6b6	0.06626646
133	0xbd98fcb1	-0.07470072
134	0xbde763c6	-0.11298327
135	0xbdaecd11	-0.08535207
136	0x3c3a1cf0	0.011359438
137	0xbdc95f98	-0.09832686
138	0x3df43252	0.1192366
139	0x3da097b8	0.07841438
140	0xbd0e867c	-0.034796223
141	0x3de4aba2	0.11165549
142	0x3d5c5170	0.053788602
143	0x3d497e10	0.04919249
144	0xbdb285fb	-0.08716961
145	0x3de16b90	0.11006844
146	0x3d9d3a90	0.076771855
147	0xbd9d4db6	-0.07680838
148	0x3c592690	0.013253823
149	0xbdb33cdc	-0.087518424
150	0x3d365f31	0.044524375
151	0xbdbefc7e	-0.09325503
152	0xbd637e60	-0.055540442
153	0x3d101fec	0.035186693
154	0xbdf481a8	-0.119387925
155	0xbda8836d	-0.082281925
156	0xbd4aef98	-0.0495449
157	0x3df95cb2	0.12175883
158	0x3d8bf4d0	0.06833804
159	0xbba739b5	-0.0051033148
160	0xbc85d9e8	-0.016339257
161	0x3dbe9d0d	0.09307299
162	0xbd2c1884	-0.042015567
163	0xbda0fa68	-0.07860261
164	0xbcf9e3b0	-0.030504078
165	0xbd697974	-0.057000592
166	0x3d129320	0.03578484
167	0x3d0608b7	0.032723155
168	0x3d22f152	0.039780922
169	0xbdd79fb5	-0.105285086
170	0x3d28ed14	0.04124172
171	0xbd5b4a7c	-0.05353783
172	0xbd69c354	-0.057071045
173	0x3a3ec7d6	0.00072777027
174	0x3de4f384	0.111792594
175	0x3bf2642d	0.007397196
176	0x3c637ee5	0.0138852345
177	0x3cf30a1a	0.029667903
178	0xbc986718	-0.018603846
179	0x3ddc41d9	0.10754747
180	0xbd399783	-0.04531051
181	0xbca39a10	-0.019970924
182	0x3dd8abb0	0.10579622
183	0x3dcafe94	0.09911838
184	0xbd856bb0	-0.065146804
185	0xbd25eae7	-0.040507223
186	0x3c3613fe	0.011113165
187	0x3c839744	0.01606334
188	0x3d38684b	0.045021337
189	0x3d8b8a56	0.06813495
190	0xbdfa0951	-0.12208808
191	0x3d9a7248	0.07541329
192	0xbdfddacb	-0.12395247
193	0x3dbbf12a	0.09176858
194	0xbded13f0	-0.115760684
195	0xbdb493e2	-0.08817269
196	0xbbc2e554	-0.005947748
197	0xbdaedca3	-0.08538177
198	0x3d866328	0.06561881
199	0x3d510700	0.051032066
200	0x3d7b56a0	0.06136191
201	0x3dd3aa23	0.103351854
202	0x3d9a7d09	0.0754338
203	0xbbb9c4a2	-0.0056691924
204	0xbd283fb5	-0.04107638
205	0x3d6722d8	0.056429714
206	0x3de6ad3a	0.11263509
207	0x3dc2f2c4	0.0951896
208	0xbaac8100	-0.0013161004
209	0xbde67490	-0.11252701
210	0x3dc85baa	0.097831085
211	0x3d7d282b	0.061805885
212	0xbd6d8498	-0.05798778
213	0xbd92a5f4	-0.07160559
214	0x3d0f644c	0.03500776
215	0xbcc051d5	-0.02347652
216	0xbc03c790	-0.008043185
217	0x3dde7502	0.10862161
218	0xbcee758d	-0.029108787
219	0xbdcd8fc6	-0.10037188
220	0xbd057aa4	-0.032587662
221	0x3df73af0	0.12071788
222	0xbdb762fa	-0.08954425
223	0xbda8fbfb	-0.082511865
224	0xbd79e254	-0.06100686
225	0xbda1042f	-0.07862126
226	0xbbf15a10	-0.0073654726
227	0xbdf9f6e5	-0.122052945
228	0xbd82e43e	-0.0639119
229	0x3ca3c891	0.019993098
230	0x3d1c6a5c	0.03818737
231	0xbc435a3d	-0.01192337
232	0x3df6133f	0.1201539
233	0x3d379f63	0.044829737
234	0xbda81468	-0.08207017
235	0x3deb0ac8	0.11476666
236	0xbdc9b294	-0.09848514
237	0xbadc3578	-0.0016800603
238	0xbdd52f14	-0.1040937
239	0xbdf622af	-0.12018334
240	0x3db0d558	0.08634442
241	0xbdb163e4	-0.08661631
242	0x3d499f34	0.049224094
243	0x3d3359cd	0.043786813
244	0xbdd63388	-0.104590476
245	0x3d2eb29a	0.042650796
246	0x3d7e697d	0.06211232
247	0x3cc55ed8	0.024093077
248	0x3c49d970	0.012319908
249	0xbdd4243e	-0.10358475
250	0xbd143de0	-0.03619182
251	0x3dd8f199	0.10592956
252	0xbce26b6d	-0.027639115
253	0xbd32689a	-0.043556787
254	0xbd6e21b4	-0.05813761
255	0xbded1542	-0.1157632

bias f4 [256]
0	0xbdc3e58f	-0.09565269
1	0x3d230236	0.03979703
2	0xbafecfed	-0.0019440629
3	0x3d4a16b8	0.049338073
4	0xbd8ae625	-0.06782178
5	0x3de1bd71	0.11022461
6	0x3de69fea	0.1126097
7	0xbd790f7e	-0.06080579
8	0xbd5b3428	-0.053516537
9	0xbabbbb60	-0.001432281
10	0x3d2652d6	0.040606342
11	0xbd9c923d	-0.0764508
12	0x3cf1d344	0.029519685
13	0xbd4356e6	-0.047690295
14	0x3d64809f	0.055786725
15	0x3ceda800	0.029010773
16	0x3d9de30a	0.0770932
17	0x3dabb00f	0.0838319
18	0xbdeb7ec6	-0.114987895
19	0xbd8495d8	-0.06473893
20	0x3cd8e849	0.02647795
21	0xbd8e879d	-0.0695946
22	0xbd97761a	-0.07395573
23	0x3c899428	0.01679428
24	0x3d918bad	0.07106719
25	0x3e0691c4	0.13141543
26	0x3d0ee1c2	0.03488327
27	0xbdc05396	-0.09390943
28	0xbca63b8b	-0.020292064
29	0x3bbba0f0	0.0057259724
30	0xbdf3268c	-0.118725866
31	0x3d574c1c	0.052562818
32	0x3df59a07	0.11992269
33	0xbd1f19b8	-0.038842887
34	0xbd14fc41	-0.03637338
35	0x3bb5a940	0.005543858
36	0x3df76e90	0.12081635
37	0xbd7c1e64	-0.06155242
38	0x3d521831	0.051292602
39	0x3df02384	0.11725524
40	0x3c125330	0.008930966
41	0xbdf4d667	-0.119549565
42	0x3d620b8b	0.05518679
43	0x3d0992c6	0.03358724
44	0x3d85fbfd	0.065422036
45	0x3c9a26c7	0.018817319
46	0xbd564d3b	-0.052319746
47	0x3c9caaab	0.01912435
48	0xbd84c2a8	-0.0648244
49	0x3be2845e	0.006912752
50	0xbd087a92	-0.033320017
51	0x3d877dd5	0.066157974
52	0x3c7404e7	0.014893747
53	0xbcb01b95	-0.021497527
54	0xbd323d57	-0.04351553
55	0xbd954c12	-0.072899
56	0xbdd59347	-0.104284815
57	0x3dbd7ed1	0.09252704
58	0xbd93a433	-0.07209053
59	0x3d86dc47	0.06584983
60	0x3d2d17a7	0.042258885
61	0xbd581518	-0.05275449
62	0x3cecd200	0.02890873
63	0x3cf40099	0.029785441
64	0xbc8e8d80	-0.017401457
65	0x3db78ca5	0.08962373
66	0x3d0db838	0.034599513
67	0xbdea4de7	-0.1144064
68	0xbc507410	-0.012722984
69	0xbdf21e02	-0.1182213
70	0xbdf3f294	-0.119115025
71	0x3c45db5a	0.012076223
72	0xbc9c3142	-0.019066457
73	0xbd882320	-0.066473246
74	0xbdaf29f4	-0.08552924
75	0xbc406624	-0.011743102
76	0xbd98aa2d	-0.074543335
77	0x3dd39ace	0.10332261
78	0xbd093bf8	-0.033504456
79	0x3c0fff34	0.0087888725
80	0x3dc8acf2	0.09798612
81	0xbdb33e0c	-0.08752069
82	0xbc194d67	-0.009356833
83	0xbd882500	-0.06647682
84	0xbcd53a6c	-0.026028834
85	0xbdd944b1	-0.10608805
86	0x3ce98b7c	0.028508894
87	0x3da8828c	0.08228025
88	0xbd77a6de	-0.06046187
89	0x3bc576ef	0.006026141
90	0x3da4b1bf	0.08041715
91	0xbda8711e	-0.082247004
92	0x3dae1d04	0.08501628
93	0x3d155bbb	0.036464434
94	0xbddc024a	-0.10742624
95	0xbde28498	-0.110604465
96	0x3de35d47	0.111017756
97	0x3dd462f5	0.10370437
98	0xbd913ba8	-0.07091457
99	0xbd2092e8	-0.0392026
100	0x3dd56654	0.10419908
101	0x3d9d7d1c	0.07689878
102	0xbc010adc	-0.007876124
103	0xbde2137c	-0.110388726
104	0xbdcad50a	-0.09903915
105	0x3c9a38eb	0.018825969
106	0x3e06b6bb	0.13155644
107	0xbdfdfb3e	-0.12401436
108	0x3dc45e76	0.095883295
109	0x3da49f9d	0.08038256
110	0x3a8ec44b	0.001089224
111	0x3d68172a	0.056662716
112	0x3d732330	0.05935973
113	0xbd96eb16	-0.07369058
114	0x3db6873b	0.08912512
115	0x3e09340a	0.13398758
116	0xbd62baa4	-0.055353776
117	0x3c6ae663	0.014337155
118	0xbdfc0da1	-0.12307287
119	0xbcafd1eb	-0.021462401
120	0xbda803e6	-0.082038686
121	0xbddfc248	-0.10925728
122	0xbcf3a52d	-0.029741848
123	0x3c9a4c14	0.018835105
124	0xbd58763e	-0.05284714
125	0xbd8fa2f7	-0.07013505
126	0xbb466c60	-0.0030277
127	0xbdcb69f6	-0.0993232
128	0xbba1ddfe	-0.0049397936
129	0xbd8e14b0	-0.069375396
130	0x3dae5703	0.0851269
131	0xbdc5f1e6	-0.09665279
132	0x3da8bf88	0.08239657
133	0x3df7590c	0.12077531
134	0x3dbbac73	0.091637515
135	0xbdc1829e	-0.094487414
136	0xbdcd5849	-0.10026605
137	0xbdc0cabf	-0.09413671
138	0xbcf2cc48	-0.029638425
139	0xbddd9552	-0.10819496
140	0x3d782ba2	0.060588486
141	0x3dab28fb	0.08357426
142	0xbd9b2c6a	-0.07576831
143	0x3cb6df5c	0.022323303
144	0xbdcca122	-0.09991671
145	0x3d23905f	0.039932605
146	0xbd88cb89	-0.06679446
147	0xbdc33773	-0.095320605
148	0x3da840c4	0.08215478
149	0x3df159da	0.11784716
150	0x3c6af263	0.014340016
151	0xbdb840f2	-0.08996762
152	0xbd2c1318	-0.042010397
153	0xbd732300	-0.05935955
154	0xbd0c4986	-0.034249805
155	0xbd984f35	-0.074369825
156	0xbdab10b5	-0.08352796
157	0xbdc33f6c	-0.09533581
158	0x3c3430a6	0.010997927
159	0x3d094c91	0.033520285
160	0xbcd8f7d0	-0.026485354
161	0xbd267b1b	-0.040644746
162	0x3dad0e56	0.0845
163	0x3e0f9d7b	0.14024918
164	0xbd1a1925	-0.037621636
165	0x3dfb45a2	0.12269141
166	0xbdb6db93	-0.08928599
167	0xbd2f6efc	-0.042830452
168	0x3dfa60d6	0.12225501
169	0x3d8bf891	0.0683452
170	0x3db5f460	0.088845015
171	0x3d4296fd	0.047507275
172	0x3db4ecd6	0.08834235
173	0x3db29f41	0.087217815
174	0xbdee61d0	-0.1163975
175	0xbd0a6f32	-0.03379745
176	0xbc3c961e	-0.0115104
177	0x3daaec2f	0.0834583
178	0xbcb77f84	-0.022399671
179	0x3dfed60d	0.12443171
180	0xbda7d2ac	-0.08194479
181	0xbc8c744e	-0.017145302
182	0xbda3f76c	-0.08006176
183	0xbdef372e	-0.116804466
184	0xbad049bf	-0.0015891119
185	0xbc9fd892	-0.019512448
186	0x3da1eddb	0.079066955
187	0xbcaa5f01	-0.020797255
188	0x3d69f1ad	0.057115246
189	0x3db1ca4d	0.08681164
190	0x3dc79403	0.09745028
191	0xbd751dd1	-0.05984289
192	0x3deba417	0.11505907
193	0xbc84c91e	-0.016209181
194	0xbba716d2	-0.005099156
195	0xbdd1e86a	-0.102494076
196	0x3ce1ad00	0.027548313
197	0xbcd2ef0d	-0.025748754
198	0xbbce6bfd	-0.0062994943
199	0xbcafce42	-0.021460656
200	0xbb98ef14	-0.004667172
201	0xbc37e931	-0.011225031
202	0x3c2a2215	0.010384102
203	0xbd57a536	-0.05264779
204	0x3d4ee480	0.050510883
205	0x3c832a76	0.016011458
206	0xbd1ab9ec	-0.037774965
207	0x3cb49dce	0.022047903
208	0xbcfdcabb	-0.030980458
209	0x3dcbe515	0.09955803
210	0xbd9b5754	-0.07585016
211	0x3b9d7c2c	0.004806062
212	0xbcc655d0	-0.02421084
213	0xbd2e80a1	-0.04260314
214	0x3da59631	0.08085287
215	0xbda7265a	-0.08161612
216	0x3caa3c73	0.020780778
217	0xbb34b013	-0.0027570769
218	0x3bf8b29a	0.0075896503
219	0xbddf7699	-0.109112926
220	0x3de44bb7	0.11147254
221	0xbd46616f	-0.048432764
222	0xbd591e88	-0.053007632
223	0x3d980e7f	0.0742464
224	0x3da64330	0.08118284
225	0x3a78e2c1	0.0009494238
226	0xbdbbba70	-0.091664195
227	0xbcfe256f	-0.03102371
228	0x3db33e0c	0.08752069
229	0x3d630e08	0.055433303
230	0x3de7c8d7	0.11317604
231	0xbc4debd6	-0.012568435
232	0xbc3cc2ff	-0.0115211
233	0x3bdd28c3	0.006749244
234	0xbdfe7e35	-0.12426416
235	0xbd803433	-0.06259956
236	0x3d7d4d2a	0.061841168
237	0x3bc9d89e	0.006159856
238	0x3ce0e4de	0.027452882
239	0x3d8ee5a8	0.06977397
240	0xbd3b3fba	-0.04571507
241	0xbd4337da	-0.047660686
242	0xbdd59248	-0.104282916
243	0x3c1c5642	0.00954205
244	0xbcd42978	-0.02589868
245	0xbdf3f492	-0.119118825
246	0xbded2193	-0.115786694
247	0xbd26238b	-0.04056124
248	0xbdd63637	-0.104595594
249	0x3df05fc9	0.117370196
250	0x3d8c9178	0.068636835
251	0xbde48104	-0.1115742
252	0xbcb125e5	-0.021624515
253	0xbdfc851d	-0.12330077
254	0x3dbc69ab	0.09199842
255	0xbd2973c0	-0.041370153

weight f4 [128, 256]
0	0xbcc655f0	-0.0242109
1	0xbc7b3997	-0.015333555
2	0x3d6377ef	0.0555343
3	0xbd1cba7f	-0.038263794
4	0x3d2bb093	0.04191644
5	0xbbd1cc4d	-0.0064025284
6	0x3ca7f5ab	0.020502886
7	0xbd4aa2e8	-0.049471766
8	0x3d1d00fa	0.03833101
9	0x3d63b294	0.055590227
10	0xbd0c3ae2	-0.034235843
11	0x3d47dde0	0.04879558
12	0xbca75334	-0.020425417
13	0xbd30bc82	-0.043148525
14	0x3d2cbcc5	0.042172212
15	0x3d7f8f3e	0.062392466
16	0x3c3c88dc	0.011507239
17	0x3c70eedd	0.014705387
18	0x3d42e76e	0.04758399
19	0xbc4709fc	-0.012148377
20	0xbc57c013	-0.013168353
21	0x3d14c1d2	0.036317654
22	0xbd472354	-0.048617676
23	0x3d75a27a	0.059969403
24	0xbc6cbba5	-0.014449035
25	0x3c90a3e3	0.017656272
26	0x3d086db8	0.03330776
27	0x3b02307c	0.0019865325
28	0x3d7dbb63	0.061946284
29	0x3d312e9a	0.043257333
30	0xbd16270a	-0.036658324
31	0xbc1abc03	-0.00944424
32	0xbd066ee9	-0.032820616
33	0xbc26d905	-0.010183577
34	0x3d2d1054	0.0422519
35	0x3d4a313d	0.049363364
36	0xbcd7e809	-0.02635576
37	0xbc0173d0	-0.007901147
38	0xbc5e10cd	-0.01355381
39	0xbcfd7be5	-0.030942867
40	0xbd4a265d	-0.049352992
41	0x3d53dba0	0.051723123
42	0x3b73e893	0.0037217482
43	0x3d43aebe	0.04777407
44	0x3c38b226	0.011272943
45	0xbce093c3	-0.027414208
46	0xbc9d7ca7	-0.019224478
47	0x3ca66a22	0.02031428
48	0x3ce51a38	0.027966604
49	0x3d2074f3	0.03917403
50	0xbd69a67e	-0.057043545
51	0xbcb5c094	-0.022186555
52	0x3d252e0e	0.040327124
53	0xbbf465fe	-0.0074584475
54	0x3bf81c9c	0.00757177
55	0xbcd2efcc	-0.02574911
56	0xbc3f22b9	-0.011665993
57	0x3cf4529c	0.029824547
58	0xbd33671c	-0.043799505
59	0x3d3f8ae4	0.046763316
60	0xbc160cda	-0.0091583375
61	0x3d5c52b2	0.053789802
62	0x3d4eaffc	0.0504608
63	0xbd4b63b4	-0.04965563
64	0x3c87e980	0.016590834
65	0x3b80caf0	0.003930442
66	0x3ce4f6dc	0.027949743
67	0xbca94e7f	-0.020667313
68	0x3b494636	0.0030712015
69	0x3c92decc	0.017928503
70	0x3d6a2b0c	0.05716996
71	0xbd29cf9a	-0.04145775
72	0xbcf89037	-0.030342204
73	0xbd636acc	-0.05552177
74	0x3b8a2754	0.004216114
75	0xbd530638	-0.051519603
76	0xbca0bd11	-0.019621404
77	0x3d78f11c	0.060776815
78	0x3d60ac8a	0.054852046
79	0xbbc8ab66	-0.006123948
80	0xbd18e631	-0.037328903
81	0x3d3e3a9e	0.04644262
82	0x3d5a07ad	0.053229976
83	0xbd30289c	-0.043007478
84	0x3a5b7392	0.00083714083
85	0xbd4732f6	-0.048632585
86	0xbb9be3d1	-0.0047573824
87	0xbbb50177	-0.0055238563
88	0x3d7678be	0.060173742
89	0x3c989d9a	0.018629838
90	0xbd3693a5	-0.0445744
91	0x3d2f1f5e	0.042754523
92	0x3c8da990	0.017292768
93	0x3d4779d3	0.048700165
94	0x3c506710	0.0127198845
95	0x3d6cf05e	0.05784642
96	0xbcc2cc38	-0.02377902
97	0x3cd64b0c	0.026158832
98	0x3d7bb7db	0.061454635
99	0xbd325248	-0.0435355
100	0x3d622ca4	0.055218354
101	0xbcb4ae79	-0.022055851
102	0xbc71a5f6	-0.014749041
103	0x3beb28b0	0.007176481
104	0xbca10954	-0.019657768
105	0x3cbe9e12	0.023268733
106	0x3d5e54e8	0.05428019
107	0xbd36c600	-0.04462242
108	0x3ca6c590	0.020357877
109	0xbd66f085	-0.05638172
110	0xbc492793	-0.012277502
111	0x3d764b40	0.060130358
112	0x3b0ff2ed	0.0021964863
113	0x3a24ffb1	0.00062942045
114	0xbb8a6144	-0.0042230207
115	0xbd3c7417	-0.04600915
116	0x3ce46915	0.027882138
117	0xbcc61ceb	-0.024183711
118	0xbd6f1404	-0.058368698
119	0xbc221326	-0.009892261
120	0xbc456418	-0.01204779
121	0x3cdc7efa	0.026916016
122	0xbcc163c7	-0.023607148
123	0xbcb817b8	-0.022472247
124	0x3ca02895	0.019550601
125	0x3d72d829	0.059288178
126	0xbd7de4ef	-0.061985906
127	0x3d2dd578	0.042439908
128	0xbcc49108	-0.023994938
129	0x3d288bde	0.041149013
130	0xbcac5dc1	-0.0210408
131	0x3c7830e0	0.015148371
132	0x3d64b619	0.055837724
133	0x3c627eb4	0.013824154
134	0xbd05fd77	-0.032712426
135	0xbd2aa188	-0.041657954
136	0xbc83a20d	-0.016068483
137	0x3a72c3df	0.00092607545
138	0x3c4deb86	0.01256836
139	0xbbf730d3	-0.007543662
140	0x3d1652ad	0.03669994
141	0xbb817f31	-0.00395193
142	0xbbc870a2	-0.0061169425
143	0xbcc6caa3	-0.024266547
144	0xbd595646	-0.053060792
145	0xbc92337a	-0.017846812
146	0x3d255828	0.040367275
147	0x3d1c0765	0.03809299
148	0xbc12a571	-0.008950577
149	0xb9b61a89	-0.00034733515
150	0x3d244448	0.04010418
151	0xbd6d06ca	-0.057867803
152	0x3d5731d8	0.05253777
153	0xbcb0cd96	-0.021582406
154	0x3d269669	0.040670786
155	0xbccfdef4	-0.025374867
156	0x3cb37e9a	0.021910954
157	0x3d2b3c8b	0.041805785
158	0x3d44d19d	0.048051465
159	0x3ae89be9	0.001774666
160	0x3c8ff07c	0.017570727
161	0xbcd2a59a	-0.02571373
162	0x3d380076	0.044922315
163	0x3cd039b7	0.025418146
164	0xbd1b0cf0	-0.037854135
165	0xbbad3af1	-0.0052865674
166	0x3d11519a	0.035478212
167	0x3cd16d72	0.025564883
168	0x3ced4d31	0.028967472
169	0x3c9c9294	0.019112863
170	0x3d7c1028	0.061538845
171	0x3d4ba32b	0.049716156
172	0xbd40ca09	-0.047067676
173	0x3be4e7ac	0.0069856253
174	0x3c22c938	0.00993567
175	0xbd178171	-0.03698868
176	0x3cbe67f1	0.023242922
177	0x3d332941	0.043740515
178	0xbd44acca	-0.048016347
179	0xbbc40f26	-0.005983251
180	0xbd0af8ce	-0.033928685
181	0xbd1bd49a	-0.03804455
182	0x3d033909	0.032036815
183	0xbc610232	-0.013733434
184	0x3b89a3cc	0.0042004343
185	0xbd6637fd	-0.05620574
186	0x3d8403c9	0.064460345
187	0xbd769856	-0.060203873
188	0xbc6004b1	-0.0136729935
189	0x3c365b85	0.011130218
190	0x3d00d827	0.03145614
191	0x3cfae35d	0.030625993
192	0xbca816c1	-0.020518662
193	0x3ca4cd07	0.020117296
194	0x3c8799b0	0.016552776
195	0xbd496e9e	-0.04917776
196	0xbd4ad1ed	-0.049516607
197	0x3cc30d24	0.023809977
198	0x3d88078d	0.06642065
199	0xbaffcde6	-0.0019516319
200	0xbd35df19	-0.044402216
201	0xbc662ad7	-0.0140483
202	0x3b4fd37a	0.0031711743
203	0xbd2445e8	-0.04010573
204	0xbd1fc8e0	-0.03900993
205	0x3d013801	0.03154755
206	0x3d7d8edf	0.06190383
207	0xbb297521	-0.0025857168
208	0xbd265c3f	-0.040615316
209	0xbc44a082	-0.012001159
210	0x3d522ba6	0.051311158
211	0xbc05cbcc	-0.008166265
212	0xbb3bee20	-0.002867587
213	0xbd7bee0a	-0.06150631
214	0xbd1c9430	-0.03822726
215	0x3d477381	0.048694137
216	0x3c6a17a2	0.014287861
217	0x3d68f1b4	0.05687113
218	0x3d331b96	0.04372748
219	0xbd3e333a	-0.046435572
220	0x3d0dfbab	0.034663837
221	0x3c689014	0.014194507
222	0xbd1337f6	-0.03594204
223	0x3d6f9713	0.058493685
224	0xbd62ad5b	-0.055341106
225	0x3d6e3b4f	0.05816203
226	0xbd7faeca	-0.06242255
227	0x3d025718	0.03182134
228	0xbd651e88	-0.05593732
229	0xbbac1cc9	-0.005252455
230	0x3b459150	0.0030146427
231	0xbbb58d9b	-0.0055405623
232	0x3d4962d8	0.04916653
233	0x3cd6ed2a	0.026236136
234	0x3ce739ff	0.028225897
235	0x3d3a288d	0.04544883
236	0xbcc55e97	-0.024092956
237	0x3c828d17	0.015936418
238	0x3c16c414	0.009202022
239	0xbc8875dc	-0.016657762
240	0x3d2124ba	0.039341666
241	0xbd324771	-0.043525163
242	0x3d550e48	0.052015573
243	0x3d00b755	0.03142484
244	0x3d668cdc	0.056286678
245	0x3d0843f8	0.033267945
246	0xbd69b3cd	-0.057056237
247	0x3cb9534a	0.022622723
248	0x3be60273	0.007019335
249	0x3d1d57e8	0.038413912
250	0x3c811232	0.015755747
251	0xbd4dff5e	-0.050292365
252	0x3d6a279d	0.057166684
253	0xbd2c471b	-0.04206
254	0x3b8a06a9	0.0042122197
255	0x3d6f1df0	0.05837816

bias f4 [128]
0	0x3d83fdce	0.06444894
1	0xbd14a2f7	-0.036288228
2	0xbc1fa065	-0.009742831
3	0xbd7c7993	-0.06163938
4	0xbbf778b5	-0.007552231
5	0xbca1511e	-0.019692
6	0xbc9f704b	-0.019462725
7	0x3c91cf1e	0.017798956
8	0x3d9695ef	0.07352816
9	0xbbe36ca1	-0.00694044
10	0x3cfcc00e	0.030853298
11	0xbb819f83	-0.003955783
12	0xbab78146	-0.0014000318
13	0x3cf2e33f	0.029649375
14	0xbceebf6c	-0.029144011
15	0x3d02c5b9	0.031926844
16	0x3cb7dec9	0.0224451
17	0xbd714728	-0.05890575
18	0x3d79eab3	0.061014842
19	0x3cb60460	0.022218883
20	0x3d2fc4b0	0.042912185
21	0xbc926c37	-0.017873866
22	0x3d1ab3ce	0.03776913
23	0x3da516c5	0.080609836
24	0x3b1696a0	0.0022977963
25	0xbd506390	-0.0508762
26	0x3cec01e4	0.028809495
27	0xbc3e42ec	-0.011612635
28	0x3d230310	0.039797843
29	0x3a92bba5	0.0011194838
30	0xbd04bf11	-0.032408778
31	0xbcc85110	-0.024452716
32	0x3c88d314	0.016702212
33	0x3c61fcb6	0.013793161
34	0xbcccfd00	-0.025022984
35	0x3dbecab3	0.093160056
36	0x3d2f4a65	0.042795558
37	0xbbbc0563	-0.005737947
38	0xbd6e7118	-0.058213323
39	0x3c8cc24d	0.017182494
40	0xba8032bb	-0.0009780744
41	0xbd0318e0	-0.032006145
42	0xbc8a7c73	-0.016905045
43	0xbd2023e7	-0.03909674
44	0x3d579901	0.05263615
45	0xbbedeb8b	-0.007260745
46	0xbc7eebab	-0.015559117
47	0xbd1d47c7	-0.03839853
48	0xbc8f1a4f	-0.0174686
49	0x3d1218c4	0.03566815
50	0x3d566c20	0.05234921
51	0x3ca4c5d3	0.020113861
52	0xbc1c74e9	-0.009549358
53	0x3d5a9274	0.053362325
54	0x3c8f5404	0.017496116
55	0x3d30f2cb	0.043200295
56	0x3dac7db6	0.08422415
57	0x3ca16b8c	0.019704603
58	0x3b7ca193	0.0038548454
59	0x3d4fe478	0.050754994
60	0xbd464189	-0.048402343
61	0x3b9593a4	0.0045647193
62	0xbd3d1b3a	-0.046168543
63	0xbd197fed	-0.037475515
64	0x3c8b74af	0.017023413
65	0x3d7c394f	0.06157809
66	0x3d9c170e	0.07621585
67	0x3d665581	0.056233887
68	0x3d7d7f5c	0.061889037
69	0xbce24c85	-0.027624378
70	0x3c8e7d9e	0.017393883
71	0x3d05b403	0.032642376
72	0xbd6057c9	-0.05477122
73	0x3d06f66c	0.03294985
74	0xbd4fc20a	-0.05072216
75	0xbba0035c	-0.004883213
76	0xbc0a084d	-0.008424831
77	0xbd20b572	-0.03923554
78	0x3d08a364	0.033358946
79	0xbc345d6f	-0.011008604
80	0xbcd302ca	-0.025758166
81	0x3dab6bd4	0.08370176
82	0xbce54650	-0.02798763
83	0x3d36609a	0.04452572
84	0xbc9973e3	-0.018732017
85	0xbd6d577f	-0.05794477
86	0x3d1557af	0.036460575
87	0x3ca4dce0	0.020124853
88	0x3d8bb4f7	0.06821626
89	0x3d045e48	0.032316476
90	0xbd763a3c	-0.06011413
91	0xbbe2ccca	-0.0069213854
92	0x3cd9a3ab	0.0265673
93	0x3d8a344e	0.067482576
94	0x3cbf9f4f	0.023391394
95	0x3c62ecde	0.013850419
96	0xbc6b70bd	-0.014370141
97	0x3cc3ba12	0.023892436
98	0xbc8ec5bc	-0.017428271
99	0x3dce339e	0.10068439
100	0xbd2b4f8a	-0.0418239
101	0x3c83aaa1	0.016072573
102	0xbd51ab08	-0.0511885
103	0xbd5e6495	-0.05429514
104	0x3cc55fa4	0.024093457
105	0x3da2d044	0.0794988
106	0x3b17b16e	0.0023146528
107	0x3d208980	0.03919363
108	0x3c9d9c4a	0.019239563
109	0xbd55b5fd	-0.05217551
110	0x3d8784a5	0.06617097
111	0x3d826abe	0.06368016
112	0xbcdda2a3	-0.02705509
113	0xbc9985be	-0.018740531
114	0xbd4a3f76	-0.049376927
115	0xbca35249	-0.019936698
116	0x3d8dc559	0.06922407
117	0xbc74a610	-0.0149321705
118	0x3ca74947	0.020420684
119	0x3ceeab3d	0.029134387
120	0x3d3f4a81	0.04670191
121	0xbc6dffc6	-0.014526313
122	0xbd763deb	-0.060117643
123	0xbd06f013	-0.032943796
124	0x3d5968a3	0.053078305
125	0x3c8b708f	0.017021446
126	0x3c0f5e91	0.008750574
127	0x3d1ea1eb	0.038728636

weight f4 [64, 128]
0	0x3dde9b85	0.10869507
1	0xbcd8cc63	-0.026464647
2	0xbcaa9728	-0.02082403
3	0xbda257a4	-0.079268724
4	0xbd4ae895	-0.049538214
5	0x3c0fde87	0.008781082
6	0xbd460ca7	-0.04835191
7	0x3d5fcb19	0.05463705
8	0x3d9d22db	0.07672664
9	0xbd23ac85	-0.03995945
10	0xbcf84a0e	-0.03030875
11	0x3cfccac8	0.030858412
12	0x3c943f44	0.018096574
13	0xbd6cc6cb	-0.05780677
14	0x3da55790	0.08073342
15	0x3d1ae8f7	0.03781983
16	0xbced00a0	-0.028930962
17	0xbdb2be55	-0.08727709
18	0x3d77db81	0.06051207
19	0xbd7fa780	-0.0624156
20	0x3daae5e0	0.083446264
21	0xbc9349bb	-0.017979493
22	0x3c56e6c1	0.013116539
23	0xbd2ba74f	-0.041907605
24	0xbd2dcc7c	-0.04243134
25	0x3ce2eef2	0.027701829
26	0xbd89254c	-0.06696567
27	0xbd2a4d69	-0.04157773
28	0x3d1cb292	0.038256235
29	0x3d573cee	0.05254834
30	0xbc9951c5	-0.018715749
31	0xbd6be09b	-0.057587247
32	0x3d138b83	0.03602172
33	0x3c524e4e	0.012836052
34	0x3d1022ae	0.035189323
35	0x3d94d7ea	0.07267745
36	0x3dcbb98c	0.099475
37	0x3da32ac9	0.07967145
38	0x3d6edab0	0.058314025
39	0xbc8f3bea	-0.017484624
40	0x3d3418ec	0.04396908
41	0xbd431d5c	-0.04763542
42	0x3d04049f	0.03223097
43	0xbcd31d4a	-0.025770802
44	0xbd8051e8	-0.062656224
45	0xbdab6c9f	-0.08370327
46	0xbd93d668	-0.07218629
47	0xbd891aa5	-0.06694535
48	0xbc9db7dc	-0.01925271
49	0xbdafc940	-0.08583307
50	0x3cd5a44d	0.026079321
51	0x3d406fb4	0.04698153
52	0xbd1a2b67	-0.037639048
53	0x3d85d444	0.06534627
54	0xbd47ac8a	-0.04874853
55	0xbc1eda68	-0.009695627
56	0x3d9b6595	0.075877346
57	0x3d8fbff5	0.07019035
58	0x3da18d65	0.07888297
59	0x3d10515f	0.03523385
60	0x3da01a36	0.07817499
61	0x3cc758b5	0.024334291
62	0x3b9f45dc	0.004860623
63	0xbcf47bbe	-0.029844161
64	0xbd09b9c0	-0.03362441
65	0x3dbb1e7d	0.091366746
66	0x3da18f8f	0.0788871
67	0xbd58fbb2	-0.05297441
68	0x3cc649d5	0.024205128
69	0xbceb22b4	-0.028703071
70	0x3d4c4a5a	0.049875595
71	0x3dddb74c	0.10825977
72	0x3c880db5	0.016608099
73	0x3c12b4ee	0.00895427
74	0x3d6a0f9b	0.05714379
75	0x3d3ffb50	0.04687053
76	0x3d24372f	0.04009169
77	0xbd59db13	-0.05318744
78	0x3d0bf73a	0.03417132
79	0xba3eb5a4	-0.00072749914
80	0xbd764bb9	-0.06013081
81	0x3cd4e75f	0.025989233
82	0x3d53f4c5	0.051747102
83	0xbd9fc031	-0.078003295
84	0xbbd05a51	-0.006358423
85	0xbd86b466	-0.06577377
86	0x3d8beed2	0.06832661
87	0x3c446e4f	0.01198919
88	0xbd0c81cb	-0.034303468
89	0x3b0165e4	0.001974457
90	0xbd099b7e	-0.033595555
91	0xbd185325	-0.037188668
92	0x3d120d49	0.0356572
93	0x3dbae138	0.09124988
94	0x3caf8fd4	0.021430887
95	0x3cc37c8d	0.023863101
96	0xbd132e06	-0.035932563
97	0x3d1b0bd2	0.03785307
98	0xbc7fec1a	-0.015620256
99	0x3db54830	0.08851659
100	0x3d922940	0.07136774
101	0x3dc1cd23	0.09462955
102	0xbd0e54e3	-0.034748923
103	0xbd94a691	-0.072583325
104	0x3d117bd4	0.035518482
105	0x3d33fa01	0.043939594
106	0xbd01efa4	-0.03172268
107	0x3d14ee0d	0.036359835
108	0xbda5cc10	-0.080955625
109	0x3d35bc9c	0.044369325
110	0x3de1a9e0	0.11018729
111	0xbd07acb4	-0.033123687
112	0x3ccbae6e	0.024863448
113	0xbd75fedd	-0.06005751
114	0x3d654239	0.055971358
115	0x3d1be598	0.038060755
116	0x3cc549d0	0.024083048
117	0x3d6e362e	0.05815714
118	0xbdab1516	-0.08353631
119	0x3cf65483	0.030069595
120	0x3dd45647	0.103680186
121	0xbcf581d0	-0.029969126
122	0x3a8a71b4	0.0010562451
123	0xbd2c5346	-0.042071603
124	0xbc092afc	-0.008372065
125	0xbc3475fa	-0.011014456
126	0xbd79f44e	-0.061024003
127	0x3d45659d	0.04819261
128	0x3b3b493b	0.0028577584
129	0xbd831bf5	-0.06401817
130	0x3c096c9f	0.008387714
131	0x3cfecb6c	0.031102858
132	0xbda49a40	-0.08037233
133	0xbc835c88	-0.016035333
134	0x3c1acbc9	0.009448
135	0xbcbe1dc8	-0.02320756
136	0x3c23aa3b	0.009989317
137	0x3d9f824f	0.07788526
138	0xbd38de0e	-0.045133643
139	0x3d5f8a17	0.054575052
140	0x3d49e88b	0.049294036
141	0x3cade409	0.0212269
142	0x3da586d5	0.08082358
143	0x3d9ef1ca	0.07760961
144	0xbcd0ef47	-0.025504721
145	0x3d670950	0.056405365
146	0x3df629c6	0.120196864
147	0xbcee81a9	-0.029114561
148	0x3d0c99b2	0.034326263
149	0xbcadd967	-0.02122183
150	0x3d1a2070	0.03762859
151	0xbcfb4477	-0.030672295
152	0xbda1a64d	-0.078930475
153	0xbd56603a	-0.052337863
154	0xbd988766	-0.074477
155	0xbd211d85	-0.039334793
156	0x3d5b2cd5	0.053509552
157	0x3d9979a2	0.07493903
158	0xbd470169	-0.04858533
159	0xbd8a8579	-0.06763739
160	0x3d8214aa	0.063515976
161	0x3d0b9ce2	0.034085162
162	0xbd8569a2	-0.065142885
163	0x3c8e84d3	0.01739732
164	0x3d41db15	0.047328074
165	0x3d01925a	0.031633712
166	0xbd332003	-0.0437317
167	0xbd15c616	-0.036565863
168	0xbd63cec9	-0.055617128
169	0x3c8cfca6	0.017210316
170	0xbd2efe40	-0.04272294
171	0xbc90b1a3	-0.017662829
172	0xbcfa4afa	-0.03055333
173	0xbd08e6de	-0.033423297
174	0x3ca49db4	0.02009473
175	0xbd100991	-0.035165373
176	0xbb546a95	-0.003241216
177	0x3d685239	0.05671904
178	0x3c94e10b	0.018173715
179	0x3d348c46	0.044079088
180	0xbb46f306	-0.0030357256
181	0x3d8234e1	0.06357742
182	0x3d994edb	0.074857436
183	0x3dadcc55	0.08486239
184	0x3db9479c	0.090468615
185	0xbd2c2685	-0.042028923
186	0xba805bb0	-0.000979295
187	0xbbb29074	-0.005449349
188	0xbd6fb681	-0.05852366
189	0x3b856159	0.0040704426
190	0xbdace72e	-0.084425315
191	0x3d578bea	0.052623667
192	0x3ca5cbd2	0.02023879
193	0x39bcba4a	0.0003599695
194	0x3dac1004	0.08401492
195	0x3d5228b2	0.05130834
196	0xbd49f86f	-0.04930919
197	0x3bbfaf2a	0.0058497386
198	0xbd60b008	-0.054855376
199	0x3cdc625e	0.026902374
200	0x3d0404fb	0.032231312
201	0x3d95bba7	0.073111825
202	0x3c2427d1	0.010019259
203	0xbd6586d3	-0.05603678
204	0x3d9470d9	0.072480865
205	0x3d6eb7d0	0.058280766
206	0xbcbdd9a9	-0.023175078
207	0xbd8844f4	-0.06653777
208	0xbd823ea3	-0.06359603
209	0xbd446f49	-0.047957692
210	0xbc947fc8	-0.018127337
211	0xbd81a3be	-0.063300595
212	0x3ba5e0dd	0.005062206
213	0x3cd08910	0.025455981
214	0xbd413c0b	-0.047176402
215	0x3dddf61e	0.10837959
216	0x3dccfd1e	0.10009216
217	0x3c8b616c	0.017014228
218	0x3d688d70	0.05677551
219	0xbcbcf3b4	-0.023065425
220	0xbdae5091	-0.085114606
221	0xbc67a17e	-0.014137624
222	0x3a15feaf	0.000572185
223	0xbd29189b	-0.04128323
224	0x3d32dff6	0.043670617
225	0xbd23a089	-0.03994802
226	0x3d9a328e	0.07529174
227	0x3d7e654c	0.062108323
228	0xbd96295b	-0.07332107
229	0x3c179001	0.009250642
230	0x3ccfb4f4	0.02535484
231	0xbc3695b5	-0.011144091
232	0x3daf64ac	0.085641235
233	0xbd81fe75	-0.06347362
234	0xbc06191a	-0.008184696
235	0x3cf62fd8	0.03005211
236	0x3d5cd577	0.053914513
237	0xbd48f057	-0.04905733
238	0x3dbb7a74	0.091542155
239	0x3d6c319d	0.057664502
240	0xbcb5ee26	-0.022208285
241	0xbd1efe9b	-0.03881703
242	0x3d166141	0.036713842
243	0xbd400afc	-0.046885476
244	0xbd1ac05b	-0.0377811
245	0xbd41d1b5	-0.047319133
246	0x3abd9742	0.0014464634
247	0xbcae6d36	-0.02129231
248	0xbc952d9c	-0.018210225
249	0xbcb6d401	-0.022317888
250	0xbc2e2154	-0.010628063
251	0x3d35fb02	0.044428833
252	0x3c2ad3b7	0.010426453
253	0xbcebc8f1	-0.02878234
254	0x3d8f30cf	0.069917314
255	0xbd6546f9	-0.055975888

bias f4 [64]
0	0x3dfaa681	0.12238789
1	0x3e412486	0.18861589
2	0xbd37de5a	-0.044889785
3	0x3de99a72	0.11406411
4	0x3cb6428a	0.022248525
5	0xbdaebc1e	-0.08531974
6	0xbbc51a23	-0.0060150786
7	0xbca0ffb3	-0.019653177
8	0x3c076e34	0.008266021
9	0xbd360983	-0.044442665
10	0x3da90d6f	0.082545154
11	0xbd07f6e5	-0.03319444
12	0xbc4a0205	-0.012329583
13	0x3d39cba4	0.045360222
14	0x3b3c4ff0	0.002873417
15	0xbcce7f54	-0.0252072
16	0xbcc67e77	-0.024230225
17	0xbbd97353	-0.006636062
18	0x3de8a7b1	0.113601096
19	0x3d091f24	0.033476964
20	0x3d2624ec	0.040562555
21	0xbd7b254a	-0.06131486
22	0xbd6f87d2	-0.058479138
23	0x3ab71b74	0.0013969974
24	0xbcd88e42	-0.026435021
25	0x3cb2edd5	0.021841923
26	0x3de11f38	0.10992283
27	0x3bd1f70e	0.006407625
28	0xbd90524e	-0.070469484
29	0x3cd0061d	0.02539354
30	0x3cf887af	0.030338136
31	0xbcdae1f6	-0.026719075
32	0xbd074073	-0.033020448
33	0xbd226cb9	-0.039654467
34	0xbc93e137	-0.018051727
35	0xbcb8d4c8	-0.0225624
36	0xbd97f3e3	-0.074195646
37	0xbd827183	-0.06369307
38	0x3e1954e1	0.14973785
39	0xbd60915f	-0.054826137
40	0xbc4564fb	-0.012048001
41	0x3bdfeb45	0.0068334662
42	0x3e315deb	0.17320983
43	0xbdad7525	-0.08469609
44	0xbaac4134	-0.0013141991
45	0xbd195791	-0.037437025
46	0x3e3086c6	0.17238912
47	0x3c1c3fdf	0.009536712
48	0x3e527560	0.20552588
49	0x3d9382b3	0.07202663
50	0xbd302c14	-0.043010786
51	0xbc09db78	-0.008414142
52	0x3e262e6a	0.16228643
53	0x3e198f8c	0.14996165
54	0xbc7d00eb	-0.015442113
55	0xbd48648a	-0.048924007
56	0xbd3d8664	-0.046270743
57	0x3d008b83	0.03138305
58	0x3ce64134	0.028107263
59	0xbce23677	-0.027613861
60	0x3dc7e81b	0.097610675
61	0x3e3b223b	0.18274777
62	0x3e5e576a	0.21713033
63	0x3d1081a3	0.03527988

weight f4 [2, 64]
0	0x3e5fbccd	0.21849366
1	0x3e73ee9a	0.23821488
2	0xbd3c300a	-0.04594425
3	0x3e314b09	0.1731378
4	0x3d9b6ee7	0.07589512
5	0xbd0355d0	-0.03206426
6	0xbd4989b1	-0.04920358
7	0x3cb1952c	0.021677576
8	0xbdc0c643	-0.094128154
9	0xbdc6cb8b	-0.097067915
10	0x3e769396	0.24079737
11	0xbdcffeda	-0.10156031
12	0xbaf2c2dc	-0.0018521207
13	0x3c80d352	0.015725765
14	0xbdc907d6	-0.09815948
15	0xbdcf5c92	-0.10125078
16	0xbd661ff5	-0.05618282
17	0xbd881c65	-0.06646041
18	0x3d3963fb	0.045261364
19	0xbda6bff5	-0.08142082
20	0x3c5b911b	0.013401295
21	0x3d59a534	0.053136066
22	0xbd9ea34e	-0.07745992
23	0x3e37c9b2	0.17948034
24	0x3df82154	0.12115732
25	0x3d7fb2f3	0.06242652
26	0x3e216f9e	0.15765235
27	0xbc49e7e7	-0.012323356
28	0xbdf086d1	-0.11744464
29	0x3d0c45d5	0.034246285
30	0xbcc46aab	-0.023976645
31	0x3d9fbcf2	0.0779971
32	0x3de3cfd9	0.11123628
33	0x3a4798de	0.00076140265
34	0xbd7fdee0	-0.06246841
35	0xbc356052	-0.011070328
36	0xbdaec065	-0.0853279
37	0xbdd0b409	-0.10190589
38	0x3e4495af	0.19197725
39	0x3bbdad98	0.0057885163
40	0x3cba28ad	0.022724474
41	0xbb0f497f	-0.0021863875
42	0x3e50fe38	0.20409477
43	0x3dc5a21a	0.09650059
44	0xbd186551	-0.037205998
45	0x3b00a356	0.0019628606
46	0x3e6b7593	0.2299407
47	0xbd281a13	-0.04104049
48	0x3e82e62f	0.2556624
49	0x3e28375e	0.16427371
50	0x3e00c39a	0.12574616
51	0x3d51c4f7	0.05121323
52	0x3e5d6e4e	0.21624109
53	0x3e454613	0.19265012
54	0x3b190bd8	0.0023353007
55	0xbddb929c	-0.10721323
56	0xbd1b2110	-0.037873328
57	0xbd8b0521	-0.06788088
58	0x3df0865e	0.117443785
59	0x3dc550a6	0.09634523
60	0x3dc73deb	0.09728607
61	0x3e51386d	0.20431681
62	0x3e8f1369	0.27944496
63	0x3c80745b	0.015680483
64	0xbe1b6e19	-0.15178718
65	0xbdd08f8d	-0.1018363
66	0x3cb6647e	0.022264715
67	0x3c5470b7	0.012966326
68	0x3d952843	0.0728307
69	0x3ddbc6c7	0.10731273
70	0x3d832c0b	0.06404885
71	0x3dc5ab70	0.0965184
72	0xbc8e0e2b	-0.01734074
73	0x3c7c9950	0.015417412
74	0xbdd9057b	-0.105967484
75	0x3df18347	0.11792617
76	0xbd27d155	-0.04097112
77	0x3cad008f	0.02111843
78	0xbd9bf532	-0.07615127
79	0xbdcd6a3e	-0.1003003
80	0x3d361e07	0.04446223
81	0xbdaa6abc	-0.08321139
82	0xbe3a4b5b	-0.18192808
83	0x3cae667a	0.021289099
84	0x3cbbfa01	0.02294636
85	0xbb55d91a	-0.0032630623
86	0xbdff6bab	-0.12471708
87	0xbd786192	-0.060639925
88	0xbdffc744	-0.12489179
89	0xbce5dc65	-0.028059194
90	0xbe587de4	-0.21141773
91	0xbdd1c7da	-0.10243197
92	0xbde03945	-0.10948423
93	0xbe33272f	-0.17495416
94	0xbdb1ba8f	-0.08678161
95	0x3da76951	0.081743844
96	0xbd1aa356	-0.037753426
97	0x3d53de16	0.05172547
98	0x3db78eb5	0.08962766
99	0x3de33564	0.11094168
100	0x3d22966c	0.039694235
101	0x3d8f31df	0.06991934
102	0xbde25186	-0.110507056
103	0xbcc66268	-0.024216846
104	0x3dba0650	0.09083235
105	0x3d258512	0.04041011
106	0xbe383d9d	-0.17992254
107	0x3d845b3e	0.064627156
108	0x3dbecb47	0.09316116
109	0x3d0c3fb4	0.03424044
110	0xbe024e5b	-0.12725203
111	0xbce7403f	-0.028228877
112	0xbe0eac55	-0.13932927
113	0xbde7df2a	-0.11321862
114	0xbde36f06	-0.111051604
115	0x3df87f9b	0.12133714
116	0xbe73e984	-0.23819548
117	0xbe20905d	-0.1568007
118	0xbca24aa2	-0.019810978
119	0x3d1f1aa2	0.03884376
120	0xbd3f3b2c	-0.04668729
121	0xbe274b07	-0.16337214
122	0xbe03664b	-0.1283199
123	0x3d208d24	0.039197102
124	0xbe2de22b	-0.16980807
125	0xbe65578e	-0.2239668
126	0xbe1910e4	-0.1494785
127	0xbda03105	-0.0782185

bias f4 [2]
0	0x3f5c68bd	0.8609732
1	0xbf4365bd	-0.76327115
